marble_model/best_model_v3.0_20250531_012537.pt (torch, 295593 bytes, 30 tensors)

token_embedding.weight f4 [13, 64]
-0.013580409 0.004969337 0.018095236 -0.0160086 0.031511854 -0.030264474 0.0056149 -0.009511312
0.009825644 0.025063336 0.013439217 -0.01466743 0.029760594 -0.026325379 0.012799774 -0.043741964
0.018907333 0.012434018 -0.014806331 0.018242087 0.02214759 -0.025494277 -0.004976435 0.017320829
0.018918974 0.0016843459 -0.034922488 0.007963535 0.0130252205 0.004178097 -0.012685246 0.022848522
-0.02843312 -0.0051417667 0.00018171749 0.028599849 -0.008265999 0.00197219 -0.020284856 -0.00883165
-0.022159273 -0.00030690964 0.017091695 -0.001192737 -0.001280624 0.0102504045 0.01837197 1.0563177e-05
0.0049127955 0.030371722 0.027907057 -0.01922228 0.00041283888 -0.010323752 -0.017972795 0.02434792
0.032295287 0.02167783 0.0233862 0.0106397495 -0.016853822 0.00032082677 -0.003078447 0.037068028
-0.03769593 -0.04130639 -0.008671584 0.0077687916 0.03430472 -0.0015885492 -0.03235296 -0.021731978
0.026337977 0.004777123 -0.027923292 -0.0008342081 -0.013775843 -0.009581375 -0.04280405 0.0021603883
0.064316764 0.020449998 0.008736219 -0.013913119 -0.0077334726 -0.0005672018 -0.009601122 -0.013807308
0.022776434 0.019504884 -0.033643432 0.009834235 0.00025938457 0.01180948 -0.01462178 0.023483934
-0.02604421 0.025544934 -0.04857898 -0.043782767 -0.033864386 -0.020660305 0.041062746 -0.056469068
0.01227457 0.014216929 -0.02773549 0.019288383 0.030109886 -0.030123388 0.0005899585 0.021212038
0.03684555 -0.030724395 0.0014640795 0.04409185 -0.017075505 0.039027072 -0.043152057 -0.011142328
0.029235497 -0.025170732 -0.0384335 -0.0041809916 0.013268754 0.0052333274 -0.015442732 0.008100035
0.0042218226 -0.028371813 -0.010436492 -0.0092708 0.0049679335 0.0026112304 0.014543334 0.009066258
-0.014767332 0.008770632 0.01751998 0.029268563 0.028252313 -0.010372153 -0.022915866 0.02495788
-0.027045924 0.00033583443 0.0055164606 0.016735762 -0.016057093 -0.01768355 0.04116773 -0.0018253264
-0.017087562 0.023465805 -0.0055778604 0.01323035 0.013391632 0.00074586977 0.004991803 -0.0026243075
0.016709127 0.019925244 0.0038114658 0.028359344 0.018321756 -0.017846582 0.022843203 -0.044156186
0.016151465 -0.03117267 -0.026624365 0.011593917 -0.02936113 -0.011312774 0.0056242417 -0.0104847085
0.023282902 0.019587388 -0.003381806 0.0050680325 -0.0105527 0.024052637 -0.04875926 0.004994698
-0.026233682 0.019107865 -0.017417584 -0.03598443 0.002354938 -0.06494294 -0.018150164 0.009882068
0.008860213 0.01369418 -0.003910214 0.011403862 -0.025995905 0.002775725 0.003567773 -0.0030447536
0.005981332 -0.016973883 0.011640801 0.0059464662 0.014165818 0.024407245 -0.0015869723 0.010570611
-0.010337622 0.0009811511 -0.014079003 0.0048987437 -0.0323131 0.00048522186 0.0054891557 0.02912349
-0.0039251694 -0.013066285 0.000384522 -0.00830561 -0.016719028 -0.03484527 -0.02127132 -0.0044946
0.005148168 -0.03816297 -0.011571043 0.031863224 0.023476962 -0.010368017 0.002662674 0.0025340198
-0.0062645413 -0.0029567503 0.00026233893 -0.006035643 -0.012750306 -0.008939424 -0.019650439 -0.02220104
0.008469726 0.0044206697 0.021279536 0.010152449 -0.002760053 -0.0049586296 -0.0038609232 0.016209949
-0.01512684 -0.013694514 0.002548387 -0.01358109 0.010731269 -0.007764955 -0.002463906 -0.007322474
00000000: 5d80 5ebc d2d5 a23b 763c 943c 7824 83bc
00000010: 9312 013d 34ed f7bc 32fd b73b 55d5 1bbc
00000020: bdfb 203c a051 cd3c 2930 5c3c a94f 70bc
00000030: 7dcc f33c 52a8 d7bc 25b6 513c c62a 33bd
00000040: 8de3 9a3c 0db8 4b3c 4196 72bc 6e70 953c
00000050: dd6e b53c 60d9 d0bc 5d11 a3bb 69e4 8d3c
00000060: f7fb 9a3c 45c5 dc3a e20a 0fbd 7d79 023c
00000070: bc67 553c 6be8 883b c7d5 4fbc d32c bb3c
00000080: 93ec e8bc 447c a8bb 6b8b 3e39 3b4a ea3c
00000090: 1d6e 07bc dc3f 013b 6d2c a6bc a0b2 10bc
000000a0: 5d87 b5bc b7e8 a0b9 e203 8c3c 9d55 9cba
000000b0: 9cda a7ba 50f1 273c d080 963c 8038 3137
000000c0: 84fb a03b 1ece f83c 579d e43c 0b78 9dbc
000000d0: 4c72 d839 f424 29bc af3b 93bc 4a75 c73c
000000e0: 1048 043d b495 b13c 6b94 bf3c 5852 2e3c
000000f0: 0711 8abc a434 a839 c5bf 49bb a5d4 173d
00000100: 0c67 1abd e430 29bd 4213 0ebc 5991 fe3b
00000110: 1b83 0c3d de36 d0ba 8a84 04bd 4307 b2bc
00000120: bec2 d73c 6a89 9c3b 63bf e4bc c2ae 5aba
00000130: 13b4 61bc 33fb 1cbc 4d53 2fbd 4d95 0d3b
00000140: 82b8 833d c186 a73c 5c22 0f3c daf3 63bc
00000150: 1269 fdbb 45b0 14ba 064e 1dbc 0c38 62bc
00000160: a595 ba3c b5c8 9f3c b2cd 09bd c51f 213c
00000170: 02fe 8739 8d7c 413c 3190 6fbc 6161 c03c
00000180: ab5a d5bc 9c43 d13c c1fa 46bd 8f55 33bd
00000190: 62b5 0abd cd3f a9bc 6931 283d 1c4c 67bd
000001a0: 471b 493c 1fee 683c 8a35 e3bc ac02 9e3c
000001b0: 02a9 f63c 53c5 f6bc 72a7 1a3a dec4 ad3c
000001c0: 5ceb 163d bab1 fbbc 5be6 bf3a a899 343d
000001d0: eee1 8bbc dada 1f3d 36c0 30bd 508e 36bc
000001e0: 487f ef3c da32 cebc 726c 1dbd b300 89bb
000001f0: 3065 593c 557c ab3b 8303 7dbc 02b6 043c
00000200: 3757 8a3b 016c e8bc d2fd 2abc 8ee4 17bc
00000210: 0cca a23b 2d21 2b3b 2a47 6e3c a48a 143c
00000220: aef2 71bc b2b2 0f3c 1086 8f3c a0c4 ef3c
00000230: 6571 e73c f6ef 29bc 0eba bbbc 7874 cc3c
00000240: 6a8f ddbc ef12 b039 6dc3 b43b 7019 893c
00000250: 2a8a 83bc 18dd 90bc 7e9f 283d ca3f efba
00000260: 37fb 8bbc 5c3b c03c 7cc6 b6bb 1cc4 583c
00000270: 9368 5b3c 7986 433a 4792 a33b 93fc 2bbb
00000280: 94e1 883c 443a a33c c9c9 793b db51 e83c
00000290: 8217 963c ff32 92bc ab21 bb3c 1edd 34bd
000002a0: 1450 843c d45d ffbc 571b dabc 6af4 3d3c
000002b0: c186 f0bc 3759 39bc 8f4b b83b 0ec8 2bbc
000002c0: c9bb be3c bb75 a03c 4aa1 5dbb bd11 a63b
000002d0: 3be5 2cbc 090a c53c cab7 47bd 90aa a33b
000002e0: 05e8 d6bc 1988 9c3c 52af 8ebc 6964 13bd
000002f0: 4e55 1a3b ce00 85bd a7af 94bc 66e8 213c
00000300: 6d2a 113c 8e5d 603c 4121 80bb 44d7 3a3c
00000310: 5df5 d4bc f0e8 353b 4cd1 693b 7d8a 47bb
00000320: 0dff c33b d00c 8bbc 0fb9 3e3c 93da c23b
00000330: bf17 683c b4f1 c73c f401 d0ba 5b30 2d3c
00000340: 215f 29bc f899 803a 9eab 66bc a485 a03b
00000350: be5a 04bd 6065 fe39 60de b33b 6394 ee3c
00000360: b59e 80bb f913 56bc ab99 c939 4114 08bc
00000370: 58f6 88bc eab9 0ebd 3141 aebc 7047 93bb
00000380: f7b1 a83b c650 1cbd 7994 3dbc 0383 023d
00000390: c252 c03c 9dde 29bc 4280 2e3b cc11 263b
000003a0: c846 cdbb 0ac6 41bb 898a 8939 a5c6 c5bb
000003b0: a9e6 50bc a976 12bc f5f9 a0bc f5de b5bc
000003c0: 9bc4 0a3c 44db 903b 6c52 ae3c 7556 263c
000003d0: 01e2 34bb 007c a2bb 8b07 7dbb baca 843c
000003e0: 91d6 77bc f45e 60bc d702 273b 3883 5ebc
000003f0: 34d2 2f3c 2a71 febb 7c79 21bb 5df1 efbb

position_embedding.weight f4 [30, 64]
-0.019471673 -0.020222222 0.04341171 0.041044325 0.0043290504 0.003709178 -0.027604295 -0.04432378
0.02442546 0.060781106 -0.010630084 -0.049126685 -0.02712053 -0.018440071 -0.012613969 -0.03442571
-0.003132771 0.03604907 0.027654383 -0.024419118 0.019963346 -0.04787176 -0.031958517 -0.018025998
0.010102666 0.012801482 -0.023089066 0.0049592964 0.0018410446 0.017824352 0.03683233 0.023346025
-0.049964022 -0.0028600565 -0.026145477 -0.030427521 -0.013457033 -0.047874834 0.011670204 -0.0111422185
0.020086631 0.029837565 -0.044303834 0.033352114 0.023197362 -0.027197333 0.008747621 0.008978966
0.01528627 -0.024768263 -0.029617285 0.018586772 -0.017090824 0.012458579 -0.019489413 -0.039523963
0.003371512 -0.03285593 -0.024826674 0.043615077 0.028855203 -0.027028386 -0.03885661 0.018697847
-0.023047691 0.009625473 -0.04901052 0.008797451 -0.0215524 -0.020739712 0.02405093 0.04624362
0.004084609 0.006226267 0.030962223 0.013404896 0.043019477 -0.016353844 0.030662788 0.00032914995
-0.0024522184 -0.029017711 -0.009288341 0.0036775884 -0.00072115334 0.02946284 0.028587226 0.010008688
-0.0057552313 -0.009531571 0.017438123 0.024270425 -0.017644653 -0.028833475 -0.046086263 0.03478354
0.016628671 -0.022946548 -0.019674448 -0.0065741516 -0.0036897531 0.005906899 -0.018361492 0.00689597
-0.013208544 0.04223976 -0.023773389 -0.019066405 -0.028805386 -0.014695014 -0.014986727 -0.014531089
0.0044982154 0.03825811 -0.014268773 -0.037112575 0.0040760865 0.01890605 0.021691006 -0.01693808
-0.0013994783 -0.025173815 0.02724834 -0.03215017 0.02157698 -0.015633203 0.005768305 -0.010734604
-0.027570171 -0.027392648 -0.013213653 0.0036839927 0.02071862 -0.043843366 0.033277433 0.031657424
-0.03922857 0.023091946 0.007525772 -0.037580423 0.024806043 -0.033056706 0.02103299 -0.013212478
0.034411203 -0.011618012 0.0027174477 0.017747177 -0.011246221 0.026264077 0.034003742 -0.029498588
0.02866466 -0.013437918 -0.00197023 0.04759377 -0.025499636 -0.008302489 -0.012319036 0.00890432
0.013072596 0.015008403 -0.012721475 -0.022140652 -0.0075238394 0.042255934 -0.024484923 0.0294904
-0.022066215 0.03082568 0.023103988 -0.0050850194 -0.025227651 -0.017648647 -0.009418509 -0.022085536
-0.030298961 0.019296337 -0.012333001 -0.045093212 0.029007329 0.021145409 0.027217614 -0.031793624
-0.0058997637 0.0005000845 0.02281599 -0.011695326 0.013394719 -0.009243987 0.026802795 -0.017356018
0.03909366 -0.021347469 -0.041930556 -0.04184663 -0.021264795 0.036759365 -0.045105588 0.017658465
0.013507992 0.034370393 -0.052366454 0.024913335 -0.03615568 0.019957539 0.039871138 0.013503205
0.013996649 0.022777604 -0.014514728 -0.014713596 -0.006186721 -0.030042084 -0.046582088 0.02706946
-0.024945028 -0.048930485 -0.045631237 -0.026383795 -0.024127916 0.035723742 -0.032358814 -0.034369353
-0.03709381 -0.024090003 0.035401817 -0.0005067238 0.005043903 -0.03522535 0.032209218 -0.017078469
0.031008963 -0.022393651 -0.0410038 -0.03505258 -0.0371315 -0.0002804688 -0.035001565 0.044071797
0.032542303 0.019942017 0.007313323 0.04805211 -0.033576112 0.033591885 0.036916874 0.025564557
-0.024872797 0.04288205 0.021962468 -0.028654223 0.0135245845 -0.04476189 -0.03134427 -0.048754364
00000000: 0f83 9fbc 13a9 a5bc 7ad0 313d 181e 283d
00000010: b5da 8d3b ae15 733b 6722 e2bc da8c 35bd
00000020: e717 c83c 9cf5 783d ce29 2ebc 1039 49bd
00000030: e02b debc a20f 97bc d2aa 4ebc f901 0dbd
00000040: 2d4f 4dbb 31a8 133d 728b e23c 9a0a c8bc
00000050: 2c8a a33c 2e15 44bd efe6 02bd 42ab 93bc
00000060: a785 253c 4fbd 513c 4825 bdbc 9881 a23b
00000070: 354f f13a 6004 923c 7fdd 163d 2a40 bf3c
00000080: 13a7 4cbd c96f 3bbb 0a2f d6bc 2343 f9bc
00000090: e37a 5cbc 6718 44bd 6234 3f3c da8d 36bc
000000a0: b88c a43c e96d f43c f077 35bd 3a9c 083d
000000b0: 6508 be3c f1cc debc 2f52 0f3c 831c 133c
000000c0: 4373 7a3c d0e6 cabc f39f f2bc 4943 983c
000000d0: 0e02 8cbc 111f 4c3c 43a8 9fbc e1e3 21bd
000000e0: 96f4 5c3b f193 06bd 4f61 cbbc b9a5 323d
000000f0: bf61 ec3c a26a ddbc 1c28 1fbd 3a2c 993c
00000100: 83ce bcbc 29b4 1d3c 41bf 48bd 2f23 103c
00000110: a98e b0bc 54e6 a9bc 7506 c53c f369 3d3d
00000120: 2fd8 853b b705 cc3b 7da4 fd3c 35a0 5b3c
00000130: 3135 303d 7ff8 85bc 8730 fb3c c291 ac39
00000140: 66b5 20bb 8db6 edbc 202e 18bc b203 713b
00000150: c80b 3dba 0e5c f13c c22f ea3c 7bfb 233c
00000160: 6196 bcbb 4e2a 1cbc 65da 8e3c c5d2 c63c
00000170: 858b 90bc 2e34 ecbc f3c4 3cbd 2f79 0e3d
00000180: da38 883c 66fa bbbc 4f2c a1bc fb6b d7bb
00000190: c9cf 71bb a98e c13b d76a 96bc 97f7 e13b
000001a0: a668 58bc 9903 2d3d 69c0 c2bc 2631 9cbc
000001b0: 46f9 ebbc 5bc3 70bc e48a 75bc ce13 6ebc
000001c0: c465 933b 89b4 1c3d 92c7 69bc 5b03 18bd
000001d0: b190 853b dce0 9a3c 56b1 b13c bac1 8abc
000001e0: b36e b7ba 5139 cebc e937 df3c e6af 03bd
000001f0: 35c2 b03c 3411 80bc 0d04 bd3b 31e0 2fbc
00000200: d7da e1bc 8c66 e0bc 147e 58bc 246f 713b
00000210: 18ba a93c 1a95 33bd eb4d 083d 37ab 013d
00000220: 23ae 20bd 522b bd3c c09a f63b eeed 19bd
00000230: 0b36 cb3c 7866 07bd 614d ac3c 2679 58bc
00000240: c3f2 0c3d 7959 3ebc 3517 323b 8762 913c
00000250: 1242 38bc c327 d73c 8247 0b3d 06a7 f1bc
00000260: 26d2 ea3c b72a 5cbc f91e 01bb aff1 423d
00000270: 9de4 d0bc 2a07 08bc c8d5 49bc 6de3 113c
00000280: 712e 563c cee5 753c bc6d 50bc 5060 b5bc
00000290: 8a8a f6bb 8f14 2d3d 9b94 c8bc da95 f13c
000002a0: 35c4 b4bc 2386 fc3c 9344 bd3c 3ca0 a6bb
000002b0: 38aa cebc e593 90bc 1750 1abc baec b4bc
000002c0: 8735 f8bc 5a13 9e3c 5b10 4abc a9b3 38bd
000002d0: c7a0 ed3c 2339 ad3c 79f7 de3c 083a 02bd
000002e0: ce52 c1bb 1a18 033a 99e8 ba3c c19d 3fbc
000002f0: 8675 5b3c 1774 17bc 8991 db3c 352e 8ebc
00000300: ac20 203d e3e0 aebc 60bf 2bbd 5f67 2bbd
00000310: 8233 aebc fd90 163d a3c0 38bd 7ca8 903c
00000320: a050 5d3c f8c7 0c3d 357e 56bd 0d17 cc3c
00000330: fa17 14bd fe7d a33c eb4f 233d 8c3c 5d3c
00000340: 3352 653c 1998 ba3c 2fcf 6dbc 4b11 71bc
00000350: fab9 cabb d11a f6bc dccc 3ebd c6c0 dd3c
00000360: 8459 ccbc 556b 48bd d2e7 3abd d422 d8bc
00000370: e8a7 c5bc 0f53 123d ad8a 04bd e1c6 0cbd
00000380: aeef 17bd 6658 c5bc 7f01 113d a9d5 04ba
00000390: 5347 a53b 7548 10bd d0ed 033d 25e8 8bbc
000003a0: 8206 fe3c e472 b7bc 9af3 27bd 4b93 0fbd
000003b0: 3317 18bd e30b 93b9 cd5d 0fbd a184 343d
000003c0: 144b 053d 715d a33c 9aa4 ef3b 4ad2 443d
000003d0: 1b87 09bd a597 093d 2636 173d c36c d13c
000003e0: 09c2 cbbc 17a5 2f3d a2ea b33c 43bc eabc
000003f0: 3896 5d3c 3e58 37bd d962 00bd a8b2 47bd

transformer.layers.0.self_attn.in_proj_weight f4 [192, 64]
0.1231284 -0.03688253 0.041194435 -0.08248815 0.16355012 -0.12967657 -0.08114354 0.063456334
0.08948355 0.13343823 -0.060482293 0.09100262 -0.005175775 0.037764397 -0.019600663 -0.09656339
-0.023239182 -0.014325422 -0.12618527 0.11194579 0.061687954 0.020320678 0.059458423 -0.023361685
0.06095978 0.13174853 0.035143565 0.15985902 0.059877593 0.08198482 -0.13267513 0.0726183
0.03814313 0.022210704 0.16444258 -0.06398112 0.13395897 -0.07818069 0.096356146 0.1288922
0.1385281 -0.08412732 0.001909544 0.052615695 0.08201239 -0.066584736 -0.0359964 0.087200835
0.0013442824 0.0008868194 -0.016272029 0.017071053 -0.013767569 -0.014154456 0.11723439 -0.0129771065
0.07082911 -0.1206725 -0.036434807 -0.07074472 -0.10233886 0.06719751 0.010863904 -0.0017006168
-0.024408635 0.15961497 0.059217494 0.12007899 -0.12749828 -0.05153314 -0.18884438 -0.18189466
0.123548165 0.07386279 -0.18174678 -0.10537999 -0.1060314 -0.030391945 0.09559595 -0.02845102
0.03296415 -0.027015828 -0.17296891 -0.009264867 0.010153316 -0.039095785 -0.12668471 0.15370408
0.007982639 -0.03536399 -0.030435963 -0.14530548 -0.053670004 -0.07434168 -0.16983707 -0.041452125
-0.0625141 0.051109992 -0.07844328 -0.07155105 -0.013523161 -0.09056571 -0.026064936 -0.103792734
-0.053916693 -0.028116243 -0.13121605 0.10407402 -0.02589845 0.103785194 -0.14324658 0.094373785
-0.008159118 -0.0823419 0.020660415 -0.018207556 -0.10693641 -0.061635856 -0.106276624 0.13485995
-0.035715405 -0.03256754 0.08557281 -0.05491552 0.04801755 -0.11564941 0.059658024 -0.039568
-0.10178634 -0.14282522 0.031184051 -0.11925631 0.021695163 -0.116736 -0.03235996 0.10270922
-0.052866206 -0.05638932 0.111140065 0.07439532 -0.09506446 -0.12309492 0.014687713 0.10315695
0.09844863 0.07537713 -0.14001484 -0.04550515 0.09845127 -0.027204802 -0.15816982 0.11094169
0.027784834 0.078727685 -0.020239025 -0.024338173 0.024993781 -0.0428453 0.050787948 -0.05326748
-0.107788205 -0.06471301 -0.028112601 0.008149742 0.0056700786 -0.15813577 0.078605376 -0.13410746
0.09510821 -0.016143288 -0.057382956 -0.070466466 0.12879232 0.13728046 0.008135769 -0.069681354
-0.11404542 0.12715316 0.022640944 0.10184036 -0.008994802 0.087082125 0.15717657 -0.032011934
-0.005545261 0.14502873 0.12014552 0.0463 0.094345555 0.059978936 -0.011662825 -0.0523798
-0.15743072 0.05191354 0.11341689 0.1485772 -0.00037454508 0.14046524 -0.074517034 0.069920085
0.101084396 0.12554689 -0.07202975 0.122848876 -0.13000274 0.031841576 0.034548625 -0.005512263
0.07786532 -0.13645108 0.048051525 0.091247395 -0.043695144 0.0019115485 0.06429875 -0.015828824
-0.029379886 0.12013668 0.07259606 -0.034325182 0.05426337 0.13492633 -0.1329192 0.09851697
-0.04282872 0.15040699 0.105726436 0.12159744 0.07639975 -0.0906845 0.04560463 0.07749945
0.056635533 0.03104286 -0.12419787 0.11310633 0.08145875 0.14516987 -0.08311466 0.09584735
0.016351651 -0.06755517 0.061114144 -0.13906312 -0.1413792 -0.019291192 0.15836442 0.12690583
0.07884142 -0.082574196 0.12595195 0.009061125 -0.15090825 0.099421374 -0.09514347 0.021476433
00000000: be2a fc3d 2312 17bd 7fbb 283d 8cef a8bd
00000010: af79 273e efc9 04be 962e a6bd 65f5 813d
00000020: 2743 b73d 08a4 083e 48bc 77bd 955f ba3d
00000030: 8c99 a9bb d7ae 1a3d 9291 a0bc 07c3 c5bd
00000040: 1960 bebc 2db5 6abc b636 01be d643 e53d
00000050: 82ac 7c3d 8d77 a63c ad8a 733d 0161 bfbc
00000060: f6b0 793d 16e9 063e b3f2 0f3d 15b2 233e
00000070: 3542 753d a8e7 a73d fddb 07be e7b8 943d
00000080: f83b 1c3d 39f3 b53c a363 283e 8908 83bd
00000090: 8a2c 093e 331d a0bd 5f56 c53d 51fc 033e
000000a0: 4fda 0d3e f24a acbd aa49 fa3a 8e83 573d
000000b0: 1df6 a73d 945d 88bd f670 13bd 5a96 b23d
000000c0: a232 b03a 7179 683a eb4c 85bc 98d8 8b3c
000000d0: 5f91 61bc 17e8 67bc 9518 f03d ee9d 54bc
000000e0: da0e 913d 2523 f7bd aa3c 15bd 9ce2 90bd
000000f0: 0997 d1bd d99e 893d 84fe 313c 3be7 deba
00000100: 9ef4 c7bc 1b72 233e 0b8e 723d f9eb f53d
00000110: e98e 02be 6a14 53bd 6c60 41be 9842 3abe
00000120: d206 fd3d 6045 973d d41b 3abe 77d1 d7bd
00000130: fe26 d9bd 87f8 f8bc cfc7 c33d 1d12 e9bc
00000140: 6b05 073d 4c50 ddbc c31e 31be abcb 17bc
00000150: 185a 263c e722 20bd a3b9 01be 9a64 1d3e
00000160: 9dc9 023c d5d9 10bd d754 f9bc f6ca 14be
00000170: 14d5 5bbd 7340 98bd c5e9 2dbe b4c9 29bd
00000180: 6407 80bd b658 513d dfa6 a0bd 5b89 92bd
00000190: 4090 5dbc 847a b9bd 2286 d5bc 4991 d4bd
000001a0: c0d7 5cbd 0954 e6bc 805d 06be c324 d53d
000001b0: fc28 d4bc 558d d43d 3baf 12be 0b47 c13d
000001c0: d2ad 05bc dfa2 a8bd 0840 a93c 0328 95bc
000001d0: 7a01 dbbd e175 7cbd 8fa7 d9bd ba18 0a3e
000001e0: 514a 12bd 8a65 05bd cc40 af3d 19ef 60bd
000001f0: 0dae 443d 99d9 ecbd f95b 743d 0e12 22bd
00000200: 5b75 d0bd c640 12be b275 ff3c a73c f4bd
00000210: 0eba b13c 4913 efbd e18b 04bd 3659 d23d
00000220: 3c8a 58bd 7df8 66bd 679d e33d 935c 983d
00000230: 28b1 c2bd 3019 fcbd bca4 703c f343 d33d
00000240: 6f9f c93d 535f 9a3d 0d60 0fbe 9c63 3abd
00000250: d2a0 c93d 9bdc debc 45f7 21be 6635 e33d
00000260: 059d e33c fb3b a13d 50cc a5bc d960 c7bc
00000270: c2bf cc3c 8e7e 2fbd 0607 503d 002f 5abd
00000280: 10c0 dcbd 4188 84bd 664c e6bc 7f86 053c
00000290: 11cc b93b 58ee 21be dbfb a03d 7753 09be
000002a0: 18c8 c23d ee3e 84bc 640a 6bbd b950 90bd
000002b0: 22e2 033e 4093 0c3e e34b 053c 19b5 8ebd
000002c0: a590 e9bd 7034 023e 8079 b93c ae91 d03d
000002d0: ef5e 13bc 1d58 b23d e5f2 203e f21e 03bd
000002e0: 05b5 b5bb 6982 143e db0e f63d 12a5 3d3d
000002f0: 3e38 c13d 79ac 753d 6f15 3fbc 338c 56bd
00000300: 8535 21be 4ba3 543d 1d47 e83d 9f24 183e
00000310: 975e c4b9 1fd6 0f3e 639c 98bd 4332 8f3d
00000320: 5605 cf3d 5d8f 003e 5584 93bd 3198 fb3d
00000330: 701f 05be 506c 023d dc82 0d3d 37a0 b4bb
00000340: da77 9f3d d5b9 0bbe add1 443d eadf ba3d
00000350: aef9 32bd ed8c fa3a 10af 833d 73ab 81bc
00000360: 16ae f0bc 380a f63d 3ead 943d 9098 0cbd
00000370: 4443 5e3d 212a 0a3e f91b 08be 44c3 c93d
00000380: 2b6d 2fbd 4a04 1a3e 1a87 d83d 1408 f93d
00000390: 7977 9c3d ccb8 b9bd eccb 3a3d 08b8 9e3d
000003a0: a9fa 673d 994d fe3c 745b febd 4ba4 e73d
000003b0: d8d3 a63d 69a7 143e 0538 aabd 9e4b c43d
000003c0: e6f3 853c 5d5a 8abd d352 7a3d 9066 0ebe
000003d0: b6c5 10be 9008 9ebc 482a 223e 9af3 013e
000003e0: 9c77 a13d a91c a9bd 8cf9 003e 1d75 143c
000003f0: b187 1abe 6f9d cb3d 94da c2bd 58ef af3c

transformer.layers.0.self_attn.in_proj_bias f4 [192]
-0.0096952515 0.019142818 -0.00026969874 -0.016281208 -0.0056842924 0.034162626 0.019357376 -0.018542524
0.008088967 0.009188852 -0.022291908 0.017463265 -0.020202825 0.014597951 0.0042430046 -0.015046272
0.0003208168 0.020405728 -0.019152483 -0.007803799 0.011690182 0.009872098 0.01774441 -0.009275688
-0.005411047 -0.0071828538 -0.008036005 0.012697801 -0.0020452857 -0.010044996 -0.016923182 0.01830057
-0.040229466 -0.035854574 -0.011649142 0.022930725 -0.0059914594 -0.014852397 -0.010286487 -0.00043487482
-0.014170324 -0.013212299 -0.025657702 -0.023805603 0.012329745 -0.0044505247 0.0046509914 -0.012173884
-0.0012117996 -0.010270119 0.0023410164 0.0031421774 0.0070428536 -0.027142506 0.036464542 0.00082163245
0.001837386 -0.007545694 0.009450882 -0.029173268 -0.0039450293 -0.0013563248 -0.009149892 0.0053584445
1.5430433e-07 -9.9726044e-08 3.6371045e-08 -4.061846e-08 1.0210313e-07 -9.458226e-08 6.0480694e-08 3.1764795e-08
-9.314749e-08 -5.3538802e-08 7.691927e-08 -7.606751e-08 -1.3353046e-07 7.2795885e-08 -3.016685e-08 -4.5456144e-08
-3.7208405e-08 3.786695e-08 6.206199e-08 -7.151862e-08 4.9930797e-08 -6.75981e-08 -1.8386157e-07 4.478784e-08
-1.6707608e-08 -5.3215885e-08 1.5466989e-07 1.2477301e-07 9.394129e-09 2.597793e-08 1.0223816e-07 -1.3232813e-07
5.3754732e-08 2.4147464e-08 3.9717268e-08 -1.09055684e-07 1.6803888e-08 3.673569e-08 -8.066906e-09 -8.93103e-09
-7.317696e-08 1.3441878e-07 -5.5797333e-08 -2.2176957e-08 -5.5073393e-08 6.793613e-08 -1.6424433e-07 -2.0370429e-07
-9.359235e-08 2.306117e-07 5.6188043e-08 -1.891662e-08 -1.0182009e-09 -5.7220973e-08 -5.20173e-08 -9.7710824e-08
5.343842e-08 2.3550335e-07 1.828949e-07 -2.4745827e-07 2.496646e-09 -3.0337375e-09 -6.948448e-08 -8.856368e-08
0.012754703 0.0011664969 0.00019321457 0.002955531 -0.0025629448 -0.01222561 0.00074174494 0.021432713
-0.0143874455 0.0048091565 0.0002570745 -0.0041272743 0.00049241347 0.023706762 0.002228269 -0.01156129
0.015936486 -4.542112e-06 0.00039067306 0.002596395 -0.0018860323 -0.001751135 -4.6057587e-05 -0.0013042174
-0.0028091322 -0.002542837 -0.0014054183 0.0038691426 0.007892155 -0.01955415 -0.0060434286 -0.016118208
-0.0032350284 -0.0070632976 0.01406028 0.00017139473 0.00693772 -0.008139082 0.010458504 0.017240172
-0.007962149 0.0022406215 0.008759903 -0.020118376 -0.001040987 0.011101165 -0.00026486674 -0.006019983
-0.009764997 -0.0017528894 -0.022665113 0.007963963 0.0018169819 -0.014143723 -0.0012892716 -0.001551387
0.012701954 -0.0143567715 0.014323545 0.004133798 0.009742113 -0.0075918026 0.0021048347 -0.008953755
00000000: d5d8 1ebc 66d1 9c3c 5a66 8db9 2b60 85bc
00000010: 4d43 babb 1cee 0b3d 5c93 9e3c 7ee6 97bc
00000020: 9687 043c d78c 163c 859d b6bc 1f0f 8f3c
00000030: 6580 a5bc 3f2c 6f3c e708 8b3b a484 76bc
00000040: 4d33 a839 ea29 a73c abe5 9cbc 03b7 ffbb
00000050: 2d88 3f3c 95be 213c ba5c 913c 0ef9 17bc
00000060: 274f b1bb 255e ebbb 73a9 03bc 700a 503c
00000070: 330a 06bb c493 24bc 7ca2 8abc 14eb 953c
00000080: a7c7 24bd 3fdc 12bd 0bdc 3ebc 37d9 bb3c
00000090: 0154 c4bb 7857 73bc a788 28bc e9ff e3b9
000000a0: a62a 68bc 6678 58bc 1a30 d2bc f803 c3bc
000000b0: b302 4a3c b5d5 91bb 5867 983b f874 47bc
000000c0: 3fd5 9eba 0044 28bc bd6b 193b fdec 4d3b
000000d0: bdc7 e63b f659 debc d85b 153d d262 573a
000000e0: 72d4 f03a de41 f7bb dfd7 1a3c c7fc eebc
000000f0: 4e45 81bb b5c6 b1ba 6ee9 15bc e495 af3b
00000100: daae 2534 f928 d6b3 6336 1c33 7874 2eb3
00000110: ca43 db33 261d cbb3 9de1 8133 c36d 0833
00000120: 6008 c8b3 89f2 65b3 d12e a533 8e5a a3b3
00000130: 9360 0fb4 f653 9c33 cd90 01b3 8f3b 43b3
00000140: 13cf 1fb3 27a3 2233 f146 8533 c795 99b3
00000150: 7e73 5633 732a 91b3 7c6b 45b4 c05c 4033
00000160: 6b84 8fb2 7c8f 64b3 5613 2634 58f9 0534
00000170: d163 2132 1226 df32 068e db33 1416 0eb4
00000180: f4df 6633 d66c cf32 9995 2a33 ff31 eab3
00000190: 2458 9032 51c7 1d33 a196 0ab2 166f 19b2
000001a0: 7625 9db3 c154 1034 d1a5 6fb3 a57f beb2
000001b0: d689 6cb3 48e4 9133 235b 30b4 cfb9 5ab4
000001c0: f0fc c8b3 109e 7734 6853 7133 167e a2b2
000001d0: c2f0 8bb0 20c3 75b3 a069 5fb3 18d5 d1b3
000001e0: 2a84 6533 abde 7c34 c461 4434 68da 84b4
000001f0: 7691 2b31 137a 50b1 7f37 95b3 6630 beb3
00000200: 1af9 503c 24e5 983a a499 4a39 95b1 413b
00000210: 14f7 27bb ed4d 48bc a971 423a a893 af3c
00000220: 52b9 6bbc 2196 9d3b f5c7 8639 163e 87bb
00000230: 4f15 013a af34 c23c 2608 123b 916b 3dbc
00000240: 3c8d 823c 7268 98b6 40d3 cc39 4828 2a3b
00000250: be34 f7ba 5786 e5ba f52d 41b8 46f2 aaba
00000260: 6b19 38bb baa5 26bb 0336 b8ba 7191 7d3b
00000270: 194e 013c 0630 a0bc f407 c6bb 550a 84bc
00000280: c502 54bb 3c73 e7bb 175d 663c 6cb8 3339
00000290: d055 e33b c959 05bc 255a 2b3c 433b 8d3c
000002a0: ac73 02bc 64d7 123b b285 0f3c 4bcf a4bc
000002b0: ba71 88ba a9e1 353c d0dd 8ab9 4743 c5bb
000002c0: 5efd 1fbc 35c1 e5ba 30ac b9bc 487b 023c
000002d0: cc27 ee3a 13bb 67bc c7fc a8ba e957 cbba
000002e0: db1b 503c aa38 6bbc 4dad 6a3c d074 873b
000002f0: 629d 1f3c a8c4 f8bb 44f1 093b c5b2 12bc

transformer.layers.0.self_attn.out_proj.weight f4 [64, 64]
-0.018916404 -0.0063599665 -0.049532767 -0.009310404 0.0168796 -0.007219585 0.042179465 0.034561377
0.019559091 -0.021980679 -0.028176073 -0.016474614 -0.020622889 0.016322609 -0.0029827952 0.013903552
-0.0037467638 0.008820464 0.029235816 -0.0006534203 -0.030284274 -0.021051602 -0.035566784 -0.0017972704
-0.016679535 -0.0113183865 0.03351205 -0.004524687 0.014119047 -0.014463289 0.00012037005 -0.015579658
0.021883631 -0.026590334 0.049022786 -0.017164404 -0.0056063896 -0.011619252 0.012189266 -0.015074612
0.002146272 0.011815392 -0.011558535 -0.011315989 0.0014923188 -0.030568961 -0.013268085 0.03819486
0.006306184 -0.022656063 -0.030982502 0.044901375 -0.0013596785 -0.00054375216 -0.009801339 0.00936747
0.03306729 0.0013771637 0.0066209617 0.0024519714 0.011878154 0.0014186132 -0.012571588 -0.035188824
0.015826508 -0.014802539 0.016172761 -0.0123739 -0.017519662 0.04472223 4.875602e-05 0.003786621
0.030709907 -0.035931155 0.010803235 -0.027672268 -0.034546193 -0.0043931585 0.0011146541 -0.01270777
0.0113814855 -0.014412326 -0.026828118 -0.00020629817 -0.0035343203 0.012676149 -0.021451171 -0.024222147
-0.009896266 -0.00082893635 0.0064131445 0.011325823 -0.0019158794 0.0022265161 0.0047296323 0.037191276
0.024121601 -0.035250276 0.03236842 -0.02303735 0.054479737 0.02378136 -0.020894524 0.00081636664
-0.04322688 -0.0026169512 -0.018775389 0.010510866 0.011845873 -0.026270548 -0.01854543 0.02686948
-0.02799271 -0.013305214 -0.039759655 0.04095294 0.0036650635 -0.025671924 -0.008176173 -0.0058513195
-0.0180263 -0.013426607 -0.022190286 -0.008583791 0.008161631 0.013489641 0.0041300016 -0.026626403
-0.019526368 0.013600991 -0.0003632697 -0.004860349 -0.014789398 -0.019552013 0.01440537 -0.0038478847
-0.042891398 -0.021488035 0.03811499 -0.012806519 -0.029424088 -0.020896545 -0.010748522 -0.034107447
0.056063734 0.04740936 0.0070097363 0.0013776674 0.007380592 -0.023073893 0.02552993 -0.021729385
-0.012478975 0.016481949 0.02809641 0.01693892 -0.004556226 -0.014092283 0.004105877 -0.027163144
-0.01924961 -0.056946155 0.025266096 -0.034642216 -6.3133357e-06 0.021768142 -0.006912973 0.036232796
0.019845426 0.0078257 -0.0017678104 0.00031722168 -0.0128940735 0.018472768 0.029517768 0.0044341786
-0.024813881 0.016772361 -0.020056969 0.020059267 0.0045218244 -0.024314733 0.0025220334 0.03383665
0.008253979 -0.022626143 0.020925561 0.02175766 -0.0007096296 -0.013569837 -0.05095047 -0.029264376
0.00042664196 -0.009665119 0.0035068358 0.00849344 0.041643683 0.01025807 0.0002711076 0.010625898
-0.012340024 -0.013314578 -0.01267185 0.012756454 0.011904342 -0.033345737 -0.029777775 -0.007843127
0.0014646819 0.010917939 -0.025355093 0.006130871 -0.041004367 -9.821111e-05 0.030405518 0.023472818
0.012038504 -0.0134486435 0.028604653 -0.013777544 0.000653244 0.008122644 0.025900014 0.006042514
-0.0025092904 -0.027350873 0.0042755143 0.004620961 -0.015289118 0.05098666 -0.022405306 -0.009386426
0.01577511 -0.045888394 0.00012680292 0.014347817 -0.005652055 -0.032922685 0.007984846 -0.011673612
0.0012285409 0.037348036 0.012725795 -0.0104172155 0.031008977 -0.008710841 -0.021031104 -0.027841048
0.022064408 0.028132195 0.0112152705 0.043101054 -0.0031744954 0.0051919436 0.050912645 -0.0020161544
00000000: 93f6 9abc 4467 d0bb dfe2 4abd aa8a 18bc
00000010: 1647 8a3c 4592 ecbb 60c4 2c3d 3b90 0d3d
00000020: 633a a03c d310 b4bc 82d1 e6bc c5f5 86bc
00000030: 55f1 a8bc feb6 853c 007b 43bb b9cb 633c
00000040: 448c 75bb b583 103c f37f ef3c 4b4a 2bba
00000050: ba16 f8bc 6974 acbc 7aae 11bd 6392 ebba
00000060: 85a3 88bc c170 39bc ee43 093d d343 94bb
00000070: 9353 673c 6ef7 6cbc 2e6f fc38 d241 7fbc
00000080: 4d45 b33c f9d3 d9bc 1ecc 483d 5d9c 8cbc
00000090: ceb5 b7bb ad5e 3ebc 7db5 473c 81fb 76bc
000000a0: 78a8 0c3b 5995 413c 0260 3dbc b366 39bc
000000b0: e999 c33a c26b fabc 6262 59bc 3772 1c3d
000000c0: 1ba4 ce3b 3599 b9bc 04cf fdbc 81ea 373d
000000d0: 3d37 b2ba 978a 0eba cc95 20bc 047a 193c
000000e0: 9171 073d f281 b43a a7f4 d83b 41b1 203b
000000f0: 979c 423c c3f0 b93a 10f9 4dbc 2822 10bd
00000100: 98a6 813c 5986 72bc bd7c 843c e6bb 4abc
00000110: 6585 8fbc a82e 373d 617f 4c38 f528 783b
00000120: 5893 fb3c 8c2c 13bd 0d00 313c f4b0 e2bc
00000130: 4f80 0dbd 7cf4 8fbb 9619 923a 4034 50bc
00000140: 6979 3a3c ad21 6cbc a4c6 dbbc be51 58b9
00000150: 0ea0 67bb 9faf 4f3c 5eba afbc 866d c6bc
00000160: f323 22bc fa4c 59ba 5b25 d23b f28f 393c
00000170: 3f1e fbba beea 113b 08fb 9a3b e155 183d
00000180: aa9a c53c 9862 10bd c094 043d d3b8 bcbc
00000190: 2526 5f3d 20d1 c23c fe2a abbc 7001 563a
000001a0: ab0e 31bd 2881 2bbb d8ce 99bc c435 2c3c
000001b0: 3115 423c 5535 d7bc 96ec 97bc 621d dc3c
000001c0: f850 e5bc 1dfe 59bc 05db 22bd 45be 273d
000001d0: 9031 703b ed4d d2bc 5bf5 05bc 6dbc bfbb
000001e0: e4ab 93bc 45fb 5bbc 67c8 b5bc 07a3 0cbc
000001f0: 5db8 053c a803 5d3c f754 873b 9d1f dabc
00000200: c3f5 9fbc b1d6 5e3c 3c75 beb9 9043 9fbb
00000210: 3b4f 72bc 8b2b a0bc 8004 6c3c cb2c 7cbb
00000220: e4ae 2fbd ad07 b0bc 771e 1c3d 6fd2 51bc
00000230: c90a f1bc 3b2f abbc 921a 30bc 40b4 0bbd
00000240: 16a3 653d 5130 423d eeb1 e53b d992 b43a
00000250: e5d8 f13b 7605 bdbc 2524 d13c d301 b2bc
00000260: 9d74 4cbc 2705 873c 712a e63c 7dc3 8a3c
00000270: 654c 95bb 52e3 66bc 988a 863b 3e85 debc
00000280: 5cb1 9dbc 5f40 69bd d8fa ce3c ffe4 0dbd
00000290: 24d7 d3b6 1a53 b23c 3886 e2bb d768 143d
000002a0: e092 a23c 5d37 003c e0b5 e7ba c650 a639
000002b0: aa41 53bc 3454 973c 3fcf f13c 964c 913b
000002c0: 7b46 cbbc 3166 893c 834e a4bc 5553 a43c
000002d0: d02b 943b b12f c7bc b348 253b 4d98 0a3d
000002e0: b23b 073c 765a b9bc 156c ab3c 1f3d b23c
000002f0: 7006 3aba 0654 5ebc 71b1 50bd d8bb efbc
00000300: eaae df39 735a 1ebc f1d2 653b 1228 0b3c
00000310: 9192 2a3d 7711 283c 7223 8e39 3f18 2e3c
00000320: d02d 4abc 6325 5abc 979d 4fbc 7200 513c
00000330: 6e0a 433c 8a95 08bd 85f0 f3bc 7580 00bc
00000340: 92fa bf3a 28e1 323c 7cb5 cfbc 79e5 c83b
00000350: 32f4 27bd b0f6 cdb8 fe14 f93c 114a c03c
00000360: 253d 453c b357 5cbc 4e54 ea3c 35bb 61bc
00000370: 763e 2b3a d714 053c 442c d43c 4800 c63b
00000380: e872 24bb f00e e0bc 9d19 8c3b 6e6b 973b
00000390: 357f 7abc 63d7 503d 558b b7bc 86c9 19bc
000003a0: ce3a 813c 78f5 3bbd 66f6 0439 1b13 6b3c
000003b0: e034 b9bb f0d9 06bd dfd2 023c ad42 3fbc
000003c0: fe06 a13a 41fa 183d da7f 503c f8ac 2abc
000003d0: 8a06 fe3c eab7 0ebc 6c49 acbc e912 e4bc
000003e0: 6bc0 b43c 7d75 e63c 41c0 373c bb8a 303d
000003f0: 320b 50bb 2e21 aa3b c789 503d 7521 04bb

transformer.layers.0.self_attn.out_proj.bias f4 [64]
-0.009103347 -0.005144344 -0.008467686 0.0068633277 -0.003695859 -0.00918115 -0.0016000232 0.0042199125
-0.009665937 0.0037349397 0.0021647667 -0.006707336 0.00772401 -0.004487136 0.0056485566 -0.0039903005
0.0062411274 0.0035277274 -0.008034856 0.004144552 -0.0015023678 0.005984863 0.0025565713 0.0038028576
0.0043976563 -0.0046628024 0.009168846 0.011392815 -0.007175561 -0.0023376653 0.00082307885 0.0026483235
0.0055772443 -0.004379561 -0.00025157802 0.005729678 0.0009488927 0.008323118 0.0045512645 0.0059662303
-0.0075792884 0.0019227166 0.005670934 -0.0071862903 0.003030663 -0.0024775306 -0.005286097 -0.0040744287
-0.008344205 0.005551485 0.0009565048 0.00216469 0.0021056987 0.00019062021 0.0063309195 -0.0062115565
-0.0049959184 -0.0020984006 -0.0005138346 -0.0060705924 0.0024098058 -0.0023541814 0.009037167 -0.0045924657
00000000: 3426 15bc e391 a8bb 0dbc 0abc c4e5 e03b
00000010: 3a36 72bb 896c 16bc dfb7 d1ba 3147 8a3b
00000020: e15d 1ebc e4c5 743b c2de 0d3b 36c9 dbbb
00000030: b119 fd3b d308 93bb 8717 b93b 11c1 82bb
00000040: 5f82 cc3b 7231 673b a1a4 03bc 06cf 873b
00000050: 19eb c4ba ab1c c43b 268c 273b 5d39 793b
00000060: 371a 903b 6cca 98bb ed38 163c eea8 3a3c
00000070: f820 ebbb 8433 19bb e3c3 573a 7f8f 2d3b
00000080: 51c1 b63b 6c82 8fbb 3be6 83b9 06c0 bb3b
00000090: 1cbf 783a b05d 083c c622 953b 5e80 c33b
000000a0: ae5b f8bb aa03 fc3a 3ed3 b93b f97a ebbb
000000b0: 169e 463b 115e 22bb ff36 adbb c982 85bb
000000c0: 22b6 08bc 3be9 b53b f3bd 7a3a 79dd 0d3b
000000d0: c3ff 093b 39e1 4739 9a73 cf3b 508a cbbb
000000e0: cdb4 a3bb 5285 09bb dbb2 06ba d2eb c6bb
000000f0: d5ed 1d3b 9c48 1abb a010 143c 657c 96bb

transformer.layers.0.linear1.weight f4 [128, 64]
-0.024210323 0.009427089 -0.006141601 -0.0065346514 0.009634252 -0.038453303 0.0678163 0.053146735
-0.025168482 0.024514437 -0.044985004 -0.03937909 0.013515815 0.018811816 0.016054843 0.03669264
0.020314038 -0.026406225 0.01479864 -0.01889454 -0.01247962 0.0007784067 -0.010646579 0.0328812
0.060831144 0.0015435707 -0.022936584 0.042784903 0.0017673682 -0.024720578 -0.006114156 0.044689875
-0.0055320472 -0.06657311 0.022437347 -0.014818836 -0.0116582895 0.0032883545 -0.0430027 0.030941883
0.0028369236 0.01537597 -0.02395084 0.019746168 -0.027294103 0.01422707 -0.011085167 0.014669406
0.023950683 0.023772249 0.02938549 0.021426763 0.0029598717 0.046204615 0.023922665 -0.025784506
-0.030867092 0.028274158 0.05477342 -0.049813215 0.011063284 -0.011917957 0.04617344 -0.0658485
-0.013652588 0.045619383 -0.053827163 0.0522425 0.022715552 -0.013057845 0.043072514 0.024188722
-0.05647433 -0.02724324 0.012148294 -0.032270435 0.024845725 -0.016473446 -0.04919956 0.021664552
0.016239876 -0.012133266 0.02014135 0.017291935 -0.019241672 -0.027752986 -0.02101333 -0.011122855
0.017602641 0.0674016 0.004094023 0.021296509 0.05652506 -0.011951647 -0.0019496016 -0.010947995
0.033787977 -0.016536847 -0.016412308 -0.013797992 -0.013417678 -0.009742051 -0.034177843 -0.0021485658
-0.015949855 0.015631048 -0.027802438 0.04293407 -0.056425575 -0.029832814 0.04554433 0.0124006625
-0.014661924 -0.009443496 -0.020435605 0.003935364 -0.037254527 0.03493044 -0.0021632754 -0.0015380192
-0.017734967 0.0026195806 0.010487249 -0.009058364 -0.018144961 0.021536067 0.004882431 -0.011666351
-0.05191481 0.044689108 0.0054762596 0.017885298 0.046244375 0.023387436 -0.022454923 0.0010661072
-0.014792553 0.00069699634 0.020860305 0.065413944 -0.00010388377 -0.02629104 0.014984326 0.00038607937
-0.0064824484 0.001714761 -0.04200888 -0.011481483 0.008846205 0.06514422 0.019871216 -0.038330916
-0.019978289 0.0057030437 0.022379363 -0.008750383 -0.014594829 0.029434828 -0.02163781 -0.010608219
-0.0020206044 -0.009038296 -0.021271868 0.0037727354 0.015955683 -0.014919162 -0.002509575 -0.033264693
0.003249748 -0.04114125 0.022805288 0.0063490574 -0.0018214935 0.058577217 0.030544655 -0.029855182
-0.02030854 -0.004699954 0.007736992 0.00726184 0.07781467 -0.010154018 0.0034624757 0.0342892
0.009079147 -0.019568048 -0.033134192 -0.030800873 0.027841954 0.00075354223 0.03925771 0.02785427
0.07090634 0.035649322 0.0045334413 0.004550028 -0.0040650414 -0.01681291 -0.0034618326 -0.0037946065
-0.041723184 0.0147300605 -0.0068997117 0.016377864 0.0069853836 0.014376933 0.028154721 0.0290957
0.054214172 0.004883717 0.030416926 -0.030635541 -0.034352716 -0.03922198 -0.015176418 -0.00028829716
0.023918757 -0.019690886 -0.0126684 -0.05249831 -0.060633592 0.0037055071 0.0083757555 0.006937231
-0.03244458 -0.017495075 0.017769966 -0.010992548 0.005527925 0.01342658 0.033433605 -0.0098756105
-0.014921097 -0.053866178 -0.03162602 0.005497504 0.026275335 -0.022338537 -0.007912468 -0.007411039
0.028761236 0.03050638 -0.0065511228 0.018956298 0.008544514 -0.005569976 0.015119146 -0.033212848
-0.031130143 0.0052374518 -0.051460892 -0.0058147134 -0.04825296 -0.030072814 0.026362648 -0.029935542
00000000: ba54 c6bc 1474 1a3c 7c3f c9bb a120 d6bb
00000010: fbd8 1d3c 3681 1dbd 46e3 8a3d 64b0 593d
00000020: 222e cebc 80d2 c83c 3242 38bd f84b 21bd
00000030: 7071 5d3c 3d1b 9a3c 7285 833c 064b 163d
00000040: a069 a63c de51 d8bc ff75 723c b9c8 9abc
00000050: 5277 4cbc fd0d 4c3a fd6e 2ebc 70ae 063d
00000060: 142a 793d a351 ca3a 81e5 bbbc 393f 2f3d
00000070: 09a7 e73a cf82 cabc 4259 c8bb bb0c 373d
00000080: 2d46 b5bb 7c57 88bd 87ce b73c b4ca 72bc
00000090: 6902 3fbc 6f81 573b 9923 30bd d579 fd3c
000000a0: aeeb 393b 7eeb 7b3c 8d34 c4bc b7c2 a13c
000000b0: e297 dfbc a818 693c 8f9e 35bc f357 703c
000000c0: 3934 c43c 05be c23c d7b9 f03c 2e87 af3c
000000d0: 68fa 413b 0d41 3d3d 77f9 c33c 073a d3bc
000000e0: fcdc fcbc 359f e73c 185a 603d f108 4cbd
000000f0: c742 353c 8943 43bc 5c20 3d3d 94db 86bd
00000100: 1baf 5fbc 64db 3a3d df79 5cbd 3bfc 553d
00000110: f715 ba3c 92f0 55bc ce6c 303d 6d27 c63c
00000120: a151 67bd 372d dfbc a309 473c 012e 04bd
00000130: 4389 cb3c 52f3 86bc 7a85 49bd dc79 b13c
00000140: 7d09 853c 9bca 46bc 79ff a43c d1a7 8d3c
00000150: b6a0 9dbc 3b5a e3bc 2624 acbc a33c 36bc
00000160: 6a33 903c da09 8a3d 2727 863b 0476 ae3c
00000170: d286 673d d7d0 43bc c689 ffba 385f 33bc
00000180: 4365 0a3d 4878 87bc 1b73 86bc f910 62bc
00000190: d2d5 5bbc 209d 1fbc 11fe 0bbd f4ce 0cbb
000001a0: 45a9 82bc af0c 803c f0c1 e3bc a3db 2f3d
000001b0: 811e 67bd f263 f4bc b18c 3a3d 262c 4b3c
000001c0: 9138 70bc e5b8 1abc 9268 a7bc 3af4 803b
000001d0: 3498 18bd 3913 0f3d bdc5 0dbb 5c97 c9ba
000001e0: ec48 91bc 45ad 2b3b b6d2 2b3c 8869 14bc
000001f0: bea4 94bc 686c b03c cdfc 9f3b 3924 3fbc
00000200: a0a4 54bd ed0b 373d 3272 b33b 3084 923c
00000210: be6a 3d3d 0297 bf3c 63f3 b7bc 9fbc 8b3a
00000220: 775c 72bc a2b6 363a 3be3 aa3c bff7 853d
00000230: 2ddc d9b8 4f60 d7bc d280 753c b26a ca39
00000240: b86a d4bb d5c1 e03a 8111 2cbd d41c 3cbc
00000250: acef 103c 556a 853d f6c8 a23c e100 1dbd
00000260: 82a9 a3bc 99e0 ba3b ed54 b73c c45d 0fbc
00000270: 261f 6fbc 4f21 f13c c741 b1bc 18ce 2dbc
00000280: 1e6c 04bb 5c15 14bc 5742 aebc ff3f 773b
00000290: 7eb5 823c 806f 74bc af77 24bb 8f40 08bd
000002a0: b9f9 543b ba83 28bd 28d2 ba3c c10b d03b
000002b0: 2ebf eeba aaee 6f3d c938 fa3c db92 f4bc
000002c0: 185e a6bc 1202 9abb 9886 fd3b bbf4 ed3b
000002d0: 4c5d 9f3d 0a5d 26bc b4ea 623b d572 0c3d
000002e0: b4c0 143c 2c4d a0bc b8b7 07bd 1d52 fcbc
000002f0: cf14 e43c 5d89 453a b1cc 203d a32e e43c
00000300: 5837 913d 0605 123d 438d 943b 6718 953b
00000310: 0a34 85bb 3abb 89bc eadf 62bb efae 78bb
00000320: eee5 2abd 5a56 713c fa16 e2bb df2a 863c
00000330: a5e5 e43b 3a8d 6b3c bba4 e63c 1b5a ee3c
00000340: ae0f 5e3d 9607 a03b eb2c f93c 63f7 fabc
00000350: 6fb5 0cbd 3aa7 20bd 83a6 78bc 9726 97b9
00000360: 45f1 c33c c84e a1bc 1f8f 4fbc 7808 57bd
00000370: ee5a 78bd 18d8 723b 773a 093c b651 e33b
00000380: 9ce4 04bd d551 8fbc 5292 913c 171a 34bc
00000390: 9923 b53b 28fb 5b3c adf1 083d 50cd 21bc
000003a0: 9e77 74bc c8a2 5cbd 498a 01bd 6824 b43b
000003b0: 5f3f d73c 4fff b6bc 4ca3 01bc 4dd8 f2bb
000003c0: af9c eb3c 84e8 f93c cdaa d6bb 3d4a 9b3c
000003d0: 4afe 0b3c 5884 b6bb 4bb6 773c 320a 08bd
000003e0: a404 ffbc ee9e ab3b a8c8 52bd 5a89 bebb
000003f0: e5a4 45bd 435b f6bc 7bf6 d73c 623b f5bc

transformer.layers.0.linear1.bias f4 [128]
0.008467735 0.0030059156 0.008437663 -0.01831064 0.017309908 -8.4937805e-05 -0.016046152 0.009499328
-0.018265028 -0.009299301 0.0069993883 0.014559041 0.0034278247 -0.018513927 -0.006303738 -0.006016523
0.010580244 0.0015901574 0.004930204 0.005920749 -0.006174294 0.007391305 0.0012774417 0.0018077092
0.010998328 0.008835536 -0.01376925 -0.02466781 0.0017803096 -0.010317182 -0.016020093 0.0021393925
0.020922622 -0.000849299 0.021746935 -0.0061231833 0.00742636 0.008542171 -0.001832746 0.009080551
0.015984017 0.009351022 -0.0026416264 0.0010293932 0.006357514 0.0038013582 0.006622419 -0.0154190995
0.004425126 0.0042661135 0.010647506 0.00881511 0.0061937193 0.01640765 -0.023735084 -0.014737432
-0.0077635283 0.01367027 -0.002428495 0.0010490138 0.009397099 -0.0005897447 0.0005663749 0.007996955
-0.004154432 -0.0012557498 -0.007645017 0.01121209 0.007008652 0.004489806 0.001455067 0.0074475743
0.017971955 0.010286423 -0.007891546 0.0033206483 0.0031356446 -0.0006989585 0.009154916 -0.013691368
0.004151241 0.0016022179 0.0053984527 0.0071312916 0.008840432 0.021764722 0.0046730717 0.005204388
0.0030438425 0.005125187 0.017187377 -0.006504525 0.019149626 0.012908065 0.00742119 -0.0001902859
0.00201463 0.0005422867 -0.00032697106 -0.009559171 -0.0039156727 0.009827417 -0.0018455912 0.001357797
0.012387316 0.011461023 -0.0044944505 0.0043564015 0.008382764 0.0153955305 0.0025420836 -0.00060894684
0.007792435 0.01673142 0.0042334124 0.015410254 0.0038973668 0.013111798 -0.016540317 0.00800025
0.011308141 0.007280968 -0.008390422 0.011372081 -0.0018623596 -0.00038774105 0.007707155 -0.0006494591
00000000: 41bc 0a3c e5fe 443b 203e 0a3c 3200 96bc
00000010: 82cd 8d3c a320 b2b8 3873 83bc 12a3 1b3c
00000020: 8aa0 95bc 185c 18bc 205b e53b 0b89 6e3c
00000030: 5ba5 603b 85aa 97bc 968f cebb 4126 c5bb
00000040: c258 2d3c d46c d03a 8c8d a13b d802 c23b
00000050: bb51 cabb c332 f23b d56f a73a a8f0 ec3a
00000060: 5532 343c edc2 103c 6c98 61bc 2614 cabc
00000070: 4759 e93a 6609 29bc 923c 83bc 0d35 0c3b
00000080: eb65 ab3c 7ea3 5eba a126 b23c fca4 c8bb
00000090: d358 f33b 76f4 0b3c c038 f0ba 97c6 143c
000000a0: eaf0 823c 0735 193c 231f 2dbb b4ec 863a
000000b0: b152 d03b 3520 793b e100 d93b 64a0 7cbc
000000c0: a600 913b c1ca 8b3b e172 2e3c 406d 103c
000000d0: aff4 ca3b 5669 863c 1470 c2bc 4575 71bc
000000e0: 3265 febb 45f9 5f3c 6327 1fbb 107f 893a
000000f0: 4af6 193c 1999 1aba c778 143a a905 033c
00000100: e721 88bb f997 a4ba 0d83 fabb eab2 373c
00000110: d6a8 e53b 391f 933b f2b7 be3a c80a f43b
00000120: ec39 933c 6388 283c 8b4b 01bc 3c9f 593b
00000130: 637f 4d3b 503a 37ba 80fe 153c c251 60bc
00000140: 2207 883b 8301 d23a 81e5 b03b 9cad e93b
00000150: 76d7 103c ee4b b23c 9120 993b 9289 aa3b
00000160: 347b 473b 2ff1 a73b 8bcc 8c3c e923 d5bb
00000170: addf 9c3c 597c 533c 742d f33b 7b87 47b9
00000180: e207 043b 3f28 0e3a 506d abb9 129e 1cbc
00000190: 0b4f 80bb 2d03 213c c4e7 f1ba 1bf8 b13a
000001a0: 2bf4 4a3c 04c7 3b3c 2f46 93bb 25c0 8e3b
000001b0: dc57 093c 893d 7c3c 1699 263b bba1 1fba
000001c0: af57 ff3b 5510 893c 70b8 8a3b 4a7b 7c3c
000001d0: f76a 7f3b ded2 563c 8f7f 87bc 7b13 033c
000001e0: c845 393c 3095 ee3b fb77 09bc f751 3a3c
000001f0: 6b1a f4ba b949 cbb9 4d8c fc3b 7640 2aba

transformer.layers.0.linear2.weight f4 [64, 128]
-0.004733988 -0.040594365 0.054623164 -0.034841157 -0.046294574 -0.014340867 0.015485499 -0.032591388
0.017108433 0.01688354 -0.0028463895 -0.021346299 -0.0078107044 -0.02378215 0.03287331 -0.009690113
0.008309675 -0.027001722 -0.043221407 -0.02407909 0.022692142 -0.010349892 0.011513159 -0.005718372
0.023250967 0.0072619193 0.043176524 -0.018316535 -0.018724795 0.01450635 0.023213899 -0.0119071985
-0.023741936 -0.06270949 0.005398188 0.031292506 -0.026736936 -0.017050399 -0.0067072455 -0.04911306
-0.04273702 -0.019297846 -0.05269594 -0.035360955 0.04227995 -0.02523298 -0.014302856 -0.038570195
0.0013772764 -0.045423616 -0.022733826 -0.025698725 0.010188108 0.02486453 0.012665968 0.002893483
0.021229113 0.04467532 -0.004282095 0.0018649334 -0.022830367 -0.00068819 -0.049782537 -0.019876633
-0.023363011 -0.0201545 -0.020878553 0.026229763 -0.03018154 -0.010865646 -0.025119092 -0.0104166595
-0.03887921 0.0068507153 0.00041663082 0.04264815 -0.029361475 -0.008410276 -0.022054808 0.00982659
-0.0056597376 -0.016921641 0.014004733 -0.0026980825 0.011470338 -0.05361826 0.01781314 -0.019251712
-0.006190614 -0.06695084 -0.034742568 -0.027839372 -0.036436044 -0.008440578 -0.015392104 -0.053266015
0.00655074 0.05895393 -0.03147958 0.039534416 0.0016117435 -0.040872056 0.01305371 -0.0076359836
-0.006520728 0.007872763 -0.06371924 -0.021469533 -0.0010064639 -0.06317081 0.010332412 0.006291171
-0.042849075 0.025283542 -0.022419704 0.016160898 -0.063996404 -0.10078896 0.0155779 0.018416995
-0.05064683 -0.026694447 0.050441377 -0.01588645 0.025562493 -0.010518189 0.046689343 -0.0048249555
-0.040041503 -0.004062494 -0.016677413 0.0027916683 0.005957424 -0.0012670864 0.008741552 -0.0027277914
0.004916518 0.03342668 -0.034030616 0.0058739395 0.0031105194 0.021216355 0.030433126 0.032266743
-0.011539636 -0.015135808 -0.021811726 0.03963786 0.0028098845 0.030460663 0.016268307 -0.027360437
-0.059061717 -0.030377993 -0.051721517 0.03373683 -0.029684814 -0.036980696 0.007810597 0.02201619
0.017269636 -0.022891948 -0.008779495 0.0049265157 -0.0046339612 -0.024225777 0.01084479 -0.022497363
-0.03025861 -0.020637004 0.007236617 -0.0134187145 0.009181309 0.01654508 -0.027930412 0.014595297
-0.00613309 -0.012771406 -0.031580336 -0.0023180177 -0.006256344 -0.00085015205 0.040085923 0.0015390465
0.0053969026 -0.02739527 -0.009524795 -0.016695071 -0.0044095134 -0.015322736 -0.00860376 -0.015427414
-0.0050398284 0.025398344 -0.018049935 -0.03670265 0.012097236 -0.037322227 -0.0042844424 -0.01672478
-0.044021778 0.005558761 -0.055656146 -0.02219093 0.006253846 -0.019934777 -0.016106252 0.019368256
-0.05509865 -0.019960016 -0.0016734018 0.0047366363 -0.031569615 -0.02288208 -0.041255247 -0.021940395
-0.01797874 -0.037511252 0.030477215 0.011900617 -0.019333387 0.01566758 0.022834985 -0.040146906
-0.023234824 -0.021284798 -0.05642154 -0.0043099667 -0.015127899 -0.06280066 0.022063863 0.007607079
0.017668217 -0.0067642247 -0.003296881 -0.012504 0.0051879645 -0.014301284 0.05134536 0.007758054
-0.030444805 -0.010279624 -0.030731281 -0.04608151 -0.05365597 -0.0548755 0.0074846786 0.021714846
0.0026649914 -0.01209503 0.0036806066 0.0072226683 -0.015932016 0.016819157 -0.032222074 0.04275027
00000000: 921f 9bbb 4746 26bd 8abc 5f3d 9ab5 0ebd
00000010: 619f 3dbd f5f5 6abc e4b6 7d3c 8c7e 05bd
00000020: fc26 8c3c 5a4f 8a3c 7e8a 3abb 6fde aebc
00000030: f0f0 ffbb c9d2 c2bc 2aa6 063d 48c3 1ebc
00000040: 4e25 083c b732 ddbc ee08 31bd 8341 c5bc
00000050: dfe4 b93c 9892 29bc b0a1 3c3c 2e61 bbbb
00000060: d078 be3c 65f5 ed3b ded9 303d 8f0c 96bc
00000070: be64 99bc 0bac 6d3c 132b be3c 6916 43bc
00000080: 737e c2bc d56d 80bd 48e3 b03b 922c 003d
00000090: 6b07 dbbc 47ad 8bbc 74c8 dbbb c72a 49bd
000000a0: 030d 2fbd 8416 9ebc b3d7 57bd a6d6 10bd
000000b0: be2d 2d3d 65b5 cebc 8756 6abc c8fb 1dbd
000000c0: ba85 b43a 1d0e 3abd 4a3c babc 2286 d2bc
000000d0: 06ec 263c b3b0 cb3c ec84 4f3c 97a0 3d3b
000000e0: ade8 ad3c 78fd 363d d150 8cbb c870 f43a
000000f0: c006 bbbc a667 34ba c6e8 4bbd 52d4 a2bc
00000100: c963 bfbc 0d1b a5bc 8009 abbc cddf d63c
00000110: 473f f7bc d305 32bc 8ec6 cdbc a3aa 2abc
00000120: ce3f 1fbd f77b e03b 3e6f da39 d4af 2e3d
00000130: 7a87 f0bc 41cb 09bc 49ac b4bc b5ff 203c
00000140: 5275 b9bb 419f 8abc 1c74 653c 50d2 30bb
00000150: 16ee 3b3c d29e 5bbd ddec 913c c4b5 9dbc
00000160: a2da cabb 861d 89bd 394e 0ebd 650f e4bc
00000170: f63d 15bd 5a4a 0abc 2a2f 7cbc 772d 5abd
00000180: 97a7 d63b ad79 713d bbf0 00bd d7ee 213d
00000190: 2341 d33a 7569 27bd 3adf 553c 4637 fabb
000001a0: d5ab d5bb c3fc 003c 3c7f 82bd e0e0 afbc
000001b0: 53eb 83ba b35f 81bd 4749 293c 2b26 ce3b
000001c0: 8382 2fbd 6e1f cf3c 87a9 b7bc dc63 843c
000001d0: 8c10 83bd 716a cebd 733a 7f3c 3ddf 963c
000001e0: 0d73 4fbd 50ae dabc 9e9b 4e3d 4d24 82bc
000001f0: 6f68 d13c 7b54 2cbc 533d 3f3d a91a 9ebb
00000200: 8f02 24bd ab1e 85bb 129f 88bc 6cf4 363b
00000210: 7f36 c33b 5d14 a6ba ba38 0f3c bfc4 32bb
00000220: be1a a13b 6aea 083d b063 0bbd 2d7a c03b
00000230: dbd9 4b3b eccd ad3c e44e f93c 222a 043d
00000240: be10 3dbc 2efc 77bc 81ae b2bc 4f5b 223d
00000250: 0a26 383b a488 f93c 1d45 853c ff22 e0bc
00000260: b3ea 71bd 45db f8bc f1d9 53bd a12f 0a3d
00000270: 912d f3bc 1279 17bd 09f0 ff3b 4c5b b43c
00000280: 0d79 8d3c e587 bbbc dfd7 0fbc 9c6e a13b
00000290: 7cd8 97bb 2375 c6bc 59ae 313c 644c b8bc
000002a0: e8e0 f7bc ef0e a9bc 2521 ed3b 2bda 5bbc
000002b0: 336d 163c 8c89 873c 52ce e4bc 1d21 6f3c
000002c0: 16f8 c8bb 293f 51bc 625a 01bd e2e9 17bb
000002d0: 0402 cdbb bddc 5eba 2331 243d d5b9 c93a
000002e0: 80d8 b03b 0c6c e0bc e30d 1cbc 1ac4 88bc
000002f0: ae7d 90bb 370c 7bbc c9f6 0cbc 44c3 7cbc
00000300: 2525 a5bb 3010 d03c 75dd 93bc 8555 16bd
00000310: 7c33 463c 31df 18bd 8264 8cbb 6802 89bc
00000320: 2e50 34bd 4426 b63b b3f7 63bd c1c9 b5bc
00000330: 10ed cc3b 424e a3bc 42f1 83bc 2daa 9e3c
00000340: 1faf 61bd 3083 a3bc 0c56 dbba c935 9b3b
00000350: 244f 01bd 3373 bbbc 43fb 28bd 58bc b3bc
00000360: 2748 93bc 66a5 19bd 5aab f93c cefa 423c
00000370: 0d61 9ebc 4c59 803c 6f10 bb3c 1571 24bd
00000380: f556 bebc 755d aebc 461a 67bd 9f3a 8dbb
00000390: 02db 77bc a29d 80bd 46bf b43c ce44 f93b
000003a0: f0bc 903c 6ea6 ddbb 7c10 58bb 94dd 4cbc
000003b0: cdff a93b ef4f 6abc 834f 523d 4637 fe3b
000003c0: 6267 f9bc de6b 28bc 2bc0 fbbc f7bf 3cbd
000003d0: 5dc6 5bbd 22c5 60bd 0942 f53b 55e3 b13c
000003e0: 23a7 2e3b 3c2a 46bc 5536 713b 22ac ec3b
000003f0: dc83 82bc 54c8 893c 4bfb 03bd e81a 2f3d

transformer.layers.0.linear2.bias f4 [64]
-0.014298198 -0.010469519 -0.01597448 0.008750872 -0.012196326 -0.013683607 0.009778872 0.007136907
-0.011973345 0.008355452 0.005201577 -0.01499999 0.010438995 -0.018528158 0.0028733728 -0.015849138
0.005799855 0.0019385609 -0.007244438 0.0036992566 -0.0034480563 0.008076846 0.0029308645 0.0021333466
0.012217604 -0.0065206136 0.0075423317 0.016167328 -0.0076126144 -0.0042683333 0.0069331643 0.021431323
0.007336499 -0.003394468 -0.0028987012 0.005924542 -0.006966853 0.011598921 0.006137646 0.013924411
-0.011071732 0.012531838 0.0092903 -0.0067366995 -0.004331114 -0.0076305955 -0.0033296163 -0.0045508966
-0.011108915 0.0049686683 0.00062582665 0.008013802 0.0060424847 0.008924415 0.0041735815 -0.007236262
-0.007614939 -0.0054166205 0.008752907 -0.0065612025 0.0043248455 -0.0064462894 0.0077763093 -0.0013992738
00000000: fd42 6abc 5888 2bbc eadc 82bc d15f 0f3c
00000010: 19d3 47bc 3531 60bc 9037 203c b7dc e93b
00000020: d92b 44bc 4ee5 083c fe71 aa3b 85c2 75bc
00000030: 5208 2b3c 5dc8 97bc 324f 3c3b 0dd6 81bc
00000040: b60c be3b 4f17 fe3a c062 edbb 3a6f 723b
00000050: c9f8 61bb bf54 043c bf13 403b 9ecf 0b3b
00000060: 582c 483c dfaa d5bb aa25 f73b 5871 843c
00000070: 3d73 f9bb 60dd 8bbb 992f e33b be90 af3c
00000080: 0467 f03b b975 5ebb 23f8 3dbb a922 c23b
00000090: 334a e4bb 6709 3e3c 4e1e c93b 3623 643c
000000a0: 3666 35bc 5752 4d3c 5836 183c 88bf dcbb
000000b0: 04ec 8dbb 130a fabb b135 5abb b01f 95bb
000000c0: 2b02 36bc 36d0 a23b 840e 243a 524c 033c
000000d0: 0900 c63b b637 123c 8ac2 883b 2a1e edbb
000000e0: bd86 f9bb e87d b1bb 5a68 0f3c 5bff d6bb
000000f0: 6fb7 8d3b 653b d3bb 69d0 fe3b d667 b7ba
