marble_model/best_model_v3.0_20250530_231604.pt (torch, 295593 bytes, 30 tensors)

token_embedding.weight f4 [13, 64]
0	0xbc2450fc	-0.010029074
1	0x3c8de7f6	0.017322522
2	0x3a4b4b4f	0.00077550573
3	0xbc113c2b	-0.008864443
4	0x3a56eb25	0.00081984914
5	0xbd6c4735	-0.057685096
6	0xbd03ffb2	-0.032226272
7	0xbc616ad9	-0.013758385
8	0xbb89ede6	-0.004209268
9	0x3ce0256f	0.0273616
10	0x3d1633f7	0.03667065
11	0x3b8e8b5f	0.0043501104
12	0x3cb41f93	0.021987712
13	0xbc2db7aa	-0.010602871
14	0x3d8cf9fb	0.068836175
15	0x3cadd606	0.021220218
16	0xba23041c	-0.0006218569
17	0x3b85daa6	0.004084903
18	0xbc85e313	-0.016343629
19	0xba0f1703	-0.0005458446
20	0x3ca893d0	0.020578295
21	0xbc954374	-0.01822064
22	0x3c4e54d7	0.01259347
23	0xbcb876c0	-0.022517562
24	0x3c045cad	0.008078736
25	0x3a423034	0.00074076955
26	0xbbd7ceb3	-0.0065859198
27	0x3bb815a2	0.005617813
28	0x3d054316	0.03253468
29	0x3d162e4b	0.036665242
30	0x3c237611	0.00997688
31	0xbb80a19e	-0.0039255163
32	0xbd388d4a	-0.04505662
33	0x3ca9c3a6	0.020723175
34	0xba28a099	-0.00064326223
35	0x3a6cde22	0.0009035786
36	0xbc9584ed	-0.01825186
37	0xbc06274d	-0.008188081
38	0xbc753237	-0.014965585
39	0x3ccd6b93	0.02507571
40	0x3bcee3b0	0.0063137636
41	0x3cc9926f	0.024605958
42	0xbcdf0547	-0.027224196
43	0x3c21e6a4	0.009881649
44	0xbd36b4d2	-0.044606037
45	0x3c6a8a13	0.014315146
46	0xbd235e67	-0.03988495
47	0x3bc309b4	0.0059520844
48	0xbbd02d5c	-0.0063530635
49	0xbc2cc00b	-0.0105438335
50	0xbc0ff6f9	-0.00878691
51	0xbba2b246	-0.0049650995
52	0x39906c1c	0.00027546368
53	0x3c373b92	0.011183636
54	0xbc5e0c26	-0.013552701
55	0x3b47a7f5	0.00304651
56	0xbc792e79	-0.015208834
57	0xbbc4efc9	-0.00601003
58	0x3bfc40c5	0.007698151
59	0x3c49f21d	0.012325791
60	0x3be74f70	0.0070590302
61	0x3bafba78	0.005362805
62	0x3c9e5767	0.019328786
63	0x3c81f8a4	0.015865631
64	0xbc43dc6b	-0.011954407
65	0xbcecc6ac	-0.028903328
66	0xbc7b20be	-0.015327631
67	0xbcb7fd19	-0.022459554
68	0x3cb5def2	0.022201035
69	0x3cd6ec16	0.026235621
70	0x3c05982d	0.008153957
71	0x3b83891e	0.0040141484
72	0x3c336a1a	0.01095059
73	0xbd8cd5f0	-0.06876743
74	0x3bad4c10	0.0052886084
75	0xbb833c31	-0.004004978
76	0x3cfac401	0.03061104
77	0x3c8ae70b	0.016955873
78	0x3cd0fe3b	0.025511852
79	0x3c34758f	0.011014356
80	0x3b4c3fcd	0.0031165958
81	0xbc81721a	-0.015801478
82	0x3ce7cfdb	0.028297355
83	0x3b25f161	0.0025320875
84	0xbca848c3	-0.020542508
85	0xbc9ae4f4	-0.018908001
86	0x3a01fca6	0.0004958607
87	0x3c5fcfbd	0.0136603685
88	0x3d1a220a	0.03763012
89	0xbcbebc0e	-0.02328303
90	0x398040e1	0.000244624
91	0x3c6f72e6	0.014614796
92	0x3ccf0548	0.025271073
93	0xbc8f4669	-0.017489629
94	0xbc8ea3d9	-0.017412113
95	0xbd07c8a3	-0.033150326
96	0xb96ac53c	-0.00022389455
97	0x3acaf81d	0.001548532
98	0xbcce1584	-0.025156744
99	0xbcc4b1dd	-0.024010593
100	0xbc878420	-0.016542494
101	0xbb91a2a0	-0.0044444352
102	0x3ba5df81	0.005062044
103	0x3aba43e6	0.0014210909
104	0x3d3aa1de	0.045564525
105	0x3cb815dd	0.022471363
106	0xbcd86ed1	-0.026420029
107	0xbd6804b0	-0.056645095
108	0xba443ccc	-0.0007485866
109	0x3d512978	0.05106494
110	0xbc1937e8	-0.009351708
111	0x3cd06283	0.025437599
112	0xbb367481	-0.0027840438
113	0xbcaf9422	-0.02143294
114	0x3d1cba6c	0.038263723
115	0x3b9c6ddb	0.004773838
116	0x3a233b98	0.00062268367
117	0xbc3d9ff7	-0.011573783
118	0x3cfedac1	0.03111017
119	0xbd371ffb	-0.044708233
120	0x3d0fc466	0.03509941
121	0xbbbd19a1	-0.0057708775
122	0xbcaf20c6	-0.021377932
123	0x3c7b2642	0.015328946
124	0xbbf2f2fe	-0.007414221
125	0xbd2bf5ce	-0.041982464
126	0xbd00080c	-0.031257674
127	0x3bd3e745	0.0064667785
128	0x3c4686f8	0.01211714
129	0x3b897185	0.004194441
130	0x3d0dd1c9	0.034623895
131	0xbb49eac0	-0.0030810088
132	0x3c675e26	0.014121568
133	0x3c49dfe9	0.012321451
134	0xb9ba9a09	-0.0003559145
135	0xbc70eb52	-0.014704542
136	0xbb8c2196	-0.0042764647
137	0x3c5eb4f3	0.013592946
138	0xbc9c2249	-0.019059317
139	0xbc81c0d4	-0.015839018
140	0x39ae48a2	0.00033241982
141	0xba2b6a7b	-0.0006538999
142	0x3bd62141	0.006534726
143	0xbce9388c	-0.028469346
144	0xbc4d4973	-0.012529719
145	0xbb630c2f	-0.0034644713
146	0x3cc5d9fc	0.024151795
147	0xbcf1a30b	-0.02949669
148	0x3d4670c0	0.04844737
149	0x3c0e3610	0.008679882
150	0xbbc827e6	-0.006108272
151	0x3b7ca6a2	0.003855147
152	0xbc76c5ee	-0.015061839
153	0xbc745e8f	-0.014915123
154	0x3b8d929e	0.0043204566
155	0xbb5329f8	-0.003222106
156	0x3c397841	0.011320175
157	0xbc477b0a	-0.012175331
158	0xba01103e	-0.000492338
159	0xbbb0ec2f	-0.005399249
160	0x3c8b1998	0.016979977
161	0xbb797574	-0.0038064392
162	0x3c4ed309	0.012623557
163	0xbc09c6cc	-0.008409213
164	0xbbf0e055	-0.007350961
165	0xbc88c4c1	-0.016695382
166	0x3cc2800e	0.023742702
167	0xbbe334b0	-0.006933771
168	0xbc8473c9	-0.016168492
169	0xbc767de3	-0.015044662
170	0x3c0f4087	0.008743412
171	0x3b89f544	0.004210146
172	0xbd3e99e1	-0.04653347
173	0x383d0d87	4.507371e-05
174	0xbd0175b9	-0.03160641
175	0x3d522acc	0.051310346
176	0xbb9947fe	-0.0046777716
177	0xbca078f0	-0.019588917
178	0x3bdee140	0.0068017542
179	0x3ce68b7b	0.028142681
180	0xbc9392a0	-0.018014252
181	0xbc4fd6ef	-0.0126855215
182	0xbac06215	-0.0014677668
183	0xbb9048c4	-0.0044032056
184	0x3ced302f	0.02895364
185	0xbc98dcb0	-0.01865992
186	0x3ce4dd8a	0.02793767
187	0xbbd543d7	-0.0065083313
188	0x3c0ff175	0.008785595
189	0x3c5fc9ec	0.013658982
190	0xbc19e829	-0.00939373
191	0xbc094cd4	-0.008380134
192	0x3c4c94c1	0.012486638
193	0x3d08f086	0.033432506
194	0x3b501745	0.003175215
195	0xbbf2e22c	-0.0074122157
196	0x3c80520a	0.01566412
197	0x3d066334	0.03280945
198	0xbcbef913	-0.023312127
199	0x3d5fd9ba	0.054651
200	0x3cac4b9d	0.021032149
201	0xbcc6fa09	-0.024289148
202	0xbd2a39e9	-0.041559134
203	0xbc1c1221	-0.009525807
204	0xbc90bad5	-0.017667213
205	0xbc80ae2d	-0.015708053
206	0x3b7bff76	0.0038451827
207	0xbd46080f	-0.04834753
208	0xbbbd2ab2	-0.005772912
209	0xbbdb18f5	-0.0066863247
210	0x3c629827	0.013830221
211	0x3c83a8e6	0.016071748
212	0xbc9b4224	-0.018952437
213	0xbc8e9535	-0.017405132
214	0xbc596125	-0.01326779
215	0xbca5fcd1	-0.020262154
216	0x3c98b8c5	0.018642792
217	0xba39bd21	-0.00070853723
218	0xbd07967e	-0.033102505
219	0xbcd61979	-0.026135193
220	0xbc4a085b	-0.012331094
221	0xbc3454ce	-0.011006547
222	0x3b8f1882	0.004366935
223	0x3ce2f4c4	0.027704604
224	0x3d653c6a	0.05596582
225	0x3b0df603	0.0021661527
226	0xbcd05669	-0.025431829
227	0xbb1a323b	-0.0023528475
228	0x3b9d1d52	0.004794755
229	0xbcce32a7	-0.025170637
230	0x3c6df1da	0.014522994
231	0xbc85f1ac	-0.01635059
232	0xbcd6b546	-0.026209485
233	0x3c7dfb60	0.015501827
234	0xbcee7ea7	-0.029113127
235	0x3d204551	0.039128605
236	0xbc566606	-0.013085848
237	0xbbde05a1	-0.0067755734
238	0x3c18cb45	0.009325807
239	0xbb21c0bc	-0.002468153
240	0x3d321498	0.04347667
241	0x3c69bd2f	0.014266296
242	0xbce2a41a	-0.02766614
243	0x3cf348a9	0.029697733
244	0x3bbb2761	0.0057114814
245	0xbd101e99	-0.03518543
246	0x3cf72a59	0.03017156
247	0x3b0c2027	0.002138147
248	0x3bf47663	0.007460402
249	0x3c954018	0.018219039
250	0x3d1fe170	0.039033353
251	0x3bff8215	0.0077974894
252	0xbcd01ea8	-0.025405243
253	0x3cd67d59	0.026182817
254	0x3cebd19b	0.028786471
255	0x3c0e22af	0.008675261

position_embedding.weight f4 [30, 64]
0	0xbcb21ff2	-0.021743748
1	0xbcf6e048	-0.030136243
2	0x3cc3f74a	0.023921628
3	0xbd027880	-0.0318532
4	0x3b3b9a04	0.0028625736
5	0x3ce4febc	0.027953498
6	0x3c41385c	0.011793222
7	0x3d4c27e3	0.049842726
8	0x3d382628	0.044958264
9	0xbbfae57a	-0.0076567503
10	0x3c731e15	0.014838715
11	0x3c603bb2	0.0136861075
12	0x3cec4232	0.028840158
13	0xba87411a	-0.0010319084
14	0x3ce2fc7f	0.02770829
15	0x3d21ad39	0.03947184
16	0x3b8e6d36	0.004346515
17	0xbc7bb75e	-0.015363542
18	0x3cb6532b	0.022256454
19	0x3c427bb4	0.011870313
20	0xbd091d2b	-0.033475082
21	0xbb48284e	-0.0030541602
22	0x3d1fe3fe	0.03903579
23	0x3ccc3826	0.024929117
24	0xbc17691b	-0.009241368
25	0xbc1b2363	-0.009468886
26	0x3d2c59b8	0.04207775
27	0xbc46d86f	-0.012136563
28	0x3cc9f05a	0.024650741
29	0xbd2f0cf2	-0.042736955
30	0xbc809362	-0.015695278
31	0xbc15110b	-0.009098302
32	0xbbc638ac	-0.0060492363
33	0x3c2851bc	0.010273393
34	0xbc03046e	-0.007996662
35	0xbcef56b9	-0.029216157
36	0xbb77631d	-0.0037748285
37	0x3b33544a	0.0027363473
38	0xbd419116	-0.047257505
39	0x3cf89512	0.03034452
40	0x396664af	0.00021972017
41	0x3c8d5788	0.017253652
42	0xbc19be02	-0.00938368
43	0x3b173518	0.0023072418
44	0x3bd6151a	0.006533277
45	0x3c0fd31a	0.008778358
46	0xbd12b2a2	-0.03581489
47	0x3ced9a9c	0.029004388
48	0x3c7f8796	0.015596291
49	0xbd213855	-0.039360363
50	0xba2aa36c	-0.0006509337
51	0x3c57a5ca	0.013162086
52	0xbc934af3	-0.017980075
53	0xbbab328c	-0.0052245315
54	0x3cbb9ba0	0.022901356
55	0x3a545fb4	0.0008101419
56	0x3c88edac	0.016714893
57	0xbbb9e411	-0.0056729396
58	0xbb26b757	-0.002543887
59	0x3cbeaaa4	0.023274727
60	0x3d4cfb8a	0.050044574
61	0xbcc5d21f	-0.024148045
62	0xbc26278f	-0.010141267
63	0xbc84f395	-0.01622943
64	0xbc7107ee	-0.014711363
65	0xbd268a26	-0.040659092
66	0xbcd0f8c2	-0.025509242
67	0x3cde76db	0.027156284
68	0x3cc166ee	0.023608651
69	0xbcab3d3b	-0.02090322
70	0xbc643547	-0.013928718
71	0x399f7953	0.00030417237
72	0xbc13ca78	-0.00902044
73	0xbc08d1bd	-0.008350787
74	0x3d3a252c	0.045445606
75	0xbc81e31f	-0.01585537
76	0xbb9a0df4	-0.0047013704
77	0xbc1aea65	-0.009455298
78	0x39d79ed4	0.00041126332
79	0xbc239883	-0.009985092
80	0x3c2465e6	0.01003406
81	0x3ce885fe	0.028384205
82	0xbc860e88	-0.01636435
83	0xbd485214	-0.0489064
84	0x3cfa58d3	0.030559933
85	0x3d112637	0.035436835
86	0x3c82daaa	0.015973408
87	0x3b9964a0	0.004681185
88	0x3c26cf91	0.010181324
89	0xbbdc7b32	-0.006728553
90	0xbc17e726	-0.009271419
91	0x3cf4507d	0.029823536
92	0xbca5665b	-0.020190408
93	0x3d3333ce	0.043750577
94	0x3c7bd9ce	0.015371753
95	0x3ba9cf92	0.005182215
96	0xbcbcbf00	-0.023040295
97	0xbb4f650f	-0.003164593
98	0x3ce94684	0.028476007
99	0xbcc5dbfc	-0.024152748
100	0x3c87d6ac	0.016581856
101	0x3d4ef360	0.05052507
102	0x3b331ab3	0.0027329146
103	0x3d1f634e	0.038913064
104	0x3c294dc9	0.010333487
105	0xbcf179f6	-0.0294771
106	0xbaae4c2e	-0.001329785
107	0xbbb1ff84	-0.005432071
108	0x3c4f7cb3	0.012664008
109	0xbd0be04f	-0.034149464
110	0x3afbefe8	0.0019221278
111	0xbb111e73	-0.0022143393
112	0xbd1d37cc	-0.03838329
113	0x3d065030	0.032791317
114	0x3bea9648	0.007159028
115	0xbc6ad97b	-0.014334078
116	0xbd0f0b01	-0.034922604
117	0x3d04882b	0.032356422
118	0xbb9082d1	-0.004410126
119	0x3bf7765b	0.007551951
120	0xbd2fa2b6	-0.042879783
121	0xbcc3e209	-0.023911493
122	0x3c19829d	0.00936952
123	0xbcb1c6cb	-0.021701237
124	0x3b6ec3df	0.0036432666
125	0x3d592af3	0.053019475
126	0xbc97cada	-0.018529344
127	0xbc7d4df4	-0.01546048
128	0x3a7f7aca	0.0009745775
129	0xbd188618	-0.037237257
130	0x3d4af77e	0.049552433
131	0x3cc81690	0.024424821
132	0x3c83ecac	0.016104065
133	0x3c9e281e	0.019306239
134	0xbc465fc7	-0.012107796
135	0xbc1e7dbd	-0.009673533
136	0xbcb56fb6	-0.022147994
137	0x3d127590	0.035756648
138	0x3b9fc7d6	0.004876117
139	0x3c9e55be	0.019327994
140	0xbcd22dc5	-0.02565659
141	0xbaaa29a6	-0.0012982383
142	0xbc3b2181	-0.011421562
143	0x3ca6d4bb	0.02036511
144	0x3d81517e	0.063143715
145	0x3d460ced	0.04835217
146	0xbc674adb	-0.014116968
147	0xbca3171c	-0.01990848
148	0xbcf56a8c	-0.029958032
149	0xbca63090	-0.020286828
150	0x388e79da	6.793784e-05
151	0xbd3485a2	-0.044072755
152	0x3cd74211	0.02627662
153	0xbd1e4059	-0.038635585
154	0x3bee93cb	0.007280802
155	0xbb1c3c4c	-0.002383965
156	0xbd3396cf	-0.043844994
157	0xbcb3a45d	-0.02192896
158	0xbd3d7a97	-0.04625949
159	0x3c092061	0.008369536
160	0xbc5a478b	-0.013322721
161	0x3cce0387	0.025148166
162	0x3c9351c1	0.01798332
163	0x3d3561e4	0.04428281
164	0x3cd3668d	0.025805736
165	0xba49182c	-0.00076711434
166	0x3d074fb5	0.033035
167	0x3bc73ca5	0.0060802274
168	0xbcceb406	-0.025232326
169	0x3c4539cc	0.012037706
170	0xbccc599f	-0.024945078
171	0x3cf96ca3	0.03044731
172	0xbcc2bfe1	-0.023773136
173	0xbd57b291	-0.05266053
174	0x3d036fd4	0.03208907
175	0xbd33897a	-0.04383228
176	0xbb891368	-0.0041832216
177	0x3c8b20a5	0.01698334
178	0x3c8b6190	0.017014295
179	0x3c6d51c9	0.014484831
180	0x3c92edba	0.017935622
181	0xbc24dcf9	-0.01006245
182	0xbd8581af	-0.06518876
183	0x3d5c0599	0.053716276
184	0x3d46992e	0.048485927
185	0x3c94eeb3	0.018180227
186	0xbd2efab8	-0.042719573
187	0x3c97a930	0.018513292
188	0x3bb9b638	0.005667474
189	0x3d31a8b0	0.043373764
190	0x3ccf1486	0.025278341
191	0xbcf25575	-0.029581765
192	0xbb6cae2f	-0.0036114564
193	0x3cc2cb9c	0.02377873
194	0xbc4b8313	-0.012421387
195	0x3ca0439e	0.019563492
196	0x3d248e29	0.040174637
197	0xbcdf15cb	-0.027232071
198	0xbc1c8125	-0.009552275
199	0xbcf27e42	-0.02960122
200	0xbca409d0	-0.02002421
201	0xbcbc75e1	-0.023005428
202	0x3ba61f6f	0.005069665
203	0xbcb6283e	-0.022235986
204	0x3b84562c	0.004038593
205	0x3c922f45	0.017844805
206	0xbcf0fc76	-0.029417258
207	0xbc25131a	-0.010075355
208	0xbcf04d1d	-0.029333645
209	0xbbd47c5f	-0.0064845528
210	0xbb8c15aa	-0.0042750435
211	0xbae920c0	-0.001778625
212	0x3c880d14	0.016607799
213	0xbb49bf6d	-0.0030784265
214	0x3bce1054	0.0062885676
215	0x3d127541	0.035756353
216	0x3caaeb20	0.02086407
217	0xbbdadca7	-0.006679136
218	0xbb064e05	-0.002049328
219	0x3cda26e1	0.026629867
220	0x3c97820a	0.018494625
221	0x3c9cb48e	0.019129064
222	0x3cce53e1	0.025186481
223	0x3c6cb436	0.0144472625
224	0x3bcbf3ab	0.006224116
225	0xbb64e4cf	-0.003492642
226	0x3b2711f6	0.0025492883
227	0xba3d428d	-0.00072196947
228	0xbc802eb9	-0.01564728
229	0x3d5cf88d	0.053947974
230	0x3cb7c676	0.0224335
231	0x3ba4a064	0.005024003
232	0x3d25d516	0.040486418
233	0xbd60824a	-0.054811753
234	0xbb574d51	-0.003285248
235	0x3c5417a2	0.012945088
236	0x3c089d8c	0.008338343
237	0x3c9ed5fe	0.019389149
238	0x3c2187ef	0.009859069
239	0x3cba8860	0.022770107
240	0xbccc81c9	-0.02496423
241	0x3b67d229	0.0035373068
242	0xbceb134b	-0.028695723
243	0xbbb52068	-0.0055275448
244	0x3c8389ac	0.016056858
245	0x3cf6d324	0.030129977
246	0x3bb5eba3	0.0055517717
247	0x3d06440b	0.032779735
248	0xbcd0f745	-0.025508532
249	0x3b68a36b	0.0035497795
250	0x3bfc0d42	0.00769201
251	0xbcb7ddd8	-0.02244465
252	0xbb1b2184	-0.00236711
253	0x3c1dbd3c	0.0096276365
254	0xbb3c7648	-0.0028757025
255	0x3c641a20	0.013922244

transformer.layers.0.self_attn.in_proj_weight f4 [192, 64]
0	0x3e10051f	0.14064454
1	0xbd61bb3e	-0.05511021
2	0x3e3dc022	0.18530324
3	0xbdc35843	-0.09538319
4	0xbd85a484	-0.065255195
5	0xbe02cc6e	-0.12773296
6	0x3df73644	0.12070897
7	0xbdf6eab1	-0.120564826
8	0x3d82151d	0.06351683
9	0xbd7529a2	-0.059854157
10	0xbd9c8b26	-0.07643728
11	0xbcd48c5b	-0.025945833
12	0x3d070145	0.032960195
13	0xbdce983d	-0.10087631
14	0xbded93ac	-0.11600432
15	0xbe02fc3d	-0.12791534
16	0x3da03669	0.07822878
17	0xbd874574	-0.06605044
18	0x3e388600	0.18019867
19	0x3d93f3b4	0.07224217
20	0xbe2b3a02	-0.16721347
21	0xbe157093	-0.14593725
22	0xbd043aa4	-0.032282487
23	0xbdf25a90	-0.1183368
24	0x3da952ce	0.08267747
25	0xbd218379	-0.039432023
26	0xbe16401c	-0.14672893
27	0xbdc4d4c5	-0.09610895
28	0xbd74f135	-0.059800345
29	0xbe2677fa	-0.16256705
30	0xbcda96ab	-0.026683172
31	0x3dbdbdd9	0.09264726
32	0x3c599ac3	0.013281527
33	0x3e13a0df	0.14416836
34	0xbcac42ce	-0.021027949
35	0xbdb81716	-0.08988778
36	0xbdf8719e	-0.12131046
37	0xbe23dd1e	-0.16002318
38	0x3dcffddd	0.101558425
39	0x3c41df7a	0.011833066
40	0xbd9ada19	-0.0756113
41	0x3e150037	0.14550863
42	0xbdc5b7d9	-0.09654207
43	0x3d8cf13f	0.068819515
44	0xbe41024b	-0.18848531
45	0x3dabca79	0.08388228
46	0x3d054db0	0.03254479
47	0x3c8d3270	0.017235965
48	0xbda02cf9	-0.07821078
49	0xbbd18551	-0.0063940664
50	0xbd97e4a9	-0.0741666
51	0x3e301871	0.17196824
52	0xbd1e4427	-0.038639214
53	0x3c423d80	0.011855483
54	0x3d9d0d21	0.0766852
55	0x3d95d39c	0.07315752
56	0xbdcb161d	-0.09916327
57	0xbd965250	-0.073399186
58	0xbe0a2362	-0.1349006
59	0x3e002c0d	0.12516804
60	0x3de47bec	0.11156449
61	0xbe235d47	-0.15953551
62	0x3e265c77	0.1624621
63	0xbc4b0a18	-0.012392543
64	0xbe2eb60d	-0.17061634
65	0xbdf6e2cc	-0.12054977
66	0xbaf42b8a	-0.0018628698
67	0xbd61abc0	-0.055095434
68	0xbe020ed8	-0.12700975
69	0xbcadbb5f	-0.02120751
70	0x3db23bc2	0.08702804
71	0xbe6501d8	-0.22363985
72	0x3e603acb	0.21897428
73	0x3e274adb	0.16337149
74	0xbd977074	-0.073944956
75	0x3c3cfa14	0.011534233
76	0x3d973e8f	0.07384979
77	0x3e1fcbd3	0.15605097
78	0x3e061b34	0.13096315
79	0x3d0ec361	0.034854297
80	0x3dd341e9	0.10315306
81	0xbe502fdc	-0.20330757
82	0xbddbe067	-0.10736161
83	0xbe096af7	-0.1341971
84	0x3c8a508d	0.016884113
85	0xbd2c68c8	-0.042092115
86	0x3e71cc62	0.23613122
87	0x3cda6e8f	0.026664047
88	0xbe62a911	-0.22134806
89	0xbd580b13	-0.052744936
90	0x3dbff030	0.09371984
91	0x3e20ee9d	0.15716024
92	0x3e3630b2	0.17792013
93	0x3dc22822	0.09480311
94	0xbe45f24f	-0.19330715
95	0xbe389189	-0.18024267
96	0xbd03ccf6	-0.032177888
97	0xbd978092	-0.0739757
98	0x3d29f9ac	0.04149787
99	0xbdacdd14	-0.08440605
100	0xbd3c057b	-0.045903664
101	0xbd0f11f1	-0.03492922
102	0xbccb29c6	-0.024800193
103	0x3e7957aa	0.24349847
104	0x3d514d19	0.051098917
105	0xbe277692	-0.16353825
106	0x3d0b207b	0.033966523
107	0xbe1b27a7	-0.15151845
108	0x3db48313	0.08814063
109	0x3cc56807	0.024097456
110	0xbe409efc	-0.18810648
111	0x3df616a4	0.12016037
112	0x3a2f3632	0.0006683796
113	0xbe6275ac	-0.22115201
114	0x3e63cdf0	0.22246528
115	0xbd272a0f	-0.040811595
116	0xbdfddb60	-0.12395358
117	0x3dd4edfc	0.103969544
118	0xbc10a618	-0.008828662
119	0xbcdefa96	-0.027219098
120	0x3dd755d9	0.10514421
121	0xbe57c1c5	-0.21070011
122	0xbdcb8e42	-0.09939243
123	0xbdf10707	-0.117689185
124	0x3d363115	0.044480402
125	0x3d6e7657	0.058218326
126	0xbe6e22ac	-0.23255414
127	0x3e444a55	0.1916898
128	0x3e0c693d	0.1371202
129	0xbcd52e24	-0.026022978
130	0x3e192669	0.14956059
131	0x3e129278	0.14313686
132	0x3d0b9835	0.034080703
133	0x3e387fa7	0.18017446
134	0x3cfa1765	0.030528734
135	0xbdbe80e1	-0.093019255
136	0x3ccbc3b1	0.024873586
137	0xbe1ce619	-0.1532215
138	0xbe262345	-0.16224392
139	0xbe0f6635	-0.14003833
140	0xbe2f6ed3	-0.1713212
141	0xbe034335	-0.12818606
142	0xbda4dd30	-0.08050001
143	0xbd0bf6a8	-0.034170777
144	0x3b4c4b03	0.003117264
145	0x3dc88ae5	0.09792117
146	0x3e56f8ad	0.209933
147	0x3d6a94fd	0.057270993
148	0x3d88b4cc	0.06675109
149	0xbd937c3e	-0.07201432
150	0xbdc3ae96	-0.09554784
151	0x3dbf968a	0.09354885
152	0x3de9a79e	0.114089236
153	0xbd31031b	-0.043215852
154	0xbe35b0bf	-0.17743205
155	0x3a09cb2c	0.000525641
156	0xbe19042e	-0.14943
157	0xbe5ae8f0	-0.21377921
158	0xbbbe0f07	-0.0058001312
159	0x3ce839fa	0.028347958
160	0x3d4e8b46	0.05042579
161	0x3c807362	0.015680019
162	0x3d80e47b	0.06293579
163	0x3d93de49	0.07220132
164	0xbd966a31	-0.07344473
165	0xbe34c8e8	-0.17654765
166	0x3e434a5e	0.19071338
167	0x3d7e4dad	0.062085796
168	0xbde6aa93	-0.11263003
169	0xbd057bd4	-0.032588795
170	0xbd6348ad	-0.05548923
171	0x3c9e00b5	0.019287447
172	0xbe5c811a	-0.21533623
173	0x3e0dcf67	0.13848649
174	0x3e211dec	0.1573407
175	0xbdc22311	-0.09479345
176	0xbda385f6	-0.079845354
177	0x3d1eda03	0.03878213
178	0xbc8ff094	-0.017570771
179	0x3e0288e4	0.12747532
180	0x3d7ead86	0.062177204
181	0xbc5c05fc	-0.013429161
182	0x3e4e1f63	0.2012916
183	0x3de55c35	0.11199228
184	0xbe0abeac	-0.13549298
185	0x3d47314f	0.04863101
186	0x3d94db33	0.072683714
187	0xbddfe67d	-0.10932634
188	0xbd46420c	-0.04840283
189	0x3c482462	0.012215706
190	0x3d8bcaa8	0.06825763
191	0x3db41d52	0.08794655
192	0xbd6b334a	-0.05742196
193	0xbe609c44	-0.2193461
194	0xbc816d44	-0.015799172
195	0x3d0adde3	0.033903014
196	0x3c781c40	0.015143454
197	0xbe38f31b	-0.18061487
198	0xbd8d32b7	-0.06894439
199	0x3af734cd	0.001886034
200	0x3dac1229	0.08401901
201	0x3e3ebbbb	0.18626301
202	0x3d8e421a	0.069462016
203	0x3dea172d	0.11430202
204	0xbcbc7321	-0.023004116
205	0xbc323afb	-0.01087832
206	0x3c9efe42	0.019408349
207	0xbcd6d01f	-0.026222287
208	0x3e1e46bb	0.15456669
209	0xbe0f1075	-0.13971122
210	0xbdf33f54	-0.11877313
211	0xbaf0fd3d	-0.0018386018
212	0xbd244bac	-0.04011123
213	0x3e53ce1c	0.20684093
214	0x3d97549f	0.07389187
215	0xbca5b0ef	-0.02022597
216	0xbd02b017	-0.031906214
217	0xbd8eac6c	-0.069664806
218	0x3e31976e	0.17342922
219	0x3d7ed5eb	0.062215727
220	0x3df5d161	0.120028265
221	0x3e08d649	0.13362993
222	0xbd79e89e	-0.061012857
223	0xbe7edda9	-0.24889244
224	0xbe12a84c	-0.14322013
225	0xbe636213	-0.22205381
226	0x3e0c225c	0.13684982
227	0x3d815dfe	0.06316756
228	0xbd687973	-0.056756448
229	0x3d61eca5	0.055157322
230	0x3b5830e6	0.003298813
231	0x3e7788f8	0.24173343
232	0xbca2c76e	-0.019870486
233	0xbdc5571e	-0.09635757
234	0xbdc4a25f	-0.09601282
235	0xbde1a80c	-0.110183805
236	0x3ca3b148	0.019981995
237	0xbcfc9915	-0.030834714
238	0x3cb08345	0.02154697
239	0xbd0fb1ad	-0.035081554
240	0xbdae8418	-0.08521289
241	0xbde7966b	-0.11307987
242	0xbc9da4b6	-0.01924358
243	0xbe550b07	-0.20804988
244	0xbe2f5221	-0.17121173
245	0xbd8ec299	-0.0697071
246	0xbe339e6d	-0.17540903
247	0xbd7ce0c4	-0.06173779
248	0x3df6d880	0.12053013
249	0xbdad847b	-0.08472534
250	0x3dc4a9e0	0.096027136
251	0x3ab225be	0.001359157
252	0x3e17c569	0.148214
253	0xbce0b6c8	-0.027430907
254	0xbd691122	-0.056901105
255	0x3dd7a023	0.105285905

transformer.layers.0.self_attn.in_proj_bias f4 [192]
0	0x3b553df5	0.003253815
1	0xbda127ee	-0.07868944
2	0x3d49af39	0.04923937
3	0xbd9f5e83	-0.077816986
4	0xbdce0ad3	-0.10060658
5	0x3d7b0089	0.061279807
6	0xbda44454	-0.08020845
7	0xbd2e0fc6	-0.04249551
8	0x3cb8e891	0.022571834
9	0x3d802b5a	0.06258269
10	0xbd8fad36	-0.07015459
11	0x3d6ce01d	0.05783092
12	0xbdd2f968	-0.10301477
13	0xbdb69b4e	-0.08916341
14	0x3d9d24fa	0.07673068
15	0x3d44e544	0.048070207
16	0xbce9387c	-0.028469317
17	0xbd603ba5	-0.05474438
18	0xbc9d4ed3	-0.019202625
19	0x3d8bc98f	0.068255536
20	0xbd234391	-0.03985936
21	0xbd8a1b69	-0.06743509
22	0x3da91436	0.08255808
23	0xbdb5d310	-0.088781476
24	0x3d2c5910	0.042077124
25	0x3cf09ce7	0.029371692
26	0x3da29ea8	0.079404175
27	0x3d9ce0f3	0.07660093
28	0x3d7a1302	0.061053284
29	0x3d01a88f	0.03165489
30	0xbdb0da2e	-0.086353645
31	0x3d0d75fd	0.03453635
32	0x3d9a8a02	0.07545854
33	0xbd886ce8	-0.06661397
34	0x3dd08593	0.10181727
35	0xbda0d225	-0.07852582
36	0xbd209b36	-0.03921052
37	0x3d9f2be9	0.07772047
38	0x3c875a84	0.016522653
39	0x3d174a6c	0.03693621
40	0x3d05564e	0.03255301
41	0xbd5ebcd6	-0.054379307
42	0xbd4b74c5	-0.049671907
43	0x3db63fe8	0.08898908
44	0xbcfec7f6	-0.031101208
45	0xbd7c4fc6	-0.061599515
46	0xbcc2abd5	-0.023763577
47	0x3cca5202	0.024697307
48	0x3d6d6df1	0.057966176
49	0xbd5a3dc1	-0.05328155
50	0xbdc39bb2	-0.09551181
51	0x3d580eab	0.052748363
52	0x3d65dc44	0.056118265
53	0x3d90d365	0.0707157
54	0x3d8ac443	0.06775715
55	0xbd6b2d05	-0.05741598
56	0xbd29efaf	-0.041488346
57	0x3d682f31	0.05668563
58	0x3da3c78b	0.07997044
59	0xbdb15a2c	-0.08659777
60	0xbd3b76a0	-0.045767426
61	0x3da66696	0.081250355
62	0x3c3377ef	0.010953887
63	0xbd7f8a7a	-0.06238792
64	0x34865365	2.5020123e-07
65	0x36a5c147	4.9398836e-06
66	0x361c82de	2.3321986e-06
67	0x3714a0a1	8.858887e-06
68	0x36ae76cc	5.199434e-06
69	0x370c4dd6	8.362773e-06
70	0x3602cd4a	1.9491004e-06
71	0xb6087d1c	-2.0338402e-06
72	0x35cd8e78	1.5315154e-06
73	0x36da3259	6.5027675e-06
74	0x3386c3f8	6.275508e-08
75	0x36adb8d4	5.1773186e-06
76	0xb80d74e5	-3.3725886e-05
77	0xb6fa06aa	-7.4513564e-06
78	0xb51b0a4f	-5.7757e-07
79	0xb67c0e52	-3.7559262e-06
80	0x36945cee	4.421562e-06
81	0xb5d67279	-1.5977558e-06
82	0x34ba56e6	3.4708427e-07
83	0x371309ea	8.764191e-06
84	0xb766744a	-1.3736144e-05
85	0xb5b52d51	-1.349874e-06
86	0x371851d7	9.078961e-06
87	0xb72d0b96	-1.0314301e-05
88	0x365d0410	3.293393e-06
89	0x3702f432	7.80546e-06
90	0x369a9fdb	4.6081673e-06
91	0x37c507f1	2.3487928e-05
92	0x362d0100	2.577959e-06
93	0xb6b89e21	-5.502036e-06
94	0xb7b561f5	-2.1622496e-05
95	0x3643ea8c	2.9193789e-06
96	0xb5b708e6	-1.3637152e-06
97	0x37d6066a	2.5513775e-05
98	0xb79c23da	-1.8613344e-05
99	0x35d2e987	1.5714185e-06
100	0x3710a588	8.62161e-06
101	0x3765ddb7	1.3701086e-05
102	0xb60a6a82	-2.0625598e-06
103	0x361b19bc	2.311178e-06
104	0xb6db8382	-6.542018e-06
105	0xb5e7026f	-1.721155e-06
106	0xb6f71472	-7.363554e-06
107	0x3648b6f1	2.9908808e-06
108	0x36822bd4	3.879404e-06
109	0x379838d6	1.8146278e-05
110	0xb62f730a	-2.6143994e-06
111	0xb666a396	-3.436789e-06
112	0xb636ab1e	-2.7219717e-06
113	0xb5f457e0	-1.8204992e-06
114	0x37b0597b	2.1022503e-05
115	0xb60edbe5	-2.1287644e-06
116	0xb6a8a057	-5.025456e-06
117	0x363d3159	2.8191919e-06
118	0xb7308276	-1.0520793e-05
119	0x3689b507	4.1039925e-06
120	0xb65c79d8	-3.2853477e-06
121	0xb69de661	-4.7057842e-06
122	0xb7756935	-1.4627633e-05
123	0x3768f946	1.3886316e-05
124	0xb6961940	-4.473288e-06
125	0xb711df5a	-8.694677e-06
126	0xb504b880	-4.9442315e-07
127	0x36660488	3.4275308e-06
128	0x3c5e209a	0.0135575775
129	0x3bbabec9	0.005699013
130	0xbae47bd1	-0.001743192
131	0x3b91f0f4	0.0044537727
132	0xbbb7dd4a	-0.0056110965
133	0xbc1c56bf	-0.009542166
134	0x3b197ff0	0.0023422204
135	0x3b08f046	0.0020895167
136	0xbb941970	-0.004519634
137	0xbc13356c	-0.008984905
138	0x3be134f4	0.0068727676
139	0x3c1bf60d	0.009519112
140	0xbb549569	-0.0032437688
141	0xbab89405	-0.0014082199
142	0xbadec32e	-0.0016995424
143	0x3b19c2b0	0.002346199
144	0xbaf15cbe	-0.001841448
145	0xbb93ab0b	-0.004506474
146	0xbbcefff0	-0.006317131
147	0xbb838f57	-0.00401489
148	0xbb16a84d	-0.0022988499
149	0xbbf8c3d7	-0.0075917053
150	0x3a3a33b9	0.0007103044
151	0xbba48809	-0.0050210995
152	0x3bb1a9c6	0.00542185
153	0x3bb24d66	0.0054413555
154	0xbac69aad	-0.0015152298
155	0x3c002600	0.00782156
156	0xbc0ebf87	-0.008712656
157	0xbb66d16e	-0.0035220045
158	0x3bf694f9	0.007525083
159	0x3bf6dd91	0.007533737
160	0xbc280746	-0.01025564
161	0x3b9d82a5	0.004806834
162	0x3ad20ac5	0.0016024938
163	0xbbf06281	-0.0073359613
164	0x3ace887e	0.001575723
165	0xb9c1fa0c	-0.00036998128
166	0x3bcd3efb	0.0062636114
167	0x3b75a989	0.0037485084
168	0x3c2eecdf	0.010676592
169	0x3b6452d4	0.0034839408
170	0x3bd015e9	0.006350268
171	0xbb56f54b	-0.0032800015
172	0x3bafce56	0.0053651733
173	0xbc30da65	-0.010794257
174	0xbad0a01e	-0.0015916859
175	0xbbd9a702	-0.0066422233
176	0x3a8265ec	0.0009948588
177	0xbc210ab2	-0.00982921
178	0x3c40aefc	0.0117604695
179	0x3bc30256	0.005951206
180	0xba5733d5	-0.00082093227
181	0xbb192ff3	-0.0023374527
182	0x3966ffbe	0.0002202978
183	0xb99345d2	-0.00028090045
184	0x3af2868b	0.0018503232
185	0xbb24ac29	-0.002512703
186	0xbc0ceeb3	-0.008601832
187	0x3babb66c	0.0052402522
188	0x3bdc6473	0.0067258417
189	0xbb4783cc	-0.0030443547
190	0xba65807c	-0.00087548024
191	0xbb825293	-0.003977129

transformer.layers.0.self_attn.out_proj.weight f4 [64, 64]
0	0x3c44e1b6	0.012016704
1	0xbcaf7196	-0.021416467
2	0xbc35227d	-0.011055586
3	0x3ca624cf	0.020281224
4	0x3cade3a9	0.02122672
5	0xbbb3550a	-0.005472784
6	0xbc33af50	-0.010967091
7	0xbbc60962	-0.006043599
8	0x3d1301d4	0.035890415
9	0xbb08305b	-0.0020780775
10	0x3c1ea754	0.009683449
11	0x3b9abf88	0.0047225393
12	0x3cc26f2c	0.023734652
13	0x3d2d19b4	0.04226084
14	0x3d384861	0.0449909
15	0xbae208ad	-0.0017245017
16	0x3cbfe4cc	0.023424529
17	0x3c5a9076	0.013340106
18	0x3b339881	0.0027404132
19	0x3d17da1f	0.03707325
20	0xbccb984a	-0.02485289
21	0x3d1f945d	0.03895985
22	0xbc220a43	-0.009890142
23	0x3c571248	0.013126917
24	0xbc398b6b	-0.011324744
25	0x3a03bc15	0.000502528
26	0xbc8d4452	-0.017244492
27	0x3bbca021	0.0057563935
28	0xbb6f01e6	-0.0036469637
29	0xbcce8cd7	-0.025213642
30	0x3cd9da05	0.026593218
31	0x3919043d	0.00014592796
32	0x3c7b29b2	0.015329765
33	0xbbdf71c5	-0.0068189823
34	0x3b8beb8f	0.004270024
35	0x3c1710f9	0.009220355
36	0xbcab4047	-0.020904673
37	0xbc3cb558	-0.011517845
38	0xbd0f0245	-0.034914274
39	0xbbc8e8d5	-0.0061312714
40	0x3c76e950	0.0150702745
41	0xbd0878e1	-0.033318404
42	0xbc549734	-0.012975503
43	0xbc60110f	-0.013675942
44	0x3cc1cc3e	0.02365696
45	0xbc44f5f8	-0.012021534
46	0x3a4cc5bd	0.0007811448
47	0x3ca163b6	0.019700866
48	0xbc457740	-0.012052357
49	0xbc528aa1	-0.0128504345
50	0xbc899df1	-0.016798945
51	0x3c8d53c1	0.017251851
52	0x3cf99cca	0.03047027
53	0x3bf63203	0.007513286
54	0x3d3fdcb2	0.04684133
55	0xbbda01de	-0.0066530546
56	0x3ab21781	0.0013587327
57	0xbb03b284	-0.0020095417
58	0xbb1b1f48	-0.0023669768
59	0xbc79d942	-0.015249552
60	0xbb88b6a0	-0.004172161
61	0xbb80333d	-0.003912358
62	0xbcaa17c7	-0.020763291
63	0xbd01647f	-0.03158998
64	0xbc85b481	-0.016321423
65	0xbacbf29a	-0.0015559972
66	0xbc583224	-0.013195548
67	0xbd321d91	-0.043485228
68	0x3d3f2f93	0.04667623
69	0x3ccc4640	0.024935842
70	0x3c3a0cf9	0.011355632
71	0x3c86dc98	0.01646261
72	0x3db46f90	0.08810341
73	0x3a3bc31f	0.0007162559
74	0xbcee48c6	-0.029087435
75	0xbd80d561	-0.06290699
76	0x3c0ad2af	0.008473082
77	0x3c38aeab	0.011272113
78	0xbc82ac6e	-0.015951362
79	0xbd7576f1	-0.059927884
80	0x3cc444e9	0.02395864
81	0x3d132c8c	0.035931155
82	0x3c9b4cb1	0.018957468
83	0x3cdab5b0	0.026697963
84	0xbcaee5de	-0.021349844
85	0x3cb2bc57	0.021818323
86	0xbd364b82	-0.044505604
87	0xbd971798	-0.07377547
88	0xbd51f6cc	-0.051260754
89	0x3c86ec9b	0.016470244
90	0x3ac9d1ed	0.0015397646
91	0xbbb4c56d	-0.005516699
92	0x3cfede1b	0.031111768
93	0xbc8fa51c	-0.017534785
94	0x3d160fbb	0.036636095
95	0xbc4bca94	-0.012438435
96	0x3cacc18c	0.021088384
97	0xbd67e048	-0.056610376
98	0x3d20788f	0.039177474
99	0xbd12fd7f	-0.035886284
100	0xbbd9a837	-0.006642367
101	0xbce3fd19	-0.027830647
102	0xbd5d339f	-0.054004308
103	0x3c3adaa9	0.011404672
104	0x3cf96bc7	0.0304469
105	0xbd712d9c	-0.058881387
106	0x3b80b210	0.0039274767
107	0x3d0c5faa	0.03427092
108	0x3d705eb7	0.058684077
109	0x3c51b64c	0.012799811
110	0x3c65b0ab	0.014019172
111	0xbcad6886	-0.021168005
112	0xbc74f1e5	-0.01495025
113	0xbce01430	-0.027353376
114	0x3c61536b	0.013752799
115	0x3cee1e14	0.029067077
116	0xbc95f064	-0.018303104
117	0xbc7199ae	-0.014746113
118	0x3cbb8c53	0.02289406
119	0x3c571252	0.0131269265
120	0x3d1d1640	0.038351297
121	0x3b1b3ceb	0.0023687433
122	0xbd24ff70	-0.040282667
123	0xbcd56447	-0.026048793
124	0x3cbab3f8	0.022790894
125	0xbca73636	-0.020411592
126	0x3d347a2c	0.044061825
127	0x3c001d63	0.007819506
128	0x3cf6151e	0.030039366
129	0x3c7f3d09	0.015578517
130	0x3c292399	0.010323429
131	0x3b49477d	0.0030712776
132	0xbd613db5	-0.05499049
133	0x3c03746b	0.008023362
134	0xbc1de6c3	-0.009637537
135	0x3bd34573	0.006447488
136	0xbd18d6b8	-0.037314147
137	0x3cd4d6f0	0.025981396
138	0x3d56bb36	0.052424632
139	0x3d11cf7d	0.035598267
140	0x3c09c324	0.008408342
141	0xbd6a4b4c	-0.057200715
142	0xbd056950	-0.032571137
143	0x3ca5abe5	0.020223567
144	0xbcf358fa	-0.029705513
145	0x3c366b7a	0.011134023
146	0x3c9b7902	0.0189786
147	0x3be1557c	0.0068766456
148	0x3c1a1815	0.009405156
149	0xbc8daba5	-0.01729376
150	0x3ddc7aeb	0.10765632
151	0x3d180dfa	0.037122704
152	0x3cc87033	0.024467563
153	0xbc8e2a2f	-0.0173541
154	0xbca017f0	-0.019542664
155	0x3cdbaaa6	0.02681477
156	0xbd2a82d4	-0.041628674
157	0x3d27b7e1	0.040946845
158	0xbac73326	-0.0015197739
159	0x3d50e309	0.050997768
160	0xbd03a5d9	-0.032140587
161	0x3d86a5ca	0.065745905
162	0xbc95a1db	-0.018265655
163	0x3cffcb2a	0.031224806
164	0x3caca051	0.021072539
165	0x3d819eac	0.063290924
166	0x3d4f7b41	0.050654653
167	0x3d352d56	0.04423269
168	0xbbc7aa88	-0.006093327
169	0x3d53d093	0.051712584
170	0x3d2e0bd4	0.04249175
171	0xbcdad294	-0.02671174
172	0xbdbc13c5	-0.09183458
173	0xbd254314	-0.040347174
174	0xbc8c4f0c	-0.017127536
175	0x3b797f07	0.00380701
176	0x3c00482b	0.007829706
177	0x3cf8f8c2	0.030392054
178	0x3c034365	0.008011674
179	0xbd22f309	-0.039782558
180	0x3c9ea8a4	0.019367523
181	0xbc875ee5	-0.016524741
182	0xbcae5a41	-0.02128327
183	0xb88b8b2c	-6.653959e-05
184	0xbcf6bdfb	-0.030119887
185	0xbd01eead	-0.03172176
186	0x3d127213	0.03575332
187	0x3b45c95a	0.003017983
188	0x3c47eb36	0.012202075
189	0xbbd48673	-0.006485754
190	0x3c31a1ab	0.010841767
191	0x3ccafbc2	0.02477825
192	0xbb41dc2f	-0.0029580703
193	0x3b55fb37	0.0032650956
194	0x3cc98e95	0.024604121
195	0xbd085300	-0.03328228
196	0x3c012f94	0.007884879
197	0x3c605b36	0.013693621
198	0x3cbf34ce	0.023340609
199	0xbcba1fe7	-0.02272029
200	0xbb657ec4	-0.0035018185
201	0x3c23b336	0.009991458
202	0xbd66a9fe	-0.05631446
203	0xbc735c7a	-0.014853591
204	0xbc2e3d4e	-0.010634733
205	0x3b1762db	0.0023099694
206	0xbd119694	-0.035543993
207	0xbc32f625	-0.010922943
208	0xbca50ec4	-0.020148642
209	0x3c41315e	0.011791555
210	0x3c82d32a	0.015969831
211	0x3ac56a3e	0.001506157
212	0x3c24c643	0.010057035
213	0xbc7b79d8	-0.015348874
214	0x3c6d7d75	0.014495243
215	0x3b79e05a	0.0038128109
216	0xbb975b30	-0.0046190247
217	0xbc2f101e	-0.010684995
218	0x3c54e2c6	0.01299352
219	0x3ce56620	0.028002799
220	0xbc0104ba	-0.007874662
221	0xbccdc4e5	-0.0251183
222	0x3cf6a921	0.030109944
223	0x3c2277e4	0.009916279
224	0xbd033ee3	-0.032042395
225	0xbb72efcd	-0.0037069202
226	0xbc1705b4	-0.009217668
227	0xbc4f8855	-0.012666781
228	0xbd4bb01a	-0.04972849
229	0xbd19cb09	-0.037547145
230	0xbc7686b3	-0.015046763
231	0xbcf19f00	-0.029494762
232	0xbc4cd2bf	-0.012501418
233	0xbc2890b6	-0.010288408
234	0x3d07b78a	0.03313402
235	0xbbb1241c	-0.005405916
236	0xbc65c1fc	-0.0140233
237	0x3d425efa	0.047453858
238	0xbc12f774	-0.00897013
239	0xbc128b6c	-0.008944374
240	0xbd032058	-0.032013267
241	0x3c00fd1f	0.007872849
242	0xbb9b4ccf	-0.004739381
243	0xbc64f907	-0.013975388
244	0x3ca79df2	0.020461056
245	0xbb2f78f0	-0.0026774965
246	0x3c3c441d	0.011490849
247	0x3c952388	0.01820542
248	0xbc1e07bc	-0.009645399
249	0x3c6842f4	0.014176119
250	0xbc3033c4	-0.010754529
251	0xbc9da712	-0.019244704
252	0xbac01247	-0.0014653885
253	0xbc7cf4bf	-0.015439211
254	0xbce8a714	-0.028399982
255	0x3d21b7e8	0.039482027

transformer.layers.0.self_attn.out_proj.bias f4 [64]
0	0xbc034ba3	-0.008013639
1	0xbb6602f4	-0.0035096975
2	0xbc0c06a5	-0.008546506
3	0x3c11d4e0	0.008900851
4	0x3ba5dc7b	0.0050616837
5	0xbae65fde	-0.0017576178
6	0xba9343be	-0.0011235399
7	0xbbe8686b	-0.0070925257
8	0x3a4f89af	0.000791694
9	0x3b4ad0c2	0.0030947183
10	0x3afe67d2	0.0019409603
11	0xbafbbded	-0.0019206383
12	0xbba5053a	-0.0050360234
13	0x3c05a591	0.00815715
14	0x3a65f6af	0.00087724155
15	0x3b288098	0.0025711413
16	0x3c1a25ac	0.009408396
17	0xbbf3914d	-0.0074330927
18	0xbb92b632	-0.004477286
19	0xbc488d46	-0.012240713
20	0x3c0f7074	0.008754838
21	0x3a5bfa0b	0.00083914463
22	0x3b66434f	0.0035135334
23	0x3c6b2be6	0.014353728
24	0xbb8c14a4	-0.0042749215
25	0xbb56a14c	-0.003274995
26	0xb94b26d7	-0.00019374058
27	0x3bd7a66b	0.006581118
28	0x3c3b4ff3	0.011432636
29	0x3c200933	0.009767818
30	0xbc03c7df	-0.008043258
31	0xbbefb0b4	-0.007314766
32	0xbc171f77	-0.00922381
33	0x39ea83e2	0.00044730218
34	0xbbc0d7cb	-0.0058850995
35	0xbbfdf639	-0.0077502993
36	0x3c1bde34	0.009513427
37	0x3bad0e15	0.0052812197
38	0x3ba7a2aa	0.0051158266
39	0x3ba64cd9	0.005075079
40	0x3c05d502	0.008168461
41	0x3c1f9788	0.009740718
42	0x3b98786a	0.0046530263
43	0xba905547	-0.0011011743
44	0x3bfeeb32	0.0077795023
45	0xbb66b5b2	-0.0035203514
46	0xb9a7c199	-0.00031996964
47	0x3ad94e92	0.0016579202
48	0xbb8c5a2d	-0.0042832107
49	0xbbb2b980	-0.005454242
50	0xbbc3b5f2	-0.0059726173
51	0x3a792b2f	0.0009505031
52	0xbb968a0d	-0.0045940937
53	0x3bbbcc4d	0.0057311417
54	0x3aa643f5	0.0012685048
55	0x3b3076ec	0.0026926352
56	0x3b80694b	0.003918802
57	0xbbaa108f	-0.005189962
58	0x39fd2272	0.00048281584
59	0x3b150dd8	0.0022743847
60	0xbb380e52	-0.0028084707
61	0x3b14bc1c	0.002269513
62	0x3bb08f3b	0.005388168
63	0xbb6a7cbb	-0.0035779912

transformer.layers.0.linear1.weight f4 [128, 64]
0	0xbd4e8189	-0.050416503
1	0xbcab7cfa	-0.020933617
2	0xbc830c69	-0.015997129
3	0x3d32d49b	0.043659788
4	0xbc88b23a	-0.016686548
5	0xbd118c54	-0.035534218
6	0xbc223d4d	-0.009902311
7	0xbd0a6cea	-0.033795275
8	0xbcadd974	-0.021221854
9	0x3c8d1904	0.017223842
10	0x3d0f88bc	0.03504251
11	0xbd3d1fdd	-0.046172965
12	0xbd075c49	-0.033046994
13	0xbc1788fc	-0.009248968
14	0xb8b0989e	-8.420761e-05
15	0x3d5a8cdf	0.053357
16	0x3acf2ea4	0.0015806747
17	0xbb89e9d2	-0.0042087818
18	0xbd2f176a	-0.04274694
19	0x3c913911	0.017727407
20	0x3c699e52	0.014258938
21	0x3ba6b432	0.005087399
22	0x3cf794cb	0.030222317
23	0xbc72727b	-0.014797802
24	0xbcb8add3	-0.022543823
25	0x3cd6334f	0.026147513
26	0xbc32fcb6	-0.010924509
27	0x3d6d54be	0.057942145
28	0xbcd21cc2	-0.025648478
29	0x3cc680ee	0.0242314
30	0x3b50ac44	0.003184096
31	0xbd1dbbef	-0.038509306
32	0xbb61b5f4	-0.0034440728
33	0x3c70f97b	0.014707918
34	0x3b49db49	0.003080087
35	0x3a898f9e	0.0010495072
36	0xbb50d97f	-0.003186792
37	0x3c3fa6f2	0.011697518
38	0x3a657680	0.00087533146
39	0xbd1369ef	-0.035989698
40	0x3c072d85	0.008250599
41	0x3d80d0fd	0.06289861
42	0x3d3607ea	0.04444114
43	0xbd60ab0c	-0.054850623
44	0x3d2c7dc7	0.042112138
45	0x3bd85ae2	0.006602631
46	0x3c6b0057	0.014343343
47	0x3cdb7fb8	0.0267943
48	0xbd0ad94f	-0.033898648
49	0x3c04a6f9	0.00809645
50	0x3cf8a4c0	0.030351996
51	0xbd79295d	-0.060830463
52	0xbd13f58d	-0.036122847
53	0xbc6370af	-0.013881846
54	0xbcc51bc1	-0.024061086
55	0xbd78e16c	-0.060761854
56	0xbd7b0efd	-0.06129359
57	0xbd0d850c	-0.03455071
58	0xbcc34027	-0.023834301
59	0xbcd16850	-0.025562435
60	0x3d86755e	0.06565355
61	0x3cf61f19	0.030044125
62	0x3c3ef93e	0.011656104
63	0xbcd10142	-0.025513295
64	0x3cd36173	0.025803303
65	0xbd6cab1b	-0.057780366
66	0x3d1bb99b	0.038018804
67	0x3d523aef	0.051325735
68	0xba7f9be6	-0.00097507087
69	0x3b735086	0.0037126853
70	0x3c40b022	0.011760743
71	0x3c20d0e9	0.009815433
72	0x3c7e5252	0.015522556
73	0x3c99b95a	0.01876514
74	0xbcebc50c	-0.028780483
75	0x3cd34b46	0.02579273
76	0xbdaa220b	-0.083072744
77	0xbcecdb97	-0.028913302
78	0x398ab9a1	0.00026459715
79	0x3d200e05	0.03907587
80	0x3d72ac28	0.059246212
81	0x3cf1b548	0.029505387
82	0xbd743357	-0.059619274
83	0xbcdb9d38	-0.026808366
84	0xbba350d1	-0.0049839993
85	0xbd0beb1d	-0.03415977
86	0x3ce3781c	0.027767234
87	0xbd97f9d0	-0.07420695
88	0xbcd0198c	-0.025402807
89	0xbb4bd9cf	-0.0031105166
90	0x3d0f8650	0.0350402
91	0x3ca7eea8	0.020499542
92	0xbd28e322	-0.041232236
93	0xbd0d0bf9	-0.034435246
94	0xbd1633f8	-0.036670655
95	0x3ce7e147	0.028305663
96	0xbd2ca1ad	-0.042146374
97	0x3b744a49	0.0037275723
98	0x3cd708e2	0.026249353
99	0x3d70cfb8	0.058791846
100	0xbc890ac7	-0.016728772
101	0x3c8ffd57	0.017576857
102	0x3d36e731	0.044654075
103	0xbd69d518	-0.057087988
104	0xbc028ca5	-0.007968103
105	0x3dc1c3dc	0.09461185
106	0x3c280ff9	0.010257714
107	0x3d1c5c0a	0.038173713
108	0xbc029737	-0.007970623
109	0xbb332346	-0.0027334257
110	0xbc9bd2c1	-0.019021394
111	0xbc95fe25	-0.018309662
112	0xbc0fb8cc	-0.008772086
113	0x3c8948e6	0.016758393
114	0x3d1bf742	0.0380776
115	0xbca13458	-0.01967828
116	0xbc5261bd	-0.012840685
117	0xbd2bcaa7	-0.04194131
118	0x3b15e342	0.0022871052
119	0x3d300b7e	0.04297971
120	0x3d54873c	0.051886782
121	0xbcba609f	-0.02275115
122	0xbc9f2470	-0.019426554
123	0xbb98af6b	-0.0046595833
124	0x3c8a28fa	0.016865242
125	0x3d4a77bb	0.04943059
126	0x3d7f0ffe	0.06227111
127	0xbb55f1c8	-0.0032645334
128	0x3d0c7e39	0.034300063
129	0xbc8f1812	-0.017467532
130	0xbccb15b5	-0.024790624
131	0xbcbc1d06	-0.022963058
132	0xbc711bf9	-0.014716142
133	0xbb574eac	-0.0032853289
134	0x3d28b0c6	0.04118421
135	0xbd14b958	-0.03630957
136	0xbc4867af	-0.012231751
137	0x3cb49e00	0.022047997
138	0xbb885dc1	-0.004161567
139	0xbbb1d0d0	-0.0054265037
140	0xbce9e4f3	-0.028551554
141	0x3b531ffa	0.0032215104
142	0xbcb54049	-0.02212538
143	0x3c83ffce	0.016113188
144	0x3bb5b536	0.0055452837
145	0x3cd73feb	0.026275596
146	0xbcd0fb26	-0.025510382
147	0xbc57acac	-0.013163727
148	0x3c992ba8	0.018697575
149	0xbcb6ec00	-0.02232933
150	0x3da24afb	0.07924458
151	0x3d3db4aa	0.046314873
152	0xbcb6b311	-0.022302182
153	0x3b1f7ede	0.0024337093
154	0x3c99e460	0.018785655
155	0x3cdcab6b	0.026937207
156	0xbcec8b47	-0.028875006
157	0x3c9e4700	0.019320965
158	0xbcee5618	-0.029093787
159	0xbd20792d	-0.039178062
160	0xbcdfdc5f	-0.02732676
161	0x3cffe068	0.031234935
162	0x3cd58945	0.026066432
163	0x3ca272dd	0.019830162
164	0xbc3fd101	-0.011707545
165	0x3c7421e0	0.014900655
166	0xbd419c7a	-0.04726837
167	0xbc04b452	-0.008099632
168	0x3c297926	0.010343825
169	0x3c4de43e	0.012566624
170	0x3c0d9d39	0.008643442
171	0x3bc74ff4	0.006082529
172	0xbc0a8281	-0.008453966
173	0xbbbfdbd0	-0.005855061
174	0x3d1458e0	0.03621757
175	0xbaf982db	-0.001903619
176	0xbd2eefeb	-0.042709272
177	0xbcbbd23c	-0.022927396
178	0xbb4e57a1	-0.0031485336
179	0xbcdb639a	-0.026780892
180	0x3cb5e5d4	0.022204317
181	0xbd20a7ce	-0.03922253
182	0x3bab3cdd	0.0052257613
183	0xba057cc1	-0.0005092137
184	0xbd0017c0	-0.03127265
185	0xbd03f6bb	-0.032217722
186	0x3b79a47b	0.0038092423
187	0xbcaeab18	-0.021321818
188	0x3c909ac8	0.01765193
189	0xbb2d0f20	-0.002640672
190	0x3c912d86	0.017721903
191	0xbc5ab69f	-0.013349204
192	0x3c9aabe5	0.018880794
193	0xbceded32	-0.029043768
194	0x3db0a997	0.08626097
195	0xbbd907c4	-0.00662324
196	0x3c9bffe2	0.019042913
197	0x3c7740cc	0.015091132
198	0x3c6148d6	0.013750276
199	0xbd52a6bf	-0.051428553
200	0xbc469de0	-0.012122601
201	0x3c0849f1	0.00831841
202	0x3d112651	0.035436932
203	0x3d135f12	0.035979338
204	0xbd28345d	-0.041065563
205	0xbbbf11dc	-0.0058309864
206	0xbb813882	-0.003943504
207	0xbbf075be	-0.0073382547
208	0x3dcb8ac9	0.099385805
209	0x3c92318b	0.01784589
210	0x3c0c5517	0.008565209
211	0x3c0b81f8	0.008514874
212	0xbd3a14e2	-0.04543007
213	0xbd61fc95	-0.05517252
214	0xbce4b62c	-0.027918898
215	0xbd7c4e66	-0.061598204
216	0xbc7c880a	-0.015413294
217	0xbd88c75c	-0.0667865
218	0x3c3a1f38	0.011359982
219	0xbd2e72f6	-0.042590104
220	0xbd11b293	-0.035570692
221	0xbbe2b906	-0.006919029
222	0xbc3d8cb7	-0.011569194
223	0x3d056d5a	0.03257499
224	0xbcc6dd4c	-0.024275444
225	0xbb8807eb	-0.0041513345
226	0x3c5854e9	0.013203838
227	0x3d5832b2	0.05278272
228	0x3c3d2db7	0.011546544
229	0x3b1c4575	0.002384511
230	0x3c8bed3c	0.017080896
231	0x3ce25e90	0.027632982
232	0xbd41fd3c	-0.047360644
233	0x3ca0128d	0.019540096
234	0xbd0ba790	-0.034095347
235	0x3c81d242	0.015847329
236	0xbd0c3fa6	-0.034240387
237	0xbcd20fdf	-0.025642334
238	0x3c92b159	0.017906832
239	0xbc638922	-0.0138876755
240	0x3d2af7ca	0.041740216
241	0xbc48e25c	-0.0122609995
242	0xbc5a71d8	-0.0133328065
243	0x3d59f9ac	0.05321662
244	0x3ca4b3b8	0.020105228
245	0xbd647198	-0.055772394
246	0xbcf1caa5	-0.029515574
247	0xbce4de81	-0.02793813
248	0x3d57a4c8	0.052647382
249	0x3c8a5568	0.016886428
250	0xbd271a98	-0.040796846
251	0xbcbc7b40	-0.023007989
252	0x3c12d774	0.008962501
253	0x3d455b89	0.048182998
254	0x3c85e681	0.016345264
255	0x3cf12229	0.029435234

transformer.layers.0.linear1.bias f4 [128]
0	0x3c2489c6	0.010042613
1	0x3cd76c46	0.026296746
2	0x3b83de37	0.004024293
3	0xbc3a45cf	-0.011369183
4	0x3c16a551	0.009194688
5	0x3c91586a	0.017742354
6	0x3cc2e15c	0.0237891
7	0xbba98175	-0.005172903
8	0x3bb1368d	0.0054081143
9	0x3c27c71f	0.010240345
10	0xbb73255a	-0.003710112
11	0x3c264c4f	0.010150029
12	0x3a6578d7	0.0008753663
13	0xbc8e674f	-0.017383246
14	0xbb8a90c5	-0.0042286837
15	0x3c4f0617	0.012635729
16	0x3bc8461e	0.0061118742
17	0x3ca91fd8	0.020645067
18	0xbb7f1110	-0.0038920082
19	0xbbb7332e	-0.005590818
20	0x3bd9c90b	0.0066462806
21	0x3b1fbec9	0.0024375191
22	0x3cc6f0ce	0.024284746
23	0x3c01c41c	0.007920291
24	0x3b9b4e1a	0.004739535
25	0x3bcbf578	0.0062243305
26	0x3c858857	0.016300363
27	0x3c14f8e6	0.009092545
28	0xbbcf08a4	-0.0063181687
29	0x3c895323	0.016763275
30	0x3c89696c	0.016773902
31	0x3aa2951f	0.0012404061
32	0x3c076e6e	0.008266075
33	0x3baeb5f4	0.005331749
34	0xbcad3a6d	-0.021146024
35	0xbc58b72b	-0.013227264
36	0x3bbb8319	0.005722415
37	0xbc31c75f	-0.010850756
38	0x3c369ada	0.011145318
39	0x3c5d19b1	0.013494895
40	0x3bbedd5c	0.005824728
41	0x398d729c	0.00026979006
42	0x3b14197d	0.00225982
43	0x3b996bb7	0.00468203
44	0x3c6da1bc	0.0145038925
45	0x3c1d870e	0.009614719
46	0x3c2b9fba	0.0104750935
47	0x3c902ba4	0.017598934
48	0xbc98323f	-0.018578647
49	0x3b9f30fb	0.004858134
50	0x3c64dc51	0.013968543
51	0x3c0bccda	0.008532727
52	0xba64362f	-0.0008705584
53	0x3cb9de3c	0.022688977
54	0xbcb098a1	-0.021557154
55	0x3c1cbe78	0.009566896
56	0x39963746	0.0002865141
57	0x3b53415b	0.0032235
58	0x3c2bdf47	0.010490245
59	0x3ac90cd0	0.0015338901
60	0xbc11b22a	-0.008892575
61	0x3c48a000	0.012245178
62	0x3c028a4f	0.007967546
63	0x3badc50e	0.0053030318
64	0x3c701296	0.014652869
65	0x3a4e5064	0.00078702555
66	0x3cb0dcc6	0.021589648
67	0x3ca8a132	0.020584676
68	0x3a6048c5	0.00085557654
69	0x3ba7bd51	0.005119004
70	0xbba2a30b	-0.004963284
71	0xbb252343	-0.002519802
72	0xbc648718	-0.0139482245
73	0x3c166136	0.00917845
74	0xbc4ec01c	-0.012619045
75	0xbc2640ac	-0.010147255
76	0x3bc2b186	0.0059415726
77	0x3c85d039	0.01633464
78	0x3ba28c3b	0.0049605644
79	0x3b0370b6	0.0020056195
80	0x3bf620bd	0.007511227
81	0xbc445fec	-0.01198576
82	0x3bd29013	0.0064258664
83	0x3c6cb741	0.014447988
84	0xbc371875	-0.011175265
85	0xbbe0960e	-0.0068538254
86	0x3c5f3937	0.013624481
87	0xbc9bd51d	-0.019022519
88	0xbc22931a	-0.009922767
89	0x3b92616c	0.00446718
90	0x3af3b4cd	0.0018593312
91	0x3b3ef968	0.0029140357
92	0xbc0db457	-0.008648953
93	0x3b8dc8f6	0.004326935
94	0x3c73e03c	0.014885005
95	0xbb8a59c4	-0.0042221267
96	0xbb172f49	-0.0023068956
97	0x3bb5d1f0	0.005548708
98	0x3c9fa083	0.019485718
99	0xbbfc38b2	-0.0076971883
100	0x3c276c15	0.01021864
101	0xbb99a18b	-0.004688447
102	0x3c458666	0.012055969
103	0x3c5156a0	0.012777001
104	0x3cb92826	0.022602152
105	0x3b9080c0	0.0044098794
106	0x3c463b0f	0.012099042
107	0x3c683075	0.014171709
108	0x3c9089a2	0.017643753
109	0x3ac394a0	0.0014921613
110	0xbb4bcfc0	-0.003109917
111	0x3c8cddd2	0.017195616
112	0xb884d7c3	-6.334439e-05
113	0x3c616d96	0.0137590375
114	0x3c5991bc	0.013279375
115	0x3ca4c09a	0.02011137
116	0xbb2b23cc	-0.0026113866
117	0xbbea9fa9	-0.0071601463
118	0x3c487a2b	0.012236158
119	0x3c24705e	0.010036556
120	0x3b0e87f7	0.0021748522
121	0x3c9efb10	0.019406825
122	0xbcb93d33	-0.02261219
123	0x39fd1e38	0.00048278435
124	0x3c269540	0.01016742
125	0x3c9eb9dd	0.019375736
126	0x3c8ae4b5	0.01695476
127	0xbc3999cd	-0.011328173
