marble_model/best_model_v3.0_20250531_005925.pt (torch, 295593 bytes, 30 tensors)

token_embedding.weight f4 [13, 64]
0	0xbcd34f29	-0.025794582
1	0x3c06b7ce	0.008222533
2	0x3cc84349	0.024446147
3	0x3c2ae6cf	0.010431006
4	0x3bc983a6	0.006149727
5	0x3cb57477	0.022150261
6	0xbc316422	-0.010827096
7	0x3d123e17	0.035703745
8	0xbcbbd7a5	-0.022929976
9	0xbc0bd74b	-0.008535217
10	0xbc3c2864	-0.011484239
11	0xbd06c5db	-0.032903533
12	0x3b280261	0.0025636184
13	0xbbfd9a06	-0.0077393083
14	0xb9fce5d4	-0.0004823642
15	0xbae70777	-0.0017626126
16	0x3c9672f8	0.018365368
17	0xbc88e4e0	-0.016710699
18	0xbca5fb93	-0.020261561
19	0xbc0b47e2	-0.008501025
20	0x3caf650e	0.021410491
21	0x3d15fb10	0.036616385
22	0xbc7fe495	-0.015618463
23	0xbc8fa937	-0.017536743
24	0xbbe70673	-0.0070503294
25	0x3cefd419	0.02927594
26	0xbae419e0	-0.0017402731
27	0x3d51f697	0.051260557
28	0x3c15f83d	0.009153423
29	0xbb83ae86	-0.0040186075
30	0xbcde3900	-0.02712679
31	0xbca0dc12	-0.019636188
32	0xbb9fd6e7	-0.0048779133
33	0x3cb1059c	0.02160912
34	0x3c25a472	0.010110008
35	0x3bc7f267	0.0061018947
36	0xbc674441	-0.014115394
37	0x3c1be463	0.009514901
38	0x3cfa8e12	0.030585323
39	0xbd2f65ee	-0.042821817
40	0xbd227a00	-0.03966713
41	0x3c1e9ea4	0.009681378
42	0xbccc9d92	-0.02497748
43	0x3bd8cfe1	0.006616578
44	0x3c5ad229	0.01335577
45	0x3a7b776b	0.0009592685
46	0xbae1d9b5	-0.001723102
47	0x3cf68483	0.030092483
48	0x3b0659b5	0.0020500247
49	0xbcd3b3a1	-0.02584249
50	0x3cf96369	0.03044291
51	0xbc58dcc6	-0.01323623
52	0x3c1c451a	0.0095379595
53	0xbb20eb5f	-0.0024554355
54	0xbbf33137	-0.0074216384
55	0xbc7ec2c3	-0.0155493645
56	0x3befd6cc	0.007319307
57	0x3bdc0101	0.006713987
58	0x3c7dccc7	0.015490717
59	0xbbf3f30b	-0.0074447445
60	0x3be502d3	0.006988862
61	0x3ca12376	0.01967023
62	0xbc597104	-0.013271574
63	0x3d1670f8	0.03672883
64	0xbc9dc2e7	-0.019257976
65	0xbbb88efc	-0.0056322794
66	0x3d43ba7f	0.04778528
67	0x3d2a19b2	0.04152841
68	0xbc8cceb6	-0.017188411
69	0x3c774555	0.015092214
70	0xbca68a44	-0.020329602
71	0x3b406086	0.0029354407
72	0x3cf75f72	0.030196879
73	0xbcc2ebb9	-0.023794042
74	0xbcb41e4b	-0.021987101
75	0x3cd4c072	0.025970671
76	0x3c6da18f	0.014503851
77	0x3ccf97b3	0.02534089
78	0x3d0d5243	0.03450228
79	0x3d252af1	0.040324155
80	0x3be9768e	0.0071247285
81	0xbc274672	-0.010209667
82	0x3cb84494	0.022493638
83	0x3d0a307d	0.03373765
84	0xba7055ac	-0.00091680395
85	0x3c9db30f	0.01925042
86	0xbcda00d0	-0.026611716
87	0xbcf842fb	-0.030305376
88	0xbc793891	-0.01521124
89	0x3c28dbdd	0.010306326
90	0xbccc45fc	-0.024935715
91	0xbc24dfd3	-0.0100631295
92	0xbd550dc1	-0.05201507
93	0xbc755257	-0.014973245
94	0x3d039897	0.032127943
95	0x3ca03784	0.019557722
96	0xbc57bb91	-0.013167278
97	0xbba6518b	-0.0050756386
98	0x3c97be46	0.018523347
99	0x3d36ff95	0.044677336
100	0xbd14f847	-0.03636959
101	0x3d65d0b6	0.056107245
102	0x3d84af4a	0.06478746
103	0xbd404984	-0.04694511
104	0x3d69c841	0.057075743
105	0x3b580f21	0.0032968002
106	0x3a0bb848	0.0005329889
107	0xbc814028	-0.015777662
108	0x3c6045b1	0.013688491
109	0x3c5a274d	0.013315034
110	0x3d2a7f5a	0.04162536
111	0x3be984f0	0.007126443
112	0xbd5fb036	-0.054611407
113	0xbd65548a	-0.055988826
114	0xbd305a30	-0.04305476
115	0x3d7d070e	0.061774306
116	0xba48a44f	-0.00076538784
117	0xbc38a20e	-0.011269106
118	0x3caac5a8	0.020846203
119	0xbc8a9e4e	-0.016921189
120	0x3beab0ff	0.007162213
121	0xba9458bf	-0.0011317952
122	0xbc503d68	-0.012709953
123	0x3c65a808	0.014017113
124	0xbcad65e4	-0.02116675
125	0xbd854d8b	-0.06508931
126	0x3cbbb8e3	0.02291531
127	0xbc6a7190	-0.014309302
128	0x3c2a3ef8	0.0103909895
129	0xbb8477a6	-0.0040425835
130	0xb9414e4a	-0.00018435079
131	0x3d0d4522	0.03448976
132	0x3d345b0d	0.044032145
133	0x3cad53e5	0.021158168
134	0x3cabee89	0.020987766
135	0xbca3e3ed	-0.020006144
136	0x3b9b5671	0.004740529
137	0x3cb71897	0.022350593
138	0x3d059842	0.032615907
139	0xbbe23c2c	-0.0069041457
140	0xbc9cd8a0	-0.019146264
141	0x3cbc8a27	0.023015095
142	0x3cc0ca41	0.023533942
143	0xbc5b0d0f	-0.013369813
144	0xbac4cf77	-0.0015015443
145	0x3be8b3b0	0.0071014985
146	0xbd838084	-0.06420997
147	0xbb42ace0	-0.0029705092
148	0xbcb0be01	-0.021574976
149	0xbd1bd567	-0.038045313
150	0xbca72b3e	-0.020406362
151	0xbc26fe4b	-0.010192464
152	0xb9f54e45	-0.00046788357
153	0x3c0f955d	0.008763638
154	0xbc4cc1a6	-0.012497341
155	0xbbfb9e4e	-0.0076787835
156	0x3c6c829d	0.0144354375
157	0x3c974b42	0.018468503
158	0x3b04ecdf	0.0020282788
159	0x3b39d70b	0.0028356935
160	0xbb2bbebb	-0.0026206214
161	0x3a4a7aed	0.0007724006
162	0x3c406cf0	0.011744723
163	0x3d0f6e02	0.03501702
164	0x3b92cf9c	0.0044803154
165	0xb95b8912	-0.0002093653
166	0x3c30fdfe	0.010802744
167	0xbcdce8cf	-0.02696648
168	0x3d14ac9a	0.03629742
169	0x3448f56a	1.8715733e-07
170	0x3d371ef9	0.044707272
171	0x3c861802	0.01636887
172	0xbd2f5f21	-0.04281533
173	0x3ba62005	0.005069735
174	0xbaf4addc	-0.0018667537
175	0xbc4b8955	-0.012422879
176	0x3bfcd8ca	0.007716273
177	0xbb052cca	-0.0020320886
178	0xbc8c9b0d	-0.017163778
179	0x3c9620fb	0.018326273
180	0x3c3286a9	0.010896363
181	0xbbdfeb59	-0.0068334755
182	0x3bfe16f5	0.0077542015
183	0xbc8f5984	-0.017498739
184	0x3c54f2dd	0.012997356
185	0xbcb75693	-0.022380149
186	0xbcdd173d	-0.02698862
187	0xbbfb8a58	-0.007676404
188	0x3c3115c4	0.010808412
189	0x3b17a629	0.002313981
190	0x3c52b2a0	0.01285997
191	0xbcac6b1c	-0.021047167
192	0x3c1d8200	0.009613514
193	0xbb386b6f	-0.0028140207
194	0xbc931867	-0.017955972
195	0x3ccfb727	0.025355889
196	0x3b72bda5	0.0037039306
197	0xbcab4b74	-0.020910002
198	0x3cb50665	0.022097776
199	0x3cd23eff	0.025664805
200	0x3c946822	0.01811606
201	0x3c014b1a	0.007891441
202	0x3ae624c4	0.0017558564
203	0xbc72b6e5	-0.014814113
204	0xbc585a01	-0.013205052
205	0xbc84e3b8	-0.016221866
206	0xbc62443d	-0.013810215
207	0xbc0ee361	-0.008721204
208	0x3b4fdd43	0.0031717576
209	0x3ce16ab4	0.0275167
210	0x3ccc8eb3	0.024970388
211	0xbc2ddfc2	-0.01061243
212	0xbbc8fe6c	-0.006133845
213	0xbb31c258	-0.0027123895
214	0xbbd70db6	-0.006562914
215	0xbd09f186	-0.0336776
216	0xbad20687	-0.0016023674
217	0xbce9510c	-0.028481029
218	0xbb905cf9	-0.0044056145
219	0x3c06bbc0	0.008223474
220	0xbd2d5c67	-0.04232445
221	0xbc6dc29e	-0.014511732
222	0xbba3ffb6	-0.0050048484
223	0x3bc2feab	0.005950769
224	0x3c9afa26	0.018918108
225	0xbaf13aa3	-0.0018404316
226	0xbba7712c	-0.0051099267
227	0x3a1927fe	0.0005842446
228	0xb9e67b73	-0.00043960995
229	0xbc8ccc66	-0.017187309
230	0xbd03a3bf	-0.032138582
231	0x3cd6bcda	0.026213098
232	0x3c22e586	0.009942418
233	0xbcb9338d	-0.02260759
234	0xbb494c4c	-0.0030715642
235	0x3d0199e2	0.031640895
236	0x3c10aee2	0.008830758
237	0xbbc03ecc	-0.005866861
238	0xbd268c47	-0.040661123
239	0xbba73954	-0.0051032696
240	0x3ce13216	0.027489703
241	0x3aa72770	0.0012752842
242	0xbc80dea2	-0.01573116
243	0xbc3f3525	-0.0116703855
244	0x3c62d845	0.013845508
245	0x3b91a5e3	0.004444824
246	0xbc3918ad	-0.011297387
247	0x3cc982c9	0.024598496
248	0x3b23c888	0.0024991352
249	0x3b885950	0.0041610375
250	0xbc87a95f	-0.016560255
251	0xbcccdfba	-0.025009025
252	0x3b33836b	0.0027391564
253	0x3b28574f	0.0025686806
254	0x3c132c9b	0.008982803
255	0xb96e3496	-0.00022717039

position_embedding.weight f4 [30, 64]
0	0xbcc0923b	-0.023507228
1	0xbcd3f57a	-0.025873888
2	0xbc6fe58b	-0.01464213
3	0x3ca643d0	0.020296007
4	0x3c04782d	0.008085293
5	0x3cfda61c	0.030962996
6	0xbbb2d070	-0.0054569766
7	0xbce33c00	-0.027738571
8	0x3c3b033a	0.0114143435
9	0xbbf29581	-0.007403076
10	0x3bdd5aec	0.0067552235
11	0x3d79aaef	0.06095403
12	0x3d28cee1	0.04121292
13	0x3ccf8b87	0.025335087
14	0xbc27130f	-0.010197415
15	0x3d3b235d	0.045688022
16	0xbb11c17a	-0.0022240565
17	0xbcba3587	-0.022730602
18	0xbbf99765	-0.0076169246
19	0x3d00492c	0.031319782
20	0x3d1f40c1	0.038880114
21	0xbba7453b	-0.0051046885
22	0xbd127147	-0.03575256
23	0xbd0b8868	-0.034065634
24	0xbd1c47cd	-0.038154412
25	0x3d1da5a6	0.038488053
26	0x3aebf67e	0.0018002538
27	0x3bc9e56b	0.006161382
28	0xbd19d48f	-0.037556227
29	0xbc4e4f59	-0.01259216
30	0x3d44fad8	0.048090786
31	0x3d4c89f4	0.04993625
32	0xbcccfbba	-0.025022376
33	0x3cfe6643	0.031054622
34	0xbd1c7d6a	-0.03820554
35	0x3cdc5452	0.026895676
36	0xbcda7f8d	-0.02667215
37	0x3d4bac32	0.049724765
38	0x3c5c3265	0.013439749
39	0x3bdb8105	0.00669873
40	0x3ac81e66	0.0015267849
41	0x3cc74acf	0.024327664
42	0x3cfbfcbd	0.030760163
43	0xbc7cbf2b	-0.015426437
44	0xbd02f6c2	-0.031973608
45	0x3d49626b	0.049166124
46	0x3cd7b8c2	0.026333217
47	0x3d1fed91	0.03904492
48	0xbb967050	-0.0045910254
49	0x3b8b39c6	0.0042488305
50	0xbcd2b4f1	-0.025721045
51	0x3c075d36	0.008261969
52	0xbc15265d	-0.009103385
53	0xbcf7ac59	-0.030233549
54	0x3cb40bc4	0.021978267
55	0xbce16a22	-0.027516428
56	0x3d394ef9	0.04524133
57	0xbd8044e0	-0.06263137
58	0xbc3bedf9	-0.011470311
59	0x3c4636af	0.0120979985
60	0xbd4a293e	-0.049355738
61	0xbc962035	-0.018325904
62	0x3d4179df	0.047235366
63	0xbcc4a749	-0.024005549
64	0x3c90b2a4	0.017663307
65	0xbcc6f5b7	-0.024287088
66	0xbd2e95ce	-0.042623334
67	0xbc0a4738	-0.008439831
68	0x3cfadb63	0.03062219
69	0xbd123191	-0.0356918
70	0xbd09c797	-0.03363761
71	0x37d4b396	2.5355996e-05
72	0xbbf6ca2b	-0.0075314245
73	0x3cb3dc59	0.021955656
74	0x3d181526	0.037129544
75	0xbd19ae8c	-0.037519976
76	0xbc8b77dd	-0.017024929
77	0xbc9fff16	-0.019530814
78	0xbcf0b52f	-0.02938327
79	0xbc71c20e	-0.014755739
80	0xbd09b94f	-0.03362399
81	0xbb0e46bb	-0.002170964
82	0x3c0c8222	0.008575948
83	0x3d51b2eb	0.05119602
84	0x3c27562a	0.010213414
85	0x3b8e1086	0.004335466
86	0x3a9372ad	0.0011249386
87	0x3b827a73	0.0039818822
88	0x3d1ab375	0.0377688
89	0x3c085190	0.008320227
90	0x3c2ef60d	0.01067878
91	0xbc469c50	-0.012122229
92	0x3c8cfb0e	0.017209556
93	0x3c637080	0.013881803
94	0x3ca5252f	0.020159332
95	0x3bbf5e69	0.005840112
96	0x3cc21490	0.023691446
97	0xbc26854c	-0.010163616
98	0x3bfd12de	0.0077231964
99	0x3acec3d5	0.0015774915
100	0xbb9cef81	-0.0047892933
101	0xbc0c64f3	-0.00856899
102	0xbc313775	-0.010816445
103	0x3d2008bd	0.039070833
104	0xbb3a4820	-0.0028424338
105	0x3be12951	0.0068713804
106	0x3d3bd215	0.045854647
107	0xbbe5f152	-0.007017293
108	0x3ceec917	0.029148621
109	0xbcf90486	-0.030397665
110	0xbcaa066d	-0.020755017
111	0xbc566aee	-0.013087017
112	0xbc6772b4	-0.014126468
113	0x3c7dcee7	0.015491224
114	0x3c2e5ad3	0.010641771
115	0xbc9ed388	-0.019387975
116	0x3cd9018b	0.026489994
117	0xbce6c0e2	-0.028168146
118	0xbca1fafc	-0.019772999
119	0x3c3da7bd	0.011575636
120	0x3bd326c1	0.006443829
121	0x3c7e1228	0.0155072585
122	0x3cc726b6	0.024310451
123	0xbd11cf3f	-0.035598036
124	0x3acf84ea	0.0015832458
125	0xbc79e60a	-0.0152525995
126	0x3c914ea6	0.017737698
127	0x3cffd76a	0.031230647
128	0xbbffb462	-0.0078034857
129	0xbca38892	-0.019962583
130	0xbc872b84	-0.016500242
131	0xbd18091d	-0.037118066
132	0x3c86ae08	0.016440406
133	0xbcfa9d93	-0.030592715
134	0xbcb2f838	-0.021846876
135	0xbca31a32	-0.019909952
136	0xbcf77896	-0.030208867
137	0x3c808163	0.015686696
138	0x3cead11b	0.028664162
139	0xbc0e236a	-0.008675436
140	0xbc9b37df	-0.01894754
141	0xbb27bb09	-0.002559366
142	0xbd0554f4	-0.03255172
143	0xbc909425	-0.017648766
144	0xbd097ae3	-0.03356446
145	0x3b4f718a	0.0031653368
146	0xbc81369e	-0.015773114
147	0x3d6a7e7e	0.05724954
148	0x3cfba9f2	0.030720685
149	0x3bb48ddc	0.005510075
150	0x3baa154e	0.005190528
151	0x3cbd5f2d	0.023116672
152	0x3d7335ab	0.059377354
153	0x3d27dcf0	0.040982187
154	0x3d06c21f	0.032899972
155	0xbc62dbf0	-0.0138463825
156	0x3cb4d8f9	0.022076117
157	0x3d83227c	0.06403062
158	0x3cfe95c8	0.03107728
159	0x3c491ca3	0.012274894
160	0x3ccfd1d8	0.025368616
161	0xbb2d57e1	-0.0026450085
162	0x3d16f8c0	0.03685832
163	0xbc95c270	-0.018281192
164	0xbd17e61e	-0.03708469
165	0x3c9eab79	0.019368874
166	0xbc71f018	-0.0147667155
167	0x3d121f9b	0.035674673
168	0xbc7fb8e5	-0.015608047
169	0x3d28fefe	0.041258805
170	0x3cad744e	0.021173622
171	0xbb6792c3	-0.003533528
172	0x3d15621f	0.03647053
173	0xbd181ef0	-0.03713888
174	0x3d42d7a3	0.04756893
175	0xbca972c4	-0.020684607
176	0xbd49b22a	-0.049242176
177	0x3cf67242	0.03008378
178	0xbc4e9d82	-0.012610795
179	0xbcc9e713	-0.024646318
180	0x3c81fb20	0.015866816
181	0xbbf96550	-0.0076109543
182	0xbcc00aa7	-0.02344258
183	0x3995bf83	0.00028562182
184	0xbc24d9a2	-0.010061653
185	0x3cabc777	0.020969136
186	0x3d149156	0.036271416
187	0x3ba34f8a	0.004983847
188	0x3cc08952	0.02350298
189	0xbc93ae62	-0.018027488
190	0x3c0cf94d	0.00860436
191	0x3d60cc70	0.054882467
192	0x3cfa6eb2	0.030570362
193	0x3a5ea68e	0.00084934465
194	0xbca4dba7	-0.02012427
195	0x3c00614e	0.007835699
196	0xbd122d27	-0.035687592
197	0x3d05171a	0.032492734
198	0x3d347232	0.044054218
199	0x3cc5ec28	0.02416046
200	0x3c51b191	0.012798683
201	0x3ca17303	0.019708162
202	0xbc2917f3	-0.010320651
203	0xbd36c9b0	-0.044625938
204	0x3c01ec31	0.007929848
205	0x3d436785	0.047706146
206	0x3b8a000c	0.0042114314
207	0xbcb41c98	-0.02198629
208	0x3c34bd57	0.01103147
209	0xbd52169f	-0.051291104
210	0xba92e041	-0.0011205749
211	0x3a507c9d	0.0007953139
212	0xbd224037	-0.03961202
213	0xbd085ef0	-0.033293664
214	0x3ca48f79	0.020087944
215	0xbaa44916	-0.0012533988
216	0x3cdd1c5a	0.026991058
217	0xbc92f2ac	-0.01793798
218	0xbd072a04	-0.032999054
219	0x3d1b4dc3	0.037915956
220	0xbc9f99e9	-0.01948257
221	0xbcbdda7b	-0.023175469
222	0x3c27a7cb	0.010232876
223	0xbd179208	-0.0370045
224	0x3d1c1143	0.0381024
225	0x3b0941c9	0.0020943752
226	0x3ce7f096	0.028312963
227	0x3b993c53	0.0046763807
228	0x3d05310b	0.032517474
229	0xbc4488de	-0.011995522
230	0xbc815f7b	-0.015792599
231	0xbc33d60f	-0.0109763285
232	0x3ce7e9f2	0.028309796
233	0xbcfe98f5	-0.031078795
234	0xbd32f0f0	-0.043686807
235	0x3d28d2d3	0.041216683
236	0xbcbbb15f	-0.022911726
237	0x3d2af3a6	0.041736268
238	0xbcf1eb04	-0.02953101
239	0xbcea3a00	-0.02859211
240	0x3d359a2a	0.044336475
241	0xbd61fe05	-0.055173893
242	0xbd5e0b7a	-0.054210164
243	0x3d199799	0.03749809
244	0xbc32d179	-0.0109142
245	0x3d1dd87b	0.03853653
246	0xbd07d534	-0.03316231
247	0x3c2683fd	0.010163304
248	0xbc282eb4	-0.010265041
249	0xbd19795c	-0.037469253
250	0xbc9cb0da	-0.019127298
251	0x3c2d534f	0.010578944
252	0xbce59d16	-0.028029006
253	0x3c71efa4	0.014766607
254	0xbd70eec0	-0.05882144
255	0xbd4291af	-0.047502216

transformer.layers.0.self_attn.in_proj_weight f4 [192, 64]
0	0x3dfa6346	0.12225966
1	0x3e035b9f	0.1282792
2	0xbdd65926	-0.104662225
3	0x3e11f2ee	0.14252827
4	0xbd88ad9d	-0.06673739
5	0x3da9486a	0.08265765
6	0xbd05a256	-0.03262552
7	0xbe102769	-0.14077534
8	0x3dd9c22f	0.10632741
9	0x3cc9da93	0.024640357
10	0x3de4d772	0.111739054
11	0x3def4f14	0.11685005
12	0xbcc7b422	-0.024377886
13	0xbd4605c0	-0.048345327
14	0xbd0222c0	-0.03177142
15	0xbd438f31	-0.04774398
16	0xbc699670	-0.0142570585
17	0xbddc9b29	-0.10771782
18	0x3de00c17	0.10939806
19	0x3dda6e25	0.1066554
20	0x3dbfb856	0.09361331
21	0x3d0db553	0.034596752
22	0xbbe4f07b	-0.0069866753
23	0x3dcf2398	0.10114211
24	0xbc547f70	-0.012969837
25	0x3a718b34	0.00092141633
26	0xbdeeaf34	-0.11654511
27	0x3e154524	0.14577156
28	0x3d65d3e2	0.05611027
29	0xbcaef5df	-0.021357475
30	0xbd3a50b0	-0.045487106
31	0xbcb8f649	-0.022578375
32	0x3cf5db66	0.030011844
33	0x3c0dc25b	0.008652295
34	0xbde4c737	-0.1117081
35	0xbd307cd7	-0.043087807
36	0xbd8fec68	-0.07027513
37	0xbd8947a7	-0.0670312
38	0xbdd0ad3e	-0.10189293
39	0x3d0ae395	0.033908445
40	0xbc1c50a2	-0.009540709
41	0x3cfdd509	0.030985372
42	0xbdce0e44	-0.10061315
43	0x3ddd2e6c	0.1079987
44	0xbdf3274f	-0.11872732
45	0xbe1f289d	-0.15542836
46	0x3de71615	0.11283509
47	0x3dd16ad8	0.10225457
48	0x3d4f8d0d	0.050671626
49	0x3dfba6e9	0.12287695
50	0xbe01c66d	-0.1267335
51	0x3bbc70a7	0.005750734
52	0x3d278cfd	0.04090594
53	0x3d4c6356	0.04989942
54	0x3d717612	0.05895049
55	0xbda533bc	-0.08066508
56	0x3d9f118c	0.07767019
57	0xbd81d4a0	-0.06339383
58	0x3e0b9fc2	0.13635162
59	0x3daf8660	0.08570552
60	0xbdf4f8de	-0.1196153
61	0x3de27df6	0.110591814
62	0xbd770dea	-0.060316004
63	0x3d041708	0.032248527
64	0xbdf1e3a5	-0.11810998
65	0xbd7273f6	-0.05919262
66	0xbd87bb36	-0.066275045
67	0xbe065406	-0.1311799
68	0x3dd05979	0.101733156
69	0x3b98c9b2	0.004662716
70	0xbd57a468	-0.052647024
71	0x3ddb3126	0.10702734
72	0xbdb7c44f	-0.0897299
73	0x3cb1bce7	0.021696521
74	0x3e17bc42	0.14817908
75	0x3df9a63d	0.121899106
76	0xbe18fd16	-0.14940295
77	0xbd51f733	-0.05126114
78	0xbcefb77c	-0.029262297
79	0xbc0b7c36	-0.008513501
80	0x3c99bb0c	0.018765949
81	0xbbe594f6	-0.007006283
82	0x3ddf76e4	0.109113485
83	0xbdf9f100	-0.1220417
84	0x3d16f676	0.036856137
85	0xbd1da598	-0.038488
86	0x3ddc4353	0.107550286
87	0x3e077bea	0.13230863
88	0xbdb3b216	-0.087742016
89	0x3e1d1553	0.15340166
90	0xbc303ccd	-0.010756684
91	0xbe1b22e0	-0.15150023
92	0x3dd0d396	0.10196607
93	0x3e161dd2	0.14659813
94	0x3da35095	0.07974354
95	0xbdc8defe	-0.098081574
96	0xbe30149d	-0.17195363
97	0xbdca2dcd	-0.09872017
98	0xbddb9b7d	-0.107230164
99	0xbd09a5b7	-0.033605304
100	0x3dfff118	0.12497157
101	0xbd86c74c	-0.065809816
102	0x3e171261	0.14753105
103	0xbdbf1921	-0.09330965
104	0x3d5d574f	0.054038342
105	0x3dc7a9d0	0.09749186
106	0xbd99b786	-0.075057074
107	0xbe355927	-0.1770979
108	0x3db4e68d	0.088330366
109	0x3e11c2ac	0.14234418
110	0x3e35ac0f	0.17741416
111	0xbd56ab5f	-0.052409526
112	0xbdafa3ae	-0.08576141
113	0x3e112eee	0.14178059
114	0x3e122207	0.14270793
115	0x3e1d0c4b	0.1533672
116	0x3e01520a	0.12628952
117	0xbd1056cb	-0.035239022
118	0xbe0b6e10	-0.13616204
119	0xbe2dca02	-0.16971591
120	0xbc749e83	-0.01493037
121	0xbabf4280	-0.0014591962
122	0x3e182cfe	0.14860913
123	0x3e1f63ae	0.15565369
124	0x3caba016	0.020950358
125	0xbc172da8	-0.009227194
126	0xbd8090e4	-0.06277636
127	0xbcf9dd3c	-0.030501
128	0xbbd536d9	-0.0065067825
129	0x3d27aba5	0.040935177
130	0xbdc7bacc	-0.097524256
131	0x3d511842	0.051048525
132	0x3e0d0326	0.13770732
133	0xbd63b318	-0.05559072
134	0xbdb93f0c	-0.09045228
135	0x3d067b65	0.032832522
136	0x3d52ea1d	0.0514928
137	0xbd938262	-0.07202603
138	0x3e292c9e	0.16520926
139	0x3dbcde84	0.09222129
140	0x3d6bcb99	0.057567213
141	0xbd1a874b	-0.03772668
142	0x3c913ac0	0.01772821
143	0x3de83de9	0.113399334
144	0x3bdeed77	0.0068032104
145	0x3e258715	0.16164811
146	0x3d7b0636	0.06128522
147	0x3e055668	0.13021243
148	0xbdb17ae1	-0.086660154
149	0x3e1790fb	0.148014
150	0x3e04c095	0.12964089
151	0xbc12801f	-0.008941679
152	0x3c592d22	0.013255389
153	0x3da03886	0.07823281
154	0x3e40129c	0.18757099
155	0xbcc5fe28	-0.024169043
156	0xbcb6e650	-0.022326618
157	0xbdb97af7	-0.09056657
158	0x3ddeaea2	0.10873152
159	0x3e0ed4e4	0.13948399
160	0x3dae903f	0.085236065
161	0xbe0d6e79	-0.13811673
162	0x3e0a7466	0.13520965
163	0x3dc83376	0.097754404
164	0xbc2db459	-0.01060208
165	0x3dd92ad6	0.106038734
166	0x3cc54090	0.024078637
167	0x3dee3944	0.11632016
168	0x3e036ff6	0.12835678
169	0x3c85efa2	0.016349617
170	0xbd952287	-0.07281976
171	0x3e002e54	0.12517673
172	0xbdc7a2dc	-0.0974786
173	0x3db05afa	0.086111024
174	0x3e22f011	0.1591189
175	0x3d65794b	0.056023877
176	0xbe2712e0	-0.16315794
177	0x3e261658	0.16219461
178	0x3d5ca1d4	0.05386527
179	0xbcdfa418	-0.027299926
180	0xbd44fa89	-0.04809049
181	0x3dd8841a	0.105720714
182	0x3ca19ecd	0.019729042
183	0xbda6b7a9	-0.08140499
184	0x3d51397e	0.05108022
185	0x3e0f8d02	0.14018634
186	0xbc268464	-0.0101634
187	0xbe0a6472	-0.1351488
188	0x3c907d78	0.017637953
189	0xbe0c598c	-0.13706034
190	0xbd97a45c	-0.07404396
191	0x3d9cb591	0.076518185
192	0x3d9da34b	0.07697161
193	0x3df0b620	0.117534876
194	0xbdb31ad6	-0.08745353
195	0xbde5a1e0	-0.11212516
196	0xbd92d689	-0.071698256
197	0xbddb9f1b	-0.10723706
198	0x3d3d3377	0.04619166
199	0x3d1d138c	0.03834872
200	0x3cec005a	0.028808761
201	0x3e25ee53	0.16204195
202	0xbd339b6e	-0.0438494
203	0xbd2ef054	-0.042709664
204	0x3dbce6c6	0.09223704
205	0xbe07e11e	-0.13269469
206	0x3d3c4707	0.045966174
207	0x3d822568	0.06354791
208	0xbddebd11	-0.10875905
209	0xbdf8dca7	-0.12151461
210	0xbdc6185a	-0.096726134
211	0x3d5cf72f	0.05394667
212	0xbd13dbfd	-0.03609847
213	0xbdbc06e1	-0.091809995
214	0x3ded5e1c	0.115902156
215	0xbd938049	-0.07202203
216	0x3e13577b	0.1438884
217	0xbd5ecedc	-0.054396495
218	0xbe01d6a7	-0.1267954
219	0xbe22e406	-0.15907297
220	0x3dc2557e	0.094889626
221	0x3c384dc7	0.011249012
222	0xbce63563	-0.028101629
223	0x3d9768b7	0.0739302
224	0xbd53edfe	-0.05174064
225	0x3a7d2d6a	0.00096579513
226	0xbd9738d7	-0.07383888
227	0xbd915610	-0.07096493
228	0xbd3942f7	-0.04522988
229	0xbd2d3825	-0.04228987
230	0x3d4aeed3	0.049544167
231	0xbd3674ba	-0.044544913
232	0x3cf6ab4c	0.030110978
233	0xbca697fe	-0.020336147
234	0x3cc99c7c	0.02461075
235	0xbe0f2a97	-0.1398109
236	0xbb84fa4d	-0.0040581585
237	0xbdd47c87	-0.10375314
238	0xbdb7918f	-0.0896331
239	0xbcb2b097	-0.02181272
240	0xbd3489e8	-0.04407683
241	0xbdf2979b	-0.11845323
242	0xbdaa0d25	-0.08303288
243	0x3becebea	0.0072302716
244	0x3d911123	0.07083347
245	0xbd1c4435	-0.038150985
246	0xbcf0dcc8	-0.029402152
247	0xbd502813	-0.050819468
248	0xbd4ad825	-0.049522538
249	0xbe1282cc	-0.14307708
250	0x3d8a2da8	0.067469895
251	0x3c6b624a	0.014366696
252	0x3dcea9e3	0.10090997
253	0xbdd14231	-0.10217703
254	0xbdcc6193	-0.09979548
255	0x3db24b4e	0.087057695

transformer.layers.0.self_attn.in_proj_bias f4 [192]
0	0x3c1cb190	0.009563819
1	0xbd15a874	-0.036537603
2	0x3b954f79	0.004556593
3	0xbb8ee4ef	-0.004360787
4	0xbbcfc2c5	-0.006340357
5	0x3ba71462	0.0050988654
6	0x3c5a0d71	0.013308869
7	0xbcb59dfc	-0.02217006
8	0xb9c6d9a1	-0.0003792765
9	0x3c77e9f4	0.015131462
10	0x3bc75483	0.0060830726
11	0xbd427ff1	-0.047485296
12	0xbba422af	-0.0050090174
13	0xbb344b32	-0.002751064
14	0x3c886e26	0.016654085
15	0xbc7b35be	-0.015332637
16	0xbbd3e396	-0.0064663393
17	0x3c8dfece	0.017333414
18	0x3b289632	0.002572429
19	0x3c8749bf	0.016514657
20	0xbcb95f5c	-0.022628479
21	0x37c6474e	2.3636643e-05
22	0xba2f26d4	-0.0006681506
23	0x3b063e86	0.0020484044
24	0xbc79d0c2	-0.015247526
25	0x3ce62041	0.028091552
26	0xbbb5efcf	-0.005552269
27	0xba8dc4c3	-0.0010816086
28	0xbc10c976	-0.0088370945
29	0xbb7fd0fa	-0.0039034472
30	0xbd380397	-0.0449253
31	0x3c00c3b7	0.007859162
32	0xbc804bfd	-0.015661234
33	0x3ba969b2	0.0051700706
34	0x3c72dcee	0.014823182
35	0x39a8e162	0.0003221138
36	0x3b01e4c0	0.0019820184
37	0xbc10d74f	-0.008840396
38	0xbd04944d	-0.032367993
39	0x3c8d0541	0.01721442
40	0xbc0833e5	-0.008313154
41	0xbcfcd814	-0.030864753
42	0x3b1b01cc	0.0023652194
43	0xbc49c64f	-0.012315347
44	0x3ba5acd8	0.005056005
45	0x3b2b5b53	0.0026146963
46	0x3c07b4e0	0.00828287
47	0x3cfed70b	0.0311084
48	0xbc819c17	-0.0158215
49	0xbb859710	-0.004076846
50	0xbc0781a9	-0.0082706595
51	0x3a156956	0.0005699595
52	0x3a961c8a	0.0011452597
53	0x3c545673	0.012960064
54	0xbbd43a09	-0.006476645
55	0x3c463b70	0.012099132
56	0xbca033b6	-0.019555908
57	0xbc0df7a3	-0.008664998
58	0x3b819611	0.003954657
59	0xbc1782e6	-0.009247517
60	0x3c000a00	0.007814884
61	0xbba6c31f	-0.005089178
62	0x3c7e1576	0.015508046
63	0x3beea317	0.0072826254
64	0x327f7160	1.4868732e-08
65	0xb259b052	-1.2671153e-08
66	0x33ba0c25	8.663509e-08
67	0x32eeda78	2.7806195e-08
68	0x33c387b1	9.105077e-08
69	0x3305e1f4	3.117198e-08
70	0x34258b82	1.5417575e-07
71	0xb35c187d	-5.1245014e-08
72	0x326af66c	1.36766225e-08
73	0x32418819	1.1265024e-08
74	0x336c48e6	5.5014333e-08
75	0xb2cefd5b	-2.4096769e-08
76	0x34493d8d	1.8741976e-07
77	0x330827d3	3.1701187e-08
78	0xb3c20af7	-9.0358235e-08
79	0x345c98ac	2.0544638e-07
80	0x34150f77	1.3882332e-07
81	0xb32c5352	-4.012265e-08
82	0xb31263f7	-3.408419e-08
83	0xb3d4e667	-9.913929e-08
84	0xb30adc20	-3.233083e-08
85	0x33b65c11	8.491782e-08
86	0x343f2fcb	1.7805648e-07
87	0x3431098c	1.6487883e-07
88	0xb3d7275f	-1.0018879e-07
89	0xb374b537	-5.697549e-08
90	0xb44652ac	-1.8470263e-07
91	0x3381f75b	6.052024e-08
92	0x334f2e99	4.8238324e-08
93	0xb431effc	-1.6571715e-07
94	0xb3bc93c9	-8.781314e-08
95	0x329c90f8	1.8226714e-08
96	0x33a7bd88	7.811019e-08
97	0x31300502	2.5614217e-09
98	0x34620d64	2.1052762e-07
99	0xb245c5e3	-1.1511903e-08
100	0xb4027510	-1.214978e-07
101	0xb2e88c24	-2.7072083e-08
102	0xb3bc2b8b	-8.7623526e-08
103	0xb41155b2	-1.3535353e-07
104	0x340f06b3	1.332035e-07
105	0x3437ab96	1.7105626e-07
106	0x30650a98	8.332477e-10
107	0x330c8fb5	3.272699e-08
108	0xb19fa97f	-4.6467785e-09
109	0xb36f0f31	-5.566034e-08
110	0x33d83c8e	1.00692986e-07
111	0x348b105f	2.590268e-07
112	0xb41da294	-1.468091e-07
113	0xb3be1314	-8.851035e-08
114	0xb3f122fe	-1.1228802e-07
115	0x33567b61	4.993797e-08
116	0x34291271	1.574606e-07
117	0x32875e45	1.5758937e-08
118	0x34a2c085	3.0314928e-07
119	0xb3148389	-3.4578566e-08
120	0x34674c4c	2.1541308e-07
121	0x33f0a03a	1.1205016e-07
122	0xb37fc30a	-5.95492e-08
123	0xb463efe6	-2.1228297e-07
124	0x33baaf88	8.693229e-08
125	0x31be298f	5.5344525e-09
126	0x33ac0989	8.0111086e-08
127	0xb462bb47	-2.1116021e-07
128	0x3b9ebdfe	0.004844426
129	0xbb469f88	-0.003030749
130	0xbb7826db	-0.0037864957
131	0xbafb5c97	-0.0019177374
132	0x3caf677c	0.02141165
133	0x3b8538cb	0.004065608
134	0xbb46f23f	-0.0030356792
135	0xbc2a8e41	-0.010409893
136	0x3b2ad8cb	0.002606916
137	0x3c7497f7	0.014928809
138	0xbc85488f	-0.01626995
139	0x3b803078	0.003912028
140	0xbbab3ef6	-0.0052260114
141	0x3c928bbf	0.017888902
142	0xbb6b5eea	-0.0035914727
143	0x3ac96337	0.0015364651
144	0x38956f94	7.125657e-05
145	0xbc9ead14	-0.01936964
146	0xbb0836d9	-0.0020784645
147	0x3bd6179c	0.006533576
148	0xbbaaf7c0	-0.0052175224
149	0xbca4e961	-0.020130815
150	0xbbe4cf93	-0.0069827526
151	0x3c3e5faf	0.011619492
152	0xbc7c4fbd	-0.01539987
153	0x3c586e6c	0.01320992
154	0x3aa18ec2	0.001232587
155	0x3c90a78e	0.017658021
156	0x3ca21752	0.01978651
157	0x3c1794a7	0.00925175
158	0x3c4a7834	0.01235776
159	0xbc15cb8e	-0.0091427695
160	0xbbbc2cbd	-0.005742638
161	0x3ba833e7	0.0051331404
162	0x3b521e33	0.0032061457
163	0xbb1ae16f	-0.0023632904
164	0x3bfad368	0.007654596
165	0x3c7bcd49	0.015368768
166	0xb9d25ef2	-0.0004012506
167	0xbc15b02f	-0.009136244
168	0xbc723d75	-0.01478516
169	0x3c3adbae	0.011404915
170	0x3c0b78d7	0.008512697
171	0x3bbaab32	0.0056966776
172	0xbb2942eb	-0.002582724
173	0xbca7ee70	-0.020499438
174	0xbc1b59bc	-0.009481844
175	0xba30f8f3	-0.00067509635
176	0xbb4a75f8	-0.0030893069
177	0x3ba13882	0.0049200663
178	0x3beef506	0.0072923927
179	0x3ae5a998	0.0017521856
180	0x3b6e7c22	0.0036389907
181	0xbbf4d4b6	-0.007471646
182	0xbb274e3c	-0.002552881
183	0xbcad531f	-0.0211578
184	0x3a8ac1a2	0.0010586272
185	0xbbd35a01	-0.0064499383
186	0x3bd44b7d	0.0064787255
187	0x3c4fefce	0.012691451
188	0xb803ebdb	-3.145249e-05
189	0x396f0676	0.00022795223
190	0xbb1379c9	-0.002250301
191	0x3bda335c	0.0066589545

transformer.layers.0.self_attn.out_proj.weight f4 [64, 64]
0	0x3c9d5ec1	0.019210221
1	0xbd03e4d8	-0.032200664
2	0xbc06923d	-0.008213577
3	0x3d12cd97	0.035840597
4	0xbc5e126f	-0.0135542
5	0xbc55b5b5	-0.013043811
6	0xbc7e8fcd	-0.015537214
7	0xbca8f62a	-0.020625193
8	0xbcb1f6c0	-0.021724105
9	0xbc352057	-0.011055074
10	0x3c37edf3	0.011226165
11	0xbc023dfd	-0.0079493495
12	0xbd0e1b3d	-0.034693945
13	0x3cb75d48	0.022383347
14	0x3b64ce9a	0.0034913183
15	0xbb667a08	-0.003516795
16	0xbd083184	-0.033250347
17	0x3c90db4e	0.017682698
18	0xbc9e58a4	-0.019329377
19	0xbcc5f2ec	-0.024163686
20	0x3d32363f	0.043508764
21	0x3caba98b	0.020954868
22	0x3d19a34c	0.037509248
23	0xbcf0094d	-0.02930131
24	0x3c366b90	0.011134043
25	0xbd387936	-0.04503747
26	0x3c43f88a	0.011961112
27	0xbcecb87f	-0.028896568
28	0xbd172999	-0.036904905
29	0xbd03c303	-0.0321684
30	0xbb84cf01	-0.004052997
31	0x3d049971	0.032372896
32	0x3cb7b2d6	0.022424143
33	0x3caf4cfc	0.021399014
34	0x3d130caf	0.035900768
35	0xbb157db4	-0.002281052
36	0xbd3c8cba	-0.046032645
37	0xbc97bdbc	-0.01852309
38	0xbcf92560	-0.03041333
39	0xbc368a2e	-0.011141343
40	0x3d03d727	0.032187607
41	0x3b4bec73	0.0031116277
42	0xbc5da34f	-0.013527705
43	0xbc4bd44d	-0.012440753
44	0x3cbfd1e3	0.023415511
45	0x3be7db45	0.0070756995
46	0x3c7affe5	0.015319799
47	0x3cbcf89f	0.02306777
48	0x3c05a306	0.008156544
49	0x3bec22ea	0.0072063105
50	0x3d182db2	0.037152953
51	0xbcd98bc9	-0.026555913
52	0x3b888871	0.0041666557
53	0xbc05aeb3	-0.008159327
54	0xbb3dceed	-0.0028962449
55	0xbaadd3b7	-0.0013261948
56	0x3c4e656e	0.012597425
57	0x3ca067c6	0.019580733
58	0x3c38ec30	0.01128678
59	0xbcf69977	-0.030102475
60	0xbcd632f6	-0.026147347
61	0x3c1ca689	0.009561189
62	0x3c8c1f40	0.017104745
63	0x3c8bd012	0.01706699
64	0x3c9be796	0.019031327
65	0x3d2b5307	0.041827228
66	0x3cb74c05	0.022375116
67	0x3c2872a6	0.010281241
68	0x3ca7197d	0.020397896
69	0xbd257bc9	-0.040401254
70	0x3c7d795b	0.015470828
71	0xbb2d58c2	-0.002645061
72	0x3be418da	0.0069609703
73	0x3cd212e3	0.025643772
74	0xbc47d3c4	-0.012196485
75	0x3ca7ef59	0.020499872
76	0xb7ef6328	-2.8537193e-05
77	0x3c7a90fe	0.015293358
78	0x3d18151b	0.037129503
79	0xbc851649	-0.016245978
80	0x3cc61da2	0.024184052
81	0xbcba786f	-0.022762505
82	0x3c958170	0.018250197
83	0xbd640311	-0.055666987
84	0xbc79e882	-0.015253188
85	0xbd314e1d	-0.043287385
86	0xbd0814dc	-0.033223018
87	0xbcf6d248	-0.030129567
88	0xbc7f3814	-0.015577335
89	0xbc162bfb	-0.009165759
90	0x3ca5fbab	0.020261606
91	0x3c5d8646	0.013520783
92	0x3d0e9d75	0.03481813
93	0x3d04fd01	0.032467846
94	0xbc1af071	-0.00945674
95	0xbced45d0	-0.028963953
96	0x3c50e25e	0.012749283
97	0xbb1b08ea	-0.0023656436
98	0xbb906ce5	-0.0044075125
99	0xbb4bcdb3	-0.0031097948
100	0x3c4eb298	0.012615822
101	0x3abf25e3	0.0014583435
102	0x3937d7d3	0.00017532641
103	0x3c6ca345	0.014443223
104	0x3cac32cd	0.021020317
105	0x3c960093	0.01831082
106	0x3caeaace	0.02132168
107	0x3d8ac6a1	0.06776167
108	0x3bc4f5e5	0.006010758
109	0xbd18e3da	-0.03732667
110	0x3b73bbc2	0.003719077
111	0xbcee078e	-0.029056337
112	0xbd1798d4	-0.037010983
113	0xba38636b	-0.00070338574
114	0x3d1aab5e	0.037761085
115	0xbd14b980	-0.03630972
116	0x3acb6b7a	0.0015519701
117	0x3c73c0cd	0.01487751
118	0x3c95fd93	0.01830939
119	0x3c93ea18	0.01805596
120	0x3c4a1523	0.012334141
121	0xbcb96f33	-0.022636032
122	0x3d4a7b80	0.049434185
123	0x3a269046	0.0006353896
124	0xbc23b6ec	-0.009992342
125	0x3ca4bd59	0.02010982
126	0xbce33a49	-0.027737753
127	0xbcba1486	-0.022714864
128	0xbc7cb6eb	-0.01542447
129	0x3be687b5	0.0070352205
130	0x3d32b980	0.043633938
131	0x3c96771d	0.018367345
132	0xbae1534b	-0.0017190961
133	0xbd3029f7	-0.04300877
134	0x3c6a8338	0.014313512
135	0xbcad937e	-0.021188494
136	0xbc99df88	-0.018783346
137	0x3ca8eeee	0.020621743
138	0x3c56235b	0.013069953
139	0x3c8f5b6a	0.017499644
140	0xbc3e35c2	-0.011609497
141	0x3c89a24b	0.01680102
142	0xba901094	-0.0010991269
143	0x3c1e76b7	0.0096718585
144	0xbb93cb45	-0.0045103156
145	0x3bdfbb18	0.0068277232
146	0x3cf20f05	0.029548177
147	0xbaf2055c	-0.0018464732
148	0xbc01d637	-0.007924608
149	0x3c914938	0.017735109
150	0xbc64525d	-0.013935653
151	0x3c25d9ad	0.010122699
152	0x3c1c8093	0.009552139
153	0xbc3d6d7f	-0.01156175
154	0xbba196ee	-0.0049313223
155	0x3bd41bed	0.0064730556
156	0x3cd28767	0.02569933
157	0x3ba62057	0.005069773
158	0x3bde584d	0.0067854286
159	0xbccb6162	-0.02482671
160	0x3d0cf021	0.034408692
161	0xbce9a85a	-0.02852266
162	0xbbe91bea	-0.0071139233
163	0xbaba24cc	-0.001420164
164	0xbd3b2a90	-0.045694888
165	0x3bb69d1a	0.005572927
166	0xbcae47ec	-0.02127453
167	0xbc17141f	-0.009221106
168	0x3bfd8e2f	0.007737897
169	0x3c163a01	0.009169103
170	0xbbeafc23	-0.0071711703
171	0x3b65c84f	0.003506202
172	0x3b7bfc89	0.0038450083
173	0x3c2a6f95	0.01040258
174	0x3c4ac4f5	0.01237606
175	0xbc2a0e80	-0.010379434
176	0xbc6bf857	-0.014402471
177	0xbcaf1a33	-0.021374797
178	0x3ce47caf	0.027891485
179	0x3ce8c492	0.028414045
180	0x3bdb197e	0.0066863885
181	0x3cd38ca2	0.025823895
182	0x3d843ed8	0.06457299
183	0xbcc21092	-0.023689542
184	0xbc255940	-0.01009208
185	0xbcadb7c6	-0.021205794
186	0x3d7468c4	0.059670225
187	0x3bf51c7b	0.007480202
188	0x3c17b8cb	0.009260367
189	0x3b6d8ce8	0.0036247317
190	0x3ca3ffc9	0.020019429
191	0x3c02aeed	0.007976276
192	0xbc7de8f2	-0.015497433
193	0x3ca6d5f5	0.020365695
194	0xbc15baf4	-0.009138811
195	0xbd1b4a37	-0.037912574
196	0x3ca6264f	0.020281939
197	0xbad5b14b	-0.0016303448
198	0x3cb8d61c	0.022563033
199	0x3ccdb7e0	0.025112092
200	0x3a945a06	0.0011318333
201	0x3cf93491	0.030420573
202	0x3c7cff02	0.015441658
203	0xbc24e372	-0.010063993
204	0x3c322147	0.010872192
205	0x3c3a5deb	0.011374931
206	0xbc8e8ba1	-0.017400565
207	0x3c0fe163	0.008781764
208	0xbd1f1b27	-0.038844254
209	0xbbd1ce31	-0.0064027538
210	0x3bf4eaf3	0.007474297
211	0x3bd53dc3	0.0065076067
212	0xbce65238	-0.028115377
213	0x3cd69965	0.026196191
214	0x3c4d8c1b	0.012545611
215	0x3c081aa4	0.008307133
216	0xbc485ba3	-0.012228879
217	0x3cd3c265	0.02584953
218	0xbcaa9c61	-0.02082652
219	0xbbc6617a	-0.0060541006
220	0xbc9aa5d4	-0.018877901
221	0x3acaafbf	0.0015463753
222	0x3dbf24e7	0.093332104
223	0xb9ae9fd8	-0.0003330696
224	0xbc96415c	-0.018341713
225	0xbbb4dd90	-0.0055195764
226	0xbd310d91	-0.04322583
227	0x3c0bc0ee	0.008529885
228	0x3d0a13bb	0.033710223
229	0x3c3f316e	0.0116695
230	0x3d1b63d6	0.037937008
231	0xbae237c5	-0.0017259052
232	0xba1fe93b	-0.00061001227
233	0xb94277cd	-0.00018545911
234	0xbca4a357	-0.020097418
235	0xbc824e7a	-0.015906561
236	0xbcebb723	-0.02877385
237	0xbc7595ca	-0.014989326
238	0xbb86054a	-0.004089986
239	0xbb43932b	-0.0029842358
240	0xbc5bafcf	-0.013408615
241	0x3d34767b	0.044058304
242	0xbc7afc60	-0.01531896
243	0x3bd7e8f1	0.006589048
244	0x3c2f5876	0.010702243
245	0xbd28eb83	-0.041240226
246	0x3b6cfeb0	0.0036162548
247	0xbb97518c	-0.0046178754
248	0xbc47a26b	-0.01218472
249	0xbc332374	-0.010933746
250	0x3c8093a1	0.015695395
251	0x3b1ad2f3	0.002362427
252	0xbcd35c5e	-0.02580088
253	0xbd1492d5	-0.036272842
254	0x3cc2dec4	0.023787864
255	0xbd12acca	-0.035809316

transformer.layers.0.self_attn.out_proj.bias f4 [64]
0	0x3c0e0b54	0.008669693
1	0xbc016698	-0.007897995
2	0xbbc7f541	-0.0061022346
3	0xbac1b916	-0.0014779891
4	0x3c0698fc	0.008215185
5	0xbc3c454f	-0.011491134
6	0xbb6657fa	-0.0035147653
7	0x3c487160	0.012234062
8	0x3b12731b	0.002234644
9	0x3c0f2bd2	0.008738475
10	0x3c1ccd2c	0.009570401
11	0xbc06ab36	-0.008219531
12	0xbc1eac56	-0.009684643
13	0xbbf7c919	-0.0075618145
14	0xbb34441f	-0.0027506424
15	0xbc1623e6	-0.009163832
16	0xba89c0b1	-0.0010509697
17	0xbb3a8e09	-0.0028466007
18	0x3ba5dcde	0.00506173
19	0x3bee8bc1	0.0072798436
20	0x39f37746	0.00046437437
21	0x3b5c781c	0.0033640927
22	0x3bdaf03d	0.0066814707
23	0xbb190a3a	-0.0023352043
24	0x3bbedeb7	0.0058248895
25	0xbb74a293	-0.0037328347
26	0x3b6553c7	0.0034992562
27	0xbc05aa80	-0.008158326
28	0xbb70119d	-0.0036631592
29	0x3bf24cce	0.0073944097
30	0x3c15db42	0.009146513
31	0x3b63aec0	0.003474161
32	0x3bfb71c8	0.007673476
33	0xbb92a65d	-0.0044753985
34	0x3b95e770	0.0045747086
35	0xbc01921a	-0.0079083685
36	0xbaa8f60a	-0.0012890708
37	0x3c216c7a	0.009852523
38	0xbbe61b7c	-0.0070223194
39	0x3bedf25a	0.0072615566
40	0xbc2dfd9f	-0.01061955
41	0xbac79b54	-0.0015228787
42	0x3c0fc238	0.008774333
43	0x3b1d529d	0.002400554
44	0x3bba3c07	0.0056834253
45	0xbc287a74	-0.010283101
46	0xbb1bcd80	-0.002377361
47	0xbc133dc1	-0.008986891
48	0xbc0f9492	-0.008763449
49	0x3bf2f904	0.007414939
50	0x3c2aed9c	0.010432627
51	0xbc3c9027	-0.011508978
52	0x3ad846ea	0.0016500626
53	0x3b0ea8c6	0.0021768077
54	0xbb8f8e01	-0.004380942
55	0x3be5046b	0.006989052
56	0x3bafbdcf	0.005363203
57	0x3bc53a0a	0.0060188817
58	0xbb410133	-0.0029450178
59	0xbc006ef0	-0.00783895
60	0x3c35027d	0.0110479565
61	0xbbf0a996	-0.007344435
62	0x3ba17c1d	0.0049281255
63	0x3bd414a8	0.006472189

transformer.layers.0.linear1.weight f4 [128, 64]
0	0x3cb14346	0.021638524
1	0xbd88b57a	-0.06675239
2	0xbd26977f	-0.04067182
3	0xbd893878	-0.06700224
4	0x3d07b09a	0.033127405
5	0xbd12ff22	-0.035887845
6	0xbcca45a7	-0.024691416
7	0xbc8476b1	-0.016169878
8	0x3d1c0c23	0.038097512
9	0xbcdb5582	-0.026774172
10	0x3d16645a	0.036716796
11	0xbcc30680	-0.02380681
12	0xbcd4369e	-0.02590495
13	0xbd2c60e4	-0.04208459
14	0xbc8e0430	-0.017335981
15	0x3c905a7f	0.017621277
16	0xbd584e49	-0.052809034
17	0x3d014e07	0.031568553
18	0x3bee409c	0.0072708856
19	0x3c9110c1	0.017708184
20	0xbcfcb3fa	-0.030847538
21	0xba9f56c8	-0.00121566
22	0x3c9fa189	0.019486206
23	0x3c25ac67	0.010111905
24	0x3c31b16b	0.010845522
25	0x3d26a76f	0.04068702
26	0x3d87b4ae	0.06626259
27	0xbd0eea77	-0.03489157
28	0x3cfe1e84	0.03102041
29	0x3d56e18d	0.052461196
30	0x3ca9e38c	0.020738386
31	0xbcb76faa	-0.022392113
32	0x3c67e58b	0.014153848
33	0xbcd486f2	-0.025943253
34	0xbb93c2ce	-0.0045093065
35	0xbcd7c39f	-0.026338397
36	0x3bc2d4a4	0.005945759
37	0x3ceba8c1	0.028766992
38	0xbb93decd	-0.004512644
39	0x3cbb0152	0.022827778
40	0xbcdaa4fc	-0.026689999
41	0x3cfca627	0.030840946
42	0xbc0d3337	-0.008618168
43	0x3c9c3298	0.019067094
44	0x3c837604	0.016047485
45	0x3bc6cbd0	0.006066777
46	0x3d1e6014	0.038665846
47	0xbd33802a	-0.0438234
48	0xbd779152	-0.060441323
49	0xbba1654b	-0.004925405
50	0x3cecd4d0	0.02891007
51	0xbd506b2b	-0.050883453
52	0x3c948af5	0.018132666
53	0x3cb12d03	0.021627909
54	0xbc7effd5	-0.015563925
55	0x3c83409f	0.016022025
56	0x3d2674c2	0.040638693
57	0x3d0bb9d0	0.03411275
58	0x3c9e7907	0.01934482
59	0xbcd4a9a6	-0.0259598
60	0xbce07912	-0.02740148
61	0xbc79deb3	-0.01525085
62	0xbc98b6b7	-0.018641813
63	0x394a53b2	0.000192954
64	0x3bb1f4db	0.0054308004
65	0xbb69d2a6	-0.0035678535
66	0x3c1f8e39	0.009738498
67	0x3be92676	0.0071151806
68	0xbc91fb97	-0.017820163
69	0x3d113047	0.03544643
70	0x3d44e228	0.048067242
71	0x3d1f5908	0.038903266
72	0x3d5bd72c	0.053672
73	0x3ce4a19b	0.02790909
74	0x3c92a1fd	0.017899508
75	0xbc1fecd6	-0.009761056
76	0xbab05581	-0.0013453217
77	0x3ba85ff5	0.005138392
78	0xbc0121e2	-0.007881613
79	0xbb119277	-0.0022212544
80	0xbcaacd05	-0.020849714
81	0xbc2dc4c9	-0.010605999
82	0xbca267de	-0.019824918
83	0x3b94a8bd	0.0045367167
84	0xbc643141	-0.013927759
85	0xbd2b6512	-0.041844435
86	0x3c5a82d4	0.013336856
87	0xbd1db1fe	-0.038499825
88	0xbcbc6b01	-0.023000242
89	0xbd289cba	-0.04116509
90	0xbc0464d7	-0.008080683
91	0x3ac55907	0.001505644
92	0xbcfb3857	-0.030666513
93	0xbc3b9800	-0.011449814
94	0xbd361dfd	-0.044462193
95	0x3d03b7d6	0.03215774
96	0x3d4d4a02	0.050119407
97	0x3c9bc9f3	0.019017195
98	0x3d3952f0	0.04524511
99	0x3c15ca54	0.009142477
100	0x3d4fe81e	0.050758474
101	0xbccac6e8	-0.024753049
102	0x3b3398f5	0.0027404402
103	0x3ca693c4	0.020334132
104	0x3d6826a0	0.05667746
105	0xbd05c8c7	-0.03266218
106	0xbbba5143	-0.0056859567
107	0x3ce9f764	0.028560348
108	0xbc1aea44	-0.009455267
109	0x3c1b2f3e	0.009471713
110	0xbd11e73a	-0.035620905
111	0xbc5a0cc1	-0.013308705
112	0x3cad8fc1	0.021186711
113	0xbd391715	-0.04518803
114	0xbcfdfb51	-0.031003626
115	0x3cf7f9d8	0.030270502
116	0xbc862387	-0.016374363
117	0x3d86fb8c	0.065909475
118	0xbca919b7	-0.020642145
119	0x3b3ad01f	0.0028505397
120	0x3c589445	0.013218944
121	0xbd27c750	-0.040961564
122	0xbcd1fa9e	-0.025632199
123	0x3b820c75	0.00396877
124	0x3cf0013d	0.029297465
125	0x3b0e0737	0.002167178
126	0xbd6b68d6	-0.057473026
127	0xbcd5de21	-0.026106896
128	0xbc0314a3	-0.008000526
129	0xb9a986e3	-0.0003233469
130	0xbd0dc206	-0.034608863
131	0x3ca300ee	0.019897904
132	0x3c64358e	0.013928784
133	0x3aa5b198	0.0012641428
134	0xbd5cdac9	-0.053919587
135	0xbcb336cb	-0.021876713
136	0x3d08487e	0.03327226
137	0x3ce6ca91	0.028172763
138	0x3d4ee628	0.050512463
139	0x3d1ec59d	0.038762677
140	0xb8a3f0ab	-7.8172736e-05
141	0x3befeaf6	0.0073217107
142	0xbc87e826	-0.01659019
143	0x3c48742d	0.01223473
144	0x3b8b8a62	0.00425844
145	0x3d3fbe3f	0.046812292
146	0x3b4648e9	0.003025586
147	0x3c92f712	0.017940078
148	0x3c9fb129	0.019493656
149	0x3c9b08ef	0.018925158
150	0xbce56b0f	-0.028005151
151	0xbc818ea1	-0.015815081
152	0x3d216385	0.03940155
153	0x3beacbfb	0.0071654296
154	0x3d8cc829	0.06874115
155	0xbd129741	-0.03578878
156	0x3b8170a7	0.003950197
157	0x3cb6b7fd	0.02230453
158	0x3ca05b85	0.01957489
159	0x3cdf1f60	0.02723664
160	0x3d024058	0.031799644
161	0xbc4c2074	-0.012458909
162	0xbc8c70f3	-0.017143702
163	0xbc9166d0	-0.01774922
164	0xbbc32976	-0.0059558703
165	0xbce41af5	-0.027844885
166	0x3b01a2a2	0.0019780775
167	0xbc0310d1	-0.007999615
168	0xbd8339e4	-0.06407526
169	0x3cb38053	0.021911776
170	0x3913a1cc	0.00014079286
171	0x3b1e99c7	0.0024200545
172	0x3ce9ec5f	0.028555093
173	0xbd3623ab	-0.04446761
174	0x3c8b14ff	0.016977785
175	0x3c5f3dd8	0.013625585
176	0x3b8f7346	0.0043777553
177	0x3cec21d5	0.028824726
178	0x3a87d5a9	0.0010363358
179	0xbca326ea	-0.019916017
180	0xb916bc62	-0.00014375293
181	0x3c59ec86	0.0133010205
182	0xbc904b47	-0.01761402
183	0x3b37c06c	0.0028038276
184	0xbd139f9c	-0.036040887
185	0x3d51159b	0.051045995
186	0xbc410e6f	-0.011783226
187	0x3c31cebd	0.010852513
188	0x3b37b9b8	0.002803428
189	0xbb9a05cd	-0.0047003985
190	0x3b83eb59	0.0040258584
191	0x3d0da60a	0.034582175
192	0x3beeae12	0.0072839344
193	0x3b03aed7	0.0020093226
194	0x3b92ff19	0.0044859764
195	0xbd8e246c	-0.06940541
196	0x3d45dd09	0.0483065
197	0xbce7b5a8	-0.028284863
198	0x3c676402	0.014122965
199	0xbcf1be38	-0.029509649
200	0xbd03a954	-0.032143906
201	0x3cd4d6a8	0.025981262
202	0x3d20ed09	0.039288554
203	0xbd779c74	-0.06045194
204	0xbc803053	-0.015648043
205	0xbd4226f0	-0.047400415
206	0x3c8aa1ea	0.01692291
207	0xbca226f7	-0.01979397
208	0x3c3bacf1	0.011454807
209	0x3ce4508b	0.027870437
210	0xbd0c1d36	-0.034207545
211	0x3a5fc252	0.0008535731
212	0x3b06dde1	0.0020579027
213	0x3d2d91de	0.042375438
214	0xbca5b383	-0.0202272
215	0xbcbc39c6	-0.022976767
216	0x3cf2fec1	0.029662492
217	0xbc08315e	-0.008312551
218	0x3d1fb748	0.03899315
219	0xbcb9e800	-0.022693634
220	0x3c3f9138	0.011692338
221	0x3cef2c6f	0.029195992
222	0x3d26ea6d	0.04075091
223	0xbc41e429	-0.011834183
224	0xba8e8b49	-0.001087525
225	0xbd95fdcc	-0.073237985
226	0x3ceb6d99	0.028738784
227	0x3c12ba1b	0.008955504
228	0x3b40494a	0.0029340559
229	0x3d48642c	0.048923656
230	0xbc30cafb	-0.010790582
231	0x3c8cbf9f	0.017181216
232	0xbd6c044f	-0.057621296
233	0x3c9da368	0.019242957
234	0xbb77abcb	-0.0037791606
235	0xbb4b8915	-0.003105705
236	0x3ca291d6	0.01984493
237	0xbc668ec9	-0.014072129
238	0xbc0aa570	-0.008462295
239	0xba0fbfb2	-0.0005483582
240	0xbd28ad7b	-0.04118107
241	0x3cf509b4	0.029911853
242	0xbb137d7a	-0.002250521
243	0x3b487b1a	0.0030590952
244	0x3cbcdedf	0.023055492
245	0xbb56fbc3	-0.003280387
246	0xbd36bb1c	-0.044612035
247	0xbd2583e0	-0.04040897
248	0x3c7e7b5d	0.015532342
249	0x3cd3ba52	0.02584568
250	0x3c811fee	0.015762296
251	0x3b78a1b6	0.0037938184
252	0x3d2ea062	0.04263342
253	0xbbe90c57	-0.0071120667
254	0xbc8c3e99	-0.017119693
255	0x3c71cd9b	0.014758493

transformer.layers.0.linear1.bias f4 [128]
0	0x3d020122	0.03173936
1	0x3bc9362a	0.00614049
2	0x3c1242f0	0.008927092
3	0x3bcb565c	0.006205363
4	0x3b0e49a8	0.0021711383
5	0x3c1574de	0.009122102
6	0x3bd70cdc	0.0065628123
7	0x3cb87a9e	0.022519406
8	0x3b6281d6	0.0034562252
9	0xb8015262	-3.083272e-05
10	0x3cb38a8e	0.021916654
11	0x3ce213b5	0.027597288
12	0x3c339903	0.010961774
13	0xbbbda7a0	-0.0057878047
14	0x3c2abd07	0.010421044
15	0x3b71f504	0.0036919722
16	0x3c0c0b46	0.00854761
17	0x3cc1e194	0.023667134
18	0x3bcb7811	0.0062093814
19	0x3bfbb9a2	0.0076820413
20	0x3cbf5a3f	0.023358462
21	0x3cbb4aca	0.02286281
22	0x3c9ae892	0.018909726
23	0x3c6fb0cc	0.014629554
24	0x3c70aea3	0.014690074
25	0xbc714351	-0.014725522
26	0x3c51b820	0.0128002465
27	0x3bdcc094	0.0067368243
28	0x3c2f29a4	0.01069108
29	0x3bb5a2b7	0.0055430788
30	0x3cb287ed	0.02179333
31	0x3ceff4eb	0.02929159
32	0x3b89c141	0.004203946
33	0x3baae7f7	0.0052156406
34	0x3c9a4281	0.01883054
35	0x3c18b462	0.00932035
36	0x3b46018e	0.003021333
37	0x3c128256	0.008942207
38	0x3d0ef4b6	0.034901343
39	0x3c56b739	0.013105207
40	0x3cb6f9e7	0.02233596
41	0x3b869b4e	0.004107869
42	0x3ca4657c	0.020067923
43	0x3b4abce1	0.0030935335
44	0x3c72d4c0	0.014821231
45	0x3d02727b	0.03184746
46	0x3cacf8a3	0.021114653
47	0x3ca82746	0.02052654
48	0x3c0d91d8	0.008640729
49	0x3ab89e9b	0.0014085354
50	0x3b55c989	0.0032621345
51	0x3c54bbeb	0.012984256
52	0x3b64e055	0.0034923751
53	0x3cb0b4ab	0.021570524
54	0x3cb64463	0.022249406
55	0x3c369990	0.011145011
56	0x3b79e174	0.0038128765
57	0x3c80b0d3	0.015709316
58	0xbc1dbebd	-0.009627995
59	0x3ca4b47c	0.020105593
60	0x3b6cc0d4	0.0036125677
61	0xbac8422b	-0.0015278509
62	0x3c868d8d	0.016424919
63	0x3c8609fc	0.016362183
64	0x3cfc899b	0.030827334
65	0x3b01c60a	0.0019801878
66	0x3ca843a9	0.020540075
67	0x3c86a791	0.016437324
68	0x3ca979e3	0.020688003
69	0xbb73ad10	-0.003718201
70	0x3c9f9ce4	0.019483991
71	0x3c3d2695	0.011544843
72	0x3b931034	0.0044880155
73	0x3c090838	0.008363776
74	0xbba46e49	-0.00501803
75	0xb9d68080	-0.00040913
76	0xbb318861	-0.0027089345
77	0xbc644ef1	-0.013934837
78	0xbb3f6c0f	-0.0029208695
79	0xbb8fcf90	-0.004388757
80	0x3bd8d339	0.0066169766
81	0xba91481b	-0.0011084111
82	0x3c38d849	0.011282035
83	0x3ca33182	0.019921068
84	0x3b324ce0	0.0027206466
85	0xbb9d6b81	-0.004804075
86	0x3984b9f7	0.00025315557
87	0x3d1bc61d	0.038030732
88	0x3ca1a5d8	0.0197324
89	0x3b1429e5	0.002260798
90	0x3cb50158	0.022095367
91	0x3c953cb0	0.018217415
92	0x3cd0489c	0.025425248
93	0xbc6cf00b	-0.014461528
94	0x3c98692d	0.01860484
95	0x3c39b698	0.011335038
96	0x3cd1c864	0.025608249
97	0x3cc1a7fe	0.023639675
98	0x3c58152f	0.013188644
99	0x3c0e4971	0.008684502
100	0xbb3f6eff	-0.0029210446
101	0x3ca3dcb6	0.020002704
102	0x3c6779a8	0.014128126
103	0x3b7cc3d3	0.0038568869
104	0x3c956cc4	0.01824034
105	0x3b286098	0.002569234
106	0x3ce5a7f1	0.028034182
107	0x3c8a00ae	0.016846027
108	0x3ba14756	0.004921834
109	0x3ceb8ef1	0.028754683
110	0xbc68b519	-0.014203333
111	0x3c258734	0.010103036
112	0x3b675348	0.0035297442
113	0x3c23747d	0.009976503
114	0x3c6832e3	0.014172289
115	0xbad62118	-0.0016336767
116	0x3c30e2fb	0.010796304
117	0x3ccf696e	0.025318827
118	0x3cdff71b	0.027339509
119	0x3cf5b670	0.02999422
120	0xbc541974	-0.012945522
121	0x3c4ecdef	0.012622341
122	0x3be857d0	0.007090546
123	0xbc0497ac	-0.008092802
124	0x3b8e5128	0.0043431707
125	0x3ca6305f	0.020286737
126	0x3c891f48	0.016738549
127	0x3c7f0540	0.015565217
