marble_model/best_model_v3.0_20250530_230136.pt (torch, 295593 bytes, 30 tensors)

token_embedding.weight f4 [13, 64]
00000000: 38fb f4bb 7992 7c3c 8497 613c b808 c83c
00000010: c036 a33c 70d2 86bd 2cfc 0837 2506 5e3b
00000020: eb6c 04bd 8261 cd3b 890d 173c e41b c7bc
00000030: 79b6 76bb 0cca 0abb 9491 53bc 9be2 083c
00000040: da01 8c3c f9c9 9f3c 53eb 34ba 0dc5 b83b
00000050: bef3 aebc a592 2b3c d7e6 133d 6734 5ab9
00000060: 26c9 65b9 35f4 48bb 52a1 fe3c 3240 aabc
00000070: c273 993c 535b 3fbc f82a aabc b931 9d3c
00000080: 33c1 f1bb 39ae afbc ef00 cb3c 4e92 c93b
00000090: aa15 07bd 82f3 bcbc 8e76 98bc 4f4f a23b
000000a0: 0ac0 c8bc e531 b93b 4438 8c3b 778e 37bc
000000b0: 0191 dabb 97a3 a2bb 197c b13b 011f 633c
000000c0: 3d80 003d d475 94bb f4a8 cf3b 81dc 603c
000000d0: a45f 99bc 7065 8d3c 2e0d 5f3c 5518 5abb
000000e0: 23be 69bc 24de 04bb 51a7 023c 669d 2a3b
000000f0: 45a1 6bbc 0afb f6bb e6d6 ac3c 74ea 09bc
00000100: f8da 253b 2dd9 753c 92e2 053d 54d3 30bb
00000110: ae4e c7bc 99d9 0bbd 29af bfbc e4e0 8b3d
00000120: 0747 1fbd 4181 03bc 4cc2 f3bc 04f4 6f3c
00000130: 15a3 4a3c 0fd4 81ba c864 373b 480f c5bc
00000140: 5e04 20bd 81df 2b3d 9763 123b ead8 11bc
00000150: c8f1 af3b 6e02 40bc fcc0 14bc e30a 5f3a
00000160: c490 c2bc 9dcb 19bd 9641 073c 04a9 96bc
00000170: bb2b 44bc 643c 833c a8f3 a0ba ff27 92bc
00000180: 6c59 a03c 4449 433c 7198 433c 75f2 36bc
00000190: 1bac f13c 7def 87bd 8b5b 843b fbaf 0c3d
000001a0: 3202 083d 4b5e 133c 6328 1d3d 0b2e fabc
000001b0: 72a1 33bc 2bb3 bfbb 7e55 a73c 1ad7 06bd
000001c0: 6d82 47bc c0cd b6bc a7e8 8c3c 246b 80b9
000001d0: da40 d9bc 544f 803c 2a5b e3bc 2c39 77bc
000001e0: 6e53 9b3c 6616 b93b 2f7e 8a3c 0c16 7ebc
000001f0: a0ad e83c a11b c6bb 476f 973c a016 80bd
00000200: 77d3 0cbd 76ef 8b3d 4d35 823c 3857 e4bc
00000210: b3f6 23bc f530 f13b 82fb 4ebc 644b b23b
00000220: 8076 5ebc c1cb d43c 02a4 15bb 4b4d ffbc
00000230: 1b96 2ebd 3d1f 8fbc 3875 df3c c7b2 8a3c
00000240: cbe6 843c 46aa 31bc 50d7 b1bc 39be cd3c
00000250: 3b7a 03bc 77c9 2bbd d402 f0bb 9705 763b
00000260: a1ff 663c 9e17 d5bc 985d 813c b913 963a
00000270: e67a b3bb 1205 963b 8a23 4cbc 7274 b63c
00000280: 7374 b5bc 8156 153d 3b2d 77bc 42fc ab3c
00000290: d414 af3c a79e 12ba b733 dc3a 482b 8c3c
000002a0: d61c adbc 7488 2ebd 1461 4c3c f252 233c
000002b0: eeb4 09bb bc66 bdbc 243b 42bb 9beb e8bb
000002c0: 4ce9 f339 ef10 d13c 8182 31ba d158 903b
000002d0: fa21 853b 095e d1bc b40a 443c e1a9 8c3c
000002e0: c639 b8bc 84a7 8dbc 586a f73b b34b 98bc
000002f0: 17df cc3c 1b11 ca3b 357c c0bc 4280 bbbb
00000300: 0f1f acbc 6520 cd3b 8756 cc3c 4834 ee3a
00000310: 5726 febc 6806 a3bb e424 5e3c 676b 693b
00000320: 1a11 173b df33 30bc 0156 9eb9 f483 b4bb
00000330: 4211 8ebc dfae e4bb 2bba 07bd 12bc 45bc
00000340: 78b6 cb3b b33f 35bd 8ea7 a63c e483 c7bc
00000350: f600 b23b 4c1f 023c 8151 3ebd c1d2 ed3c
00000360: a10c 73bc 0429 53bc 7d3b e53a f286 8ebd
00000370: def7 a0bc 67c7 d33c 9ae0 123d eb77 9a3c
00000380: 1451 4eba 6598 5abb 6063 e3bc d62e 893c
00000390: f82e f63c b614 4bbd 35d6 07bc f31f 6cbc
000003a0: 2dd0 cd3a fc81 76bb 0985 0d3b 3aad e7bc
000003b0: 706d b4bc 0af8 443c 7044 09bd 190f af3c
000003c0: 9a69 313c 8f34 243c c343 313b 8253 693b
000003d0: 5d43 c03b a226 bebc b010 5e3b cab1 90bb
000003e0: af48 163c dce9 0f3c 3c0d 4d3d 056b 2d3c
000003f0: a7b4 453c 8059 5dbd da3a ddbc 998e 98ba
-0.0074762367 0.015415781 0.013769034 0.02441822 0.019923568 -0.065831065 8.164945e-06 0.0033878174
-0.032330435 0.0062677274 0.009219536 -0.024305291 -0.0037645383 -0.0021177558 -0.0129131265 0.008354808
0.017090727 0.019505488 -0.0006901521 0.0056387247 -0.02135646 0.0104719745 0.036108818 -0.00020809621
-0.00021914075 -0.0030663137 0.031082783 -0.020782564 0.018731955 -0.011679488 -0.020772442 0.019188749
-0.0073777675 -0.02144538 0.024780719 0.006151474 -0.032979645 -0.023065332 -0.018611219 0.004953302
-0.024505634 0.0056517 0.0042791683 -0.0112034 -0.006670118 -0.004963349 0.005416405 0.013862372
0.031372298 -0.004530648 0.0063372795 0.013724447 -0.018722363 0.017260283 0.013613982 -0.0033278663
-0.0142665235 -0.0020274008 0.007974462 0.0026033758 -0.014381711 -0.0075372504 0.021098565 -0.008417714
0.0025307517 0.015005392 0.032686777 -0.002698143 -0.02432951 -0.034143064 -0.023398953 0.06830004
-0.038886096 -0.008026422 -0.029755734 0.01464558 0.012367983 -0.0009905117 0.0027983654 -0.024055138
-0.039066665 0.041961197 0.0022337192 -0.008901814 0.0053693987 -0.011719329 -0.009079214 0.0008508397
-0.02375067 -0.037547696 0.008255383 -0.01839114 -0.011973317 0.016020007 -0.0012279646 -0.017841337
0.01957389 0.011919323 0.0119382 -0.011166205 0.029501012 -0.06637476 0.004039233 0.034347516
0.03320522 0.008994649 0.038368594 -0.030539533 -0.0109637845 -0.005850216 0.020426508 -0.03291998
-0.012177092 -0.022314906 0.017200781 -0.00024493888 -0.026520181 0.015662827 -0.027753431 -0.015089314
0.01896068 0.005648422 0.016905872 -0.015508186 0.028403103 -0.006045774 0.018485678 -0.062543154
-0.034381356 0.06832783 0.015894556 -0.02787362 -0.010007548 0.0073605725 -0.012633206 0.005441116
-0.013578057 0.025976064 -0.0022833352 -0.031164786 -0.04262362 -0.01747095 0.027277574 0.01693095
0.016223332 -0.010843819 -0.021709114 0.02511512 -0.0080247475 -0.04194018 -0.007324556 0.0037539953
0.014099033 -0.026012238 0.0157917 0.001144997 -0.005477297 0.004578241 -0.012459645 0.022272322
-0.022150254 0.03645945 -0.015086467 0.02099431 0.021372236 -0.0005593099 0.001680008 0.017110482
-0.021131914 -0.0426106 0.012474317 0.009968506 -0.0021012384 -0.023120277 -0.0029637301 -0.0071081645
0.00046522391 0.02552077 -0.0006771461 0.004405119 0.004062888 -0.025557535 0.011965442 0.017170848
-0.022488486 -0.017291792 0.007550519 -0.018590784 0.025008721 0.00616659 -0.023496727 -0.0057220766
-0.021010904 0.0062599652 0.024943603 0.001817354 -0.031024141 -0.004975129 0.0135586 0.0035616995
0.0023050965 -0.0107545545 -0.00030200186 -0.005508894 -0.017342214 -0.006978854 -0.033136528 -0.012068765
0.0062168203 -0.0442502 0.020343568 -0.024354883 0.0054322435 0.007942032 -0.046464447 0.02903116
-0.014834554 -0.012888197 0.0017489042 -0.069593325 -0.019649442 0.025851918 0.035858728 0.01885601
-0.0007870358 -0.0033354994 -0.027757347 0.016745966 0.030051693 -0.0495803 -0.008290817 -0.014411914
0.00157023 -0.0037614098 0.0021594188 -0.028280843 -0.02202484 0.012022028 -0.033512533 0.021369504
0.0108284 0.010022297 0.0027048446 0.0035602753 0.0058674053 -0.023211781 0.0033884458 -0.0044157254
0.009172603 0.008783784 0.05006145 0.0105845975 0.012066997 -0.054040432 -0.027005602 -0.0011639177

position_embedding.weight f4 [30, 64]
00000000: bdb3 7b3c 22d3 a33c ffd0 6d3b 1c30 4b3b
00000010: 138c 0abd e8f3 8bbc e324 90bc 56ce 953c
00000020: bb1d e0bb 2f8d 3b3c 3091 52bc 423d 0f3d
00000030: 73ec 9b3c 6ade 163a 3c3e 0b3d 566c 6ebc
00000040: 252d a5bb e31d df3c b815 213d b707 a3ba
00000050: 66e3 64bc 3035 6abc 1766 573d 20e8 69bc
00000060: 2a50 a8bc 994e 04bd 528b df3a 90af 66bc
00000070: b454 f8bc 0b2b b43c c8d3 49bc b300 69bd
00000080: beb7 a33b b3f6 f93c 73f0 4b3c 7065 3b3a
00000090: a1ec 443d 56c9 beba f2a1 fcbb 1814 cc3b
000000a0: 704f de3c 7e70 983b 9860 e13c e0f9 7dbc
000000b0: 7ab8 6dbb 38a1 5e3c 35eb f43b cfbd 8dbc
000000c0: f830 6337 4cc7 cdbc 8158 d43c d07d 5d3c
000000d0: 9b7e febc b2c8 b83c 7d14 e5bc adc1 30bc
000000e0: 0347 c83c 373d a2bc 7711 013d 8d52 0cbd
000000f0: 9a66 af3c 4115 d23c 4caf 953b c0ec bd3c
00000100: 76f2 6abc 69e7 6dbb fee5 673c fc32 26bc
00000110: b026 08bd bb0d 4abb 04a5 cbbb 082c 0ebd
00000120: a00a 48b9 0ae8 1a3c a252 343d 6601 78bc
00000130: a40b 3f3d 0df1 c4bc 7c80 113b ae9c 3b3d
00000140: 7ac8 663d 4d97 01bd fa2a 383b 1b73 913c
00000150: d7e1 433d 6ab9 ff3a 7cf2 0cbc cb83 38bc
00000160: b154 0e3c fcfe a33c 197c 68bc 2786 0c3c
00000170: eb3d 00bc 0c46 fa3b 1e94 9cbc 04dd 9f3c
00000180: 7317 ee3a a1f0 1e3c 5381 e5bc 34a3 7dbc
00000190: 53e3 46bd 74db 3c3c 9a7b 1fbd 715a cbbb
000001a0: ee01 3ebc 3b24 c03b b3bf 10bd 50ab 0abb
000001b0: a222 873c 914e 683c 5235 3ebc 3b9e b7ba
000001c0: 7750 c0bb adaf a9bc 0457 2fbc 6429 97bc
000001d0: 51c2 14bc 325f 16bc 20c5 f1bc 1e40 263d
000001e0: faec 36bc dbda 673b 1f1a 88bc 6b9e 2e3c
000001f0: 5376 9fbb 5a43 973c fbea b6bc e89b 963b
00000200: c550 413c 1ce2 ec3b 2f50 3bbd 841a d0bb
00000210: c2c3 cbbc 08af 1c3b 1b9a 63bc f6ba 2bbb
00000220: a786 a23c 2878 093d c35b 053d c946 3fbc
00000230: 0222 cf3c c5cb 1b3c e9a7 82bc 4e01 c43c
00000240: a05b 95bc 79a8 9c3c 472d f5bb 14f4 7b3c
00000250: c44d 213d 444c 173c d978 933c bb04 ef3c
00000260: ecd4 1c3a 71b5 c3bb cf4b fd3c 212f 483c
00000270: 057c 1f3b 14cb e4bb b81d 16bd c30f 89bc
00000280: 84fc 11bb aab6 e93c 36ea c33b cc89 1dbd
00000290: 4e75 a73b 4b06 b03c 4e61 acbc 148e 09bc
000002a0: 168d 05bc be02 aa3b 543a 403c 053a 01bd
000002b0: 5e35 f53c f6ee 18bd d602 3e3c 1588 07bd
000002c0: 295b cb3b fc02 b7bc 906c f23c d639 543c
000002d0: 872a 0e3d ac43 993b e1cd 7fbb 136f 833c
000002e0: efab 97bc c3cb 043d c320 48bd 3a9a 19bd
000002f0: c4a5 053d 3605 f13c 0c36 8a3a a014 fdbb
00000300: 7b78 c6bb 9cdd babc 8ec9 5b3c cccc 163b
00000310: 5e53 6b3d 7418 37bd cf2f 8abc 09ac d53c
00000320: 94fc bdbc 18f3 57bc a5d1 5b3c fe48 04bd
00000330: 5738 23bc 963e e2bc 9541 3c3c 2123 b0ba
00000340: d357 4b3d b4e0 dd3c 73cd 2e3b 9462 593d
00000350: 47e6 11bc 6756 03bd 3b51 013d 0a41 2e3c
00000360: 81b3 1abd 747b 08bd c654 c4bc b813 c93c
00000370: a934 fc3c 9352 cf3c 26d2 1cba ad31 7e3c
00000380: b451 633d 5fe7 c7bc cc52 61bb ebbb 52bb
00000390: 0b36 aa3c dd56 2c3d 8846 4cbb 3114 163d
000003a0: ef22 f73c 5351 d7bc 54e7 d4ba 1373 353d
000003b0: 055d 0abb 150e 1b3d 235b 82bc 780b 003d
000003c0: 237f d9bc abec 2e3d d0b0 02bd 9690 06bc
000003d0: 36dd 1bbb 6437 b4bc 2319 efbc 2584 1abc
000003e0: 13e1 243d d9f8 b2bb 694d 623c 923f 803c
000003f0: 284e f43c f4c3 e2bb 8373 f73c 373c 273d
0.015362677 0.019998137 0.0036287901 0.0031004017 -0.03382499 -0.017084077 -0.017595714 0.018286865
-0.0068394816 0.011447235 -0.012851998 0.03497053 0.019033646 0.0005755188 0.0339949 -0.0145521965
-0.005040782 0.02723593 0.039327353 -0.0012438212 -0.013970232 -0.014294907 0.052587595 -0.014276534
-0.020546038 -0.03230152 0.001705507 -0.014079943 -0.030313827 0.02199318 -0.012318559 -0.056885432
0.004996269 0.030513143 0.012447464 0.0007148599 0.04807723 -0.0014555852 -0.007709735 0.0062279813
0.027137488 0.004652082 0.02751188 -0.015501469 -0.0036273287 0.013588242 0.007474328 -0.017302422
1.3541656e-05 -0.025119446 0.025921108 0.013518766 -0.03106623 0.022556636 -0.027963871 -0.010788363
0.024447924 -0.01980458 0.031510796 -0.034258414 0.021411229 0.0256449 0.004568016 0.02318418
-0.014340034 -0.0036301261 0.0141539555 -0.010143992 -0.03324002 -0.0030830938 -0.0062147398 -0.03470996
-0.00019077444 0.0094547365 0.044024117 -0.015137052 0.04664196 -0.024040723 0.0022201827 0.04580372
0.056343533 -0.031638432 0.0028101788 0.017755082 0.0478228 0.0019510214 -0.008602735 -0.011261891
0.008687184 0.020019047 -0.014189743 0.008576906 -0.007827262 0.007637745 -0.019113597 0.019514568
0.0018164947 0.009700925 -0.028015768 -0.015480805 -0.048556637 0.011526931 -0.038936235 -0.00620585
-0.01159714 0.005863694 -0.03533907 -0.002115924 0.016496006 0.014178888 -0.011609392 -0.0014008948
-0.005868967 -0.020713652 -0.0107018985 -0.018452354 -0.009079532 -0.00917797 -0.029512942 0.04058849
-0.011164898 0.003537825 -0.016614018 0.010657887 -0.0048664003 0.018464733 -0.022328844 0.004596222
0.011799042 0.007229103 -0.045730766 -0.006350817 -0.024873618 0.0023908038 -0.013891722 -0.0026203967
0.019839598 0.033561856 0.032558214 -0.011674591 0.02528477 0.009509032 -0.015949206 0.023926403
-0.018232167 0.019123303 -0.007482204 0.015378017 0.039380804 0.009234492 0.01800196 0.02917706
0.00059826556 -0.0059725572 0.030919937 0.012218268 0.0024335396 -0.0069822166 -0.036649436 -0.016731149
-0.0022275755 0.028529484 0.005978848 -0.03846149 0.0051104194 0.021487376 -0.021042492 -0.0083956905
-0.008151313 0.005188315 0.0117326565 -0.031549472 0.029932674 -0.037337266 0.011597356 -0.033088762
0.0062059355 -0.02234029 0.029592782 0.012953242 0.034708526 0.0046772566 -0.0039032626 0.016044175
-0.018514602 0.032420885 -0.04885937 -0.037500598 0.03262879 0.02942143 0.0010544672 -0.007723406
-0.006056843 -0.02281075 0.013414754 0.0023010252 0.057452552 -0.044701055 -0.0168685 0.02608301
-0.023191728 -0.013180517 0.013416682 -0.032296173 -0.009962163 -0.027617734 0.011490245 -0.0013438204
0.049644303 0.027084686 0.002667275 0.053072527 -0.008905 -0.03206482 0.031571608 0.010635624
-0.037768845 -0.03332086 -0.023966204 0.024545535 0.03078683 0.02530793 -0.00059822423 0.015514773
0.05549784 -0.024402319 -0.0034381626 -0.0032155465 0.020777723 0.042075027 -0.003116997 0.03664035
0.030168025 -0.026283896 -0.0016243258 0.044299196 -0.0021112573 0.037855227 -0.015912598 0.031260937
-0.026549881 0.042706173 -0.031906903 -0.008213183 -0.0023782975 -0.021999069 -0.02918679 -0.00943092
0.04025371 -0.005461794 0.013812401 0.015655313 0.029822424 -0.006920332 0.030206447 0.04082891

transformer.layers.0.self_attn.in_proj_weight f4 [192, 64]
00000000: 3007 433d e3f0 28be 7ae6 4dbd 0f28 fb3d
00000010: c9e4 063e 5ae8 483c acca ea3c 8041 cc3d
00000020: 8e2d 1bbe e910 1c3d bd2f e03d 2a9e c7bd
00000030: d8fd b03d 5bdc bc3d 0c15 c43d 9393 74bd
00000040: c949 b2bd 4435 e9bd 9b2e 86bc 905d cf3d
00000050: fd8f 13be 10dd 09be e27b 1c3e a844 bbbd
00000060: 924f e03c 2a0b 61bd 5ae3 d13d 9f97 cf3d
00000070: a8af 1c3e 0510 cbb9 81a9 d1bd c6d7 193d
00000080: e906 233d 38da 0b3e b6a9 883d 42d4 0ebe
00000090: 6575 7a3d 5140 5e3c 18ca 01be 0fbb 3ebd
000000a0: 97f5 06be 1f94 023d e16d 013d 1f01 60bd
000000b0: bfea bb3c 53cc c2bd 80ab dfbd fae7 78bc
000000c0: 995f e83c d5f0 283d 4b48 f1bd dd7e b13d
000000d0: 6cde 743d 0c28 a93c 4173 053e a3f5 c5bb
000000e0: 9d46 a7bd 8158 03bd b952 77bd 715d 08be
000000f0: 7c76 4c3d 9b53 f63d 3c88 b9bd 0ae2 dabd
00000100: 4a12 6abd ce4b ba3d 3a7a 70bd 5c66 103d
00000110: 1288 6a3c b70d 4d3d 20a3 04bd 1893 56bd
00000120: bb65 02be 76f2 ae3d 07de ff3c 0f4a 0e3e
00000130: c584 733c 69e3 1cbe 7e6b d8bc 6036 9dbd
00000140: 36ff f63c 7f03 0f3d 869f 46bd 4f42 16be
00000150: e1c5 c8bd d3f5 8bbd ca4b 0dbe 3ac5 423d
00000160: eb7d 0839 d728 0a3e cc16 b33d 4dd5 85bd
00000170: 0326 d93d be96 c0bd 0a38 1a3e c2e7 01be
00000180: b9ea b03a cd3e ddbd 113d 8bbd ef7d b73d
00000190: a1fc e43d 776d 1abe 7f49 d4bc 6712 a5bd
000001a0: ba19 c0bd 869b 0b3e 60e8 a93d 9f94 273d
000001b0: d6de a2bd d330 ff3d 9945 0dbd cad1 8a3d
000001c0: ad67 65bd f4ea a4bd d98c f7bd 90df 11be
000001d0: 59df 83bd cd21 f3bd 7c3c c53d f349 113e
000001e0: f2e1 1dbd 99f4 97bd e2e6 00be 9fae c53d
000001f0: d59e 633d 333e 0c3d d172 9bbd 9e9e 5a3d
00000200: fbcf 0ebe 2785 6e3d 4c51 c83d 7e73 27be
00000210: 4c93 dc3c 1ad6 17be 645c 6bbd 65a4 f83c
00000220: dae9 b8bd 8cbd fbbc 9ddf f0bd 94ba bf3d
00000230: 8a8e f3ba 514d 1dbe 019c a8bd e89f 943d
00000240: 8bf4 ce3d b8bb b73c ef7b 86bd bcbe f53d
00000250: 20a1 81bd 68ac 5b3d 3054 9bbd a229 c03d
00000260: c291 4b3d e966 f3bd 776c cd3d 37c0 efbd
00000270: 1bb4 86bd 7319 853c 13ff 89bd c7cb f1bd
00000280: bd9a 843d 09f2 4dbc 9881 713d 0280 633d
00000290: 25fb 573d 04f0 963d f4df 313d d7b1 0ebd
000002a0: 1309 61bc 369c ebbd 2eee 99bd b4b2 97bd
000002b0: 8380 34be 8229 abbd 602f 6c3d 9fd9 8b3d
000002c0: f23d 0a3e e6f1 d3bc 2ed8 b23d cd30 ca3c
000002d0: 9ce9 69bb 5c45 4abd 0581 7dbd de37 e73c
000002e0: 76b9 03be d7b2 f8bd a798 0bbd 5ebe 82ba
000002f0: 8969 febc e965 26be b5b7 81bd cee7 51bd
00000300: f75f 6a3c 6add 013e b4e2 febd 1ec7 6bbc
00000310: f93d 45bd 4433 98bd e14c 37bd c243 0c3d
00000320: 4693 d63b 88c2 893c 53ab 9c3d 74a7 ca3d
00000330: 0145 febd 6726 afbd 554a 03be 5e5d 843d
00000340: 7fce c43d d413 a53c a878 fb3d 56a0 ae3d
00000350: 5e08 bf3d a56e 4abd 0685 e03d 2dda e33d
00000360: c020 5d3d 124e 1b3e e44d a23d 0d4a 90bd
00000370: 1bae e0bd c12c 6c3d d5e3 f33b 9721 f63d
00000380: f0e6 cc3d 3353 bb3c b471 98bd 1993 02be
00000390: cda8 1b3d f65e 233e 9619 87bd 5a09 6b3d
000003a0: 7f99 153d 97d2 aa3d 302f 533d 0a45 c5bd
000003b0: 6541 ebbd 67d3 febd b746 02be 3dc7 193e
000003c0: 763b 01be 5bf1 153e 6ff9 21be c6d3 a2bd
000003d0: 0200 a33d f141 abbd a556 f43d 7b02 29bd
000003e0: 06e6 413d 240c 95bd 13fc f13b 1ef1 a43d
000003f0: 01fc bfbc e8aa 0cbe 6811 043e e6aa 0cbe
0.047614276 -0.16498141 -0.050268628 0.122635 0.13173212 0.012262428 0.028661095 0.09973431
-0.15154096 0.038102064 0.10946605 -0.09746964 0.08642167 0.09221717 0.09574327 -0.05971105
-0.0870548 -0.11387113 -0.016379645 0.101252675 -0.14410396 -0.13463235 0.15281633 -0.091439545
0.027381692 -0.054942288 0.10248442 0.10136341 0.15301383 -0.00038731113 -0.102374084 0.037559293
0.039801512 0.13657463 0.06672995 -0.13948157 0.061147112 0.013565139 -0.12674749 -0.04656511
-0.13179623 0.03187954 0.03159893 -0.05468857 0.022939084 -0.09511628 -0.10921383 -0.015192026
0.028365897 0.0412453 -0.11781367 0.086667754 0.05978243 0.020648979 0.13032247 -0.006041245
-0.08167765 -0.032066826 -0.060381625 -0.13316895 0.049917683 0.12027665 -0.09059188 -0.10687645
-0.057146348 0.0909649 -0.058710314 0.035253868 0.014314668 0.050061908 -0.03238213 -0.052386373
-0.1273412 0.085423395 0.0312338 0.13895439 0.014863198 -0.15321125 -0.026418444 -0.07676387
0.030150991 0.034915444 -0.048491977 -0.14673732 -0.098033674 -0.068339966 -0.13798442 0.04755137
0.00013016879 0.13492142 0.087445825 -0.065348245 0.10602953 -0.09403752 0.1506044 -0.12686065
0.0013497687 -0.10802994 -0.06798757 0.08959567 0.11180998 -0.1508082 -0.025913952 -0.080601506
-0.09379907 0.13633546 0.08296275 0.04091322 -0.07952659 0.12460484 -0.0344902 0.06778295
-0.056007076 -0.08052626 -0.120874114 -0.14245439 -0.064390846 -0.11871681 0.09630677 0.14188366
-0.038545556 -0.074197 -0.12588075 0.09652447 0.055571396 0.034239005 -0.07590259 0.053373925
-0.13946526 0.058232453 0.09781131 -0.1635265 0.026925705 -0.14827767 -0.057461157 0.030351827
-0.09028979 -0.030730031 -0.11761401 0.09361759 -0.0018581909 -0.15361525 -0.082328804 0.07257062
0.101052366 0.022428378 -0.06566607 0.1199927 -0.0632956 0.053631216 -0.07584417 0.09382941
0.049699552 -0.11884863 0.10030454 -0.11706584 -0.06577321 0.016247487 -0.06738105 -0.118064456
0.064748265 -0.012569913 0.05896148 0.055542 0.052729744 0.07369998 0.04342647 -0.03483757
-0.013735074 -0.11504404 -0.07516132 -0.07407132 -0.17627148 -0.08357526 0.057662368 0.06828617
0.13500193 -0.025872182 0.08732639 0.024681473 -0.003569222 -0.049382553 -0.06189062 0.028224882
-0.12863716 -0.12143486 -0.034081127 -0.0009974947 -0.031056182 -0.16249813 -0.063338675 -0.051246457
0.014305106 0.12682119 -0.12445584 -0.014390735 -0.048154805 -0.07431653 -0.04475105 0.034244306
0.006548318 0.016816393 0.07649865 0.098952204 -0.12415505 -0.085522465 -0.12821324 0.06463121
0.096096985 0.020151056 0.12278873 0.085266754 0.09327768 -0.049421925 0.10962872 0.11125598
0.05398631 0.151665 0.07925013 -0.07045374 -0.10970708 0.05765987 0.007442931 0.120181255
0.10004985 0.02286682 -0.07443562 -0.12751426 0.038002778 0.15954193 -0.06596677 0.057381965
0.03652334 0.08340948 0.051558673 -0.09632309 -0.114870824 -0.124426655 -0.12722288 0.1501741
-0.12620339 0.14642851 -0.15817808 -0.07950549 0.07958986 -0.08362187 0.11930589 -0.04126213
0.047338508 -0.07277706 0.007384786 0.08053802 -0.023435595 -0.1373707 0.12897265 -0.13737068

transformer.layers.0.self_attn.in_proj_bias f4 [192]
00000000: d02b 5dbb 4a2d 2a3c ccc2 7a3b 75c9 f7bb
00000010: 44e7 1b3c fb3c a33b 0158 c53a 1257 f7bb
00000020: d05d a0bb 703d e8bb 6dea 393c 22d0 2d3c
00000030: 7664 6e3c 4103 05bd ad9e 7a3c 0ec2 48bb
00000040: b7bb 73bb 3493 7cba 927a cf3c c49f 533b
00000050: 1574 183b d01e d43b dc58 c1bb 34c1 033b
00000060: ac86 3ebc 331d f9bb 1c3a c03b 9d6d 11bc
00000070: cb13 6dbc a5ea b6bb f35c 9ebb c9a2 073d
00000080: 9309 89bc c797 cd3b d1fc 8a3c 3076 3dbc
00000090: bcc8 59bb 62bf 6d3c 4c8b 94bb 1b29 2f3c
000000a0: 23cf 133c 8cea 0b3c 8ad6 fd3a 9217 1d3c
000000b0: 0939 373c ec01 6f3c bbb3 38bc d8f9 72bb
000000c0: ef75 453a 3ff1 1ebc 36a7 e43a 3e73 c23a
000000d0: 5dd0 fb3b 8694 0d3b a482 5c3b dac7 7a3c
000000e0: bad8 41bb 98c5 cbbb 7cc9 e23c 8dff 6dbb
000000f0: 89bc 803c 2a3c e83b 4613 943a a815 4d3c
00000100: 976c 7eb4 2cb4 62b4 81fa 8833 7420 e1b4
00000110: b6bb 9333 3421 2eb4 185d 8db4 6a50 b733
00000120: aaf1 94b4 771a 0634 5ada 0634 b55d e834
00000130: 2ff7 8535 a53f e834 2509 2a34 175d f934
00000140: 96aa a432 3a21 b1b3 169b f733 d60a 7234
00000150: 8a4f 5934 7869 aa33 c5d7 3eb4 28fa aab1
00000160: a92e 8fb4 5541 b8b4 201c 0933 9f32 b932
00000170: 9671 26b2 316d 9c34 cd85 0232 983d 9932
00000180: 1095 0135 7448 abb3 db08 06b5 1ba8 e7b3
00000190: ed91 acb4 d5c9 e733 0046 fd34 746c da33
000001a0: 934c 02b2 5512 b634 ce49 68b4 b59e 3db4
000001b0: 5835 cbb2 b85f 1fb5 a5d0 d9b4 3836 92b4
000001c0: 186a 38b4 2675 6134 e2c4 26b3 c547 3eb3
000001d0: 0eba a534 159b 4fb4 9941 2ab5 dcfe 3cb4
000001e0: babe dcb3 e6d5 0634 694b aab4 0418 9f34
000001f0: 9989 12b4 8b90 0533 3199 3133 72fe 9cb4
00000200: df6f 48bc 81e4 85bb 8df4 d9ba 529b 27bc
00000210: a02e a93a 634a 28bb 2e2a 143c 35cb d6bb
00000220: 105b 6f3b fb1c 723c 007c 16bb f0a7 57bb
00000230: c85f 4cba 9e88 17ba c448 eb3a 9201 41bc
00000240: 4a14 b33b 87de 923b 2c2f 05ba c819 b4ba
00000250: 1441 87bc ce02 2aba e0c8 a0bc 918e 92bc
00000260: f6d0 09bb ab49 c0ba 65ec a23b 67c1 123c
00000270: f5b4 853a 55b3 943c 9f9a 673b 5f1c cb3b
00000280: 3231 373c 8254 953c 0a8e 593b 4392 be3b
00000290: 7acb 2cba 8de5 68ba 18b1 d73b 40af 753c
000002a0: dbb8 5c3b 8abc ef3a 14b5 643c 19f0 72bb
000002b0: 9cd3 9c3b 6916 113c ea15 bf3b 0028 a3bc
000002c0: 908c 323a 1d55 0b3b a38b 883b 48ac e6bb
000002d0: 7704 393c 872c 0abc 5540 3bba e791 adba
000002e0: 6dfd 833c 61c8 b03b 3881 483c da6c f53b
000002f0: c3f5 1fbb e07e 7d3b b965 213c b63f 50bb
-0.0033748038 0.010386774 0.003826308 -0.0075618573 0.009515587 0.0049816347 0.0015056134 -0.0075482214
-0.004893996 -0.007087402 0.011347395 0.010608705 0.014550319 -0.032473806 0.01529662 -0.0030633244
-0.0037190744 -0.0009634972 0.025327 0.0032291273 0.002326255 0.0064733997 -0.0059004854 0.0020104172
-0.011628788 -0.007602358 0.005866302 -0.0088762315 -0.014470051 -0.005582171 -0.0048328578 0.03311423
-0.016728198 0.006274197 0.016966255 -0.011563823 -0.003323122 0.014510961 -0.004533207 0.010690953
0.009021553 0.008539807 0.0019366306 0.009588139 0.011183032 0.014587861 -0.01127332 -0.0037075188
0.0007532527 -0.009701072 0.0017444852 0.001483537 0.007684751 0.002160342 0.0033647204 0.015306437
-0.0029578642 -0.0062186234 0.027683966 -0.003631565 0.0157149 0.0070872502 0.0011297248 0.01251737
-2.3695098e-07 -2.1113436e-07 6.37856e-08 -4.193313e-07 6.879365e-08 -1.6217092e-07 -2.633103e-07 8.536229e-08
-2.7742982e-07 1.248935e-07 1.2559158e-07 4.3281548e-07 9.981212e-07 4.3259675e-07 1.583581e-07 4.6447596e-07
1.9169686e-08 -8.248249e-08 1.1530044e-07 2.2541948e-07 2.0238636e-07 7.9354265e-08 -1.7773625e-07 -4.9760907e-09
-2.6669775e-07 -3.4320206e-07 3.1923378e-08 2.1559854e-08 -9.688298e-09 2.9136712e-07 7.597419e-09 1.7839554e-08
4.827316e-07 -7.975987e-08 -4.9931776e-07 -1.0787354e-07 -3.2143672e-07 1.0793489e-07 4.7175854e-07 1.01711436e-07
-7.584407e-09 3.391348e-07 -2.1633534e-07 -1.7659734e-07 -2.3656568e-08 -5.9371405e-07 -4.057121e-07 -2.7234069e-07
-1.7174932e-07 2.0997376e-07 -3.882895e-08 -4.4303096e-08 3.0869018e-07 -1.9334796e-07 -6.342539e-07 -1.7601582e-07
-1.0279241e-07 1.2557538e-07 -3.1719836e-07 2.9633532e-07 -1.3647367e-07 3.1097937e-08 4.135035e-08 -2.9242398e-07
-0.012233703 -0.0040860777 -0.0016628668 -0.010229902 0.0012907572 -0.0025679104 0.00904326 -0.006554986
0.0036522783 0.014777417 -0.0022962093 -0.0032906495 -0.0007796255 -0.00057805504 0.0017950763 -0.01178016
0.005465065 0.0044820937 -0.00050805765 -0.0013740594 -0.016510524 -0.0006485403 -0.019627035 -0.017890247
-0.0021029091 -0.0014670392 0.004972028 0.0089572435 0.0010201024 0.018151918 0.0035339964 0.0061984505
0.011181163 0.018228773 0.0033196234 0.0058157756 -0.00065915997 -0.00088843034 0.0065823905 0.014995396
0.0033679518 0.0018290442 0.013959188 -0.003706938 0.004785968 0.008855441 0.00583147 -0.019916534
0.00068111066 0.0021260448 0.0041670366 -0.0070395805 0.011292568 -0.008433468 -0.000714307 -0.0013242335
0.016112054 0.005394981 0.012237839 0.0074897828 -0.002440796 0.003868036 0.009850913 -0.0031776256

transformer.layers.0.self_attn.out_proj.weight f4 [64, 64]
00000000: 675b 96bc fff7 01bd dc7c dabc 78a5 a23c
00000010: 4057 2d3c ad6e 7fbc f354 b83c 4874 2e3c
00000020: f89b 52bc 76aa 503b b5e4 b43c c560 59bd
00000030: 95c1 e539 429b 4dbb 8b63 8b3b 4f31 ccbc
00000040: 877e 713b 030c d8bc d77f f9bc c33b 073d
00000050: 7ec3 8d3c 178b 7cbb f6a1 4a3c ee0e 8bba
00000060: 6ecc 693a 5375 f9bb 7813 493c 673f 903a
00000070: 7a32 af3b 78fe bcbc cffd 81bd 46d1 503c
00000080: aeb8 ca3c c946 f9ba df3a 8b3c c179 3cbc
00000090: 8664 853b 6cfe 763c a06f 0a3d 6534 d5bc
000000a0: 213c ca3c ddf1 883c 05d6 3abb a982 133a
000000b0: e2b5 0a3d 1531 9f3c ecaf 18bc ea20 eb3c
000000c0: 180a 25bd d353 37ba 442e a1bb c638 cfbc
000000d0: 78f5 21bd 7e79 183c ac67 9dbc 030d 983c
000000e0: 51ff 463c 0cd8 313d 81c0 99bc f35a dbbc
000000f0: c8bd e53b bbf0 8bbc 1e30 aebc b4cf 2abd
00000100: 9358 273d 9fb3 fdbc e4d0 b33c 2873 cabc
00000110: 0fa4 43bc d255 4dbb 28b7 393d c35a 1e3c
00000120: 84f9 543c 4099 aa3b 7ae8 4fbc 83ae 033c
00000130: 06b3 9c3c 92d1 a1bc 6614 02bd 823e e2bc
00000140: 841a 0c3c 54da e838 3661 8dbc 37ba b4bc
00000150: 398c 80bb 0bb6 9dbc 73cb 893c ffaf 273c
00000160: cc09 adbc 5a9a e83c ca3d bcbb 4f59 01bd
00000170: 3cb5 ea3b 2958 c7bc 5eda 13bd 68e3 e6bb
00000180: c879 943c 4c0b 21bc f659 65bc ba7e 85bb
00000190: 8fc4 3d3d 1a47 07bd 37e6 09bd a8f5 c53a
000001a0: 7116 acbc 82c3 94bb b34d d5bc 8c1d 53bc
000001b0: 54a4 25bb d879 933b 5068 34bb 1a40 743b
000001c0: f183 323c c525 193c a943 8a3c 59bc 64bc
000001d0: aeef a1bc 997e 983d 17af ecba cd8c 9cbb
000001e0: f51c cdbc 84fd 0e3c bb8a 47bb e346 7ebd
000001f0: 323f f83c 97de 0cbd 00c7 893c 1916 cfb9
00000200: ac60 e1bc aa1a 01bd 3b01 9e3b 2ac6 c83b
00000210: 689d 0f3d d24f c4bc e2c3 3e3c a2a1 5a3c
00000220: 0438 10bc ef2f d0bc 82b5 fb3c a80c 843c
00000230: 9365 4f3c b958 24bd 4a65 c6bb abee 25bd
00000240: b1f9 8d3c 9bba 58bc f617 fc3b fec1 d73c
00000250: d3a4 fcbb 6f33 02bd 8710 f5bb 1a5c 9cbb
00000260: 4c1d 61bc 0334 203c 1040 983c 01d2 ecbc
00000270: 6ffa 883c 00ab 1ebc 347f 943b 7119 a6bc
00000280: 0ac9 283c c45c 7a3c ffd1 f13c 5783 bcbc
00000290: 289b b0bc 2f0f 85bc 8a3b 8b3c a4c9 00bd
000002a0: b972 e9bc e3f3 ba3a fe66 b5bb ea32 9fbc
000002b0: 3610 f5ba 2993 463d 7b58 2f3b 82f1 ec3c
000002c0: cb6c 8e3c 6dd0 ee3c b8c4 f5b9 8959 97bc
000002d0: 91c6 63bc 9604 833b 7ef7 d5bb 163d b83c
000002e0: a57d 5cbc 6cd0 b7bc 4cfa 4fbd 83eb 48bd
000002f0: 0770 81bd cb07 a23b b2dd 8bba bea2 1cbd
00000300: 421a be3c dd37 8f3c d875 2a3b 8905 003c
00000310: 3484 c93c d064 00bc 74a7 2a3c 397a 48bc
00000320: 7a1c 193b f54b 763c 84f9 34bb 7e95 ee3c
00000330: 2e6d 003d 63ca e0bb 74d9 a038 6a34 aabc
00000340: c13e 09bd dcd6 373c e45e 14bc 9980 2d3d
00000350: 374c 193b dec3 5e3b 9a8d 7c3c 462c a8bc
00000360: 8571 103d 77e2 753b 53dc 673d bee8 febc
00000370: cac8 773c 2e93 d73b 389c 3f3d d1dc 293b
00000380: 9741 4a3d de77 de3a 15a6 b4bc 8e61 54bc
00000390: 5d63 94bc 40d9 bfbc 8968 5b3c dfda b4ba
000003a0: d248 143d 797d a93a 17b1 893c 277d 6dbc
000003b0: b3dd 3c3c 34c8 ea3c 38c2 edbc 8019 513c
000003c0: 3a61 a5bc 2839 f2bc fc9e 083c e89b 1fbd
000003d0: 16c3 353d 6da0 e73c c593 1c3c f13e a7bb
000003e0: 472f a2bc 3e35 cebc df1a cabb a20e 42bd
000003f0: dec6 b33c d09a 32bc 9f3b 0d3c dbb1 f63c
-0.01835413 -0.031730648 -0.026670866 0.019854292 0.010579884 -0.015590352 0.022501444 0.010647841
-0.012854569 0.0031839884 0.022081712 -0.053070802 0.00043822514 -0.0031373058 0.00425381 -0.024925856
0.0036849098 -0.026372915 -0.030456467 0.033015978 0.017305132 -0.0038535052 0.012367716 -0.0010609308
0.0008918707 -0.007612863 0.012272708 0.0011005223 0.0053465934 -0.023070559 -0.06347238 0.012745207
0.024746265 -0.0019018288 0.016995845 -0.011503638 0.004070821 0.015075307 0.03379786 -0.02602596
0.024686875 0.016716892 -0.0028508913 0.0005627075 0.033864863 0.019432584 -0.009319287 0.028702218
-0.04029283 -0.0006993387 -0.0049188454 -0.025295626 -0.039540738 0.00930631 -0.019214474 0.018560892
0.012145833 0.04341893 -0.01876855 -0.026776766 0.007011149 -0.017082563 -0.021263178 -0.041701987
0.040855955 -0.03096944 0.021950193 -0.024713114 -0.01194097 -0.003133167 0.045340687 0.009665194
0.012998942 0.005206257 -0.012689704 0.008037212 0.019128334 -0.019753251 -0.031757735 -0.027617697
0.008551244 0.00011103289 -0.017258268 -0.02206145 -0.003922966 -0.019251844 0.016820645 0.010234832
-0.021122836 0.028393913 -0.0057446705 -0.031579312 0.007162718 -0.02433403 -0.036096923 -0.007046152
0.018124476 -0.009829354 -0.013998499 -0.004073945 0.04633003 -0.033026792 -0.033666816 0.0015103118
-0.021006795 -0.004539908 -0.026038026 -0.0128854625 -0.002527495 0.004500609 -0.0027527995 0.0037269653
0.010895715 0.009347384 0.016877966 -0.013960921 -0.019767608 0.074460216 -0.0018057552 -0.004777527
-0.025038222 0.008727435 -0.003044768 -0.06207932 0.030303571 -0.034391966 0.016818523 -0.0003949858
-0.027511917 -0.03151957 0.004821924 0.0061271386 0.035062224 -0.023963843 0.011643382 0.0133442
-0.008802418 -0.025413482 0.030726198 0.016119316 0.0126584945 -0.040123675 -0.006054555 -0.040510815
0.017330976 -0.013228084 0.007693286 0.02633762 -0.0077100783 -0.031787332 -0.007478777 -0.0047717215
-0.013739895 0.009778026 0.018585235 -0.028908731 0.016720979 -0.009684324 0.0045317654 -0.020275803
0.010301838 0.015280906 0.02951908 -0.023011846 -0.02155836 -0.016242592 0.016996164 -0.0314423
-0.028497087 0.0014263358 -0.0055359593 -0.019433457 -0.0018696848 0.048480187 0.002675562 0.028923754
0.01738586 0.02915212 -0.00046876608 -0.01847531 -0.013902322 0.0039983494 -0.0065297475 0.022490066
-0.01345769 -0.02243825 -0.05077581 -0.049052726 -0.06320196 0.0049447767 -0.0010670929 -0.03824114
0.02320588 0.017482692 0.0026010182 0.00781382 0.024599172 -0.007836536 0.0104159005 -0.012236171
0.002336292 0.015032758 -0.0027614543 0.029124018 0.031354122 -0.006860064 7.669898e-05 -0.020776946
-0.033507112 0.01122066 -0.009055827 0.04235897 0.0023391375 0.0033991258 0.01541462 -0.020528924
0.03526451 0.0037519017 0.056606602 -0.03111684 0.015123555 0.0065788245 0.04677984 0.002591897
0.049378958 0.0016972979 -0.02205185 -0.012962712 -0.018113786 -0.023419023 0.013391622 -0.0013798139
0.03620226 0.001293107 0.016808076 -0.014495171 0.011527467 0.028659917 -0.029023275 0.012762427
-0.020187963 -0.02956827 0.008338686 -0.038967043 0.0443755 0.02827474 0.009556715 -0.0051039387
-0.019797934 -0.025171872 -0.006167754 -0.047377236 0.021945413 -0.010901168 0.008620172 0.030114105

transformer.layers.0.self_attn.out_proj.bias f4 [64]
00000000: 0e6e 323c 8e19 e13b 453c 093b 63c3 4fbc
00000010: cb23 0cbc 641c fabb f611 f0bb 0c51 19bc
00000020: b3f7 163c 5f75 1d3c 3007 003b e969 c53b
00000030: ea1a 0a3c 54de fbbb 3be6 25bc 2ae0 3f3c
00000040: 7bfd bbbb 04e0 babb e3a0 60b9 7348 053c
00000050: 9fef 023c 1d50 0b3c eb8b 0abc ce1c b33b
00000060: f579 433c 0d28 85bb 40c8 2c3c 67b0 2e3c
00000070: c826 613c be6d 4fbc d36e 2bbc a759 dbbb
00000080: aa5e 213b 5690 d73b 4827 bdbb 02f9 07bc
00000090: 2c8d 1cbc ea29 253c e965 0bbc 2c93 1ebc
000000a0: 93aa 5bbc 9efb 1abc f682 1bbc b903 98bb
000000b0: 0fd3 4c3c d4b9 08bc 7fba cbba 9a51 cc3a
000000c0: 4b4c 5f3c 2943 17bc a6f2 36bc 25ff 1cbc
000000d0: efdb 163c 864b 0b3b c30c 6dbb c393 483b
000000e0: fefc 85bb 707f e93b edd2 f3bb e2b0 17bc
000000f0: 2241 a13b 7618 493c 340e 94bb e451 1b3c
0.010890497 0.0068695014 0.0020940464 -0.012680861 -0.008553456 -0.007632779 -0.00732636 -0.009357702
0.0092143295 0.009610503 0.0019535534 0.0060245884 0.008429268 -0.0076864157 -0.010125692 0.01171116
-0.0057370043 -0.0057029743 -0.0002142224 0.008134949 0.0079917 0.008502987 -0.008456211 0.0054660803
0.011930932 -0.0040636123 0.01054579 0.010662175 0.013742156 -0.012660442 -0.010463434 -0.006694037
0.0024623075 0.0065784855 -0.005772505 -0.008299114 -0.009555142 0.010080794 -0.008508184 -0.009678643
-0.013407367 -0.009459404 -0.009491673 -0.0046391157 0.012501492 -0.008345086 -0.0015543251 0.0015588284
0.0136290295 -0.009232321 -0.01116625 -0.009582316 0.00920771 0.0021254732 -0.0036170937 0.003060565
-0.004088997 0.0071257874 -0.007440916 -0.009258481 0.0049210945 0.012273898 -0.0045182947 0.009479973

transformer.layers.0.linear1.weight f4 [128, 64]
00000000: 436f fc3c 12c6 78bc b064 03bd 22d8 e63c
00000010: 3ab3 42bc 8fb9 82bb 9579 443c 72c3 083d
00000020: f3d6 27bd 1915 e0ba 8b8e 873c 1346 55bc
00000030: 208b e03b 8806 dcbc 2d99 4a3c 28f7 edbc
00000040: c229 bf3c 56c5 38bc 9414 913c f873 f1bc
00000050: d7c8 abbc 295d 99bc b637 0d3c 5d3f b53b
00000060: 33c5 0b3c 2ef6 2a3c dffb e53b 0ea7 f8bc
00000070: cd3d 3a3b 2402 90bd bc33 83bd 5d2f 8abb
00000080: 8811 8cbd 6082 143c cc4f 363d 61e4 053c
00000090: b2df 23bc 008f 143b 890e f8bc 3be0 ebbc
000000a0: 8388 e7bc a127 c93b 6413 f6bb e3d3 c6bc
000000b0: e38a 613d afbf 2e3c b3bf 27bb e63b c5ba
000000c0: de8f 91bc 6b97 16bd bfc7 03bc 0252 6fbd
000000d0: cbf4 83bc d973 353d f59d fb3c 8465 98bb
000000e0: 1ae7 6e38 5696 d33c 11d9 06bd bec2 a63c
000000f0: c8a5 263b e6e9 403c cb45 193d 10ec 33bd
00000100: 7e51 0ebd 7fcf 8c3c 315e 623c 605e 6dbb
00000110: be2c 84bd 7051 013d 7a3f 203b a135 adbb
00000120: b38c 863c 8895 91bb 97d7 f8bb 3a9a 613a
00000130: c0e1 3bbb 94e6 783c bb2e 17bd 6150 90bc
00000140: a994 c73c 87ec 19bc b3af 7e3d fe76 2cbc
00000150: fefc 1f3d fbd6 383c 259d b2bc 6d81 863b
00000160: c7d6 5d3d 4683 e43c 589a 153d 2eed 01bc
00000170: d7f9 16bd 3876 cfbb 0204 003d 7ab8 c03c
00000180: 40ea e8bb 51fb 133d 3aaf 16bc 5218 4a3d
00000190: d311 213d 01d4 57bd 07e9 2fba aabd 51ba
000001a0: 7331 8539 86da 293c 1bcb de3c 6a04 aabc
000001b0: caef 3cbc e165 cfbb 99a0 07bd 1d29 afbc
000001c0: 4157 7c3c e09d a1bc 3385 713d 9675 e23b
000001d0: c820 ba3c 1654 853c 4ff2 6e3c a43f 9f3c
000001e0: 83eb 443c cbc5 e53a df55 013c ac0e e7bc
000001f0: 6a27 b33c eadb 11bd 0a5c 9fbc badc 40bc
00000200: 7a4b d83c 79a3 123b ccb4 d1bc eae3 bcbb
00000210: 2bda 7d3b 0b77 f13c 52b5 a9bc 266a edbc
00000220: d3e6 313c b794 373c 3fe6 803c c9c1 5fbd
00000230: 08ad c5bc f02e 64bc f1a5 9a3c ca13 0bbd
00000240: 14ab 203b 2a54 db3b 4556 36bc 1769 e2ba
00000250: ede8 cdbc e018 44bc bd71 053d 0c86 723c
00000260: e169 aebc 4a06 713c d453 9b3c 4984 4c3d
00000270: 23cb bd3c dfb4 85bd fc87 64bd 7e13 ef3a
00000280: f978 5abd 33b8 733c fd21 fcbc 8a9e d3bc
00000290: 49c8 59bd 4693 a13c fdd3 89bb 2c7b 3d3c
000002a0: 9164 ebbc 021c 39bc 3cba 36bc 0b9b 983c
000002b0: 2820 223d 9708 0fbd db86 08bc d0e6 19bd
000002c0: 9b4f 81bd 19e1 bdbb 397e 33bc 52b3 19bd
000002d0: a24c ff3b c58f 773d d8be 3d3c c278 8e3c
000002e0: e726 8dbc 4bcd 713b b2d8 cdbc c006 1b3c
000002f0: 7c33 1fbd 0799 f13c 309d ebbb faaf 15bc
00000300: b3ed 64bc 85d0 943c 60ee 61bb 8da8 35bd
00000310: 0611 e1bc f17b fa3a 85e6 21bc 4044 f63c
00000320: 4563 46bd 311f bfbc fdb6 49bd defc 933c
00000330: c961 bebb fa8f e2bc cc7e 0cbc 1002 e63b
00000340: 8f90 2cbd 121d 963c 480d 69bb fb10 aabc
00000350: cf4b efbc 2260 c6bc 7393 303d dcf4 2cbc
00000360: 9e05 49bd ae8c 313b 2c8a bf3c 9bea 2cbc
00000370: 0bc9 4abc 60d4 71bc 9fa1 4dbd bc10 ef3b
00000380: 731d afbb 0b88 88bc 3a6d e03b 6e2d 283d
00000390: eb3b 883c c9a3 e7bb 923e be3b 0185 63bc
000003a0: d976 cb3c 77c6 21bd 2c4c 06bd f82b cebc
000003b0: d9cc 043d 2abc 7ebc 3481 6e3c 3266 e4bc
000003c0: 9689 be3b 9ae5 d1b9 09ee 2b3d 4b74 233d
000003d0: d370 d0bc 9702 1e3d ddda 0fbc 607c 86bc
000003e0: 83e7 c53c 8053 f7bc f518 f93b f325 1fbd
000003f0: 9c7e aabc 4ff5 253d 8bfa a0bb a351 21bc
0.030814772 -0.015183942 -0.032078445 0.028179232 -0.011883551 -0.0039894055 0.011991878 0.033389516
-0.040976476 -0.0017096131 0.016547462 -0.013017195 0.0068525225 -0.026858583 0.0123656215 -0.029048517
0.023335341 -0.011277517 0.017710008 -0.029474244 -0.020969791 -0.01872118 0.00861924 0.005531235
0.008530903 0.01043467 0.0070185508 -0.030353095 0.0028418184 -0.07031658 -0.06406352 -0.004217072
-0.06839281 0.009064287 0.044509694 0.008172126 -0.010002064 0.0022668242 -0.030280368 -0.028793445
-0.028263336 0.0061387573 -0.0075096358 -0.024270957 0.055064093 0.010665818 -0.002559644 -0.0015047758
-0.017768797 -0.036765497 -0.008043229 -0.058427818 -0.016107937 0.044299934 0.030714968 -0.0046507735
5.6958852e-05 0.025828522 -0.032921854 0.020356532 0.0025428403 0.011774516 0.037420075 -0.0439263
-0.034745686 0.017188786 0.013816402 -0.0036219582 -0.064538464 0.031571805 0.0024451897 -0.005285934
0.016424512 -0.0044428743 -0.0075940597 0.00086060504 -0.0028668493 0.015191693 -0.0369098 -0.017616453
0.024362879 -0.009394771 0.06217928 -0.010526417 0.03905963 0.011281724 -0.021803448 0.004104784
0.054159906 0.027894627 0.036524147 -0.007930083 -0.03685936 -0.0063312314 0.031253822 0.023525465
-0.007108003 0.036128346 -0.009197051 0.0493396 0.03932364 -0.052692417 -0.0006710444 -0.00080009794
0.0002540458 0.010367041 0.027196458 -0.020754058 -0.01153178 -0.0063292836 -0.033112142 -0.021381909
0.015401662 -0.019728601 0.05896492 0.00691099 0.02272071 0.016275447 0.014584138 0.019439526
0.012019041 0.001753026 0.007894008 -0.028205238 0.02186938 -0.035610117 -0.019453067 -0.011771375
0.026403178 0.002237527 -0.025598906 -0.005764474 0.0038734775 0.02947571 -0.020716343 -0.02898128
0.010858255 0.01120489 0.01573479 -0.054628167 -0.02413036 -0.013927206 0.018877955 -0.03395442
0.0024516033 0.0066933827 -0.011128967 -0.0017273751 -0.025135482 -0.011968821 0.032579172 0.014802467
-0.021290721 0.014710972 0.01896087 0.049930844 0.023168152 -0.06528639 -0.055793747 0.0018240062
-0.053338025 0.0148754595 -0.030777926 -0.025832433 -0.053169522 0.019723546 -0.004206179 0.011565011
-0.028734477 -0.0112981815 -0.0111528 0.018628618 0.039581448 -0.0349203 -0.008332933 -0.037573636
-0.06314012 -0.005794656 -0.010955387 -0.03752453 0.0077911178 0.060439844 0.011581145 0.017391566
-0.017230464 0.0036896046 -0.025127742 0.009462059 -0.03886746 0.029491914 -0.007190369 -0.009136194
-0.013972688 0.018165836 -0.0034474358 -0.044350196 -0.027473938 0.0019110424 -0.00988162 0.030061841
-0.048434515 -0.023330303 -0.049246777 0.018064912 -0.0058099967 -0.027656544 -0.008575153 0.007019289
-0.04213005 0.018324409 -0.0035560895 -0.02076005 -0.029210953 -0.024215762 0.04310937 -0.010556426
-0.049077623 0.0027091908 0.023381315 -0.010553981 -0.012377034 -0.014760107 -0.050202962 0.007295696
-0.005344087 -0.016666433 0.0068489583 0.04105895 0.016630134 -0.0070690853 0.005805799 -0.013886691
0.024836944 -0.03949591 -0.032787487 -0.02516745 0.03242192 -0.0155477915 0.014557172 -0.027880762
0.0058147414 -0.00040034653 0.041975055 0.039905827 -0.025444424 0.03857669 -0.008780208 -0.016416728
0.024158245 -0.030191183 0.007601852 -0.03885455 -0.020812325 0.040517148 -0.0049126795 -0.009846124

transformer.layers.0.linear1.bias f4 [128]
00000000: b682 a339 b112 813b afa3 5fbb b345 993a
00000010: 85a6 35bc 0778 323c ea45 daba 8eec d23b
00000020: 26b7 683a e6f2 243c 6d26 1f3b 49a3 d83c
00000030: 1506 913c 4c09 603a 3f18 99ba 0105 473c
00000040: d382 5a39 8e77 913c 8204 303c 623f 3e3c
00000050: 504f 2d3c bb56 de3b f0e2 243c 1908 ba3c
00000060: 161a 5f3c 1bf3 cdba f356 e5ba 283a a03c
00000070: 7059 2c3c 31be 4b3c 7ad6 b53c dcd6 513c
00000080: 1624 de3b 3fb7 a23c 206e 69ba a93b a63c
00000090: c7c5 51ba 31d3 813b 3eaf a43b 3898 b33c
000000a0: 1e76 f7bb c82f ba3c 034a 913b b3d4 c33b
000000b0: 979b 883b 0027 453b 8058 a43b 76ed 523c
000000c0: fcfd a13b d007 fb3b da6e 283b 71f6 28bb
000000d0: a95e 17bc 6467 03bc be7d db3c f7cb 6fbc
000000e0: fe56 603c ec0e f5b9 8437 32bc 4d08 49bc
000000f0: 0a60 4f3c ca00 e9ba c1d2 2c3c 7651 933b
00000100: 741c 923c 659d c3bb c57c 0c3b a385 6c3c
00000110: 969e 873c 5a2b b33c ff6e 043c e9be 7f3b
00000120: 5cd2 453c e8ab 233c 2e0e a53c a898 1c3c
00000130: 1a9b d03b c90d 883c 84fd 233c 6671 c13b
00000140: 2d09 f83b 5e09 443c 3e52 d3bb 1b4f 8f3a
00000150: 9164 bd3c 8c3b 52bb 76cf 543c 07c8 eb3b
00000160: 0c6c 9b3b 5216 7ebc da67 4b3c 3331 4e3c
00000170: fcd0 903c dcbe a83b 46fc de3b 6c79 e1bb
00000180: 875a 8e3c 0006 863c 70b2 1c3c 670b 863c
00000190: 6bd6 333c c7f3 e8bb e6fd 393c 3139 0b3d
000001a0: dbf1 bc3c 1432 1c3c 202b d5bb 868f 903c
000001b0: 36de 9f3c 20a0 763a 1946 2e3c 658b 183c
000001c0: d29b 9e3b 830a 293c efec e33b c864 cd3b
000001d0: abed ee3b 8514 c33c 9366 453c 4004 223c
000001e0: 3234 9e3c 63dc 273c 96e7 2c3c 999f abbb
000001f0: f28d 5abc c6a5 34ba 6881 f9bb 97e5 aa3a
0.0003118717 0.003938996 -0.0034124663 0.0011693746 -0.011087065 0.010892875 -0.0016652916 0.006436891
0.0008877389 0.010067677 0.0024284378 0.026445048 0.017703095 0.0008546307 -0.00116802 0.012147189
0.00020838836 0.017757203 0.010743262 0.011611791 0.010577992 0.0067852414 0.010063872 0.02270894
0.013617059 -0.001571271 -0.0017497226 0.019558981 0.01051937 0.012435482 0.022196997 0.012807574
0.006779204 0.01986277 -0.00089046545 0.02029212 -0.00080021884 0.0039619436 0.0050257733 0.02192317
-0.0075519225 0.022727862 0.0044338717 0.0059762835 0.0041689384 0.003008306 0.005015433 0.012873998
0.0049436074 0.0076608434 0.0025700838 -0.0025781656 -0.009238877 -0.008020256 0.026793357 -0.014636031
0.013692616 -0.0004674116 -0.010877494 -0.0122700455 0.012657175 -0.0017776724 0.0105482945 0.004495795
0.017835833 -0.0059696906 0.0021436673 0.014436158 0.016555112 0.021871258 0.008083104 0.0039023703
0.012074079 0.009989716 0.020148363 0.00955788 0.006366146 0.016608136 0.010009173 0.0059034107
0.007569453 0.011965124 -0.006449013 0.001093361 0.023119243 -0.003207895 0.012988916 0.007195476
0.004743105 -0.015508251 0.012414897 0.012584972 0.017677777 0.0051497053 0.0068049757 -0.0068809297
0.017377151 0.016360283 0.009564027 0.016362859 0.010976414 -0.0071091386 0.011352038 0.03399009
0.023064544 0.009533424 -0.006505385 0.017646562 0.019515138 0.0009408016 0.01063683 0.009310578
0.0048403526 0.010317448 0.006955735 0.0062681176 0.007291516 0.023813495 0.012048381 0.009888709
0.019311998 0.010245415 0.010553261 -0.0052375314 -0.013339506 -0.0006891157 -0.0076143034 0.0013038394

transformer.layers.0.linear2.weight f4 [64, 128]
00000000: 6ddc ad3b 7a44 32bd b38a 8e3d b516 bf3c
00000010: 0aed e63c 9a12 703c 58bb 813d b4b2 a73c
00000020: 0743 eb3b a8fb ad3a c376 efbc 63fd 6a3b
00000030: 5fb4 323d 2824 af3b d2a2 263d 8560 e03c
00000040: cbaa fabc 1078 bc3b b9e4 f83c ab9f fd3c
00000050: d16c 923c d30d b9bb 4299 fe3b 3534 213d
00000060: 46b5 3abc 911e b03c d405 cebb 2433 363d
00000070: 21c7 4c3c b54c 6dbb 104e 653d d7b8 8c3d
00000080: e66b 253d be4e 233d 8a73 b73c b0f5 b6bc
00000090: e8d5 3fbb 3df7 79bc 0f99 a7bc 1361 493d
000000a0: 4117 043d ae3e a9bb b0d6 7439 81a3 e43c
000000b0: 6488 ed3c 5758 9b3b 3cc2 dd3c 83be 943c
000000c0: b993 eb3b 1cdd 263d 9f97 7d3c ae3a aebc
000000d0: f459 b4bb 5d0a 3c3c acca 173c e24f 20bc
000000e0: e50b 0e3d 1d71 803b ac20 88bc 4b4c b23c
000000f0: 86fd b63a 34d4 d73c 9e6d 463c 3158 4abd
00000100: 0788 c83b 3313 f83b 071b 923c 1821 2a3b
00000110: 686d a63c 91ec 1cbc 6a48 403d f966 413d
00000120: e21f 3db9 469d 89bc 78c7 503d d479 aabb
00000130: f9f5 353b c320 163d af7e 833b 002e 5135
00000140: b829 b439 e70d 2ebc 22a2 aa3c a047 133c
00000150: 0350 e13c afcd e43b d888 b63c d434 acbc
00000160: a73b 99b9 b638 86bc 66fb b93c 59e0 b03b
00000170: 1113 313b e467 123d 4496 bdbc f468 5a3d
00000180: f04d 903c 0604 403d a294 03bb 84ab ab3c
00000190: 33f5 6c3d c709 e13b 62fe 793c d715 0e3d
000001a0: aceb 683c 5579 0d3d ac64 a73d 77cd 27bc
000001b0: c9d4 34bd e4eb 04bc 2ba2 0b3c dbbb cebc
000001c0: dacb 243c 0368 cabc 83a2 153b d716 f53c
000001d0: ea41 e63c aac1 a53b 9f29 a5ba c929 653d
000001e0: dca2 2b3d 9d88 c8bb 821f fdbb c643 59bc
000001f0: f0b4 0f3d 6102 ae3c 67ad 1b3c 4bd1 933b
00000200: 95cc 863c e01d 95bb 7d42 503d b43e cf3c
00000210: 3aad 163d 7e2e 423a fb2f 55bc 624a 3bbc
00000220: 0359 ab3b 6066 d13c 52a7 e0bc 0457 b3bc
00000230: 7ec3 cc3c 15b9 0dbc 82ec 123d 1be7 8d3b
00000240: 80d9 9d3b a935 95bc d476 fb3c 7606 a73c
00000250: fb41 0c3d f6f7 ff3c 68c2 333d 11b5 953d
00000260: 3f3b 923c 1a7b 9cbc 0ab0 1bbc d2d0 923c
00000270: 648c 713c 883b 4b3b 0948 c73c 5b8d f63c
00000280: de77 64b9 817f 1a3d fe86 93bc 9cd1 f93c
00000290: 8ff3 1dbd fb1c b73b 8806 063c 07fb 4d3d
000002a0: 9a9d e23c 7557 83bc 9112 af3c 8a69 6e3d
000002b0: 6201 a03c e5d9 bc3c a790 ef3c 3683 d03c
000002c0: f60e 933d e5ce 193d fb53 d63c 5081 2abb
000002d0: fed6 f83c 0912 063c 596e 9a3c f538 dc3b
000002e0: 3301 863c a2ab 573c 4c2c df3c 7ca4 d23c
000002f0: ac5d 283d a1d4 513c 833e 293d dcb7 333b
00000300: cfbf cfbb 1a64 fe3c d032 1fbc 143f a739
00000310: f347 053d 441a 793c 6b23 85bb 926c e3bc
00000320: e9ee 92bc e08b 3d3d e8a8 7a3c 6242 debb
00000330: 8c0a 343c 50b6 c33c bdf3 f4ba 151e 043d
00000340: b98c ef3c 7df4 5a3c 6388 05bd 268f 0e3d
00000350: 3a1f 943c 2f84 94bb 732a c23c 454c 023d
00000360: 867d 1abd 49fa 053d 3491 c03c 6873 a13b
00000370: f8ad e6ba 7418 b8ba 4e6a 30bb 2297 093d
00000380: 0044 a3bb 94e2 063c 05c0 cebc 041e 85bc
00000390: 218e 55bc 8c42 42bd 0042 973b d107 043d
000003a0: ff41 eeb9 ac9e 463c e9bd 183c faad eb3c
000003b0: e084 a5bb ecdf adba 728b b1bc dd8d 24bc
000003c0: 4e0d 913c e636 1c3d bebf f43b 13f1 0fbc
000003d0: bc0e c33c c4e7 b93c ecce 593c 9bd4 7bbc
000003e0: 2a7f ba3c 9853 31bc e413 203b 4681 d2bb
000003f0: ee3d b7bb 4280 91bc 6171 5d3c 185f 593d
0.005305818 -0.043522336 0.069600485 0.023326257 0.0281892 0.014652872 0.06334561 0.020470954
0.007179621 0.0013273852 -0.029231435 0.0035856597 0.043629047 0.0053448863 0.04068262 0.027389774
-0.030599019 0.0057516173 0.030382501 0.030959925 0.017874153 -0.0056474 0.0077697346 0.03935643
-0.011395758 0.02149895 -0.006287316 0.044482365 0.012498648 -0.003620905 0.05598265 0.06871193
0.040386103 0.039870016 0.02239396 -0.02233395 -0.0029271785 -0.0152567 -0.020458726 0.049164843
0.03224874 -0.0051649427 0.0002334963 0.027909996 0.0289957 0.0047407555 0.027070157 0.01815725
0.007189241 0.04073821 0.015478044 -0.021268215 -0.0055038873 0.01147708 0.009264629 -0.009784671
0.034679312 0.003919734 -0.016617142 0.021764895 0.0013961054 0.026346304 0.012111096 -0.049400512
0.0061197313 0.007570648 0.017835153 0.0025959667 0.02031584 -0.009577886 0.04694406 0.047217343
-0.00018036322 -0.016798627 0.05097148 -0.0052025113 0.002776502 0.036652338 0.0040129046 7.7925506e-07
0.00034363358 -0.010623432 0.020829264 0.008989245 0.027503973 0.006982527 0.022282049 -0.021021284
-0.00029226879 -0.016384464 0.022702884 0.005397838 0.002701942 0.03574361 -0.023142941 0.053322747
0.017615288 0.046878837 -0.0020077606 0.020955808 0.057851028 0.0068676206 0.0152584035 0.034688797
0.014216345 0.03453954 0.081734985 -0.010241858 -0.04414824 -0.008112881 0.008522551 -0.02523606
0.010058368 -0.0247078 0.002283246 0.029918117 0.028107602 0.005058487 -0.0012600905 0.055948053
0.04190336 -0.006119801 -0.0077247033 -0.013260787 0.035084665 0.021241369 0.009501792 0.0045110337
0.016454974 -0.0045506805 0.05084466 0.025298454 0.036786295 0.00074074406 -0.013011928 -0.011431308
0.005229117 0.025561512 -0.027423535 -0.021892078 0.024995562 -0.008650084 0.035870083 0.0043305284
0.004817188 -0.018214064 0.03069631 0.020388823 0.03424261 0.031246167 0.043886572 0.07309926
0.017850516 -0.019101668 -0.00950242 0.017921839 0.014742944 0.0031010825 0.024326341 0.0300967
-0.00021788428 0.037719253 -0.018008705 0.030495457 -0.038562354 0.0055881715 0.008180268 0.050288226
0.02766304 -0.016032914 0.021371158 0.05820612 0.01953191 0.023053119 0.02924378 0.025453191
0.07180588 0.037550826 0.026163092 -0.0026017018 0.030375954 0.008183011 0.018851446 0.006720657
0.016357994 0.013163479 0.027242802 0.025713198 0.041104957 0.012807042 0.04131938 0.002742282
-0.006340004 0.031053592 -0.0097167045 0.0003189972 0.03253932 0.015204016 -0.00406306 -0.027761731
-0.017936187 0.046275973 0.015299059 -0.006782816 0.010988843 0.023890644 -0.0018688362 0.03225525
0.029241906 0.013363955 -0.03260077 0.034804486 0.018081296 -0.004532359 0.023701882 0.031811018
-0.037717365 0.032709394 0.023506738 0.0049270876 -0.0017599454 -0.0014045374 -0.0026918831 0.033591397
-0.0049824715 0.008232731 -0.025238046 -0.016249664 -0.013034374 -0.047426745 0.004616022 0.032234017
-0.00045444068 0.012122791 0.009322622 0.028769482 -0.0050512403 -0.0013265586 -0.021672938 -0.0100435885
0.01770654 0.038138293 0.0074691465 -0.008785504 0.023810737 0.022693522 0.013293963 -0.015370513
0.022765715 -0.010823153 0.0024425918 -0.006424102 -0.0055920994 -0.017761353 0.013515801 0.053069204

transformer.layers.0.linear2.bias f4 [64]
00000000: c616 743c 27ac 193c 8e4b 513c 9523 59bc
00000010: b68c 12bc 8570 06bc b0fd d739 31e6 69bc
00000020: af58 1f3c 02ad 323c c147 823b bdee a23b
00000030: f8bc 1d3c 31b0 c6bb 4eb5 3bbc 2216 083c
00000040: 10a3 29bc 939c 91bc 038d 073c 87a4 083c
00000050: d439 073c abb9 fd3b 2fdd 25bc 808d a63b
00000060: 1c6c 453c b8fc cd3a 6b0f 4a3c e15c 6c3c
00000070: 98ac 523c 2be7 4fbc a8d4 4dbc f4d6 87bc
00000080: a226 ca3b 4902 013c 89cc aabb 9550 1ebc
00000090: 7edf 14bc 88d6 2e3c 7ead 40bc 6702 57bc
000000a0: 8987 8abb 5d78 29bc 52df 9dbc 7071 c1bb
000000b0: 6f2e 6c3c 4cfa 80bc e32b 11bb 7803 133c
000000c0: d090 923c 743f 24bc 10a8 73bb c619 27bc
000000d0: 5a81 393c 7f2f 1d3c 0d1d 00bb abe0 6dbb
000000e0: 0570 4cba 19a9 943b b3d8 97bb 573b 1abc
000000f0: 5e1c 833b 623d 8b3c 429d d2bb 0f0f f73b
0.014898008 0.009379423 0.012774361 -0.013253112 -0.008944681 -0.008205538 0.00041197008 -0.014276073
0.009725734 0.010905506 0.003975839 0.0049723075 0.009627573 -0.006063484 -0.011456801 0.008306058
-0.010353819 -0.017774856 0.008273366 0.008340008 0.008253533 0.0077430806 -0.010123535 0.005082786
0.012049701 0.0015715575 0.0123327775 0.014426441 0.012858532 -0.012689392 -0.012562908 -0.01658199
0.006169156 0.00787408 -0.005212371 -0.009662767 -0.009086488 0.010671265 -0.011760114 -0.013123131
-0.004227583 -0.010343638 -0.019271526 -0.0059034154 0.0144153675 -0.01574435 -0.0022151403 0.008972995
0.017891318 -0.010024894 -0.003717903 -0.010199016 0.011322344 0.0095938435 -0.0019548566 -0.0036297243
-0.00077986746 0.0045367596 -0.004633987 -0.009413562 0.0040011844 0.016997043 -0.006427438 0.007539637
