marble_model/best_model_v3.0_20250531_004310.pt (torch, 295593 bytes, 30 tensors)

token_embedding.weight f4 [13, 64]
0	0x3d2af75e	0.041739814
1	0x3c4b29e1	0.012400121
2	0x3c97b524	0.018518992
3	0x3c890d16	0.016729873
4	0xbc22f7f8	-0.009946816
5	0xbccd7c8a	-0.025083799
6	0xbcba9178	-0.022774443
7	0xbc8b61a0	-0.017014325
8	0x3d45bce6	0.04827585
9	0xbc7e4f63	-0.015521857
10	0xbd14207e	-0.0361638
11	0xbba1328e	-0.0049193567
12	0x3c89c002	0.01681519
13	0x3c229ee2	0.009925576
14	0xbc32179e	-0.010869889
15	0xbc43cf52	-0.0119512845
16	0x3cabd127	0.020973755
17	0xbce9fe8e	-0.028563764
18	0x3ca6519c	0.020302586
19	0x3d153396	0.03642615
20	0xbc4579bb	-0.012052949
21	0x3c20e027	0.009819067
22	0x3bd421a0	0.006473735
23	0x3c8fd570	0.01755783
24	0x3ac734e4	0.0015198258
25	0xbc97f5ae	-0.018549766
26	0x3caf2a56	0.021382492
27	0x3c430cc6	0.011904901
28	0x3c763e8b	0.01502956
29	0xbc569b86	-0.013098603
30	0xbc87f737	-0.016597373
31	0xbb3dd7e4	-0.0028967792
32	0x3b916292	0.0044367993
33	0x3d3b4902	0.045723923
34	0xbb4eaedd	-0.0031537332
35	0x3d681a65	0.056665797
36	0xba158ffd	-0.0005705355
37	0x3cae5db9	0.021284925
38	0x3c3568a9	0.011072316
39	0xbbab5833	-0.00522902
40	0xbc0b7944	-0.008512799
41	0x3cb0d0a7	0.021583868
42	0xbd170dd2	-0.036878414
43	0x3d160d50	0.03663379
44	0x3d102d7f	0.03519964
45	0x3cb45d77	0.022017224
46	0xbb0c891b	-0.0021444026
47	0xbb8653ae	-0.004099331
48	0xbc101c90	-0.008795872
49	0xbcd48287	-0.025941147
50	0x3b220652	0.0024723005
51	0x3cc5b93b	0.024136176
52	0xbca32c69	-0.019918637
53	0xbcda2b80	-0.02663207
54	0xbc1b25fd	-0.009469506
55	0x39f1ba80	0.00046106055
56	0x3d00ed44	0.031476274
57	0x3c42fe26	0.011901414
58	0x3ca51c04	0.02015496
59	0x3d1875eb	0.03722183
60	0x3c97196d	0.018444741
61	0xbc48b41b	-0.012249972
62	0x3b1a7524	0.0023568356
63	0xbb1c9988	-0.0023895223
64	0xbbb6d7ee	-0.00557994
65	0x3c7e8ce2	0.015536519
66	0xbb0fca96	-0.002194082
67	0xbb026555	-0.0019896824
68	0xbc6841be	-0.01417583
69	0xbd97c567	-0.074106984
70	0x3cc0baf3	0.023526644
71	0xbd55e26f	-0.052217897
72	0xbb8c81c1	-0.004287929
73	0x3cb603d8	0.02221863
74	0x3cc0047b	0.023439636
75	0x3d42513b	0.04744075
76	0x3d18a86d	0.03727
77	0x3c749b32	0.01492958
78	0xbb9df2f4	-0.004820222
79	0x3b9a0566	0.0047003506
80	0x3c8bd655	0.017069975
81	0xbcd723ab	-0.026262125
82	0x3d5b6b79	0.05356929
83	0xba12c3bc	-0.00055986247
84	0x3d091ea6	0.033476494
85	0x3c188643	0.009309354
86	0xbbb12c41	-0.005406887
87	0x3d114bd9	0.035472725
88	0x3c81e31e	0.015855368
89	0xbc5be58d	-0.013421428
90	0x3cb86de5	0.02251334
91	0xbd52f215	-0.0515004
92	0xbd0b3542	-0.033986337
93	0x3d2f417c	0.04278706
94	0xbcd9a9f6	-0.026570302
95	0xbcf15cf0	-0.029463261
96	0xbd03f8d0	-0.032219708
97	0x3b3fc648	0.0029262472
98	0x3d215ae0	0.039393306
99	0xbca10ccf	-0.019659428
100	0xbc51cd71	-0.012805329
101	0xbb0b208d	-0.0021229119
102	0x3cd0f64b	0.025508067
103	0x3c1461e0	0.009056538
104	0xbd41f9bd	-0.04735731
105	0xbcd7ad96	-0.02632789
106	0x3c2cfadc	0.010557856
107	0x3c998188	0.018738523
108	0xbcd27715	-0.025691548
109	0x3cb4d374	0.022073485
110	0x3cdf8e45	0.02728952
111	0xbb826a5b	-0.0039799637
112	0x3a1dc4a9	0.00060183794
113	0x3cbd6ba5	0.023122618
114	0xbc5b39f1	-0.0133805135
115	0xbd142d75	-0.036176164
116	0x3aff10fc	0.0019460018
117	0xbd03e970	-0.032205045
118	0x3cfe849e	0.031069096
119	0xbcbe8dcf	-0.023260979
120	0xb966fe2c	-0.00022029196
121	0x3c3fc432	0.011704491
122	0xbcdaa239	-0.026688682
123	0x3cf27b2f	0.029599754
124	0x3cfa8b85	0.030584106
125	0xbc5b686e	-0.013391597
126	0x3cd443f9	0.025911318
127	0x3bd87aa6	0.0066064177
128	0x3ae31829	0.0017325926
129	0x3b1ee70c	0.0024246601
130	0x3b8ce075	0.0042992183
131	0x39fd84af	0.00048354777
132	0x3cb78a4b	0.02240481
133	0xbbb774fe	-0.0055986634
134	0xbcde6b7c	-0.027150862
135	0x3cf77c26	0.030210566
136	0xbce515d3	-0.027964508
137	0x3cc7f30d	0.024407888
138	0xbb7712f4	-0.0037700506
139	0x3c02bfee	0.00798033
140	0xbbecc817	-0.007226001
141	0xb68ece06	-4.255914e-06
142	0xbd290b9b	-0.041270833
143	0x3c414ef2	0.011798607
144	0xbbbc7cc7	-0.0057521793
145	0xbd7206e0	-0.059088588
146	0xbca28bcb	-0.01984205
147	0x3b4a9d40	0.0030916482
148	0x3b4099af	0.0029388478
149	0x3c846a89	0.016164081
150	0x3bf46090	0.0074578
151	0x3c990833	0.018680668
152	0xbd0a60a7	-0.03378358
153	0x3bc8fa59	0.0061333594
154	0x3b3bea26	0.00286735
155	0x3c89542d	0.016763771
156	0xbbb1fbeb	-0.0054316423
157	0xbcdd290c	-0.026997112
158	0x3d2f6d19	0.042828653
159	0xbaefc3f9	-0.0018292657
160	0xbcee75fb	-0.029108992
161	0x3c5a1fde	0.013313262
162	0xbc7dbae2	-0.015486451
163	0x3cc50117	0.024048371
164	0xbbc3e9ea	-0.0059788125
165	0xbd2c85f4	-0.042119935
166	0x3ca9a7f2	0.020709965
167	0xbcfa02d7	-0.030518932
168	0x3d534949	0.051583562
169	0x3bf173be	0.007368534
170	0xbc1c0e07	-0.009524829
171	0xbcc1165d	-0.023570234
172	0xbc5c9fac	-0.013465803
173	0x3d07396f	0.033013757
174	0xbca55ea4	-0.02018673
175	0xbac6f861	-0.0015180224
176	0xbbc7213e	-0.006076961
177	0x3b83ea01	0.004025698
178	0xbc2f2229	-0.010689297
179	0xba0fc773	-0.00054847373
180	0xbc8199f3	-0.015820479
181	0x3c328f72	0.010898458
182	0x3cddfbfe	0.027097698
183	0xbb99c815	-0.004693041
184	0xbbc9e7f9	-0.0061616865
185	0xbc99418f	-0.018708019
186	0xbc707772	-0.0146769155
187	0xba39e6ea	-0.0007091599
188	0x3c285824	0.010274921
189	0x3c020552	0.007935839
190	0xbc71ca9e	-0.01475778
191	0x3c334b8d	0.010943306
192	0x3cb48d87	0.022040142
193	0xbc783dcb	-0.015151451
194	0xbc8830cd	-0.016624833
195	0xbb075f9f	-0.002065636
196	0x3d21a6a4	0.03946556
197	0x3b276574	0.0025542649
198	0xbbea68b6	-0.007153596
199	0x3887f9ce	6.4838314e-05
200	0xbc68e948	-0.014215775
201	0x3ccec27e	0.025239225
202	0xb99f69ca	-0.00030405662
203	0xbaa63d72	-0.0012683107
204	0x3b8b5dbf	0.0042531188
205	0xbc9ad40b	-0.018899938
206	0x3be74fc4	0.0070590694
207	0xba51de0b	-0.0008005804
208	0xbc869315	-0.016427556
209	0x3ced4d31	0.028967472
210	0x3c729e53	0.014808255
211	0x3c7e784f	0.0155316135
212	0xbcb0fda9	-0.02160533
213	0x3c19af35	0.0093801515
214	0x3bff6bb8	0.0077948235
215	0x3bca8bd5	0.00618122
216	0x3c26a74b	0.010171722
217	0x39ef9352	0.00045695395
218	0x3cf6bf62	0.030120555
219	0x3cc9854b	0.024599692
220	0x3c0cc3bc	0.008591589
221	0x3b588827	0.0033040137
222	0x3ad11468	0.0015951516
223	0x3d044e3d	0.032301176
224	0xbb34f297	-0.0027610415
225	0xbc618e5b	-0.01376685
226	0xbc6e12d9	-0.014530861
227	0x3c35ac18	0.011088394
228	0xbc4b9982	-0.012426736
229	0x3c7edf9c	0.015556242
230	0x3aa7d2cc	0.0012803911
231	0xbc746ae5	-0.014918064
232	0xbb685fb1	-0.0035457427
233	0x3c9c9fef	0.019119231
234	0x3c9b81f9	0.018982874
235	0xb8b07cac	-8.415556e-05
236	0x3c419a5b	0.011816586
237	0xbc3f0bb0	-0.011660501
238	0xbcfae4de	-0.03062671
239	0xbd063376	-0.03276392
240	0xbb21d3c9	-0.0024692884
241	0x3cb0a54a	0.021563191
242	0x3a3d218d	0.0007214777
243	0x3cc73bf9	0.02432059
244	0x39192fa9	0.00014608972
245	0xbb768c11	-0.0037620107
246	0xbac0dc50	-0.0014714096
247	0x3c24ff1a	0.010070587
248	0x3c82f6aa	0.01598676
249	0xbcaf12ef	-0.021371333
250	0xbbc04375	-0.0058674165
251	0x38824058	6.210868e-05
252	0xbd240006	-0.040039085
253	0xbabbb9ae	-0.0014322305
254	0xba5ec2ca	-0.0008497654
255	0x3cd6db54	0.02622763

position_embedding.weight f4 [30, 64]
0	0xbcdc4ff3	-0.026893592
1	0x3c2033ea	0.009778002
2	0x3d3876d5	0.045035202
3	0x3ba895d4	0.005144814
4	0xbcfe9550	-0.031077057
5	0xbc5cbbbe	-0.013472496
6	0x3cfb8b9b	0.030706218
7	0xbc42f80e	-0.011899961
8	0xbd67fd6d	-0.05663817
9	0x3d5bcf42	0.053664453
10	0x3ce55557	0.027994795
11	0x3b718010	0.0036850013
12	0xbaab1c86	-0.0013054765
13	0x3d27f9a5	0.041009564
14	0xbd1e5b97	-0.038661566
15	0x3cf4510b	0.0298238
16	0x3cee15cc	0.029063128
17	0xbc4d3b86	-0.0125263985
18	0x3c2468fd	0.010034797
19	0xbd110833	-0.03540821
20	0x3c573ced	0.013137084
21	0x3cc5ed75	0.02416108
22	0xbd0b4ab9	-0.034006808
23	0x3ca98e06	0.020697605
24	0xbcadb74f	-0.021205572
25	0xbd1dafcc	-0.03849773
26	0xbd1a41ca	-0.037660398
27	0x3c7cfaef	0.015440687
28	0xbca3870c	-0.019961856
29	0x3c29a9a3	0.010355386
30	0xbd0d5839	-0.034507964
31	0xbcd94d85	-0.026526222
32	0xbb11624d	-0.0022183836
33	0x3c9acf62	0.018897716
34	0x3ca2ade3	0.019858306
35	0xbc88b8f9	-0.016689764
36	0xbc4c1a90	-0.012457505
37	0x3d126b4b	0.035746854
38	0x3b4ce9d9	0.0031267314
39	0x3d04c266	0.032411955
40	0xbca5c07b	-0.020233383
41	0xbc0d434a	-0.008622
42	0x3d7c678e	0.061622195
43	0x3c65f439	0.014035278
44	0xbca8effa	-0.020622242
45	0x3d214a32	0.0393774
46	0x3b63a72c	0.0034737093
47	0x3d159c59	0.036526058
48	0xbcc2b38f	-0.02376726
49	0x3bb35633	0.005472922
50	0x3ccdb62b	0.025111279
51	0xbb90c166	-0.004417586
52	0xbd38c20b	-0.04510693
53	0xbd073bc7	-0.033015992
54	0x3cb87eba	0.022521365
55	0xbcbdce83	-0.023169762
56	0xbc094dd9	-0.008380377
57	0x3d689edd	0.05679213
58	0xbb7cfeff	-0.0038604138
59	0x3d09cc24	0.03364195
60	0x3d14a3be	0.03628897
61	0xbbccf315	-0.0062545636
62	0x3b48454e	0.0030558887
63	0xbd17736a	-0.0369753
64	0x3ca33e18	0.01992707
65	0xbc66b84b	-0.014082025
66	0xbd344016	-0.04400643
67	0x3c7a9c5c	0.015296068
68	0xbc30d4ff	-0.01079297
69	0x3cf57007	0.029960645
70	0xbc360a4a	-0.011110852
71	0xbccf1f50	-0.025283486
72	0xbbc8b905	-0.0061255717
73	0xbcd94951	-0.026524218
74	0x3d010e88	0.031508
75	0xbac6100d	-0.0015110985
76	0xbccbbb4c	-0.024869584
77	0x3cd9d016	0.02658848
78	0x3c83f628	0.016108587
79	0xbc9de3f1	-0.01927373
80	0xbd116e4a	-0.03550557
81	0xbc48eb45	-0.012263124
82	0xbb7ee7b3	-0.0038895428
83	0x3c9996ff	0.018748758
84	0xbc9be581	-0.019030334
85	0xbc88beb6	-0.0166925
86	0x3c5f2ca8	0.013621487
87	0xbc60c41a	-0.013718629
88	0x3cd682ee	0.026185479
89	0xba8989bf	-0.0010493322
90	0x3bea246c	0.007145455
91	0x3cda6d72	0.026663516
92	0xbcf517b7	-0.029918535
93	0xbca3eb32	-0.02000961
94	0xbc2c03ef	-0.010498985
95	0x3c33011f	0.01092556
96	0x3a336442	0.00068432477
97	0xbd3a858e	-0.045537524
98	0xbcdf1a0a	-0.027234096
99	0x3ac7764e	0.0015217753
100	0x3ce0dc3c	0.027448766
101	0x3be9cf66	0.0071353195
102	0xbcd90f28	-0.026496485
103	0xbc8d04e6	-0.01721425
104	0xbc3ee30d	-0.011650813
105	0x3cbadfec	0.022811852
106	0xbc379a85	-0.011206274
107	0xbc5709cb	-0.013124893
108	0xbce01f63	-0.027358716
109	0xbc591523	-0.013249668
110	0xbcbfaf11	-0.023398908
111	0xbce6206d	-0.028091634
112	0x3cfa56b9	0.03055893
113	0x3c8db419	0.017297791
114	0x3d3bca2d	0.045847107
115	0xb916f083	-0.00014394712
116	0x3d167aa2	0.036738046
117	0x39ced917	0.00039453126
118	0xbc39632b	-0.011315147
119	0x3d309e3c	0.043119654
120	0xbc360e30	-0.011111781
121	0x3cec05dd	0.02881139
122	0x3c1e1ff3	0.009651172
123	0x3c7d1e0b	0.015449057
124	0xbcb1bd23	-0.021696633
125	0x3b785661	0.0037893283
126	0x3c8f2d01	0.017477514
127	0x3becd600	0.007227659
128	0xbc03f4e1	-0.008053989
129	0xbcc45780	-0.023967505
130	0x3b8155f6	0.003947015
131	0x3d31e3b5	0.04343005
132	0xbcb5bc26	-0.022184443
133	0x3c68be2a	0.014205495
134	0xbb8c20da	-0.004276377
135	0xbc5dc22c	-0.013535064
136	0x3d4028df	0.046913978
137	0xbd2b46e0	-0.04181564
138	0x3c415768	0.011800624
139	0xbcbec2bc	-0.023286216
140	0xbcc3555f	-0.023844419
141	0x3bfd6046	0.007732424
142	0x3d179754	0.037009552
143	0xbd3b2b43	-0.045695554
144	0x3c32de0a	0.010917196
145	0xbcd942a3	-0.026521033
146	0x3d0e71da	0.034776546
147	0x3c76ba1b	0.015059019
148	0xbc83ab0e	-0.016072776
149	0xbc9e5d5f	-0.019331632
150	0x3d59ba1e	0.05315601
151	0xbc00c6b6	-0.007859876
152	0x3b963f29	0.004585166
153	0xbcbdbe49	-0.023162024
154	0xbcd6c9ac	-0.026219212
155	0xbbba3f48	-0.0056838132
156	0xbd118203	-0.03552438
157	0xbcdd9445	-0.02704824
158	0xbca8e38f	-0.02061632
159	0xbcda60de	-0.026657518
160	0x3b41fd7e	0.0029600556
161	0xbd1aa337	-0.03775331
162	0x3c7188e6	0.014742112
163	0x3cc7f9da	0.02441113
164	0x3d6ec3b8	0.05829212
165	0xbc0b2169	-0.008491852
166	0xbc8322d5	-0.01600782
167	0x3a4a07f1	0.0007706872
168	0x3b4203cf	0.002960432
169	0x3c891719	0.016734647
170	0xbc97f731	-0.018550487
171	0xbcb74946	-0.022373807
172	0xbd45c0ee	-0.048279695
173	0x38bff17b	9.152569e-05
174	0x3d0585fe	0.032598488
175	0xbb9e7ea2	-0.004836873
176	0x3cc4f63d	0.024043197
177	0x3bcaa855	0.0061846175
178	0x3d4586ea	0.048224367
179	0x3c0e15cc	0.008672189
180	0x3c84f1b5	0.016228536
181	0x3c89efcd	0.016837979
182	0xbc395723	-0.011312279
183	0x3cf6dd0f	0.030134706
184	0xbc699b0a	-0.014258156
185	0x3d49129e	0.04909002
186	0x3d11aa7e	0.035562985
187	0x3b6155af	0.0034383347
188	0x3cdfd26f	0.027322022
189	0x3c9d644b	0.019212862
190	0x3d563454	0.052295998
191	0x3c4d7b8f	0.012541666
192	0x3d161259	0.03663859
193	0x3d1b1fa7	0.037871983
194	0x3d238020	0.03991711
195	0xbc9277c7	-0.01787938
196	0xbc55fa81	-0.013060213
197	0xbd591984	-0.05300285
198	0xbd09e9fa	-0.033670403
199	0x3d1d754a	0.038441934
200	0xbd00b38d	-0.031421233
201	0x3cc71542	0.024302129
202	0x3cc16b17	0.023610635
203	0x3cbd73ad	0.023126448
204	0x3b046767	0.0020203234
205	0xbc955f09	-0.018233793
206	0xbd0d5ede	-0.0345143
207	0x3d21c5b4	0.039495185
208	0xbd1ac1e7	-0.037782576
209	0xb9655b71	-0.00021873206
210	0x3c231125	0.009952818
211	0x3d107d78	0.035275906
212	0x3cfc3e1f	0.03079134
213	0x3d069740	0.032859087
214	0xbd4fa46f	-0.050693925
215	0x3cd077f1	0.025447818
216	0xbcf911bd	-0.030403966
217	0xbcb4d70e	-0.022075202
218	0x3c31cf8f	0.0108527085
219	0x3c9c8212	0.019104991
220	0x3ced9309	0.029000776
221	0xbd0b8602	-0.034063347
222	0x3c46dd58	0.012137733
223	0x3cd0c28e	0.025483396
224	0xbd059507	-0.032612827
225	0xbc927b9d	-0.017881209
226	0xbcdd2d69	-0.026999192
227	0x3d07253b	0.03299449
228	0xbcb81136	-0.022469144
229	0x3d26ca66	0.040720366
230	0x3d1eac8e	0.03873878
231	0xbcf178c1	-0.029476525
232	0x3d27370f	0.040823992
233	0xbd2dd361	-0.042437915
234	0x3c9ecd75	0.019385079
235	0x3d176624	0.036962643
236	0x3ce411dc	0.027840547
237	0xb9b4cc8d	-0.00034484678
238	0xbccde13a	-0.02513181
239	0x3ca0f314	0.019647159
240	0xbc60ce15	-0.013721009
241	0xbd15a524	-0.036534443
242	0xbcd1d19c	-0.025612645
243	0xbbe02adb	-0.0068410463
244	0x3c25db93	0.010123151
245	0xbd0753b2	-0.033038802
246	0x3d122c2c	0.035686657
247	0x3ce9ecd5	0.028555313
248	0x3d2ff9f8	0.042963
249	0xbce50d32	-0.027960394
250	0xbceb5172	-0.02872536
251	0x3cdee408	0.027208343
252	0xbb0eb592	-0.0021775705
253	0xbd19d69b	-0.03755818
254	0xbd28003d	-0.041015852
255	0x3c5e53e5	0.013569807

transformer.layers.0.self_attn.in_proj_weight f4 [192, 64]
0	0xbd4be358	-0.04977736
1	0xbdc0ae8d	-0.09408293
2	0xbddf4b44	-0.10903028
3	0xbd2d07f5	-0.042243917
4	0x3cb1eb34	0.021718599
5	0x3dc4cecd	0.096097566
6	0xbce8781d	-0.028377587
7	0x3ca39460	0.019968212
8	0x3d97e04f	0.0741583
9	0xbcedf06b	-0.029045304
10	0x3d580d6f	0.052747186
11	0x3cd31e05	0.02577115
12	0x3d86f944	0.065905124
13	0xbda67741	-0.08128215
14	0xbddacf33	-0.10684051
15	0x3e143287	0.144724
16	0xbdfd03a1	-0.12354208
17	0x3e00e1d7	0.12586151
18	0x3df0db5c	0.117605895
19	0x3e08b617	0.13350712
20	0xbe092d09	-0.13396086
21	0x3e012014	0.12609893
22	0xbdadca71	-0.08485878
23	0xbd3abc2a	-0.045589603
24	0x3d840fe0	0.064483404
25	0xbc144e0d	-0.009051812
26	0xbdc983b2	-0.09839572
27	0x3d902ad2	0.07039417
28	0xbdff7d24	-0.124750406
29	0x3ddccca9	0.10781223
30	0x3dd8656b	0.10566219
31	0xbc104912	-0.008806484
32	0xbdef7e15	-0.1169397
33	0x3e033b72	0.12815645
34	0xbc83eef8	-0.01610516
35	0xbe088c9c	-0.13334888
36	0x3ded74d8	0.11594552
37	0x3d02c729	0.031928215
38	0xbe1e4183	-0.15454678
39	0x3d7e4cf9	0.062085126
40	0xbdf3dc18	-0.11907214
41	0xbda7324f	-0.081638925
42	0xbdc8e6d4	-0.09809652
43	0xbbd5ce91	-0.006524869
44	0x3d708129	0.058716927
45	0x3e018fe1	0.12652542
46	0xbd266fc4	-0.04063393
47	0xbd25fd6a	-0.040524878
48	0xbd1695f5	-0.036764104
49	0x3dd0ce72	0.10195626
50	0xbdaca19b	-0.08429261
51	0x3e2e4054	0.17016727
52	0xbe36a443	-0.17836098
53	0xbc9eb981	-0.019375565
54	0xbdde819e	-0.10864566
55	0x3d348c35	0.044079024
56	0x3e1d7f64	0.15380627
57	0xbd27dfb3	-0.04098482
58	0xbe003086	-0.1251851
59	0x3e17d325	0.14826639
60	0x3debc840	0.11512804
61	0x3c8c5f82	0.017135385
62	0x3d16887e	0.036751263
63	0xbd5bdb9d	-0.053676236
64	0x3d24d620	0.040243268
65	0x3de37181	0.111056335
66	0x3d63fab2	0.055659004
67	0xbd11b863	-0.035576236
68	0xbc933ec4	-0.017974265
69	0xbdfb6620	-0.12275338
70	0xbdcc5bcb	-0.099784456
71	0xbe1c02c6	-0.15235433
72	0xbd6a577c	-0.057212338
73	0xbd891322	-0.066931024
74	0xbdf589a1	-0.11989141
75	0xbdbd5832	-0.092453375
76	0x3d486883	0.048927795
77	0xbdeee420	-0.11664605
78	0xbe2ab4c4	-0.16670519
79	0xbdb4015e	-0.08789323
80	0x3dda1c86	0.10649972
81	0x3de83dd2	0.11339916
82	0x3e171f18	0.14757955
83	0x3d4cb71f	0.049979325
84	0x3e1436b1	0.14473988
85	0xbd10ed17	-0.035382356
86	0xbe2fbaa5	-0.17161043
87	0x3e38b010	0.18035913
88	0x3ce00463	0.027345842
89	0xbdcf3380	-0.10117245
90	0x3d059c97	0.03262004
91	0xbda7cc0d	-0.081932165
92	0xbd7bf766	-0.061515234
93	0xbdac282c	-0.084061
94	0x3dc2f948	0.09520203
95	0xbd7bbe5c	-0.061460838
96	0x3e30baa4	0.17258698
97	0x3da3f91f	0.080065005
98	0xbe1e233a	-0.15443125
99	0x3de3567c	0.1110048
100	0xbdfc542a	-0.123207405
101	0x3d395d5b	0.045255046
102	0x3d8ad4fb	0.06778904
103	0xbd91c781	-0.071181305
104	0x3dd6322b	0.104587875
105	0x3d6563d2	0.0560034
106	0x3dc50216	0.096195385
107	0x3d0bb3eb	0.03410713
108	0x3dee1876	0.11625759
109	0xbc764200	-0.015030384
110	0xbdb5b9b7	-0.08873313
111	0x3de1d669	0.110272236
112	0xbda17b85	-0.078848876
113	0x3e059c6f	0.13047956
114	0xbd7ed530	-0.06221503
115	0x3df5f2fb	0.120092355
116	0xbdb4434e	-0.088019
117	0xbd661193	-0.056169104
118	0x3d0a11f7	0.03370854
119	0x3da2f619	0.07957096
120	0x3d201ca4	0.039089814
121	0xbceafd14	-0.02868513
122	0xbe0d43da	-0.13795415
123	0xbd8d9b56	-0.069143936
124	0xbd913238	-0.070896566
125	0x3dc06620	0.09394479
126	0xbe22f90c	-0.15915316
127	0x3db6385c	0.088974684
128	0xbd20cd25	-0.03925814
129	0xbd345e61	-0.04403532
130	0x3df62295	0.12018315
131	0x3d7dd084	0.061966434
132	0x3de4e613	0.11176696
133	0xbdf041a7	-0.11731272
134	0xbdca7ecf	-0.09887468
135	0xbd8c1a36	-0.06840937
136	0xbb1d46da	-0.002399853
137	0xbe133fc9	-0.14379801
138	0xbd535a79	-0.051599953
139	0xbd9cc753	-0.076552056
140	0xb992beba	-0.00027989392
141	0x3de11034	0.109894186
142	0x3cbc877f	0.023013828
143	0xbcc86cbc	-0.024465911
144	0xbdee4b92	-0.11635508
145	0xbde9c33c	-0.11414191
146	0xbde4b504	-0.111673385
147	0x3e005622	0.12532857
148	0xbe01e6be	-0.12685677
149	0xbc8126ec	-0.01576563
150	0x3e218d93	0.15776663
151	0xbdebaf6e	-0.1150807
152	0x3df2f551	0.11863197
153	0x3db23c3c	0.08702895
154	0x3dffb122	0.12484957
155	0x3c36202f	0.011116072
156	0xbcd16f62	-0.025565807
157	0x3c74d2d4	0.0149428435
158	0x3c6c1ad6	0.014410695
159	0xbe0ede05	-0.13951881
160	0x3e1ce9c6	0.15323552
161	0xbdf8dcea	-0.12151511
162	0x3d63c3f6	0.055606805
163	0x3d7152db	0.058916908
164	0x3e30ae84	0.17254072
165	0xbdae25df	-0.08503317
166	0x3cfc7b51	0.03082052
167	0xbe0ea472	-0.13929918
168	0xbdb53f95	-0.08850018
169	0xbd2826de	-0.04105269
170	0xbe0e44a0	-0.13893366
171	0xbd207469	-0.039173517
172	0x3c883281	0.016625645
173	0x3da46b3e	0.08028267
174	0xbd140bce	-0.03614407
175	0xbdbd62e9	-0.09247381
176	0xbda9611d	-0.08270476
177	0xbe15a137	-0.1461228
178	0x3cd580be	0.026062366
179	0xbda5e576	-0.08100407
180	0x3e12c4ad	0.14332838
181	0x3decebd2	0.11568417
182	0xbc029148	-0.007969208
183	0x3dbb07c1	0.09132338
184	0x3d9ba03d	0.075989224
185	0x3c26ad73	0.010173189
186	0xbd00b0e5	-0.0314187
187	0xbd994a04	-0.074848205
188	0x3e1668bc	0.1468839
189	0xbbeb6661	-0.0071838354
190	0x3d7b84b6	0.06140586
191	0xbbb06af4	-0.0053838436
192	0x3daceeab	0.0844396
193	0xbe099455	-0.1343549
194	0xbdc8de37	-0.09808009
195	0x3cc74b5c	0.024327926
196	0x3ca39666	0.019969177
197	0x3dd4ae88	0.10384852
198	0x3b9b55cf	0.004740454
199	0x3d9d0857	0.07667606
200	0xbd1775a9	-0.036977444
201	0x3cdfcf3a	0.027320493
202	0x3c08023c	0.008301314
203	0x3e14bf2f	0.14526056
204	0xbc47eda6	-0.012202656
205	0x3d7310db	0.059342247
206	0xbc85acda	-0.016317774
207	0xbcab32f8	-0.020898327
208	0x3e12b1b0	0.14325595
209	0x3dbbbdfa	0.091670945
210	0xbe15c0b4	-0.14624292
211	0xbdeedd4a	-0.11663301
212	0xbde9d8ab	-0.11418279
213	0xbdc95a1c	-0.0983164
214	0xbe122079	-0.142702
215	0x3ce61052	0.028083954
216	0x3df912f5	0.12161819
217	0xbdf6e86b	-0.12056049
218	0x3cc344bc	0.023836486
219	0x3ddb6100	0.10711861
220	0xbe18155c	-0.14851898
221	0x3e2a80d0	0.166507
222	0xbdc2c9bf	-0.09511136
223	0xbddc3623	-0.10752513
224	0x3da2c0d5	0.07946936
225	0xbca57fc2	-0.020202521
226	0xbd04ccbd	-0.032421816
227	0x3dfff3e1	0.12497688
228	0xbdb14b61	-0.086569555
229	0xbde98b9a	-0.1140358
230	0xbdf82c0c	-0.12117776
231	0xbd05bfbd	-0.03265356
232	0x3dd47d03	0.103754066
233	0xbdf7522a	-0.120762184
234	0x3daa3597	0.08311003
235	0x3e1802ea	0.14844862
236	0x3d972450	0.07379973
237	0xbdf1f649	-0.11814553
238	0xbde05893	-0.10954394
239	0x3dd7cd06	0.10537152
240	0xbe03d274	-0.1287325
241	0x3e09ba03	0.13449864
242	0xbcd0e9c0	-0.025502086
243	0x3e0d11cf	0.13776325
244	0xbd70938e	-0.05873447
245	0xbd55f72f	-0.052237686
246	0x3de611cc	0.11233863
247	0x3d8c4bba	0.06850381
248	0xbd51fe75	-0.05126806
249	0x3e267efe	0.16259381
250	0x3dbc53e2	0.09195687
251	0x3d9b35a4	0.075785905
252	0xbce6204b	-0.02809157
253	0x3ded41fa	0.1158485
254	0x3cdd47a5	0.027011702
255	0x3d980816	0.07423417

transformer.layers.0.self_attn.in_proj_bias f4 [192]
0	0x3c17a322	0.0092552025
1	0x3ad15a0b	0.001597227
2	0xbc48f4b7	-0.012265376
3	0xbbb77cb2	-0.0055995816
4	0x3c689c19	0.014197373
5	0xbb99427c	-0.004677115
6	0xbbf408c7	-0.0074473354
7	0x3bff4516	0.007790218
8	0x3b9b02aa	0.004730542
9	0xbbc248ae	-0.0059290743
10	0x3c832021	0.016006531
11	0x3c5d45e1	0.01350543
12	0x3c4924b0	0.012276813
13	0x3c2cc22b	0.01054434
14	0xbba5a9bd	-0.005055635
15	0x3b2766fb	0.002554356
16	0x3b85056d	0.0040594847
17	0x3bdc81f6	0.0067293597
18	0x3a4bd32a	0.00077753013
19	0x3ca0256b	0.019549092
20	0x3be9f5a5	0.007139879
21	0x3bebc21d	0.007194771
22	0x3b0b7890	0.0021281578
23	0x3c8ac70e	0.01694062
24	0x3bb5c0da	0.0055466713
25	0xbca2bd70	-0.019865721
26	0xbac45fc9	-0.001498216
27	0x3b91c444	0.0044484455
28	0x3b8975a5	0.0041949325
29	0xbad99a85	-0.0016601837
30	0x3b600d97	0.0034187788
31	0x3bf09b14	0.0073427055
32	0xbb02ff9e	-0.0019988785
33	0xbb82e4d4	-0.0039945636
34	0x3aaf5e70	0.0013379585
35	0xbc39025f	-0.011292069
36	0x3b886f93	0.0041636913
37	0x3b2ad0e9	0.0026064462
38	0x3af668ab	0.0018799504
39	0x3b32d097	0.0027284974
40	0x3b93e606	0.004513505
41	0x3a001e57	0.00048873335
42	0x3ba4eab4	0.0050328616
43	0xbbc347cd	-0.005959487
44	0xb9bdcdeb	-0.0003620231
45	0x37b1d657	2.1199854e-05
46	0xbc07189d	-0.008245614
47	0xbba49a9c	-0.0050233137
48	0xbc3889c5	-0.011263316
49	0x3c008b3e	0.007845698
50	0xbc163936	-0.009168914
51	0x3bb80531	0.0056158532
52	0xbbf72843	-0.0075426414
53	0xbb4f077a	-0.003159015
54	0x3a7588ff	0.00093664223
55	0x3b1dfbc4	0.0024106363
56	0xbb819b2b	-0.003955265
57	0xbb3719b0	-0.0027938895
58	0x3b633f22	0.0034675081
59	0x3b72d9f1	0.0037056173
60	0x3b19f580	0.0023492277
61	0x3bc94b0c	0.0061429795
62	0x3b9575e5	0.0045611733
63	0x3ad31749	0.0016104962
64	0x33dc8fb6	1.0270689e-07
65	0x3402d199	1.2183445e-07
66	0xb4180162	-1.4156606e-07
67	0x34092ce3	1.2775449e-07
68	0xb4c70ecf	-3.7077413e-07
69	0x344f5347	1.9308673e-07
70	0x3400adcc	1.1984156e-07
71	0xb4e3010a	-4.22828e-07
72	0x33b4cfbf	8.419692e-08
73	0xb2d5bbfb	-2.4881947e-08
74	0x33e2865a	1.05483835e-07
75	0xb3eddc85	-1.1076285e-07
76	0x3317b249	3.5319577e-08
77	0x348621ee	2.4984132e-07
78	0x33e4c68b	1.0653192e-07
79	0x341c88ed	1.4578445e-07
80	0x3457077b	2.0026157e-07
81	0xb3b10cb4	-8.2445155e-08
82	0x3468cd17	2.1681295e-07
83	0x3510e372	5.3975157e-07
84	0x34243454	1.5292727e-07
85	0x347d6bad	2.3601633e-07
86	0x34137cd4	1.3735854e-07
87	0x35229c94	6.0577554e-07
88	0xb4763df2	-2.2933071e-07
89	0xb4c4717e	-3.659042e-07
90	0x32a0e9a5	1.87327e-08
91	0x348d45b2	2.6314007e-07
92	0x334a7ccb	4.714529e-08
93	0x336ac9fe	5.466608e-08
94	0x31cc7ad1	5.951144e-09
95	0x344063fd	1.7917769e-07
96	0xb1df8ece	-6.506389e-09
97	0x32010561	7.510011e-09
98	0x343cf818	1.759912e-07
99	0xb3631679	-5.2872995e-08
100	0x3386cd2a	6.2771804e-08
101	0x339692f4	7.01165e-08
102	0x34381ecb	1.7147538e-07
103	0x3253a1ea	1.23186314e-08
104	0xb3a9116f	-7.872847e-08
105	0x33eacc32	1.0933617e-07
106	0xb3110e69	-3.377355e-08
107	0x33f089fd	1.1200971e-07
108	0xb20f1721	-8.328954e-09
109	0x3511e1f1	5.43455e-07
110	0xb482e40e	-2.4380319e-07
111	0xb3794fa6	-5.804727e-08
112	0xb341047b	-4.494039e-08
113	0x3356dfbe	5.002925e-08
114	0xb1af40ac	-5.1005227e-09
115	0xb4329f03	-1.663539e-07
116	0xb438f8d9	-1.7226866e-07
117	0xb3541cbd	-4.9386234e-08
118	0xb2a6db00	-1.9424533e-08
119	0xb3ba278a	-8.668492e-08
120	0xb466fa48	-2.1511471e-07
121	0x3371eaf4	5.6325874e-08
122	0xb43be10d	-1.7497605e-07
123	0xb3ab84fc	-7.986998e-08
124	0x33a1045d	7.4979404e-08
125	0x336e2e84	5.5456e-08
126	0x311418b9	2.1550888e-09
127	0x345bbea8	2.0465325e-07
128	0x3afaa280	0.0019121915
129	0xbae506ac	-0.0017473302
130	0x3b44958a	0.0029996359
131	0xbb6cd492	-0.0036137444
132	0x3963b164	0.0002171449
133	0xbad52c3a	-0.0016263791
134	0xbbbea366	-0.0058178185
135	0x3bbbe011	0.005733498
136	0x3b0ebb22	0.002177902
137	0xbb470f09	-0.0030373952
138	0xbbaf4c4e	-0.0053496724
139	0x3c98c932	0.018650625
140	0x3bb5c060	0.0055466145
141	0x3c4795db	0.012181724
142	0xbc411627	-0.011785067
143	0x3b9cac40	0.004781276
144	0xbbd7dfb7	-0.006587948
145	0xbc041bb3	-0.008063245
146	0x3b1e7518	0.002417868
147	0xbb069370	-0.0020534657
148	0xbc86bfe7	-0.016448928
149	0xbbec0049	-0.0072021824
150	0x3a99c3b3	0.0011731297
151	0xbb704656	-0.0036663017
152	0xbb09d15a	-0.0021029324
153	0xbcb2b63f	-0.021815417
154	0x3c0cfcf5	0.0086052315
155	0x3ac44257	0.0014973384
156	0xb9cca844	-0.0003903528
157	0x3c15857f	0.009126066
158	0xbbe02528	-0.006840367
159	0xba72ddad	-0.00092645996
160	0x3b66f971	0.0035243894
161	0x3c294a61	0.010332675
162	0xbc97fb0d	-0.018552328
163	0xbbb9aaa3	-0.0056660934
164	0x3b72cb91	0.0037047605
165	0x3b99372f	0.004675768
166	0x3a9950ff	0.0011697112
167	0xbbd77b3e	-0.006575971
168	0x3acc0640	0.0015565827
169	0xbbac6fb9	-0.005262342
170	0xbc7e35d4	-0.015515763
171	0x3be27533	0.006910944
172	0xb9f268be	-0.00046235876
173	0x3c714ce6	0.014727807
174	0xbbd7b1dc	-0.006582482
175	0xbb29cd1d	-0.002590961
176	0xbbe05401	-0.0068459515
177	0xb922c644	-0.00015523384
178	0xbcb19b73	-0.02168057
179	0xbc7c3ec4	-0.015395824
180	0x3b757cdf	0.0037458462
181	0xbc268498	-0.010163449
182	0xbb071105	-0.002060951
183	0x3c77625d	0.015099135
184	0xbc3f597c	-0.01167905
185	0x3a5a7805	0.00083339243
186	0xbbbe82dd	-0.00581394
187	0x3c61646d	0.0137568535
188	0x3c8d02f7	0.017213328
189	0x3c8ad432	0.016946886
190	0x3c614104	0.013748411
191	0x3bcb764a	0.0062091695

transformer.layers.0.self_attn.out_proj.weight f4 [64, 64]
0	0x3ba88f3e	0.005144029
1	0xbd0f9056	-0.03504976
2	0xbd80c61a	-0.06287785
3	0xbca04fc8	-0.019569293
4	0xbcd756df	-0.02628654
5	0x3d027c8f	0.03185707
6	0x3c393458	0.011303984
7	0x3d39e469	0.045383845
8	0x3ca0304a	0.019554276
9	0x3c0ddc1d	0.008658436
10	0x3c9f02cd	0.019410515
11	0xbcecba9d	-0.028897578
12	0xbce2901c	-0.027656607
13	0xbd34cdf3	-0.04414172
14	0x3c513696	0.012769362
15	0x3d1c918a	0.038224734
16	0xbbb7efea	-0.005613317
17	0x3b89663c	0.0041930955
18	0xbc16d754	-0.009206612
19	0xbbda88c5	-0.006669136
20	0x3d11d334	0.03560181
21	0x3b70d055	0.003674527
22	0xbcff527b	-0.03116726
23	0x3c252ac0	0.010080993
24	0x3b8298dd	0.003985508
25	0x3c9a8483	0.018862015
26	0x3c84f644	0.01623071
27	0xbcdb10b5	-0.026741365
28	0xba871750	-0.001030663
29	0x3a17a73a	0.00057851116
30	0x3b307256	0.0026923618
31	0xbb2a5601	-0.0025991204
32	0xbc988072	-0.018615935
33	0xbc82cedc	-0.015967779
34	0x3d105886	0.035240673
35	0xbb85a8ef	-0.0040789763
36	0x3c3eb0cc	0.011638831
37	0x3cd4c217	0.025971455
38	0xbcf11324	-0.029428072
39	0xbc4008de	-0.011720864
40	0x3c877f7b	0.01654028
41	0xbc64ec49	-0.01397235
42	0xbc341cfe	-0.01099324
43	0xbceab121	-0.028648915
44	0x3c16b898	0.009199284
45	0x3c682c04	0.01417065
46	0x3d2a685d	0.041603435
47	0xbbc4e4a1	-0.0060087
48	0x3cf84e28	0.030310705
49	0xbcd7ed78	-0.026358351
50	0x3b2f2aef	0.0026728471
51	0x3cc5b70a	0.024135131
52	0xbd291885	-0.04128315
53	0x3c0df6c9	0.008664795
54	0xbb75570a	-0.0037435913
55	0xbcfdb6ad	-0.030970896
56	0xbc59445d	-0.013260928
57	0x3b6065fa	0.003424047
58	0x3bbbce10	0.0057313517
59	0x3c649e0f	0.0139537
60	0x3c51e6e8	0.0128114
61	0xbd0ad4c1	-0.033894304
62	0xbc7cc1a6	-0.015427029
63	0xbcb3046c	-0.021852694
64	0xbd66e0a5	-0.05636658
65	0xbc318004	-0.010833744
66	0xbcdcaa35	-0.02693663
67	0x3cab3ed5	0.020903984
68	0xbc0b6aa9	-0.0085093165
69	0xbd31832d	-0.04333799
70	0x3b970c07	0.004609588
71	0x3b8f70ec	0.004377475
72	0x3ce447c1	0.027866246
73	0x3c5820be	0.0131914
74	0x3d192406	0.03738787
75	0xbce160e0	-0.027512014
76	0xbb633cce	-0.0034673694
77	0xbaeead81	-0.0018209667
78	0x3b583e7f	0.0032996235
79	0xbccc3672	-0.024928305
80	0x3c6e37ee	0.014539702
81	0xbcd8e0e0	-0.026474416
82	0xbd0eff78	-0.034911603
83	0xbd134bd8	-0.035961002
84	0xbb4118a3	-0.0029464148
85	0x3c2cdd1e	0.010550765
86	0xbd006b51	-0.031352345
87	0xbb245e0c	-0.002508047
88	0x3c115a9c	0.008871701
89	0x3b9f7c25	0.004867094
90	0xbccedb79	-0.025251137
91	0xbcb3ec15	-0.021963159
92	0x3cb595d3	0.022166168
93	0x3beebd0f	0.007285721
94	0x3c199694	0.0093742795
95	0xbc8a1681	-0.016856434
96	0x3bd129df	0.0063831653
97	0x3b280736	0.0025639064
98	0xbc62410e	-0.013809456
99	0x3ce23f93	0.027618205
100	0x3c5848b9	0.013200932
101	0xbc9999d1	-0.018750103
102	0x3c98accc	0.018637083
103	0xbbd92c94	-0.0066276286
104	0xbbcdb798	-0.0062779896
105	0x3c81ebc2	0.015859488
106	0xbc736335	-0.014855196
107	0xb9a31f7d	-0.00031113243
108	0x3bab808a	0.005233829
109	0xbc946f87	-0.018119587
110	0x3d01512f	0.031571563
111	0xbd191223	-0.037370812
112	0xbcd664ea	-0.026171166
113	0xbca112eb	-0.019662341
114	0xbcf14c2b	-0.029455265
115	0x3b249ce6	0.0025117933
116	0x3c9e7ed3	0.019347584
117	0x3d492cee	0.049115114
118	0xbc18858f	-0.009309187
119	0xbd1bac71	-0.03800625
120	0xbce582c4	-0.028016455
121	0x3d0ae0f7	0.03390595
122	0xbd33a044	-0.043854013
123	0x3c2cf066	0.010555362
124	0x3b0eebc0	0.0021807998
125	0xbcaa2f69	-0.02077456
126	0xbc2cf327	-0.010556019
127	0xbc61df95	-0.013786216
128	0x3c1c1acf	0.009527876
129	0x3cc2a527	0.023760391
130	0xbcb2a739	-0.021808254
131	0xbb836e67	-0.0040109637
132	0x3cee6740	0.029101968
133	0x3c158b26	0.009127414
134	0x3b2b1d5a	0.0026110024
135	0xbbd39511	-0.006456979
136	0xbcf5d514	-0.03000883
137	0x3d082aa2	0.033243783
138	0xbc4bd414	-0.0124407
139	0x3ca75c55	0.02042977
140	0xbc8c781e	-0.01714712
141	0x3c681d40	0.01416713
142	0x3c8ca9fd	0.0171709
143	0xbbd83899	-0.006598544
144	0xbc8c39ce	-0.017117407
145	0xb9dbce00	-0.00041924417
146	0xbb02b92f	-0.0019946804
147	0x3c625943	0.013815227
148	0x3c88b3a2	0.016687218
149	0x3d30e875	0.04319044
150	0xbc1687e3	-0.009187671
151	0x3c45afa0	0.012065798
152	0xbb8e539c	-0.004343463
153	0x3cb41680	0.021983385
154	0x3dac821a	0.084232524
155	0x3c7ca15c	0.01541933
156	0x3cf3e21c	0.029770903
157	0xbbd6339a	-0.006536913
158	0xbcc5b6a1	-0.024134936
159	0x3cea1c69	0.028578
160	0x3d33b65c	0.043875083
161	0x3c3a4600	0.011369228
162	0x3b65bc58	0.0035054889
163	0xbc0f19af	-0.008734151
164	0xba8ec7f6	-0.0010893333
165	0x3ce228ff	0.02760744
166	0xbae5c9f4	-0.00175315
167	0xbcf2b28c	-0.029626153
168	0xbc42afdc	-0.011882748
169	0x3bffa5a4	0.0078017283
170	0xbc03c83a	-0.008043343
171	0xbc88f42c	-0.016717993
172	0x3b4da857	0.0031380856
173	0x3c7edc2b	0.015555422
174	0xbc7bb002	-0.015361788
175	0xbcb2de70	-0.021834582
176	0xbc8034b7	-0.015650136
177	0xbbc7738b	-0.006086772
178	0x3d0e5977	0.03475329
179	0xbc8bbf8d	-0.017059112
180	0x39980b5d	0.00029000166
181	0xbc8c5d23	-0.017134255
182	0xbc1f7c55	-0.009734233
183	0xbba9797c	-0.005171953
184	0x3b5573c5	0.0032570225
185	0xbc5453ab	-0.012959401
186	0x3b882847	0.004155192
187	0xbb89e43c	-0.004208116
188	0x3c51f6e1	0.012815208
189	0xbcb53c5e	-0.022123512
190	0x3cf6a47c	0.03010773
191	0x3ca1ef9f	0.01976758
192	0x3c00ba44	0.007856909
193	0xba3500d6	-0.00069047266
194	0xbc81370b	-0.015773317
195	0xbb26eef6	-0.0025472022
196	0x3b9e2432	0.004826092
197	0xbc6a67a4	-0.014306936
198	0x3bbf9f72	0.005847865
199	0x3cefc24d	0.029267455
200	0xbc2cdb8a	-0.010550389
201	0x3b0a0a7f	0.0021063385
202	0x3c564d0a	0.013079891
203	0x3cc53468	0.02407284
204	0x3bf77d97	0.0075528133
205	0x3c03e089	0.008049139
206	0x3b18ad7a	0.002329676
207	0xbc299234	-0.010349799
208	0x3c990745	0.018680224
209	0x3d08928d	0.033342887
210	0xbcd7cf9d	-0.026344115
211	0x3d319686	0.04335644
212	0x3cbaf66e	0.022822585
213	0x3d78a3cc	0.060703084
214	0x3bd424ab	0.0064740977
215	0x3c28ea76	0.010309806
216	0x3c7afbdb	0.015318836
217	0x3cbde9b5	0.02318273
218	0xbb9a573b	-0.0047101057
219	0x3c8b6788	0.017017141
220	0xbca6f8fe	-0.0203824
221	0x3b2b791e	0.002616472
222	0xb9a07737	-0.000306064
223	0x3c800e29	0.015631752
224	0xbb8b08ac	-0.004242977
225	0xba4024b2	-0.0007329687
226	0x3c4c8ffc	0.0124855
227	0xbc215cfd	-0.00984883
228	0xbc18eded	-0.00933407
229	0x3c6c4c32	0.014422463
230	0x3d22a255	0.039705593
231	0xbcd8be5a	-0.026457954
232	0xbbf97c3a	-0.007613686
233	0x3cae9a6b	0.021313867
234	0xbc9e5e87	-0.019332184
235	0x3c7872e5	0.015164112
236	0x3bde07af	0.0067758183
237	0xbc06121b	-0.008183028
238	0x3d10c1d7	0.03534111
239	0xbd1ec7f7	-0.03876492
240	0xbb54a5b2	-0.0032447395
241	0x3bcd71d0	0.006269671
242	0x3d5c6253	0.053804707
243	0x3d201230	0.039079845
244	0xbd093d00	-0.03350544
245	0x3caee2dd	0.021348411
246	0xbd2264de	-0.039646976
247	0xbc72b9cb	-0.014814804
248	0xbc8ded77	-0.017325146
249	0xbc662d87	-0.0140489405
250	0x3cf8280e	0.030292537
251	0x3c7812d1	0.015141205
252	0xbd17f56c	-0.037099287
253	0x3c9c9601	0.019114496
254	0xbd0a165e	-0.033712737
255	0x3ce91f1e	0.02845722

transformer.layers.0.self_attn.out_proj.bias f4 [64]
0	0x3be227a8	0.0069017
1	0x3b8d69b3	0.004315579
2	0xbb049a4d	-0.0020233572
3	0x3c08d8a1	0.00835243
4	0x3a10ba8b	0.0005520961
5	0x3b8bb863	0.004263924
6	0xbb65af1a	-0.0035046996
7	0xbab91b5c	-0.0014122534
8	0x3bb76e52	0.005597868
9	0xbc472c5c	-0.012156572
10	0x3c095e48	0.008384295
11	0xbc054390	-0.008133784
12	0xbc28d12d	-0.010303778
13	0xbc106117	-0.0088122105
14	0x3bcd022b	0.006256362
15	0xbc075fcd	-0.008262587
16	0xbb47580d	-0.0030417473
17	0x3bf27aaf	0.007399879
18	0x3be8efce	0.007108665
19	0x3b7c85e6	0.0038531958
20	0xbba92f54	-0.0051631127
21	0xbc030de7	-0.00799892
22	0x3bb92230	0.0056498274
23	0xbbd35184	-0.0064489264
24	0x3b748c94	0.0037315236
25	0xbbaefdbc	-0.005340306
26	0xbc1ac794	-0.009446997
27	0x3b863be7	0.0040964964
28	0xbb5d85bd	-0.0033801638
29	0xbbc737ab	-0.006079634
30	0xbb3dcc45	-0.0028960865
31	0x3b9dc02a	0.0048141675
32	0x3ac73bb0	0.0015200283
33	0xbbc0ef53	-0.0058879047
34	0x3b7992d2	0.0038081896
35	0x3b215009	0.0024614355
36	0x3c18613e	0.009300528
37	0x3b9b8b14	0.004746804
38	0xbbf5db1f	-0.007502928
39	0xbb173468	-0.0023072008
40	0xbbe2b444	-0.006918462
41	0x3bd49a75	0.0064881393
42	0x3b17036d	0.0023042813
43	0xbc2c4a45	-0.010515754
44	0xbbf9ca70	-0.0076230094
45	0xbbb1eff6	-0.005430217
46	0x3b83ced1	0.004022457
47	0xbba6f148	-0.005094681
48	0x3c1f0f5f	0.009708255
49	0x3bc85cf8	0.0061145984
50	0x3b6bd52e	0.003598522
51	0x3bf3c075	0.007438714
52	0x3c2d85f9	0.010591024
53	0xba030179	-0.0004997473
54	0xbc31298d	-0.010813129
55	0x3c059510	0.008153215
56	0xbb992726	-0.0046738563
57	0x3c3d70c5	0.011562531
58	0x3ba9e20f	0.005184419
59	0x3bbb4305	0.0057147765
60	0xbb9f8d5e	-0.004869147
61	0x3c136e45	0.008998458
62	0x3a34604e	0.00068808056
63	0x3b8020fb	0.0039101816

transformer.layers.0.linear1.weight f4 [128, 64]
0	0x3be7f317	0.007078539
1	0x3c0ff375	0.008786072
2	0xbb9e4b5d	-0.0048307613
3	0xbc94c3fd	-0.01815986
4	0xbcdbe634	-0.026843168
5	0xbd0ab29f	-0.033861753
6	0xb9c30328	-0.0003719565
7	0x3cf0d3ff	0.029397963
8	0x3cf03908	0.02932407
9	0xbcdb8a39	-0.026799308
10	0xbcc478b8	-0.023983344
11	0xbc53e5e2	-0.012933226
12	0xbca9d89f	-0.020733176
13	0x3b8021f4	0.0039102975
14	0x3c62a0fa	0.013832325
15	0x3d512ee2	0.0510701
16	0xbc99f876	-0.018795233
17	0xbbad100e	-0.005281455
18	0xbd06f7db	-0.032951217
19	0xbc934a7d	-0.017979855
20	0xbc4c6612	-0.012475507
21	0xbd5a0731	-0.053229515
22	0x3c9ccdf3	0.019141173
23	0xbd71ed71	-0.059064332
24	0x3c84bd1d	0.016203457
25	0x3aef0406	0.0018235452
26	0xbcf6a12b	-0.030106148
27	0xbb88962f	-0.004168294
28	0xbd2846fb	-0.041083317
29	0x3ac2e6ed	0.0014869847
30	0xbcf7ea51	-0.030263098
31	0x3cd50f8e	0.026008394
32	0xbc1bae36	-0.009501984
33	0xbcd505ee	-0.026003804
34	0x3cbfbade	0.023404535
35	0x3d2b437d	0.04181241
36	0x3c4f9b3f	0.012671291
37	0x3cb1ed9a	0.021719743
38	0xbc8e0045	-0.017334113
39	0xb9f028f1	-0.0004580687
40	0xbd1ade8d	-0.037809897
41	0x3ce28dfe	0.027655598
42	0x3c4d9ec3	0.012550059
43	0xbd39dc69	-0.045376215
44	0xbd2311cc	-0.039811894
45	0x3c586f2d	0.0132101
46	0x3bfbbed2	0.0076826597
47	0xbc0b204a	-0.008491585
48	0x3b018399	0.0019762276
49	0x3c8bc17b	0.017060032
50	0x3d01a8b4	0.03165503
51	0x3ceba13a	0.028763402
52	0x3c2ff709	0.01074005
53	0xbbd72bc4	-0.0065664966
54	0xbc64c42f	-0.013962789
55	0x3d50bf7c	0.050963864
56	0xbbb45435	-0.0055032023
57	0x3a7470fc	0.00093246973
58	0x3b0a6937	0.0021119842
59	0xbb110821	-0.002213009
60	0xbd089db5	-0.033353526
61	0x3acb2240	0.0015497878
62	0xbca1c75b	-0.01974838
63	0x3d534893	0.051582884
64	0x3c52b2d5	0.01286002
65	0x3c48a8cf	0.012247278
66	0x3b488d4a	0.0030601793
67	0xbd8cb151	-0.06869758
68	0x3c729d68	0.014808036
69	0x3cb840ef	0.0224919
70	0xbc7b3149	-0.015331575
71	0x3b29edf5	0.0025929187
72	0xbc9e01ca	-0.019287962
73	0x3ca35af9	0.01994084
74	0xbd0f6589	-0.03500894
75	0xbc862f0a	-0.016379852
76	0x3d13c806	0.03607943
77	0x3d825fdb	0.06365939
78	0xbbcea09b	-0.0063057668
79	0x3bd55e1b	0.0065114624
80	0xbab9e1f1	-0.0014181716
81	0x3cc4b9c2	0.024014357
82	0xbceb9331	-0.02875671
83	0x3c0fb447	0.008771009
84	0x3c39a195	0.011330028
85	0x3c95f066	0.018303107
86	0xbd04b99e	-0.03240358
87	0x3c8d4230	0.017243475
88	0xbc44d1e6	-0.012012934
89	0x3b8f42ab	0.004371961
90	0x3cf8658b	0.030321857
91	0xbca63e2c	-0.020293318
92	0x3d028bfd	0.031871784
93	0xbb877265	-0.00413351
94	0x3cec2e1e	0.028830584
95	0xbb0de871	-0.0021653438
96	0x3bfab722	0.0076512257
97	0x3b2577d4	0.0025248425
98	0xbcd09382	-0.025460962
99	0x3d087c7d	0.033321846
100	0xbc186903	-0.0093023805
101	0x3db2d6ad	0.087323524
102	0x3c86b396	0.016443055
103	0xbc03c672	-0.0080429185
104	0xbcc18141	-0.023621203
105	0x3b5ef283	0.003401906
106	0x3c8da9cf	0.017292885
107	0xbd08f228	-0.033434063
108	0x3d398d02	0.04530049
109	0xbd1e0acb	-0.03858451
110	0xbce4e202	-0.0279398
111	0x3cb95261	0.02262229
112	0xbcfab0be	-0.030601855
113	0xbc33445d	-0.010941592
114	0x3c743a07	0.014906413
115	0x3c95616d	0.018234933
116	0xbbc6ebb2	-0.0060705775
117	0xbc97243e	-0.018449899
118	0xbbf56454	-0.0074887667
119	0x3c8483b9	0.016176092
120	0x3c75ffe7	0.015014625
121	0xbd4f8576	-0.050664388
122	0x3c06b3a6	0.008221542
123	0xbc3636bc	-0.011121448
124	0x3ce0ae8f	0.027426986
125	0xbbc3a5f0	-0.005970709
126	0xbd175eff	-0.03695583
127	0x3cb024df	0.021501957
128	0x3cb18113	0.021667993
129	0x3b1e6700	0.002417028
130	0xbcf15a8a	-0.029462118
131	0x3d4c0fd6	0.04981979
132	0xbc73e770	-0.014886722
133	0x3cf4b5a8	0.029871777
134	0xbc7b3988	-0.015333541
135	0x3b695698	0.0035604592
136	0xbc1e3135	-0.009655287
137	0x3a28376f	0.00064169517
138	0xba818dd7	-0.000988419
139	0x3c838607	0.01605512
140	0xbd7b5d47	-0.061368253
141	0xbc06bf0e	-0.008224262
142	0x3d475ae1	0.048670653
143	0xbcf53a80	-0.029935122
144	0x3c9f60aa	0.019455273
145	0xbb6271df	-0.0034552736
146	0x3c811e37	0.015761478
147	0x3c8380bf	0.016052602
148	0xbbe99e2c	-0.0071294513
149	0x3b86bf31	0.0041121473
150	0x3cff6905	0.031178007
151	0x3c07e32f	0.008293911
152	0x3cae1bbc	0.02125346
153	0xbc859ba4	-0.016309567
154	0x3cf58181	0.029968979
155	0x3c42e51a	0.011895442
156	0x39b021c4	0.00033594493
157	0xbd0606e5	-0.03272142
158	0xbc94bab1	-0.018155428
159	0xbcf50241	-0.029908301
160	0xbd6845bd	-0.056707133
161	0xbc9b9195	-0.018990317
162	0xbc9b0a57	-0.018925829
163	0x3c62a5c9	0.013833472
164	0x3cad8d54	0.021185555
165	0x3b981393	0.0046410053
166	0x3c18d291	0.009327547
167	0x3c358216	0.011078378
168	0x3c49eafa	0.012324089
169	0xbbf7cbe4	-0.0075621475
170	0xbc05c483	-0.008164528
171	0x3ce3f86c	0.027828418
172	0xbd3bc152	-0.04583866
173	0xbcf2cb3b	-0.029637923
174	0x3bd9a676	0.006642158
175	0xbb943057	-0.004522364
176	0x3c910efd	0.017707342
177	0x3c8fa2a5	0.01753361
178	0x3d4fe5d0	0.050756276
179	0x3c8dc6de	0.017306741
180	0x3c2fbcef	0.010726198
181	0x3ceb6d5a	0.028738666
182	0x3ce85ab2	0.02836356
183	0x3d278394	0.040896967
184	0x3cc63b76	0.024198275
185	0x3c70ab82	0.014689328
186	0xbc55f4b7	-0.013058833
187	0xbd2fc38b	-0.042911094
188	0x3c91def7	0.017806513
189	0xbd89e406	-0.06732945
190	0x3d1318e4	0.03591241
191	0x3d7bfe2c	0.061521694
192	0xbca7316c	-0.020409308
193	0xbc0c8784	-0.008577231
194	0xbd76740f	-0.060169276
195	0x3d4ae6c8	0.049536496
196	0x3c151e3e	0.009101449
197	0x3cacc152	0.021088276
198	0xbd2d9561	-0.042378787
199	0xbd0da5c9	-0.034581933
200	0x3cb77787	0.022395862
201	0x3c102243	0.008797231
202	0x3d40dd93	0.04708631
203	0xbd15bf2e	-0.036559276
204	0xbd64860c	-0.0557919
205	0xba55165f	-0.0008128639
206	0x3cdb565a	0.026774574
207	0xbbd66c00	-0.0065436363
208	0xbc00d9f4	-0.007864464
209	0x3b96f4fb	0.0046068407
210	0x3b344d48	0.0027511884
211	0x3c18400d	0.009292615
212	0xbd58c7e8	-0.05292502
213	0x3bbe346b	0.0058045886
214	0x3c42ee98	0.0118977055
215	0x3c95d871	0.018291684
216	0x3c8edbba	0.017438758
217	0xbd31a323	-0.04336847
218	0x3d1aa81e	0.037757985
219	0x3a62ac1b	0.00086468615
220	0x3c28c3e3	0.010300609
221	0xbc3bc9a2	-0.011461647
222	0xbc985083	-0.018593078
223	0x3bcba3da	0.006214601
224	0x3ba591de	0.005052789
225	0xbc1c390f	-0.009535088
226	0xbca4860e	-0.020083454
227	0x3cd728ec	0.02626463
228	0x3d3fa135	0.0467846
229	0x3b237ef3	0.0024947494
230	0xbc9cba34	-0.019131757
231	0x3cadbea9	0.021209078
232	0x3d04f0b9	0.032456134
233	0x3c063b3b	0.008192833
234	0x3adc57e9	0.0016810867
235	0x3c5ebbd7	0.013594589
236	0xbca67cd2	-0.02032319
237	0x3cacb007	0.02108003
238	0xbc48bab8	-0.0122515485
239	0xbd0aba09	-0.033868823
240	0x3ccc50ea	0.024940927
241	0xbd00aca5	-0.031414647
242	0x3d3e3420	0.04643643
243	0x3c32bd61	0.010909409
244	0x3ce5c6eb	0.028048953
245	0x3cd8da62	0.02647132
246	0x3c7dd7da	0.015493358
247	0x3c9979da	0.018734861
248	0xbc9cb29e	-0.01912814
249	0x3c95cf88	0.018287435
250	0xbaff4dd2	-0.0019478148
251	0x3b961b05	0.0045808577
252	0x394f3dac	0.00019764033
253	0xbcb98e69	-0.022650914
254	0x3d39b6fc	0.045340523
255	0xb9f9398f	-0.00047535865

transformer.layers.0.linear1.bias f4 [128]
0	0x3c8099ce	0.01569834
1	0xbcef0b68	-0.029180244
2	0xba20e34e	-0.00061373867
3	0x3c8b0eb0	0.016974777
4	0x3c4386c4	0.011933986
5	0x3bf3c4d4	0.007439235
6	0xbbb0a44d	-0.00539068
7	0xbc2f8d7f	-0.010714888
8	0xbbffd680	-0.007807553
9	0x3c81d8f1	0.015850516
10	0xbc1c907c	-0.009555932
11	0x3c54055c	0.012940731
12	0x3bb31cfa	0.0054661008
13	0x3c94d31c	0.018167071
14	0x3c98b674	0.018641688
15	0x3a01cfff	0.00049519533
16	0x3c99f3bc	0.01879298
17	0x3c36a1cd	0.011146975
18	0x3c5c3b24	0.013441835
19	0x3c0edd4c	0.0087197535
20	0x3b6f3342	0.0036499058
21	0x3c8566e5	0.016284415
22	0xbb5013b3	-0.0031750023
23	0x3cd20a1a	0.025639582
24	0x3bb7fa51	0.005614557
25	0x3c67d5cc	0.014150094
26	0x3b786d41	0.0037906917
27	0x3cbbc296	0.022919934
28	0xbc5f8596	-0.013642689
29	0xbb9f39bf	-0.004859179
30	0xbc215de2	-0.009849044
31	0x3c7892ef	0.01517175
32	0x3c291b29	0.010321417
33	0x3bd59833	0.0065183877
34	0xbc48d4a0	-0.012257725
35	0xbc4d02c5	-0.012512867
36	0x3b2eeb9f	0.0026690734
37	0xbc27ff26	-0.010253703
38	0x3cd514a3	0.026010817
39	0x3c6c2f31	0.014415548
40	0x3c8727b5	0.016498426
41	0x3c18b656	0.009320816
42	0x3bfc276b	0.0076951287
43	0x3bb58cd2	0.0055404687
44	0xbc08beeb	-0.0083463
45	0x3ce85100	0.028358936
46	0xbcad7c58	-0.021177456
47	0x3c58160c	0.01318885
48	0x3bbb95b4	0.005724633
49	0xbbf38aed	-0.0074323327
50	0xbc856475	-0.016283253
51	0x3cc9a685	0.024615536
52	0x3c5a809d	0.013336328
53	0xbc83e6f9	-0.016101347
54	0x3c5c426a	0.013443569
55	0x3bd579d9	0.0065147695
56	0xbb816239	-0.0039484766
57	0x3c64e6a7	0.013971007
58	0x3bf3400a	0.0074234055
59	0x3cb82e92	0.022483144
60	0xbb2615d4	-0.00253426
61	0xbc1075a0	-0.0088171065
62	0xbb2390a6	-0.0024958043
63	0xbac3609e	-0.0014906114
64	0x3bfceb42	0.0077184746
65	0x3bc7618b	0.006084626
66	0x3bd82c01	0.0065970425
67	0x3bc7d527	0.006098408
68	0x3cc69a5a	0.024243522
69	0x3c745889	0.014913687
70	0x3bcfee6c	0.006345561
71	0x3c9546a3	0.018222159
72	0x3b472683	0.0030387945
73	0xbbdd95ee	-0.006762258
74	0x3cacb79a	0.021083642
75	0x3c0be05f	0.008537381
76	0xbb9492f2	-0.004534119
77	0xbb934324	-0.004494088
78	0x3c8cf32e	0.0172058
79	0xbafc9b35	-0.001927233
80	0xbaf32db7	-0.0018553053
81	0xba42a872	-0.0007425613
82	0xbb972cd8	-0.0046135
83	0x3c8fc16b	0.017548284
84	0x3c861d43	0.016371375
85	0x3c2cf58e	0.010556592
86	0x3c377002	0.011196138
87	0xbd02b182	-0.031907566
88	0x3cd420b5	0.025894502
89	0xbc0e2dec	-0.008677941
90	0xbc682ab0	-0.014170334
91	0x3ca6b19d	0.020348364
92	0x3c91d64a	0.017802376
93	0xbc24fcd2	-0.010070043
94	0x3b3168ed	0.0027070597
95	0xbb3db4b4	-0.0028946819
96	0xbb1c844d	-0.0023882568
97	0x3bff5913	0.007792601
98	0x3cdf455f	0.027254758
99	0x3c61ccc9	0.013781735
100	0x3bbc222a	0.0057413774
101	0x3a421c6f	0.00074047496
102	0x3b06986b	0.0020537626
103	0x3c848982	0.01617885
104	0xbbb96023	-0.0056572123
105	0xbc50ecee	-0.012751801
106	0x3a0312f5	0.0005000078
107	0x3c8c23e1	0.017106952
108	0x3c6163b3	0.01375668
109	0x3c76e88b	0.015070091
110	0xbcb97d1d	-0.022642666
111	0x3ba6d691	0.0050914963
112	0xba437cea	-0.00074572733
113	0x3c75253b	0.01496249
114	0xbc4b24e6	-0.012398934
115	0x3c03601b	0.008018519
116	0x3c875acc	0.016522788
117	0x3c8261c3	0.015915757
118	0x3c8e46c3	0.017367726
119	0x3cb5862f	0.02215871
120	0x3c64b6b1	0.013959573
121	0x3c87f57c	0.016596548
122	0x3cc6d330	0.024270624
123	0xba4a0222	-0.0007706006
124	0x3cedb6c1	0.029017808
125	0x3b5566ca	0.0032562488
126	0x3c19f379	0.009396427
127	0x3c9378ae	0.01800188
