marble_model/best_model_v3.0_20250531_010424.pt (torch, 295593 bytes, 30 tensors)

token_embedding.weight f4 [13, 64]
00000000: b04e 8b3b 54a5 91bc f732 b93c 2e23 febc
00000010: ed6f 87bc eccf 4ebd 34fb c7bc f55e cfb7
00000020: 30cf 79bb d637 aebb abe6 65bb 4b51 f13c
00000030: 2909 2b3d 8259 613c 2e8a 553b 196b a6bc
00000040: 5723 d6bb 616e e73b 9e1d 283b ca60 943c
00000050: 93b8 6ebc 061e 72bb c521 eb3c ddae e13c
00000060: 1787 a93c 92ca a7bc f507 8d3c 8f6e 123c
00000070: 99e7 9b3b e6b5 ef3b 1316 ecba c74d ec3a
00000080: e1d5 70bd ee92 8abc 1e85 bd3c 128b 783a
00000090: b44a 903b eef3 ebb9 fc83 31bb c0aa 4e3b
000000a0: ed58 8d3b c3ee 003d 0a4b c83c 843d 313b
000000b0: 6312 7a3b 6968 d63b 503f c33b 50c0 ce3c
000000c0: 3331 b13c d7ce 913c 278f 5abc 007b 8ebc
000000d0: 4efb 3fbc 5ef3 223d c913 a0bc ab99 ffbc
000000e0: 5b2d c6bb 44a0 083b a798 12bb c03b 92bc
000000f0: 9a22 893c 4e76 d5bb 873f 15bc fca7 fa3c
00000100: 961a 993c 08e3 e5bc 91ff 18bd eb59 a53c
00000110: db3a 35bc ca68 d6bc aba4 dfbc beb7 7d3b
00000120: 9ea5 6d3c 4559 6c3d 8d41 05bd 699a 91bc
00000130: 8de1 513d f9be ff3b 738f 0dbb 28e8 6d3c
00000140: 742a 1abc c82d edbb f0af d1bc 0f27 7a3c
00000150: 59cf 72bc ff3c 64bc 1c08 b43c e6a3 c2bc
00000160: 9a26 c23c 5201 44bd 24f2 b63c c81d 9dbc
00000170: c4bb 6f3c 0f09 2f3d 8d1f 56bc adb6 13bd
00000180: aa32 52bc 3b00 bf3b 5020 143d 570e 77bc
00000190: 615e 20bb a684 ca3c 62af 13bc df4b 293c
000001a0: 459d 3cbd c649 e63b 1a97 1c3d a9a2 c83c
000001b0: 5f0c d63c 26a3 053d eec4 513c 1ed1 033c
000001c0: 85da 953c ef93 13bd 8cff c0bb 9a1f 18bd
000001d0: 1d97 8c3c 47e8 103d cda2 c9bc 4e2f 7e3d
000001e0: 7d5d 113d ebf0 06bd f5d8 f53c 0e55 d0bc
000001f0: 9ae0 fcbc 46fc b7bc 5c69 4ebc 74f6 a8bc
00000200: fba9 95bc 7b0c 2cbc ac9c 70bc f692 00bc
00000210: d0b5 08bc fa2e 13bc cccf e8bb a6f3 00bc
00000220: 9413 bcbc 2515 ad3c b9e1 a639 8b5c 11bc
00000230: 2f7a 123c cebd 243c 9baf f8b9 25c3 47bc
00000240: 6d31 89bc 3446 e53c c16c cb3c cd9b 343b
00000250: 2e2e cdbb 0cac 8e3c 3db4 283c 366b ad3b
00000260: 4d28 ac3b d2f6 a5bb d83f 50bb c6dd f03c
00000270: 1366 bf3b eb00 393c afb1 2b3c 0679 d6bc
00000280: 8e33 bcbc f9d2 693c a5f5 70bc b7eb 033d
00000290: 97be e2bb 1c36 0b3d efc1 53bd 97e7 a7bc
000002a0: 0f2a 84bc fbea 99bb c74a 6cbc 778f 4a3c
000002b0: a63e cebc 9d9a 40bc 3966 123c b046 1cbc
000002c0: afdb ae3c 9322 863b 6a00 853b ef33 8c3b
000002d0: 8d6a 14bc f685 123c fd35 bd3c a424 883b
000002e0: 1f61 9cbc ef14 d6bc b520 733c 93c1 60bc
000002f0: f583 073c c89b 89bc 4971 b7bc a74e b33c
00000300: 2cf8 7f3c 6e47 583c a7d5 303c 6ffd 823c
00000310: de70 793c 4566 0d3d 8cf9 0a3c 52fd 96bb
00000320: 321c 40bc 93e0 353a 5afa 843b 484e cf3c
00000330: d081 88bc 4fad a8bb ddcd caba cd2c 003c
00000340: 9c2d 9dbc 46f2 953b ada9 873c d85c 36bc
00000350: 5d60 81ba 4655 eb3a d55b b9bb d993 963b
00000360: 0c6f dfbc 2c29 acbb 5030 d4ba 5677 fc3b
00000370: e928 5abc c4fd 8fbc 8805 a3bb 19b3 efbb
00000380: d34e 3bbb 3c81 15bc db3d 363c ad1a 903b
00000390: fc9e f7bb 2e22 e3bc f892 91bc fe1d bdbb
000003a0: 40a6 6a3b 9d00 b3bc a7c6 8bbb 7fdc 1bbb
000003b0: 5a5e 2f3c 231d 153c 5fdc 4fbc b84c 4a3c
000003c0: 9cbf 703a 35bd 1d3c 4351 543b e69a 763c
000003d0: 9ce8 18bc c86a 29bc 78e2 b53c f084 c13b
000003e0: cc10 2bbc 8d56 493c c5f3 843c 64d4 babb
000003f0: eb93 3a3d 4bb7 193c 6726 95bc 6d35 04ba
0.0042513236 -0.01777903 0.02260731 -0.031022634 -0.016532863 -0.05049126 -0.024411775 -2.472054e-05
-0.0038117878 -0.0053167148 -0.0035080116 0.029457709 0.041756783 0.0137542505 0.0032583582 -0.02031474
-0.0065349746 0.0070627187 0.002565242 0.018112559 -0.014570373 -0.0036944165 0.028702626 0.027549202
0.020694299 -0.020482335 0.017215708 0.008937492 0.004757833 0.007315385 -0.001801195 0.001802855
-0.05879772 -0.016915765 0.023134764 0.00094811723 0.0044034366 -0.00045004435 -0.0027086725 0.003153488
0.0043135793 0.0314777 0.024449844 0.0027044723 0.0038157932 0.0065432084 0.005958475 0.025238186
0.021629905 0.017798824 -0.013339794 -0.017392635 -0.011717631 0.039782874 -0.019540684 -0.031201204
-0.0060478873 0.002084748 -0.002236882 -0.017850757 0.016740132 -0.006514347 -0.009109384 0.03059768
0.018689435 -0.028062358 -0.037353102 0.020184478 -0.0110613955 -0.026173014 -0.0273002 0.0038714255
0.014504818 0.05770232 -0.032533217 -0.017773824 0.051240493 0.007804748 -0.0021600395 0.014520682
-0.009409536 -0.0072381236 -0.025596589 0.015268101 -0.014819943 -0.013930558 0.021976523 -0.023759793
0.023700047 -0.04785282 0.022332259 -0.01917924 0.014632169 0.04273325 -0.013069046 -0.036062885
-0.012829462 0.005828885 0.036163628 -0.0150791025 -0.0024470317 0.024721455 -0.0090139825 0.0103330305
-0.04604842 0.0070278374 0.03823004 0.024491625 0.026128946 0.032626294 0.012803299 0.008045463
0.018292675 -0.036029752 -0.0058898386 -0.037139513 0.0171619 0.035377767 -0.024613762 0.062056832
0.035489548 -0.0329446 0.03001068 -0.025431182 -0.030868817 -0.02245916 -0.012598362 -0.02062533
-0.01826953 -0.010501022 -0.014685791 -0.007847538 -0.008344129 -0.008983368 -0.0071048494 -0.00787059
-0.022958554 0.021128247 0.00031830164 -0.008872162 0.008940264 0.010055019 -0.00047433082 -0.012192522
-0.0167472 0.027987577 0.024832131 0.0027558685 -0.0062616086 0.017416023 0.010296878 0.0052923216
0.0052538277 -0.0050648237 -0.0031776335 0.029402625 0.0058410256 0.011291723 0.010479375 -0.026180755
-0.022973802 0.014271491 -0.014707004 0.032207217 -0.0069196927 0.03398715 -0.05169862 -0.020496173
-0.016133336 -0.0046972013 -0.014422125 0.012363306 -0.025176357 -0.011755613 0.008935505 -0.009538338
0.021344988 0.004093477 0.0040588873 0.004278652 -0.009058607 0.008943072 0.023097033 0.0041547585
-0.01908928 -0.026133029 0.014839341 -0.013718027 0.008271207 -0.016797915 -0.022392886 0.02188809
0.015623134 0.013200624 0.010793126 0.015989987 0.015224664 0.03452136 0.008482348 -0.004607835
-0.011725472 0.0006938066 0.0040581645 0.025305882 -0.016663462 -0.005147613 -0.0015472729 0.007823181
-0.019186787 0.0045760004 0.0165604 -0.011130534 -0.0009870637 0.0017954491 -0.005656699 0.0045952615
-0.027274631 -0.0052539315 -0.0016188715 0.0077046556 -0.013315418 -0.01757706 -0.0049750246 -0.0073150513
-0.0028580918 -0.00912505 0.011123146 0.0043977113 -0.007556794 -0.02772626 -0.017770275 -0.0057713976
0.003580466 -0.021850878 -0.0042656246 -0.002378255 0.0107036475 0.009101185 -0.012686818 0.012347393
0.00091838255 0.00962763 0.0032397069 0.015051579 -0.009332802 -0.0103404 0.022202715 0.00590574
-0.010441016 0.012288702 0.01622952 -0.0057015885 0.04555122 0.009382079 -0.018206788 -0.00050433615

position_embedding.weight f4 [30, 64]
00000000: e12c 0dbd 1139 42bd df17 5abc 526d 143d
00000010: 7633 febc 6e07 e8bb 68ea 70bc ff77 e03b
00000020: 1c39 f53b d4c2 6c3c ddea 44bd aaca 51bd
00000030: 032b 723b bd86 3dbd 1836 5dbc b9ad 133d
00000040: 7545 26bd f326 dcbc a9e7 3abd 9687 a03c
00000050: 8546 dbbc 56bd 37bd 6140 253d 1a71 bc3c
00000060: 0656 033d 703e 26bd 3b3e 87bd 9c41 46bd
00000070: 8e2e ea3b cc7e a2bc f239 463d ce73 52bc
00000080: 7c96 1cbd fd3b 53bd 7a56 47bc 4f83 3dbc
00000090: df66 eb3c ec83 dbbb 8429 ad3c 8551 0f3d
000000a0: 87b5 1cbd c8ae 333d 64d2 ac3c 11e5 853c
000000b0: 273a 20bc 04f6 583b 54bb 483c 60a5 473c
000000c0: 78f8 17ba 41b0 15bd d061 e3bc 838b a3bc
000000d0: 07b9 4b3c 7c6d 0a3c d12f 16bc 9105 fabc
000000e0: bbe5 d23a c2ea 0ebd a7d5 573b 43ff 7abd
000000f0: 6964 2ebc 50c0 5dbd ddf2 64bd 6f6d 2e3d
00000100: dc29 913c 5624 1bbd 27d7 5e3c 36f8 fb3c
00000110: d649 8a3c 27bd 9dbb 3cb9 a83c dfe4 29bd
00000120: 9d14 20bc cd99 39bd 3928 a13a b1b9 8a3c
00000130: 90e4 1cbc 8e20 1f3c 1271 a63c ee5c c33c
00000140: dfe1 2abc a051 cc3c 61ed d93c 2b8e 02bd
00000150: 226e 36bc 9cf8 23bd 6ebe b13b f0a6 0fbd
00000160: 399b 0cbd e635 923a 05ef 103c b7d3 1bbc
00000170: d275 e5bc f945 0bbd b236 30bc 7491 5f3c
00000180: dbb1 c2bc c949 9f3c 0211 b6bc 7c7c 043d
00000190: f84d b93c ff47 26bc dc45 643c f073 54bc
000001a0: 14b6 683c 1410 9dbc 6872 4b3d 4680 4cbc
000001b0: 2cbe 5cbc baac f6bc a1cf e3bc 8d71 cdbc
000001c0: 535c 0ebd 319b 05bd 736a 113d 8de1 883b
000001d0: 5d5e 24bc 8d94 59bc c3da b23c c3e4 79bc
000001e0: 2eb5 3bbc cf4e 55bb 1b90 48bb 1d39 f83a
000001f0: 7ad2 0bbc f9a9 9e3b b970 08bc 2205 033c
00000200: 4903 293c 898c 28bd 756f c83c 553a 983b
00000210: 3718 3f3c 0ec4 4ebd 0449 ec3b bc1f bebc
00000220: a9b0 22bc e36a e3bc b15f c63b 9ec3 91bb
00000230: 5017 87bc 0bb8 453d 7ca5 573c b210 0cbc
00000240: da5c 913c 3b0c 6b3c d58a 18bc 435c a2bc
00000250: 803f ac3c 74f5 c0bc f567 1a3d 026b 6ebd
00000260: 20cd 96bb 6518 b1bc 5647 dd3c e7df 82bc
00000270: 874d 8bbb d101 4abc de64 9a3c fca0 893c
00000280: 8a06 b4bc 8ba8 b83c 8b7c 0dbd 5e4f 7a3c
00000290: fb52 183d 2aaf 763c 3fb9 77bc 7689 b8bc
000002a0: 5c5e a03c 38eb 4b3c 2f12 e83b 4f6a d53b
000002b0: ae1e 6abd 3053 debc ec72 f2bc f114 66bd
000002c0: 0747 07bd 9c3d 1cbd bc3a c83c 3c51 a1b9
000002d0: cd9e c7bc 9433 22bc ebb0 c83a 5ca3 29bd
000002e0: 2ddb 38bc a521 083c 7dc0 b2bb 8b59 073b
000002f0: 12b5 66bd d63d a6bb 6ae2 f43c 0a75 693c
00000300: 8c14 1b3d 4429 be3c 4beb 053d dc90 a33c
00000310: 5801 ce3c 2ccc fb3c ef1c b2bc a380 3d3d
00000320: d7b1 453d 06ae bdbc 7525 373d d3b9 9bbc
00000330: 020c 0ebc 3a51 ccbc d11a 2dbd 806b 4f3d
00000340: 3a6b 95bc c346 c1bc 7b6d cb3c 4b66 a5bb
00000350: ca7e 45bd 1b2e 553d 2472 9dbc 3092 f13c
00000360: 5c2a 1bbc a4b7 e03c 1dd6 20bd 6112 593d
00000370: fba7 f03b d1e5 9dbc 7092 2fbd 824e 643d
00000380: b501 42bd aae7 203c 024f 403d 18f8 16bc
00000390: f49d 22bd fe48 4e3d 3da7 123d 15f5 0fbc
000003a0: a990 c63c cc8f dfbc 8358 ddbc 38bc 06bd
000003b0: e13d b93c af89 2e3d 0528 a6bc d9c2 e23c
000003c0: 160f b93c ef10 043d 0299 9fbc 9389 183d
000003d0: c456 233d 18eb c1bc 10a7 c53c 322a 403d
000003e0: 5336 c8bc da21 023d 0d6b 153d 2957 223d
000003f0: 5aef cb3c 2fc5 05bd 3a2e 9abc bdbe 863c
-0.034466628 -0.047417704 -0.013311355 0.03623707 -0.031030398 -0.007080964 -0.014704324 0.006850242
0.0074836146 0.0144507475 -0.048075546 -0.051218666 0.0036951907 -0.046271075 -0.0135016665 0.036054347
-0.040593583 -0.026874041 -0.045631085 0.019595902 -0.026767025 -0.0448583 0.0403446 0.02300315
0.03206446 -0.04058689 -0.066036664 -0.048402414 0.007146663 -0.019835852 0.048395105 -0.012844993
-0.03822945 -0.05157088 -0.012166614 -0.011566951 0.028735576 -0.006699076 0.02113796 0.034989852
-0.038259055 0.043867856 0.021096416 0.016344579 -0.00977949 0.003310562 0.012251694 0.012185425
-0.00057972176 -0.036545042 -0.027756602 -0.019963985 0.012434251 0.008448955 -0.009166674 -0.030520232
0.0016090194 -0.03489185 0.0032933743 -0.061278593 -0.010644057 -0.05413848 -0.055895675 0.042584833
0.017720155 -0.03787645 0.013601101 0.030758005 0.01688091 -0.0048138085 0.02059614 -0.041478034
-0.00977054 -0.04531269 0.0012295312 0.016934248 -0.009575978 0.0097123515 0.020317588 0.023848023
-0.010429828 0.024941266 0.026602449 -0.031873863 -0.011134656 -0.040032014 0.0054243123 -0.035071313
-0.03432772 0.0011154979 0.008846049 -0.009510926 -0.028010283 -0.034002278 -0.010755228 0.013645519
-0.023766449 0.019444363 -0.022224907 0.03234528 0.022620186 -0.010149001 0.013932671 -0.012967095
0.014203567 -0.019172706 0.049669653 -0.012481755 -0.013473075 -0.03011166 -0.027808966 -0.02507856
-0.034756016 -0.032618705 0.03550191 0.0041772784 -0.010032264 -0.013280046 0.02183283 -0.015252295
-0.011456771 -0.0032548194 -0.0030603472 0.001893792 -0.008534068 0.0048420397 -0.008327656 0.007996829
0.010315725 -0.04114965 0.02446721 0.0046456256 0.011663488 -0.05047994 0.0072108526 -0.023208492
-0.009929814 -0.027760928 0.006053888 -0.004448368 -0.016490608 0.04827122 0.013162013 -0.008548902
0.01774447 0.014346178 -0.009310444 -0.019819384 0.021026373 -0.023554541 0.037696797 -0.05820752
-0.0046020895 -0.021618078 0.027011555 -0.015975906 -0.0042511853 -0.012329535 0.018846925 0.016800396
-0.021975774 0.022541305 -0.0345426 0.015277712 0.03718851 0.015056411 -0.01511985 -0.022526484
0.019576244 0.012446217 0.007082246 0.006512917 -0.057158165 -0.027139276 -0.029595815 -0.056172315
-0.03302672 -0.038144693 0.02444207 -0.00030768837 -0.024367714 -0.0098999925 0.0015311515 -0.041415557
-0.011282724 0.008308803 -0.0054550753 0.0020652737 -0.056325026 -0.0050732894 0.029893119 0.014249096
0.037861392 0.023213036 0.032695096 0.019966535 0.025147125 0.030737005 -0.021742312 0.046265256
0.048265304 -0.02315427 0.044713456 -0.019009506 -0.008669855 -0.024941076 -0.042261902 0.05063963
-0.018239606 -0.023593312 0.024832478 -0.0050475947 -0.04821662 0.052045923 -0.019219466 0.029488653
-0.0094705485 0.027431317 -0.039266694 0.052996043 0.0073442436 -0.019274624 -0.042864263 0.055738933
-0.04736491 0.009820858 0.046950348 -0.009214424 -0.039701417 0.05036258 0.035804022 -0.008786459
0.024238901 -0.027290247 -0.027019745 -0.032894343 0.022612514 0.042611774 -0.020282755 0.027680801
0.022590201 0.03224271 -0.01948214 0.037240576 0.039877668 -0.023671672 0.024127513 0.04691524
-0.024439966 0.031770565 0.036479045 0.039633904 0.024894405 -0.032658752 -0.01882087 0.016448373

transformer.layers.0.self_attn.in_proj_weight f4 [192, 64]
00000000: 369f c73d 0380 043c 3c28 a43d 2bfb 88bc
00000010: 19a3 c83d d91f 15be 4bfe dabd 4390 0f3e
00000020: 5085 23be 3b6e ed3d f4d0 a23d bd77 f8bd
00000030: 15f5 693d 5969 443d e8ac db3d 80b3 ad3c
00000040: 5bcb 923d 5e26 81bd 1e0c 2fbd f4cf 443d
00000050: 2f59 c3bd b876 d2bc 2825 afbd 4294 903d
00000060: 6c67 8dbd c761 32bd a3ee 06be 65bb afbb
00000070: 7e51 033e 9085 c8bb 4132 14bc 91c2 3e3d
00000080: 093b fcbd 0eb1 fdbd c303 24bd ba74 00be
00000090: d3d6 143e 1018 1dbe d400 a5bd 0090 8a3c
000000a0: f69c 64bd 863c ffbd 5c25 803d 1267 8dbd
000000b0: e8d2 13be 3d3a eebd 24f2 0ebe 3f2c 25bd
000000c0: 5717 05be fede aa3d a57c 88bd fc08 023e
000000d0: da86 0bbd 2767 b1bd 1788 06be 8b9c f9bd
000000e0: e42a 13be 771d 3e3d a6d8 63bd 88df 10be
000000f0: 85ef 09bd 67dd debc 85fe 023e 8a1a 3d3d
00000100: 70ab b63d 6a9e bb3d ddfa 03be d11f 14bb
00000110: 19db 0abe 169f 7ebd 8456 123e 8e7e 643d
00000120: 8617 d33d 5299 633c f259 e8bd cff5 143c
00000130: d222 033d 8bc5 09bd 6cc2 983d cde0 eb3c
00000140: 6738 143e 6472 b13c 5552 6c3d eeaa 973c
00000150: 5f46 e03d 34ce 39be 69ea b6bd bbbd d8bd
00000160: 980b 21bd 9144 fabd f484 edbc a0b0 c63c
00000170: de69 7abd 8005 00be 2db6 b73d 7f82 89bc
00000180: f35a c33d e6ee a03b 7bcb 0abe d2d1 293d
00000190: 911b e43d d583 13be d61b a13d 67ab bebd
000001a0: 2c8e c0bd 02de ba3d 85c4 253e 889d dabb
000001b0: 9331 8d3d 3cde 7c3a cc96 8ebd 3295 723d
000001c0: b6dc aebd 1478 24bd 3b08 033e 80a4 da3d
000001d0: 9b45 65bd 10ec 113e d7c7 ee3b 33f8 2e3c
000001e0: 6cd2 ac3d 051e 7cbd 797a ba3d 6a8f 0e3e
000001f0: 9f53 8bbd c0a0 e63d f48d 153e a8d6 04be
00000200: 2790 6abd 2f62 62bc 265b 273e 486e b2bd
00000210: fe21 9abd 00ba 11bd 069d 9d3d 676c 88bb
00000220: 8e1c 42bd 2da8 433c fc80 923b 696a 0cbe
00000230: a378 8437 6c33 95bd 1f10 08be 3478 483d
00000240: eb9d 34be 626a ca3d ab7a 0abe 355f 09be
00000250: 416f 9d3d 2fe5 98bb b264 26bd 156b 0e3e
00000260: 4e5b 1cbe 8b3f 4ebd 358f f5bc 0ca2 633c
00000270: 286f 023e 5ec9 b7bd 350d 39bd 44d2 ec3d
00000280: 39c9 d63d 836e adbc 3a73 8a3d 30de 75bc
00000290: 1347 8b3d ee8f 98bc 89c3 1f3d f3d1 ee3c
000002a0: f6ec 143e d680 4a3d a154 0e3e 26b6 d53d
000002b0: e9d8 c53d 0ecb 0bbd 3184 68bd 7632 ba3d
000002c0: c67f e33d 38b7 36bd eb1b b13c 8558 123e
000002d0: b44f e73d b320 22bd 3966 cfbd 3f4f bd3d
000002e0: 97b3 333c 8e59 973d cdc7 133d 27c9 13be
000002f0: c656 273e 8f46 8e3c d8e4 3cbc 8de7 013e
00000300: a649 173d 0f10 8d3d 7027 c53d 9105 0a3e
00000310: fe89 78bc 4ad1 433d 984b d43d ba3b b4bd
00000320: c731 edbc a81a d2bd 9069 0f3e 661f fc3d
00000330: 257f 81bc f08c d9bd ff1a 0a3d 826d 46bd
00000340: 8919 bf3d a010 90bd d7f1 e0bd 3378 a53d
00000350: 2a78 57bd 5293 81bd 0461 053e 268a abbd
00000360: 758b 03be e98b b53c 060e 21be d966 8bbd
00000370: 852f a9bd 00be 5d3d 1516 f83d e058 21bd
00000380: facb 83bd eb07 cd3d 0da0 24be cfd0 e3bd
00000390: 1aa1 f0bc 2910 12be 7fda f63d 1f4d 583d
000003a0: 061b f9bd f899 cabd ad88 f93d f3fc 3e3d
000003b0: b2b4 2e3d d133 a1bd 3ddb ba3d 5a34 d1bd
000003c0: b64d 0fbe 2194 1b3d ae0d bfbd a17b fcbc
000003d0: 3644 e63d 4237 b83d e026 ca3d 557e 8dbc
000003e0: af1b 4dbd 2046 f1bd d3d2 a03d b51f 08be
000003f0: f375 9d3d 998d 353d e91b 063e ccea 47bd
0.09747164 0.008087161 0.080154866 -0.016721329 0.097967334 -0.1456293 -0.10693034 0.14019875
-0.15968823 0.115932904 0.07950011 -0.12132213 0.057118494 0.04795203 0.107263386 0.021203756
0.07167693 -0.06306146 -0.042736165 0.048049882 -0.09538495 -0.025691375 -0.08552009 0.07059528
-0.06904492 -0.04355028 -0.1317697 -0.0053629153 0.12824056 -0.0061194375 -0.009045185 0.04657227
-0.123159476 -0.12387286 -0.04004265 -0.12544528 0.14535074 -0.1534121 -0.080567986 0.016914368
-0.055813752 -0.12462716 0.06257126 -0.06904425 -0.14435923 -0.11632202 -0.13959557 -0.0403254
-0.12997185 0.08343314 -0.06664399 0.1269874 -0.03406415 -0.08662253 -0.13137852 -0.12188061
-0.1437183 0.04641482 -0.055626534 -0.1414777 -0.03367569 -0.027205182 0.12792404 0.046167888
0.08919418 0.091610745 -0.12888665 -0.0022601972 -0.13560142 -0.062163435 0.14290816 0.055784754
0.10307221 0.013891535 -0.11345281 0.009091808 0.03201563 -0.033635657 0.07458958 0.028793717
0.14474641 0.021660991 0.057695705 0.018514123 0.10950922 -0.18145066 -0.08931429 -0.10583063
-0.039317697 -0.12220109 -0.028994061 0.024254143 -0.06113612 -0.12502098 0.08970294 -0.016785858
0.095388316 0.0049112914 -0.13554184 0.041459866 0.111380704 -0.14405759 0.078666374 -0.09310036
-0.09402117 0.09124376 0.16188248 -0.006671611 0.06894221 0.00096461526 -0.06962356 0.059224315
-0.08538191 -0.040153578 0.12796108 0.10675907 -0.055974584 0.14250207 0.0072870064 0.0106792925
0.08438572 -0.061552066 0.09105391 0.13921896 -0.06803059 0.112611294 0.14604932 -0.1297251
-0.05726638 -0.013817354 0.16343364 -0.08712441 -0.07526015 -0.035577774 0.076959655 -0.004163313
-0.047390513 0.011941952 0.0044709425 -0.13712467 1.5791802e-05 -0.072851986 -0.132874 0.04894276
-0.17638366 0.09883572 -0.13523357 -0.13415225 0.076872356 -0.0046659927 -0.040623374 0.13908036
-0.15269205 -0.050353568 -0.029975513 0.013893615 0.12737715 -0.089739546 -0.04517861 0.115635425
0.10487599 -0.02117086 0.06760259 -0.015006587 0.06800666 -0.018623319 0.039004836 0.029152846
0.14543518 0.049439274 0.13899471 0.10435133 0.09660513 -0.034129195 -0.056766693 0.09091656
0.11108355 -0.044608325 0.021619758 0.1429158 0.11294499 -0.039581966 -0.10126919 0.092436306
0.0109681105 0.07390128 0.036079217 -0.14432202 0.16341695 0.01736763 -0.01152917 0.12685986
0.03693547 0.068878286 0.09626663 0.13478686 -0.015169619 0.047807015 0.10365981 -0.088004544
-0.0289544 -0.102589905 0.14005113 0.12310676 -0.015807698 -0.10622585 0.03371715 -0.04844428
0.09331042 -0.07034421 -0.10983627 0.08079567 -0.05260483 -0.06326927 0.1302529 -0.08375959
-0.12846167 0.02216144 -0.15728006 -0.06806726 -0.08261017 0.054136276 0.12113587 -0.0393914
-0.0643539 0.10011276 -0.1607668 -0.111238115 -0.029373694 -0.14263977 0.120533936 0.052807923
-0.121633574 -0.098926485 0.12184272 0.04662795 0.042652793 -0.07871211 0.09123848 -0.102150634
-0.13994488 0.037983064 -0.09328781 -0.03082067 0.11243479 0.089949146 0.09870696 -0.017272154
-0.05007523 -0.117809534 0.078527115 -0.13293345 0.07688513 0.04432449 0.13096584 -0.048807904

transformer.layers.0.self_attn.in_proj_bias f4 [192]
00000000: ae7b d23b 7a28 0c3b fc1d 18bb 97a0 25bb
00000010: 8406 3c3b e87d 22bc 9f69 c8bb 3129 4139
00000020: f633 97bb 6c75 73ba 342e 9f3b e0aa df3b
00000030: 7007 2e3b f060 09bc b45f 70bb 8374 58b8
00000040: 0aac 74bc 3368 9cbb fb7e be38 4508 003c
00000050: bdfb 6c3a 9e72 9a3b 614b 9e3b c52e 00bb
00000060: 9ca7 a23c a53f 5fbb f0d0 ea3b 9c88 2fbc
00000070: f89b 73bc 4583 e7bb d4cb debb 9316 343c
00000080: 97d9 c7bc 4007 b93c 7124 113b a97f 9bbc
00000090: fcc0 d9bc 4261 a63c 1c3a 7ebc 1cd6 f33b
000000a0: 2c3b cbbc 88ac d3bc 9963 cfbc 6f03 1fbc
000000b0: 52fe cc3c 374e a9bc 45c4 cf3c 23d2 e2bc
000000c0: 2c17 3137 1b72 aebb 6b27 943c cd74 01bc
000000d0: 1c38 8b3c 6a56 43bb 2cfa 01bd 15eb 10bd
000000e0: 93c3 f9b9 1cdf 7e3c 110f 533c 1df9 12bd
000000f0: 7142 95bc bc5e efb8 a397 ed3b 412e 003d
00000100: acfa 1c34 0bf4 8b31 2b46 9733 6ded 1834
00000110: b9dc ccb3 edb0 4034 642e 15b5 e7e5 91b4
00000120: aaba e9b4 53a9 af34 8c8f b734 aa1f 1233
00000130: 34b7 c534 4bed ff33 da8a 1b33 2f87 1eb4
00000140: 3141 90b3 824c c833 f4f7 a7b4 b450 2a34
00000150: 95f6 0935 c559 f2b3 a39d 03b5 868a e7b4
00000160: 818d 93b2 1065 6fb3 ed1c 7c33 cb9b a634
00000170: 9e13 e533 defe 6bb4 ed92 a9b4 49b6 c232
00000180: 2d22 da34 41b2 f7b3 d343 60b4 fc7d 9bb4
00000190: b3e2 0933 64ff 2734 832c fcb1 609a 3534
000001a0: 58ba 0fb5 c846 74b4 d286 0ab1 a02d 0eb4
000001b0: 9a17 2cb4 db0b 43b2 9f4d 3db5 ac71 3c34
000001c0: 1540 a832 5775 ed34 a17b b6b4 31dc a834
000001d0: c1ea 62b4 f27e 2334 eafd 8334 82dc 9434
000001e0: 9744 c1b4 b325 e134 ce3b 37b4 45ea cf33
000001f0: cb36 db34 2930 4fb4 e701 0b35 5d02 32b5
00000200: 0046 d0ba 042d f13a 71d8 d4ba 5532 a2bb
00000210: 3c7d 67b8 bc89 6cbb 8b46 d7bb ecb9 763c
00000220: 1f6d 8cbc d26c dabb 5441 283c 1a09 12bc
00000230: af8b 8cbb 1c75 b9bc eeff 72bc 7250 8e3b
00000240: 4353 8e3c 3d77 043c 829a 88bc 74b7 043b
00000250: 784c 5939 7257 1cbb 00d8 c7ba 8a2b c7bb
00000260: f4c5 1fbb db7c 893b 999c 27bc 290b 853a
00000270: 9c51 d93a 9003 95bb 05ba 1eba 1725 77bc
00000280: dace 543b 4a15 bb39 cd31 0abb 4f52 463c
00000290: 8178 173c 7061 16bb cdae 38bb 6fda 423c
000002a0: 064a 2b3b fe0d 033c 99ca 863b afbb 12bc
000002b0: 7877 8b3c fd83 603a ee56 42bc d66c 3abb
000002c0: b058 303c b4fc ee3b 8b84 07bb 5ef8 78bc
000002d0: 6d27 40b8 40f8 b7bb 15d2 1c3c 9dea 3439
000002e0: 48ac 3039 aaad ddba c762 b9b9 ed10 bf3c
000002f0: 1542 4e3a 5575 93bc 0890 33bc 2ba5 c83b
0.006423435 0.002138643 -0.0023211231 -0.002527272 0.0028690407 -0.009917714 -0.0061161066 0.0001842126
-0.0046143485 -0.00092872116 0.0048578028 0.00682579 0.0026554726 -0.008384928 -0.0036678137 -5.1606923e-05
-0.014933595 -0.0047731637 9.083558e-05 0.007814472 0.00090401975 0.0047133705 0.004830763 -0.0019559127
0.019855313 -0.0034065035 0.0071660206 -0.010713723 -0.014868729 -0.007065209 -0.0067992005 0.01099171
-0.024395747 0.022586465 0.0022146965 -0.018981772 -0.02658128 0.020310048 -0.015516784 0.0074412953
-0.024808489 -0.025839105 -0.025316047 -0.0097054085 0.025023613 -0.020667179 0.025362143 -0.027688092
1.0555417e-05 -0.005323661 0.018085202 -0.007901383 0.016994528 -0.0029806145 -0.031732723 -0.03538044
-0.00047638695 0.015556123 0.01288201 -0.035882104 -0.018220158 -0.00011414054 0.0072507425 0.03129411
1.4619826e-07 4.073177e-09 7.044249e-08 1.4242478e-07 -9.5396395e-08 1.7945759e-07 -5.557433e-07 -2.717563e-07
-4.3535448e-07 3.271949e-07 3.419085e-07 3.4022072e-08 3.6827407e-07 1.1917526e-07 3.6215035e-08 -1.4764076e-07
-6.717381e-08 9.3271424e-08 -3.1286584e-07 1.5861843e-07 5.13953e-07 -1.1285332e-07 -4.9030695e-07 -4.3127892e-07
-1.71774e-08 -5.573844e-08 5.869963e-08 3.1033264e-07 1.0667212e-07 -2.19788e-07 -3.1585606e-07 2.2667466e-08
4.063053e-07 -1.1534258e-07 -2.08863e-07 -2.8962666e-07 3.210398e-08 1.5645998e-07 -7.3392257e-09 1.69131e-07
-5.3542817e-07 -2.2750021e-07 -2.015828e-09 -1.3241379e-07 -1.6027334e-07 -1.13531895e-08 -7.052094e-07 1.7550218e-07
1.9586915e-08 4.4230066e-07 -3.3990094e-07 3.145265e-07 -2.1133293e-07 1.522674e-07 2.4585398e-07 2.772759e-07
-3.5998957e-07 4.1936946e-07 -1.706496e-07 9.681802e-08 4.0831796e-07 -1.9295898e-07 5.1784303e-07 -6.6313606e-07
-0.0015890002 0.0018400257 -0.0016238821 -0.0049498477 -5.5191325e-05 -0.0036092838 -0.0065696887 0.015058976
-0.017141877 -0.0066658044 0.010269482 -0.008913303 -0.0042891125 -0.02263885 -0.014831526 0.004343086
0.017373687 0.008085069 -0.016675238 0.0020250948 0.0002072322 -0.0023855832 -0.0015246868 -0.0060781883
-0.0024379464 0.004195792 -0.010230207 0.0010150421 0.0016580108 -0.004547544 -0.0006054941 -0.0150845265
0.0032471926 0.0003568328 -0.0021086812 0.012104585 0.009245039 -0.002294626 -0.0028180361 0.011892899
0.002613665 0.0079989415 0.004113507 -0.00895588 0.01702474 0.00085645897 -0.011861546 -0.002844622
0.010763332 0.007293308 -0.0020678367 -0.015195934 -4.5813085e-05 -0.0056143105 0.009571572 0.00017253538
0.00016848848 -0.0016912718 -0.00035359545 0.0233235 0.00078681234 -0.018000284 -0.010959633 0.006123205

transformer.layers.0.self_attn.out_proj.weight f4 [64, 64]
00000000: f741 adbc 0b85 f4ba 9276 85bc f002 a23a
00000010: 04bb 82bc 9028 1f3d 9774 233d b5ce 2e3c
00000020: c92e 2abd 286c 6e3c 6c3b 16bb 8f04 76bc
00000030: f4b0 173c a6ab 6c3b a6a5 1a3d cbac 833c
00000040: ee34 2abd 38d1 57bd 1de4 903c ee00 4c3c
00000050: 4a3c d1bc ba13 6a3d 762e 6bbc b4fb 6f39
00000060: 4351 ffbc c703 77bb 9ce8 bc3a 5c69 aabc
00000070: 747f 6b3c 8179 153c 351f 9c3c 36f9 723c
00000080: 956a be3b 913f 623c ea95 4ebc 835d 1cbb
00000090: 039f e73b d62e dcbc 62f0 bebc 3307 bbbc
000000a0: a775 403c f99d 103d 8dd1 403c fd6d d8bb
000000b0: fc41 1abc cd84 cabc b7c5 ebbc 3f42 90bc
000000c0: 2391 8f3c 0f62 193a d6b4 8fbb ee0f d13c
000000d0: 70d3 a6ba 1ee5 e1bb 6c95 0cbd 4bc8 813b
000000e0: 4c3b 163c aab7 123c 120d 0f3d 8a70 e3bb
000000f0: 6c27 49bc f1d6 013c 4f4b 14ba 43c2 8abb
00000100: 74ee a7bb 01e9 a83c 21f0 27bb 3f36 253d
00000110: 9fd4 babc b986 a2bc ed69 953c 8cda e9ba
00000120: 6e4a f43b 74e5 e3bc 835f 2abd 9363 f8bc
00000130: f90e 35bb 5ffe 17bc 413d b73c 9c84 27bd
00000140: e448 4fbd f320 5c3c 74a3 c83b caeb b0bc
00000150: 67cc 98bd d581 c13b 12ea 053c 21aa 03bd
00000160: 77c2 013c 71ec 21bd 0ca3 523c 2ad1 81bc
00000170: 9c0c 963b 62f0 bb3c 09a6 a5bc 3507 2fbc
00000180: c0b4 7b3b 04a3 823c cab0 1ebc c5ee 03bd
00000190: af4a 053b 6217 19bd 8a4d d4bc cb59 7f3b
000001a0: 33ad 14bc 713d 573c 5411 d53c 5da1 8ebb
000001b0: b5a3 053d 8f6d c6bc 6d67 273d b91a e43b
000001c0: 971a 263c 21c6 bfbb 4a7a 6ebc 985c 063d
000001d0: f4e2 92bc db22 6c3c f30a bd3c 6418 043c
000001e0: 4039 153d ed13 80bc 7157 543b d813 263b
000001f0: ab6b 333b d822 febc 0588 e4bc d0ff 683c
00000200: 9c5c 68bc 5e9d 32bc 9a54 cf3c 49fd 88bc
00000210: 3fd6 35ba 8122 e93b 86a7 123c d89e 45bd
00000220: b2b9 0e3d e86b ca3c 29b3 babc ee3f f53a
00000230: b336 00bb 37f5 6d3c e511 4e3c 34f7 f5bb
00000240: 35b6 33bb 5d00 b0bc 6e96 033a 5a22 503c
00000250: 82f8 2f3c 891c 613c b413 dc3c 5505 423c
00000260: afe0 b0bc 4143 5abd c252 ab38 da0f 8bb8
00000270: 206e 8cbc 217f 3e3c 81bd 233c f5ae c43b
00000280: d828 51bc 8f63 8fbb 1386 f73b 33f6 e3bc
00000290: 3b1a 6bbb 18af 8fbb 1ca9 5c3d b101 0e39
000002a0: 5465 333c e271 1e3d 9bbe 1ebc 6173 643c
000002b0: 9ee8 263c 17b3 a1bc 9e31 9eba d613 45bd
000002c0: f7af 123c 2b97 943b 95bc 6abb ca71 c2bc
000002d0: 80ec 1dbd fc74 2eba 8ca9 aabc dfaa 153b
000002e0: d20d 853c 1a33 52bc caf2 fdbc d83b a2bc
000002f0: c105 a9bc d2eb 2c3d c157 ce3c 0e47 04bc
00000300: 6d8e 65bc e606 523b 4746 cb3b 27be 85bb
00000310: b02f 41bc 38c6 97b9 68c6 cbbc 2115 b83b
00000320: 71bc f03c 5dca 00bd 58aa 5cbc f699 183a
00000330: cd62 04bd 0e51 a33c d266 4c3c 20b2 60bc
00000340: 3b62 e6bc 2172 98bc da18 a43c 4629 57bc
00000350: 7b28 cbbb 3c05 4b3d 9c53 88bb e59c bfbc
00000360: afc4 483c 0923 43bc c76c 093d cb57 9d3b
00000370: 9b24 26bb fe1c 293a be75 6b3c 2bad 543c
00000380: b4a3 cf3c 2f00 be3c 24c2 9bbc c297 fbbb
00000390: 7453 993c 038d 5b3c 080e 72bc 6712 c33c
000003a0: c294 0e3c 39e4 cc3a b51f a6bc 3d49 053b
000003b0: 5b0c e4bc 1e0a 523b 54f2 273b 68f4 393c
000003c0: 8a8b 133c eff0 f03b 8fee 4c3c ef02 96bc
000003d0: 3386 a73c 573e 9a3b 64d3 0fbc 8454 c9bc
000003e0: d440 44b9 7651 cf3c 0ee4 513c b2ea 733c
000003f0: b0ea ddbc 53e6 153d 2bf3 733a 2bb5 af3b
-0.021149619 -0.0018655373 -0.01629189 0.0012360495 -0.015958317 0.038857043 0.03990611 0.0106694
-0.041548524 0.014552154 -0.0022923602 -0.015015735 0.0092584975 0.0036113053 0.03775563 0.016073605
-0.041554384 -0.05268976 0.017686898 0.0124513935 -0.025541443 0.05714772 -0.014354339 0.00022886583
-0.031166678 -0.003769146 0.0014412585 -0.020802192 0.014373649 0.009123207 0.01905785 0.014829924
0.0058110454 0.013809101 -0.0126089845 -0.0023859448 0.007068516 -0.026877802 -0.023307983 -0.022830581
0.0117468005 0.035306904 0.011768711 -0.0066049085 -0.009415146 -0.024721527 -0.028780801 -0.017609714
0.017525261 0.00058510987 -0.004385571 0.025520291 -0.0012727808 -0.006893768 -0.034322187 0.0039606444
0.009169411 0.008954922 0.034924574 -0.006940906 -0.012277465 0.007924781 -0.0005656974 -0.0042345836
-0.0051248614 0.020618917 -0.0025625306 0.040334936 -0.022806464 -0.019839631 0.018238986 -0.0017841621
0.007455162 -0.027819373 -0.041594993 -0.030320918 -0.0027627333 -0.009276955 0.022368075 -0.04089795
-0.050606623 0.01343559 0.0061230008 -0.021596808 -0.07460862 0.0059053698 0.0081734825 -0.03214467
0.007919899 -0.03953213 0.012856256 -0.015846808 0.00457914 0.022941772 -0.020220773 -0.010682871
0.0038407296 0.015946873 -0.0096857045 -0.03221013 0.0020338704 -0.037375815 -0.02591588 0.0038963433
-0.009074497 0.013137207 0.02600924 -0.004352732 0.032626826 -0.024222163 0.04087012 0.0069611934
0.010138175 -0.005852476 -0.014555523 0.032803148 -0.017930485 0.014412607 0.02307651 0.008062456
0.03643155 -0.015634501 0.0032400752 0.0025341418 0.0027377408 -0.031022474 -0.02789689 0.014221147
-0.014182236 -0.010901777 0.025308896 -0.016722338 -0.0006936527 0.007114709 0.0089510735 -0.04824719
0.03484506 0.024709657 -0.022790508 0.0018711069 -0.0019563853 0.014523796 0.012577509 -0.0075062755
-0.0027421836 -0.021484548 0.0005019669 0.012703503 0.010740401 0.0137397135 0.026864864 0.011842092
-0.021591512 -0.053286795 8.16933e-05 -6.630989e-05 -0.017142355 0.01162699 0.009993912 0.006002302
-0.012766086 -0.004375882 0.0075538247 -0.027827358 -0.003587379 -0.0043848865 0.053872213 0.00013542805
0.0109494515 0.038682826 -0.009688999 0.013943524 0.010187296 -0.019738717 -0.001206923 -0.04811462
0.008953086 0.004534622 -0.003581797 -0.0237359 -0.038555622 -0.0006655005 -0.0208328 0.0022837443
0.016241942 -0.012829566 -0.03099956 -0.019803926 -0.020632626 0.042217083 0.025188329 -0.008073581
-0.014011008 0.0032047569 0.006203446 -0.004081506 -0.011791155 -0.0002894865 -0.02487488 0.005617753
0.02938673 -0.03144299 -0.0134683475 0.0005821282 -0.032320786 0.01993611 0.012475686 -0.013714343
-0.028123012 -0.018609108 0.020031381 -0.013132399 -0.006199894 0.04956554 -0.0041603576 -0.023390243
0.012253924 -0.0119102085 0.033551004 0.0048017255 -0.0025351408 0.00064511586 0.014371334 0.01298074
0.025346614 0.023193447 -0.019013472 -0.007678003 0.018716551 0.013400319 -0.014773853 0.023812486
0.008702459 0.001563198 -0.020278791 0.0020337843 -0.027837923 0.0032049487 0.0025626617 0.011349775
0.009005437 0.0073529403 0.012508049 -0.018311946 0.020449733 0.0047071385 -0.008778427 -0.024576433
-0.00018716167 0.025307398 0.01281072 0.014887499 -0.027089447 0.036596607 0.0009305949 0.005362173

transformer.layers.0.self_attn.out_proj.bias f4 [64]
00000000: e195 403b 9626 2fba a965 cb3b 0a82 9d3b
00000010: d9b0 023c 11fd ebbb 3960 1d3b 2276 babb
00000020: 6c0d bfbb c509 b9bb 3aad 7bbb f115 943b
00000030: 8805 0cbc 702c e13b bc1f 073c a7a5 05bc
00000040: 3ed7 8b3b 0022 083c af92 b03b 189a 9dbb
00000050: 46db 6b3b 7a17 4bbb af4f 043c ec90 0fbc
00000060: 50e0 bebb 6bc1 a1ba 2bf6 aa3b b8e4 d6bb
00000070: 5ab1 813b a536 bcbb 5f18 123c d6e2 ef3b
00000080: d401 77bb e14e 063c 05ba 26bc 8a82 983b
00000090: 183f c03b 1709 ab3a 7877 4ebb 2640 04bc
000000a0: 71e5 cf3b 0033 06bc 9f39 843b a43d bcbb
000000b0: 4362 a1bb 760b 06bc 2dd7 27bb 8f74 85bb
000000c0: 1034 b4b9 129b 623b d4eb 26ba ab44 1b3c
000000d0: 919e 63bb 9316 a4bb 793a fd39 6cf4 aebb
000000e0: ce5a d5bb b20f db3b 0bdf 723a 652b c9bb
000000f0: 7daf 4abb 402b 17bc 1fed 0bbb c572 193c
0.002938621 -0.000668147 0.006207187 0.0048067616 0.007976734 -0.0072017987 0.0024013652 -0.005690352
-0.0058304574 -0.0056469166 -0.0038402812 0.004519217 -0.008546241 0.0068717524 0.008247312 -0.00815717
0.004267602 0.0083088875 0.00538858 -0.004809629 0.0035988851 -0.0030989335 0.008075639 -0.008762579
-0.00582508 -0.0012340968 0.005217334 -0.006558027 0.0039579095 -0.005743819 0.008916943 0.007320742
-0.0037690299 0.008197517 -0.010176186 0.0046542333 0.0058668964 0.0013048974 -0.0031504314 -0.008071935
0.00634449 -0.00819087 0.0040351893 -0.005744653 -0.004925044 -0.008181443 -0.0025610432 -0.0040727328
-0.00034371065 0.0034577292 -0.00063675386 0.009476821 -0.0034731964 -0.005007574 0.00048299486 -0.005339196
-0.006511069 0.0066852206 0.00092648034 -0.0061392062 -0.0030927353 -0.00922662 -0.0021351052 0.009365742

transformer.layers.0.linear1.weight f4 [128, 64]
00000000: 8d50 633d e65e f8bc c5d9 573d e4a2 b439
00000010: 38f3 7dbc f01d 1bbc d327 9abb d554 463c
00000020: 7567 0cbc 5a2c 9fbc aad4 8d3c 801c dc3c
00000030: fa86 6dbd ed60 223d ac93 483d 1c93 2a3d
00000040: c396 fd3c 0c81 5bbc 057a f3bc 5f13 d5bc
00000050: 892f 523d 4b1a 8ebb eb17 1e3d 77a5 90bc
00000060: b368 54bd 8d28 403c 5f0c 02bc 98ab 20bd
00000070: 0b0f 85bd 0ae6 bcbb 23f5 453c 907d c2bc
00000080: 6022 8fbc 13d0 2d3d 59bb d9bc 64f0 1e3d
00000090: ec17 ab3c f31a d3bc 6824 83bb 3201 5f3b
000000a0: 5beb 7b3c 3516 2c3b 867f 113d f734 973b
000000b0: 2b02 07bd 7bfb 953b 2aec 1fbd e1fc 94bb
000000c0: b366 313d 1b56 d13b 4f1b 093d 787f ce3c
000000d0: 396f 30bd 508d 223c 3f43 363c 41a7 d6bc
000000e0: 08a3 c3bb 6fc1 2abc 0755 a6bb e2e7 8abc
000000f0: 2b79 f7bc ed68 34bd 9eab fd3c ccf0 febb
00000100: ef8d 4e3c afa5 75bb b092 1d3c 6e8b 283d
00000110: 00be 2d3c 6adf 1dbd 702c 1f3d a00c 31bd
00000120: fbf2 e9bc 153c 9bbc c123 da3c 2735 3e3c
00000130: b4af 74bd 3c19 2e3d 2e55 1cbc 96fc 5d3b
00000140: f7e4 033d ffd0 473c ce80 09bd 3bb6 e8bc
00000150: 3d26 3c3c d87e b4bc 562f 543d c7f7 48bd
00000160: 3515 aebc b0e2 66bc 4ba5 be3c 8705 553c
00000170: d35d 29bd 63c3 74bc c8fa 82bc 409e a5ba
00000180: 4bda 8cbc 8688 d63c bff0 8dbd cbcd f43c
00000190: 17e8 b63c ac65 05bd 5893 20bc a59b 563b
000001a0: 4543 bb3b 82e4 373b c694 e2bb 9b15 1f3d
000001b0: 3234 d1bc 3f94 e2bc 1b6c 1fbd 9af4 c0b7
000001c0: efa0 19bd cec5 0bbd 5a64 533d d64a 31bc
000001d0: 0810 8cba 22f1 973c 51c5 d9bc 3ccf 90bd
000001e0: 424a 5bbd 2f56 3dbc 969d 853c 14f3 6a3d
000001f0: b4ca 443c d1fc a33c 881c fc3c b696 15bd
00000200: 2580 373c 862c 8f3c 6fda 953c fde8 f2bc
00000210: 9659 a6bc 2ea0 d1bc 5bd8 6d3c 3a03 823c
00000220: 2152 8bba 75f9 06bb cd33 613d 8cc9 55bb
00000230: c356 c7ba 4d4f 0d3c 7a77 01bd b566 dbbb
00000240: d60b 903c acc2 6cbc 1e0c 4cbd 777d a43c
00000250: d309 18bd 4ca1 643d 37ad 43bb 04d6 8fbc
00000260: b6d2 bcbc 0eaf 783c bfdd f8bc 2e08 f43c
00000270: b047 a4bb 00f5 c3ba 2ac8 2cbd 29b0 ac3d
00000280: 7234 11bc 7963 73bd d6f1 a7bc 1762 813b
00000290: 6d19 19bd 7862 e93b 212d 88bb 0b3d 8dbc
000002a0: 94a1 b8bb 7ea4 d83b 263b 1ebd e8c7 a3bc
000002b0: 0186 273c 11e5 1c3c d4a6 54bc ba1c e43c
000002c0: 2a69 643c 8853 3abb 9d8f 6fbc 0af2 753c
000002d0: 37ad 023d 6611 69bb b850 043d 88e4 a03c
000002e0: f52a 4fbc 34d3 3a3a 765f dabc 285a 2ebb
000002f0: e5a8 babc 3031 053d 4b57 27bd 524d 103c
00000300: d67e 143d ca35 4a3c 3b6d 5a3d 2e57 e1bb
00000310: e188 3a3c 2872 a0bc 4c2e 6a3d 62b6 ffbc
00000320: 7d54 57bd 2e3f 40bd 7dee bcbc 7bbc 3b3d
00000330: 0492 e8bc ef27 ef3b d609 d23b a4f3 eebc
00000340: 989a c0bc 2177 d739 d8df 5d3d ce69 943a
00000350: a623 2dbc 06f7 94ba bf5b d63c 5515 6cbd
00000360: 168b 55bd 074f 84bc bc45 fd3c 7d5e e53c
00000370: 2ec5 a9bc ed95 27bc 0217 853c 425a 2bbd
00000380: 2c61 f0bb cf62 aebc 76eb c2bc 696c 133d
00000390: 39e3 363d a446 c0bc 9435 adbb 7cff c63b
000003a0: c5ab 64bc d9bf d4bc 1d8c 5b3c 4d75 493d
000003b0: a109 1bbc 81cf 3c3a 7545 2bbd e12e 6abd
000003c0: 9d87 55bd ed15 b9bc 6679 273d 529e b53c
000003d0: d471 0ebd 4fee 1a3d fcb6 2dbc 84a7 a43c
000003e0: 3699 65bc 2493 8cbc e37c fb3c ef65 e7bc
000003f0: 718a 143d 8eb3 d4bb c060 2a3d eab6 bb3b
0.05549674 -0.030318689 0.052697916 0.00034453638 -0.015499882 -0.009467587 -0.0047044544 0.0121051865
-0.008569588 -0.019430328 0.01731332 0.026869059 -0.05799005 0.039643217 0.048968956 0.0416442
0.030955678 -0.013397466 -0.02972127 -0.026010213 0.051314864 -0.0043366305 0.03859703 -0.017657025
-0.05185766 0.011728418 -0.00793752 -0.039226145 -0.0649701 -0.0057647275 0.012082371 -0.023741513
-0.017472446 0.042434763 -0.026578592 0.038803473 0.02088543 -0.025769686 -0.0040021427 0.0034027812
0.015375937 0.0026258354 0.035522006 0.004614468 -0.032961052 0.004577098 -0.039043583 -0.004546747
0.043310832 0.0063884384 0.03347331 0.025207266 -0.04307482 0.009921387 0.011124431 -0.0262028
-0.0059703626 -0.010422095 -0.005076054 -0.016956273 -0.030209145 -0.044045378 0.030965623 -0.00778017
0.012607082 -0.0037482788 0.009617493 0.041148596 0.010604382 -0.038543142 0.03886074 -0.04322493
-0.028558245 -0.018949548 0.026628377 0.011609352 -0.059737876 0.042504534 -0.009541793 0.0033872477
0.03220078 0.012195825 -0.033570103 -0.028407207 0.011483726 -0.02203314 0.051802956 -0.049064424
-0.021250347 -0.014092132 0.023272177 0.013001806 -0.041349243 -0.014939162 -0.015988722 -0.0012635663
-0.017193934 0.026188146 -0.06930684 0.029883286 0.022327466 -0.032567665 -0.0098007545 0.003274658
0.0057148063 0.0028059785 -0.006914708 0.038838964 -0.025537584 -0.02765858 -0.038921457 -2.3002085e-05
-0.037506994 -0.034124188 0.051609375 -0.010821065 -0.001068593 0.018547598 -0.026583346 -0.07070777
-0.053537615 -0.011556192 0.016310494 0.057360724 0.012011219 0.020018013 0.030775324 -0.036520682
0.011199986 0.017477285 0.018292634 -0.029652113 -0.02030639 -0.025589075 0.014516915 0.01587068
-0.0010629335 -0.0020595465 0.05498104 -0.0032621352 -0.0015208352 0.008624864 -0.031608082 -0.0066955932
0.017583769 -0.01445071 -0.049816243 0.020079358 -0.037118744 0.055817887 -0.0029857883 -0.017558105
-0.023049694 0.015178455 -0.030379174 0.029789057 -0.0050134286 -0.0014950335 -0.04218308 0.084320374
-0.008862602 -0.059421036 -0.020501059 0.003948461 -0.037377764 0.007122334 -0.0041557704 -0.017241022
-0.005634496 0.006611406 -0.038630627 -0.019992784 0.01022482 0.009576098 -0.012979228 0.02784573
0.013941089 -0.0028431136 -0.014621642 0.01501132 0.03190347 -0.0035563349 0.032303542 0.019640222
-0.012644519 0.00071268086 -0.026656847 -0.002660403 -0.022785613 0.032517612 -0.040854733 0.008807497
0.036253773 0.012341926 0.053326827 -0.0068768477 0.011385174 -0.019585684 0.05717306 -0.031214897
-0.05257081 -0.046935253 -0.023062939 0.045834046 -0.028389938 0.0072984616 0.006409864 -0.029168911
-0.023511216 0.00041096754 0.054168552 0.0011323036 -0.010567581 -0.0011365123 0.026166795 -0.05763753
-0.052134596 -0.016150964 0.030917041 0.027999157 -0.020723905 -0.010228616 0.016246323 -0.041834123
-0.0073358025 -0.02128735 -0.023793917 0.03599206 0.04465029 -0.023471184 -0.005285928 0.0060729366
-0.013956969 -0.025970386 0.013400105 0.049184132 -0.009462745 0.00072025514 -0.041814286 -0.057173613
-0.052131284 -0.022593463 0.04088726 0.02217022 -0.034776524 0.037824925 -0.010602709 0.020099409
-0.014013579 -0.017160006 0.030699199 -0.028246848 0.03626484 -0.006491131 0.041596174 0.005728592

transformer.layers.0.linear1.bias f4 [128]
00000000: 9a7d 18ba 2a51 e63b e8fc 08bc 6555 053d
00000010: 75a7 543b 96f6 b23b 4bdf d03b d604 d83b
00000020: 9bfe 523c dcb5 e23b d049 9c3c 36e9 48bc
00000030: 7b71 a73b 890f 993a ce37 393c b4af 4a3c
00000040: 8347 fa3b 60f8 0a3c a3a5 f63b d65b ad3c
00000050: 4111 9e3b 9d66 913c 0d33 fa3b 3052 d33b
00000060: 3dd8 603c c705 fc39 45c9 74ba 47b8 2abc
00000070: be79 a63b 8adf 203b 93fa 30bc b088 f03b
00000080: 4115 f839 a292 d2bc d25a 9fbb 33f8 b53b
00000090: 31e1 21bc 81e3 e93b 6b2e 11bc c688 e6bb
000000a0: 9990 213b 38dc 323b d561 593c 6d30 4b3c
000000b0: c7dc 553c 94e1 833b a54a 85bc 7bf8 1c3b
000000c0: d726 6e3c 81da 2b3c 5e29 8c3b 77b3 b7ba
000000d0: 3555 973c c9c7 9f3c a968 d93b df3f 2c3c
000000e0: 5236 013c 79ae 903b 3b27 903a 7008 df3b
000000f0: 7e56 613b 28b8 2e3c 4df6 b53b 0a19 2ebb
00000100: 39ff 153c 3a8e 9fbb 8573 a23b 25e7 e7bb
00000110: fb0c 9f3c b945 e93b c9bc bc3b 9caa f3bb
00000120: 8675 dd3b a458 0dba 3cc6 bcba f588 583c
00000130: 0cfb c23b 0b36 653c 0caf aa3b b979 0e3b
00000140: dc2d 9cbc b689 033a e9c6 9f3b 0587 7e3c
00000150: eff0 2d3c a908 f43b e106 3dbc 72d5 d13b
00000160: c74b 153c 4063 aa39 58a9 cb3b c46d 643b
00000170: 43be 73bc 6450 873c ac50 3f3c b8a1 2c3b
00000180: 8e45 203a 3deb 1d3c ce92 9e3b 6b5d 25bc
00000190: 7d67 80bc be92 303c e251 94bc 4b26 b43a
000001a0: 4799 cf3b 4159 873c 25ce 84bc b930 c93b
000001b0: c6b1 f63a c375 50bc ee63 ebbb 40b1 30bb
000001c0: c7a3 a4b9 4ee1 a63c 2c65 a039 a3d2 493c
000001d0: a8fb 293b b92b 1c3c 235c db3b e3da 823a
000001e0: f531 803c c3f2 ad3b b8cd 8d3a d1bc 583c
000001f0: c8f7 3a3c 187e 6b3c d414 39bb 8b3a 683c
-0.0005817056 0.0070287185 -0.008361079 0.03255214 0.0032448445 0.0054615242 0.006374275 0.0065923734
0.0128780855 0.006918652 0.019078165 -0.012262633 0.0051099635 0.0011677603 0.011304809 0.012370992
0.0076379194 0.008482069 0.0075270697 0.021161955 0.004823834 0.017749125 0.0076354803 0.0064490065
0.01372343 0.0004806949 -0.0009337853 -0.010419912 0.005080431 0.0024547302 -0.010801929 0.007340513
0.00047318081 -0.025704686 -0.0048631215 0.0055532693 -0.00988035 0.0071377163 -0.008861165 -0.0070353476
0.0024652837 0.0027291905 0.013267954 0.012401682 0.013053126 0.0040246937 -0.016270945 0.0023951817
0.014535627 0.010489107 0.0042773923 -0.0014015277 0.018473247 0.019504445 0.006634791 0.010513275
0.007886486 0.00441533 0.001099802 0.0068064258 0.0034383829 0.010664023 0.005553043 -0.0026565217
0.009155088 -0.0048692496 0.0049576187 -0.007077115 0.01941537 0.0071189073 0.0057598096 -0.0074361097
0.0067583947 -0.00053919316 -0.001440234 0.013216247 0.0059503373 0.013989936 0.0052088555 0.0021740033
-0.019064836 0.0005017774 0.004876007 0.015535121 0.010616525 0.0074473214 -0.011537285 0.0064036185
0.009112305 0.00032498874 0.0062152557 0.0034855464 -0.014876905 0.016517825 0.0116769485 0.002634151
0.000611388 0.009638605 0.004839278 -0.010093073 -0.015674347 0.010777174 -0.018105451 0.0013744322
0.0063354108 0.016522052 -0.016211579 0.0061398414 0.0018821291 -0.012723389 -0.0071835434 -0.0026961118
-0.0003140254 0.020371106 0.00030592957 0.012318286 0.0025937352 0.009531909 0.006694333 0.0009983446
0.015648821 0.0053084805 0.0010818755 0.013228611 0.011411615 0.014373325 -0.0028241174 0.014174114

transformer.layers.0.linear2.weight f4 [64, 128]
00000000: 7447 1f3d f692 783d db21 523c d112 613b
00000010: 38af 7abc 72a0 a93b 0837 b13c 4b59 0e3d
00000020: 1335 7c3c 440c 14bd e76c 123d 3e0a 983c
00000030: 127c fb3c 26dd dcbc 551f 123d 69d2 ee3c
00000040: f4c6 473c bf08 84bb c3cd 343d 2a3f 1e3d
00000050: f66a 143d 4e54 be3c ec02 143d 8299 183d
00000060: 378e 683d 1105 e6bc b184 113c 15ff 81bc
00000070: 2afd 383c 7947 d23b 957e 123d 1dd0 273b
00000080: d6ae 9fbc 8e84 27bd 02c8 70bc dd79 b63c
00000090: 2eb8 1b3a c5cd 95bc e953 25bc 3f79 45bb
000000a0: 171b 483b 32ab 4abd 0f21 343d 904a b73c
000000b0: 3fe7 953c 4f59 4fbc ead6 fa3b c58d aabc
000000c0: 47e9 843c e2e4 9ebc ecec d2bc 4689 0e3d
000000d0: 1f39 a23c a3cf a03c 8a07 32bc 4670 0abd
000000e0: 99c6 df3b 1ad5 783b 23c0 093d 4214 af3c
000000f0: 30e6 3c3c 1e73 fb3c 4bef 003d a68d 9cbb
00000100: f5f0 123d ea41 8ebd cc4f 4f3c 8eae a7bc
00000110: 3961 e03c 4a4c b3bc 96b0 553c 319d ec3c
00000120: 353e 09bc c89f 3abc 65c0 f23b 06fe 373d
00000130: 93f2 563c 6706 c13c d664 43bd 562b 3e3d
00000140: 5382 b33c dba2 853c d2af f23b 54f9 923c
00000150: 2437 303d ecc1 203c 593f 2abc 72cf df3c
00000160: 9b3e 95bc 9974 413c 789c 413d 533b 8ebc
00000170: 1d96 193d 635c af3c c267 133c 7bc4 dbbb
00000180: 5ff0 7bbc 2c46 6f3c 644a a43d 0622 a93b
00000190: 587d 603b eada ec3c 42f2 3c3d 69e8 a3bc
000001a0: 29d2 293d dd68 a13c 612c 053d 1420 5d3c
000001b0: 6845 58bd 6b96 633c c71d eebc 339f a7bb
000001c0: 41fc 033d 2df6 953c 3674 49bb b847 c13b
000001d0: 5e5a 50bd f352 7a3c 518c 813b 2f67 d1b9
000001e0: 5e82 453c f2b6 edbc 1c9d dc3a 7112 2e3d
000001f0: 3547 c2bc 03c1 6fbd 6913 043c 9474 e93c
00000200: 7509 3abd a467 f0bc cec4 f33c ff66 99bc
00000210: 1758 39bc bfc0 d6bc 873e 00bd f810 33bd
00000220: 737a 97bd 945d 98bc 5661 f0bc 9465 c9bc
00000230: 42a1 abbb 9512 d13b 18a6 08bd 7c86 63bc
00000240: f1f6 35bc de9b 1fbb d9be 54bc ed65 85bc
00000250: 58a9 72bd 3d77 4fbd 590d 90bc 2a42 c9bc
00000260: badb 5ebb e63b e4bc 3272 16bc 3ba8 843d
00000270: 92c0 a83c 99f8 f7bb 09eb 273c ea92 44bd
00000280: 3178 4a3c 4b6e e6bb b54b 15bd 4e01 533b
00000290: 8962 273c a627 03bd a773 083d 5488 69bc
000002a0: 281a f33b 1877 cc3c 411b f9bb fa38 2dbd
000002b0: 2654 18bd 7fb8 43bd f6d5 bcbc 2896 113d
000002c0: 70c1 32bd b47a 86bc 24f3 3dbd 6a73 07bc
000002d0: 8611 70bc aec6 f8bc e4d1 95bc 2ec2 91bb
000002e0: 0739 a2bb 9bbb 18bd ac09 18bd a161 debc
000002f0: 4231 ddbc bcd2 aabc 575e 91bc 8047 4cbc
00000300: c6f5 bd3c fcca 4e3c 79a4 e23b fdf4 b93c
00000310: e122 0e3c 5028 d73c 12ca d5bc bc94 453b
00000320: f048 a03c 594d 01bd 77f3 08bd 7993 abbc
00000330: 79d0 d439 7a47 ffbc 292d 98bb 6b5c 5fbc
00000340: b7b7 9a3c 290d dc3c 6daf 27bb 3f0f f5bc
00000350: fd6d bdbc e0be 6ebd db12 3e3d ecf3 29bd
00000360: 86e1 49bc c688 bfbb 2261 f7bc 223a 3ebd
00000370: 9dca 4abc c092 e8bc a067 2dbb 520c 65bc
00000380: 4de9 d2bc 8a32 33bb a8ed 1bbd c6a4 acbc
00000390: 7b2f 2d3d bd3b c5bc 920c 453b f6f3 e1bb
000003a0: bdee 11bc fc92 3cbc 94d8 a3b8 ddff adbb
000003b0: 56ae be3c 001f 463c 0b5c 273d a7a1 da3c
000003c0: 6489 b4bb 7083 1ebd 1e5b 9c3c da77 2fbd
000003d0: a6ca 8e3c f44f 403c b366 a3bc 5261 55bd
000003e0: 4f90 f9bc 31c9 c5bb 81b7 e23c 589d b7bc
000003f0: bc50 b8bc 594a 1bbc 474f 0e3d ca8a 64bd
0.038886502 0.060687028 0.012825455 0.003434349 -0.0153005645 0.0051765973 0.021632686 0.034753125
0.015393513 -0.03614451 0.03574839 0.018559571 0.03069881 -0.02696092 0.03567441 0.029153066
0.01219343 -0.004029363 0.044141542 0.038634457 0.03623482 0.023233559 0.0361356 0.03725577
0.05677625 -0.028078588 0.008881734 -0.015868703 0.011290828 0.0064172116 0.03576525 0.0025606223
-0.019492548 -0.0408979 -0.014696123 0.022274906 0.00059402257 -0.018286595 -0.0100908065 -0.0030132083
0.0030533725 -0.04947967 0.04397684 0.022374421 0.018298743 -0.01265557 0.0076550143 -0.020819554
0.016224517 -0.01939625 -0.025747739 0.034798883 0.019802628 0.019630259 -0.010866055 -0.03379848
0.0068290946 0.0037968815 0.0336305 0.021371964 0.01152949 0.03069454 0.031478208 -0.004777628
0.035874326 -0.06946166 0.012653302 -0.020468976 0.02739011 -0.021886963 0.01304259 0.028883548
-0.008376648 -0.011390634 0.007408189 0.04491999 0.013119358 0.023562623 -0.047703587 0.046428047
0.02191273 0.016313007 0.0074062133 0.017941155 0.043021336 0.00981186 -0.01039108 0.027320597
-0.01821833 0.011807584 0.04726836 -0.017362272 0.037496675 0.021406358 0.008996906 -0.006706772
-0.015377133 0.014604133 0.080220014 0.0051615266 0.0034254398 0.02891298 0.046129473 -0.020008283
0.04146019 0.019703323 0.032513026 0.013496418 -0.052800566 0.013890843 -0.029066933 -0.0051154136
0.03222299 0.018305862 -0.0030739433 0.005898442 -0.05086743 0.015278566 0.0039534946 -0.00039940464
0.012055008 -0.0290179 0.001683149 0.042498056 -0.023715595 -0.05853368 0.008061268 0.028497972
-0.045419175 -0.029346295 0.02975693 -0.01872587 -0.011312506 -0.026214955 -0.03130963 -0.043717355
-0.07396402 -0.018599309 -0.029343288 -0.024584569 -0.0052377293 0.006380389 -0.033361524 -0.013887044
-0.011106239 -0.0024354379 -0.012984955 -0.016283954 -0.05924353 -0.050650824 -0.01758449 -0.024567682
-0.003400548 -0.027860593 -0.0091825 0.064774 0.020599637 -0.007567477 0.010248908 -0.04799167
0.012357757 -0.007032191 -0.036449153 0.0032196823 0.010216364 -0.032020234 0.03331342 -0.014253695
0.0074188896 0.024959132 -0.007602126 -0.042290665 -0.037189625 -0.04778337 -0.023051243 0.03554359
-0.043641508 -0.016415931 -0.046374455 -0.008267263 -0.014652615 -0.030368175 -0.01828856 -0.004448197
-0.004950646 -0.03728829 -0.0371186 -0.027146162 -0.027001027 -0.02085244 -0.01774518 -0.012468219
0.023188483 0.012621637 0.0069165793 0.022699827 0.008675308 0.02626434 -0.026097331 0.0030148467
0.01956603 -0.031567905 -0.03343531 -0.020944344 0.00040591115 -0.031162012 -0.0046440554 -0.013632874
0.01888643 0.026861744 -0.002558674 -0.029914496 -0.023123736 -0.0582875 0.0464047 -0.041492388
-0.012321835 -0.005845162 -0.030197684 -0.04644216 -0.012377408 -0.028390288 -0.002645947 -0.013979988
-0.025746012 -0.0027343356 -0.038068444 -0.021074664 0.04228161 -0.024076337 0.0030067307 -0.0068955375
-0.008907017 -0.011509653 -7.8127865e-05 -0.0053100423 0.02327649 0.012092352 0.040859263 0.02668841
-0.0055095423 -0.038699567 0.019086417 -0.04283891 0.017430615 0.011737812 -0.019946432 -0.052094765
-0.03046432 -0.006035947 0.027675392 -0.022413895 -0.022499435 -0.009478175 0.034743574 -0.055796422

transformer.layers.0.linear2.bias f4 [64]
00000000: 452f c03b 475f 48bc 970d 0e3c f537 5a3c
00000010: 0f0a 113c 920f 2cbc ff1f 8c3b 539f 26bc
00000020: 9b2e 26bc fa6d 1ebc a8bd c1bb 5880 943b
00000030: a8d0 36bc 8a49 183c 6253 513c 3747 0abc
00000040: 1c75 7839 87b8 263c d412 a83b 4021 f4bb
00000050: c4e8 2c3c 5e42 2fbc 45a7 6b3c 134c 3fbc
00000060: 8b24 55bc c21d d8bb c2cb 243c 2c57 67bc
00000070: 7303 efbb f67b 69bb d4c9 393c 25fc e33b
00000080: d4c9 18bc c945 f73b 7c96 60bc 89ca 3b3c
00000090: 72e4 973c df4c 05bb 2b73 f6ba da9c 01bc
000000a0: eafe 6c3c cefa fbbb d8f9 213c 6ee1 72bb
000000b0: 1521 c4bb b8b2 0ebc fd19 2bbb abc6 b0bb
000000c0: dbf2 5e3b b464 58bc 8659 7c3b c386 3d3c
000000d0: fb22 14bc 3439 07ba 1a8c 10bb 8fe3 08bc
000000e0: 23be 02bc cd3c 373c 2cae c73a 22ce 07bc
000000f0: bbc5 1bbc 9c24 4dbc ef66 91bb 7702 493c
0.00586501 -0.012229747 0.008670232 0.013319005 0.008852496 -0.010501759 0.004276275 -0.010169822
-0.010142948 -0.009669775 -0.0059125014 0.0045319013 -0.011158146 0.009294877 0.012776228 -0.0084398305
0.0002369475 0.010175831 0.0051291976 -0.007450253 0.0105535425 -0.0106969755 0.014383142 -0.011675852
-0.013009201 -0.0065953443 0.010058345 -0.0141199045 -0.0072941124 -0.0035626865 0.0113396235 0.006957548
-0.009325463 0.007546161 -0.013707753 0.011461862 0.018541548 -0.0020340008 -0.0018802633 -0.0079109315
0.014465073 -0.0076898104 0.009886228 -0.0037060636 -0.005985389 -0.008709602 -0.002610802 -0.005394777
0.0034019265 -0.013207603 0.0038505509 0.011567774 -0.009041543 -0.0005158365 -0.0022056163 -0.008355035
-0.007979902 0.01118393 0.0015234402 -0.008288892 -0.009507592 -0.012520935 -0.0044373195 0.012268654
