marble_model/best_model_v3.0_20250531_012523.pt (torch, 295593 bytes, 30 tensors)

token_embedding.weight f4 [13, 64]
-0.013580409 0.004969337 0.018095236 -0.0160086 0.031511854 -0.030264474 0.0056149 -0.009511312
0.009825644 0.025063336 0.013439217 -0.01466743 0.029760594 -0.026325379 0.012799774 -0.043741964
0.018907333 0.012434018 -0.014806331 0.018242087 0.02214759 -0.025494277 -0.004976435 0.017320829
0.018918974 0.0016843459 -0.034922488 0.007963535 0.0130252205 0.004178097 -0.012685246 0.022848522
-0.02843312 -0.0051417667 0.00018171749 0.028599849 -0.008265999 0.00197219 -0.020284856 -0.00883165
-0.022159273 -0.00030690964 0.017091695 -0.001192737 -0.001280624 0.0102504045 0.01837197 1.0563177e-05
0.0049127955 0.030371722 0.027907057 -0.01922228 0.00041283888 -0.010323752 -0.017972795 0.02434792
0.032295287 0.02167783 0.0233862 0.0106397495 -0.016853822 0.00032082677 -0.003078447 0.037068028
-0.036963936 -0.03877194 -0.00944283 0.0070267743 0.034791723 -0.0042093145 -0.032216564 -0.023112599
0.027305499 0.0070137316 -0.024249826 0.0002752516 -0.013571095 -0.0089925295 -0.042599745 0.0046363575
0.06539873 0.017590633 0.008483052 -0.012782524 -0.008718083 0.00046063185 -0.008894092 -0.015132133
0.021837102 0.017197162 -0.030768255 0.00957464 -0.0012164158 0.011660025 -0.015270927 0.022983722
-0.02804527 0.026631264 -0.05008023 -0.046449646 -0.030097054 -0.02195919 0.039623544 -0.05736616
0.012959085 0.013639316 -0.029205935 0.021496853 0.031296965 -0.028340599 -0.00040388625 0.02139447
0.038465563 -0.027393427 0.00041296787 0.040891297 -0.015881028 0.040026575 -0.04248463 -0.010176678
0.028811486 -0.024168508 -0.038800634 -0.0029772574 0.013931883 0.0025944577 -0.01485001 0.0069837347
0.0042218226 -0.028371813 -0.010436492 -0.0092708 0.0049679335 0.0026112304 0.014543334 0.009066258
-0.014767332 0.008770632 0.01751998 0.029268563 0.028252313 -0.010372153 -0.022915866 0.02495788
-0.027045924 0.00033583443 0.0055164606 0.016735762 -0.016057093 -0.01768355 0.04116773 -0.0018253264
-0.017087562 0.023465805 -0.0055778604 0.01323035 0.013391632 0.00074586977 0.004991803 -0.0026243075
0.016709127 0.019925244 0.0038114658 0.028359344 0.018321756 -0.017846582 0.022843203 -0.044156186
0.016151465 -0.03117267 -0.026624365 0.011593917 -0.02936113 -0.011312774 0.0056242417 -0.0104847085
0.023282902 0.019587388 -0.003381806 0.0050680325 -0.0105527 0.024052637 -0.04875926 0.004994698
-0.026233682 0.019107865 -0.017417584 -0.03598443 0.002354938 -0.06494294 -0.018150164 0.009882068
0.010185704 0.014682034 -0.0031879162 0.011555751 -0.026726278 0.0060122972 0.0034334774 -0.0020197148
0.0069271973 -0.017806176 0.011589654 0.006275402 0.01425434 0.025292763 -0.0016562312 0.009398748
-0.010726463 0.0016523176 -0.013297213 0.005204123 -0.03337304 -1.1150191e-05 0.005396128 0.028727181
-0.003979372 -0.012135636 -0.00045053402 -0.009413836 -0.015982796 -0.036109462 -0.021884955 -0.0036731858
0.0057408265 -0.03898007 -0.012246141 0.03218707 0.023391811 -0.011519071 0.0020560357 0.0029932507
-0.0062072817 -0.0027143261 -0.0003075046 -0.0056117456 -0.013445318 -0.010001535 -0.020240827 -0.021528834
0.009528205 0.0038757657 0.02176856 0.00968845 -0.0030127252 -0.0053188344 -0.0034832603 0.016594004
-0.015204085 -0.014495873 0.0027440297 -0.014151119 0.011307283 -0.0076197223 -0.0033625404 -0.0071279346
00000000: 5d80 5ebc d2d5 a23b 763c 943c 7824 83bc
00000010: 9312 013d 34ed f7bc 32fd b73b 55d5 1bbc
00000020: bdfb 203c a051 cd3c 2930 5c3c a94f 70bc
00000030: 7dcc f33c 52a8 d7bc 25b6 513c c62a 33bd
00000040: 8de3 9a3c 0db8 4b3c 4196 72bc 6e70 953c
00000050: dd6e b53c 60d9 d0bc 5d11 a3bb 69e4 8d3c
00000060: f7fb 9a3c 45c5 dc3a e20a 0fbd 7d79 023c
00000070: bc67 553c 6be8 883b c7d5 4fbc d32c bb3c
00000080: 93ec e8bc 447c a8bb 6b8b 3e39 3b4a ea3c
00000090: 1d6e 07bc dc3f 013b 6d2c a6bc a0b2 10bc
000000a0: 5d87 b5bc b7e8 a0b9 e203 8c3c 9d55 9cba
000000b0: 9cda a7ba 50f1 273c d080 963c 8038 3137
000000c0: 84fb a03b 1ece f83c 579d e43c 0b78 9dbc
000000d0: 4c72 d839 f424 29bc af3b 93bc 4a75 c73c
000000e0: 1048 043d b495 b13c 6b94 bf3c 5852 2e3c
000000f0: 0711 8abc a434 a839 c5bf 49bb a5d4 173d
00000100: 7f67 17bd 53cf 1ebd 1ab6 1abc db40 e63b
00000110: c481 0e3d 4aee 89bb 84f5 03bd a256 bdbc
00000120: c8af df3c 72d3 e53b 92a7 c6bc a54f 9039
00000130: 4c59 5ebc 6755 13bc 127d 2ebd 96ec 973b
00000140: c5ef 853d 3b1a 903c 80fc 0a3c cb6d 51bc
00000150: 4ad6 0ebc f680 f139 87b8 11bc c4ec 77bc
00000160: b9e3 b23c 10e1 8c3c b50d fcbc f3de 1c3c
00000170: 2470 9fba b109 3f3c e932 7abc 5c48 bc3c
00000180: 32bf e5bc cf29 da3c ed20 4dbd fc41 3ebd
00000190: 198e f6bc c2e3 b3bc 4c4c 223d c7f8 6abd
000001a0: 5852 543c 7077 5f3c 4941 efbc 2b1a b03c
000001b0: 3f31 003d 8b2a e8bc b2c0 d3b9 7543 af3c
000001c0: 118e 1d3d 2e68 e0bc 9c83 d839 a27d 273d
000001d0: ee18 82bc e8f2 233d 5d04 2ebd 15bc 26bc
000001e0: 1106 ec3c 09fd c5bc 6aed 1ebd 171e 43bb
000001f0: 8d42 643c c707 2a3b 754d 73bc d0d7 e43b
00000200: 3757 8a3b 016c e8bc d2fd 2abc 8ee4 17bc
00000210: 0cca a23b 2d21 2b3b 2a47 6e3c a48a 143c
00000220: aef2 71bc b2b2 0f3c 1086 8f3c a0c4 ef3c
00000230: 6571 e73c f6ef 29bc 0eba bbbc 7874 cc3c
00000240: 6a8f ddbc ef12 b039 6dc3 b43b 7019 893c
00000250: 2a8a 83bc 18dd 90bc 7e9f 283d ca3f efba
00000260: 37fb 8bbc 5c3b c03c 7cc6 b6bb 1cc4 583c
00000270: 9368 5b3c 7986 433a 4792 a33b 93fc 2bbb
00000280: 94e1 883c 443a a33c c9c9 793b db51 e83c
00000290: 8217 963c ff32 92bc ab21 bb3c 1edd 34bd
000002a0: 1450 843c d45d ffbc 571b dabc 6af4 3d3c
000002b0: c186 f0bc 3759 39bc 8f4b b83b 0ec8 2bbc
000002c0: c9bb be3c bb75 a03c 4aa1 5dbb bd11 a63b
000002d0: 3be5 2cbc 090a c53c cab7 47bd 90aa a33b
000002e0: 05e8 d6bc 1988 9c3c 52af 8ebc 6964 13bd
000002f0: 4e55 1a3b ce00 85bd a7af 94bc 66e8 213c
00000300: f0e1 263c ea8c 703c 5cec 50bb 5554 3d3c
00000310: 11f1 dabc ce02 c53b 3104 613b 315d 04bb
00000320: 8bfd e23b 42de 91bc 88e2 3d3c e3a1 cd3b
00000330: 098b 693c c532 cf3c e615 d9ba 35fd 193c
00000340: 0cbe 2fbc 9492 d83a 8edc 59bc 5987 aa3b
00000350: 2bb2 08bd b511 3bb7 01d2 b03b 4455 eb3c
00000360: 6465 82bb 8cd4 46bc a735 ecb9 7d3c 1abc
00000370: 5aee 82bc 84e7 13bd 1448 b3bc d5b9 70bb
00000380: 8b1d bc3b 91a9 1fbd 0aa4 48bc 97d6 033d
00000390: 2fa0 bf3c 7cba 3cbc 8ebe 063b 6a2a 443b
000003a0: 7466 cbbb d6e2 31bb 9238 a1b9 bce2 b7bb
000003b0: c049 5cbc 7add 23bc 17d0 a5bc 3d5d b0bc
000003c0: 301c 1c3c 8f00 7e3b fb53 b23c 4ebc 1e3c
000003d0: 2471 45bb 9e49 aebb 6947 64bb 26f0 873c
000003e0: 8e1a 79bc 1980 6dbc 2ed5 333b 18da 67bc
000003f0: 2f42 393c ddae f9bb 115e 5cbb 7391 e9bb

position_embedding.weight f4 [30, 64]
-0.018739674 -0.017687688 0.04264039 0.040302254 0.004816022 0.0010884142 -0.027467871 -0.04570453
0.025392981 0.06301776 -0.006956608 -0.048017226 -0.026915789 -0.017851215 -0.012409631 -0.03194971
-0.0020507846 0.03318974 0.027401226 -0.023288535 0.01897871 -0.04684391 -0.03125151 -0.019350847
0.0091633545 0.010493779 -0.020213848 0.00469971 0.00036524324 0.017674938 0.036183156 0.022845814
-0.051965084 -0.0017737148 -0.02764674 -0.03309443 -0.00968967 -0.049173746 0.010230934 -0.012039252
0.020771142 0.029259974 -0.045774255 0.035560645 0.024384432 -0.025414543 0.0077537843 0.009161395
0.016906325 -0.021437297 -0.030668411 0.015386226 -0.015896346 0.013458057 -0.018822 -0.038558334
0.002947494 -0.031853687 -0.025193814 0.044818744 0.02951831 -0.029667238 -0.038263902 0.017581558
-0.021631427 0.010885042 -0.04809939 0.008947116 -0.022504283 -0.022097178 0.02419512 0.046324845
0.005158543 0.0050253826 0.029844185 0.013522961 0.044094335 -0.014393144 0.029641641 0.0034903944
-0.0020274036 -0.030628387 -0.009542536 0.0028046777 0.0005367661 0.028361771 0.026690824 0.013861595
-0.00462259 -0.0077038705 0.015551299 0.023336466 -0.018159553 -0.03253674 -0.048137672 0.03391684
0.018222688 -0.024154766 -0.018060612 -0.007164339 -0.0043696756 0.005832986 -0.019359788 0.0083207395
-0.01160064 0.042235594 -0.022719137 -0.019272905 -0.030858917 -0.015077785 -0.015599665 -0.014920791
0.004553697 0.037275918 -0.014028827 -0.036997743 0.0023873397 0.018035073 0.0211602 -0.014473148
-0.0027272454 -0.024067717 0.026756424 -0.03225294 0.021444988 -0.014060495 0.0066505778 -0.00844728
-0.026742201 -0.026415383 -0.010987482 0.0027792994 0.021725206 -0.043880455 0.033321213 0.030673625
-0.041148774 0.019493159 0.004434701 -0.037865106 0.027171433 -0.033441827 0.019999174 -0.0068542175
0.034847748 -0.0081695765 0.0035563519 0.01633991 -0.012426164 0.026568782 0.036262695 -0.02404466
0.028627383 -0.011361124 -0.006439072 0.05019603 -0.026137188 -0.011661447 -0.012545562 0.005635769
0.010771887 0.014390062 -0.009892016 -0.023940623 -0.007993379 0.042153757 -0.025321983 0.031403903
-0.022392243 0.031379286 0.022899283 -0.00502036 -0.026044827 -0.0154571 -0.008326441 -0.023600323
-0.030717665 0.017850757 -0.013807793 -0.043615773 0.028327493 0.018581549 0.026071448 -0.02969151
-0.0073881475 0.0041457964 0.024239687 -0.011994801 0.011871473 -0.0062147593 0.026252758 -0.012711029
0.041309338 -0.019257227 -0.041542467 -0.036421828 -0.022949526 0.038198292 -0.044289693 0.013884011
0.0123859495 0.03219854 -0.052208778 0.0248219 -0.030281913 0.017468339 0.041082174 0.009207935
0.013741545 0.020652844 -0.011378561 -0.013830685 -0.0069905124 -0.028808475 -0.046125628 0.028723218
-0.024064621 -0.050341625 -0.045013335 -0.025627801 -0.023506649 0.03461732 -0.03300301 -0.03185561
-0.034622196 -0.026008178 0.035547644 -0.00074599043 0.0032286288 -0.035624776 0.03121866 -0.014649521
0.026994029 -0.021576883 -0.041423716 -0.035415035 -0.03879444 -0.003714199 -0.03659513 0.04223501
0.033164565 0.019416967 0.010596309 0.049660657 -0.03360059 0.033102706 0.03886071 0.023952672
-0.025597129 0.042982478 0.019843386 -0.030652037 0.009855348 -0.04548017 -0.030864254 -0.050944388
00000000: f283 99bc c5e5 90bc b1a7 2e3d fa13 253d
00000010: b8cf 9d3b 1fa9 8e3a 4d04 e1bc ac34 3bbd
00000020: f104 d03c 750f 813d 42f4 e3bb b6ad 44bd
00000030: 807e dcbc b63c 92bc c451 4bbc b3dd 02bd
00000040: 7566 06bb f7f1 073d 8978 e03c 99c7 bebc
00000050: 3d79 9b3c 66df 3fbd 9501 00bd ab85 9ebc
00000060: e521 163c 19ee 2b3c 8397 a5bc 0600 9a3b
00000070: 1e7e bf39 08cb 903c ca34 143d 2527 bb3c
00000080: 57d9 54bd fe7b e8ba 6b7b e2bc 068e 07bd
00000090: 6cc1 1ebc 696a 49bd a69f 273c 4840 45bc
000000a0: 3e28 aa3c 9db2 ef3c c97d 3bbd 0aa8 113d
000000b0: dcc1 c73c 2932 d0bc 7513 fe3b ad19 163c
000000c0: 227f 8a3c 459d afbc 523c fbbc 8216 7c3c
000000d0: 0e39 82bc 2f7f 5c3c 9830 9abc 58ef 1dbd
000000e0: be2a 413b 0379 02bd 4263 cebc dc93 373d
000000f0: 62d0 f13c b508 f3bc 9cba 1cbd 3307 903c
00000100: 6434 b1bc 2d57 323c de03 45bd ed96 123c
00000110: e75a b8bc 2405 b5bc d834 c63c 1fbf 3d3d
00000120: ff08 a93b f7ab a43b cb7b f43c 698f 5d3c
00000130: 439c 343d 39d1 6bbc 07d3 f23c 1abf 643b
00000140: 30de 04bb 62e8 fabc 4c58 1cbc afce 373b
00000150: c3b5 0c3a f256 e83c b7a6 da3c be1b 633c
00000160: 1879 97bb c070 fcbb e0ca 7e3c 1e2c bf3c
00000170: 58c3 94bc 3f45 05bd 022c 45bd 62ec 0a3d
00000180: bf47 953c 37e0 c5bc d9f3 93bc d5c2 eabb
00000190: 7f2f 8fbb a222 bf3b 6b98 9ebc b653 083c
000001a0: 9c10 3ebc 3bff 2c3d 7c1d babc 36e2 9dbc
000001b0: d7cb fcbc d008 77bc bd95 7fbc 5576 74bc
000001c0: 2e37 953b a2ae 183d 2ad9 65bc f28a 17bd
000001d0: ea74 1c3b 4abe 933c 2858 ad3c c820 6dbc
000001e0: 96bb 32bb a929 c5bc 4a30 db3c a91b 04bd
000001f0: 66ad af3c fe5d 66bc 17ed d93b 7666 0abc
00000200: 7612 dbbc 1365 d8bc d704 34bc e824 363b
00000210: 0ff9 b13c febb 33bd d37b 083d 4147 fb3c
00000220: 9e8b 28bd 1eb0 9f3c f850 913b 7118 1bbd
00000230: a096 de3c 4cfa 08bd 4fd5 a33c 5899 e0bb
00000240: 83bc 0e3d b0d9 05bc af11 693b 46db 853c
00000250: 1c97 4bbc c6a6 d93c 3188 143d 4ff9 c4bc
00000260: f983 ea3c 0224 3abc dafe d2bb 5a9a 4d3d
00000270: a81d d6bc a70f 3fbc e78b 4dbc 42ac b83b
00000280: 927c 303c 4bc4 6b3c 1f12 22bc 201f c4bc
00000290: a9f6 02bc 6ba9 2c3d 0c70 cfbc 61a1 003d
000002a0: f06f b7bc 9187 003d 4797 bb3c d581 a4bb
000002b0: f65b d5bc c73f 7dbc a06b 08bc 7755 c1bc
000002c0: 9da3 fbbc c03b 923c 153a 62bc 74a6 32bd
000002d0: 0f0f e83c 5538 983c ca93 d53c 9c3b f3bc
000002e0: 4618 f2bb 76d9 873b 4f92 c63c d885 44bc
000002f0: 9180 423c 2ea5 cbbb 0610 d73c eb41 50bc
00000300: fb33 293d 55c1 9dbc 6f28 2abd 0e2f 15bd
00000310: a500 bcbc d075 1c3d 1c69 35bd c379 633c
00000320: 70ee 4a3c 9ee2 033d dfd8 55bd 4c57 cb3c
00000330: c611 f8bc c319 8f3c c845 283d e1dc 163c
00000340: 3824 613c 2730 a93c 256d 3abc 199a 62bc
00000350: ab10 e5bb c0ff ebbc 3aee 3cbd f44c eb3c
00000360: 2b23 c5bc 0533 4ebd e75f 38bd 65f1 d1bc
00000370: 0491 c0bc e4ca 0d3d 2a2e 07bd 077b 02bd
00000380: 01d0 0dbd 1a0f d5bc 689a 113d 928e 43ba
00000390: 6797 533b 49eb 11bd 46be ff3c 8b04 70bc
000003a0: 9522 dd3c 01c2 b0bc eaab 29bd 5b0f 11bd
000003b0: ebe6 1ebd eb69 73bb c6e4 15bd 9efe 2c3d
000003c0: 91d7 073d 5510 9f3c 249c 2d3c f968 4b3d
000003d0: c6a0 09bd b496 073d 682c 1f3d 6538 c43c
000003e0: 12b1 d1bc 650e 303d 998e a23c fb19 fbbc
000003f0: 5378 213c 6a49 3abd 08d7 fcbc 10ab 50bd

transformer.layers.0.self_attn.in_proj_weight f4 [192, 64]
0.123076044 -0.036641665 0.04167727 -0.08239389 0.16353858 -0.12965299 -0.08124161 0.063140266
0.089575216 0.13310713 -0.060304362 0.091082074 -0.0051867138 0.037685897 -0.02008144 -0.09684555
-0.02346004 -0.014232485 -0.12619133 0.112018585 0.061917916 0.020462666 0.059651416 -0.023523439
0.0607926 0.13221103 0.035467204 0.15974377 0.06023088 0.08197166 -0.13257279 0.07265992
0.038291067 0.022331411 0.16421235 -0.064070545 0.13386206 -0.078231886 0.0961424 0.12879466
0.1385996 -0.0842697 0.0019961018 0.052753378 0.08230777 -0.06637234 -0.035625994 0.08711398
0.0011224735 0.00053698616 -0.0163454 0.017073752 -0.013586802 -0.014464422 0.11678914 -0.012954162
0.07094096 -0.12097799 -0.036795523 -0.07059387 -0.10260517 0.06777225 0.010861415 -0.0012287572
-0.025581121 0.15752962 0.057424434 0.12030495 -0.12570632 -0.053520896 -0.18624526 -0.17919487
0.12106436 0.076120965 -0.180698 -0.107679494 -0.104511194 -0.03218794 0.09792748 -0.0272809
0.03512502 -0.029631216 -0.17181467 -0.009339151 0.0083016055 -0.038243495 -0.12596919 0.15141071
0.010573853 -0.03699811 -0.030446809 -0.14263092 -0.05635994 -0.07423987 -0.16866429 -0.039457526
-0.063402854 0.0520753 -0.07860975 -0.07239089 -0.014645563 -0.088386446 -0.02645554 -0.10185003
-0.055858795 -0.025297388 -0.13037843 0.10546596 -0.028403694 0.1027097 -0.14376667 0.094325475
-0.008421529 -0.08009017 0.019420508 -0.020315424 -0.10608071 -0.058744274 -0.10420315 0.13242444
-0.03471581 -0.031448208 0.08840613 -0.054421786 0.050053295 -0.11609482 0.060758725 -0.04129615
-0.101611525 -0.14307374 0.03073225 -0.11951511 0.021826077 -0.11681747 -0.032249387 0.103032626
-0.05306222 -0.05599645 0.11092925 0.074282 -0.09512762 -0.12318468 0.015185317 0.10347445
0.09868214 0.07522804 -0.13984461 -0.045750286 0.09820174 -0.02740646 -0.15850377 0.110876
0.027925747 0.07834863 -0.020590283 -0.02411926 0.024673393 -0.042649746 0.050887547 -0.053211432
-0.10816808 -0.06468499 -0.02779478 0.008118498 0.0055903373 -0.15805349 0.07893606 -0.13399552
0.095132545 -0.015975863 -0.057599336 -0.07035341 0.12841813 0.13721222 0.007938116 -0.06935352
-0.11367041 0.12753475 0.022547398 0.10190243 -0.009239975 0.08753508 0.15765461 -0.03212638
-0.005431508 0.14545295 0.1205546 0.046326317 0.09461823 0.059639383 -0.011797976 -0.05287383
-0.15722692 0.05183006 0.11312349 0.14840843 -0.0004306704 0.1405699 -0.07465448 0.0700261
0.10112465 0.12573215 -0.07230714 0.12298091 -0.13012068 0.031989772 0.03483284 -0.0053323186
0.077933304 -0.13641044 0.04806099 0.091099784 -0.04379483 0.0016942165 0.06398914 -0.015642727
-0.029441033 0.119874164 0.07222406 -0.03436538 0.05414624 0.1350541 -0.13297628 0.09837774
-0.043096777 0.1502884 0.10599147 0.12164671 0.076474704 -0.09083914 0.045851298 0.077465735
0.0568138 0.031002427 -0.12439716 0.11306628 0.08131611 0.14518285 -0.08326545 0.09612039
0.016701806 -0.0674149 0.061143458 -0.13878477 -0.14165334 -0.019117976 0.15860605 0.1270318
0.07880077 -0.08231064 0.12612374 0.008996755 -0.1508089 0.09908431 -0.09528059 0.02116052
00000000: 4b0f fc3d 9215 16bd c9b5 2a3d 21be a8bd
00000010: a876 273e c1c3 04be 0062 a6bd af4f 813d
00000020: 3673 b73d 3c4d 083e b501 77bd 3d89 ba3d
00000030: 4ff5 a9bb 875c 1a3d d581 a4bc f656 c6bd
00000040: 452f c0bc 5e2f 69bc 4d38 01be 006a e53d
00000050: a49d 7d3d 52a1 a73c 0b55 743d 3ab4 c0bc
00000060: a901 793d 5462 073e 0f46 113d df93 233e
00000070: a8b4 763d c2e0 a73d 29c1 07be b9ce 943d
00000080: 18d7 1c3d 5df0 b63c 4827 283e 6b37 83bd
00000090: 2313 093e 0a38 a0bd 4ee6 c43d bfe2 033e
000000a0: 0eed 0d3e 9895 acbd 08d1 023b ed13 583d
000000b0: fa90 a83d 39ee 87bd 90ec 11bd d068 b23d
000000c0: f61f 933a 88c4 0c3a cae6 85bc 41de 8b3c
000000d0: 2e9b 5ebc 2ffc 6cbc 252f ef3d b23d 54bc
000000e0: 7e49 913d 4fc3 f7bd e7b6 16bd 8593 90bd
000000f0: a922 d2bd 2dcc 8a3d 14f4 313c 400e a1ba
00000100: 808f d1bc 724f 213e e235 6b3d 7162 f63d
00000110: 28b9 00be ba38 5bbd 14b7 3ebe dc7e 37be
00000120: 97f0 f73d 4fe5 9b3d e608 39be 1187 dcbd
00000130: f709 d6bd 80d7 03bd 348e c83d 327c dfbc
00000140: 41df 0f3d 2abd f2bc 2ff0 2fbe 3d03 19bc
00000150: 7503 083c 36a5 1cbd 11fe 00be 690b 1b3e
00000160: f43d 2d3c 558b 17bd 966b f9bc d70d 12be
00000170: aed9 66bd 130b 98bd 55b6 2cbe 379e 21bd
00000180: 5bd9 81bd e94c 553d 26fe a0bd ad41 94bd
00000190: f2f3 6fbc f403 b5bd 4ab9 d8bc c096 d0bd
000001a0: 31cc 64bd 783c cfbc ec81 05be 8afe d73d
000001b0: ddae e8bc 7759 d23d 9237 13be b72d c13d
000001c0: 74fa 09bc 5106 a4bd c217 9f3c 886c a6bc
000001d0: d840 d9bd d69d 70bd 7668 d5bd 469a 073e
000001e0: 2a32 0ebd d6cf 00bd 460e b53d 61e9 5ebd
000001f0: af04 4d3d 1fc3 edbd 24de 783d 2726 29bd
00000200: b419 d0bd ec81 12be 33c2 fb3c 57c4 f4bd
00000210: 9acc b23c ff3d efbd ef17 04bd c502 d33d
00000220: c557 59bd 895c 65bd e02e e33d 2921 983d
00000230: 45d2 c2bd 4048 fcbd d6cb 783c 6aea d33d
00000240: dd19 ca3d 2911 9a3d 6d33 0fbe a764 3bbd
00000250: fe1d c93d 8383 e0bc d04e 22be f512 e33d
00000260: 89c4 e43c 3f75 a03d f4ac a8bc c195 c5bc
00000270: db1f ca3c 80b1 2ebd 766f 503d 3bf4 59bd
00000280: 3a87 ddbd 9079 84bd e1b1 e3bc 7303 053c
00000290: 262f b73b c6d8 21be 3ba9 a13d 1f36 09be
000002a0: dad4 c23d d0df 82bc 48ed 6bbd 7315 90bd
000002b0: 0b80 033e 5c81 0c3e df0e 023c 3809 8ebd
000002c0: 08cc e8bd 7898 023e 52b5 b83c 39b2 d03d
000002d0: 4463 17bc 9845 b33d 3670 213e f396 03bd
000002e0: cbfa b1bb 9ef1 143e 55e5 f63d aac0 3d3d
000002f0: 34c7 c13d 6d48 743d 4c4c 41bc 3b92 58bd
00000300: 1800 21be c24b 543d 4aad e73d 61f8 173e
00000310: 9acb e1b9 8ef1 0f3e 73e4 98bd d869 8f3d
00000320: 711a cf3d eebf 003e c415 94bd 6add fb3d
00000330: 5b3e 05be b507 033d e1ac 0e3d bbba aebb
00000340: 7f9b 9f3d 2eaf 0bbe 9adb 443d 8692 ba3d
00000350: 3562 33bd 7910 de3a bd0c 833d 2d25 80bc
00000360: 522e f1bc 9680 f53d 35ea 933d b6c2 0cbd
00000370: 73c8 5d3d 9f4b 0a3e ef2a 08be 457a c93d
00000380: 3f86 30bd 34e5 193e 0e12 d93d e921 f93d
00000390: c59e 9c3d df09 babd 92ce 3b3d 5ba6 9e3d
000003a0: 96b5 683d cdf8 fd3c f0c3 febd 4b8f e73d
000003b0: 1089 a63d d0aa 143e 1487 aabd c4da c43d
000003c0: 3ad2 883c d310 8abd 9071 7a3d 981d 0ebe
000003d0: 930d 11be 4d9d 9cbc a069 223e a014 023e
000003e0: 4c62 a13d 7b92 a8bd 9526 013e 2067 133c
000003f0: a66d 1abe b7ec ca3d 7822 c3bd d458 ad3c

transformer.layers.0.self_attn.in_proj_bias f4 [192]
-0.009883533 0.018139824 -0.0003995521 -0.016272653 -0.004982567 0.032606512 0.019173883 -0.018468468
0.0075658117 0.009164394 -0.021331934 0.017346997 -0.019949352 0.014444443 0.0039128233 -0.014636836
3.8308837e-05 0.019732395 -0.01820883 -0.007702033 0.010943966 0.009205197 0.017352069 -0.008812576
-0.0047236113 -0.006814764 -0.007951851 0.012438025 -0.0018539369 -0.008910588 -0.016700704 0.017837076
-0.039998833 -0.035387445 -0.012138257 0.024198972 -0.0056586196 -0.015054433 -0.009135517 -0.0003165645
-0.01329375 -0.013709175 -0.02494571 -0.02289756 0.012914079 -0.005009057 0.0047488324 -0.012310067
-0.0011534134 -0.010504139 0.0019901195 0.002805262 0.0070064035 -0.025918992 0.03621935 0.0006240894
0.0015329062 -0.009235562 0.00974343 -0.029114803 -0.0038036162 -0.0011961967 -0.009095246 0.004811209
1.5426889e-07 -1.0042572e-07 3.601673e-08 -4.0692257e-08 1.0172535e-07 -9.512709e-08 6.040744e-08 3.1771965e-08
-9.291489e-08 -5.349448e-08 7.732651e-08 -7.6278e-08 -1.3317614e-07 7.260833e-08 -2.9826495e-08 -4.5421906e-08
-3.7475868e-08 3.7590947e-08 6.1765704e-08 -7.134335e-08 4.915872e-08 -6.786892e-08 -1.8392527e-07 4.5354923e-08
-1.6426718e-08 -5.2771806e-08 1.545605e-07 1.2465667e-07 9.543452e-09 2.59301e-08 1.02094326e-07 -1.3231042e-07
5.3101708e-08 2.4820736e-08 3.960718e-08 -1.0922624e-07 1.6617351e-08 3.6810654e-08 -7.9751015e-09 -8.972651e-09
-7.302255e-08 1.3485251e-07 -5.5915233e-08 -2.19077e-08 -5.5176542e-08 6.789296e-08 -1.6448674e-07 -2.0388767e-07
-9.3502635e-08 2.305627e-07 5.64534e-08 -1.8666926e-08 -5.532703e-10 -5.7116516e-08 -5.1309893e-08 -9.766296e-08
5.360124e-08 2.3548625e-07 1.8261876e-07 -2.469654e-07 2.71365e-09 -3.2607366e-09 -6.941686e-08 -8.8431484e-08
0.012651944 0.0011866322 0.00040562332 0.0028194808 -0.002244056 -0.011887888 0.0004047468 0.02132833
-0.014350662 0.004608806 0.00015535194 -0.0036154308 0.0008600948 0.022949915 0.0018924389 -0.011886246
0.015464853 -0.00030209418 -5.3068783e-05 0.0015564855 -0.001820397 -0.0014411618 0.00028260038 -0.0009967643
-0.0026255362 -0.0024223402 -0.0012377712 0.0032632407 0.007346134 -0.01922186 -0.0055637048 -0.015506328
-0.0032140862 -0.0067704357 0.013529149 0.00026602196 0.006404893 -0.007839957 0.010497107 0.016591216
-0.0075402656 0.002074609 0.008944849 -0.020008095 -0.0011883659 0.010773121 -0.00015860626 -0.0059871105
-0.009782174 -0.0019080414 -0.021617858 0.0076062456 0.001710099 -0.014030043 -0.0015053173 -0.0017329628
0.012401126 -0.0141026005 0.013820979 0.0042158463 0.009769883 -0.007270755 0.0022876514 -0.008882303
00000000: 8bee 21bc f899 943c fa7a d1b9 3a4e 85bc
00000010: cd44 a3bb 688e 053d 8c12 9d3c 2f4b 97bc
00000020: a1ea f73b 4126 163c 4fc0 aebc 4a1b 8e3c
00000030: d36c a3bc 63a8 6c3c 2437 803b 57cf 6fbc
00000040: cdad 2038 d5a5 a13c af2a 95bc 5661 fcbb
00000050: 524e 333c 65d1 163c ed25 8e3c 9f62 10bc
00000060: 86c8 9abb 624e dfbb 7b48 02bc dcc8 4b3c
00000070: cdff f2ba b7fd 11bc eacf 88bc 0f1f 923c
00000080: d1d5 23bd 6df2 10bd 8adf 46bc ec3c c63c
00000090: f16b b9bb dea6 76bc 23ad 15bc 91f8 a5b9
000000a0: 07ce 59bc 739c 60bc f25a ccbc aa93 bbbc
000000b0: 9395 533c 0423 a4bb 189c 9b3b 2ab0 49bc
000000c0: 222e 97ba 8d19 2cbc aa6c 023b 7dd8 373b
000000d0: f995 e53b 1154 d4bc be5a 143d ee99 233a
000000e0: cceb c83a c150 17bc e8a2 1f3c 2b82 eebc
000000f0: 1746 79bb b3c9 9cba 3a04 15bc 59a7 9d3b
00000100: 1ca5 2534 a0a9 d7b3 d0b0 1a33 9cc5 2eb3
00000110: 1a74 da33 ac48 ccb3 57b9 8133 a575 0833
00000120: 8088 c7b3 cec1 65b3 b30e a633 46ce a3b3
00000130: 2eff 0eb4 daec 9b33 941a 00b3 ea15 43b3
00000140: 27f5 20b3 af73 2133 0ea4 8433 6c35 99b3
00000150: 9622 5333 55bf 91b3 fe7c 45b4 44cc 4233
00000160: bc1a 8db2 37a7 62b3 44f5 2534 5dd9 0534
00000170: 8cf4 2332 e5bc de32 f33e db33 3611 0eb4
00000180: f211 6433 6035 d532 8e1c 2a33 c38f eab3
00000190: f1bd 8e32 be19 1e33 de02 09b2 2326 1ab2
000001a0: 92d0 9cb3 facb 1034 7327 70b3 8b2f bcb2
000001b0: 40fb 6cb3 8dcc 9133 c59d 30b4 37ec 5ab4
000001c0: 9ecb c8b3 9890 7734 2b77 7233 0159 a0b2
000001d0: f014 18b0 4650 75b3 d35f 5cb3 c8ba d1b3
000001e0: 3037 6633 f8d9 7c34 dd15 4434 ab96 84b4
000001f0: 097b 3a31 7c13 60b1 5312 95b3 b9e7 bdb3
00000200: 194a 4f3c c588 9b3a d7a9 d439 0ac7 383b
00000210: 0311 13bb 6bc5 42bc 3234 d439 c0b8 ae3c
00000220: 0a1f 6bbc 7805 973b f8e5 2239 ddf0 6cbb
00000230: fc77 613a 7601 bc3c b60b f83a 87be 42bc
00000240: 4b60 7d3c 6562 9eb9 2c96 5eb8 fd02 cc3a
00000250: 639a eeba 5ee5 bcba fb29 9439 dca5 82ba
00000260: 3011 2cbb 20c0 1ebb b63c a2ba 18dc 553b
00000270: d7b7 f03b 2a77 9dbc bd4f b6bb 410e 7ebc
00000280: 6ba3 52bb 88da ddbb 5da9 5d3c dd78 8b39
00000290: 23e0 d13b 2a73 00bc 0ffc 2b3c 4dea 873c
000002a0: 5514 f7bb 2af6 073b 6a8d 123c 04e8 a3bc
000002b0: f1c2 9bba bf81 303c 8b4f 26b9 862f c4bb
000002c0: 6945 20bc 3f17 faba ef17 b1bc d03d f93b
000002d0: 6725 e03a 44de 65bc 114e c5ba 9524 e3ba
000002e0: 182e 4b3c 980e 67bc 6371 623c 1525 8a3b
000002f0: dc11 203c 833f eebb 6cec 153b 1487 11bc

transformer.layers.0.self_attn.out_proj.weight f4 [64, 64]
-0.020913413 -0.0065958947 -0.04865625 -0.008715388 0.017228585 -0.0051924842 0.042260487 0.03330925
0.020619947 -0.022623604 -0.029265491 -0.01707695 -0.02018629 0.016144851 -0.0018807933 0.012806294
-0.0048875976 0.007917058 0.031080823 -0.0007803116 -0.029836603 -0.0193938 -0.035553657 -0.0024010579
-0.01768348 -0.012342243 0.035133682 -0.0057613817 0.012511026 -0.0131138405 0.00018397109 -0.014319891
0.02234893 -0.02641358 0.048014145 -0.012508697 -0.0062768026 -0.011682932 0.011745893 -0.016723046
0.0026510707 0.011071512 -0.013786105 -0.011218118 0.0011503041 -0.032700498 -0.01288334 0.037899464
0.00834465 -0.021629943 -0.031894337 0.046220243 -0.0016594871 -0.00085284264 -0.010137586 0.009957267
0.03294656 0.0009713991 0.005111949 0.0017211444 0.011930647 0.0009857563 -0.012908747 -0.03526134
0.01493888 -0.015278485 0.016489988 -0.012000236 -0.017425805 0.045725264 9.9974364e-05 0.0029979886
0.03211326 -0.036350224 0.010337992 -0.02755378 -0.034002725 -0.004708022 0.0019034515 -0.01299804
0.010301171 -0.0144214025 -0.02585889 -0.000502383 -0.0032603513 0.013380285 -0.02144402 -0.024579754
-0.010414859 -0.0016078807 0.0074015255 0.010800146 -0.002653828 0.0030167152 0.004612671 0.037506584
0.024103021 -0.035116423 0.031399835 -0.021683896 0.053751454 0.023902724 -0.020603037 0.00020142163
-0.04295168 -0.0028858713 -0.019757202 0.010640014 0.012177748 -0.026553748 -0.018188868 0.026874105
-0.027033197 -0.0133317765 -0.039979063 0.041243732 0.0035401313 -0.026190132 -0.0081429845 -0.005539528
-0.01842773 -0.013731411 -0.02265609 -0.008829185 0.008344273 0.01336648 0.0038042984 -0.026976112
-0.019093549 0.013771494 -0.0007050245 -0.0050215106 -0.014890608 -0.019911276 0.014380732 -0.0036623888
-0.043472867 -0.021231228 0.03886445 -0.01222166 -0.02948296 -0.020955233 -0.011350161 -0.033102266
0.056465164 0.04794596 0.006117011 0.001021223 0.007219128 -0.023825658 0.025667895 -0.021481706
-0.011964241 0.017334944 0.027203608 0.017268192 -0.004074066 -0.014551344 0.004100778 -0.027299855
-0.019271886 -0.0569366 0.025066582 -0.035408184 0.00018092453 0.021774042 -0.006608431 0.036335696
0.019748334 0.007855786 -0.0017720476 2.1110542e-05 -0.012667073 0.018926216 0.029608259 0.004322544
-0.024942594 0.016191073 -0.02009611 0.020060439 0.004394121 -0.024547411 0.0026419065 0.033863734
0.008201437 -0.0229485 0.021048153 0.021874383 -0.0004528416 -0.0138384225 -0.05105099 -0.0294173
0.0020130142 -0.00965518 0.0029735344 0.008079017 0.04139144 0.00927272 0.00025253455 0.012069991
-0.013042068 -0.012319298 -0.011728558 0.01295383 0.0115785245 -0.032926172 -0.030748183 -0.005800223
0.0020638988 0.011704467 -0.02642492 0.006302361 -0.040617596 -0.0011177582 0.030749239 0.023793017
0.01293152 -0.011721546 0.027042942 -0.012578736 0.0020106426 0.0063186325 0.025811585 0.0043526636
-0.0024340923 -0.027436148 0.0043212646 0.0021432617 -0.014570536 0.05100564 -0.020661026 -0.008376163
0.015781613 -0.045674 0.0008271061 0.013819721 -0.005560643 -0.026796613 0.007935319 -0.012292494
0.00035963653 0.034716036 0.012444895 -0.009723904 0.03085859 -0.008484466 -0.020822598 -0.028075391
0.022368439 0.027477963 0.012829324 0.043266736 -0.0031329195 0.0037106902 0.050972886 -0.0018657746
00000000: 9b52 abbc 6022 d8bb c74b 47bd fdca 0ebc
00000010: f622 8d3c b725 aabb 5519 2d3d 486f 083d
00000020: 2aeb a83c 2355 b9bc 2fbe efbc f6e4 8bbc
00000030: b85d a5bc 3542 843c f384 f6ba 7dd1 513c
00000040: 2428 a0bb 8cb6 013c 369d fe3c d38d 4cba
00000050: e46b f4bc bfdf 9ebc b6a0 11bd 115b 1dbb
00000060: f2dc 90bc 1f37 4abc 56e8 0f3d f9c9 bcbb
00000070: 0cfb 4c3c 6fdb 56bc 5de8 4039 fa9d 6abc
00000080: 1a15 b73c 4b61 d8bc 7baa 443d 47f1 4cbc
00000090: a3ad cdbb c569 3fbc d971 403c c5fe 88bc
000000a0: 96bd 2d3b 4965 353c 1edf 61bc 32cc 37bc
000000b0: cdc5 963a f5f0 05bd a514 53bc 783c 1b3d
000000c0: 00b8 083c 4731 b1bc a3a3 02bd 7051 3d3d
000000d0: 2683 d9ba 4d91 5fba 1e18 26bc ce23 233c
000000e0: f9f2 063d 7da5 7e3a 2382 a73b 0698 e13a
000000f0: c378 433c 7e34 813a 367f 53bc 326e 10bd
00000100: 34c2 743c 9c52 7abc 0316 873c a39c 44bc
00000110: 90c0 8ebc 6a4a 3b3d 54a9 d138 e779 443b
00000120: 3289 033d f9e3 14bd ae60 293c 77b8 e1bc
00000130: 7146 0bbd c045 9abb 3c7d f93a bbf5 54bc
00000140: 3ec6 283c bf47 6cbc 06d6 d3bc 5ab2 03ba
00000150: 9eab 55bb fc38 5b3c 5fab afbc 7b5b c9bc
00000160: 16a3 2abc 86bf d2ba 7f88 f23b 18f3 303c
00000170: d8eb 2dbb 15b4 453b e425 973b 81a0 193d
00000180: b373 c53c 3dd6 0fbd 1d9d 003d 6da2 b1bc
00000190: 7c2a 5c3d a5cf c33c b3c7 a8bc b534 5339
000001a0: 1aee 2fbd e320 3dbb dbd9 a1bc 7453 2e3c
000001b0: 2d85 473c 3f87 d9bc d200 95bc 1527 dc3c
000001c0: b974 ddbc 866d 5abc 16c1 23bd 30ef 283d
000001d0: 8c01 683b b08c d6bc 276a 05bc ee84 b5bb
000001e0: c0f5 96bc b6f9 60bc 4499 b9bc 49a8 10bc
000001f0: 6bb6 083c 15ff 5a3c 8951 793b 02fd dcbc
00000200: 136a 9cbc d5a1 613c 65d1 38ba 7c8b a4bb
00000210: bdf7 73bc f91c a3bc 299d 6b3c b004 70bb
00000220: 9b10 32bd 1ded adbc 5430 1f3d 5c3d 48bc
00000230: 4086 f1bc 4faa abbc 07f6 39bc 3e96 07bd
00000240: 0448 673d fc62 443d 3571 c83b 8fda 853a
00000250: 6f8e ec3b 072e c3bc 7a45 d23c 67fa afbc
00000260: aa05 44bc 0302 8e3c 1ada de3c 0676 8d3c
00000270: be7f 85bb c368 6ebc d25f 863b f2a3 dfbc
00000280: 13e0 9dbc 5a36 69bd 6f58 cd3c 2c08 11bd
00000290: 8fb6 3d39 7a5f b23c 8a8b d8bb bdd4 143d
000002a0: 42c7 a13c 8eb5 003c 0d44 e8ba 8b16 b137
000002b0: 8e89 4fbc 270b 9b3c 058d f23c 21a4 8d3b
000002c0: 6954 ccbc 24a3 843c 99a0 a4bc ca55 a43c
000002d0: 8ffc 8f3b a717 c9bc d623 2d3b b3b4 0a3d
000002e0: 525f 063c 7efe bbbc 2d6d ac3c e831 b33c
000002f0: 5f6b edb9 8dba 62bc d81a 51bd 8dfc f0bc
00000300: c6ec 033b c330 1ebc a1df 423b da5d 043c
00000310: 128a 293d 9bec 173c 9d66 8439 36c1 453c
00000320: 66ae 55bc e2d6 49bc 2329 40bc 4d3c 543c
00000330: dab3 3d3c 98dd 06bd 9de3 fbbc cc0f bebb
00000340: 7a42 073b 18c4 3f3c 1379 d8bc 0984 ce3b
00000350: a35e 26bd be81 92ba d4e5 fb3c 93e9 c23c
00000360: bade 533c ba0b 40bc 2989 dd3c 0b17 4ebc
00000370: fcc4 033b 880c cf3b d172 d33c caa0 8e3b
00000380: 4b85 1fbb c6c1 e0bc 6599 8d3b f775 0c3b
00000390: 42b9 6ebc 4aeb 503d 5041 a9bc 2d3c 09bc
000003a0: 7148 813c a914 3bbd 27d2 583a 1c6c 623c
000003b0: 0e36 b6bb 9284 dbbc 2403 023c 7566 49bc
000003c0: 998d bc39 6732 0e3d ace5 4b3c 0251 1fbc
000003d0: 27cb fc3c 6e02 0bbc 2794 aabc 5dfe e5bc
000003e0: 043e b73c 7719 e13c 1632 523c 7638 313d
000003f0: ab51 4dbb 0d2f 733b f2c8 503d 028d f4ba

transformer.layers.0.self_attn.out_proj.bias f4 [64]
-0.010038168 -0.0058289375 -0.008865027 0.0074522668 -0.0043122363 -0.009690087 -0.0010580692 0.004672289
-0.009860175 0.004283579 0.0023313453 -0.0073803384 0.008358097 -0.004783124 0.005798024 -0.004005924
0.0064673773 0.003647242 -0.008557947 0.004790625 -0.0020712488 0.00621496 0.0028805933 0.0045759883
0.0049833944 -0.004872995 0.009233199 0.011670246 -0.00756638 -0.0028568476 0.0005015894 0.0032260122
0.005627111 -0.004935224 -0.00077720475 0.006094674 0.0009697788 0.008573753 0.004637411 0.0064626164
-0.008089267 0.0023715985 0.005891476 -0.0075940476 0.0028333177 -0.0029261394 -0.0054049576 -0.004726269
-0.008993175 0.0061717313 0.0011182184 0.0020660444 0.0024747362 0.00088514603 0.006562685 -0.0060252775
-0.0059744874 -0.00240532 0.00019226654 -0.0070048976 0.0030587835 -0.0033511482 0.009220814 -0.004790141
00000000: 2177 24bc ac00 bfbb 9e3e 11bc 2532 f43b
00000010: a94d 8dbb 2cc3 1ebc e9ae 8aba 001a 993b
00000020: 928c 21bc 445d 8c3b 7cc9 183b c4d6 f1bb
00000030: 66f0 083c c1bb 9cbb 5afd bd3b 2044 83bb
00000040: 4bec d33b 9106 6f3b a236 0cbc adfa 9c3b
00000050: cabd 07bb dda6 cb3b 56c8 3c3b 2cf2 953b
00000060: be4b a33b a5ad 9fbb d846 173c 8f34 3f3c
00000070: 65ef f7bb f339 3bbb 187d 033a 816b 533b
00000080: a163 b83b a9b7 a1bb 54bd 4bba d5b5 c73b
00000090: c138 7e3a ed78 0c3c 6cf5 973b 5bc4 d33b
000000a0: d888 04bc d26c 1b3b 480d c13b 7dd7 f8bb
000000b0: 2faf 393b 79c4 3fbb 121c b1bb d1de 9abb
000000c0: 1c58 13bc 3c3c ca3b 2f91 923a 7966 073b
000000d0: 2f2f 223b 2509 683a cb0b d73b b16f c5bb
000000e0: a2c5 c3bb 93a2 1dbb 289b 4939 5789 e5bb
000000f0: df75 483b f09e 5bbb e612 173c 9df6 9cbb

transformer.layers.0.linear1.weight f4 [128, 64]
-0.024181245 0.0079775 -0.008148751 -0.00593785 0.008504613 -0.03977654 0.06917517 0.05571908
-0.026077522 0.027811341 -0.0440025 -0.04030894 0.014648684 0.020133702 0.019666806 0.03745619
0.022505375 -0.026608905 0.01213686 -0.016617518 -0.014235347 0.0021257363 -0.009940096 0.035029825
0.061415747 -0.0013006774 -0.023362342 0.043426048 -0.00144914 -0.025868692 -0.008188261 0.04524161
-0.0054426445 -0.068220526 0.020768488 -0.013081804 -0.009572825 0.0049101682 -0.041255914 0.032314647
0.0021421143 0.016231269 -0.023299312 0.01795342 -0.029543836 0.012695033 -0.0135423085 0.013320489
0.023847956 0.028173365 0.030699993 0.022450946 0.004851899 0.048835397 0.027257757 -0.024900941
-0.033429075 0.028599454 0.0574378 -0.05198024 0.01381012 -0.0155076375 0.047429197 -0.068925016
-0.018060269 0.042293355 -0.0569857 0.054026067 0.022804564 -0.016900688 0.045638483 0.026537439
-0.058780875 -0.02382096 0.015543994 -0.03545637 0.027331341 -0.016949477 -0.046015806 0.021118404
0.018652689 -0.013630475 0.018251952 0.01952952 -0.020727484 -0.024111276 -0.017773462 -0.011650309
0.021145402 0.06444216 0.0077143162 0.023880698 0.052223656 -0.013239744 -0.0031919787 -0.0074741915
0.035245243 -0.01726305 -0.019437391 -0.01266059 -0.012587854 -0.006854075 -0.035702262 0.0022094566
-0.01839202 0.018781882 -0.024406966 0.041420616 -0.059375398 -0.03195089 0.043638434 0.007922292
-0.018064816 -0.0053245453 -0.019677686 0.0015230095 -0.032456733 0.03864497 0.00051667384 -0.0035657804
-0.019184275 0.0016048964 0.01247273 -0.011015777 -0.015367194 0.018581642 0.009685921 -0.017723367
-0.053775173 0.041107975 0.0006311292 0.019739533 0.046555225 0.019148517 -0.016271684 0.008733778
-0.018615082 0.004546975 0.024788294 0.060479205 0.0039557177 -0.029334556 0.019681694 0.0011795204
-0.00048700682 -0.00091590866 -0.04241335 -0.009659967 0.003523324 0.06802959 0.02329416 -0.041210964
-0.015649721 0.0022700096 0.024799505 -0.0051109507 -0.018819679 0.024449391 -0.022741565 -0.0055543045
-0.0010618232 -0.010161154 -0.023277337 0.0044413367 0.016279338 -0.0096779205 -0.004390431 -0.02824752
-0.0005534948 -0.036454 0.025307259 0.005031915 -0.006726722 0.05143637 0.027110424 -0.03563821
-0.023029987 0.0004712196 0.0077426163 0.00044500455 0.081340045 -0.0058527235 0.00872728 0.030503685
0.007901013 -0.019596674 -0.02824151 -0.032844845 0.031412173 -0.003810101 0.041768327 0.023418225
0.0728514 0.03631863 0.0024416274 0.0013947687 -0.0072724037 -0.013514791 -0.005007639 -0.0021709246
-0.03952272 0.016137907 -0.008624313 0.018435752 0.0047850236 0.017591793 0.030630762 0.03132144
0.054286003 0.010571647 0.027513638 -0.03145983 -0.03550931 -0.04265917 -0.017228188 0.004962863
0.020620786 -0.023098996 -0.01373257 -0.054735072 -0.06356164 0.003582305 0.0058920905 0.004498215
-0.032519676 -0.019779965 0.019907411 -0.0066874903 0.008590426 0.011122285 0.036880247 -0.011213765
-0.013027711 -0.056190994 -0.034438714 0.0018087069 0.02485744 -0.023691878 -0.010560056 -0.0063316687
0.03050789 0.033687737 -0.0043308283 0.020760205 0.006334294 -0.0030642173 0.01778391 -0.029726038
-0.03336096 0.0076354127 -0.048801888 -0.008227821 -0.04711518 -0.032824613 0.02308005 -0.03165821
00000000: bf17 c6bc 0fb4 023c 5782 05bc 4c92 c2bb
00000010: ef56 0b3c baec 22bd b6ab 8d3d b139 643d
00000020: 87a0 d5bc 9cd4 e33c f73b 34bd fd1a 25bd
00000030: 0901 703c 6fef a43c 481c a13c a96b 193d
00000040: 315d b83c ebfa d9bc aed9 463c 7621 88bc
00000050: 5f3b 69bc f04f 0b3b c9db 22bc 6f7b 0f3d
00000060: 148f 7b3d 7e7b aaba 6262 bfbc 83df 313d
00000070: 12f1 bdba 94ea d3bc 0e28 06bc 444f 393d
00000080: 3658 b2bb 34b7 8bbd ad22 aa3c 1055 56bc
00000090: 57d7 1cbc 7ae5 a03b f6fb 28bd 5d5c 043d
000000a0: b762 0c3b 70f7 843c 33de bebc 0d13 933c
000000b0: ea05 f2bc d4fe 4f3c 8fe0 5dbc 2e3e 5a3c
000000c0: ca5c c33c d4cb e63c 8d7e fb3c 0ceb b73c
000000d0: aefc 9e3b a007 483d a94b df3c 0ffd cbbc
000000e0: edec 08bd 6749 ea3c e643 6b3d 3be9 54bd
000000f0: d743 623c bf13 7ebc 1e45 423d 8f28 8dbd
00000100: 21f3 93bc cc3b 2d3d d669 69bd 704a 5d3d
00000110: a3d0 ba3c 5073 8abc 6bef 3a3d 0b65 d93c
00000120: 37c4 70bd 2d24 c3bc 3cac 7e3c b33a 11bd
00000130: fae5 df3c a1d9 8abc 127b 3cbd 8100 ad3c
00000140: 86cd 983c 5b52 5fbc 1e85 953c 5ffc 9f3c
00000150: afcc a9bc 0385 c5bc a799 91bc f0e0 3ebc
00000160: 1f39 ad3c 40fa 833d 60c8 fc3b 74a1 c33c
00000170: 79e8 553d 83eb 58bc 8430 51bb 10ea f4bb
00000180: 515d 103d 3d6b 8dbc 2a3b 9fbc 5d6e 4fbc
00000190: 493d 4ebc 2698 e0bb 893c 12bd 88cc 103b
000001a0: ddaa 96bc 76dc 993c 1ef1 c7bc aaa8 293d
000001b0: 9e33 73bd f0de 02bd 37be 323d 80cc 013c
000001c0: aafc 93bc 8679 aebb 1933 a1bc b89f c73a
000001d0: 5af1 04bd 304a 1e3d 6571 073a deaf 69bb
000001e0: 5728 9dbc 635b d23a 6c5a 4c3c 847b 34bc
000001f0: afc6 7bbc 8738 983c b2b1 1e3c 9830 91bc
00000200: 5b43 5cbd d660 283d 5d72 253a cdb4 a13c
00000210: b1b0 3e3d 5add 9c3c 324c 85bc 1f18 0f3c
00000220: a87e 98bc cafe 943b d210 cb3c 0bb9 773d
00000230: f79e 813b 064f f0bc 813b a13c 239a 9a3a
00000240: f354 ffb9 9719 70ba 9fb9 2dbd d744 1ebc
00000250: 91e7 663b 1953 8b3d 65d3 be3c d4cc 28bd
00000260: d833 80bc 71c4 143b 5528 cb3c c379 a7bb
00000270: ba2b 9abc 174a c83c 854c babc e200 b6bb
00000280: e02c 8bba f87a 26bc 1db0 bebc a288 913b
00000290: 3f5c 853c 2490 1ebc 9bdd 8fbb 5867 e7bc
000002a0: 6818 11ba ca50 15bd 2b51 cf3c c3e2 a43b
000002b0: d56b dcbb f1ae 523d ae16 de3c 5ff9 11bd
000002c0: 62a9 bcbc 060e f739 c6b5 fd3b 804f e939
000002d0: 9c95 a63d 34c8 bfbb defc 0e3c dde2 f93c
000002e0: 4073 013c 3489 a0bc bd5a e7bc 5188 06bd
000002f0: 0daa 003d e3b2 79bb 4415 2b3d 94d7 bf3c
00000300: 1d33 953d d8c2 143d b603 203b acd0 b63a
00000310: 584d eebb 246d 5dbc 1f17 a4bb 1246 0ebb
00000320: 93e2 21bd a533 843c fe4c 0dbc 9306 973c
00000330: b0cb 9c3b aa1c 903c 5ded fa3c e94a 003d
00000340: 005b 5e3d b434 2d3c 4864 e13c 06dc 00bd
00000350: 3672 11bd 62bb 2ebd 2122 8dbc 839f a23b
00000360: ecec a83c 1b3a bdbc 93fe 60bc e231 60bd
00000370: 9b2c 82bd 1bc5 6a3b 7012 c13b c365 933b
00000380: 5a33 05bd 9809 a2bc de14 a33c bc22 dbbb
00000390: dcbe 0c3c 3f3a 363c be0f 173d f0b9 37bc
000003a0: 2e72 55bc 8728 66bd 9c0f 0dbd 2212 ed3a
000003b0: d4a1 cb3c 7815 c2bc 1604 2dbc e379 cfbb
000003c0: afeb f93c 27fc 093d 9fe9 8dbb 4e11 aa3c
000003d0: e98f cf3b 09d1 48bb 90af 913c 0584 f3bc
000003e0: 81a5 08bd 7c32 fa3b 7de4 47bd fccd 06bc
000003f0: d9fb 40bd 1a73 06bd 5f12 bd3c 0aac 01bd

transformer.layers.0.linear1.bias f4 [128]
0.011074805 0.00539753 0.010819209 -0.015416063 0.020089833 -0.0038837418 -0.012505542 0.011193577
-0.017264212 -0.0067847283 0.0089573655 0.01795236 0.0049442085 -0.017991573 -0.0041550775 -0.0028874942
0.0133083295 0.004006872 0.010012134 0.007655247 -0.0033264293 0.0099451635 0.0028477886 0.0055906693
0.012273594 0.010888656 -0.010290853 -0.02308849 0.005352933 -0.008752388 -0.013494386 0.004557648
0.02117523 0.0014407259 0.02413019 -0.0041630636 0.007979162 0.010497569 0.00295287 0.010537797
0.018764175 0.011133327 -0.0005534238 -0.0010784534 0.0076835915 0.0065293326 0.007841937 -0.008961792
0.0063252496 0.0052898196 0.0091654165 0.009688441 0.0075607845 0.02064119 -0.018971799 -0.014784468
-0.0077635283 0.015821395 0.00024940487 0.0032570234 0.012048313 0.00064420176 0.0010109809 0.011685025
-0.0031914634 -0.0030389072 -0.008956426 0.012896234 0.009488142 0.00606098 0.0024621817 0.010598669
0.017928224 0.014476506 -0.007483356 0.0048244493 0.0033142269 0.0018318447 0.012317338 -0.011701714
0.0063994727 0.0032738997 0.0068832054 0.009366459 0.010514188 0.024068085 0.006898223 0.007260284
0.0039046996 0.007170125 0.01855699 -0.004932287 0.021916231 0.014726728 0.009524637 0.0026023595
0.002794398 0.0038644993 0.00067280955 -0.006004502 -0.0019888487 0.012771692 0.00077889155 0.0026632429
0.016549556 0.013053123 -0.002591768 0.0059338207 0.010106502 0.01732533 0.0048294393 0.0023409808
0.010784818 0.015522924 0.0049993116 0.017341657 0.005507517 0.015279641 -0.0133942785 0.009595381
0.012744911 0.0085252095 -0.0059745554 0.014422938 -0.0001453159 -3.6048485e-05 0.010080548 0.00080656284
00000000: 1973 353c c3dd b03b 0d43 313c a893 7cbc
00000010: 6f93 a43c 6086 7ebb 0be4 4cbc 4465 373c
00000020: ad6d 8dbc 6d52 debb eac1 123c d410 933c
00000030: 0703 a23b 1063 93bc 5127 88bb 1d3c 3dbb
00000040: 2e0b 5a3c 144c 833b ef09 243c ded8 fa3b
00000050: 3900 5abb 0af1 223c f7a1 3a3b ef31 b73b
00000060: 2f17 493c 5566 323c f79a 28bc 1324 bdbc
00000070: a867 af3b 2d66 0fbc 8f17 5dbc 5358 953b
00000080: ad77 ad3c bdd6 bc3a adac c53c 4f6a 88bb
00000090: 08bb 023c fffd 2b3c f084 413b b9a6 2c3c
000000a0: 54b7 993c 8f68 363c a413 11ba e45a 8dba
000000b0: a3c6 fb3b 03f4 d53b 787b 003c 7bd4 12bc
000000c0: 0a44 cf3b 3956 ad3b 8b2a 163c 44bc 1e3c
000000d0: 75c0 f73b b717 a93c bf6a 9bbc 8e3a 72bc
000000e0: 3265 febb df9b 813c 8ec2 8239 c973 553b
000000f0: 4a66 453c a6df 283a e482 843a 8c72 3f3c
00000100: df27 51bb 6728 47bb f9bd 12bc ba4a 533c
00000110: 2774 1b3c 2f9b c63b 8e5c 213b 0aa6 2d3c
00000120: 36de 923c de2e 6d3c f136 f5bb 6a16 9e3b
00000130: 8033 593b 821a f03a a9ce 493c 8cb8 3fbc
00000140: abb2 d13b ec8e 563b 838c e13b c775 193c
00000150: b343 2c3c 6f2a c53c 7d0a e23b ade7 ed3b
00000160: fde5 7f3b 5ef3 ea3b d404 983c 069f a1bb
00000170: ab89 b33c 6048 713c 390d 1c3c 598c 2a3b
00000180: 3822 373b 8a43 7d3b 7c5f 303a 6ac1 c4bb
00000190: 5857 02bb 5c40 513c 872e 4c3a cd89 2e3b
000001a0: ef92 873c c4dc 553c a7da 29bb 7f70 c23b
000001b0: be95 253c daed 8d3c 4640 9e3b 246b 193b
000001c0: ceb2 303c dd53 7e3c 44d1 a33b 1710 8e3c
000001d0: 6778 b43b 7657 7a3c ad73 5bbc f235 1d3c
000001e0: 08d0 503c 52ad 0b3c 34c6 c3bb 304e 6c3c
000001f0: f15f 18b9 c432 17b8 e228 253c 846f 533a

transformer.layers.0.linear2.weight f4 [64, 128]
-0.0056273667 -0.0412586 0.049049072 -0.03365442 -0.048409034 -0.0022272773 0.016307887 -0.034008767
0.017618963 0.016510544 -0.0048472616 -0.024177382 -0.010856959 -0.023888767 0.032692708 -0.010845924
0.0069378223 -0.030687276 -0.04429507 -0.026002403 0.023934243 -0.0109315505 0.012683307 -0.004383827
0.020723363 0.0037504176 0.04461082 -0.018495953 -0.02074615 0.01614361 0.024522562 -0.013141569
-0.023458984 -0.06229942 0.0002530662 0.029958637 -0.028101107 -0.019923147 -0.008038943 -0.05378662
-0.0443022 -0.020457415 -0.054313928 -0.033644635 0.03915815 -0.02766854 -0.016877314 -0.03994724
-0.0011048195 -0.046762902 -0.023667105 -0.029211719 0.007966091 0.022157036 0.012801631 0.002406109
0.021229113 0.042852964 -0.0034474193 0.00087477244 -0.024125455 0.0011356579 -0.048792645 -0.023073638
-0.029242067 -0.022786576 -0.018564012 0.024061637 -0.03278581 -0.012418745 -0.026651373 -0.014008995
-0.033473343 0.003444559 -0.0062231845 0.0454107 -0.02961094 -0.009899491 -0.024267431 0.009289374
-0.0045170495 -0.019664334 0.011119361 -0.005027283 0.007957258 -0.05679623 0.014537541 -0.021030802
-0.0075252783 -0.068828 -0.036177527 -0.028417302 -0.035443835 -0.007693075 -0.018145839 -0.053761195
0.0068560364 0.05854514 -0.034792844 0.041566964 -0.0013051839 -0.039190132 0.014182615 -0.0100546
-0.010116547 0.0085365595 -0.061248373 -0.02381945 -0.003991452 -0.0650146 0.007797466 0.0074217
-0.04556901 0.027214494 -0.023622958 0.014435686 -0.062589064 -0.10242749 0.016895112 0.015957952
-0.054148387 -0.029613752 0.04792998 -0.018926028 0.026611796 -0.01165875 0.04282428 -0.0054806694
-0.040676966 -0.0043643345 -0.015032254 0.0028358973 0.0073092734 -0.0052811615 0.009868009 -0.0028169153
0.005056729 0.034578297 -0.034612212 0.0053466177 0.0025741563 0.021289907 0.031881314 0.03297861
-0.011281493 -0.016133245 -0.021830963 0.039971795 0.003077403 0.03189869 0.017270679 -0.027893228
-0.060079865 -0.0315513 -0.052180346 0.0339699 -0.03047572 -0.037319448 0.007957593 0.02146027
0.021244612 -0.023409061 -0.009691638 0.004687565 -0.0051881894 -0.02547874 0.010916493 -0.022265442
-0.030758422 -0.021348318 0.006526712 -0.0073544513 0.008155711 0.015982851 -0.028646912 0.01563286
-0.0066538597 -0.013336611 -0.03060455 -0.0021844017 -0.006941136 -0.001557002 0.040975202 0.0016213602
0.0053969026 -0.028617276 -0.009550897 -0.017311364 -0.0050347387 -0.01575117 -0.008650048 -0.016011609
-0.0047239573 0.024306342 -0.011147326 -0.03807578 0.011745663 -0.038083065 -0.0060197962 -0.017862713
-0.04558933 0.004036168 -0.056965802 -0.02160409 0.006341729 -0.020623855 -0.016969366 0.020663725
-0.055394933 -0.02057922 -0.003152693 0.0043547656 -0.032519322 -0.024131052 -0.041779332 -0.022490548
-0.018293578 -0.038175825 0.031015398 0.010320143 -0.019157596 0.01635215 0.022160478 -0.041248668
-0.023046752 -0.021171961 -0.05647184 -0.0044352105 -0.015809136 -0.06331027 0.022824746 0.007855411
0.017793825 -0.007912424 -0.0043722717 -0.012902632 0.0045477394 -0.015503943 0.0517042 0.00758597
-0.03163949 -0.00963876 -0.0313207 -0.046918306 -0.054437824 -0.056055445 0.007656791 0.021380544
0.0019371244 -0.012879378 0.003024666 0.006569967 -0.016064942 0.016367724 -0.032975044 0.04399757
00000000: c665 b8bb c7fe 28bd aee7 483d 38d9 09bd
00000010: 8d48 46bd 83f7 11bb 1e98 853c c74c 0bbd
00000020: a555 903c 1f41 873c c7d5 9ebb a50f c6bc
00000030: 63e1 31bc 60b2 c3bc cae8 053d 1ab3 31bc
00000040: ac56 e33b e263 fbbc bf6e 35bd fe02 d5bc
00000050: bf11 c43c 3f1a 33bc a5cd 4f3c 35a6 8fbb
00000060: 0bc4 a93c 91c9 753b d6b9 363d d384 97bc
00000070: d4f3 a9bc 9b3f 843c 8ae3 c83c bc4f 57bc
00000080: 0e2d c0bc ad2d 7fbd f8ad 8439 d16b f53c
00000090: 4b34 e6bc de35 a3bc c5b5 03bc 5c4f 5cbd
000000a0: 3976 35bd 4f96 a7bc 4878 5ebd f5ce 09bd
000000b0: 4c64 203d 22a9 e2bc 4b42 8abc b89f 23bd
000000c0: 97cf 90ba 758a 3fbd 84e1 c1bc 6a4d efbc
000000d0: 3584 023c ac82 b53c efbd 513c cfaf 1d3b
000000e0: ade8 ad3c 9786 2f3d 19ee 61bb fc50 653a
000000f0: bfa2 c5bc 5bda 943a ccda 47bd ed04 bdbc
00000100: 0f8d efbc eaaa babc 8e13 98bc e91c c53c
00000110: 6a4a 06bd fe77 4bbc fb53 dabc fc85 65bc
00000120: 581b 09bd 1cbe 613b dbeb cbbb 9200 3a3d
00000130: a492 f2bc 7a31 22bc 7ecc c6bc 7532 183c
00000140: c203 94bb 1917 a1bc fb2d 363c e8bb a4bb
00000150: 295f 023c 2aa3 68bd de2e 6e3c ca48 acbc
00000160: 9c96 f6bb b2f5 8cbd e32e 14bd 67cb e8bc
00000170: 8e2d 11bd 3116 fcbb 95a6 94bc b334 5cbd
00000180: 9aa8 e03b 07cd 6f3d f182 0ebd 1f42 2a3d
00000190: b412 abba d585 20bd 335e 683c 0dbc 24bc
000001a0: e0bf 25bc eddc 0b3c 93df 7abd 0221 c3bc
000001b0: baca 82bb 6026 85bd e381 ff3b bb31 f33b
000001c0: 92a6 3abd eef0 de3c ef84 c1bc a883 6c3c
000001d0: b22e 80bd 81c5 d1bd 9e67 8a3c 40ba 823c
000001e0: b3ca 5dbd 8a98 f2bc 3a52 443d c20a 9bbc
000001f0: fb00 da3c 5704 3fbc 8368 2f3d 3097 b3bb
00000200: e49c 26bd b102 8fbb d849 76bc 76da 393b
00000210: a182 ef3b 980d adbb 6ead 213c ff9b 38bb
00000220: ebb2 a53b f9a1 0d3d 89c5 0dbd ae32 af3b
00000230: 2db3 283b 2c68 ae3c fb95 023d 9414 073d
00000240: 03d6 38bc de29 84bc d9d6 b2bc 77b9 233d
00000250: 41ae 493b 33a8 023d 3d7b 8d3c 5780 e4bc
00000260: 4e16 76bd f03b 01bd 0fbb 55bd 0624 0b3d
00000270: 38a8 f9bc 47dc 18bd 9060 023c 73cd af3c
00000280: 2e09 ae3c 5cc4 bfbc adc9 1ebc 259a 993b
00000290: b001 aabb cab8 d0bc 17db 323c 0466 b6bc
000002a0: 16f9 fbbc abe2 aebc 07de d53b 9cfd f0bb
000002b0: 889f 053c 78ee 823c eeac eabc 7c10 803c
000002c0: 9f08 dabb cd81 5abc 65b6 fabc 2e28 0fbb
000002d0: 7872 e3bb 5114 ccba 9dd5 273d d283 d43a
000002e0: 80d8 b03b c76e eabc 5e7b 1cbc 90d0 8dbc
000002f0: 73fa a4bb 9908 81bc eeb8 0dbc c72a 83bc
00000300: 6dcb 9abb 181e c73c 46a3 36bc 59f5 1bbd
00000310: e270 403c fdfc 1bbd b641 c5bb d354 92bc
00000320: e1bb 3abd d541 843b f954 69bd 10fb b0bc
00000330: 47ce cf3b 5cf3 a8bc 5703 8bbc f946 a93c
00000340: cce5 62bd c195 a8bc 699d 4ebb 6cb2 8e3b
00000350: fb32 05bd 7cae c5bc ce20 2bbd 193e b8bc
00000360: 6adc 95bc 415e 1cbd 0114 fe3c d115 293c
00000370: 64f0 9cbc f2f4 853c e489 b53c 5df4 28bd
00000380: 8bcc bcbc d270 adbc 044f 67bd 3e55 91bb
00000390: 2982 81bc d1a8 81bd f6fa ba3c fbb3 003c
000003a0: 5bc4 913c 1da3 01bc 4645 8fbb 9065 53bc
000003b0: 3405 953b 4004 7ebc c9c7 533d bb93 f83b
000003c0: 6998 01bd e4eb 1dbc 224a 00bd 692d 40bd
000003d0: 32fa 5ebd 659a 65bd d1e5 fa3b 4026 af3c
000003e0: 1ce7 fd3a 0704 53bc 7a39 463b e148 d73b
000003f0: a09a 83bc 9b15 863c d710 07bd cc36 343d

transformer.layers.0.linear2.bias f4 [64]
-0.014738593 -0.010165968 -0.016637128 0.009179326 -0.013525343 -0.013709127 0.00868812 0.0076513286
-0.011641774 0.01022946 0.005796281 -0.014843536 0.010708274 -0.018200047 0.0035063983 -0.018424215
0.0065453597 0.00242353 -0.008061812 0.0042549097 -0.004053224 0.008374609 0.0031322406 0.0030406348
0.012567519 -0.007363675 0.0085145915 0.015748225 -0.008024872 -0.00458043 0.005667611 0.021305973
0.007908249 -0.0042538 -0.0039221635 0.0072162366 -0.0050534406 0.011138592 0.00711146 0.013823256
-0.011035282 0.012608993 0.009199645 -0.0075609917 -0.0036914812 -0.008313161 -0.00434401 -0.005695952
-0.011188096 0.0059207124 0.0021391937 0.006697306 0.006803026 0.009868919 0.0053783874 -0.0071155047
-0.008226908 -0.0067428495 0.008486763 -0.0073952945 0.0052108625 -0.008803427 0.008021224 -0.0031541479
00000000: 247a 71bc 298f 26bc 964a 88bc e264 163c
00000010: 6699 5dbc 3f9c 60bc 9e58 0e3c ffb7 fa3b
00000020: 24bd 3ebc 7799 273c bbee bd3b 4d32 73bc
00000030: c271 2f3c 4418 95bc 9acb 653b 61ee 96bc
00000040: 757a d63b 16d4 1e3b b115 04bc c56c 8b3b
00000050: e8d0 84bb a835 093c 4746 4d3b 6345 473b
00000060: ffe7 4d3c fc4a f1bb c980 0b3c 6c02 813c
00000070: c17a 03bc 6f17 96bb 5eb7 b93b dd89 ae3c
00000080: 9a91 013c 7663 8bbb 7e85 80bb 2e76 ec3b
00000090: 5597 a5bb a47e 363c 4007 e93b f07a 623c
000000a0: 54cd 34bc f395 4e3c 1cba 163c 32c2 f7bb
000000b0: c7ec 71bb ed33 08bc 3258 8ebb 1ca5 babb
000000c0: 474e 37bc 8902 c23b b731 0c3b 1375 db3b
000000d0: ebeb de3b 3fb1 213c 2f3d b03b 2e29 e9bb
000000e0: 27ca 06bc 1ff3 dcbb 100c 0b3c 3a54 f2bb
000000f0: e2bf aa3b 403c 10bc 746b 033c d2b5 4ebb
