marble_model/best_model_v3.0_20250531_005852.pt (torch, 295593 bytes, 30 tensors)

token_embedding.weight f4 [13, 64]
0	0xbc96062f	-0.018313495
1	0x3d0a2ccc	0.033734128
2	0xbd2a42fb	-0.041567784
3	0x3cf720ca	0.030167002
4	0xbcc49ab4	-0.02399955
5	0xbb336972	-0.0027376083
6	0xbd18ff7c	-0.037353024
7	0x3c8710e2	0.016487543
8	0xbc782679	-0.015145891
9	0xbca5597c	-0.020184271
10	0xbc31e821	-0.0108585665
11	0xbb9a535b	-0.004709644
12	0xbc7a62aa	-0.015282312
13	0x3cf9ac29	0.0304776
14	0x3d0d2260	0.03445661
15	0x3abe32c5	0.001451098
16	0x3c352977	0.011057249
17	0xbc2a930a	-0.010411033
18	0x3d4957cd	0.049156
19	0xba870a52	-0.0010302758
20	0x3befe8ce	0.0073214537
21	0x3d1caada	0.038248874
22	0xbb8fc7c7	-0.004387829
23	0x3c94e78c	0.018176816
24	0x3b46ef19	0.0030354916
25	0xbc9985b0	-0.018740505
26	0x3cc2cb10	0.023778468
27	0xbca1e9cb	-0.019764801
28	0x3aea1fd3	0.0017862268
29	0xbb669e98	-0.0035189744
30	0xbc6a3312	-0.014294403
31	0x3d9193da	0.071082786
32	0x3cbd9d7e	0.023146387
33	0xbcf6b030	-0.03011331
34	0xbba89cf6	-0.0051456643
35	0xbb9afe68	-0.0047300346
36	0xbc4d1280	-0.012516618
37	0x3c498435	0.012299587
38	0xbc9a308d	-0.018821979
39	0xbac0595c	-0.0014675069
40	0x3cd6ce39	0.026221382
41	0xbc19b797	-0.00938215
42	0x3bb18e5c	0.005418582
43	0x3bf7d158	0.0075627975
44	0x3cd45573	0.025919652
45	0x3ba8c6a5	0.0051506334
46	0xbcb89864	-0.022533603
47	0xbd00c974	-0.03144212
48	0x3cbd27e0	0.023090303
49	0x3cc13e6f	0.023589341
50	0xbc9f893b	-0.019474616
51	0xbd041442	-0.03224588
52	0xbb847b09	-0.0040429872
53	0x3c5442ee	0.01295541
54	0xbc832129	-0.016007023
55	0xbb68644e	-0.0035460177
56	0x3d24f5ef	0.040273603
57	0x3ced425d	0.028962309
58	0xbbb44d45	-0.0055023753
59	0x3c575b22	0.013144286
60	0xbcfe3a34	-0.031033613
61	0x39abbc16	0.00032755797
62	0xbbbbdd53	-0.005733171
63	0x3b0344cd	0.0020030022
64	0x3b994eb7	0.004678573
65	0xbca7d74d	-0.020488406
66	0xbb68e33b	-0.003553583
67	0x3ccd98c3	0.025097257
68	0xbd3da261	-0.046297435
69	0xbd5e3b78	-0.054255933
70	0x3bc8b77d	0.006125389
71	0xbd333d54	-0.04375966
72	0x3acc7b0f	0.0015600639
73	0xbba4315e	-0.005010768
74	0x3d0112b4	0.031511977
75	0x3ce330f8	0.027733311
76	0x3cab883c	0.020938985
77	0x3c168b8f	0.009188547
78	0x3be7764a	0.0070636617
79	0xbccefe88	-0.025267854
80	0xbd4286c7	-0.047491815
81	0xbcf8e8d7	-0.030384464
82	0x3cbe9764	0.023265548
83	0x3cd4dee2	0.025985185
84	0xbcd84910	-0.026402026
85	0x3d3c1bf6	0.045925103
86	0x3ba7d82f	0.0051222066
87	0xbd51befa	-0.05120752
88	0x3d13799a	0.03600464
89	0xbcedad30	-0.029013246
90	0x3d6ba700	0.05753231
91	0x3c4a292c	0.012338918
92	0x3c9ae8f3	0.018909907
93	0x3d72cba6	0.059276246
94	0xbcbad248	-0.022805348
95	0x3d1eeac5	0.038798112
96	0x3c475d50	0.0121682435
97	0x3d19dd33	0.037564468
98	0x3cef1ca6	0.029188465
99	0xbb1d40b1	-0.0023994858
100	0xbd84b1d8	-0.064792335
101	0x3c8aff46	0.016967427
102	0x3d02bbc5	0.031917352
103	0x3d34c15a	0.044129707
104	0xbbd5bf9f	-0.006523087
105	0xbd020ce5	-0.03175058
106	0xbd1ad500	-0.03780079
107	0xbcda0da9	-0.026617842
108	0x3d18c87d	0.037300576
109	0x3d25fff6	0.040527306
110	0xbc8494cd	-0.016184235
111	0xbcd76d8c	-0.026297353
112	0x3cfbf68e	0.030757215
113	0x3b5577b3	0.0032572567
114	0xbc6e588f	-0.014547481
115	0xbd4e3ce3	-0.050351035
116	0xbd0547b1	-0.032539073
117	0xbb964869	-0.0045862687
118	0x3c521fc3	0.012824955
119	0x3c485610	0.01222755
120	0xbce0169b	-0.02735453
121	0x3cd34fe6	0.025794934
122	0xbc4bfc5a	-0.012450302
123	0xbccbe5ad	-0.024889791
124	0xbbfd29ba	-0.0077259215
125	0x3bcdc2b3	0.0062793135
126	0xbce014a5	-0.027353594
127	0x3ca65e84	0.02030874
128	0xbc675c72	-0.014121162
129	0xbbdea650	-0.0067947283
130	0xbcf43faf	-0.029815523
131	0x3cd7c121	0.026337208
132	0x38f7fd65	0.00011825076
133	0x3bedaed7	0.0072535085
134	0xbb9b8284	-0.0047457833
135	0xbcfd15f8	-0.030894265
136	0x3d020c8b	0.031750243
137	0x3a8907aa	0.0010454555
138	0xbc4dbee6	-0.012557721
139	0xbcb85222	-0.022500101
140	0x3b48c1ab	0.0030633013
141	0xbb1a7590	-0.0023568608
142	0x3c80d8e6	0.015728425
143	0x3c814934	0.015781976
144	0x3c569c1e	0.013098745
145	0x3cbb26a2	0.02284557
146	0x3c9ac32c	0.018891893
147	0x3d0bb9cc	0.034112737
148	0xbc8eda1c	-0.017437987
149	0xbbfe80ca	-0.0077668177
150	0xbc10ea57	-0.0088449335
151	0xbd3eaa6d	-0.04654925
152	0x3aa248ee	0.0012381354
153	0xbbe1488b	-0.006875103
154	0xbbe72082	-0.007053436
155	0xbc7f17e3	-0.01556966
156	0x3c9e4076	0.019317847
157	0xbc856630	-0.016284078
158	0xbc8796d2	-0.016551409
159	0xbb0da13a	-0.002161099
160	0x3cb1e373	0.021714902
161	0xbc94fe14	-0.01818756
162	0xbc334861	-0.010942549
163	0xbd20dcdd	-0.03927313
164	0xbb62163c	-0.0034498116
165	0x3d058315	0.032595713
166	0x3c5ffef0	0.013671622
167	0x3ce03c07	0.027372373
168	0xbc01478c	-0.007890593
169	0x3a805015	0.0009789491
170	0xbc001f8c	-0.007820021
171	0xbb734210	-0.0037118234
172	0x3b144c2c	0.002262841
173	0x3c15bb76	0.009138932
174	0xbcabef9c	-0.020988278
175	0x3d0dc9b6	0.034616195
176	0xba8c70b6	-0.0010714743
177	0xbca54b12	-0.020177398
178	0x3a298ef2	0.0006468139
179	0x3cfbdd1b	0.03074508
180	0xbc0a1851	-0.008428649
181	0xba03fa9e	-0.0005034598
182	0x3c198651	0.009370402
183	0xbc08cdb6	-0.008349827
184	0x3c0c63e6	0.0085687395
185	0xbba39faf	-0.004993401
186	0x3ce2ed09	0.027700918
187	0x3ca98300	0.020692348
188	0x3c7678dd	0.0150434645
189	0x3c059ab3	0.008154559
190	0x3b23d071	0.0024996067
191	0x3ca8fed7	0.02062933
192	0xbc59d896	-0.013296267
193	0x3ce49b70	0.02790615
194	0xbb8ea5b1	-0.004353248
195	0xba4a42f8	-0.00077156676
196	0x3b8b546b	0.0042520068
197	0x3be2ef5e	0.0069255074
198	0x3c188d3f	0.009311019
199	0x3b8ea157	0.0043527293
200	0x3c6453cc	0.013935994
201	0x3c4e8847	0.012605733
202	0xbc3e1b59	-0.0116032
203	0xbcaaf2e9	-0.020867782
204	0x3b6166a9	0.0034393466
205	0xbca02143	-0.01954711
206	0xbd056944	-0.032571092
207	0x3b4d6a73	0.0031343966
208	0x3c949e73	0.01814196
209	0x3c7d525f	0.015461533
210	0xbc1871e9	-0.009304502
211	0xbb57ea2d	-0.0032945976
212	0x3cdb9a66	0.026807021
213	0xbccd4250	-0.025056034
214	0xbcefbfa5	-0.029266188
215	0x3b3e367c	0.0029024174
216	0xbcc92a3c	-0.024556272
217	0x3cfd11c2	0.030892257
218	0xbc02073a	-0.007936293
219	0xbc819361	-0.015817346
220	0xb9ad8f58	-0.0003310393
221	0x3d1253fb	0.03572462
222	0x3cccc39d	0.02499562
223	0xbb0c1446	-0.0021374389
224	0x3a3311c5	0.0006830956
225	0x3c8d7b13	0.0172706
226	0x3c137f35	0.0090024965
227	0xbca9c0cc	-0.020721816
228	0x3c63ff16	0.013915798
229	0x3c891a02	0.016736034
230	0x3ceef57d	0.029169792
231	0xbbbd618a	-0.00577945
232	0xb9c12de0	-0.00036846008
233	0xbba9f1ce	-0.005186296
234	0x3c48347c	0.0122195445
235	0x3ba1df18	0.004939925
236	0x3c5beec4	0.013423625
237	0x3c1e164b	0.00964887
238	0x3c95df50	0.01829496
239	0xbb8a0056	-0.004211466
240	0xbcc6c795	-0.02426509
241	0xbbf09569	-0.00734203
242	0x3c09d6d9	0.00841304
243	0x3c9ceb28	0.0191551
244	0x3c8e9ce4	0.017408796
245	0x3c2b8be9	0.010470369
246	0x3b3b79bf	0.0028606502
247	0xbc04381c	-0.008070018
248	0x3bba7328	0.005689997
249	0xbc8fbfea	-0.017547566
250	0x3d1e79dd	0.038690437
251	0x3b4ab5dc	0.003093115
252	0x3cce403d	0.025177116
253	0xbc612681	-0.01374209
254	0xbacf67ce	-0.0015823783
255	0x3b520d3c	0.0032051345

position_embedding.weight f4 [30, 64]
0	0x3d14781d	0.03624736
1	0xbd05b949	-0.032647405
2	0x3d2a4e92	0.041578837
3	0x3cf9fa02	0.03051472
4	0xbc297d62	-0.010344835
5	0xbc16b4f6	-0.009198418
6	0xbc1ea54c	-0.0096829645
7	0xbc528ef9	-0.01285147
8	0xbd3e02bf	-0.046389338
9	0xbd365d10	-0.044522345
10	0xbb0c1bff	-0.0021378992
11	0x3c610c56	0.013735851
12	0x3d1e31fa	0.03862188
13	0x3c61f79e	0.013791947
14	0x3d7ea265	0.06216659
15	0xbc110111	-0.008850352
16	0xbc4124ce	-0.01178856
17	0xbc7ccccf	-0.01542969
18	0x3d0a8a8a	0.033823527
19	0x3b845d2a	0.0040394263
20	0xbc93e80b	-0.018054983
21	0xbb8aee39	-0.004239824
22	0x3c8b1777	0.016978962
23	0xbc1026e6	-0.008798337
24	0xbc5a8914	-0.013338346
25	0xbd0c24a6	-0.03421464
26	0x3c1b8897	0.009493015
27	0x3cece49a	0.0289176
28	0x3cb8f909	0.022579687
29	0x3c96a3ea	0.018388707
30	0xbca61e98	-0.02027826
31	0x3c208ada	0.00979873
32	0x3d2d67fd	0.0423355
33	0x3d143fc1	0.036193613
34	0x3ce3fab9	0.027829515
35	0x3cdf24dd	0.027239257
36	0x3c70b0da	0.014690602
37	0x3ce0e498	0.027452752
38	0x3d22ba6e	0.039728574
39	0x3c9bfc81	0.019041302
40	0xbd3471a8	-0.044053704
41	0xbce57d69	-0.028013902
42	0x3bb9f026	0.00567438
43	0xbcc38887	-0.023868812
44	0x39947664	0.00028316968
45	0x39bdc550	0.00036195898
46	0xbcf6d8e4	-0.030132718
47	0xbbb1a277	-0.0054209786
48	0x3bb038eb	0.005377879
49	0xbb7c38ce	-0.0038486007
50	0x3cdc0398	0.026857182
51	0xbd09873c	-0.033576235
52	0xbcea5582	-0.028605226
53	0xbd5e7a10	-0.054315627
54	0x3b864033	0.0040970086
55	0x3ce5adc8	0.028036967
56	0xbd2099b0	-0.039209068
57	0x3d1c8ef5	0.038222272
58	0x3ce6a141	0.028153064
59	0xbd13c569	-0.036076937
60	0xbd0a4a6a	-0.033762373
61	0xbb3bc642	-0.0028652106
62	0xbcfb9b25	-0.030713627
63	0xbc4a7a1d	-0.012358216
64	0xbcdd5c47	-0.02702154
65	0x3cbacb88	0.02280213
66	0xbd54f8b3	-0.05199499
67	0x3cef0332	0.029176328
68	0xbd2abef5	-0.041686017
69	0x3ccd5b3a	0.025067914
70	0xbc5d26b6	-0.013497999
71	0x3c80460e	0.015658405
72	0x3d0088ed	0.031380583
73	0x3cc7bbec	0.0243816
74	0x3b880d70	0.0041519925
75	0xbc5ab7bc	-0.01334947
76	0x3d30493a	0.043038584
77	0xbca09500	-0.019602299
78	0x3b32c1ff	0.0027276275
79	0x3cbad9a5	0.02280886
80	0x3c2b7f27	0.010467327
81	0x3bef3063	0.0072994693
82	0x3bfe08f3	0.0077525317
83	0xbcaedcba	-0.021345485
84	0x3bb5f4a7	0.0055528465
85	0xbd3191ff	-0.043352123
86	0xbc6cb810	-0.014448181
87	0x3d11395c	0.035455093
88	0xbc177d4e	-0.009246184
89	0x3c01ba20	0.007917911
90	0xbb533cfa	-0.003223239
91	0xbceffcb5	-0.029295305
92	0xbc3d3719	-0.011548781
93	0xbc98949a	-0.018625546
94	0x3b26b6a9	0.0025438464
95	0x3cf94b19	0.030431317
96	0xbb56a892	-0.0032754284
97	0xbd3334af	-0.043751415
98	0x3c84bcef	0.016203372
99	0xbc17f9fe	-0.009275911
100	0x3c8a1085	0.01685358
101	0xbc7272f7	-0.014797918
102	0x3cf93931	0.030422779
103	0x3beefc27	0.0072932425
104	0xbcc4e59a	-0.024035264
105	0xbbe9c120	-0.007133618
106	0x3ccd1ad8	0.025037214
107	0x3b3154af	0.0027058532
108	0xbc8768fe	-0.016529556
109	0xba90d4e3	-0.0011049773
110	0x3d3c59ce	0.045984082
111	0xbb6ae03c	-0.003583922
112	0xbba6c435	-0.0050893077
113	0x3cce5049	0.025184767
114	0xbd163363	-0.0366701
115	0xbc6d453b	-0.014481838
116	0xb9dc6be8	-0.00042042066
117	0x3c55d2ea	0.013050774
118	0x3c74c7e6	0.014940238
119	0xbb8e1fdd	-0.0043372945
120	0xbc4dabd2	-0.012553172
121	0x3d170dad	0.036878277
122	0xbd1f8363	-0.03894366
123	0xbc54599b	-0.012960817
124	0x3bf83dc3	0.007575722
125	0xbd269adf	-0.04067504
126	0xbc842702	-0.016131882
127	0x3aa54ae5	0.0012610821
128	0xbc77c294	-0.015122075
129	0x3ac5bf1a	0.001508686
130	0xbcaf481d	-0.021396691
131	0x3d3225ee	0.043493204
132	0xbcaf5bed	-0.021406138
133	0x3c928f09	0.01789047
134	0xbd0d55d5	-0.034505684
135	0xbbd326f5	-0.006443853
136	0x3c8ce466	0.017198753
137	0x3ccae8e0	0.024769247
138	0xbb887af9	-0.00416505
139	0xbb186e81	-0.0023259225
140	0x3ca96f4f	0.020682959
141	0x3c6f9e05	0.014625077
142	0x3c84b6ab	0.016200384
143	0x3cdbc429	0.026826935
144	0x3b1feb12	0.0024401587
145	0x3b2c6e53	0.0026310876
146	0x3c8cc9fc	0.017186157
147	0xbcf37c22	-0.029722277
148	0x3c18ea56	0.009333214
149	0xba2376a9	-0.0006235638
150	0x3cac4275	0.021027783
151	0x3d0cadcf	0.034345444
152	0x3d1966a1	0.03745139
153	0xbd0b0715	-0.0339423
154	0xbbe5201a	-0.006992352
155	0xbc60141f	-0.013676672
156	0xbd09e886	-0.033669017
157	0xbd4e21f9	-0.050325368
158	0xbc8b64db	-0.017015865
159	0x3d169c51	0.03677017
160	0xbcba15df	-0.022715507
161	0xbd11796b	-0.035516184
162	0x3ca59401	0.020212175
163	0x3ccc2194	0.024918355
164	0x3c8462a4	0.016160317
165	0xbc2bf93e	-0.010496436
166	0xbd27b9ee	-0.0409488
167	0x3c41b0f5	0.011821975
168	0xbd113ec4	-0.03546025
169	0x3c8cd9d1	0.017193707
170	0x3ccd2ab1	0.02504477
171	0x3c57dcf8	0.013175242
172	0xbd0fe3cd	-0.035129357
173	0xbcf0c035	-0.029388526
174	0x3cbb8d6b	0.022894582
175	0xbb852ee4	-0.0040644277
176	0x3bed37ec	0.0072393324
177	0x3cf226e3	0.029559558
178	0xbd24d077	-0.04023787
179	0xbd19fe08	-0.03759578
180	0xbba958a1	-0.005168036
181	0x3be44a68	0.0069668777
182	0x3cbe9f30	0.023269266
183	0xbc202ba3	-0.009776029
184	0xbc8f7ff1	-0.017517062
185	0x3c6e3e11	0.014541165
186	0xbd087e86	-0.033323787
187	0xbc667ab8	-0.014067344
188	0xbbd9dcdc	-0.006648643
189	0xbd1621a8	-0.03665319
190	0x3ca487a9	0.020084219
191	0xbcc24161	-0.023712816
192	0xbcf94b44	-0.030431397
193	0x3d1ed0dc	0.038773403
194	0xbd3d3061	-0.046188716
195	0xbc5a991a	-0.013342166
196	0x3d3971dd	0.045274604
197	0xbce283cf	-0.027650742
198	0x3ca30568	0.019900039
199	0xbb26cae3	-0.002545052
200	0xbcfc8a97	-0.030827804
201	0xbd1c2770	-0.038123548
202	0x3d006a16	0.03135117
203	0xbcf96b21	-0.03044659
204	0x3cf4c5c3	0.029879456
205	0x3b1a8212	0.0023576063
206	0xbbf0d23e	-0.0073492816
207	0xbc0c064c	-0.008546423
208	0x3d49f3e8	0.049304873
209	0xbc518ffe	-0.012790678
210	0x3d8441c9	0.0645786
211	0x3d19faa7	0.037592556
212	0xbcfec0a0	-0.03109771
213	0x3cd31b45	0.025769839
214	0x3d3d307b	0.046188813
215	0xbd096396	-0.03354224
216	0xbcc6f070	-0.024284571
217	0x3d0628a6	0.03275361
218	0x3b187df5	0.0023268436
219	0xbcb6d249	-0.022317069
220	0x3c976859	0.018482374
221	0x3cd3d8fc	0.025860302
222	0x3cc4e814	0.024036445
223	0x3d367d6c	0.044553205
224	0xbc72701b	-0.014797236
225	0x3d072955	0.0329984
226	0xbceed5da	-0.029154707
227	0xbd17bf22	-0.037047513
228	0x3ce5def9	0.028060423
229	0xbad518ff	-0.001625806
230	0x3d2ae917	0.041726198
231	0xbc9bbfa9	-0.01901229
232	0x3d314a87	0.043283965
233	0x3d44b6b0	0.048025787
234	0x3d3649af	0.044503864
235	0xbcfc9131	-0.030830951
236	0x3d247863	0.040153872
237	0x3c653fbf	0.013992249
238	0xbd5e12e0	-0.05421722
239	0xbcb8a7c2	-0.02254093
240	0xbc5115c2	-0.012761535
241	0xbd105aef	-0.03524297
242	0x3c29c237	0.010361246
243	0x3ca941a6	0.020661186
244	0x3d0f5531	0.034993354
245	0xbcd29473	-0.025705552
246	0xbd4dd14c	-0.05024843
247	0xbcc26109	-0.02372791
248	0xbd22296f	-0.039590295
249	0xbcd3b4e5	-0.025843093
250	0x3b89ecd4	0.0042091403
251	0x3cc75d39	0.024336444
252	0x3cdeae27	0.027182652
253	0x3d41f546	0.04735305
254	0xbbec2cee	-0.0072075045
255	0x3ce9d9e1	0.028546276

transformer.layers.0.self_attn.in_proj_weight f4 [192, 64]
0	0xbdab967b	-0.08378311
1	0x3e151901	0.1456032
2	0x3dc263e5	0.094917096
3	0xbdbdda8b	-0.092701994
4	0xbdaedccd	-0.08538208
5	0xbd182ad3	-0.037150215
6	0xbdae6e77	-0.08517163
7	0x3bce16b3	0.006289327
8	0xbcf7a757	-0.030231161
9	0xbe0e1aea	-0.13877454
10	0x3d778da5	0.060437817
11	0xbda144b6	-0.07874434
12	0xbd9c0ef7	-0.07620042
13	0xba9efa80	-0.0012129098
14	0x3d868b04	0.06569484
15	0xbde27281	-0.11056996
16	0xbdf70003	-0.12060549
17	0xbddb1b49	-0.106985636
18	0x3ddaf069	0.10690386
19	0xbbcc43d2	-0.0062336707
20	0xbe104c62	-0.14091638
21	0x3d2940b7	0.041321483
22	0x3e0cf19b	0.1376404
23	0x3dec656f	0.115427844
24	0xbcc78416	-0.024354976
25	0x3de57391	0.11203683
26	0xbdbf76df	-0.09348845
27	0xbd115f80	-0.035491467
28	0x3d8caa61	0.06868435
29	0x3dac76c6	0.08421092
30	0x3d5578b3	0.05211706
31	0x3d10ff33	0.035399627
32	0xbe029f2a	-0.12756029
33	0xbd91cc44	-0.07119039
34	0xbd594cf2	-0.053051896
35	0x3d7d8c44	0.061901346
36	0x3dde3233	0.108494185
37	0x3e058d19	0.13042106
38	0xbdce24dc	-0.10065624
39	0x3b33ef7f	0.0027455983
40	0xbdfafe46	-0.1225553
41	0x3e0b355d	0.13594575
42	0x3dc5a647	0.096508555
43	0xbb2b04c1	-0.0026095363
44	0xbce9cd6c	-0.028540336
45	0xbd4a112f	-0.049332794
46	0xbdf92581	-0.121653564
47	0xbdb2b964	-0.08726767
48	0xbd45c113	-0.048279833
49	0xbd9f229b	-0.07770272
50	0x3c994c6a	0.018713195
51	0xbcac6097	-0.021042151
52	0xbc58fc41	-0.013243736
53	0x3cb7f4ae	0.02245554
54	0xbab17a21	-0.0013540426
55	0xbcd94a72	-0.026524756
56	0x3e09e68f	0.13466857
57	0xbdabc49d	-0.083871104
58	0xbd8b243c	-0.067940205
59	0xbc4330ae	-0.011913462
60	0x3dade1d7	0.08490341
61	0xbdb3f146	-0.08786254
62	0x3da74c5b	0.081688605
63	0xbe01051f	-0.1259961
64	0xbe04a3fa	-0.12953177
65	0xbe04ab38	-0.1295594
66	0x3bba97a2	0.0056943456
67	0x3d42e818	0.047584623
68	0x3ddbafa0	0.10726857
69	0x3dc9c858	0.09852666
70	0xbe021731	-0.1270416
71	0xbd39af4a	-0.045333184
72	0x3de0ba21	0.10973001
73	0x3df59e3a	0.1199307
74	0xbe063e6d	-0.13109751
75	0xbd7043e5	-0.0586585
76	0xbda1a1cc	-0.078921884
77	0xbe0f959a	-0.14021912
78	0xbd8d0268	-0.068852246
79	0xbc9e8569	-0.019350724
80	0xbe1becd8	-0.15227067
81	0xbdb82146	-0.089907214
82	0x3d86d2a1	0.06583143
83	0xbe3aa5e4	-0.18227345
84	0x3da82b96	0.08211438
85	0xbc5a4a61	-0.013323397
86	0xbd4baf10	-0.0497275
87	0x3cbfbd6e	0.023405757
88	0xbd783db2	-0.060605712
89	0x3d1ea33c	0.03872989
90	0xbcb56673	-0.022143578
91	0xbdca5336	-0.098791525
92	0x3dbd2dc2	0.09237243
93	0xbd1847ac	-0.037177727
94	0xbdb96721	-0.090528734
95	0xbde817b7	-0.11332648
96	0xbd76c016	-0.06024178
97	0x3cd57dc0	0.026060939
98	0x3cecff81	0.028930428
99	0xbd8ca5a3	-0.0686753
100	0x3e240bfe	0.160202
101	0xbe1f7f62	-0.15575936
102	0x3dc00ad1	0.09377063
103	0xbdd3b10a	-0.10336502
104	0xbd9fc03a	-0.07800336
105	0x3dc68842	0.09693958
106	0x3e1ca9f8	0.15299213
107	0xbdd4da31	-0.10393179
108	0xbded95b5	-0.1160082
109	0xbe0a2ff7	-0.1349486
110	0xbda82f05	-0.08212093
111	0xbe0e4916	-0.13895068
112	0xbdb20f4d	-0.08694325
113	0x3e212df8	0.15740192
114	0x3dd12b6a	0.10213359
115	0x3d87d346	0.06632094
116	0xbded0726	-0.11573629
117	0x3d89689d	0.067094065
118	0x3dcb25fa	0.09919353
119	0xbdfd49d2	-0.12367596
120	0xbdab256a	-0.083567455
121	0xbd13fc98	-0.036129564
122	0xbd333e90	-0.043760836
123	0x3dfc0716	0.12306039
124	0xbdd9cc81	-0.10634709
125	0xbdaa6179	-0.08319373
126	0x3e039317	0.12849079
127	0xbe1d6bee	-0.15373203
128	0x3d0490d7	0.032364693
129	0xbe17ed2d	-0.14836569
130	0xbbe8b433	-0.0071015595
131	0x3da1ea81	0.07906056
132	0xbe0b7452	-0.13618591
133	0xbb983c39	-0.004645851
134	0xbddeab0b	-0.108724676
135	0xbdfc201c	-0.12310812
136	0xbdf7ca60	-0.12099147
137	0xbcc82bb4	-0.024434902
138	0xbe09051a	-0.13380852
139	0xbb14a004	-0.0022678385
140	0x3df2ec3e	0.11861466
141	0x3d6f0d0f	0.058362063
142	0xbdaee4ce	-0.08539735
143	0xbde68ecf	-0.11257707
144	0x3e1a3d06	0.15062341
145	0xbd24cf1c	-0.040236577
146	0x3bf0e6d1	0.007351734
147	0x3d56bf42	0.05242849
148	0xbd75409b	-0.059876066
149	0xbd725c39	-0.05916998
150	0x3c2c03f0	0.010498986
151	0xbca90790	-0.020633489
152	0xbda4e12b	-0.0805076
153	0xbdaf8765	-0.08570746
154	0xbded9606	-0.1160088
155	0x3df8eaac	0.12154135
156	0x3ceb808f	0.028747825
157	0x3d19f79b	0.03758965
158	0x3df46ca1	0.11934782
159	0xbdd3d299	-0.10342903
160	0x3dcd8e29	0.100368805
161	0xbc16291a	-0.009165073
162	0x3d148a29	0.036264572
163	0x3e16b500	0.14717484
164	0xbcc11044	-0.023567326
165	0xbda001ae	-0.078128204
166	0xbcff7348	-0.0311829
167	0x3cf57326	0.029962134
168	0xbe1c3159	-0.152532
169	0x3de1d845	0.11027578
170	0x3cff8f4f	0.031196265
171	0x3e243522	0.16035894
172	0x3da69a78	0.08134931
173	0xbe0326ac	-0.12807721
174	0xbccae34e	-0.02476659
175	0xbce09906	-0.027416717
176	0xbd1c717f	-0.038194176
177	0x3ddb6190	0.10711968
178	0x3df2adf9	0.11849589
179	0x3c9fa4be	0.019487735
180	0xba800353	-0.0009766616
181	0xbd7b2519	-0.061314676
182	0xbdb90fa4	-0.09036186
183	0x3cbea79a	0.023273278
184	0xbdc66be9	-0.09688551
185	0x3c6ae9c7	0.014337963
186	0xbe2171ff	-0.15766142
187	0xbd7efd6d	-0.062253404
188	0xbd97fb7e	-0.07421015
189	0xbda46093	-0.080262326
190	0x3dfe3d9f	0.12414097
191	0xbe31ff2c	-0.17382497
192	0x3c4eea0c	0.012629043
193	0xbe0b030a	-0.13575378
194	0xbd41ede4	-0.04734601
195	0x3db7a5a4	0.0896714
196	0x3d545cbb	0.051846247
197	0xbe06d701	-0.13167955
198	0x3d97bab3	0.07408657
199	0x3dc2d99d	0.09514163
200	0x3d948ab9	0.07253022
201	0xbc86b02b	-0.016441425
202	0xbe119bd9	-0.14219607
203	0xbdb9d4ee	-0.09073816
204	0x3c8c36d4	0.017115988
205	0x3df4c698	0.11951941
206	0x3daa301f	0.083099596
207	0xbdbdcff8	-0.092681825
208	0x3dcf20e1	0.10113693
209	0xbd9203d2	-0.07129635
210	0xbdbac9b7	-0.09120505
211	0x3cfac0f3	0.030609583
212	0xbd08abb7	-0.033366885
213	0x3db7930a	0.08963592
214	0x3c09386d	0.008375269
215	0xbe22b91c	-0.15890926
216	0xbc83b98d	-0.016079688
217	0x3d90215f	0.07037615
218	0x3de8a785	0.11360077
219	0xbb9c0024	-0.004760759
220	0xbd878a07	-0.066181235
221	0xbd3576a8	-0.044302613
222	0xbdbb19c2	-0.09135772
223	0x3d1bb348	0.038012773
224	0xbdc08d1f	-0.09401917
225	0x3e208268	0.15674746
226	0xbcea292a	-0.028584082
227	0x3d93e753	0.07221856
228	0x3dd48a1a	0.10377903
229	0x3dc37134	0.09543076
230	0xbd721c59	-0.059109066
231	0xbd9d2423	-0.07672908
232	0x3d58f535	0.052968223
233	0x3d33ef7a	0.043929555
234	0xbd45cb36	-0.0482895
235	0x3e0ca9c4	0.13736635
236	0x3d2db7a6	0.04241147
237	0xbcb14b7d	-0.02164244
238	0xbdb363ed	-0.08759294
239	0xbd0e174c	-0.034690186
240	0xbe20ee5e	-0.1571593
241	0xbd23e758	-0.04001555
242	0x3e36cefb	0.17852394
243	0x3d3d915a	0.046281196
244	0x3bd28f95	0.0064258077
245	0xbe17b2e0	-0.14814329
246	0xbd16b8a8	-0.036797196
247	0x3da5fdb4	0.08105031
248	0x3d7c90ae	0.061661415
249	0xbd9be3c6	-0.07611804
250	0x3e048a92	0.12943485
251	0x3c9f511e	0.01944786
252	0xbd925f0a	-0.071470335
253	0xbdd26047	-0.1027227
254	0xbdb9c643	-0.090710185
255	0xbd5f490e	-0.05451303

transformer.layers.0.self_attn.in_proj_bias f4 [192]
0	0x3b2ece3c	0.0026673218
1	0x3bee47fd	0.0072717653
2	0xbba5c076	-0.0050583435
3	0xbbc7b49a	-0.0060945274
4	0x3b601f30	0.0034198277
5	0x3b2811b1	0.002564531
6	0xbc701aad	-0.0146547975
7	0x3bbc1379	0.005739626
8	0xbae33729	-0.0017335165
9	0x3a01e392	0.000495487
10	0xbc34d427	-0.011036909
11	0xbb2cdb3b	-0.0026375789
12	0x3b754bbd	0.0037429177
13	0xbb7f754d	-0.0038979829
14	0xbb88bd08	-0.004172925
15	0xbba83902	-0.005133749
16	0xbab68d3b	-0.0013927588
17	0x3b43bc10	0.0029866733
18	0x3ad3d07d	0.0016160157
19	0xbc4e4b85	-0.012591247
20	0xbd0435a4	-0.03227772
21	0x3b2427d5	0.0025048156
22	0xbc4a3788	-0.012342341
23	0xbb6413ed	-0.0034801916
24	0xbb6478d7	-0.0034862065
25	0xbb86d75b	-0.004115028
26	0x3af96e33	0.0019030034
27	0x3ac676ea	0.001514164
28	0xbbc2642e	-0.0059323525
29	0x3c562ff8	0.01307296
30	0xbba32b5a	-0.004979533
31	0x3ac50687	0.0015031853
32	0x3d4de829	0.050270233
33	0x3bd2ecdc	0.0064369272
34	0xbc792084	-0.015205506
35	0x3d57c15f	0.052674647
36	0xbcdc0198	-0.026856229
37	0xbd47d066	-0.04878273
38	0xbd0b1411	-0.033954684
39	0x3c98b779	0.018642174
40	0x3c42e601	0.0118956575
41	0x3ce65aa2	0.028119389
42	0xbc53f2ba	-0.0129362885
43	0xbc6d6b22	-0.0144908745
44	0xbd1dee20	-0.03855717
45	0x3d046b2d	0.032328773
46	0xbc441c78	-0.011969678
47	0x3c19232c	0.009346765
48	0x3c058c7c	0.00815117
49	0xbcd8664b	-0.026415965
50	0xbd4833ab	-0.0488774
51	0x3c2d2a4c	0.010569166
52	0xbb9360e3	-0.004497634
53	0xbb53c2e5	-0.003231221
54	0x3c8d55a5	0.017252753
55	0x3b6aea18	0.0035845097
56	0xbc5e0c4b	-0.013552736
57	0x3cc4281d	0.023944909
58	0x3cbe0f71	0.023200722
59	0xbcfa84d7	-0.030580921
60	0xbc7048fe	-0.01466584
61	0x3d039be6	0.0321311
62	0x3c8bc79d	0.017062956
63	0x3c9b1bd5	0.01893417
64	0x34a0335c	2.983969e-07
65	0x34c0b78a	3.589633e-07
66	0xb4c0c6bf	-3.5907394e-07
67	0xb4a7f687	-3.1285546e-07
68	0x3415c63c	1.3948824e-07
69	0x34911a97	2.70277e-07
70	0xb5044558	-4.927474e-07
71	0x34c398b4	3.6432687e-07
72	0x340da2ff	1.3190946e-07
73	0x34992b17	2.8529823e-07
74	0xb4234f0f	-1.520932e-07
75	0xb548a3d3	-7.47442e-07
76	0x34005f27	1.1955545e-07
77	0xb49d530c	-2.9303953e-07
78	0xb4301a2e	-1.6400801e-07
79	0xb519ddcb	-5.731969e-07
80	0x31489724	2.9189744e-09
81	0x348df0e4	2.6438568e-07
82	0x33618220	5.2505243e-08
83	0x3304d390	3.092606e-08
84	0xb420ed9e	-1.4987606e-07
85	0x346f11d6	2.2265098e-07
86	0xb42e3bef	-1.6226817e-07
87	0x349d6485	2.9316666e-07
88	0x32198de6	8.938036e-09
89	0xb4201ee7	-1.4912403e-07
90	0xb340eeee	-4.492079e-08
91	0x343c6f0f	1.7549267e-07
92	0xb3e849b0	-1.08167455e-07
93	0x338d4c18	6.5796655e-08
94	0xb4690e50	-2.1705023e-07
95	0xb412cb48	-1.3671263e-07
96	0xb4508782	-1.9420807e-07
97	0x34f96371	4.6452217e-07
98	0xb30655a3	-3.1277192e-08
99	0xb4aa89d1	-3.1765242e-07
100	0x34fc447a	4.698848e-07
101	0x3451b417	1.9530158e-07
102	0x352f96ed	6.5412206e-07
103	0x347f4853	2.3775037e-07
104	0x34c513b0	3.6708434e-07
105	0x347e2aa1	2.3671102e-07
106	0xb456f1bf	-2.001825e-07
107	0xb412704c	-1.3638163e-07
108	0x350eeb1a	5.324124e-07
109	0xb5732a76	-9.0586343e-07
110	0xb4b60c88	-3.390926e-07
111	0xb43454a5	-1.67946e-07
112	0x3434abcc	1.6826306e-07
113	0xb3e73892	-1.0767066e-07
114	0x359b5392	1.1572722e-06
115	0xb31f86b3	-3.714258e-08
116	0x34e03743	4.176346e-07
117	0xb27641dc	-1.4334059e-08
118	0x3397818b	7.055049e-08
119	0x350e4fd8	5.301531e-07
120	0xb31f05c5	-3.702532e-08
121	0xb4fb11cb	-4.676534e-07
122	0xb42b4abd	-1.5952806e-07
123	0xb4019407	-1.2067913e-07
124	0xb51a4c65	-5.748064e-07
125	0xb48d8a54	-2.6363944e-07
126	0x33966c0a	7.0045715e-08
127	0xb484d2c9	-2.4740282e-07
128	0x3c16257e	0.009164212
129	0xbbc589fc	-0.006028412
130	0xbb30946a	-0.002694393
131	0xbb5b9710	-0.0033506788
132	0xbb05fe26	-0.0020445674
133	0xba0aa4d2	-0.00052888424
134	0xbac1d195	-0.0014787192
135	0x3ab4f45b	0.0013805734
136	0x3c955488	0.018228784
137	0x3bb9c65e	0.005669399
138	0xbab17a38	-0.0013540452
139	0x3b7e3733	0.0038790226
140	0xbb1ddf5c	-0.0024089431
141	0xbbd3e4f7	-0.0064665037
142	0x3c804f51	0.015662821
143	0x3c862623	0.016375607
144	0x3c5c3b21	0.013441832
145	0x3b9a0aee	0.00470101
146	0xbba06f71	-0.0048960974
147	0x3c6f37f9	0.014600747
148	0x3c81b8ab	0.015835127
149	0xbafee8cc	-0.0019448041
150	0x3b7cc8e9	0.00385719
151	0x3ae5c2e3	0.0017529394
152	0xbc40eeae	-0.011775656
153	0xba27da33	-0.00064030587
154	0x3c1258f3	0.00893234
155	0xbc1ece67	-0.009692765
156	0xbbc87a92	-0.006118127
157	0x3be0ca6d	0.0068600685
158	0x3a5ce8a7	0.0008427002
159	0xbc8d69be	-0.017262336
160	0x3a769e41	0.0009407737
161	0x3bd079f3	0.0063621937
162	0x3ae97d7e	0.0017813889
163	0x3a2cf5b5	0.00065978925
164	0xb7a4679d	-1.9598572e-05
165	0x3c1bdb13	0.009512681
166	0xbb31c35c	-0.00271245
167	0x3c7539ce	0.014967395
168	0x3c88a2dd	0.016679222
169	0xbbf6d55b	-0.007532758
170	0xb75bd245	-1.3102374e-05
171	0xbaefbf3d	-0.0018291246
172	0x3ba5284e	0.005040205
173	0x3c7868bf	0.015161692
174	0xb8dda639	-0.000105690626
175	0x3c54407a	0.012954826
176	0xbb886e48	-0.004163537
177	0x39b1f3b7	0.00033941653
178	0x3caa76f0	0.020808667
179	0xbc778259	-0.015106761
180	0x3b5d0e2f	0.0033730378
181	0xbb092047	-0.002092378
182	0x3a18f22a	0.0005834425
183	0xbc5b041c	-0.013367679
184	0x3872712f	5.7802707e-05
185	0x3c699e10	0.014258876
186	0xbb7b5020	-0.0038347319
187	0x3c8d31aa	0.017235596
188	0xbbb7bf7f	-0.005607545
189	0xbac555b8	-0.0015055453
190	0x3b596871	0.0033173824
191	0x3bc55329	0.0060218764

transformer.layers.0.self_attn.out_proj.weight f4 [64, 64]
0	0xbd1d6f74	-0.038436368
1	0xba588c75	-0.0008260676
2	0xbc1d680a	-0.009607324
3	0xbc3b7761	-0.011442036
4	0x3c2b2ba3	0.0104474155
5	0x3c220ae9	0.0098902965
6	0x3b1fc3c3	0.0024378158
7	0x3cf055fd	0.029337877
8	0x3cc6d5bc	0.024271838
9	0xbcb1952e	-0.02167758
10	0xbbc8ac06	-0.0061240224
11	0x3c44b36d	0.012005669
12	0x3c33fdc8	0.010985799
13	0xba33f77d	-0.0006865187
14	0x3c8d29ac	0.017231785
15	0x3cea6b12	0.028615508
16	0x3c2b7f47	0.010467357
17	0xbd046d4d	-0.0323308
18	0xbcb5f752	-0.022212658
19	0x3d61056d	0.054936815
20	0x3c3b5a67	0.011435128
21	0xbabc36cd	-0.0014359594
22	0xbb909597	-0.0044123637
23	0x3d4e72d4	0.050402477
24	0x3c2aff2b	0.010436813
25	0xbc4a9435	-0.012364437
26	0x399bd58b	0.00029723006
27	0xbd2879a5	-0.041131634
28	0x3bbcedc1	0.005765647
29	0x3cd62618	0.026141211
30	0xbbb6d010	-0.005579002
31	0xbc8067f5	-0.01567457
32	0xbca2c565	-0.019869516
33	0xbb4a704d	-0.003088969
34	0xbc140d99	-0.009036445
35	0x3bec1b3e	0.007205396
36	0x3c0ae3cf	0.008477165
37	0x3d3cfa54	0.04613717
38	0xbcfc98d8	-0.0308346
39	0xbc145ebb	-0.009055789
40	0x3d391c3e	0.04519295
41	0xbd01edcc	-0.03172092
42	0xbbb4d805	-0.0055189156
43	0x3a82a567	0.0009967507
44	0x3aa34a91	0.0012458136
45	0xbba77fdd	-0.005111678
46	0x3c46906f	0.012119397
47	0x3b48584d	0.003057021
48	0x3c5c0701	0.013429404
49	0xbc1675d0	-0.009183362
50	0x3cfd4d75	0.030920723
51	0xbd34cb03	-0.04413892
52	0xbcd4be8a	-0.025969762
53	0x3bb45657	0.0055034566
54	0x3bdf9170	0.0068227574
55	0xbc2e7a6f	-0.010649308
56	0x3cb9b285	0.022668133
57	0xbb8a1966	-0.0042144535
58	0xbc3f5781	-0.011678577
59	0xbb39cb8d	-0.0028350085
60	0xbbc2f357	-0.0059494185
61	0x3c80f6e4	0.015742727
62	0x3d33cead	0.043898273
63	0xbc88403a	-0.016632188
64	0xbd25fc81	-0.04052401
65	0x3ce4b500	0.027918339
66	0xbbcbb13c	-0.0062161963
67	0x3bcd2f2b	0.0062617264
68	0x3c8da8a8	0.017292336
69	0xbd1377b6	-0.036002837
70	0x3c8bd002	0.01706696
71	0xbcf4a5ef	-0.02986428
72	0xbc67d5ee	-0.014150126
73	0xbd09ba81	-0.03362513
74	0xbcc5f86a	-0.024166305
75	0x3cdb5e59	0.026778387
76	0x3c349929	0.011022844
77	0xbb5f94d2	-0.0034115803
78	0xbc69bf94	-0.014266867
79	0x3bf5f24b	0.00750569
80	0xbcfce148	-0.030869141
81	0x3cb1c3b2	0.02169976
82	0x3cc5b9f8	0.024136528
83	0x3b09c62c	0.002102266
84	0xbc727af6	-0.014799824
85	0x3cc9ba16	0.024624866
86	0xbca39868	-0.019970134
87	0x3b4c16b1	0.0031141455
88	0x3bf80cc7	0.0075698826
89	0x3c03c986	0.008043652
90	0xbd3db619	-0.04631624
91	0xbd139b43	-0.03603674
92	0x3c9acb33	0.018895721
93	0x3cb0d30e	0.021585014
94	0xbaad60d4	-0.001322771
95	0xbb9386ad	-0.0045021386
96	0x3c06d750	0.008230045
97	0xbb635367	-0.0034687163
98	0x3b3924be	0.002825066
99	0x3d19c33c	0.037539706
100	0xbd284309	-0.041079555
101	0xbcca2e08	-0.024680153
102	0x3ac5975e	0.0015075018
103	0x3d289893	0.04116113
104	0xbcb5f876	-0.022213202
105	0xb97bd36b	-0.00024015985
106	0x3c126ed2	0.008937554
107	0xbb4fd60f	-0.0031713282
108	0xbb686a05	-0.0035463583
109	0xbcfa0d6e	-0.030523982
110	0xbbbae63f	-0.005703717
111	0x3cc75c91	0.024336131
112	0xbcfe6f56	-0.031058948
113	0x3b9439bf	0.0045234854
114	0xbb17e1ca	-0.0023175352
115	0x3c277f16	0.010223171
116	0xbc302380	-0.010750651
117	0xbb101695	-0.0021986116
118	0xbd0b8778	-0.03406474
119	0xbbe63ceb	-0.007026305
120	0x3ca04647	0.01956476
121	0xbc072df7	-0.008250705
122	0xbc4aef2e	-0.012386126
123	0xbb175711	-0.0023092667
124	0xbc0e2e8b	-0.008678089
125	0x3bb4449b	0.0055013425
126	0xbc3dced4	-0.011584956
127	0xbd00d11e	-0.03144943
128	0x3ce144cb	0.027498623
129	0x3c31f003	0.010860446
130	0x3c7ae965	0.015314435
131	0x3cca2b80	0.024678946
132	0xbb43284a	-0.0029778653
133	0xba3abd1c	-0.00071235164
134	0x3cb2dedc	0.021834783
135	0x3c174253	0.0092321215
136	0xbd0dea8b	-0.034647506
137	0x3cbd66b6	0.023120265
138	0xbc075e78	-0.008262269
139	0x3d0906aa	0.03345362
140	0x3d285f3a	0.04110644
141	0xbd0f28ac	-0.034950897
142	0x3d085c49	0.033291135
143	0xbba9cc3c	-0.0051818173
144	0xbc70a6e9	-0.014688232
145	0xbc339ea1	-0.010963113
146	0xbb6be25a	-0.003599307
147	0x3cc94c80	0.02457261
148	0xbae15f57	-0.0017194551
149	0x3bf7b748	0.0075596906
150	0xbbbe3475	-0.005804593
151	0x3b5a73d9	0.003333321
152	0xbbde7bd2	-0.006789663
153	0x3ce9b977	0.02853082
154	0x3d24b504	0.040211692
155	0xbcad7a27	-0.02117641
156	0x3c8bedc6	0.017081153
157	0x3c6a9de1	0.014319868
158	0x3d0ba668	0.034094244
159	0xbd268d10	-0.04066187
160	0xbcd52239	-0.026017295
161	0x3bff21dd	0.0077860192
162	0xbc4f01ec	-0.012634736
163	0xbc30f4cc	-0.010800552
164	0xbb8cf343	-0.00430146
165	0x3ac07db0	0.0014685895
166	0x3a09bb31	0.0005254029
167	0xbc1c9017	-0.009555838
168	0x3c905c22	0.017622057
169	0xbcf87bea	-0.030332524
170	0x3c151c64	0.009101007
171	0xbc12d323	-0.008961472
172	0x3b2813c3	0.0025646545
173	0x3ceba30e	0.028764274
174	0xba6b51be	-0.0008976719
175	0x3c3a0dd5	0.011355837
176	0x3ab126b9	0.0013515569
177	0xbc084a2e	-0.008318467
178	0xbc8a4d42	-0.016882543
179	0x3b056fca	0.002036082
180	0xbb1b4849	-0.0023694208
181	0x3cbb509a	0.022865582
182	0x3d420fd5	0.04737838
183	0xbc2a3adf	-0.0103900125
184	0x3d061992	0.03273923
185	0x3c8bbc7c	0.01705765
186	0x3d1852e3	0.037188422
187	0x3d08b3e1	0.03337467
188	0xbcc99b7d	-0.024610275
189	0xbcbb21ae	-0.022843208
190	0xbc38e80d	-0.011285794
191	0xbc4f7eb6	-0.012664488
192	0x3c95ddb7	0.018294198
193	0x3baca43b	0.0052686012
194	0x3c8baa48	0.01704897
195	0xbc9984b6	-0.01874004
196	0xbd231515	-0.039815027
197	0x3bdb4803	0.006691934
198	0xbb1a7251	-0.0023566673
199	0x3ce56b26	0.028005194
200	0x3ca36901	0.01994753
201	0x3b124048	0.0022316147
202	0x3c017673	0.007901776
203	0xbabd0e0c	-0.0014423742
204	0x3bb5b943	0.0055457666
205	0xbc180a68	-0.009279825
206	0x3b92ef70	0.0044841096
207	0xbccf8477	-0.025331719
208	0xbd5fbdbb	-0.0546243
209	0x3a741012	0.0009310256
210	0x3c4f0878	0.012636296
211	0xbd16dd97	-0.03683242
212	0x3c8b51e2	0.017006818
213	0xbd06c9e4	-0.03290738
214	0xbc225376	-0.009907594
215	0xbbe33ec9	-0.006934975
216	0x3c41ccc5	0.011828606
217	0x3cc8c70a	0.024508972
218	0xbd79fc89	-0.061031852
219	0x3cb0b1f4	0.02156923
220	0x3cec97d4	0.028880991
221	0xbc5a20fa	-0.013313526
222	0xbd15d95a	-0.036584236
223	0x3ca8236e	0.020524707
224	0x3ba87cd9	0.005141836
225	0xbcad628b	-0.021165153
226	0xbd324d28	-0.043530613
227	0x3b08c30c	0.002086821
228	0xbbe0ad32	-0.006856584
229	0xbd53b81b	-0.05168925
230	0xbbba3980	-0.005683124
231	0x3bd8936e	0.006609372
232	0xbcb110fe	-0.021614548
233	0x3c6ed832	0.014577912
234	0xbc7aa713	-0.015298623
235	0xbd5e8001	-0.054321293
236	0x3c43eefb	0.011958833
237	0xbae7a537	-0.0017673139
238	0x3c3a8582	0.01138437
239	0xbcac1677	-0.021006806
240	0x3bfd341a	0.0077271583
241	0x3b6740b8	0.0035286378
242	0xbcc19565	-0.023630807
243	0xbb1bf5f3	-0.002379772
244	0xbd13bb16	-0.03606709
245	0xbcbf7539	-0.023371326
246	0xbc86244d	-0.016374731
247	0xbb55a466	-0.003259921
248	0xbc681ccc	-0.014167022
249	0xbc691e15	-0.0142283635
250	0x3c9d8a12	0.019230876
251	0xbd11202e	-0.03543108
252	0xbc1dd6f2	-0.0096337665
253	0x3d11e184	0.03561546
254	0x3cbd655b	0.02311962
255	0x3d7fb73d	0.06243061

transformer.layers.0.self_attn.out_proj.bias f4 [64]
0	0xbbee8ea5	-0.007280188
1	0x3b9889eb	0.004655113
2	0xbbb1c653	-0.0054252534
3	0x3bdd76eb	0.006758561
4	0xbc06f767	-0.008237696
5	0x3b883ff7	0.004158016
6	0xbb0523bd	-0.002031549
7	0x3bde4f8a	0.006784384
8	0x3b8d928e	0.004320449
9	0x3c135973	0.008993494
10	0xb9780807	-0.00023654113
11	0xbb3c7cda	-0.002876094
12	0x3ac13359	0.0014740034
13	0x3b4e6938	0.003149582
14	0xbb73b9a4	-0.0037189508
15	0x3b15f08b	0.002287897
16	0x3bd272e8	0.0064223893
17	0x3ba20dfa	0.004945514
18	0x3bc72926	0.0060779033
19	0xbbafb5dc	-0.0053622555
20	0x3b4b4e05	0.0031021845
21	0xbb570828	-0.0032811258
22	0x3a5a6c5c	0.0008332187
23	0x3c021abc	0.007940944
24	0xbb02131e	-0.001984782
25	0x3b9ef3a4	0.0048508216
26	0xbbc75726	-0.006083387
27	0xbb6fb5dd	-0.0036576905
28	0xbc04dde1	-0.008109541
29	0xbba9f66e	-0.0051868474
30	0xbbd155f3	-0.00638842
31	0x38b5efe3	8.675435e-05
32	0xbc0cb5e5	-0.008588289
33	0x3afcc1af	0.0019283796
34	0x3b400142	0.0029297625
35	0xbb54c2f4	-0.0032464834
36	0x3be4e68f	0.0069854925
37	0x3b73fc3a	0.0037229196
38	0xba4f9c25	-0.00079196907
39	0x3bcf4017	0.006324779
40	0xbbb3dbab	-0.005488833
41	0xbbfa9c20	-0.007648006
42	0xbb85b7ac	-0.0040807333
43	0x3be673fc	0.0070328694
44	0xbb9c7f95	-0.004775951
45	0xbbaf37de	-0.005347236
46	0x3c0c1745	0.00855047
47	0xbbf14a6a	-0.007363607
48	0xbb83023b	-0.0039980686
49	0x3a1bfc9d	0.0005950423
50	0xbbbe796c	-0.0058128145
51	0xba71cf28	-0.0009224289
52	0x3c0f038e	0.008728875
53	0x3b6b7254	0.00359263
54	0x3bece88f	0.0072298716
55	0xbbe043c9	-0.006844018
56	0xbba91073	-0.0051594316
57	0x3bdf9e29	0.006824274
58	0xbc447364	-0.011990402
59	0xbb93377c	-0.0044926982
60	0x3b1c8937	0.0023885497
61	0xbb9694a2	-0.004595355
62	0x3c1f6eac	0.009730976
63	0xbc1740b9	-0.00923174

transformer.layers.0.linear1.weight f4 [128, 64]
0	0xbcdf1b52	-0.027234707
1	0x3c6515f4	0.013982285
2	0xbca89ec3	-0.020583516
3	0xbd4868a6	-0.048927926
4	0xbd0e77d8	-0.03478226
5	0x3d5dcd59	0.054150913
6	0x3a2d0bc3	0.0006601179
7	0x3caf67ce	0.021411803
8	0xbbc99ff3	-0.0061531006
9	0xbd72fa33	-0.05932064
10	0xbc576561	-0.013146729
11	0xbcfd9f3c	-0.030959718
12	0xbc7583e1	-0.014985056
13	0x3d298969	0.04139081
14	0xbd09e095	-0.033661444
15	0xbc90b94f	-0.017666487
16	0x3d8500c7	0.06494289
17	0x3c4a87d0	0.012361482
18	0x3d521b4c	0.051295564
19	0x3c87633e	0.016526815
20	0xbc187e35	-0.009307434
21	0xbae2089d	-0.0017244999
22	0x3c94f8e0	0.01818508
23	0x3c8773d6	0.016534727
24	0xbb987844	-0.0046530087
25	0x3b628b16	0.0034567765
26	0xbc813f38	-0.015777215
27	0x3cdc2ebe	0.026877757
28	0xbc93d1da	-0.018044401
29	0x3b58cc96	0.0033080927
30	0xbd08c332	-0.033389278
31	0xbb10708b	-0.0022039737
32	0x3c4f7ead	0.012664479
33	0x3cd12eb2	0.025534961
34	0xbcfaa6b8	-0.030597076
35	0x3b848dc3	0.0040452196
36	0x3b8d5728	0.0043133684
37	0x3c453c9f	0.012038379
38	0x3ceb190d	0.028698469
39	0x3d21c99b	0.039498907
40	0xbd02eb1b	-0.031962495
41	0xbd2a64b2	-0.041599937
42	0xbcf2ca06	-0.029637348
43	0xbd02f1db	-0.031968933
44	0xbc02db54	-0.007986862
45	0xbcb79e5d	-0.02241438
46	0xbbf2f93e	-0.007414966
47	0xbca6047a	-0.020265806
48	0xbb5fd3c6	-0.0034153326
49	0xbbae6885	-0.0053225183
50	0xbcee8509	-0.02911617
51	0x3d08c420	0.033390164
52	0x3c389ef0	0.011268362
53	0x3c897790	0.016780645
54	0xbcb7a5fd	-0.022418017
55	0xbd013892	-0.03154809
56	0xbd8a74e7	-0.067605786
57	0xbcb2ac68	-0.021810725
58	0x3c851507	0.016245378
59	0xbc7aeaa7	-0.015314735
60	0x3c9dab39	0.019246684
61	0x3d563d80	0.052304745
62	0x3d173061	0.036911372
63	0xbd43f1f4	-0.047838166
64	0xbcc111e6	-0.023568105
65	0xbc6262e5	-0.013817524
66	0xbcaac42d	-0.020845497
67	0xbc828ae4	-0.015935369
68	0xbd3ef831	-0.046623413
69	0x3d160e99	0.036635015
70	0xbcaceff2	-0.021110509
71	0x3aad84e0	0.0013238452
72	0x3ce15618	0.027506873
73	0xbd050634	-0.03247662
74	0x3d06cab1	0.032908145
75	0xbc9f14d8	-0.019419119
76	0xbca7806f	-0.020446984
77	0x3d403aad	0.046930958
78	0x3d2076e7	0.039175894
79	0x3c3e27ba	0.011606151
80	0x3d0da823	0.034584176
81	0xbc2aff37	-0.0104368245
82	0x3b987686	0.004652801
83	0xbc851712	-0.016246352
84	0x3c4467dd	0.011987654
85	0xbd2adf22	-0.041716702
86	0x3c0c9dfc	0.008582588
87	0xbca2d58f	-0.019877223
88	0x3d10a547	0.03531387
89	0xbcae0bb7	-0.02124582
90	0xbd0c668f	-0.034277495
91	0xbd257683	-0.040396225
92	0xbcf3ac8e	-0.029745366
93	0x3c36e163	0.011162135
94	0xbccbed15	-0.024893323
95	0x3be9786d	0.0071249516
96	0xbd102624	-0.035192624
97	0x3ba1010a	0.004913454
98	0xbcdf25c9	-0.027239697
99	0xbc897e0c	-0.016783737
100	0xbb11f380	-0.0022270381
101	0x3d0aaca5	0.033856053
102	0x3af69013	0.0018811248
103	0x3bc967a8	0.00614639
104	0xbcc7eab3	-0.024403905
105	0xbcd6959d	-0.026194388
106	0x3bbecbf7	0.0058226543
107	0x3c0206bf	0.007936179
108	0xbd1e52a7	-0.038653042
109	0xbd4de612	-0.05026824
110	0x3ceca8d9	0.028889107
111	0x3ada77e5	0.0016667811
112	0x3c4c83fb	0.0124826385
113	0x3cc63b67	0.024198247
114	0xbd4f5c1d	-0.050624955
115	0xbc8dc238	-0.017304525
116	0x3cd02a45	0.02541078
117	0x3b882ca2	0.0041557113
118	0x3bfcee40	0.0077188313
119	0xbcefacad	-0.029257143
120	0xbcb610c4	-0.022224791
121	0x3d02099d	0.03174745
122	0xbaf2012b	-0.0018463483
123	0xbd002309	-0.031283412
124	0x3d003ee0	0.031309962
125	0xbc88d7ff	-0.016704557
126	0x3cec3030	0.028831571
127	0xbd808a27	-0.062763505
128	0xbd2eeb0c	-0.042704627
129	0xbc1f4889	-0.009721884
130	0xbcbc53ca	-0.022989172
131	0x3b553b0c	0.0032536415
132	0xbc793abc	-0.015211757
133	0x3d119c57	0.035549488
134	0xbceed561	-0.029154481
135	0x3c8c647a	0.017137755
136	0x3d2d65df	0.04233348
137	0x3d3056ab	0.043051403
138	0xbcf92ed2	-0.030417833
139	0xbcc4173e	-0.023936864
140	0xbd0d3266	-0.03447189
141	0x3d016c00	0.031597137
142	0x3ceff812	0.029293094
143	0x3ce482ab	0.027894339
144	0x3c258c61	0.01010427
145	0x3ce339fb	0.027737608
146	0xbb5f1f02	-0.0034045582
147	0xbd1da744	-0.038489595
148	0x3d00e82d	0.03147142
149	0x3c8cc83e	0.017185327
150	0x3c582f85	0.013194923
151	0x3d33538a	0.04378084
152	0x3d671d2b	0.0564243
153	0xbc6ac76a	-0.014329771
154	0x3cde2dee	0.02712151
155	0x3cc2e73b	0.0237919
156	0xbc0a506c	-0.008442026
157	0x3cb326bd	0.021869058
158	0x3d229340	0.03969121
159	0x3ca54d79	0.020178543
160	0xbc45c432	-0.012070702
161	0xbce4a242	-0.027909402
162	0x3cff260d	0.031146074
163	0x3c5c6d14	0.013453741
164	0x3d425177	0.047440972
165	0xbc303cbd	-0.010756669
166	0xbccaa127	-0.024735047
167	0xbc6bea35	-0.014399101
168	0xbd102527	-0.03519168
169	0x3c901a8b	0.017590782
170	0x3d629e20	0.05532658
171	0xbba11af6	-0.004916544
172	0x3c65f4d2	0.0140354205
173	0x3ba54a05	0.005044224
174	0x3d136c5a	0.035992004
175	0xbc9a6dcb	-0.018851181
176	0x3bcf362b	0.006323596
177	0x3d53869f	0.051642057
178	0xbc3e4dc7	-0.011615223
179	0xbc477f1e	-0.012176303
180	0x3b68ece6	0.0035541593
181	0x3d04b1ab	0.032396
182	0x3d1af41c	0.037830457
183	0xbcd96c75	-0.026540974
184	0xbc558332	-0.013031768
185	0x3cae0a16	0.021245044
186	0xbb949af5	-0.004535074
187	0x3af7f4da	0.0018917576
188	0x3bb19d86	0.0054203896
189	0xbcce81ba	-0.025208343
190	0xbb85e0e1	-0.0040856455
191	0xbc10b84f	-0.008833005
192	0x3c8f3726	0.017482352
193	0x3c99111f	0.018684922
194	0x3d4cee5e	0.050032012
195	0xbd7a749a	-0.061146356
196	0xbd06ec04	-0.032939926
197	0xbc522113	-0.012825268
198	0x3baf41ae	0.005348406
199	0x3cb50513	0.022097146
200	0xbc94d428	-0.01816757
201	0x3d5419e7	0.051782515
202	0xbce2653d	-0.027636165
203	0x3bfd92c5	0.0077384436
204	0xbc58dc47	-0.013236112
205	0xbc416a86	-0.011805182
206	0xbc74055c	-0.014893856
207	0xbc48f55d	-0.01226553
208	0xbd681313	-0.056658816
209	0x3b83c368	0.004021097
210	0xbc3663f5	-0.01113223
211	0x3c532038	0.0128860995
212	0x39d33699	0.00040285735
213	0xbcabb190	-0.020958692
214	0x3c98bd29	0.018644886
215	0xbc8d179e	-0.017223176
216	0xbc3ddfa5	-0.011588966
217	0xbd92aae2	-0.071614996
218	0x3abcedb6	0.0014414105
219	0x3cec0f12	0.02881578
220	0x3d3634ef	0.044484075
221	0x3c8f6532	0.017504308
222	0x3d02dfb9	0.03195164
223	0xbc7761ed	-0.015099031
224	0x3cbf9403	0.023386007
225	0xbd5ada01	-0.05343056
226	0x3c360645	0.011109893
227	0x3d81e723	0.06342914
228	0x3d97bf59	0.074095435
229	0x3bfa24ca	0.00763378
230	0x3d019fa0	0.03164637
231	0xbd07d7dd	-0.033164848
232	0x3c1a4d32	0.009417819
233	0xbb252c11	-0.0025203268
234	0xbc3e8afc	-0.011629816
235	0x3d5006d7	0.050787773
236	0xbcb6d743	-0.022319442
237	0xbd1928e7	-0.037392523
238	0x3ba4ee52	0.005033293
239	0xbc8f727c	-0.017510645
240	0xbc44ffc3	-0.012023869
241	0xbd28d5d7	-0.04121956
242	0x3d04eafc	0.03245066
243	0xb9b45df2	-0.0003440227
244	0x3c6d4331	0.014481352
245	0xb9e7ae45	-0.00044189594
246	0x3d4016ea	0.046896853
247	0xbd10bb99	-0.035335157
248	0x3bb77dd9	0.005599719
249	0x3cc36264	0.023850627
250	0x3d1632b7	0.03666946
251	0x3c684a7b	0.014177914
252	0x3b650823	0.0034947477
253	0x3cb8829a	0.022523213
254	0x3cdd14ca	0.026987452
255	0xbc914597	-0.017733378

transformer.layers.0.linear1.bias f4 [128]
0	0xbc608e11	-0.013705746
1	0xb9c1b70f	-0.00036948218
2	0x3cce1188	0.025154844
3	0x3c73ced7	0.014880857
4	0x3b63893e	0.0034719254
5	0x3c66ed50	0.014094666
6	0x3c5dcbd2	0.013537364
7	0x3ba5d703	0.005061032
8	0x39bc95e1	0.00035969823
9	0x3ba88e93	0.0051439493
10	0x3bc2f002	0.0059490213
11	0x3b64bc62	0.0034902324
12	0x3c1a0a02	0.0094018
13	0x3b7f390b	0.0038943912
14	0x3c4fa93a	0.012674624
15	0x3b92f78a	0.0044850754
16	0x3c96cb35	0.018407444
17	0xbc5d38ed	-0.013502342
18	0xbbd3ea3e	-0.006467133
19	0xba4e1bf5	-0.0007862442
20	0x3c0b9a77	0.008520714
21	0xbb796845	-0.0038056534
22	0xbb00c9be	-0.0019651498
23	0x3cca8ef3	0.024726367
24	0x3b2d0e41	0.00264062
25	0x3bfef08e	0.007780141
26	0xbbcab915	-0.0061866143
27	0x3c48f273	0.012264836
28	0x3ae7dd5d	0.0017689873
29	0x3bcf614f	0.0063287388
30	0x3a33e40c	0.000686229
31	0x3c3f570a	0.011678467
32	0xbb9bf0ad	-0.0047589154
33	0xbaa8a5fc	-0.001286685
34	0x3c7182d9	0.014740669
35	0xbc05a0cc	-0.008156013
36	0x3c502a4d	0.012705398
37	0xbad07852	-0.0015904999
38	0xbc7dc9a7	-0.015489972
39	0xbc88193c	-0.016613595
40	0x3c248f95	0.010043998
41	0xbb6cb33f	-0.0036117581
42	0x3c2849cd	0.010271502
43	0x3a9d46f6	0.0011999297
44	0xbc575c9f	-0.013144641
45	0xba921329	-0.0011144626
46	0x3cad8828	0.021183088
47	0xbbde8a1f	-0.0067913677
48	0x38ed1927	0.00011305726
49	0xbc2cc464	-0.01054487
50	0x3c34d510	0.011037126
51	0xbd043d8d	-0.032285262
52	0x3ca6a524	0.020342417
53	0x3c293e01	0.010329724
54	0x3b848716	0.004044424
55	0xbaac8cd5	-0.001316453
56	0xbb36cfe5	-0.002789491
57	0x3b9ac464	0.0047231186
58	0x3cd1ef03	0.025626665
59	0xbb304173	-0.002689448
60	0x3c6d268b	0.014474521
61	0x3c1a737d	0.009426949
62	0x3c312284	0.010811452
63	0x3a2b0c3c	0.00065249554
64	0x3b9619af	0.0045806984
65	0x3ca311d7	0.019905968
66	0x3a31fb58	0.00067894673
67	0x3b8d7d43	0.004317911
68	0x3c3e3670	0.011609659
69	0x3ac97f38	0.0015372997
70	0xbb2646cc	-0.0025371788
71	0x3bf7a049	0.0075569493
72	0x3c763d9d	0.015029338
73	0xbbc3b974	-0.0059730355
74	0xbaa99643	-0.0012938458
75	0x3cb84cac	0.022497497
76	0xbc18aedb	-0.009319033
77	0x3c14b1f9	0.009075635
78	0x3c88c82b	0.01669701
79	0xbc0d1ff4	-0.008613575
80	0x3b9025e6	0.004399049
81	0x3b84cab6	0.0040524853
82	0x3be369a7	0.006940085
83	0x3b306a3f	0.0026918796
84	0xbb8b1514	-0.004244456
85	0x3c5c5b20	0.01344946
86	0xbc35d5f7	-0.0110983765
87	0x3b9ec661	0.004845426
88	0x3b01e2a6	0.001981893
89	0x3b9977fa	0.004683492
90	0x3c5883b2	0.013214992
91	0xbb924110	-0.0044633225
92	0xbbae5075	-0.00531965
93	0xbb647656	-0.0034860573
94	0x3c0f5d29	0.008750238
95	0x3adf700a	0.001704694
96	0x3c088548	0.008332558
97	0x3c97c7ce	0.018527891
98	0x3b416652	0.002951045
99	0xbc1c2260	-0.00952968
100	0xbc38763d	-0.011258659
101	0x3cb41b4e	0.021985676
102	0x3bcc5c3c	0.006236581
103	0xbaddd308	-0.0016923854
104	0xbaaed6ef	-0.0013339202
105	0xbc042b27	-0.008066929
106	0x3ca166db	0.019702366
107	0x3c3ed86e	0.011648281
108	0xbc1b6790	-0.00948514
109	0x3be02d0d	0.006841308
110	0x3b320c46	0.002716796
111	0x3b4e7057	0.0031500065
112	0x3c5f2469	0.013619521
113	0x3b1c4a13	0.0023847863
114	0x3c3ac330	0.011399075
115	0xbc410b96	-0.011782547
116	0xbc923895	-0.017849246
117	0x3ba8d208	0.005151991
118	0xbae13f30	-0.0017184969
119	0x3c50a824	0.0127354
120	0x3b5b58b5	0.0033469622
121	0x3c56cba1	0.013110072
122	0x3c9e5c11	0.01933101
123	0x3bac09ee	0.005250207
124	0xbc167c18	-0.00918486
125	0x3c0fe5b1	0.00878279
126	0x3c015475	0.007893671
127	0x3c0b0110	0.00848414
