marble_model/best_model_v3.0_20250531_010050.pt (torch, 295593 bytes, 30 tensors)

token_embedding.weight f4 [13, 64]
000000 bd ed 6d bc 92 90 10 3d 93 9e 2a 3c bd cb 93 3c
       -0.014522013 0.035294123 0.010413784 0.018041486
000010 12 da d4 b9 43 ae 81 3c ed 2d bc 3c 4d e5 1b 3d
       -0.00040598266 0.015830165 0.022971118 0.038060475
000020 20 1a c8 bb 48 b0 19 3c 42 ac 49 3c e6 29 a8 bb
       -0.00610663 0.009380408 0.012309136 -0.005131948
000030 38 de 0a 3d e2 b0 6a bb 5d 59 39 3d cf 41 93 bc
       0.03390333 -0.0035810997 0.04525124 -0.017975716
000040 24 1c c4 3c 4c 8a f1 bb e4 25 1a 3b 63 70 ed bc
       0.0239392 -0.0073712226 0.002352112 -0.028984254
000050 e4 d1 91 bc 02 19 9e 3b b4 46 6f bc 3b 7f 94 bc
       -0.017800279 0.0048247585 -0.014604259 -0.018127074
000060 7d 9c 3f 3c d9 70 03 bb 93 a8 2a 3c 0c 1f 4d bc
       0.011695025 -0.0020056276 0.010416168 -0.012519609
000070 65 01 5f bb 10 69 0a 3c 5b d1 37 3c 3b 44 35 3b
       -0.003402793 0.0084479 0.011219348 0.0027659077
000080 36 e0 04 3b ea e8 50 bc e0 5b 1b 3d bb 22 d8 3c
       0.0020275242 -0.012750844 0.037929416 0.026383748
000090 cc 1b 56 bb 9a 41 23 bc 65 9f d6 3b 1b a3 e6 bc
       -0.0032670377 -0.009964371 0.006549763 -0.028153947
0000a0 5e f5 c2 bb 1f a1 19 3d 33 ad be 3c 42 c3 66 3c
       -0.00594966 0.037507173 0.023275947 0.014084639
0000b0 7d 46 92 bc 5c 9c 33 bc d8 77 f7 3b 38 86 55 bc
       -0.017855877 -0.010962572 0.0075521283 -0.0130324885
0000c0 5e ae db bb 38 08 5f bb c0 4b 30 b9 8c 15 a1 bc
       -0.006704136 -0.0034031998 -0.00016812887 -0.019663595
0000d0 e5 45 5b bc c3 f1 14 bc 77 f9 88 3c c9 21 7e bc
       -0.013383363 -0.009090844 0.016720517 -0.015510985
0000e0 b3 3d 66 3c 09 39 de 3b ed 84 3a bb 9e d5 21 3d
       0.014052796 0.0067817015 -0.0028460578 0.03951036
0000f0 39 09 11 3b 06 e7 ae 3c 84 2b b3 bc 0f 09 e3 3c
       0.0022130741 0.021350395 -0.021871336 0.02771428
000100 13 51 1f 3d b1 de 3f bb fd 7f 21 bd 90 9f 04 bc
       0.038895678 -0.0029277022 -0.0394287 -0.008094683
000110 8a ee c9 bb e3 a8 e5 bb fe 3b a9 bc ef a9 70 3d
       -0.0061624693 -0.0070086583 -0.02065849 0.05875581
000120 5f ce fd bc 92 33 23 bc 76 f1 63 3c 31 2d 64 3c
       -0.030982194 -0.009961026 0.013912549 0.01392679
000130 9c 5e a4 3c 18 87 0e 3c 8a 3d ea bc 84 d3 a8 3c
       0.020064645 0.008699201 -0.028593797 0.020608671
000140 bb f4 96 3b 7e e0 d1 bc de 4f 39 3d 21 aa 99 3b
       0.004606811 -0.025619742 0.045242183 0.0046894704
000150 bc b6 ae ba 88 70 0e bd b2 87 dd bc fc 2e d6 3c
       -0.0013329606 -0.034775287 -0.027042244 0.02614545
000160 72 3b 23 bc f0 6a 93 ba c1 c9 d1 3c a1 7c 93 bd
       -0.009962903 -0.001124708 0.0256089 -0.072015055
000170 17 3c 52 bc 6c 0f b4 3c 95 e0 f1 bc c0 74 ea bb
       -0.012831709 0.02198001 -0.029526034 -0.007155031
000180 86 0c c9 bc 37 a1 22 3c e9 de 9c bc 3f b8 03 3d
       -0.024542104 0.009926132 -0.01914926 0.032158133
000190 4c 66 c6 bc 80 ca e8 3c 96 03 dc bc a2 81 4a 3c
       -0.0242187 0.028416872 -0.026857179 0.012360008
0001a0 a2 69 6c bc 3c df 15 3d 4a 45 aa bc 5d 10 27 3d
       -0.014429482 0.036589846 -0.020784993 0.04078709
0001b0 c1 ce aa 3c e3 a7 23 3d d4 bc 78 bb 08 82 41 bd
       0.020850541 0.03995503 -0.0037954347 -0.047243148
0001c0 4f 05 af 3c 98 91 34 3d 64 2f da 3c 32 0c 78 ba
       0.021364836 0.04408416 0.026633926 -0.00094622665
0001d0 73 41 51 bd fd 38 9c 3c 85 aa 67 bc 46 21 8b 3c
       -0.051087808 0.019070143 -0.014139776 0.01698364
0001e0 a5 82 11 3d e3 85 66 bc 08 37 cb 3c 13 29 a4 bc
       0.035524983 -0.014070007 0.024806514 -0.020039117
0001f0 b8 61 05 3d bf d0 d3 3c 22 0d cf 3b fe 2e 66 3c
       0.032563895 0.025856374 0.006318704 0.01404929
000200 2b af 80 3b ca 9d 39 bc f5 f3 35 3d bd 46 80 bc
       0.0039271316 -0.011329124 0.04442211 -0.01565873
000210 22 52 4b bd f2 ac 55 bc 93 cb 2d 3c d2 21 9e bc
       -0.049638875 -0.013041722 0.010607618 -0.019303236
000220 1b a3 b1 bb bc 33 6e bc a9 a6 55 bb 2e ae 80 bc
       -0.005421055 -0.014538702 -0.0032600558 -0.015708055
000230 45 1d e9 bc be 3c 05 bc 73 2a fe 3c db be ae bc
       -0.02845634 -0.008132158 0.0310261 -0.021331241
000240 57 53 1b 3a 8a 0f 14 3d 94 f6 46 ba 41 0b 07 bb
       0.00059251994 0.03614763 -0.00075898436 -0.0020606073
000250 02 ad 04 bc bb f2 bc 3b e0 27 2b bd 6b 55 87 bc
       -0.008097889 0.0057662404 -0.041786075 -0.016520223
000260 e0 cb db 3c 90 84 9e bc ea b6 51 bc 76 7d a8 3c
       0.026830614 -0.01935032 -0.012799958 0.020567637
000270 f0 f6 bb bc 99 83 92 3a 37 45 e7 3c c7 5b d9 bc
       -0.022944897 0.0011178135 0.028231246 -0.02653302
000280 1f d2 83 bc f0 80 2c bc b9 fe ea 3c d2 64 ef bc
       -0.016091404 -0.010528788 0.028685914 -0.02922288
000290 26 f6 42 3c ab 64 68 bc b4 ab 86 3a 26 f8 ab 3b
       0.011899507 -0.014184157 0.001027456 0.0052480875
0002a0 b7 1a e6 bc 84 7e 9e 3b f0 20 e0 3a 1a 9e 97 bc
       -0.02808891 0.004836859 0.001709966 -0.018508006
0002b0 89 e8 e0 3c 9d 6c b1 ba 80 c6 31 3d 6a 19 3a ba
       0.027454631 -0.0013536398 0.043402195 -0.0007099124
0002c0 13 2f c8 3b 49 ff a7 3c 8e 2c 5a 3d 90 e1 83 3c
       0.0061091273 0.020507472 0.053265147 0.016098768
0002d0 2c d9 ed 3c 4f f5 1a 3c db 4f 23 bd 01 e5 b7 3c
       0.02903422 0.0094579 -0.039871078 0.022448065
0002e0 c0 b8 b4 b9 b9 b6 8c 3c 9b 46 1f 3d 44 cd 13 3c
       -0.00034469925 0.017176973 0.038885694 0.009021107
0002f0 03 a6 f3 bc 9d f7 21 b7 71 bc 15 3c eb 5d a8 3c
       -0.029742246 -9.654e-06 0.009139166 0.020552596
000300 ac 58 ec bb 5f a8 f2 3a 50 a8 8d bc 40 51 79 3c
       -0.007212719 0.0018513313 -0.017292172 0.015217125
000310 bf d3 16 3c a9 d4 3d bc 96 e3 9b 3c d1 90 b1 3b
       0.009205758 -0.011586347 0.01902942 0.005418875
000320 8d a8 82 3c a7 45 35 3b 20 d9 af bc b1 49 2e 3b
       0.015949512 0.0027659924 -0.021465838 0.0026594216
000330 83 84 b3 bc 35 9f 08 bc 18 d1 ad 3a 3b a3 5e 3c
       -0.021913772 -0.008338739 0.0013261167 0.013588722
000340 84 e9 83 bc 7f e5 00 3c 5c 13 0d bc 27 85 c1 3b
       -0.01610256 0.007867216 -0.008610573 0.0059057656
000350 7d c7 8e 3c 3a b6 9b 3b d4 1e ca bc f2 39 d5 ba
       0.017429108 0.0047519477 -0.024672903 -0.0016267879
000360 2b dc 70 ba 88 e5 14 3c b4 d8 d7 3b 11 0f 01 3d
       -0.0009188081 0.009087928 0.0065871123 0.03150851
000370 4f 8f b5 3c 0d ba 62 39 17 df c8 3c 95 df 17 ba
       0.022163061 0.00021622349 0.02452044 -0.0005793509
000380 ff 18 2e 3c 6c da 76 3c 9f 65 a5 3b 38 a7 1d 3b
       0.010626077 0.015066724 0.0050475146 0.002405597
000390 1f 69 32 bb a4 f3 e0 ba 1c b2 ca 3b 7e 23 0a bd
       -0.0027223302 -0.0017162454 0.006185783 -0.033725254
0003a0 7e 21 3b 3c 5d 78 26 bc ac fb c1 3c 54 90 66 bc
       0.011421559 -0.010160533 0.023679577 -0.014072496
0003b0 da 80 c2 bb 7c c1 90 3b 69 2f 37 3c 86 7f 02 bb
       -0.0059357705 0.0044175964 0.011180737 -0.0019912436
0003c0 f0 50 81 bc dc 62 a9 3c a9 e9 de bb fb bd 31 bc
       -0.015785664 0.020677023 -0.006802757 -0.0108485175
0003d0 03 8e 7b bc 11 d4 f2 bc 1a fb 9f 3c 8c ed e9 bc
       -0.015353682 -0.029642137 0.019528914 -0.028555654
0003e0 f0 35 1e bd 8e 3b 86 3c 9b 54 84 bb 4d d4 3b bc
       -0.038625658 0.01638582 -0.004038406 -0.011464191
0003f0 f1 28 a6 bb 5b 4d 11 bc 51 91 1e 3c 58 cb a4 bc
       -0.0050707986 -0.008868541 0.009678201 -0.020116493

position_embedding.weight f4 [30, 64]
000000 2c 20 74 3c 73 9e c6 3c 00 8a 59 bc 37 61 c2 bc
       0.0149002485 0.024245476 -0.013277531 -0.023727996
000010 0a 88 ac bc 67 42 11 bd 8c 17 ef bc c2 fe 76 3a
       -0.021060962 -0.035463717 -0.029186033 0.0009422117
000020 e8 4a 07 bd 3f 2d c8 bc eb 0b a6 3c dc 35 34 bd
       -0.03303042 -0.024435638 0.020269355 -0.043996677
000030 9b 72 39 3d be bf 31 3c 12 85 0e bd 5f bf 90 3c
       0.045275312 0.010848938 -0.034794874 0.017669378
000040 9d ef ed bc 27 5c 23 bc 2f 15 bc bc 99 bc d2 bc
       -0.02904492 -0.009970701 -0.02295932 -0.025724696
000050 91 ae 2b 3c d3 f9 b5 bc ce e6 e4 bc 85 c0 e6 3c
       0.010478632 -0.022213852 -0.027942088 0.028167972
000060 f5 4b e5 bc 8f f6 2d bd c4 49 15 3d 9c ac c4 3a
       -0.02799032 -0.042471465 0.0364473 0.0015005055
000070 f9 7f f3 bc 4d 59 b4 3c 93 16 d6 bc 0c cb 36 bd
       -0.029724108 0.022015238 -0.026133811 -0.044627234
000080 b8 6e e6 bc 87 2a 4d bd 6f ca 81 bb 9d f9 36 3d
       -0.028128967 -0.050089385 -0.0039608995 0.044671644
000090 d7 4b 45 bc c4 9e f7 3c 00 94 fc bb f4 65 00 3d
       -0.012042007 0.030227073 -0.0077080727 0.03134723
0000a0 da b5 fa bc a0 19 1f 3d f8 83 ee b9 ad a3 30 3c
       -0.030604292 0.038842797 -0.00045493222 0.010781211
0000b0 7f 86 aa 3b 3f 9f 3f 3c 1e ba c0 bc 18 4b 14 bd
       0.0052040215 0.011695682 -0.023526248 -0.036204427
0000c0 b7 36 85 3c 99 8b ea 3c 04 84 57 3c e5 96 ef bb
       0.016261442 0.028631018 0.013154034 -0.007311689
0000d0 9b 54 61 bc 59 ac a2 3c 35 bd bb bc 60 b4 c5 3c
       -0.013753082 0.019857572 -0.02291737 0.024133861
0000e0 79 7e cc 3c 9b 86 e9 bc 04 fb 46 3c ae 29 57 bc
       0.02496265 -0.028506568 0.012144808 -0.013132496
0000f0 32 d5 f8 b9 b4 e4 4f 3d 59 cb f6 3c 91 5b 0c 3b
       -0.0004746109 0.050755218 0.03012626 0.0021416883
000100 47 e9 f1 bc cf 16 02 bd 93 74 c3 3c 8d 4d 9f 3c
       -0.02953018 -0.031760033 0.023859298 0.019446159
000110 5e 6d c2 3c 6e a4 88 3d 5f 28 5b 3b 95 c7 dd bc
       0.023733791 0.066719875 0.003344081 -0.027072707
000120 82 94 15 bc 91 0c 39 3d ff d1 ad bb b1 09 f8 3c
       -0.009129645 0.045178 -0.0053045745 0.030278059
000130 57 3d 23 bd b1 d7 ef bc 5c 64 5f 3c 13 6e 1d bc
       -0.03985342 -0.029277654 0.013634767 -0.009608763
000140 87 03 0d bc 4a d0 75 bc 05 f0 7b bc db a8 09 3d
       -0.008606798 -0.015003273 -0.015377049 0.0336083
000150 6b 85 07 3d 66 ed bd 3c f4 5f 65 3c 9c 7c 1e bc
       0.03308622 0.02318449 0.013999928 -0.009673264
000160 4e aa 25 3d 67 ea 83 3c 18 23 93 bb 20 c6 d4 3c
       0.04044562 0.016102983 -0.0044902675 0.02597338
000170 86 bc 50 3c 18 b2 9e bb 5f 97 03 39 4b 26 0e 3d
       0.01274026 -0.004843008 0.00012549524 0.034704488
000180 48 33 96 bc b3 51 eb 3c ec da 19 3d 35 03 02 3d
       -0.018335 0.02872548 0.037562296 0.03174134
000190 36 62 b0 3c bd c6 12 3d 29 41 bb 3a 4f e2 84 3c
       0.021531206 0.035834063 0.0014286387 0.016221194
0001a0 14 a0 1b bc ab bc 51 bc 99 b7 50 3c 8e a5 de bb
       -0.009498615 -0.01280133 0.012739086 -0.006794638
0001b0 f5 9d e5 bc de c7 1f bd ce 8b 05 3d f9 46 12 3b
       -0.028029421 -0.039008968 0.03260403 0.0022320135
0001c0 1e 27 d9 3c cd 5b b7 bc 32 22 a6 3c df 5a 17 3c
       0.02650791 -0.022382641 0.020279977 0.009237974
0001d0 cd 66 c5 bc 03 d3 d7 3b 12 21 0c 3b 86 a6 81 3b
       -0.02409687 0.006586434 0.0021382016 0.0039566187
0001e0 d0 19 b7 bc 71 ed 8b 3d ce be 52 bc 95 da f6 bc
       -0.022351176 0.06832398 -0.012862874 -0.030133525
0001f0 c2 d7 11 bc 63 b0 e6 bc 40 c4 0e 3d 40 73 6c bc
       -0.008901538 -0.02816028 0.034855127 -0.014431775
000200 59 8d ad bc 24 21 4d bd 5f 99 76 3c 64 f8 6e 3b
       -0.021185564 -0.050080433 0.015051215 0.003646397
000210 ee 51 5b 3c 70 7f 05 3d d6 08 01 bc 5e 9f b7 bc
       0.013386233 0.032592237 -0.007875642 -0.02241486
000220 49 1b 60 bd c3 a7 97 3c 06 d6 82 3c 0c 3c e4 bb
       -0.05471352 0.018512612 0.015971195 -0.006965166
000230 4c 0e 4b bc ea af ff bc dd 36 a9 3c 6c 43 2e bd
       -0.012393545 -0.031211812 0.020656044 -0.042544767
000240 6d df c7 3a 54 59 44 bd 17 85 c8 bc b3 2e 39 3c
       0.0015249081 -0.047936752 -0.024477525 0.011302638
000250 11 aa f2 bc e5 99 d5 ba ab 43 17 3d d5 d3 c0 bb
       -0.02962211 -0.0016296474 0.036929768 -0.0058846273
000260 90 4c d8 3c c2 23 e8 3b 07 4e 8e bc 80 08 a9 bb
       0.026403695 0.007084341 -0.01737119 -0.005158484
000270 5a 4f b3 bb c8 5c 10 3c a7 ff 18 bd 53 16 5c 3c
       -0.005472106 0.008811183 -0.037353184 0.013433057
000280 be 0e 04 bd 4c 30 32 3c 97 ed 99 3c 16 0c 64 3c
       -0.03224062 0.010875773 0.01879005 0.013918897
000290 cd fb 05 3d d6 23 83 3c 5f 20 35 3b 6c 3c f0 3c
       0.03271084 0.016008299 0.0027637703 0.029325686
0002a0 68 0a bc bc 5a 2b 08 3c 92 d2 03 bd 70 dc b0 bb
       -0.02295418 0.008311117 -0.032183237 -0.005397372
0002b0 5f a1 fb bb 04 d9 68 bd e7 15 8a 3b 0b ed f0 3b
       -0.007679149 -0.056847587 0.0042140367 0.0073524765
0002c0 c3 98 07 3d 4a cb df bc a2 ca a4 ba 04 45 a6 3b
       0.03310467 -0.027318615 -0.0012572596 0.0050741453
0002d0 33 54 8c bc 02 4c 8b 3b f1 01 a9 bc 61 23 09 3c
       -0.017129993 0.004251004 -0.020630809 0.008370251
0002e0 7d 21 14 bc 04 63 92 3c ce a6 18 bd d3 95 21 bd
       -0.009041187 0.01786948 -0.037268452 -0.039449524
0002f0 23 75 03 bd 97 f5 44 bc 44 e0 5e 3c 4d b0 3e bd
       -0.032094132 -0.012021444 0.013603274 -0.046554852
000300 9a 3a b9 bc e3 a5 15 3c 1c 7f d5 bc bb 6d 31 bd
       -0.022610951 0.009133789 -0.026061587 -0.043317538
000310 8d 82 28 3c 72 61 25 bd 06 0f 15 3c 8a d2 25 3d
       0.010285032 -0.040376134 0.00909782 0.04048399
000320 04 e3 54 bd 77 9a a6 bb b2 3a 95 bc 4a e1 fc bc
       -0.05197431 -0.0050843316 -0.018216465 -0.030869145
000330 a2 0d e0 bc af c9 be 3b 63 0d a9 3c 1c 37 e3 3c
       -0.02735025 0.0058223824 0.020636266 0.02773624
000340 0c f2 08 3d c3 25 92 3c db 2b 6c 3c 05 8d 2d 3d
       0.03343396 0.017840272 0.014414753 0.042370815
000350 ec 41 49 bd 55 d0 ac 3b 09 05 8d bc 7a e0 a1 bc
       -0.049135134 0.0052738586 -0.017214315 -0.01976036
000360 ba ad 5d 3d ce 5e be 3c f2 e8 3d 3d 47 d3 2d 3b
       0.054120757 0.023238566 0.046364732 0.0026523636
000370 cd 5b 21 bd d8 b0 6d bd 3f 94 35 3c 60 08 2f bd
       -0.03939419 -0.05802998 0.011082708 -0.042732596
000380 21 18 34 3d 39 33 7f bd 73 6d 3d bd 60 05 24 3d
       0.043968324 -0.06230471 -0.046246957 0.04004419
000390 36 f6 06 bd 0c d5 8d bc 2b 0d 13 bd f3 87 a5 bc
       -0.03294965 -0.017313503 -0.03590123 -0.020206427
0003a0 c2 e1 e1 3c c8 d5 f4 bc 9e 40 19 3d 03 c0 72 bc
       0.02757347 -0.029887095 0.03741514 -0.014816287
0003b0 ad 23 d9 3b 5a a6 b1 3c b4 a5 fe 3c e5 80 30 bd
       0.0066265673 0.021685768 0.031084873 -0.043091673
0003c0 82 14 a1 bc 09 2b fd 3c 34 76 14 bd df 10 1a 3d
       -0.0196631 0.03090431 -0.03624554 0.037613746
0003d0 de 53 36 3d 3f 3c 04 bd ea c1 1b 3d ef db ce bc
       0.044513576 -0.032284018 0.038026728 -0.025251357
0003e0 88 e6 b5 bb b9 ec 23 bb 15 81 d7 3c 7e 97 51 3c
       -0.005551163 -0.0025012924 0.026306668 0.012792466
0003f0 04 dc d6 bc 56 58 e5 3c a9 cb 03 bd 00 15 62 3d
       -0.026227959 0.027996223 -0.032176647 0.05519581

transformer.layers.0.self_attn.in_proj_weight f4 [192, 64]
000000 89 83 98 bc 96 07 77 bd 56 2c d0 3c 81 51 12 bc
       -0.018617408 -0.06030997 0.025411766 -0.008930565
000010 87 98 d8 3d d2 a0 a3 bd 16 2b ec b8 86 84 81 ba
       0.10575967 -0.079896584 -0.00011261382 -0.0009881414
000020 6f d8 e7 3d cb 2c 3c 3d ef 77 05 3e d3 8c ce 3d
       0.11320578 0.045941155 0.13034032 0.10085454
000030 14 1f d6 3d 62 a1 16 be 8f 10 90 3d d8 aa f3 3d
       0.104551464 -0.1471 0.07034408 0.1189782
000040 46 c5 6f ba 8d bd ed bd 73 cf cb 3d 0c af f2 bb
       -0.00091465225 -0.116084196 0.09951677 -0.007406121
000050 01 c5 d6 bd 0c ee d1 3d 6b 33 cf 3d 1c bc 0a be
       -0.10486794 0.10250482 0.10117229 -0.1354832
000060 3a 75 c6 bb e9 2f c0 3d 42 19 44 3d d1 b2 a5 bc
       -0.006056455 0.09384138 0.04787565 -0.020226868
000070 61 7b c8 bd 00 02 9e bd b4 17 c8 ba 0f 55 d7 3d
       -0.09789158 -0.07715225 -0.0015265853 0.105142705
000080 f5 6b 97 3d 56 2f fe 3d 41 01 c8 bd 01 24 ad 3d
       0.07393638 0.12411372 -0.09765864 0.08454133
000090 d1 53 1a 3e f8 8d 1b bc 5e 48 09 be 80 7e 5d bd
       0.15071036 -0.009494297 -0.13406512 -0.054075718
0000a0 59 03 bc 3d 47 fe 82 bd d0 cf dc 3d 80 59 0f 3e
       0.09180326 -0.06396156 0.107818246 0.13998985
0000b0 a2 ba c2 bd 13 c6 d1 bd 72 e4 ba bd dc 53 68 bd
       -0.09508254 -0.10242858 -0.09125604 -0.0567206
0000c0 b1 53 5f bd ca a9 be bd 12 e0 a7 3d 3e df b0 3c
       -0.054523174 -0.093097284 0.08197035 0.021590825
0000d0 3f 68 85 bd dc fe 12 be 53 9a 79 bd fb 9a 84 bc
       -0.06514024 -0.14355034 -0.06093819 -0.016187182
0000e0 d9 ed 86 3d 26 8a 81 bd 05 cc 52 bd fe e9 e8 3c
       0.065883346 -0.06325178 -0.0514641 0.028431889
0000f0 a9 3e f5 3c 60 71 b6 3d c7 eb 1a 3e 18 58 e8 bd
       0.029937105 0.08908343 0.15129004 -0.113449275
000100 6f 1d ec 3c 53 17 62 bc b4 d0 09 be d4 2e 2a be
       0.028822629 -0.013799506 -0.1345852 -0.16619426
000110 b3 70 ca bd 81 39 b1 bd 65 31 36 3d 0d ec 1b 3c
       -0.09884777 -0.08653546 0.0444807 0.009516728
000120 e3 c0 ba bb e6 bc dd 3d 02 d0 20 bc c3 fb 19 3d
       -0.0056992634 0.10827045 -0.009815218 0.037593614
000130 f9 31 e0 3d 47 c5 be 3d 52 eb 02 bd a9 dc d4 3b
       0.109470315 0.093149714 -0.0319627 0.0064960313
000140 0b de d3 bc 11 4b 59 bd 07 c4 ac 3d 47 02 d9 bb
       -0.025862714 -0.053050105 0.08435827 -0.006622586
000150 8f 00 a7 3d 06 47 f3 3d 60 71 70 bc bc be 07 3d
       0.081544034 0.11878781 -0.014675468 0.033140883
000160 62 be e7 bd 11 30 44 3d 9e 7d cc 3d d6 04 99 3d
       -0.113156095 0.047897402 0.09984897 0.074716255
000170 99 65 08 bd 42 8d fc 3d 7f 19 93 3d 5e 71 f6 bd
       -0.033300016 0.1233163 0.07182597 -0.12033342
000180 f4 58 e9 bd 5e 4d 7d bd d3 9c 7f 3d 17 30 98 3d
       -0.113939196 -0.06184136 0.06240542 0.074310474
000190 8f d7 9c 3d f9 48 f0 3d 9d 3a e6 3c ec 87 db 3d
       0.07658302 0.117326684 0.02810412 0.107192844
0001a0 b3 23 25 be 8c bf 09 be e3 14 8b 3d e5 7e 18 be
       -0.161269 -0.13451976 0.06791093 -0.14892156
0001b0 bf 84 aa 3d 4c 6e f1 3d 15 16 8b bd e8 63 b3 bd
       0.083261006 0.117886156 -0.06791321 -0.0875929
0001c0 9a b0 9c bb 24 93 c9 3c ab 19 d3 3d 5b 49 04 be
       -0.0047817947 0.024606295 0.1030763 -0.12918608
0001d0 f5 91 71 bc a6 61 94 3b b7 48 e1 3c 0a ce 83 3d
       -0.0147442715 0.004528242 0.027500493 0.06435783
0001e0 dc 2c a5 3d eb 6d d2 bd 8e 8b 43 bd 3f 5b 15 3e
       0.08065197 -0.102748714 -0.04774051 0.14585589
0001f0 e7 b2 18 be 74 d9 84 bd 43 23 ca bd f8 de 08 3b
       -0.14911996 -0.064867884 -0.09870007 0.0020884853
000200 29 79 56 bb 07 37 53 bc 5a aa 58 3c 14 77 b8 bd
       -0.0032726026 -0.0128915375 0.013224209 -0.09007087
000210 b6 56 eb 3d 82 e2 cd 3d b1 20 cf bb bd e3 16 bd
       0.11491148 0.100529686 -0.006321036 -0.036838282
000220 8a a6 24 3e af 45 e5 3d 45 e0 55 3c d6 a0 8b 3d
       0.16079155 0.11194932 0.013053958 0.068177864
000230 b0 43 ae 3b 55 3e 12 bb ee 8d d6 bd b1 c0 f8 3d
       0.0053181276 -0.0022314985 -0.1047629 0.12146128
000240 2c b1 9c bd 5c d2 60 bd 8c f6 28 3d 3e b6 8f bd
       -0.0765098 -0.054888114 0.04125075 -0.07017182
000250 e5 af 06 3c 7d f3 2d bc 49 62 71 bc 1b 3e 46 bd
       0.008220647 -0.010617134 -0.014732906 -0.048399072
000260 9e 6c 23 3d d1 13 a0 3d 40 5c cd 3d 31 7e f8 bc
       0.039898507 0.0781628 0.10027361 -0.03033361
000270 01 41 15 3e 0a 61 9a bd ca f1 00 3d 12 34 86 3d
       0.14575578 -0.0753804 0.031480588 0.065529004
000280 f1 a6 35 bb fa 16 04 be 95 8c f8 bd 15 97 91 bd
       -0.0027717913 -0.1289939 -0.12136189 -0.07108895
000290 ef c8 9a 3d 8c 54 33 bd 80 1a d1 3d 47 d8 43 3d
       0.07557856 -0.043781802 0.102101326 0.04781368
0002a0 7e 59 aa bd 5e dc 85 3d 0f 66 d6 bd de f5 91 3c
       -0.083178505 0.06536172 -0.10468685 0.017817434
0002b0 6f ad bb 3d 8e d9 8c bd bb 32 ec bd 48 56 de bd
       0.09163939 -0.06877433 -0.115331136 -0.108563006
0002c0 f8 e0 0b 3e 1f 68 04 3d db db b1 3c 4c c9 62 3c
       0.13660038 0.03232586 0.02171128 0.013841938
0002d0 f8 31 b0 bd 0b 7b bd 3d 7b 74 7c 3c a1 ef c2 bd
       -0.08603281 0.09251984 0.0154086305 -0.09518362
0002e0 39 5a d6 bd 72 18 fb 3d 16 e1 81 bd 49 45 2f 3e
       -0.10466427 0.12260522 -0.0634176 0.17116274
0002f0 9c 8e 27 3e 66 2a 7e 3a c4 fe cb 3c ca ce 17 bd
       0.16362995 0.0009695649 0.024901755 -0.037062444
000300 2c 29 a6 bd a2 0a 19 be b9 6f 00 be 5a b8 0d 3e
       -0.08113322 -0.14945462 -0.12542619 0.13839856
000310 4b b5 3e bd 3a 8a bc 3d 14 7d c4 3c e9 e3 ea bb
       -0.046559613 0.09206052 0.023985423 -0.0071682823
000320 a9 1b f9 bd 03 ea 0b 3d 69 3f cb bd 44 eb 81 3c
       -0.12163479 0.034158718 -0.09924204 0.015859254
000330 63 6f f8 3d 96 ca 21 be ae 19 45 bd e5 c5 56 bd
       0.1213062 -0.15799937 -0.048120193 -0.05243482
000340 4d 98 14 3e c3 27 03 be 41 65 fa 3d 85 ab c9 3c
       0.14511223 -0.12808137 0.12226344 0.02461792
000350 51 f4 d1 bc 6d 44 ef bd 27 63 a6 bc 6c 51 06 3e
       -0.025629194 -0.11682973 -0.020310951 0.13116997
000360 75 47 a6 bd f0 07 7b bd c0 50 0f be fa 61 d9 bc
       -0.08119098 -0.061286867 -0.13995647 -0.026535977
000370 77 ee c4 3d bc 17 e6 3d 70 40 b4 bd aa 6e c8 bd
       0.09615796 0.11234996 -0.08801353 -0.097867325
000380 45 93 88 3c c9 ae 9f 3d 75 ba c8 bd 5b 96 b9 b9
       0.016671786 0.077970095 -0.09801189 -0.00035397973
000390 cf fd af bd 60 8e 0c bd 2c 66 06 3e 6c ff df bd
       -0.08593332 -0.034315467 0.13124913 -0.1093739
0003a0 64 a7 e4 3d e7 0c f8 bd 4a aa d2 3d 80 7d 08 bd
       0.1116474 -0.12111836 0.10286386 -0.03332281
0003b0 1f 7b da 3d 23 61 ac bd d3 bb 09 3e ce 15 2d bc
       0.10668015 -0.08416965 0.13450556 -0.010564281
0003c0 e3 23 2b 3b d1 a0 22 be 28 b9 48 bd 10 0b f4 bd
       0.002611392 -0.15881659 -0.049004704 -0.119161725
0003d0 10 d5 a7 bd e8 a1 f7 3c 7c 14 b8 bd 55 c2 27 bd
       -0.08194935 0.03022857 -0.08988282 -0.040956814
0003e0 18 98 94 bd 8f c1 99 bd 74 3c a1 3d 19 4c 7f 3d
       -0.07255572 -0.075076215 0.07872859 0.06232843
0003f0 84 cb 6f 3d 59 9c 02 bd 6b 54 e4 bd 3d 1c 70 bb
       0.058543697 -0.031887386 -0.11148914 -0.0036637925

transformer.layers.0.self_attn.in_proj_bias f4 [192]
000000 e4 21 6d 3c cc 03 91 3c 4c 8e 2b 3b 56 2b f6 b8
       0.014473412 0.017702006 0.0026177345 -0.00011738266
000010 90 2b e3 bb 7c 0a a1 3c 32 2e b5 3b 6c 5c 19 3c
       -0.0069326833 0.01965832 0.0055291886 0.009360414
000020 9d e5 9c bc f4 b4 9b 3c bd 76 18 3a 84 e5 16 bc
       -0.019152457 0.019007184 0.0005816033 -0.009209994
000030 ea 46 b9 3a 42 59 68 3a d7 f2 17 ba fc 69 90 bc
       0.0014135514 0.0008863398 -0.0005796379 -0.017628662
000040 df b0 de 38 35 14 8c bb ec 18 fe 3b f2 a6 9c bc
       0.0001061873 -0.00427487 0.0077544358 -0.019122574
000050 e3 87 ec bb 2c cd d1 3b 9a 9a c7 3c a3 e2 ec 3c
       -0.0072183474 0.006402632 0.024365712 0.028916663
000060 bf e3 46 3b 96 2f 33 bc d1 d7 21 3c 43 14 58 bc
       0.003034815 -0.010936638 0.009878115 -0.0131884245
000070 de 42 88 3b eb 33 84 ba 7a d1 9e bb 24 02 26 3d
       0.004158362 -0.0010086274 -0.004846749 0.040529385
000080 f5 a2 45 3c 77 f0 94 bb 27 ee 8f 3c 0c b5 ec bc
       0.012062778 -0.004545267 0.017569615 -0.028894924
000090 05 8f c2 bb 0c e0 b5 3c 85 c6 87 bb 3c a2 04 3c
       -0.0059374594 0.02220156 -0.0041435384 0.00809532
0000a0 f0 1e e3 bc 13 e9 b2 3b 75 fa e7 3a 9b 8f bf 3b
       -0.027724713 0.0054599135 0.0017698543 0.0058459765
0000b0 70 8b 62 3c 47 a7 d6 bc 9d cb 81 bc 0f 56 7c bc
       0.01382719 -0.02620281 -0.01584416 -0.015401377
0000c0 31 83 60 3b 97 5a 15 3c 67 2f 55 3c a2 f8 1f 3c
       0.0034257884 0.009115837 0.01301179 0.0097638685
0000d0 4b 39 b1 3a 78 24 82 bb 3c 15 10 3c 49 00 25 3d
       0.0013521103 -0.0039716326 0.008794125 0.040283475
0000e0 6c 4e 08 bc cb 6c 5d bc a2 9d b8 3c 0a 01 9e b9
       -0.0083194785 -0.013514708 0.022536103 -0.00030136883
0000f0 35 8c 47 bc f0 9a 2a bc 8c 0a 04 bc c1 56 5d 3a
       -0.012179424 -0.010412917 -0.008059155 0.00084434083
000100 88 e3 59 b4 11 2a 20 34 14 85 03 35 b5 55 3b b4
       -2.0292475e-07 1.4916465e-07 4.8994957e-07 -1.7446912e-07
000110 90 7d f3 34 23 d0 81 b5 e9 30 87 b4 81 9c 0e b4
       4.5353636e-07 -9.671825e-07 -2.5181296e-07 -1.3281716e-07
000120 ca dc 4b b4 54 62 6a b3 0d da 3b 34 4b b9 31 35
       -1.8986171e-07 -5.45718e-08 1.7495059e-07 6.6207275e-07
000130 92 67 06 b5 10 5b 0f 35 1c 04 6c b5 c3 36 96 33
       -5.0069605e-07 5.3404165e-07 -8.792283e-07 6.9948804e-08
000140 a7 d1 77 34 e6 55 24 35 56 cc 72 b2 86 7b 27 35
       2.3079939e-07 6.121976e-07 -1.41327146e-08 6.23921e-07
000150 8f 7e c1 b4 3a 0e 81 33 9c dd 55 b5 c0 3a 09 b5
       -3.6041135e-07 6.0096184e-08 -7.967117e-07 -5.112197e-07
000160 6c 4a fd 34 74 5f ca b3 39 83 e0 b3 de 7b 12 35
       4.717907e-07 -9.423721e-08 -1.0454682e-07 5.456949e-07
000170 ce cd 48 30 88 c0 72 35 8f 39 20 35 3e c2 08 b5
       7.305204e-10 9.0432195e-07 5.9688404e-07 -5.094661e-07
000180 3f d5 37 34 3a 1b 85 b3 0b 7e ad b3 55 5f 98 b4
       1.7120782e-07 -6.1982476e-08 -8.078867e-08 -2.838157e-07
000190 06 de c6 33 50 85 0a b4 75 0c f6 b3 32 f2 82 32
       9.260479e-08 -1.290075e-07 -1.14575336e-07 1.524413e-08
0001a0 e9 f1 12 35 6b aa 9e b2 da d8 91 33 3c 38 1f b1
       5.4741264e-07 -1.8471118e-08 6.791534e-08 -2.316951e-09
0001b0 1a fc 6f b4 9b 9e 5f b4 f6 3e 37 34 8f a3 6c 34
       -2.2350324e-07 -2.0826194e-07 1.7066108e-07 2.2038715e-07
0001c0 51 ed 50 b4 ff 63 81 33 22 ca a4 33 04 1b 9b 34
       -1.9457845e-07 6.02522e-08 7.673613e-08 2.8890656e-07
0001d0 97 75 ac b3 af 83 5a b3 f6 ca e6 b1 a7 0d 50 b4
       -8.0307636e-08 -5.0876846e-08 -6.716955e-09 -1.9376476e-07
0001e0 b9 f8 8e b3 e8 2b 49 34 84 75 3d 34 a9 4d 17 32
       -6.657633e-08 1.8735557e-07 1.7644749e-07 8.807015e-09
0001f0 42 98 ca b4 35 19 32 b3 dd 0f 70 34 77 0b 12 34
       -3.7736214e-07 -4.146678e-08 2.2357513e-07 1.360148e-07
000200 6a 94 54 bb b9 70 96 39 aa 77 5d 38 13 65 5b bc
       -0.0032437094 0.00028694214 5.2801952e-05 -0.013390797
000210 98 6a 76 bb ce 31 8a 3b 85 28 4c bb 5f 20 15 bb
       -0.0037600156 0.004217363 -0.0031152081 -0.002275489
000220 b1 4f 53 bc 59 b6 79 bc 55 6e 5c bc 08 fa 58 3c
       -0.012897418 -0.015241229 -0.01345404 0.013243206
000230 53 1e be 3a fe 76 b8 ba 4b e2 95 3a db 23 98 3b
       0.0014504887 -0.0014073548 0.0011435238 0.004642946
000240 9c 0c 3d 3b 63 a8 3c 3c cf 83 34 bc ba 98 df 3a
       0.0028846627 0.011514756 -0.011017754 0.0017059066
000250 b4 64 c4 ba dd 65 98 3c 29 77 18 3b 65 e0 ca ba
       -0.0014983625 0.01860326 0.0023264384 -0.0015478252
000260 47 69 1d bb 8f c0 9e bb 53 31 3d bc e6 7b 4d 3c
       -0.002401905 -0.004844732 -0.011547404 0.012541747
000270 1d 62 27 3b 69 00 37 ba cc 71 f8 39 dd fd 10 3b
       0.0025540658 -0.0006980957 0.0004738703 0.002212397
000280 a8 56 70 bb e4 d9 54 3c 1d d7 86 bc 55 86 4a bc
       -0.0036672745 0.012991402 -0.016459996 -0.012361129
000290 58 14 5f 3c 3a d6 41 3b 8e f0 dd b9 0a 1a e9 3a
       0.01361569 0.0029577152 -0.00042331632 0.001778425
0002a0 46 72 40 ba 18 e3 89 3c 5a 30 93 ba 54 2e d5 3b
       -0.0007341247 0.01683192 -0.001122962 0.006505767
0002b0 cb 86 39 bc 3d 80 cc 3a e0 11 3e 3c 5a 22 b0 b9
       -0.011323641 0.0015602183 0.011600941 -0.0003359493
0002c0 c7 d3 84 ba ee 30 81 bc f7 27 db 3a b1 d3 dd 3a
       -0.0010133915 -0.015770402 0.0016720284 0.0016924051
0002d0 9b 0a 84 3b 6a b1 a3 ba a0 23 e3 3b d3 2c 4e 3b
       0.0040295846 -0.0012488787 0.006931737 0.0031459823
0002e0 b1 c7 93 bb 7e 75 4c ba f3 6d a1 ba 33 23 3c 3b
       -0.004509889 -0.000779949 -0.0012316093 0.0028707504
0002f0 b1 e5 a9 ba 96 97 d4 3b 2f 4a 78 bb 99 c9 1c 3c
       -0.001296213 0.006487797 -0.0037886014 0.009569549

transformer.layers.0.self_attn.out_proj.weight f4 [64, 64]
000000 ad 3a a6 3b d1 21 f5 3c 53 50 36 3c 70 2f b9 bc
       0.0050729127 0.029923351 0.011127549 -0.022605628
000010 97 da 62 bc 91 13 90 3c d7 ff 87 3b 82 e2 f5 3b
       -0.013846061 0.017587455 0.0041503715 0.0075038085
000020 14 40 9d 3c fa df be 3c a0 d5 46 bc ff 61 79 3c
       0.019195594 0.02330016 -0.012135893 0.015221118
000030 a5 a1 d6 bc d0 87 d8 ba f7 fc 01 3d 55 f8 f0 bc
       -0.026200125 -0.0016519967 0.031735387 -0.029415289
000040 8b b4 72 3b 96 0c 68 3c 75 c1 86 3c 59 2c 3f 3c
       0.0037033882 0.014163157 0.01644967 0.011668288
000050 a9 43 95 bc 0e 24 81 3c 99 63 93 bc 26 8c d8 bc
       -0.01822074 0.015764263 -0.017991828 -0.026434015
000060 49 c4 72 bd f4 0e 04 bb 4e 4c 4d 3c 6c cf 74 bc
       -0.059269223 -0.0020150514 0.0125303995 -0.014942031
000070 1d 3b d4 bc 8f 35 3c 3b 94 b6 b2 bc 13 41 ed bc
       -0.025907094 0.0028718447 -0.021815576 -0.028961694
000080 46 36 dc 3c 78 93 a6 3c 2b 85 09 3b fa 72 0c 3a
       0.026881348 0.02033399 0.0020983915 0.0005357709
000090 99 7d 7e bb ed 30 60 3c 1e 57 57 bb f9 8a 8f bc
       -0.0038832186 0.01368354 -0.0032858322 -0.017522322
0000a0 75 c5 7f 3c 65 0c fe 39 f5 75 44 3c 64 43 c7 3c
       0.015611042 0.0004845589 0.011991014 0.024324127
0000b0 28 d3 49 bd 09 45 3c bc b7 9d ac bc eb a3 24 bc
       -0.04927364 -0.011491069 -0.021071298 -0.010048847
0000c0 23 a8 d8 bc 31 cd 34 bc 67 b1 f9 bc fc c8 98 3c
       -0.026447361 -0.01103525 -0.0304801 0.018650524
0000d0 02 2b e9 3b 3a e5 32 bd 5b bb d6 3c 7c 83 34 3c
       0.0071157226 -0.04367564 0.026212385 0.011017676
0000e0 fd c9 4b ba ad 7e 35 bc ee eb 54 bc 4b 71 04 bd
       -0.0007773934 -0.011077565 -0.012995703 -0.032334607
0000f0 ef 99 d5 3c 52 4d f9 3b d8 33 93 bb d6 27 b2 3c
       0.026074378 0.0076080943 -0.0044922642 0.02174751
000100 9f 1c 43 3c 43 19 48 bc 4b 17 13 3d bf 80 b7 3b
       0.011908679 -0.012213054 0.035910886 0.0056000645
000110 da ca 75 3d c8 53 8f 3b d2 a2 15 3d c1 1d 90 bc
       0.060007907 0.004374001 0.03653223 -0.017592313
000120 e8 f9 37 3c 06 8e 8f bc ab cf b3 bb ad 39 03 bc
       0.011229016 -0.017523777 -0.0054874024 -0.008009356
000130 ff 2a 42 3c ba 76 76 bc b2 35 24 3c 7f a0 22 3b
       0.011851071 -0.015042955 0.010022568 0.0024814901
000140 55 31 16 3c a5 d3 ea 3c 3f 65 2f bc d7 77 8a bc
       0.009167035 0.028665373 -0.010705291 -0.016902847
000150 49 9d c6 bc 51 0d f3 bb 47 96 04 bd 60 9f 00 ba
       -0.024244921 -0.007417359 -0.03236988 -0.0004906561
000160 4f 46 a6 bc 0b 2c d6 bc 7a 4c 91 bb 2a 60 06 3d
       -0.020297198 -0.026144048 -0.0044341655 0.032806553
000170 9c ba a9 bc c4 9c 3e bd d4 93 15 bc e1 a2 c9 ba
       -0.020718865 -0.046536222 -0.009129483 -0.0015383625
000180 83 28 63 3b 94 e1 99 39 9f e4 8a 3b 84 5a c3 bc
       0.0034661598 0.00029350503 0.0042386795 -0.023846872
000190 cd 03 c9 bb 20 ae d2 bb aa 64 c2 3c da 30 ee bc
       -0.0061344863 -0.0064294487 0.023729641 -0.029076029
0001a0 58 d0 4a 3c 38 2c 36 3d a6 37 e7 bc d0 43 0d bc
       0.012378775 0.044475764 -0.028224777 -0.008622125
0001b0 90 e3 1a bd c3 1a 2d 3b 5b 4d 4b 3d 46 0b 0e bd
       -0.037814677 0.0026413656 0.04963432 -0.03467872
0001c0 b6 41 a4 3c 87 75 61 bc 58 e1 59 bd 39 a8 a3 bc
       0.020050865 -0.013760931 -0.05319342 -0.019977676
0001d0 ab 52 a4 3c a4 84 d3 bc 2c ba f9 3b 4f 4a 8a bc
       0.02005895 -0.025820084 0.0076210704 -0.016881136
0001e0 c0 9c 12 bd 79 4d 7b ba 7b 66 a6 3b 00 8b c9 3b
       -0.03579402 -0.00095864345 0.0050781346 0.0061506033
0001f0 62 16 3a 3d 87 2f 30 3c bc c9 0a bd 74 39 ca bb
       0.045431502 0.010753519 -0.033883795 -0.0061713997
000200 83 26 05 bc 65 20 ec bc 6c 55 03 bc 50 c9 fb 3b
       -0.008126858 -0.02882404 -0.008015972 0.0076839104
000210 b7 3d a0 3c 04 64 d3 bc 90 6e 17 bc 14 b0 1e 3c
       0.019560678 -0.025804527 -0.009242669 0.009685535
000220 5b 20 6f bd 0c 43 8e bc 2d 74 17 3c f1 ee ff 3b
       -0.058380466 -0.017365955 0.009244007 0.0078104665
000230 1c 79 13 bc 07 a3 c3 bc 96 3c a4 3b 11 b2 1b bd
       -0.009001043 -0.023881448 0.005012105 -0.038011614
000240 94 d9 41 bc 3f c7 de bb b5 21 3f bc 58 87 7f 3c
       -0.01183166 -0.0067986543 -0.011665751 0.015596233
000250 c8 69 c2 38 14 ec d5 bc ab b9 f1 3c 68 86 20 bd
       9.270344e-05 -0.026113547 0.029507479 -0.03919068
000260 d0 62 82 bc 0f 91 4c 3c a9 ac 87 3c f2 76 41 bd
       -0.015916258 0.012485757 0.016561823 -0.047232576
000270 a9 65 fe bb be 08 7b bb a8 31 3c 3b 61 b3 5d bc
       -0.0077635837 -0.0038304771 0.002871612 -0.013531537
000280 b9 36 11 bc e2 f6 91 3c 38 d4 b0 3a a3 55 43 bd
       -0.008863145 0.017817918 0.001349098 -0.04768909
000290 ac 21 a6 bc 4c b4 b8 bc 9f e1 d5 bb c5 95 16 3d
       -0.020279728 -0.02254691 -0.0065271403 0.036763925
0002a0 6d eb 08 3d ba 4c 62 ba 54 ca 4e bc b8 77 c0 3b
       0.033427645 -0.0008632649 -0.012621481 0.0058736466
0002b0 bd c0 8d bd 67 ea 9d ba 10 ed 24 3c f6 56 7e 3c
       -0.069215275 -0.0012048007 0.010066286 0.015523663
0002c0 3b 92 92 bd 55 07 04 bd d9 d3 cd 3c 5e a3 a8 3a
       -0.071567975 -0.032233555 0.02512543 0.001286607
0002d0 65 eb 21 3d 99 a4 92 3c 96 3e 4c 3b c4 15 38 38
       0.03953113 0.017900752 0.0031165234 4.388929e-05
0002e0 7b e5 87 bb 0b 4d 0b bb 82 30 aa 3b 50 41 84 3c
       -0.0041472293 -0.0021255638 0.005193771 0.016144425
0002f0 13 0c b4 3c 12 ce d0 bc ed af 7c bb 8f 15 8a 3c
       0.021978414 -0.025488887 -0.0038557008 0.016855983
000300 be 29 1f bc ec 8f 16 bc 2c d7 83 ba 62 99 89 3c
       -0.009714542 -0.009189587 -0.0010058633 0.016796771
000310 ab e0 e6 3b 36 df 10 bd 44 25 e6 bc 4a 89 87 bc
       0.0070458255 -0.03536912 -0.028093942 -0.016544957
000320 69 2b dd 3a 24 32 4b 3d 87 80 5c 3c 40 b1 0f bd
       0.0016873899 0.049608365 0.013458378 -0.03508115
000330 86 68 89 bc 1a 6c 3e 3c 7b 14 98 3c 55 96 e6 3b
       -0.016773473 0.011622453 0.018564453 0.007036964
000340 d0 39 d4 3c 72 0d 00 bc 8b e0 5c ba d0 b8 10 bd
       0.025906473 -0.007815706 -0.00084257935 -0.0353325
000350 f1 ae 01 3c d8 00 00 bc fe e5 88 3b e8 a5 75 3c
       0.007915244 -0.007812701 0.004177808 0.014993168
000360 61 7c 0c bd 1c 12 e9 bc 1f 00 54 bc f4 15 94 bc
       -0.034298304 -0.028451018 -0.012939482 -0.018076874
000370 d0 b4 a3 bb 75 3f 1b 3b 85 11 e7 3a e1 ab b2 3b
       -0.0049959198 0.0023688946 0.0017629123 0.0054526185
000380 80 95 fa 3c 7f 41 19 bc e7 12 bb 3c 18 f8 c8 bc
       0.030588865 -0.009353994 0.022836162 -0.024532363
000390 94 b1 3b bd e5 db 25 bc 17 84 8d bb fa 5c 77 bc
       -0.04582365 -0.010123228 -0.004318725 -0.015097851
0003a0 96 ef 18 3c c4 82 57 3b 3e 92 0d bb 8f b3 8f 3b
       0.0093344655 0.003288434 -0.002160206 0.0043854187
0003b0 83 4d 26 3b 2e 9e 69 bc 64 4b 6c ba 5f e3 56 bc
       0.002537579 -0.014258904 -0.00090139196 -0.013115733
0003c0 97 95 50 bc 29 78 96 3c 87 5d 53 3c 8b a1 43 bc
       -0.0127309775 0.018367844 0.012900717 -0.01194037
0003d0 ee 6d 82 bc f4 65 57 3c 18 01 dd 3c 34 22 00 bd
       -0.01592156 0.013146866 0.02697806 -0.03128262
0003e0 48 fc d8 3c 7f 6f 88 3c 85 00 50 ba 39 12 f6 3a
       0.026487485 0.016654728 -0.0007934648 0.0018773741
0003f0 7a 2f 9e bc e4 ac 87 3b 53 98 e2 3c 50 db c5 bc
       -0.019309748 0.004140483 0.027660524 -0.024152428

transformer.layers.0.self_attn.out_proj.bias f4 [64]
000000 d9 c2 5d bb fa 77 06 bc 5c 8c 00 bc b3 80 a2 3b
       -0.0033838062 -0.008207316 -0.007845964 0.00495919
000010 d4 8a f4 3b 7b 9f 04 3c a7 88 12 3c 6f 34 9c bb
       0.0074628387 0.008094664 0.008943713 -0.0047669928
000020 dc 7d 9d bb 4b 15 de 3b 5c 4b 68 bb 6d 2b 8d 3b
       -0.0048062634 0.0067774407 -0.0035445308 0.0043081553
000030 55 47 d8 bb 37 5c a1 3a b8 57 0a 3c 62 aa 16 bc
       -0.0066003003 0.0012310807 0.008443765 -0.009195896
000040 36 a8 f0 bb 9a 6d 97 bb cf 8b 9c bb c7 59 d9 3b
       -0.007344271 -0.00462122 -0.0047774087 0.0066330167
000050 bb 7b ae bb 34 17 11 bc 68 a9 9e 3a 2f 56 21 bc
       -0.0053248084 -0.00885563 0.001210493 -0.009847208
000060 a8 67 ae 3b d3 9b 9a 3b 10 b3 15 bc 98 25 9a 3b
       0.0053224154 0.0047182827 -0.00913693 0.0047041886
000070 b9 7e 8e bb 1b 9a 89 bb 25 d3 20 bc d9 57 01 3c
       -0.0043486026 -0.004199279 -0.009815966 0.00789448
000080 76 37 b6 bb f4 5c b8 3b cb 4d a0 3b 52 bb 57 3b
       -0.0055608107 0.0056263153 0.004892086 0.0032918048
000090 14 cc 48 3b 1e 64 c7 3b 84 5c a1 3b 32 a0 85 ba
       0.0030639218 0.006084933 0.004924359 -0.0010194837
0000a0 6f e5 05 bc 66 1e ef bb 45 5d 90 38 b1 6e b3 bb
       -0.008172377 -0.007297325 6.883828e-05 -0.005475842
0000b0 2b dc fb b9 aa 6b 3b bb 18 d3 10 3c b1 c0 a4 bb
       -0.0004803849 -0.0028598108 0.008839391 -0.0050278534
0000c0 1b 40 14 3c d1 cb 85 3b fe 19 2a 3c fa c5 12 3c
       0.009048487 0.0040831347 0.010382174 0.008958334
0000d0 60 aa a3 bb ee b2 d2 3a 57 72 f5 bb 83 73 a5 bb
       -0.0049946755 0.0016075054 -0.007490437 -0.0050491705
0000e0 b0 34 44 bb c7 79 af 3b d6 59 02 3c a1 0f ee bb
       -0.002993863 0.005355093 0.007955989 -0.0072650467
0000f0 0e 61 13 bc 86 87 f5 bb ec d8 db 3a 85 9b b6 bb
       -0.008995308 -0.0074929623 0.0016773022 -0.0055727386

transformer.layers.0.linear1.weight f4 [128, 64]
000000 28 05 6b bd f8 8d d8 ba 6e 91 0e bb 39 32 d0 bc
       -0.057377964 -0.0016521802 -0.0021754163 -0.025414573
000010 11 04 0c 3d 8d 64 37 3d a8 91 2f 3d de 71 89 bd
       0.034183566 0.044773627 0.042863518 -0.067111716
000020 5d 4b 8e 3d a6 c8 a0 bb 18 93 13 bd e4 ad 45 3d
       0.06947968 -0.0049067317 -0.03602895 0.04826154
000030 e4 ed bf 3c 24 31 26 3d 3e f9 d2 bc e5 f7 90 3c
       0.023428865 0.040574208 -0.025753614 0.01769633
000040 59 cd 2a bd a5 3f 8a bc 58 d8 87 bc 1f ff be bc
       -0.04169974 -0.016876051 -0.016582653 -0.02331501
000050 fa 0a 6c 3c 59 cb 4e 3a bd c7 e9 bb 49 c4 08 bd
       0.014406914 0.00078885775 -0.0071344064 -0.033390317
000060 d2 3e f0 bc 8a 23 35 bd 3c 68 1b 3c 08 ab d3 3c
       -0.02932683 -0.044223346 0.009485301 0.02583839
000070 98 ef 45 3c 2f 57 9b bc 79 d4 31 3c 6c 89 47 bd
       0.012081049 -0.01896247 0.01085388 -0.04871504
000080 c9 27 36 bc 43 6e b9 3c 92 86 4d 3c 65 06 aa 3c
       -0.011117884 0.022635585 0.012544291 0.020755002
000090 9f 8a f6 3b 6e 02 02 bb ee 4e ef 3c 64 2b 80 bc
       0.007523849 -0.0019837874 0.029212441 -0.01564569
0000a0 8c 11 50 bd d0 12 dc bb 76 1e 84 3c fa c0 2a bd
       -0.050797984 -0.00671611 0.016127806 -0.041687943
0000b0 18 92 6a bd 11 2e c2 39 e4 5e e7 bc 40 89 0c 3d
       -0.057268232 0.00037036886 -0.02824349 0.03431058
0000c0 82 2a 91 bc a2 8d 03 bc 88 01 77 3c d1 3f 9f bc
       -0.017720465 -0.008029373 0.015076049 -0.01943961
0000d0 61 12 d2 3c 7d c7 53 bb b4 91 0b 3c b4 a7 36 bd
       0.02564353 -0.003231495 0.008518625 -0.044593528
0000e0 5d f3 90 3b 13 8a 90 3c 50 37 2f 3c a6 d2 59 3d
       0.0044235424 0.017643964 0.01069434 0.053179406
0000f0 8e a2 02 3c f2 48 30 3d 7c 37 99 bc 71 e3 b6 bc
       0.007973326 0.043038316 -0.018703215 -0.02232525
000100 ba c6 02 3c 48 d8 f4 3b 53 53 04 bd f6 40 c2 bc
       0.00798195 0.007472072 -0.032306027 -0.023712616
000110 cc 61 46 3c b7 7d 50 bd a9 28 42 3d a9 6e fc 3c
       0.0121082775 -0.05090114 0.047402058 0.030814486
000120 6e f5 51 bc 60 08 ba 3a c4 60 bf bb a8 55 84 ba
       -0.012814863 0.001419317 -0.005840393 -0.0010096328
000130 8c 71 8c bd 2c 65 ca bc f8 5e bf 3c 35 67 26 3d
       -0.06857595 -0.024706446 0.023360714 0.04062577
000140 0f 94 04 3c a1 05 7e bb ff 89 df bb 9c 2b 2c 3d
       0.008091941 -0.003876068 -0.0068218703 0.042033777
000150 8b 03 c0 bc d1 80 94 bd 03 63 20 3d 9b 70 9d b9
       -0.02343919 -0.07251132 0.039156925 -0.0003002927
000160 ef f6 df 3c dc df e9 3c 6f a7 f6 3c b1 32 ad bb
       0.027339427 0.028549127 0.030109135 -0.005285584
000170 ec 48 34 bd 94 44 07 bd e8 8a 10 3c 57 f9 de bc
       -0.044014856 -0.033024386 0.00882218 -0.027218504
000180 d5 4b 2a 3d f1 78 31 bc 22 6f 03 bd 11 84 b5 3c
       0.041576225 -0.010832057 -0.032088406 0.0221577
000190 ec 8a 88 bc b1 fd 26 3c 23 a5 df bc 65 85 41 bb
       -0.016667806 0.010192321 -0.027300423 -0.0029528972
0001a0 47 00 b2 bb 3c 77 2f bd 0e b0 1f 3d b8 12 c2 bc
       -0.005432162 -0.04283832 0.03898626 -0.023690566
0001b0 31 ca fe 3c 2a 94 74 3b 87 96 a3 3d 62 bd 5f bd
       0.031102272 0.0037319758 0.07987695 -0.05462397
0001c0 f2 cb 66 3c 60 aa 41 3b ed 1f 7a bd 34 2b 4c 3d
       0.01408671 0.0029551014 -0.061065603 0.04984589
0001d0 ff a4 67 3d ea e5 43 bd 31 ff bf 3c 59 42 cc bc
       0.056553837 -0.047826685 0.023437114 -0.02493398
0001e0 a8 05 e7 bc 25 85 df bc b3 e8 0b 3d 01 02 29 3c
       -0.02820094 -0.027285168 0.034157466 0.010315419
0001f0 c4 65 7c bb 85 c5 29 bd 9e bd 0d 3d 45 6b b5 3c
       -0.0038512805 -0.041448135 0.03460466 0.022145877
000200 fa 77 18 bc 66 b1 66 bd ac 3f ee bc 40 47 6c ba
       -0.009305948 -0.056321524 -0.029083095 -0.00090133026
000210 a7 63 ab 3c 38 c1 14 bd 47 cd 23 bd b1 e8 31 3d
       0.020921541 -0.03631708 -0.03999069 0.043434802
000220 64 62 fa bc a7 fc 31 3c 43 54 fd bb 23 62 05 bc
       -0.030564494 0.01086346 -0.007730992 -0.008141073
000230 07 fa a0 bc 5c 40 68 3c 1d 86 9d 3c e9 a7 a8 3d
       -0.019650472 0.014175501 0.01922899 0.08235151
000240 16 06 53 bb 35 ca 06 bd fe 09 82 bc 14 13 19 3c
       -0.0032199672 -0.032907683 -0.015873905 0.0093429275
000250 7f 7d 1f 3d 9a 1c d7 3c ef 9f 09 3d dd 2f a2 3c
       0.03893804 0.026258755 0.03359979 0.019798214
000260 06 af f6 3c ec ae 89 bc c3 25 51 bd 0e 65 19 bc
       0.030112755 -0.016807042 -0.051061403 -0.009362472
000270 70 96 63 3c 46 b9 e4 bc 7d df 39 3d 3a df 5d bb
       0.013890848 -0.027920377 0.04537915 -0.0033854977
000280 24 5b 48 3d a4 f4 30 3c 7a f6 62 bc 94 39 7a 3d
       0.048915043 0.010800514 -0.01385271 0.061090067
000290 e4 25 19 bd 79 dd 1e 3d 47 12 a7 bc da 90 9e bc
       -0.03738965 0.03878543 -0.020394458 -0.01935618
0002a0 c8 00 61 3d 4f e3 1f bb ec 90 bb 3c 2a 79 22 bd
       0.054932386 -0.002439696 0.022896253 -0.039666332
0002b0 66 80 8f bc ab bb cd bc 6b a5 6d 3c 1d bf 59 3c
       -0.01751728 -0.025113901 0.014504771 0.013290194
0002c0 c8 6a 5a 3c f3 a1 b6 3c 9b 63 b7 bc 7b 8e 56 3c
       0.013331123 0.02229402 -0.022386363 0.013095493
0002d0 ee 83 0f bd 34 38 04 3c c9 21 d6 3d 32 a8 c0 bc
       -0.035037927 0.0080700405 0.10455663 -0.023517702
0002e0 22 07 6d bd 69 d5 af 3c 83 99 e1 bb db ba 24 bd
       -0.05786813 0.021464067 -0.006884755 -0.04021726
0002f0 7e 59 24 bd 9f 28 ce bb fe aa 05 3d 31 a4 6b bb
       -0.04012441 -0.0062914635 0.032633774 -0.003595602
000300 17 7d 32 bd b2 01 06 bd 84 b4 2c 3d 7f e4 7f bc
       -0.043576326 -0.03271646 0.04216434 -0.015618443
000310 17 09 b3 bc 15 7c c6 3c 48 ff 10 bc 32 1c a2 bc
       -0.02185492 0.024229089 -0.008849926 -0.019788835
000320 46 a3 c6 bc 71 1a 53 3c 4b 74 6c 3d 72 d1 7c bd
       -0.024247777 0.012884722 0.057728093 -0.06172318
000330 40 fd 2a bb 2d 48 90 bb 6f d0 83 3c 70 33 85 bc
       -0.002609089 -0.0044031353 0.0160906 -0.016259879
000340 7c fc 6b bc 7a 40 19 bd 76 3f bd bc ff 4f d9 bb
       -0.014403459 -0.037415005 -0.02310155 -0.0066318507
000350 1f 31 82 bc c8 3e 9d 3c 41 a9 06 3b ae 57 74 bc
       -0.015892563 0.019194975 0.002054766 -0.014913483
000360 f5 32 25 3c a6 a6 78 3c f1 9b d7 bc 42 b4 01 3d
       0.01008295 0.015176451 -0.026319476 0.031666048
000370 fe 0d 28 3b 22 6c f7 bc 67 ec 3f bd f9 7f 15 3d
       0.0025643106 -0.030202929 -0.04685631 0.036498997
000380 8b 3e b0 bc 7c 4d df 3c 6b 7f 24 3d 0e 45 02 3d
       -0.021514198 0.027258627 0.040160578 0.031804137
000390 91 c2 13 3d b3 59 4e bc a8 f4 aa 3c c7 a6 3e 3c
       0.036074225 -0.012594628 0.020868614 0.0116364425
0003a0 40 2b 0d bd a2 11 0d 3d 0a 9e 56 3c bf 6f 01 3c
       -0.034465075 0.034440644 0.013099203 0.0079001775
0003b0 ef 98 38 3c 1e a2 36 bd c2 8f 3b bd 95 b0 06 bd
       0.011266931 -0.0445882 -0.045791395 -0.032883245
0003c0 00 f5 b5 3c e5 d0 d2 bc c6 30 2e 3c db c8 39 3d
       0.022211552 -0.025734374 0.010631746 0.045357566
0003d0 e9 7c 4a bc cb b4 db bc 5b 3b f9 bc 16 7b 07 3c
       -0.012358882 -0.026819607 -0.03042381 0.008269092
0003e0 a0 19 6a ba f5 b7 fe 3c 96 f1 88 bc 6d d5 10 bd
       -0.000893021 0.031093577 -0.01671676 -0.03535979
0003f0 38 07 03 bc b6 0b 44 bc 68 64 17 3d fb 1c 1f bd
       -0.007997327 -0.011965683 0.03696099 -0.038845997

transformer.layers.0.linear1.bias f4 [128]
000000 52 af 23 3b c6 d2 71 3c a5 50 b0 3c d4 b7 1e 3c
       0.0024976325 0.014759725 0.02152283 0.009687383
000010 37 04 9f 3a c8 a3 cd 3c fc 4a 06 3c 26 ac bd 3c
       0.0012131993 0.025102511 0.008196589 0.023153376
000020 40 ba 47 3b f5 27 75 bc 45 74 8d 3b 47 84 04 bc
       0.0030476004 -0.01496314 0.004316839 -0.008088178
000030 11 fc 78 3c 6e 67 1b 3c 8f af dc bb 9d 28 01 3c
       0.015196816 0.009485109 -0.0067347954 0.007883218
000040 98 f7 0b bc 7c 1c 9b 3c 61 69 16 bb 24 29 ac 3c
       -0.008542918 0.01893448 -0.0022950994 0.021015711
000050 87 b9 75 3c 3b a5 2b 3c 16 a2 9a 3c 98 5d 01 3d
       0.014997846 0.010476406 0.018876117 0.0315834
000060 ac c4 10 3c 53 ca 87 3b 1c fa 58 bc da 54 33 bc
       0.008835953 0.004143992 -0.0132432245 -0.010945523
000070 59 47 11 3c 22 07 f5 3b 02 d1 b0 3c 2e 30 cb 3c
       0.008867108 0.007477657 0.021584038 0.024803247
000080 fe 8c 36 3c 9f 0c bc 3c 94 70 19 bb 6a a4 97 3c
       0.011142014 0.022955237 -0.002341305 0.018511016
000090 07 e0 6f 3c 05 f9 f9 bb b4 f4 37 3c 56 c4 46 3c
       0.014640815 -0.0076285624 0.011227775 0.012131771
0000a0 1c f5 97 bb 9e c5 f8 3b d2 39 d7 3b 37 c3 ef ba
       -0.0046373736 0.007591917 0.006568172 -0.0018292431
0000b0 57 b5 9f 3c 89 c8 a4 3c db 95 94 3b 50 ad 46 3c
       0.01949565 0.020115154 0.0045344657 0.012126282
0000c0 ca 82 98 3c e7 db 00 bb 35 8d 17 ba a1 a4 1e 3c
       0.018617053 -0.0019662322 -0.00057812344 0.009682805
0000d0 fc d8 95 bc 2b 6a f1 3b 89 ae 1b 3c ef 40 79 bc
       -0.018291943 0.0073673925 0.009502062 -0.015213235
0000e0 e6 0a e2 3c d9 46 23 3c 78 17 65 3b c1 19 39 3c
       0.027593087 0.009965622 0.0034956615 0.011297644
0000f0 fa 22 82 3b ea a7 03 3a e8 6e e5 3a 59 9c 99 ba
       0.0039714547 0.00050222746 0.0017504366 -0.0011719569
000100 e9 89 dd 3b 5e 23 c3 3b 61 c9 ea 3b 50 5b af 3c
       0.006760825 0.005955144 0.0071651195 0.021405846
000110 59 ed fd 3b e0 27 34 3b 05 2c 22 3c 88 f5 5b 3c
       0.0077492413 0.0027489588 0.00989819 0.013425238
000120 62 f6 2b 3c c3 0a df 39 65 3c bf 3b ed ad 87 bb
       0.010495754 0.00042541893 0.005836057 -0.0041406066
000130 52 f2 5b ba 88 2e b4 3b 2d f9 75 3c 30 f7 73 3c
       -0.00083902956 0.005498711 0.015013021 0.014890477
000140 5b 80 b5 bb d2 f2 a3 3c b0 04 7d 3c 99 8c 63 bc
       -0.005538983 0.020013247 0.015443012 -0.013888502
000150 c0 cf db 3b af f0 3c bc 34 e2 db bb e6 90 50 3c
       0.0067081153 -0.011531993 -0.006710315 0.012729859
000160 1c 1d bb 3b 91 d3 e4 3b 7d c9 06 3c 63 a7 d9 ba
       0.005710257 0.0069832285 0.0082267495 -0.0016605671
000170 40 b8 56 3c da a3 c8 3b e7 11 1e bc e8 f6 39 3b
       0.013105452 0.0061230483 -0.009647823 0.0028375927
000180 ec ed 39 3c a6 77 8b 3b 1e bf 45 bc 72 57 b4 3b
       0.011348229 0.0042562066 -0.012069492 0.0055035884
000190 4f 22 86 bb 09 14 86 3c cd ee 55 39 a8 41 d8 3a
       -0.0040934454 0.016366975 0.00020402223 0.0016499059
0001a0 db 00 5a bc e7 c5 0b 3c ee 36 96 3c 40 9c 9b 3c
       -0.013305868 0.00853107 0.01833674 0.018995404
0001b0 de 03 88 3c c7 ca 26 bc ed c6 89 3c 4f 99 4d 3b
       0.016603407 -0.010180182 0.016818488 0.0031371897
0001c0 2d 30 cb 3a ec a7 b5 ba 70 bf 08 3b 4b d1 5f 3c
       0.0015502028 -0.0013859249 0.0020866059 0.013660739
0001d0 9d f4 06 3c 05 7b 9a 3a 33 e2 61 3b 38 3b 9a 3b
       0.008237031 0.001178593 0.00344671 0.0047067665
0001e0 90 97 3d bc 0d d8 31 3c b8 86 67 bb d1 5f a9 3b
       -0.01157178 0.010854733 -0.0035328101 0.005168893
0001f0 7e 09 5d 3b 3f a5 19 3a 94 ff 1c 3c 0c c8 cc 3b
       0.0033727582 0.00058611104 0.009582419 0.0062494334
