marble_model/best_model_v3.0_20250531_005845.pt (torch, 295593 bytes, 30 tensors)

token_embedding.weight f4 [13, 64]
000000 2f 06 96 bc cc 2c 0a 3d fb 42 2a bd ca 20 f7 3c
       -0.018313495 0.033734128 -0.041567784 0.030167002
000010 b4 9a c4 bc 72 69 33 bb 7c ff 18 bd e2 10 87 3c
       -0.02399955 -0.0027376083 -0.037353024 0.016487543
000020 79 26 78 bc 7c 59 a5 bc 21 e8 31 bc 5b 53 9a bb
       -0.015145891 -0.020184271 -0.0108585665 -0.004709644
000030 aa 62 7a bc 29 ac f9 3c 60 22 0d 3d c5 32 be 3a
       -0.015282312 0.0304776 0.03445661 0.001451098
000040 77 29 35 3c 0a 93 2a bc cd 57 49 3d 52 0a 87 ba
       0.011057249 -0.010411033 0.049156 -0.0010302758
000050 ce e8 ef 3b da aa 1c 3d c7 c7 8f bb 8c e7 94 3c
       0.0073214537 0.038248874 -0.004387829 0.018176816
000060 19 ef 46 3b b0 85 99 bc 10 cb c2 3c cb e9 a1 bc
       0.0030354916 -0.018740505 0.023778468 -0.019764801
000070 d3 1f ea 3a 98 9e 66 bb 12 33 6a bc da 93 91 3d
       0.0017862268 -0.0035189744 -0.014294403 0.071082786
000080 7e 9d bd 3c 30 b0 f6 bc f6 9c a8 bb 68 fe 9a bb
       0.023146387 -0.03011331 -0.0051456643 -0.0047300346
000090 80 12 4d bc 35 84 49 3c 8d 30 9a bc 5c 59 c0 ba
       -0.012516618 0.012299587 -0.018821979 -0.0014675069
0000a0 39 ce d6 3c 97 b7 19 bc 5c 8e b1 3b 58 d1 f7 3b
       0.026221382 -0.00938215 0.005418582 0.0075627975
0000b0 73 55 d4 3c a5 c6 a8 3b 64 98 b8 bc 74 c9 00 bd
       0.025919652 0.0051506334 -0.022533603 -0.03144212
0000c0 e0 27 bd 3c 6f 3e c1 3c 3b 89 9f bc 42 14 04 bd
       0.023090303 0.023589341 -0.019474616 -0.03224588
0000d0 09 7b 84 bb ee 42 54 3c 29 21 83 bc 4e 64 68 bb
       -0.0040429872 0.01295541 -0.016007023 -0.0035460177
0000e0 ef f5 24 3d 5d 42 ed 3c 45 4d b4 bb 22 5b 57 3c
       0.040273603 0.028962309 -0.0055023753 0.013144286
0000f0 34 3a fe bc 16 bc ab 39 53 dd bb bb cd 44 03 3b
       -0.031033613 0.00032755797 -0.005733171 0.0020030022
000100 a0 a3 99 3b e5 6f a8 bc df 60 69 bb 66 36 ce 3c
       0.004688695 -0.020561168 -0.0035610718 0.025172424
000110 5f bd 3c bd 38 4a 5e bd 39 9b cb 3b 65 5c 33 bd
       -0.046079036 -0.05427 0.0062135723 -0.043789286
000120 4c bd d0 3a b0 42 a3 bb 5f b2 00 3d 84 2c e3 3c
       0.0015925555 -0.004982315 0.031420108 0.027731188
000130 cb 7c ab 3c 2c d0 15 3c c1 72 da 3b 6d f9 cc bc
       0.02093353 0.00914387 0.0066665118 -0.02502128
000140 13 1c 43 bd 64 c1 f7 bc 80 98 be 3c b5 41 d4 3c
       -0.047634196 -0.030243583 0.023266077 0.025910238
000150 f2 7d d8 bc 5f 2e 3c 3d 37 77 a7 3b 6b 20 52 bd
       -0.026427243 0.04594266 0.005110647 -0.051300447
000160 ed 7d 13 3d d0 cf ee bc b7 04 6c 3d 81 8f 49 3c
       0.036008764 -0.029151827 0.057621684 0.01230228
000170 1d 4f 9b 3c b7 5d 72 3d 8b 95 b9 bc 1f fa 1e 3d
       0.018958623 0.059171405 -0.022654315 0.038812753
000180 2a 9c 45 3c 97 05 1a 3d 1a e2 ef 3c 05 41 1b bb
       0.012061158 0.037602987 0.029282618 -0.0023689878
000190 1b aa 84 bd 6f a9 8a 3c 59 f2 01 3d 7f ff 34 3d
       -0.064777575 0.016926495 0.03172526 0.044188973
0001a0 c7 58 d4 bb 9a b0 01 bd d9 36 1a bd f5 ad d9 bc
       -0.0064803096 -0.03166256 -0.037649963 -0.026572207
0001b0 b2 b9 18 3d 2b aa 25 3d 8a 3b 85 bc b8 ac d5 bc
       0.037286468 0.040445488 -0.016263742 -0.026083335
0001c0 2a f6 fb 3c f3 43 57 3b ab 4f 6e bc 5c ba 4e bd
       0.030757029 0.0032846897 -0.0145453615 -0.050470695
0001d0 bb 69 05 bd 3b c2 96 bb 48 f4 52 3c b8 ba 48 3c
       -0.032571536 -0.004600791 0.012875624 0.0122515485
0001e0 c9 70 e0 bc ee 6f cf 3c 74 c4 4d bc 92 d1 cb bc
       -0.02739753 0.025321927 -0.012559045 -0.024880204
0001f0 e8 a6 fd bb ce 4b cc 3b 9a 8f e0 bc 5d 11 a6 3c
       -0.007740844 0.0062346226 -0.027412225 0.020271951
000200 72 5c 67 bc 50 a6 de bb af 3f f4 bc 21 c1 d7 3c
       -0.014121162 -0.0067947283 -0.029815523 0.026337208
000210 65 fd f7 38 d7 ae ed 3b 84 82 9b bb f8 15 fd bc
       0.00011825076 0.0072535085 -0.0047457833 -0.030894265
000220 8b 0c 02 3d aa 07 89 3a e6 be 4d bc 22 52 b8 bc
       0.031750243 0.0010454555 -0.012557721 -0.022500101
000230 ab c1 48 3b 90 75 1a bb e6 d8 80 3c 34 49 81 3c
       0.0030633013 -0.0023568608 0.015728425 0.015781976
000240 1e 9c 56 3c a2 26 bb 3c 2c c3 9a 3c cc b9 0b 3d
       0.013098745 0.02284557 0.018891893 0.034112737
000250 1c da 8e bc ca 80 fe bb 57 ea 10 bc 6d aa 3e bd
       -0.017437987 -0.0077668177 -0.0088449335 -0.04654925
000260 ee 48 a2 3a 8b 48 e1 bb 82 20 e7 bb e3 17 7f bc
       0.0012381354 -0.006875103 -0.007053436 -0.01556966
000270 76 40 9e 3c 30 66 85 bc d2 96 87 bc 3a a1 0d bb
       0.019317847 -0.016284078 -0.016551409 -0.002161099
000280 73 e3 b1 3c 14 fe 94 bc 61 48 33 bc dd dc 20 bd
       0.021714902 -0.01818756 -0.010942549 -0.03927313
000290 3c 16 62 bb 15 83 05 3d f0 fe 5f 3c 07 3c e0 3c
       -0.0034498116 0.032595713 0.013671622 0.027372373
0002a0 8c 47 01 bc 15 50 80 3a 8c 1f 00 bc 10 42 73 bb
       -0.007890593 0.0009789491 -0.007820021 -0.0037118234
0002b0 2c 4c 14 3b 76 bb 15 3c 9c ef ab bc b6 c9 0d 3d
       0.002262841 0.009138932 -0.020988278 0.034616195
0002c0 b6 70 8c ba 12 4b a5 bc f2 8e 29 3a 1b dd fb 3c
       -0.0010714743 -0.020177398 0.0006468139 0.03074508
0002d0 51 18 0a bc 9e fa 03 ba 51 86 19 3c b6 cd 08 bc
       -0.008428649 -0.0005034598 0.009370402 -0.008349827
0002e0 e6 63 0c 3c af 9f a3 bb 09 ed e2 3c 00 83 a9 3c
       0.0085687395 -0.004993401 0.027700918 0.020692348
0002f0 dd 78 76 3c b3 9a 05 3c 71 d0 23 3b d7 fe a8 3c
       0.0150434645 0.008154559 0.0024996067 0.02062933
000300 6f 04 5a bc 2b cf e4 3c 9c a0 8e bb 94 82 53 ba
       -0.013306721 0.027930817 -0.004352642 -0.0008068469
000310 74 bf 8c 3b be b4 e3 3b cc 1c 18 3c 2b 91 8e 3b
       0.004295284 0.0069490364 0.009284209 0.0043508015
000320 a9 db 64 3c 39 78 4d 3c 4a 43 3f bc c9 e1 aa bc
       0.013968387 0.01254087 -0.011673758 -0.020859616
000330 ea ac 59 3b 55 9d 9f bc 2a 07 05 bd f4 74 4e 3b
       0.0033214637 -0.019484201 -0.032477535 0.0031502815
000340 55 8a 94 3c af e3 7e 3c a3 54 19 bc 73 8f 57 bb
       0.018132368 0.015557214 -0.009358558 -0.00328919
000350 34 92 db 3c 79 9b cd bc 0d 61 f0 bc f9 00 3d 3b
       0.026803114 -0.02509855 -0.029343152 0.002883969
000360 6c 73 c9 bc 56 45 fd 3c 23 94 02 bc e0 af 81 bc
       -0.02459117 0.030916851 -0.007969889 -0.015830934
000370 02 ed b3 b9 12 a9 12 3d 69 52 cd 3c 97 21 0b bb
       -0.00034318125 0.03580577 0.02506371 -0.0021229738
000380 18 4c 46 3a b2 9e 8d 3c 5f 15 14 3c 22 e6 a9 bc
       0.00075644394 0.017287586 0.009038298 -0.020739619
000390 70 55 63 3c 93 72 89 3c 18 14 ef 3c 6d 1b bf bb
       0.01387535 0.016778266 0.029184386 -0.005832127
0003a0 1a b1 a3 b9 88 11 a9 bb 46 bb 47 3c 49 57 a1 3b
       -0.00031221734 -0.0051595606 0.012190646 0.0049237353
0003b0 01 c6 5c 3c c2 a9 1d 3c ee cf 95 3c ea 51 89 bb
       0.013474942 0.009622993 0.018287625 -0.004190673
0003c0 48 03 c7 bc 53 70 f4 bb 7c de 09 3c 2d 4a 9d 3c
       -0.024293557 -0.007459679 0.008414861 0.019200409
0003d0 3c 7d 8e 3c 35 a2 2b 3c 63 fa 38 3b d1 41 04 bc
       0.0173937 0.010475685 0.0028225414 -0.0080723325
0003e0 00 db bb 3b f6 99 90 bc 06 c3 1e 3d da 66 48 3b
       0.005732894 -0.01765154 0.038760208 0.0030578882
0003f0 ae 9f ce 3c d9 b7 60 bc 85 10 ce ba 6d 66 50 3b
       0.025222626 -0.013715708 -0.0015721476 0.0031799332

position_embedding.weight f4 [30, 64]
000000 b6 82 14 3d a3 05 06 bd b2 46 2a 3d a5 97 fa 3c
       0.03625747 -0.03272022 0.041571327 0.030589888
000010 59 e9 25 bc fa ef 16 bc 74 33 1d bc 4a 0b 53 bc
       -0.010126435 -0.009212488 -0.009594787 -0.0128811095
000020 b9 e0 3d bd 42 3f 36 bd 48 21 12 bb 87 03 61 3c
       -0.04635689 -0.04449392 -0.002229767 0.013733751
000030 46 2c 1e 3d 3b 3c 61 3c f5 01 7d 3d cf f6 0c bc
       0.03861644 0.01374727 0.061769444 -0.008603766
000040 16 7a 43 bc e3 7d 7a bc 1f 8b 0a 3d 78 e8 81 3b
       -0.011930963 -0.015288803 0.033824082 0.00396448
000050 ed 1c 94 bc ae 5a 8a bb 3c ff 8a 3c 8b ac 11 bc
       -0.0180802 -0.0042222356 0.016967408 -0.008891235
000060 e2 77 5a bc fb b5 0c bd 6d ff 1c 3c c2 97 ec 3c
       -0.013334246 -0.034353238 0.009582383 0.028880958
000070 33 5f b9 3c f2 c7 95 3c db e1 a4 bc 75 c8 20 3c
       0.022628402 0.018283818 -0.020127228 0.009813418
000080 b8 f7 2c 3d 25 68 14 3d 2d c0 e4 3c de 64 df 3c
       0.04222843 0.036232132 0.027923668 0.027269777
000090 0d ef 70 3c c1 8e e0 3c 02 f1 21 3d a9 78 9c 3c
       0.014705432 0.02741182 0.039536484 0.019100504
0000a0 c7 44 34 bd e6 c4 e4 bc 5a e1 be 3b d3 28 c3 bc
       -0.044010904 -0.02792592 0.005825204 -0.023823177
0000b0 0b 0f 8d 39 07 dd 92 39 a1 7f f7 bc 33 9f aa bb
       0.00026904824 0.00028011968 -0.030212225 -0.0052069663
0000c0 8a 37 b0 3b 8e 6c 7a bb 0d 08 dc 3c b5 04 0a bd
       0.0053777145 -0.0038211676 0.026859308 -0.033695895
0000d0 7d 99 ea bc 50 89 5e bd 2d e9 87 3b 18 e0 e5 3c
       -0.028637642 -0.05433017 0.0041476698 0.028060958
0000e0 c7 c6 20 bd f2 9e 1a 3d 36 bd e5 3c 5b bb 13 bd
       -0.03925207 0.03774924 0.028044324 -0.036067348
0000f0 06 5a 0a bd 0e b4 3e bb 1a 16 fc bc 7b 14 4b bc
       -0.03377726 -0.002909902 -0.030772258 -0.01239502
000100 f5 80 dd bc 64 3a bb 3c ee f9 54 bd 13 6a ef 3c
       -0.02703903 0.022854991 -0.051996164 0.029225385
000110 69 10 2b bd 26 1d ce 3c 0c 03 5c bc d0 00 80 3c
       -0.041763697 0.025160383 -0.013428461 0.015625387
000120 76 a4 00 3d a5 17 c8 3c b7 db 8a 3b d8 e0 59 bc
       0.031406842 0.024425337 0.004237618 -0.013298236
000130 bf 97 2f 3d 65 a5 a1 bc 58 1b 3c 3b 72 97 ba 3c
       0.042869326 -0.019732187 0.0028702822 0.022777293
000140 14 0b 2c 3c 65 db ea 3b 95 27 fc 3b e1 c3 ae bc
       0.010500688 0.007167267 0.0076951482 -0.021333637
000150 8c 82 b3 3b ef c0 31 bd d5 c5 6d bc 4f 58 11 3d
       0.005478209 -0.043396886 -0.014512499 0.03548461
000160 bc d2 18 bc 11 b4 04 3c 6e 8b 53 bb 29 8c ef bc
       -0.009327587 0.008099572 -0.0032279151 -0.029241638
000170 db 5c 3d bc 07 6b 98 bc aa ac 2c 3b f8 a5 f9 3c
       -0.011557783 -0.018605722 0.0026348033 0.030474648
000180 24 87 54 bb 44 3a 33 bd f0 29 85 3c f8 21 18 bc
       -0.0032429183 -0.04375674 0.016255349 -0.0092854425
000190 7f e4 8a 3c ab 55 72 bc 72 49 f9 3c dc 94 eb 3b
       0.016954659 -0.014790933 0.03043053 0.0071893763
0001a0 be f4 c4 bc e2 33 e9 bb 4d a3 cc 3c 54 3a 2f 3b
       -0.024042483 -0.0071167806 0.024980212 0.0026737647
0001b0 9e bb 87 bc 5b cd 87 ba dd 7e 3c 3d 28 83 67 bb
       -0.016568955 -0.0010360883 0.046019424 -0.0035325978
0001c0 32 17 a6 bb ea fe cd 3c f6 fe 15 bd 3f b1 6a bc
       -0.005068683 0.025145967 -0.036620103 -0.014324485
0001d0 35 5b c5 b9 b7 58 54 3c 5e a8 73 3c d6 fb 8e bb
       -0.00037642723 0.012960604 0.014871685 -0.0043635173
0001e0 14 04 4d bc 6c f7 16 3d 95 a8 1f bd c3 c0 52 bc
       -0.012513179 0.036857054 -0.03897913 -0.012863341
0001f0 f1 81 f7 3b 45 8f 26 bd a3 61 84 bc d2 4b aa 3a
       0.007553332 -0.040663976 -0.016159838 0.0012992567
000200 d7 30 78 bc a7 a0 b7 3a da ba ae bc 87 93 32 3d
       -0.015148363 0.001400967 -0.021329332 0.043597724
000210 f9 0a af bc 8e 61 92 3c 1a 35 0d bd 8f 99 d8 bb
       -0.021367537 0.017868783 -0.03447447 -0.0066101025
000220 e0 9b 8c 3c b5 34 cc 3c 27 8f 87 bb 56 4c 15 bb
       0.01716417 0.024927476 -0.004136938 -0.0022781095
000230 23 5f a8 3c 7d bd 6e 3c d8 94 85 3c 32 5a db 3c
       0.020553177 0.014571545 0.016306326 0.026776407
000240 89 6d 20 3b 08 26 1b 3b 00 b5 8b 3c 07 90 f3 bc
       0.002447935 0.0023673791 0.017054081 -0.029731764
000250 74 86 17 3c b8 c3 17 ba 70 7c ac 3c 0a f0 0c 3d
       0.009248365 -0.0005789357 0.02105543 0.034408607
000260 98 68 19 3d 81 0d 0b bd f3 2a e2 bb 6e 23 5f bc
       0.037453264 -0.033948425 -0.0069020926 -0.013619287
000270 9f 2d 0a bd 2c 81 4e bd 39 92 8b bc f9 d6 16 3d
       -0.033734914 -0.050416157 -0.017037498 0.036826108
000280 9a e4 ba bc c7 a2 11 bd e1 0f a5 3c 13 8b cb 3c
       -0.022814084 -0.035555627 0.020149173 0.02484659
000290 72 6a 85 3c e3 93 2c bc 03 0d 28 bd 34 98 3d 3c
       0.016286109 -0.010533306 -0.041028034 0.011571933
0002a0 32 4a 11 bd 45 29 8f 3c 8b a3 cd 3c af 4e 57 3c
       -0.03547115 0.017475734 0.025102397 0.013141318
0002b0 4c c1 0f bd 2b 13 f1 bc 68 c2 bc 3c 71 08 85 bb
       -0.03509645 -0.029428085 0.023041919 -0.004059844
0002c0 22 3f f1 3b 3f b6 f1 3c 65 9b 24 bd 83 2f 19 bd
       0.0073622623 0.029505847 -0.04018726 -0.037398826
0002d0 88 2f ac bb fa 99 e0 3b 8f c7 be 3c e1 1c 20 bc
       -0.0052546896 0.006854293 0.023288516 -0.00977251
0002e0 87 78 8e bc a6 cb 6b 3c 2d 12 08 bd f6 bc 65 bc
       -0.017391456 0.014391815 -0.03322046 -0.014022103
0002f0 a2 fd dd bb c1 7a 16 bd f6 82 a4 3c 97 42 c2 bc
       -0.00677462 -0.03673816 0.020081978 -0.023713393
000300 cc a2 fa bc 67 3b 1f 3d a4 c7 3d bd 6a c6 58 bc
       -0.030595206 0.03887501 -0.04633297 -0.013230899
000310 d6 cf 39 3d 35 5a e2 bc ac a6 a2 3c eb e2 24 bb
       0.045364223 -0.027630905 0.019854866 -0.0025159668
000320 6b 55 fb bc 0b 2e 1c bd 57 b1 ff 3c cb b9 fa bc
       -0.030680379 -0.038129847 0.031212492 -0.030606171
000330 00 63 f4 3c d0 c5 3a 3b d4 ad de bb 81 56 09 bc
       0.029832363 0.0028499253 -0.0067956243 -0.008382441
000340 e6 59 4a 3d e8 ba 4a bc 57 2c 84 3d a8 a2 1a 3d
       0.04940214 -0.0123736635 0.0645377 0.037752777
000350 2e 33 fe bc 89 67 d2 3c 7c c0 3b 3d f1 97 09 bd
       -0.031030264 0.025684135 0.045837864 -0.03359217
000360 73 50 c7 bc 91 8e 05 3d 99 62 1b 3b 70 3f b7 bc
       -0.024330353 0.032606665 0.0023709892 -0.022369117
000370 b2 37 95 3c a6 e3 d2 3c f5 48 c0 3c d2 48 36 3d
       0.018215034 0.025743317 0.023472289 0.04450304
000380 71 ab 70 bc 12 c1 06 3d a7 9e ed bc f8 0d 18 bd
       -0.014689312 0.03289897 -0.029006315 -0.037122697
000390 2e 5b e4 3c 17 76 b7 ba 24 c7 2a 3d 48 5b 9b bc
       0.02787551 -0.0013996986 0.04169382 -0.018964425
0003a0 9a 71 31 3d 66 86 44 3d 04 5a 36 3d 94 95 fb bc
       0.04332123 0.047979735 0.04451944 -0.030710973
0003b0 a1 6d 24 3d 81 98 65 3c 55 3d 5e bd 04 cd b8 bc
       0.040143613 0.014013411 -0.05425771 -0.022558697
0003c0 e5 1d 52 bc 1c 6c 10 bd 90 ca 25 3c cd 1d a9 3c
       -0.01282451 -0.03525935 0.010119095 0.020644093
0003d0 f6 c4 0f 3d 28 40 d2 bc 47 5b 4e bd b1 fd c1 bc
       0.035099946 -0.025665358 -0.050380018 -0.02368054
0003e0 56 31 22 bd 2b e6 d3 bc 54 60 89 3b 1a f3 c5 3c
       -0.03959783 -0.025866589 0.0041923914 0.024163771
0003f0 d9 2d de 3c ea 15 42 3d 79 02 e0 bb 81 b8 e9 3c
       0.027121471 0.04738418 -0.0068362323 0.028530361

transformer.layers.0.self_attn.in_proj_weight f4 [192, 64]
000000 2e 99 ab bd 83 18 15 3e 98 5f c2 3d ba c0 bd bd
       -0.08378826 0.14560132 0.09490889 -0.09265275
000010 66 f4 ae bd 80 fd 17 bd 88 83 ae bd d4 67 ce 3b
       -0.08542709 -0.03710699 -0.08521181 0.0062989984
000020 ec 5d f7 bc 1b 10 0e be c0 6f 77 3d 67 44 a1 bd
       -0.030196153 -0.13873331 0.060409307 -0.07874375
000030 de 0d 9c bd 9b a3 9e ba 67 93 86 3d e2 62 e2 bd
       -0.076198325 -0.0012103202 0.065710835 -0.11054017
000040 42 08 f7 bd 4f 17 db bd e2 e5 da 3d b9 7e cd bb
       -0.12062122 -0.10697805 0.10688378 -0.00627121
000050 67 40 10 be 20 31 29 3d 3a ed 0c 3e 0b 82 ec 3d
       -0.14087068 0.041306615 0.1376237 0.11548241
000060 03 38 c7 bc b9 62 e5 3d 9b 7f bf bd 3b 68 11 bd
       -0.0243187 0.112004705 -0.09350511 -0.035499793
000070 04 8e 8c 3d 85 66 ac 3d f0 6f 55 3d ef 0f 11 3d
       0.06863025 0.084179915 0.052108705 0.035415586
000080 ae 9f 02 be 3d e6 91 bd f7 29 59 bd df af 7d 3d
       -0.12756225 -0.071239926 -0.053018536 0.061935302
000090 b3 2c de 3d 63 8d 05 3e bb 3d ce bd 51 c5 36 3b
       0.108483694 0.13042216 -0.10070368 0.0027888606
0000a0 67 1a fb bd e9 2d 0b 3e 82 a8 c5 3d 57 9f 28 bb
       -0.12260895 0.13591732 0.09651281 -0.002572974
0000b0 20 4b ea bc 09 2b 4a bd 7a 05 f9 bd 46 b1 b2 bd
       -0.028600276 -0.049357448 -0.12159248 -0.087252185
0000c0 b6 c4 45 bd 1a 05 9f bd cd e3 98 3c eb cf ac bc
       -0.0482833 -0.07764645 0.018663311 -0.021095237
0000d0 38 38 59 bc 5f 30 b8 3c 1c 72 a9 ba bb 34 d9 bc
       -0.0132580325 0.022484003 -0.0012927684 -0.026514402
0000e0 68 e8 09 3e 46 b0 ab bd f7 2c 8b bd 4a 69 43 bc
       0.13467562 -0.08383231 -0.06795686 -0.011926958
0000f0 3e dc ad 3d 5b 10 b4 bd 87 52 a7 3d b4 0d 01 be
       0.084892735 -0.08792182 0.08170038 -0.12602884
000100 04 a3 04 be 13 a8 04 be 54 ea ba 3b f0 9e 42 3d
       -0.1295281 -0.1295474 0.0057042036 0.047514856
000110 c4 cd db 3d e8 9c c9 3d c5 08 02 be e9 ba 39 bd
       0.10732606 0.098443806 -0.12698658 -0.045344267
000120 86 99 e0 3d d8 81 f5 3d 32 2e 06 be 92 47 70 bd
       0.10966782 0.11987656 -0.1310356 -0.058662005
000130 ee 99 a1 bd 47 92 0f be 60 12 8d bd 9f f6 9e bc
       -0.07890688 -0.14020644 -0.068882704 -0.019404707
000140 eb e0 1b be 72 28 b8 bd 9b f4 86 3d 6a 95 3a be
       -0.15222518 -0.08992089 0.065896235 -0.1822106
000150 ae 05 a8 3d c2 d6 59 bc 26 82 4b bd 23 24 bf 3c
       0.08204208 -0.013295831 -0.049684666 0.023332661
000160 bd 6d 78 bd 64 da 1e 3d 79 36 b5 bc e9 51 ca bd
       -0.06065153 0.038782492 -0.022120701 -0.09878904
000170 87 5e bd 3d 86 22 18 bd b0 5e b9 bd a4 25 e8 bd
       0.09246545 -0.0371423 -0.09051263 -0.113353044
000180 7b c4 76 bd 1d 12 d6 3c e7 82 ec 3c 5d bd 8c bd
       -0.060245972 0.026131684 0.028871013 -0.06872056
000190 c4 11 24 3e 3f 82 1f be fa 34 c0 3d 58 d1 d3 bd
       0.16022402 -0.15577029 0.093851045 -0.103426635
0001a0 61 9c 9f bd 73 a3 c6 3d a7 ab 1c 3e a8 02 d5 bd
       -0.07793499 0.09699144 0.15299855 -0.10400897
0001b0 d3 65 ed bd a3 25 0a be e2 61 a8 bd a5 52 0e be
       -0.11591687 -0.1349092 -0.08221795 -0.13898714
0001c0 e8 0a b2 bd 4c 17 21 3e f7 4e d1 3d 18 fa 87 3d
       -0.086934865 0.15731543 0.102201395 0.066394985
0001d0 c0 f6 ec bd 0a 4e 89 3d 3e e3 ca 3d 61 55 fd bd
       -0.11570501 0.06704338 0.09906624 -0.123698
0001e0 61 35 ab bd 88 36 14 bd 0e 2c 33 bd f3 13 fc 3d
       -0.083597906 -0.036184818 -0.043743186 0.123084925
0001f0 01 c2 d9 bd a9 3c aa bd 81 8e 03 3e 79 5e 1d be
       -0.106327064 -0.08312351 0.1284733 -0.1536807
000200 20 a5 04 3d bf ed 17 be 6f d5 e7 bb 87 bd a1 3d
       0.032384038 -0.14836787 -0.007075004 0.078974776
000210 fa 5f 0b be aa f1 9a bb b1 85 de bd 4f 2e fc bd
       -0.13610831 -0.0047285156 -0.10865343 -0.1231352
000220 67 ee f7 bd 16 b4 c8 bc c6 f4 08 be 7f 37 14 bb
       -0.121060185 -0.024499934 -0.13374624 -0.0022616086
000230 09 e6 f2 3d 79 06 6f 3d b2 f5 ae bd 59 ac e6 bd
       0.11860282 0.058355782 -0.085429564 -0.112633415
000240 0c 44 1a 3e 57 e0 24 bd f4 12 f2 3b c6 05 57 3d
       0.1506502 -0.04025301 0.0073875133 0.05249574
000250 04 9b 75 bd 15 3e 72 bd 40 7f 2c 3c 59 d0 a9 bc
       -0.059962288 -0.059141237 0.010528386 -0.02072923
000260 d9 05 a5 bd b8 64 af bd 2e 82 ed bd f4 f6 f8 3d
       -0.08057756 -0.085641325 -0.115970954 0.121564776
000270 41 4c ec 3c b0 36 1a 3d 8f 73 f4 3d cc e7 d3 bd
       0.028844954 0.03764981 0.119361036 -0.10346946
000280 ca 91 cd 3d c1 a1 14 bc 56 49 14 3d 85 a3 16 3e
       0.10037573 -0.009071768 0.03620275 0.14710815
000290 ab ee c0 bc ef 03 a0 bd 1b 99 fe bc 5c c7 f4 3c
       -0.023551306 -0.0781325 -0.031078866 0.029880218
0002a0 cb 1a 1c be 70 f6 e1 3d 0c 68 ff 3c ae 21 24 3e
       -0.15244596 0.11033332 0.031177543 0.16028473
0002b0 ab d7 a6 3d 75 17 03 be e0 bf cb bc 45 de e0 bc
       0.08146604 -0.12801917 -0.024871767 -0.027449736
0002c0 f8 64 1c bd 52 29 db 3d dc db f2 3d 1d 73 a0 3c
       -0.03818223 0.107012406 0.11858341 0.01958614
0002d0 35 87 78 ba 94 68 7b bd 01 4e b9 bd f7 80 be 3c
       -0.00094805966 -0.06137903 -0.09048081 0.023254855
0002e0 42 71 c6 bd 44 a1 69 3c b2 69 21 be 32 e0 7e bd
       -0.09689571 0.01425964 -0.15762976 -0.062225528
0002f0 7c f2 97 bd 21 35 a4 bd 80 31 fe 3d fe ee 31 be
       -0.07419297 -0.08017946 0.12411785 -0.17376325
000300 22 91 4e 3c e9 02 0b be 2c 0d 42 bd 28 cc b7 3d
       0.012607845 -0.13575329 -0.047375843 0.089744866
000310 25 1f 54 3d a5 c0 06 be 33 9b 97 3d a1 e3 c2 3d
       0.051787514 -0.13159426 0.07402649 0.09516073
000320 7f a9 94 3d 28 42 86 bc e8 a9 11 be 6a db b9 bd
       0.07258891 -0.016388968 -0.1422497 -0.09075053
000330 bb 38 8c 3c 14 c2 f4 3d 96 3e aa 3d c8 b4 bd bd
       0.017116895 0.1195108 0.083127186 -0.09262997
000340 e6 13 cf 3d 7d ff 91 bd 67 e2 ba bd bf 3e fa 3c
       0.10111217 -0.07128809 -0.09125214 0.030547498
000350 cc 5b 08 bd a0 84 b7 3d ab a1 08 3c 1e a5 22 be
       -0.03329067 0.08960843 0.008339326 -0.158833
000360 0d 61 83 bc 7c 09 90 3d 2d 97 e8 3d 46 88 9c bb
       -0.016037488 0.07033059 0.113569595 -0.0047769872
000370 93 c2 87 bd dc 96 35 bd fe 1b bb bd cc e0 1b 3d
       -0.06628909 -0.044333324 -0.091361985 0.03805618
000380 3d 8d c0 bd 38 70 20 3e 6b b5 e9 bc 7f fa 93 3d
       -0.09401939 0.15667808 -0.02852889 0.07225513
000390 0c 7e d4 3d 9c 75 c3 3d 94 61 72 bd f1 ff 9c bd
       0.10375604 0.095439166 -0.05917509 -0.076660044
0003a0 28 ae 58 3d 9f bc 33 3d 28 c0 45 bd 43 bc 0c 3e
       0.052900463 0.043881055 -0.048278958 0.13743691
0003b0 3e 5a 2d 3d 2e ab b1 bc bc 2d b3 bd 5f f2 0d bd
       0.04232239 -0.02168807 -0.087489575 -0.03465497
0003c0 96 f3 20 be 4f 8d 23 bd cf ba 36 3e 62 3d 3d 3d
       -0.1571792 -0.039929684 0.178447 0.046201117
0003d0 91 da d1 3b 6d a6 17 be 97 37 16 bd 64 07 a6 3d
       0.006404229 -0.1480958 -0.03667411 0.081068784
0003e0 20 a0 7c 3d 1e c8 9b bd 44 87 04 3e 30 2a 9f 3c
       0.061676145 -0.07606529 0.12942225 0.019429296
0003f0 68 66 92 bd e6 85 d2 bd 70 bf b9 bd d1 7f 5f bd
       -0.07148439 -0.10279445 -0.09069717 -0.054565255

transformer.layers.0.self_attn.in_proj_bias f4 [192]
000000 06 38 30 3b ba fb ec 3b fc e8 a6 bb e9 7a c6 bb
       0.0026888861 0.0072321566 -0.005093692 -0.0060571325
000010 7b 0f 60 3b f7 4e 29 3b 90 a9 70 bc 7d 0b bd 3b
       0.0034188915 0.002583442 -0.014688864 0.005769192
000020 58 92 e3 ba 31 4a 0b 3a 98 f7 34 bc d8 5d 2d bb
       -0.001736234 0.00053134846 -0.011045359 -0.002645364
000030 34 83 72 3b 7f 41 7c bb 81 f3 88 bb b8 86 a5 bb
       0.0037004473 -0.0038491187 -0.0041794186 -0.00505146
000040 0d 66 b6 ba 40 65 46 3b 25 8d dd 3a f7 b3 4e bc
       -0.0013915912 0.0030272752 0.0016903026 -0.012616149
000050 30 6d 04 bd 74 e6 22 3b fe 25 4b bc 25 0b 5e bb
       -0.03233069 0.00248566 -0.012399195 -0.0033881154
000060 2d 8c 62 bb 97 f4 87 bb 0d 4a f7 3a f0 04 bc 3a
       -0.0034568415 -0.0041490304 0.0018866673 0.0014344733
000070 15 91 c2 bb 44 8f 55 3c f7 b7 a1 bb 99 f6 bc 3a
       -0.0059377053 0.0130346455 -0.0049352604 0.0014416754
000080 a8 f3 4d 3d 20 17 d3 3b ac 4e 78 bc 96 ac 57 3d
       0.050281197 0.0064419657 -0.015155476 0.052654825
000090 8c f0 db bc 2a b0 47 bd b7 30 0b bd e3 b9 98 3c
       -0.0268481 -0.048751988 -0.033982005 0.018643325
0000a0 ea 2b 42 3c b6 24 e6 3c 4d 5f 53 bc 4c ca 6d bc
       0.01185129 0.028093677 -0.012901139 -0.014513563
0000b0 f1 d3 1d bd 72 73 04 3d a9 f7 43 bc fe 40 19 3c
       -0.0385322 0.03233666 -0.011960902 0.009353874
0000c0 61 90 05 3c 7a 59 d8 bc 98 38 48 bd 45 58 2d 3c
       0.008152098 -0.026409853 -0.048882097 0.010580127
0000d0 87 36 92 bb 0b 35 4f bb bd 25 8d 3c ca 7e 6b 3b
       -0.0044620666 -0.003161731 0.01722991 0.0035933726
0000e0 88 35 5d bc 5c 1d c4 3c c1 a7 bd 3c 61 40 fa bc
       -0.013501532 0.02393978 0.02315128 -0.030548276
0000f0 03 b7 6f bc d2 a8 03 3d 9f cd 8b 3c fc 24 9b 3c
       -0.014631036 0.03214342 0.017065821 0.018938534
000100 ad 32 a0 34 3b b7 c0 34 89 c2 c0 b4 b3 f6 a7 b4
       2.9839194e-07 3.5896105e-07 -3.590433e-07 -3.128567e-07
000110 86 c6 15 34 dd 18 91 34 85 44 04 b5 ca 95 c3 34
       1.3948929e-07 2.7026445e-07 -4.927354e-07 3.6430566e-07
000120 a3 a3 0d 34 7f 27 99 34 50 4d 23 b4 96 a3 48 b5
       1.3191179e-07 2.8527208e-07 -1.5208684e-07 -7.4743855e-07
000130 3c 61 00 34 3e 52 9d b4 a4 1a 30 b4 75 dd 19 b5
       1.1956303e-07 -2.9303368e-07 -1.6400969e-07 -5.7319204e-07
000140 7c e5 48 31 66 ee 8d 34 27 7d 61 33 4f d5 04 33
       2.9234277e-09 2.6436754e-07 5.250072e-08 3.0927648e-08
000150 84 e2 20 b4 09 14 6f 34 6b 35 2e b4 db 60 9d 34
       -1.4983567e-07 2.2265898e-07 -1.6224446e-07 2.9314e-07
000160 db 97 19 32 db 1d 20 b4 d4 f2 40 b3 8a 73 3c 34
       8.9403e-09 -1.4912023e-07 -4.4924334e-08 1.7550897e-07
000170 85 4b e8 b3 60 53 8d 33 46 12 69 b4 58 c3 12 b4
       -1.0817079e-07 6.58099e-08 -2.1706464e-07 -1.3668375e-07
000180 09 8d 50 b4 04 63 f9 34 90 52 06 b3 6b 84 aa b4
       -1.9422818e-07 4.6451908e-07 -3.1274396e-08 -3.1761314e-07
000190 7b 46 fc 34 27 bd 51 34 7b 95 2f 35 d3 4b 7f 34
       4.698994e-07 1.9533455e-07 6.5410103e-07 2.377631e-07
0001a0 af 14 c5 34 c1 28 7e 34 41 ef 56 b4 b6 70 12 b4
       3.670916e-07 2.367042e-07 -2.0017343e-07 -1.3638314e-07
0001b0 d4 eb 0e 35 aa 2b 73 b5 5a 0d b6 b4 fc 54 34 b4
       5.32423e-07 -9.0588094e-07 -3.3909856e-07 -1.6794723e-07
0001c0 dc ac 34 34 8d 2e e7 b3 8a 54 9b 35 c0 89 1f b3
       1.6826692e-07 -1.0765243e-07 1.1573004e-06 -3.7145355e-08
0001d0 e1 36 e0 34 06 6a 76 b2 0f 84 97 33 00 50 0e 35
       4.176318e-07 -1.43431915e-08 7.055507e-08 5.301554e-07
0001e0 e0 17 1f b3 c1 10 fb b4 51 4d 2b b4 49 a5 01 b4
       -3.7041787e-08 -4.6764583e-07 -1.5953744e-07 -1.2074192e-07
0001f0 c3 4b 1a b5 b5 89 8d b4 45 6f 96 33 cd d3 84 b4
       -5.747972e-07 -2.6363492e-07 7.005159e-08 -2.474102e-07
000200 c2 f3 15 3c 09 e3 c4 bb 52 78 30 bb 1d 54 5c bb
       0.009152355 -0.00600851 -0.0026927185 -0.0033619471
000210 5c 7b 06 bb 3a d2 0b ba c2 2d c3 ba 31 06 af 3a
       -0.0020520305 -0.00053337554 -0.0014890956 0.0013353286
000220 9c 10 95 3c ad 7a b9 3b 68 90 b0 ba fc a7 7d 3b
       0.018196397 0.005660376 -0.0013470771 0.0038704863
000230 a0 f9 1d bb 6f e1 d3 bb a1 28 80 3c 65 4a 86 3c
       -0.0024105087 -0.0064660828 0.015644373 0.016392896
000240 c7 d1 5b 3c df 7e 9a 3b b6 d5 9f bb 41 02 6f 3c
       0.013416714 0.0047148312 -0.0048777713 0.01458794
000250 1d ba 81 3c 4e 9a fe ba 51 40 7d 3b de 8e e5 3a
       0.015835816 -0.0019424648 0.0038643072 0.0017513891
000260 1e f0 40 bc d9 0c 2b ba b8 5b 12 3c b6 3d 1e bc
       -0.011775998 -0.0006525047 0.008933 -0.009658268
000270 47 b2 c7 bb 25 39 e0 3b d6 7e 5a 3a ac 3a 8d bc
       -0.0060942504 0.0068427497 0.000833494 -0.017239891
000280 44 fb 78 3a a3 64 d0 3b a2 11 ea 3a 1b 99 31 3a
       0.0009497891 0.006359653 0.0017858038 0.00067748287
000290 24 11 16 b8 c8 d4 1b 3c 07 84 32 bb d7 55 75 3c
       -3.577875e-05 0.00951118 -0.002723934 0.014974079
0002a0 2b 80 88 3c f1 da f6 bb 0e be c9 b7 0c 28 f1 ba
       0.016662678 -0.007533424 -2.4049568e-05 -0.0018398776
0002b0 a3 ad a4 3b d9 2b 78 3c db 3e e9 b8 b9 5f 54 3c
       0.005025582 0.015147173 -0.000111220135 0.012962275
0002c0 c2 9a 88 bb cf 93 b8 39 0c 97 aa 3c fb 5f 77 bc
       -0.004168839 0.0003520534 0.020823978 -0.015098567
0002d0 92 1a 5c 3b 85 5f 09 bb 03 c0 14 3a 4b c6 5a bc
       0.0033585173 -0.0020961475 0.0005674364 -0.013352941
0002e0 95 d9 59 38 3a 8e 69 3c 8b bc 7b bb 28 32 8d 3c
       5.193947e-05 0.014255101 -0.003841194 0.01723583
0002f0 f2 d2 b7 bb e9 99 c6 ba 18 d1 59 3b 2d f5 c3 3b
       -0.0056098634 -0.001515207 0.0033236202 0.005980155

transformer.layers.0.self_attn.out_proj.weight f4 [64, 64]
000000 22 7c 1d bd 54 00 59 ba ee 8b 1d bc 0b 73 3a bc
       -0.03844846 -0.0008277942 -0.009615881 -0.011379967
000010 5d 2e 2b 3c d2 05 22 3c be 5f 20 3b bb 6a f0 3c
       0.010448066 0.009889083 0.002447113 0.029347768
000020 b9 cc c6 3c 5f a5 b1 bc 86 55 c8 bb f7 d5 44 3c
       0.024267541 -0.0216853 -0.006113711 0.012013904
000030 5f dc 33 3c e4 8a 32 ba e1 0a 8d 3c 46 76 ea 3c
       0.0109778335 -0.00068108574 0.017217102 0.02862085
000040 55 ea 2a 3c ef 77 04 bd 3a e1 b5 bc 3a e9 60 3d
       0.010431846 -0.03234094 -0.022202123 0.054909922
000050 30 1c 3b 3c e3 fa bb ba 43 e2 8f bb eb 7f 4e 3d
       0.011420295 -0.0014341738 -0.004390986 0.05041496
000060 b2 cf 2a 3c 2f aa 4a bc 0f c9 a7 39 86 64 28 bd
       0.010425495 -0.0123696765 0.00032002522 -0.04111149
000070 5a 5d be 3b ac 0d d6 3c 1f 8a b6 bb 81 66 80 bc
       0.005809468 0.026129566 -0.0055706645 -0.015673878
000080 43 e8 a2 bc e3 64 47 bb 02 a9 13 bc b8 0d ec 3b
       -0.019886142 -0.0030425123 -0.009012463 0.007203784
000090 53 f8 0a 3c d4 c8 3c 3d f6 13 fd bc 76 96 14 bc
       0.008482057 0.046089962 -0.030893307 -0.009069076
0000a0 b0 10 39 3d 91 05 02 bd 7e 21 b5 bb 82 d5 81 3a
       0.04518193 -0.03174359 -0.005527674 0.0009905549
0000b0 bc e4 a3 3a 4b d1 a8 bb 9a 2a 46 3c d8 27 4b 3b
       0.0012504081 -0.005151903 0.012095118 0.003099909
0000c0 52 d7 5b 3c 1c fd 16 bc 40 81 fd 3c 17 d8 34 bd
       0.013418036 -0.009215619 0.03094542 -0.04415139
0000d0 50 5e d4 bc fc 25 b5 3b 95 93 df 3b 06 67 2e bc
       -0.025923878 0.0055282097 0.006823013 -0.01064468
0000e0 14 81 b9 3c 30 ca 8a bb 60 c1 3f bc b2 c9 38 bb
       0.022644557 -0.0042355284 -0.011703819 -0.0028196392
0000f0 e5 77 c4 bb f0 24 81 3c 52 e3 33 3d 6a 49 88 bc
       -0.005995738 0.015764683 0.04391796 -0.016636569
000100 37 e2 25 bd a7 ad e4 3c 59 0e cb bb 5c 3f c9 3b
       -0.04049894 0.027914835 -0.0061967787 0.006141586
000110 ec 87 8d 3c 95 86 13 bd 69 9a 8b 3c 57 a8 f4 bc
       0.017276727 -0.03601702 0.017041402 -0.029865427
000120 77 71 66 bc 76 aa 09 bd 6d 49 c6 bc 9d df da 3c
       -0.014065138 -0.03360983 -0.024204934 0.026717955
000130 66 76 34 3c 9b 33 61 bb d7 7a 67 bc 88 2b f6 3b
       0.0110145565 -0.0034363035 -0.014128408 0.0075125135
000140 74 7a fb bc 79 27 b2 3c 9f fe c4 3c ac ed 11 3b
       -0.030698039 0.021747338 0.024047194 0.0022266908
000150 4f 6a 71 bc 74 82 c9 3c b1 19 a4 bc fe 80 4c 3b
       -0.014734819 0.024598338 -0.020031782 0.0031204815
000160 29 64 f8 3b eb e4 03 3c 9b d2 3d bd b9 04 14 bd
       0.0075802994 0.008050184 -0.046343427 -0.036137316
000170 55 5f 99 3c f1 40 b1 3c e6 51 ab ba 5f f2 95 bb
       0.018722216 0.021637412 -0.0013070672 -0.004576012
000180 e5 38 07 3c 6e 3c 65 bb 60 e7 35 3b 65 cd 19 3d
       0.008253311 -0.0034978646 0.0027756318 0.037549395
000190 7c 2e 28 bd b7 c1 c9 bc 43 ec ca 3a a6 d7 28 3d
       -0.041059956 -0.024628503 0.0015481788 0.041221283
0001a0 fc e3 b4 bc d2 26 80 b9 a6 34 12 3c 20 d0 4e bb
       -0.022081368 -0.00024442986 0.008923685 -0.0031557158
0001b0 cd 46 64 bb 8e 81 f9 bc 7a 7b bb bb 16 80 c7 3c
       -0.003483224 -0.030457284 -0.0057215067 0.024353068
0001c0 e1 54 fe bc c1 78 94 3b 48 d2 15 bb 9d 27 27 3c
       -0.031046333 0.0045309965 -0.0022860933 0.010202316
0001d0 cf b2 2f bc ae 8a 11 bb 8e 76 0b bd b8 fc e8 bb
       -0.010723784 -0.0022207904 -0.03404861 -0.0071102045
0001e0 27 81 a0 3c 56 59 06 bc f8 9e 4a bc 2b c7 12 bb
       0.019592835 -0.00820001 -0.012367003 -0.0022396545
0001f0 05 19 0e bc 8d 90 b3 3b 5b f4 3d bc 84 ce 00 bd
       -0.008672957 0.0054798783 -0.011593903 -0.03144695
000200 f6 0c e1 3c 11 f4 31 3c 6a b4 7a 3c 49 b8 ca 3c
       0.027472 0.010861413 0.015301803 0.024746077
000210 34 83 42 bb 5c ba 38 ba 24 ff b2 3c 0a 62 17 3c
       -0.0029680254 -0.00070468127 0.021850176 0.009239683
000220 e1 12 0e bd 01 48 bd 3c 35 0f 07 bc c4 1d 09 3d
       -0.034685973 0.023105623 -0.008243372 0.033475652
000230 0c 54 28 3d 1e 1b 0f bd 6b 12 08 3d 96 b6 a9 bb
       0.04109578 -0.03493797 0.03322069 -0.0051792366
000240 49 5f 72 bc 2d 14 34 bc 8b 33 69 bb 0a a2 c8 3c
       -0.014793226 -0.010991138 -0.00355837 0.024491329
000250 80 8f e9 ba 90 02 f8 3b 37 da bc bb 0b 70 5b 3b
       -0.0017819256 0.007568665 -0.005763318 0.003348353
000260 ff f1 de bb 30 b0 e9 3c b5 d8 24 3d 3d 0f ad bc
       -0.0068037505 0.028526396 0.04024573 -0.02112543
000270 aa d8 8c 3c be 3f 6a 3c c6 a2 0b 3d 2d 65 26 bd
       0.017193157 0.014297424 0.03409078 -0.040623832
000280 d9 3e d5 bc d6 cc ff 3b c3 99 4e bc fa 27 31 bc
       -0.026030945 0.007806401 -0.012609902 -0.010812754
000290 98 90 8d bb a3 1a bb 3a a2 ef 03 3a 91 30 1d bc
       -0.0043202154 0.0014274906 0.00050329615 -0.009594099
0002a0 46 e7 8f 3c 2b 87 f8 bc b8 41 15 3c 4c ee 12 bc
       0.017566334 -0.03033789 0.009109907 -0.008967947
0002b0 18 2b 27 3b 97 65 eb 3c e6 9b 6b ba cc 05 3a 3c
       0.0025507864 0.028734965 -0.0008987769 0.011353921
0002c0 a1 3a af 3a a1 74 08 bc 23 40 8a bc 3d 70 06 3b
       0.0013368913 -0.008328588 -0.016876286 0.0020513677
0002d0 57 87 1b bb 88 64 bb 3c 06 10 42 3d f0 92 29 bc
       -0.0023731792 0.022875085 0.047378562 -0.010349974
0002e0 54 06 06 3d ad af 8b 3c 83 48 18 3d 0d ae 08 3d
       0.03272088 0.017051542 0.037178528 0.033369113
0002f0 9d c6 c9 bc e5 0c bb bc b9 ca 38 bc 34 8b 4f bc
       -0.024630839 -0.022833297 -0.011278802 -0.012667466
000300 b6 c3 95 3c 44 9f ac 3b 0d c7 8b 3c f6 5f 99 bc
       0.018281799 0.0052680094 0.017062688 -0.018722516
000310 0b 1d 23 bd 6a d1 da 3b 25 87 1a bb e0 7c e5 3c
       -0.03982262 0.006677796 -0.0023579088 0.028013647
000320 ac 72 a3 3c b8 b2 13 3b 6d 7d 01 3c 42 76 bd ba
       0.01995214 0.0022536945 0.007903439 -0.0014454799
000330 aa be b6 3b e2 a6 17 bc 84 e6 92 3b b7 67 cf bc
       0.005576928 -0.009256097 0.004483046 -0.02531801
000340 5f a6 5f bd 4e 80 71 3a cd dc 4e 3c 96 be 16 bd
       -0.054602023 0.00092125393 0.012625885 -0.03680285
000350 7f 9e 8b 3c c6 b4 06 bd 9d f2 22 bc 5c a7 e1 bb
       0.01704335 -0.032887243 -0.009945539 -0.006886406
000360 21 a6 41 3c a0 d8 c8 3c aa e1 79 bd 28 7a b0 3c
       0.011819393 0.024517357 -0.061006226 0.021542624
000370 2c 3b ec 3c dc 40 5a bc 5a d8 15 bd e5 f9 a7 3c
       0.02883681 -0.013321128 -0.036583282 0.020504901
000380 cc af a8 3b 25 6c ad bc 1b 61 32 bd 56 0e 09 3b
       0.0051479097 -0.021169731 -0.04354964 0.0020913086
000390 89 ef df bb 7a 8f 53 bd a0 1a ba bb aa bb d8 3b
       -0.0068339747 -0.0516505 -0.0056794435 0.006614168
0003a0 5c f4 b0 bc 4b c6 6e 3c 77 d8 7a bc 96 88 5e bd
       -0.021600895 0.014573644 -0.015310398 -0.054329477
0003b0 6f 6f 43 3c 2a e4 e8 ba 6a 72 3a 3c ad 0a ac bc
       0.011928423 -0.0017768194 0.0113798175 -0.021001184
0003c0 0d f6 fd 3b dd 47 67 3b b4 b9 c1 bc 85 63 1d bb
       0.007750279 0.0035290637 -0.02364812 -0.0024015617
0003d0 c4 c3 13 bd 3d 6e bf bc ee 28 86 bc e3 5d 57 bb
       -0.03607537 -0.023367995 -0.016376939 -0.0032862357
0003e0 b1 f3 67 bc ee 4a 69 bc 2c 88 9d 3c 1d 25 11 bd
       -0.014157222 -0.014239056 0.01922997 -0.035435785
0003f0 b7 b3 1d bc 8a d8 11 3d 37 5d bd 3c 5b bb 7f 3d
       -0.009625367 0.0356069 0.023115737 0.062434535

transformer.layers.0.self_attn.out_proj.bias f4 [64]
000000 0d 30 ef bb 56 9e 99 3b 39 94 b2 bb 9c 3b de 3b
       -0.0072994293 0.0046880646 -0.0054497984 0.0067820083
000010 61 38 07 bc 7b 5d 89 3b 78 bb 06 bb 7d 09 de 3b
       -0.008253188 0.004192052 -0.0020558517 0.0067760334
000020 60 1f 8e 3b 93 ce 13 3c 8a ac 97 b9 fb b6 3c bb
       0.0043372363 0.009021419 -0.00028929516 -0.0028795588
000030 58 17 c8 3a a0 62 4d 3b f4 45 76 bb 4d 1c 18 3b
       0.0015265746 0.0031339303 -0.0037578316 0.0023210228
000040 03 3c d3 3b 18 ea a2 3b a2 f0 c7 3b ec 44 b0 bb
       0.006446363 0.004971754 0.0061016837 -0.00537931
000050 94 90 4c 3b 75 0d 58 bb 42 9e 5b 3a 44 48 02 3c
       0.0031214105 -0.0032967005 0.0008377769 0.0079518
000060 0c 5f 03 bb f8 05 a0 3b 94 f0 c7 bb 38 82 6f bb
       -0.0020045666 0.004883524 -0.006101677 -0.0036546122
000070 a8 5e 05 bc f6 81 a9 bb d7 aa d1 bb d7 45 fd 38
       -0.008140244 -0.0051729633 -0.0063985395 0.00012076989
000080 56 45 0d bc a1 a0 fe 3a 06 23 41 3b 6b 86 57 bb
       -0.008622488 0.0019426533 0.0029470338 -0.0032886516
000090 84 d2 e5 3b 48 e2 75 3b 87 0c 54 ba d6 72 d0 3b
       0.007013621 0.0037518907 -0.0008089025 0.0063613458
0000a0 e0 20 b5 bb 10 6d fb bb a7 93 84 bb ef f1 e6 3b
       -0.0055276006 -0.0076729134 -0.004045922 0.0070478837
0000b0 d1 60 9d bb cf a1 af bb bf 65 0c 3c ba 9b f2 bb
       -0.004802801 -0.0053598653 0.00856918 -0.007403818
0000c0 33 ea 83 bb fc 92 23 3a 53 27 c0 bb ec 12 7d ba
       -0.0040257215 0.0006239859 -0.005864063 -0.00096540037
0000d0 38 9b 0f 3c e5 40 6d 3b 00 af ed 3b 50 bc e0 bb
       0.008765034 0.003620201 0.0072535276 -0.006858386
0000e0 28 fe a9 bb bd 3d e0 3b f3 7e 44 bc d4 38 94 bb
       -0.0051877685 0.0068432973 -0.011993158 -0.004523376
0000f0 85 74 1c 3b bd e8 97 bb 73 ab 1f 3c 6f 43 17 bc
       0.0023873162 -0.004635899 0.0097454665 -0.009232386

transformer.layers.0.linear1.weight f4 [128, 64]
000000 c3 6d e0 bc 5e cd 67 3c 73 9f aa bc 9b 4f 49 bd
       -0.027396088 0.014148084 -0.020827984 -0.049148183
000010 ac be 0c bd 23 c0 5c 3d d2 d0 6e 3a 5e 81 af 3c
       -0.034361526 0.053894173 0.0009110096 0.021423992
000020 98 f7 d1 bb cc d4 73 bd db 06 55 bc 31 15 ff bc
       -0.0064076893 -0.05952911 -0.013002123 -0.031138035
000030 4f 33 6f bc 5c 8f 28 3d e5 89 0b bd 11 a8 92 bc
       -0.014599635 0.041152343 -0.034067053 -0.017902406
000040 a9 61 85 3d ff ba 49 3c 0f 81 53 3d c1 ea 88 3c
       0.06512768 0.01231265 0.05163675 0.016713502
000050 ca e3 19 bc 0f 91 e4 ba 2b f8 95 3c 09 31 84 3c
       -0.009392688 -0.001743825 0.018306812 0.016136663
000060 59 4a a1 bb 02 1f 7a 3b 19 c9 81 bc 04 16 da 3c
       -0.004922193 0.0038165455 -0.015842961 0.026621826
000070 34 bb 92 bc 7f 5f 6d 3b 1a ca 07 bd 27 b1 04 bb
       -0.017911531 0.003622025 -0.033151723 -0.0020247193
000080 90 49 4c 3c 75 66 d2 3c a3 7c fc bc 65 54 76 3b
       0.012468711 0.025683621 -0.03082115 0.0037586924
000090 71 b8 96 3b 8c 90 45 3c b2 9b ed 3c 37 8d 20 3d
       0.004599624 0.012058388 0.029004905 0.039197173
0000a0 d2 e7 01 bd fa 43 27 bd 08 7e f0 bc eb 05 04 bd
       -0.03171522 -0.040836312 -0.029356971 -0.032232206
0000b0 99 4d f9 bb ac 05 b6 bc c2 03 fe bb 60 17 a8 bc
       -0.0076081273 -0.022219501 -0.007751913 -0.020518959
0000c0 3e ab 6c bb 27 ef b4 bb 0a ac ed bc cd 5b 09 3d
       -0.003611281 -0.0055216732 -0.029012699 0.033534814
0000d0 40 e7 3b 3c a1 2f 88 3c fa b0 ba bc c8 33 02 bd
       0.0114687085 0.016624274 -0.022789467 -0.031787664
0000e0 c7 12 8b bd 00 e7 b3 bc d9 6d 86 3c d0 3f 78 bc
       -0.06790691 -0.021960735 0.016409801 -0.015151933
0000f0 cd 20 9f 3c 86 c6 56 3d 08 a0 16 3d 06 e0 42 bd
       0.01942482 0.05243542 0.03677371 -0.047576927
000100 78 08 c2 bc 46 90 60 bc a6 dd ab bc 05 20 81 bc
       -0.023685679 -0.0137062725 -0.020979714 -0.015762338
000110 dd 3d 40 bd 32 54 16 3d 88 40 ae bc f1 77 b1 3a
       -0.046933997 0.03670139 -0.021271005 0.0013539774
000120 ea 4a e2 3c b0 80 04 bd 8a 45 06 3d 3a 26 a0 bc
       0.027623612 -0.03234929 0.03278116 -0.019549478
000130 aa 93 a2 bc 24 18 40 3d 60 19 20 3d 59 20 41 3c
       -0.019845802 0.046898022 0.0390867 0.011787497
000140 44 14 0e 3d c3 19 29 bc eb 46 a0 3b 70 46 86 bc
       0.034687296 -0.0103210835 0.0048912666 -0.01639101
000150 23 60 46 3c 54 2b 2b bd 67 0f 0c 3c e0 70 a1 bc
       0.012107882 -0.041789368 0.008548594 -0.019707143
000160 1f 39 11 3d 7b 7d ae bc 0e cb 0c bd 0a 13 26 bd
       0.035454866 -0.021300068 -0.034373336 -0.0405455
000170 e3 8c f4 bc e5 8d 35 3c f2 13 cc bc 9a 4d f0 3b
       -0.029852336 0.011081194 -0.024911854 0.0073334696
000180 9a d5 10 bd 13 58 9d 3b 63 18 dd bc 25 57 88 bc
       -0.035359956 0.004801759 -0.026989168 -0.016643116
000190 1b cd 06 bb 6b 0f 0b 3d cb 7c f4 3a 1b 3f d2 3b
       -0.002056903 0.03395025 0.0018652914 0.006416214
0001a0 00 75 c9 bc 37 60 d8 bc 14 bf c6 3b a1 0e 04 3c
       -0.024591923 -0.026413066 0.0060652588 0.008060128
0001b0 d4 ab 1e bd 76 5a 4e bd 8c 5d ed 3c df 55 c3 3a
       -0.038738087 -0.05037924 0.02897527 0.0014902911
0001c0 be a6 4a 3c ed 89 c7 3c 3a 1c 50 bd ed 2d 90 bc
       0.012368856 0.02435776 -0.05080817 -0.017600024
0001d0 4c b7 d0 3c 31 94 8b 3b 59 74 00 3c c8 81 f0 bc
       0.025478028 0.004259609 0.007840239 -0.02935876
0001e0 1c 75 b8 bc 57 ef 02 3d dd 44 04 bb 54 d5 00 bd
       -0.02251678 0.031966534 -0.0020182647 -0.031453446
0001f0 0f a9 00 3d a9 27 8a bc ba e1 ec 3c da c9 80 bd
       0.031411227 -0.016864615 0.028916229 -0.062885
000200 52 b2 2f bd 01 0e 1d bc 23 b4 bd bc eb 42 5e 3b
       -0.04289467 -0.009585858 -0.023157185 0.0033914398
000210 10 1a 7c bc 58 44 12 3d 34 23 f0 bc ca 2c 8d 3c
       -0.015387073 0.03570971 -0.029313661 0.017233271
000220 9f 0d 2e 3d c6 12 31 3d 64 6f fa bc 55 25 c6 bc
       0.04249346 0.043230794 -0.030570693 -0.024187723
000230 50 f3 0a bd 7e 32 01 3d 4f 4f ee 3c ac 4e e6 3c
       -0.033923447 0.031542294 0.029090552 0.028113686
000240 d9 f6 27 3c d3 b2 e4 3c 60 e3 52 bb a2 37 1e bd
       0.010251724 0.027917301 -0.0032178983 -0.038627274
000250 b1 8d 01 3d 83 c1 8b 3c b2 31 57 3c a0 28 34 3d
       0.031629268 0.017060047 0.013134407 0.043984056
000260 43 99 67 3d 51 e0 6a bc f9 2e dd 3c c5 7b c1 3c
       0.056542646 -0.014335708 0.026999937 0.023618588
000270 ed 6a 0c bc b1 fc b1 3c 2d 9c 22 3d b8 c8 a6 3c
       -0.008570415 0.021726938 0.039699722 0.020359382
000280 54 68 49 bc 58 ed e6 bc 22 32 00 3d 0a 3a 5f 3c
       -0.01229294 -0.028189346 0.03129781 0.013624677
000290 11 e8 42 3d 6b f4 2e bc ff 88 cb bc ea 72 68 bc
       0.047584597 -0.010678391 -0.024845598 -0.014187554
0002a0 ef bf 10 bd a4 be 8e 3c 0c c3 63 3d fa e1 99 bb
       -0.035339292 0.017424889 0.055605933 -0.004696128
0002b0 dd 18 63 3c 52 37 a0 3b 26 d9 13 3d 53 cc 9b bc
       0.013860908 0.004889407 0.03609576 -0.019018328
0002c0 c4 56 ca 3b c2 50 54 3d 22 8f 41 bc 56 a8 4b bc
       0.006174894 0.05183483 -0.011813911 -0.012430271
0002d0 c5 8c 73 3b 47 82 05 3d 97 69 1b 3d bf 8e da bc
       0.0037162763 0.032594945 0.037942495 -0.026679395
0002e0 f9 04 58 bc 0f 1e af 3c 50 a0 97 bb b8 d3 e3 3a
       -0.013184779 0.021376638 -0.004627265 0.0017381823
0002f0 26 2a b7 3b be d2 cf bc 63 f9 82 bb 20 27 12 bc
       0.0055897413 -0.025369044 -0.0039970144 -0.008920461
000300 c0 02 90 3c c8 27 99 3c 46 56 4d 3d 44 e2 7a bd
       0.017579436 0.018695727 0.050131105 -0.06125094
000310 49 9c 06 bd 02 d5 51 bc b5 81 b5 3b 4e b3 b3 3c
       -0.03286389 -0.012807133 0.005539144 0.021936085
000320 ec 00 93 bc ce 90 54 3d e1 68 e3 bc 14 0b 03 3c
       -0.017944776 0.05189591 -0.027759971 0.007998247
000330 7f 5f 5b bc f3 68 43 bc 8a 10 76 bc e7 72 46 bc
       -0.013389467 -0.011926877 -0.015018592 -0.012112356
000340 a7 98 68 bd b6 c3 87 3b 2f 71 38 bc 3f e7 50 3c
       -0.056786206 0.0041432036 -0.011257454 0.012750446
000350 b9 8f b3 39 aa ad ac bc 83 9f 97 3c b4 6a 8e bc
       0.00034248622 -0.021078903 0.018508678 -0.017384864
000360 df 13 40 bc da 04 92 bd 6c 77 c5 3a 2a 1b ed 3c
       -0.011723488 -0.071298316 0.0015065498 0.028943617
000370 4c 89 36 3d db 05 91 3c 3e 73 01 3d 65 f5 78 bc
       0.04456453 0.017702987 0.031604044 -0.015195225
000380 1e 9b bd 3c 04 e6 59 bd 18 de 38 3c 36 84 81 3d
       0.023145255 -0.053197876 0.01128342 0.06324045
000390 7c ec 97 3d b1 ba fd 3b 8e 82 01 3d a7 3a 08 bd
       0.07418153 0.0077432026 0.031618647 -0.03325906
0003a0 14 9d 1b 3c ea 30 2f bb c0 e9 3f bc 84 6d 50 3d
       0.0094979 -0.0026732036 -0.011713445 0.050885692
0003b0 32 fe b5 bc 97 de 18 bd da 2e a2 3b 9f db 90 bc
       -0.022215936 -0.037321653 0.004949433 -0.017682848
0003c0 97 96 41 bc 86 4d 29 bd eb 3b 05 3d 03 3b 56 b9
       -0.011815689 -0.041333698 0.032527845 -0.00020430614
0003d0 91 64 6f 3c 08 96 aa b9 45 96 40 3d 54 26 11 bd
       0.014611379 -0.0003253671 0.04701831 -0.035436943
0003e0 55 de bc 3b 55 14 c0 3c 01 63 16 3d 72 f1 63 3c
       0.0057638087 0.023447195 0.03671551 0.0139125455
0003f0 6b 6e 6d 3b 35 f5 b8 3c b3 c1 dd 3c 60 9e 90 bc
       0.0036229144 0.022577861 0.027069902 -0.017653644

transformer.layers.0.linear1.bias f4 [128]
000000 14 6b 5d bc 75 a9 59 b9 96 46 cf 3c 94 7f 76 3c
       -0.013514299 -0.0002075786 0.025302213 0.015045065
000010 82 ce 62 3b cd e2 68 3c ab 08 5f 3c ee d5 aa 3b
       0.0034607952 0.01421423 0.013612906 0.0052134907
000020 38 53 db 39 7b d2 ac 3b 7b 40 c9 3b 12 0a 6d 3b
       0.00041832938 0.0052741147 0.00614172 0.0036169332
000030 93 98 1b 3c af 7f 7f 3b 5b 0a 52 3c 82 38 8c 3b
       0.009496826 0.0038986017 0.012819852 0.004279197
000040 b2 40 98 3c 87 36 5d bc bb cf cc bb 15 5c 52 ba
       0.018585537 -0.01350177 -0.0062503493 -0.00080245855
000050 b0 1a 0c 3c e1 35 6c bb df 54 f9 ba 2d d6 cb 3c
       0.008551285 -0.0036042857 -0.0019022486 0.0248824
000060 e4 23 30 3b 1d 75 00 3c ed 50 c6 bb d2 88 49 3c
       0.0026876861 0.007840422 -0.0060521276 0.012300687
000070 ef ab f7 3a 9c 8e d3 3b fc 16 66 3a 79 b2 42 3c
       0.0018895845 0.0064562093 0.00087772286 0.0118833715
000080 25 93 99 bb 39 a3 b2 ba db cb 73 3c 80 94 02 bc
       -0.0046867304 -0.0013628966 0.014880146 -0.0079699755
000090 a1 60 51 3c 91 57 c3 ba f9 b2 7c bc 5c 8f 85 bc
       0.012779386 -0.0014903416 -0.01542353 -0.01630371
0000a0 d3 ca 26 3c 1b 11 6a bb 61 fb 2a 3c d5 3c 50 3a
       0.010180193 -0.0035715762 0.01043591 0.0007943635
0000b0 d6 5c 57 bc 7a d3 80 ba 1d f1 ae 3c 9b c9 d7 bb
       -0.013144692 -0.000982865 0.021355206 -0.0065853125
0000c0 75 23 e9 38 ee c2 2c bc a9 8b 37 3c 96 71 03 bd
       0.0001111691 -0.010544522 0.011202731 -0.032090746
0000d0 ad 6f a8 3c d1 c3 2a 3c e6 45 87 3b a7 f7 a2 ba
       0.020561064 0.010422663 0.0041282056 -0.0012433425
0000e0 a0 39 32 bb 1a 89 9d 3b e6 79 d3 3c 52 0b 40 bb
       -0.0027194992 0.0048076035 0.025814962 -0.0029303622
0000f0 52 f4 6f 3c a5 f8 1b 3c 04 ca 32 3c 36 5e 39 3a
       0.014645653 0.009519731 0.010912422 0.00070712285
000100 1b 04 9b 3b 7f 72 a4 3c 6a 76 15 3a 26 6e 8e 3b
       0.004730714 0.020074127 0.0005701544 0.004346627
000110 b8 68 40 3c ea a5 ce 3a 23 ef 24 bb 5b 3d f9 3b
       0.011743717 0.0015765999 -0.002516695 0.007606191
000120 bf 18 7a 3c 80 9e c4 bb 39 ba 86 ba 23 93 b9 3c
       0.015264689 -0.00600034 -0.0010278887 0.022653168
000130 58 f9 18 bc 8e d5 18 3c 61 e6 89 3c 41 4c 0b bc
       -0.009336792 0.009328259 0.016833486 -0.008502067
000140 bf 77 92 3b 84 54 86 3b 19 6a e6 3b fd 3a 35 3b
       0.0044698413 0.0040994305 0.007031691 0.0027653568
000150 c9 ba 86 bb 16 08 60 3c dd 6a 36 bc ae ca a2 3b
       -0.004111622 0.013673803 -0.011133877 0.004968009
000160 63 f4 05 3b fc 91 98 3b 77 cc 5a 3c ef 6b 8d bb
       0.0020439855 0.0046560746 0.013354412 -0.004315845
000170 dd f9 ab bb fb ce 5a bb f0 0e 12 3c 5b f9 e1 3a
       -0.005248292 -0.003338753 0.008914694 0.0017240451
000180 d2 09 0b 3c 26 27 99 3c 2d da 42 3b 40 3e 1a bc
       0.008486228 0.018695425 0.0029732094 -0.009414256
000190 16 63 39 bc b8 21 b5 3c 9e a1 c8 3b e8 aa d6 ba
       -0.011315128 0.022110805 0.006122782 -0.0016377838
0001a0 5f 14 a4 ba 6f 19 05 bc a5 6b a2 3c 63 3a 40 3c
       -0.0012518278 -0.00812374 0.01982672 0.0117326705
0001b0 09 27 17 bc e1 bc e3 3b 6b 78 34 3b ee 40 51 3b
       -0.009225615 0.0069500064 0.0027537595 0.003192957
0001c0 9b 6c 60 3c 0c c0 1e 3b e9 4a 3d 3c eb c8 3f bc
       0.013697769 0.0024223356 0.0115535045 -0.011705617
0001d0 d9 dc 90 bc cc 7d aa 3b a8 2b be ba 29 29 52 3c
       -0.017683433 0.0052029844 -0.001450886 0.012827196
0001e0 3e d4 64 3b 78 ee 58 3c dd 8b 9f 3c 0a 66 ad 3b
       0.0034916545 0.013240449 0.019475872 0.005291705
0001f0 cd 8c 14 bc c0 42 11 3c 51 fc 03 3c d9 13 0c 3c
       -0.009066773 0.008866012 0.008055762 0.008549654
