marble_model/best_model_v3.0_20250530_230503.pt (torch, 295593 bytes, 30 tensors)

token_embedding.weight f4 [13, 64]
0	0xbcab92fe	-0.020944115
1	0xbc375555	-0.011189778
2	0x3bbb6c89	0.0057197255
3	0xbc266c8b	-0.010157715
4	0x3982b1d2	0.0002492802
5	0xbb84a4cc	-0.0040479656
6	0xbc6ae4b4	-0.014336754
7	0xbc5b8c17	-0.013400099
8	0x3bba43f7	0.0056843716
9	0x3afd5fe2	0.0019330943
10	0xbbea1b54	-0.007144371
11	0x3c457b1b	0.012053276
12	0x3cee6862	0.029102508
13	0xbaa09f99	-0.0012254595
14	0xbcf6aea3	-0.03011257
15	0x3c1ee1f9	0.009697431
16	0xbd03e8a7	-0.032204296
17	0xbc891ee7	-0.016738368
18	0x3c9f194b	0.01942124
19	0xbcace63e	-0.021105882
20	0x3d15a480	0.036533833
21	0x3acb5c7c	0.0015515233
22	0x3d3b194d	0.045678426
23	0xbcd52ab3	-0.026021337
24	0x3d1e2e02	0.038618095
25	0xbc595992	-0.013265984
26	0xbca18797	-0.019717975
27	0x3c18156b	0.00928245
28	0xbc065f7b	-0.008201475
29	0xbc83e62b	-0.016100964
30	0x3c75fc5d	0.015013781
31	0x390b70cf	0.00013298097
32	0xbcf4317d	-0.029808754
33	0x3ceaab5d	0.028646166
34	0x3c9c8c18	0.01910977
35	0x3c4d0dcb	0.0125154955
36	0xbc1074a8	-0.0088168755
37	0x3bce0706	0.0062874584
38	0xbcabce2e	-0.020972338
39	0xbbf947c6	-0.007607433
40	0x3c821324	0.015878268
41	0x3cb2a194	0.021805562
42	0xbbb591b7	-0.005541052
43	0xbc3caa22	-0.011515172
44	0xb883e41e	-6.289057e-05
45	0x3a472400	0.0007596612
46	0x3d2bbca7	0.04192796
47	0xbcb8ad70	-0.022543639
48	0x3bbd291e	0.005772724
49	0x3c7b4f9e	0.015338806
50	0x3ca89732	0.020579908
51	0xbcc17865	-0.023616979
52	0x3ca8b34b	0.020593306
53	0x3c3b6782	0.011438252
54	0x3cdb2469	0.02675076
55	0xbc400939	-0.011720949
56	0x3ce92833	0.028461551
57	0xbc5227f2	-0.0128269065
58	0xb9b2c2e1	-0.00034096002
59	0x3c500784	0.012697104
60	0x3d033a45	0.032037992
61	0xbc811d45	-0.015761027
62	0x3a134f43	0.0005619416
63	0xbc57cd6a	-0.013171533
64	0xba886403	-0.0010405782
65	0xbc96a333	-0.018388366
66	0xbd29bbaa	-0.041438736
67	0x3b5399c4	0.0032287696
68	0xbd641027	-0.055679467
69	0x3d392c5b	0.045208316
70	0x3c497abc	0.012297329
71	0xbd30b9b5	-0.043145854
72	0xbd2e20b7	-0.042511668
73	0xbcf78404	-0.030214317
74	0x3ce0b938	0.02743207
75	0x3cf0bfe3	0.029388374
76	0x3ca691ba	0.02033316
77	0x3d10888a	0.035286464
78	0x3bfe2d14	0.0077568386
79	0xbb5fd961	-0.0034156668
80	0x3c14763e	0.009061394
81	0x3be7788c	0.007063931
82	0xbc041e4a	-0.008063862
83	0x3c68da1a	0.014212156
84	0xbbccf159	-0.006254357
85	0x3ce31621	0.027720513
86	0x3d2c52d4	0.04207118
87	0x3bfdf284	0.0077498574
88	0x3aba76d3	0.0014226086
89	0x3d016398	0.03158912
90	0xbc9fe041	-0.019516112
91	0xbd2f90b8	-0.042862624
92	0x3c20586e	0.009786708
93	0x3cc273df	0.023736892
94	0x3b23a6cf	0.0024971252
95	0xbcb18a20	-0.021672308
96	0xbb92a5d4	-0.0044753347
97	0x3adb7948	0.0016744519
98	0xba604bc5	-0.00085562124
99	0x3b9d8194	0.0048067067
100	0x3cc132a4	0.023583718
101	0xbd0b9b8d	-0.03408389
102	0x3d154502	0.036442764
103	0x3d232a25	0.039835114
104	0x3c8c813a	0.017151464
105	0xbd704e53	-0.058668446
106	0x3bb671c5	0.0055677616
107	0xbc82546f	-0.015909402
108	0x3cfdbf7e	0.0309751
109	0x3ca988ab	0.020695051
110	0x3c420e7d	0.011844275
111	0xbcab66ea	-0.020923097
112	0x3d3d7694	0.046255663
113	0x3d029be2	0.031886943
114	0xbcc0bbc2	-0.02352703
115	0xbc0d6e3b	-0.008632238
116	0x3c94e1a0	0.018173993
117	0xbd6aec62	-0.05735434
118	0x3c9b579e	0.018962678
119	0xbbba7ac7	-0.0056909057
120	0xbcd78e9b	-0.026313117
121	0xbd34def0	-0.044157922
122	0xbcc545ac	-0.024081074
123	0xbc3a51be	-0.011372028
124	0xbc67dbf4	-0.014151562
125	0xbc0301a9	-0.007996001
126	0x3d24af77	0.0402064
127	0x3cfcb00c	0.030845664
128	0xbcb02436	-0.021501642
129	0x3b2021c4	0.0024434188
130	0xbd2486e0	-0.04016769
131	0xbc8f19a9	-0.01746829
132	0x3c58a7d0	0.013223603
133	0x3bcc718e	0.0062391227
134	0xbc81f079	-0.015861737
135	0x3bd3cd09	0.006463651
136	0x3b3ce970	0.0028825663
137	0x3c720094	0.014770646
138	0xbb7821ac	-0.0037861867
139	0xbc4dce81	-0.012561441
140	0x3cd4f222	0.025994364
141	0xbc3c8d42	-0.011508288
142	0x3c666efe	0.014064549
143	0x3c89ba9c	0.016812615
144	0xbcd139bc	-0.025540225
145	0xba975b90	-0.0011547673
146	0xbc0a93e9	-0.008458116
147	0x3d547b78	0.05187556
148	0x3cb3d670	0.021952838
149	0x3d063d0f	0.032773074
150	0xbcf822cb	-0.030290028
151	0xbaf880de	-0.0018959304
152	0xb98bb545	-0.00026647202
153	0xbc2ba3f2	-0.010476099
154	0x3c363382	0.011120679
155	0x3c49466e	0.012284858
156	0xbbb5e6fb	-0.0055512167
157	0x3cf349ab	0.029698214
158	0x3c629849	0.013830253
159	0x3d096531	0.03354377
160	0xbc9f24d7	-0.019426746
161	0xbc2a2619	-0.01038506
162	0xbca68636	-0.020327669
163	0xbd326919	-0.04355726
164	0x3cbd4c62	0.023107711
165	0x3c73b152	0.014873819
166	0xbcc3f32b	-0.023919662
167	0xbc6a7a82	-0.014311435
168	0xbc93dbfe	-0.018049236
169	0x3c3c3c58	0.011488996
170	0x3d1748b3	0.036934566
171	0xbb8438cc	-0.004035091
172	0xbd1744a6	-0.036930703
173	0xbb55b535	-0.0032609229
174	0x3c0d8658	0.008637987
175	0xbc6a41f7	-0.014297954
176	0x3cab3218	0.02089791
177	0x3cb5b629	0.022181587
178	0x3c9c4a74	0.01907847
179	0x3cd77d90	0.02630499
180	0xbc68520e	-0.01417972
181	0x3b3b5e89	0.0028590283
182	0xbd0c1b2d	-0.034205604
183	0x3c49454f	0.012284591
184	0x3c5e6486	0.013573771
185	0x3c86b9a9	0.016445952
186	0xbc46eb38	-0.012141041
187	0xbc5a1610	-0.013310924
188	0xbd068766	-0.03284397
189	0xbc26d39c	-0.010182288
190	0x3c6209cf	0.013796284
191	0xbcac01c9	-0.020996945
192	0x3c22bc25	0.009932552
193	0x3b7f040a	0.003891232
194	0x3c1e1948	0.009649582
195	0x3c223772	0.0099009145
196	0x3aadab15	0.0013249839
197	0xbbb30568	-0.005463291
198	0xbc8250a1	-0.015907587
199	0xbc01268c	-0.007882725
200	0x3c6c7378	0.014431827
201	0x3c9fd30d	0.019509817
202	0x3d05aba7	0.032634404
203	0x3d13451d	0.035954583
204	0xbc8cd3de	-0.01719087
205	0xbc758b61	-0.014986844
206	0xbcb3a3c5	-0.021928677
207	0xbcca4a31	-0.02469358
208	0xbb196f4c	-0.0023412285
209	0xbb6bc63f	-0.0035976318
210	0x3ce4d629	0.02793415
211	0x3c03bc3c	0.008040484
212	0xbc7aa55d	-0.015298215
213	0xbc2e0fbe	-0.01062387
214	0xbc665a3a	-0.014059598
215	0xbc14c285	-0.00907958
216	0x3cad2f18	0.02114062
217	0x3bb981f7	0.005661245
218	0xbc7e5ebd	-0.015525517
219	0xbb5b26d1	-0.0033439884
220	0x3bd4ecf0	0.0064979717
221	0x3d106127	0.0352489
222	0xbc7b1839	-0.015325599
223	0xbbe13bb2	-0.0068735713
224	0x3c3a9795	0.011388679
225	0xbd863e3d	-0.0655484
226	0x3b7cac1a	0.003855473
227	0x3b7dd88e	0.0038733813
228	0xbb4cdb3f	-0.003125861
229	0xbb8cf056	-0.004301111
230	0x3bec1422	0.0072045485
231	0x3d192a51	0.03739387
232	0xbafeab68	-0.0019429745
233	0xbb2cf386	-0.0026390268
234	0x3bec94fa	0.007219908
235	0xbbf76786	-0.0075501828
236	0xbd0463f9	-0.032321904
237	0xbc2c668e	-0.010522498
238	0x3ca224e5	0.019792983
239	0xbccbe91a	-0.024891425
240	0xbc2c870a	-0.010530243
241	0x3ccebe52	0.025237236
242	0x3c178432	0.009247826
243	0x3c26ac3f	0.010172903
244	0xbd38837c	-0.04504727
245	0x3be91056	0.007112543
246	0x3b9457c4	0.004527064
247	0xbc9dc56b	-0.019259175
248	0x3acd5568	0.0015665712
249	0xbd0d53a3	-0.03450359
250	0x3bf67bed	0.0075220973
251	0x3c6312aa	0.01385943
252	0xbc745372	-0.014912473
253	0x3cd384c0	0.025820136
254	0x3ba529ce	0.005040384
255	0xbb775532	-0.003773999

position_embedding.weight f4 [30, 64]
0	0x3cf3d872	0.029766295
1	0xbb92879c	-0.0044717323
2	0xbd31e94a	-0.043435372
3	0xbd34d71d	-0.04415046
4	0xbc9e06a1	-0.01929027
5	0x393a8e12	0.00017791268
6	0xbd23a254	-0.03994973
7	0xbbe14ea8	-0.0068758316
8	0xbd117966	-0.035516165
9	0xbcc79f87	-0.02436806
10	0xbb381140	-0.0028086454
11	0x3d1a5ba9	0.03768507
12	0x3cedcfcb	0.029029747
13	0x3b87b8f7	0.0041419226
14	0xbce8e482	-0.028429274
15	0xbce605c0	-0.028078914
16	0x3d0bab82	0.03409911
17	0x3cd00faa	0.025398094
18	0xbd45108f	-0.048111495
19	0x3be7b55d	0.0070711807
20	0xbd2d1dc0	-0.0422647
21	0x3d0f6c80	0.035015583
22	0x3be774a3	0.0070634647
23	0xbc7ef5f4	-0.0155615695
24	0xbbe4c075	-0.0069809505
25	0x3cbb43a4	0.022859402
26	0xbceecf23	-0.029151505
27	0xbc5c5ab1	-0.013449357
28	0x3d023bd7	0.03179535
29	0x3d16e209	0.036836658
30	0x3c31f7b7	0.0108622825
31	0x3d65f2a8	0.05613962
32	0xbc06fc1d	-0.008238819
33	0x3c1ea3aa	0.009682575
34	0x3c7835a4	0.015149508
35	0x3d05701a	0.03257761
36	0x3cdd6342	0.027024869
37	0xbd13744c	-0.03599958
38	0x3cde402b	0.027130207
39	0x3cb94c66	0.022619437
40	0x3cb7976f	0.022411076
41	0xbc17517b	-0.009235735
42	0x3b6a8ed0	0.003579069
43	0xbcc1d45a	-0.023660827
44	0x3c2c88c1	0.010530652
45	0x3b243145	0.002505378
46	0x3d2c4e11	0.042066637
47	0x3c829a9f	0.01594287
48	0xbc9e113b	-0.019295326
49	0x3c6cc864	0.014452074
50	0xbca1e4d5	-0.019762436
51	0xbd326d06	-0.043561004
52	0x3c88ce69	0.016699987
53	0xb9bb44f1	-0.00035718785
54	0x3d1da0b9	0.038483355
55	0xbc7181d6	-0.014740428
56	0x3beff88f	0.0073233317
57	0xba85b684	-0.0010201489
58	0xbd2b4cf7	-0.041821446
59	0xbcf6301b	-0.030052235
60	0xbd1cfd12	-0.038327284
61	0x3c90efa8	0.017692402
62	0x3bfc2fd0	0.0076961294
63	0x3b958bcd	0.0045637847
64	0x3bb1de11	0.0054280837
65	0x3c9a3af3	0.018826937
66	0x3d198b9d	0.03748666
67	0x3c9cf57f	0.01916003
68	0x3cc55a2c	0.024090849
69	0xbc9aee17	-0.018912358
70	0xbc8c337c	-0.017114393
71	0x3c822690	0.015887529
72	0x3c1871f4	0.009304512
73	0xbb802a1a	-0.003911269
74	0x3bcd9722	0.00627412
75	0xbd190074	-0.037353948
76	0xbd178474	-0.03699155
77	0xbcd5a2a2	-0.026078526
78	0x3c6d8d48	0.014499016
79	0x3d2b78d2	0.04186327
80	0x3cdbca95	0.026829997
81	0x3ba3f23e	0.0050032428
82	0x3c02101e	0.007938413
83	0xbb5de857	-0.003386041
84	0x3cd0218a	0.025406618
85	0xbc1f5a03	-0.00972605
86	0x3c9199bf	0.017773507
87	0xbd2b6287	-0.04184201
88	0xbcb82efc	-0.022483341
89	0x3cea472d	0.028598392
90	0x3cd6161b	0.026133588
91	0x3cf83efd	0.030303473
92	0xbb03d313	-0.0020114824
93	0xbcef30b3	-0.029198026
94	0xbc20d876	-0.009817233
95	0x3b81963c	0.003954677
96	0x3c7935af	0.015210553
97	0xba41add9	-0.0007388271
98	0x3c46aa3c	0.012125548
99	0x3caaa356	0.020829838
100	0xbd1c28f1	-0.038124982
101	0x3c1ff4ea	0.009762982
102	0xbd130f28	-0.035903126
103	0xbb0157e4	-0.0019736225
104	0x3c954fa4	0.018226452
105	0x3d11368d	0.035452414
106	0x3c8d8114	0.017273463
107	0xbc4d485c	-0.012529459
108	0xbc3348f8	-0.01094269
109	0xbc2eeb68	-0.010676242
110	0xbc6e4400	-0.01454258
111	0xbac62d44	-0.0015119691
112	0xbb492725	-0.0030693498
113	0xbcbca35c	-0.023027115
114	0x3cd93e4d	0.026518965
115	0xbcbe11aa	-0.023201782
116	0xbbc904a7	-0.006134588
117	0x3c9e717a	0.01934122
118	0xbce3b6c9	-0.02779712
119	0x3cdef50b	0.027216455
120	0x3c62e716	0.0138490405
121	0x3ce6baa0	0.028165162
122	0x3cd35de2	0.025801603
123	0x3c0837ad	0.008314055
124	0xbcf63ed7	-0.030059261
125	0xbc8aa77b	-0.016925564
126	0x3bb34092	0.005470344
127	0xbd1c2e26	-0.038129948
128	0x3d2d9ce1	0.04238594
129	0x3d01e770	0.031714857
130	0xbcc96ef8	-0.024589047
131	0x3c8442f4	0.016145207
132	0x3c9b3128	0.018944338
133	0x3b9edfaa	0.00484844
134	0x3b41e170	0.0029583834
135	0x3c4c0eef	0.012454732
136	0xbd655e24	-0.055997983
137	0x3cb41989	0.021984832
138	0xbd0193ae	-0.03163498
139	0xbcc8ed0b	-0.024527093
140	0x3ca0077f	0.019534824
141	0x3c681119	0.014164233
142	0x3ced80b5	0.028992036
143	0x3bdbb7e2	0.00670527
144	0x3d900fa6	0.07034235
145	0x3cf1d650	0.029521137
146	0xbb18521c	-0.00232423
147	0x3c59f2a2	0.013302477
148	0x3cadfcc2	0.021238688
149	0x3d46fb6c	0.04857962
150	0x3d78840e	0.060672812
151	0xbc8bcd6f	-0.017065732
152	0xbd64c31f	-0.055850144
153	0x3c8ed8c4	0.017437346
154	0x3d032f34	0.03202744
155	0xbd02b0c7	-0.03190687
156	0xbbac2267	-0.0052531245
157	0xbc17edc2	-0.0092729945
158	0x3b4ff79f	0.0031733287
159	0x3d42f31c	0.04759513
160	0xbc917d1a	-0.017759848
161	0x3d6f2b49	0.05839089
162	0x3c30d515	0.01079299
163	0x3cbed2b4	0.02329383
164	0xbc71987b	-0.014745827
165	0x3cd549f2	0.026036236
166	0xbc8aa93b	-0.016926399
167	0xbd108f49	-0.035292897
168	0x3ba1c4f1	0.0049368073
169	0xbd2c70ce	-0.042099766
170	0xbd003261	-0.031298045
171	0xbd6128b8	-0.054970473
172	0x3d8266bc	0.06367251
173	0x3d59947f	0.053120133
174	0xbd022492	-0.031773157
175	0x3ce57e26	0.028014254
176	0xbcc732d4	-0.024316229
177	0x3b6db5f5	0.0036271785
178	0xbc73acb9	-0.014872723
179	0xbd9f0c7c	-0.07766053
180	0x3d366008	0.044525176
181	0x3c22ad76	0.009929052
182	0xbc4b7e9b	-0.012420322
183	0x3d6c3618	0.057668775
184	0xbc1f84fc	-0.009736296
185	0x3c92c97c	0.01791834
186	0x3ced3af9	0.028958784
187	0xbcc20cf5	-0.023687819
188	0xbcdbd20d	-0.026833558
189	0xbc9cc649	-0.019137518
190	0x39a0f2f0	0.0003069858
191	0xbc05e342	-0.008171858
192	0x3c968ef9	0.018378722
193	0xbd4696b7	-0.048483577
194	0x3d1be5a8	0.038060814
195	0xbd14754b	-0.03624467
196	0x3c912b04	0.017720707
197	0x3bcf96cb	0.0063351146
198	0xbd12dfd1	-0.03585798
199	0x3c4437d0	0.011976197
200	0x3cc27ad1	0.023740204
201	0x3ca8dfad	0.02061447
202	0x3c435a37	0.011923364
203	0xbabb5a90	-0.0014293958
204	0xbd15c971	-0.036569063
205	0xbd0e24f9	-0.03470323
206	0xbc4786d9	-0.012178146
207	0xbc9dfb49	-0.019284861
208	0x3c40d7ab	0.011770169
209	0x3cc6657e	0.024218317
210	0xbcd87edc	-0.026427679
211	0xbc95d749	-0.018291133
212	0xbcf5bed1	-0.029998215
213	0xbd10912e	-0.035294704
214	0xbd03d12b	-0.0321819
215	0x3cbfcb2b	0.023412308
216	0x3bd61dd2	0.0065343166
217	0xbc94cee2	-0.018165056
218	0xbb3fd2a0	-0.002926983
219	0x3c0fc617	0.008775256
220	0x3cf98826	0.030460428
221	0xbd441be3	-0.047878157
222	0x3c0ed52b	0.008717815
223	0x3cc7f800	0.024410248
224	0xbd25f6e9	-0.040518675
225	0xbb2d6b3f	-0.0026461629
226	0x3ce320e0	0.027725637
227	0x3cbdba7f	0.023160217
228	0xbd370873	-0.044685792
229	0xbbd63bb7	-0.0065378803
230	0xbd353157	-0.044236507
231	0x3c8118d7	0.015758915
232	0xbcdb782d	-0.026790703
233	0x3c85098e	0.016239908
234	0x3d8664db	0.065622054
235	0x3d56d1f8	0.052446336
236	0xbc88eac2	-0.016713504
237	0xbbc9837f	-0.0061497088
238	0x3c0849ba	0.008318359
239	0xbbc6a5cc	-0.006062245
240	0x3ccf1752	0.025279675
241	0x3c104611	0.008805768
242	0x3d69ffec	0.05712883
243	0xbcdeab66	-0.027181339
244	0xbca84ccb	-0.02054443
245	0xbbcbc784	-0.0062188525
246	0xbc71b868	-0.0147534385
247	0x3c9e230e	0.019303825
248	0x3c2c19c1	0.010504187
249	0x3d0de177	0.03463885
250	0xbd179669	-0.037008677
251	0x3d060e8b	0.032728713
252	0xbb20e646	-0.0024551316
253	0x3c1edb0e	0.009695781
254	0x3d42c4f2	0.047551103
255	0x3c4d15db	0.012517418

transformer.layers.0.self_attn.in_proj_weight f4 [192, 64]
0	0xbe03f7f0	-0.1288755
1	0xbcff9aa9	-0.031201677
2	0x3dcef77d	0.101057984
3	0xbe212ef5	-0.15740569
4	0x3dd49670	0.10380256
5	0xbd61d273	-0.05513234
6	0xbd98ae7f	-0.074551575
7	0xbd45a35a	-0.048251487
8	0x3e072278	0.13196743
9	0xbe195ea2	-0.14977506
10	0x3dadf1d7	0.08493393
11	0xbe1350bc	-0.14386266
12	0x3c6f8752	0.014619665
13	0x3d40ad34	0.04704018
14	0x3c8b5cca	0.017012019
15	0xbc1e6f9a	-0.009670163
16	0xbd323a1e	-0.043512456
17	0xbd19daee	-0.037562303
18	0x3ddaa06b	0.106751285
19	0x3be46780	0.006970346
20	0xbce21609	-0.027598398
21	0xbe2759a8	-0.16342795
22	0xbcce7b4a	-0.025205273
23	0xbe04d7c1	-0.12972929
24	0x3d6d792c	0.057976887
25	0xbe1450d4	-0.14483958
26	0x3db15a93	0.08659854
27	0x3d15de80	0.036589146
28	0xbdcc3ee7	-0.09972935
29	0x3de68102	0.11255075
30	0x3db435d2	0.08799328
31	0x3dcd5e06	0.10027699
32	0x3d78a1e5	0.06070127
33	0x3dd10839	0.102066465
34	0xbd3dd315	-0.04634388
35	0xbda19650	-0.07889998
36	0x3e208eb8	0.15679443
37	0xbd6bc9b0	-0.05756539
38	0x3ccd3210	0.025048286
39	0x3e03efe2	0.12884477
40	0x3d9a9966	0.0754879
41	0x3db0290f	0.08601581
42	0x3d1e20ec	0.038605615
43	0xbc36195d	-0.0111144455
44	0xbdccc940	-0.09999323
45	0xbdcd0668	-0.100109875
46	0xbb38e1f9	-0.0028210862
47	0x3e11f3cc	0.14253157
48	0x3e00ebcf	0.12589954
49	0x3d9bbb4d	0.07604084
50	0xbca3bad9	-0.019986557
51	0xbd8fdfe1	-0.070251234
52	0xbd6d6313	-0.057955813
53	0x3d5d96e6	0.054098986
54	0x3d1bbdb0	0.038022697
55	0x3e0731a9	0.13202538
56	0xbdda6495	-0.10663716
57	0xbd317180	-0.043321133
58	0xbd41ad07	-0.047284152
59	0x3da7be8b	0.0819064
60	0x3daa6c9d	0.083214976
61	0xbd54ba1d	-0.051935304
62	0xbe1e3c72	-0.15452746
63	0xbe008d44	-0.12553889
64	0x3d662e27	0.056196358
65	0xbde16d88	-0.110072196
66	0xbe17e919	-0.14835013
67	0x3de85296	0.11343877
68	0xbcc0c088	-0.023529306
69	0x3bc5d39c	0.0060371887
70	0x3cdaf23d	0.026726836
71	0x3db6d402	0.08927156
72	0x3db05f96	0.086119816
73	0x3bc26c8f	0.0059333513
74	0x3dc94863	0.0982826
75	0x3d8e9d6e	0.06963621
76	0x3c7a66d4	0.015283305
77	0xbcc38ff5	-0.023872355
78	0x3e1db655	0.15401585
79	0xbc4d4918	-0.012529634
80	0xbb283d45	-0.0025671285
81	0x3e0b3170	0.13593078
82	0xbe26f0a3	-0.16302733
83	0x3d9b74fc	0.075906724
84	0xbc270b58	-0.010195576
85	0x3d7305be	0.059331648
86	0x3dd98498	0.106209934
87	0xbcd4db86	-0.025983583
88	0x3cd84e7f	0.026404617
89	0x3c370d53	0.01117261
90	0x3d9019e9	0.07036192
91	0xbddad96b	-0.106860004
92	0x3d89f951	0.067370065
93	0x3c0af680	0.008481622
94	0xbd793f0c	-0.06085114
95	0x3e0bcb0f	0.1365168
96	0xbe08b64c	-0.1335079
97	0xbd2dab22	-0.042399533
98	0xbd259c7a	-0.04043243
99	0x3d77502b	0.06037919
100	0x3dc837fc	0.09776303
101	0xbda8cdc8	-0.08242375
102	0x3de77cab	0.113030754
103	0xbe08df40	-0.13366413
104	0x3d943a74	0.072377115
105	0x3d9df8fc	0.077135056
106	0xbd1ed285	-0.038774986
107	0x3d93d2d1	0.072179444
108	0xbbd15fe0	-0.006389603
109	0xbd24e55b	-0.040257793
110	0xbd3e89f4	-0.04651828
111	0x3d764972	0.060128637
112	0xbd7ceff1	-0.061752263
113	0xbda12fbf	-0.07870435
114	0xbddbae99	-0.10726661
115	0x3e110250	0.14161038
116	0xbd91c697	-0.07117956
117	0xbd3c30ee	-0.0459451
118	0x3ddd1feb	0.107971035
119	0x3e1f77bd	0.1557302
120	0xbde9fde0	-0.11425376
121	0xbdb8cc41	-0.09023333
122	0xbe273fd4	-0.16332942
123	0xbd46181b	-0.048362833
124	0x3da2f6f4	0.07957259
125	0xbe11d89f	-0.1424279
126	0xbd46ad03	-0.04850484
127	0x3e049007	0.12945567
128	0xbdd4f3fe	-0.103981
129	0xbdf2c050	-0.11853087
130	0xbe23feaf	-0.16015123
131	0xbd94df1c	-0.07269117
132	0xbd38a1ac	-0.045076057
133	0x3dc2cec6	0.09512095
134	0xbdee54df	-0.116372816
135	0x3d19e49e	0.037571542
136	0xbe1b40c1	-0.1516142
137	0x3d814c69	0.06313402
138	0xbdd5d449	-0.10440881
139	0x3c0eda33	0.008719015
140	0xbda9d070	-0.082917094
141	0xbdfa4796	-0.12220685
142	0x3d06f13f	0.032944914
143	0xbd7ea033	-0.062164497
144	0xbe02d0df	-0.1277499
145	0xbdf13132	-0.117769614
146	0xbe06093f	-0.13089465
147	0x3e00e8cf	0.1258881
148	0x3e120c2f	0.1426246
149	0xbd61f42f	-0.055164512
150	0x3d24d937	0.040246215
151	0x3dd5b7b2	0.10435428
152	0xbd628038	-0.05529806
153	0xbd889273	-0.06668558
154	0xbd8159d5	-0.06315962
155	0x3d62d2e2	0.055376895
156	0x3dc2ecaa	0.09517796
157	0x3dbd45ff	0.09241866
158	0x3dcfbe32	0.10143699
159	0xbd18c16e	-0.037293844
160	0x3b4ed9a5	0.0031562832
161	0x3e0c553f	0.13704394
162	0xbcbfc880	-0.023411036
163	0xbdc6b444	-0.09702352
164	0x3d42ade2	0.04752911
165	0x3d8acb49	0.06777055
166	0x3d4ecb80	0.05048704
167	0xbe10fa57	-0.14157997
168	0x3d966d23	0.07345035
169	0x3d878a99	0.06618232
170	0xbe042e35	-0.12908252
171	0x3ca75442	0.02042592
172	0x3d970024	0.07373074
173	0xbd096535	-0.033543784
174	0xbcc3e47b	-0.023912659
175	0x3e057451	0.13032652
176	0x3ddc17a4	0.107466966
177	0x3d83806d	0.0642098
178	0x3de11738	0.10990757
179	0xbd1e19e1	-0.0385989
180	0xbd5d919b	-0.05409394
181	0x3d8ca642	0.06867649
182	0xbc3e4b0f	-0.011614575
183	0x3aec61c0	0.0018034503
184	0xbd2f3628	-0.042776257
185	0xbdec2cbb	-0.11531969
186	0xbdcfabbb	-0.10140177
187	0x3d0da09e	0.034577005
188	0x3e0e3192	0.13886097
189	0x3d35c079	0.04437301
190	0x3d54890d	0.051888514
191	0x3d8484c0	0.064706326
192	0xbbb41cc6	-0.005496594
193	0xbce7028f	-0.028199462
194	0xbe08f458	-0.1337446
195	0x3d3cfe6f	0.046141084
196	0xbc2df226	-0.010616815
197	0x3dea815e	0.11450456
198	0x3beb69bf	0.007184237
199	0x3d92d099	0.07168693
200	0xbbfc40dc	-0.0076981615
201	0x3d3c8028	0.046020657
202	0x3dd94701	0.10609246
203	0xbd64c573	-0.055852365
204	0xbdb98446	-0.09058432
205	0xbbf4435e	-0.00745432
206	0xbd082c10	-0.033245146
207	0xbde4204a	-0.11138971
208	0x3d4c55d5	0.049886543
209	0x3bf389a9	0.007432182
210	0x3d589b1b	0.052882295
211	0x3d9919cf	0.07475626
212	0x3d88473b	0.06654211
213	0x3d964f43	0.07339337
214	0x3dc01a8d	0.09380064
215	0x3d5f1ed6	0.054472767
216	0x3e0b81b1	0.13623692
217	0x3ddece69	0.10879213
218	0xbe01921f	-0.12653397
219	0xbca60c20	-0.020269454
220	0xbbcedcf4	-0.0063129608
221	0xbe03460d	-0.12819691
222	0xbe0c8bf1	-0.13725258
223	0x3bfeca31	0.007775568
224	0x3dcfb2c7	0.10141521
225	0xbd60556c	-0.054768965
226	0x3d371a1a	0.044702627
227	0xbdc380c2	-0.09546043
228	0x3df4ecb3	0.11959209
229	0xbc9c63d2	-0.019090567
230	0xbd88ad15	-0.06673638
231	0x3d0a3c0d	0.033748675
232	0x3ce0180e	0.02735522
233	0xbe042d4c	-0.12907904
234	0x3d7aca36	0.061228
235	0xbd1c7332	-0.038195796
236	0xbdeddd42	-0.11614467
237	0x3da080af	0.078370444
238	0xbda8c02d	-0.082397796
239	0xbd1f69b3	-0.038919162
240	0xbd56282b	-0.0522844
241	0x3e0386ae	0.12844345
242	0x3b8b29cd	0.0042469264
243	0x3deb2614	0.11481872
244	0xbe0c25e7	-0.13686334
245	0x3e0c4300	0.13697433
246	0xbbbc30c7	-0.0057431194
247	0xbd1b8c13	-0.037975382
248	0xbde53f91	-0.11193765
249	0x3d4dc699	0.050238226
250	0xbe1c0b49	-0.1523868
251	0xbd92a83e	-0.07160996
252	0xbd56448b	-0.05231146
253	0xbe318f8d	-0.17339917
254	0xbde96a99	-0.11397285
255	0xbe100636	-0.1406487

transformer.layers.0.self_attn.in_proj_bias f4 [192]
0	0xbc871f0d	-0.016494298
1	0xbd0f061a	-0.03491793
2	0x3baf4fd8	0.0053500943
3	0xbbd06aa3	-0.0063603683
4	0xbb2b1c1b	-0.0026109281
5	0xbbc3c111	-0.005973943
6	0x3c0cf245	0.008602683
7	0x3be8af4b	0.0071009747
8	0xbcb23ce8	-0.021757558
9	0xbb5bc0ae	-0.0033531594
10	0xbd2b6a14	-0.04184921
11	0x3c02a0d9	0.007972919
12	0xbcb39594	-0.02192191
13	0xbc962d63	-0.018332189
14	0x3c442677	0.011972061
15	0x3a9dacf4	0.0012029693
16	0xbcb9361d	-0.022608811
17	0xb9aea158	-0.00033308077
18	0x3c786e5e	0.015163032
19	0x3c80d22f	0.015725223
20	0xbc6e9174	-0.014561046
21	0xbc4bd85c	-0.012441721
22	0x3a45f504	0.0007551464
23	0xbc5ad5b2	-0.013356613
24	0xbc9d89ac	-0.019230686
25	0xbc10e052	-0.008842545
26	0x3ccc2c76	0.024923544
27	0x3c075512	0.008260028
28	0xbcfb3092	-0.030662809
29	0x3c944b57	0.018102331
30	0xbc194fcf	-0.009357407
31	0x3c8594a1	0.016306223
32	0xbc882292	-0.016618047
33	0x399047a0	0.00027519185
34	0x3c8d2da3	0.017233675
35	0x3c991b0f	0.01868966
36	0xba7e3028	-0.0009696507
37	0xbc645394	-0.013935942
38	0xbbd99472	-0.0066400105
39	0x3ccfcdbd	0.025366658
40	0xbbba0912	-0.005677351
41	0xbc0e0990	-0.008669272
42	0x3c279e8c	0.010230672
43	0xbca5f25f	-0.020257173
44	0xbbf70f37	-0.0075396555
45	0xbcb41345	-0.021981845
46	0xbc07e26a	-0.008293727
47	0x3cbcbcb7	0.023039205
48	0x3c7949a8	0.015215315
49	0x3c5e96f9	0.013585799
50	0x3cb0601a	0.0215302
51	0xbbf3f3d0	-0.007444836
52	0xbacd3a6e	-0.0015657672
53	0x3c991f3a	0.018691648
54	0x3a092ff1	0.0005233279
55	0xbcd7f40e	-0.026361492
56	0x3aa95ea6	0.0012921884
57	0xbc22ebe6	-0.009943938
58	0xbc1d3284	-0.009594563
59	0xb997cc5c	-0.00028953224
60	0x3c89cfdf	0.016822753
61	0x3caca135	0.021072963
62	0x3b0e2af6	0.0021693087
63	0x3b11a9a8	0.0022226367
64	0xb473382a	-2.2651571e-07
65	0xb54c3efb	-7.608757e-07
66	0x342e387e	1.6225565e-07
67	0x3203dfd0	7.676093e-09
68	0xb4865196	-2.5018807e-07
69	0x3535d4ab	6.7737227e-07
70	0xb42ac287	-1.5903252e-07
71	0xb3eae0b6	-1.0937349e-07
72	0xb4d30b38	-3.9309975e-07
73	0x3548854d	7.4699784e-07
74	0x33d1aa92	9.7633475e-08
75	0xb442f2e0	-1.8156015e-07
76	0x359f1a39	1.1854055e-06
77	0x3434bf4b	1.6833398e-07
78	0xb42477fa	-1.5317337e-07
79	0xb50970d1	-5.1200647e-07
80	0x32d927b6	2.5280183e-08
81	0x359ed4ca	1.1833847e-06
82	0xb4d35117	-3.9360813e-07
83	0x35166289	5.602274e-07
84	0x347f9f13	2.3806597e-07
85	0xb5174f1b	-5.6366997e-07
86	0x34161f09	1.3981129e-07
87	0xb1c487d0	-5.719791e-09
88	0x3568e25f	8.675615e-07
89	0xb43217b4	-1.6586165e-07
90	0x35950d67	1.1105266e-06
91	0x342ec0bc	1.6275129e-07
92	0x30a2e538	1.1852199e-09
93	0xb4995df4	-2.856683e-07
94	0x33d230a6	9.787736e-08
95	0x357415e6	9.092895e-07
96	0x35042332	4.922505e-07
97	0xb5eb7c1e	-1.7544987e-06
98	0xb62cbb35	-2.5738966e-06
99	0x351efe72	5.9229853e-07
100	0xb4bb9b0e	-3.4944281e-07
101	0x358a5c8c	1.0308736e-06
102	0xb424d350	-1.5350565e-07
103	0x3431f4ba	1.657344e-07
104	0x342e492f	1.6231637e-07
105	0xb48d4cc8	-2.6319162e-07
106	0x34a7424c	3.115441e-07
107	0xb53376f6	-6.685581e-07
108	0x34bab3ac	3.4775928e-07
109	0x35142ee6	5.520254e-07
110	0x3445cef5	1.8422345e-07
111	0xb49a5ea0	-2.8753584e-07
112	0x348d1087	2.6275322e-07
113	0xb64453ba	-2.9255011e-06
114	0xb5ec21f1	-1.7593248e-06
115	0x344100ff	1.7974888e-07
116	0xb58adb4e	-1.0345627e-06
117	0xb39ef958	-7.402804e-08
118	0xb41ff7c6	-1.4898168e-07
119	0xb5cec443	-1.5405316e-06
120	0x3448a35b	1.868588e-07
121	0xb535f863	-6.7789205e-07
122	0xb44c39f9	-1.9020071e-07
123	0xb59c1a2e	-1.1630525e-06
124	0xb49dc80e	-2.9389088e-07
125	0x358e6322	1.0608676e-06
126	0xb32675e8	-3.8757122e-08
127	0xb51bfa52	-5.8106264e-07
128	0x3b11b3d8	0.002223244
129	0xbbee640f	-0.0072751115
130	0xbca72481	-0.020403149
131	0xb89cec0c	-7.482627e-05
132	0xbc3e0e25	-0.011600052
133	0x3ba0b131	0.0049039354
134	0x3b63ef20	0.003477998
135	0xba6c336b	-0.00090103474
136	0x3b1e2106	0.002412857
137	0x3c7ea16e	0.0155414175
138	0xbc9fc8e2	-0.019504968
139	0x3ab26378	0.0013609966
140	0x3c400d37	0.011721901
141	0xbc591d74	-0.013251651
142	0x3b843c9a	0.0040355446
143	0xb9ddc47e	-0.00042298803
144	0x3ac9a092	0.0015382937
145	0xbc00a906	-0.007852798
146	0x3b99a544	0.0046888907
147	0x3a873707	0.0010316082
148	0x3a814b17	0.0009864297
149	0xbc0b8917	-0.0085165715
150	0x3be9637f	0.0071224566
151	0xb8ad46e2	-8.262486e-05
152	0x3990e392	0.00027635373
153	0x3c50e1a8	0.012749113
154	0xbcc03d34	-0.023466684
155	0x3a8ef752	0.0010907447
156	0xbb44183b	-0.002992167
157	0xbc3210b8	-0.010868244
158	0x395419f6	0.00020227567
159	0xbc9f9c89	-0.019483821
160	0xbc6ad793	-0.014333623
161	0xbb27fd74	-0.0025633248
162	0x3c0f16b9	0.008733445
163	0x3bc02527	0.005863804
164	0xbb1a86ec	-0.0023578955
165	0xbaa91331	-0.0012899396
166	0xb8d0747c	-9.93991e-05
167	0x3bbe2d35	0.005803729
168	0x3c8ce8f8	0.017200932
169	0x3c982d7c	0.018576376
170	0xbb176fb1	-0.0023107345
171	0x3c42f18a	0.011898408
172	0x3c082c07	0.008311278
173	0xba6c24fa	-0.00090081955
174	0x3c87b08a	0.016563673
175	0x3c37da5b	0.011221494
176	0xbab0e2dc	-0.0013495344
177	0x3c5a53f1	0.013325677
178	0xbb67771c	-0.0035318797
179	0x3ca6cbe9	0.020360904
180	0xb9898cb8	-0.0002623552
181	0xbc915a71	-0.017743321
182	0xbbabff05	-0.0052489066
183	0xbc1ae09f	-0.009452968
184	0xbab7286e	-0.0013973841
185	0x3c1c28c0	0.0095312
186	0xbb3b7aad	-0.0028607056
187	0x3a9c5b44	0.0011929055
188	0xbc24b31d	-0.01005247
189	0xbba2696a	-0.004956414
190	0xbb2208fd	-0.0024724596
191	0xbc2a4949	-0.010393449

transformer.layers.0.self_attn.out_proj.weight f4 [64, 64]
0	0xbb96380f	-0.0045843194
1	0x3cc9638d	0.024583602
2	0x3d1e411c	0.038636312
3	0x3b71d381	0.0036899748
4	0xbcbc249a	-0.022966672
5	0xbd720299	-0.05908451
6	0xbd240fca	-0.04005412
7	0x3c7c9c7b	0.015418167
8	0x3c594ec7	0.013263411
9	0x3caed4fe	0.021341797
10	0x3d247219	0.040147875
11	0xbb5fccc5	-0.0034149152
12	0xbbb91768	-0.005648542
13	0x3d0596d2	0.032614537
14	0xbd216f3c	-0.039412722
15	0xbc110c8f	-0.008853092
16	0xbd017b85	-0.031611938
17	0xbc9dec43	-0.019277697
18	0xbc94fd46	-0.018187176
19	0xbba9f8d2	-0.0051871324
20	0xbd41602b	-0.047210854
21	0x3d188906	0.03724005
22	0xbd31e8ec	-0.043435022
23	0xbc8e37d6	-0.017360609
24	0xbcce04a9	-0.025148707
25	0x3cbcf9ef	0.023068396
26	0x3d7041ac	0.05865638
27	0xbc2a057e	-0.010377286
28	0xbd04249a	-0.03226147
29	0x3c1e3c9d	0.009658006
30	0x3cbb293f	0.022846816
31	0x3d82314b	0.06357058
32	0xbc0ad421	-0.008473427
33	0x3cac30cf	0.021019368
34	0xbc82c8b1	-0.015964838
35	0xbd500d56	-0.05079397
36	0xbb15b69f	-0.0022844446
37	0xbd28cd8b	-0.041211646
38	0x3b8c8d6f	0.004289321
39	0x3ca51b37	0.020154579
40	0xbd0b2e2d	-0.033979584
41	0xbba58e16	-0.0050523384
42	0xbce137fd	-0.027492518
43	0xbd10d813	-0.035362314
44	0xbcd3ed90	-0.025870115
45	0xbcad069f	-0.021121321
46	0xbd69cb38	-0.05707857
47	0x3ce3ca57	0.027806444
48	0xbc06c763	-0.008226248
49	0x3b5e2758	0.0033897962
50	0xbb94487c	-0.0045252424
51	0xbb132024	-0.0022449577
52	0x3d17b04c	0.037033364
53	0x3bb70430	0.005585216
54	0x3c47567f	0.012166618
55	0x3d1fcef7	0.039015736
56	0x3ceed26e	0.029153075
57	0xbd15d12b	-0.03657643
58	0x3cd96aa9	0.026540117
59	0x3d40dc8e	0.047085337
60	0x3c81bc65	0.015836904
61	0xbbd7d796	-0.006586979
62	0x3d2a8527	0.04163089
63	0xbb5c5c12	-0.0033624214
64	0xbb8dc3f6	-0.004326339
65	0xbab45292	-0.0013757518
66	0x3cbabd1e	0.022795256
67	0x3cbd6ecd	0.023124123
68	0xbc483fae	-0.012222214
69	0xbcdcf473	-0.026972031
70	0x3bb4bb78	0.005515512
71	0xbbd34f5e	-0.0064486703
72	0x3c471712	0.0121514965
73	0x3c0c0bfa	0.008547777
74	0x3bcf2375	0.0063213655
75	0xbc66013d	-0.014038381
76	0xbd078ff2	-0.03309626
77	0x3afe157c	0.0019385065
78	0x3c9af678	0.018916354
79	0xbc4488fd	-0.011995551
80	0x3c740871	0.014894591
81	0xb9f4386c	-0.00046581344
82	0xbb88ecc5	-0.0041786158
83	0x3c48b3b7	0.012249879
84	0xba475f3e	-0.000760544
85	0xbb276527	-0.002554247
86	0xbb2d2643	-0.002642051
87	0x3ca38430	0.019960493
88	0xbce27c7d	-0.027647251
89	0xbcc8b29c	-0.02449923
90	0x3d28648c	0.041111514
91	0xbcf8b989	-0.030361908
92	0xbc9f600a	-0.019454975
93	0x3bce7dd0	0.006301619
94	0x3cdaed71	0.026724549
95	0x3cd063be	0.025438186
96	0xbcce44f1	-0.025179358
97	0xbd3499f3	-0.04409213
98	0x3c810269	0.01574822
99	0x3c6ea05d	0.014564601
100	0xbd02f7ed	-0.03197472
101	0x3b506992	0.0031801206
102	0x3c1d5bf2	0.009604441
103	0xbc62f683	-0.013852718
104	0xbd110c3f	-0.03541207
105	0xbccf7315	-0.02532343
106	0x3c995d61	0.018721284
107	0x3cbfc2aa	0.023408253
108	0xbb7b8ee6	-0.0038384735
109	0xbd05baee	-0.032648973
110	0xbca0057b	-0.019533863
111	0x3b9d89b3	0.004807675
112	0xbd0cbebd	-0.03436159
113	0xbbd3a5de	-0.006458982
114	0x3d876c8c	0.066125005
115	0x3ba71437	0.0050988453
116	0xbc3576a3	-0.0110756485
117	0x3b4f5bdd	0.0031640448
118	0xbc0df1f6	-0.008663645
119	0x3cbc3c3e	0.022977944
120	0xbc090a57	-0.008364282
121	0xbcf0f731	-0.029414745
122	0xbcd40038	-0.02587901
123	0x3c72745d	0.014798251
124	0x3b5df4cd	0.0033867836
125	0xbd17cd94	-0.03706129
126	0xbc346adf	-0.011011808
127	0xbccf6e33	-0.025321102
128	0xbd4cc3ab	-0.04999129
129	0x3d8bc22e	0.06824146
130	0x3d60da52	0.054895706
131	0x3c56dcb4	0.013114143
132	0x3cc256d2	0.02372304
133	0x3d284de4	0.041089907
134	0x3bf7954d	0.00755564
135	0x3b91c4b3	0.004448497
136	0x3ccde31a	0.025132705
137	0x3ca75971	0.020428391
138	0x3cc43d43	0.023954993
139	0x3c16bc34	0.009200145
140	0x3ca7ea21	0.020497384
141	0x3b37c509	0.0028041026
142	0xbc16c1b7	-0.009201459
143	0x3cdae941	0.026722552
144	0x3bb5ecb8	0.0055519007
145	0x3c9aa940	0.018879533
146	0xbc301de8	-0.010749318
147	0x3c3cf0e7	0.011532045
148	0x3c6213f4	0.0137987025
149	0x3cb7db61	0.022443475
150	0xbcef85dd	-0.029238636
151	0x3ccda000	0.025100708
152	0x3ccb71cc	0.024834536
153	0xbc845ab4	-0.016156532
154	0xbcf88777	-0.030338032
155	0x3c83657b	0.0160396
156	0xbce962ba	-0.02848946
157	0x3c742b99	0.014902973
158	0xbcb70a3e	-0.022343751
159	0x3ba10e5a	0.004915041
160	0xbcc1a98b	-0.023640415
161	0xbad459b1	-0.0016201047
162	0x3c3a13e9	0.011357286
163	0x3d321fe2	0.043487437
164	0x3d436595	0.047704298
165	0x3d0d92f6	0.03456398
166	0xbb54af56	-0.0032453141
167	0x3c15b343	0.009136978
168	0x39291dfd	0.00016128267
169	0xbca31df9	-0.019911753
170	0x3bc93770	0.006140642
171	0xbc5ead9a	-0.0135911945
172	0xbbb9d3ea	-0.005671014
173	0x3a49a45c	0.0007692033
174	0x3cfc8c67	0.030828668
175	0xbd0e8927	-0.034798767
176	0x3d016e1f	0.03159916
177	0xbc2ac72c	-0.010423463
178	0x3c2ea238	0.010658793
179	0xbc36b2b4	-0.011151005
180	0x3cc47b4b	0.023984572
181	0xbd1955af	-0.03743523
182	0x3bca9554	0.006182352
183	0x3d01f9b0	0.03173226
184	0xbc1263b8	-0.008934908
185	0x3c93cd93	0.018042361
186	0x3ac67fe5	0.0015144317
187	0x3cae0c46	0.021246087
188	0x3afafdfa	0.0019149177
189	0xbd02e9bc	-0.031961188
190	0xbcda69ae	-0.02666172
191	0x3bf04349	0.0073322398
192	0x3cd49767	0.0259511
193	0x3b86e925	0.0041171485
194	0xbc0eb79c	-0.008710768
195	0xbc3ca927	-0.011514938
196	0x3cd56e40	0.026053548
197	0x3cbfd4c4	0.023416884
198	0x3cae0a71	0.021245213
199	0xbcfa17a1	-0.030528845
200	0x3c41820e	0.011810793
201	0xbd058088	-0.03259328
202	0xbce4c950	-0.027928025
203	0xbc2de7cd	-0.010614348
204	0xbc5aa4a2	-0.013344916
205	0x3d2b131d	0.041766275
206	0xbca2a727	-0.019855095
207	0xba7d73b1	-0.00096684234
208	0xbca568ab	-0.020191511
209	0x3cd04857	0.02542512
210	0x3bc2b951	0.0059425016
211	0xbcba72a4	-0.022759743
212	0xbb8ffa61	-0.004393861
213	0x3d3bb7e7	0.04582968
214	0x3c92528e	0.01786163
215	0x39733339	0.00023193368
216	0xbcc5a2c9	-0.024125474
217	0xbd2bfba9	-0.04198805
218	0x3d16dc62	0.036831267
219	0xbc771e0f	-0.01508285
220	0x3bfed545	0.0077768886
221	0x3cdbbdf2	0.026823971
222	0x3c147e30	0.009063289
223	0x3c4be006	0.012443548
224	0x3cca754a	0.02471413
225	0xbc862ca3	-0.016378706
226	0xbc87f0e6	-0.016594362
227	0xba549037	-0.0008108648
228	0xbcb10ab2	-0.021611545
229	0xbc2c886c	-0.010530572
230	0x3cc05fef	0.023483245
231	0x3bef17db	0.007296545
232	0xbbb5d23a	-0.0055487426
233	0xbc27aaad	-0.010233563
234	0xba3ee242	-0.000728164
235	0x3cafca24	0.021458693
236	0xbb2c89cb	-0.0026327248
237	0x3c53a1c6	0.012916988
238	0x3cc91e2d	0.024550522
239	0x366d6cc0	3.5379053e-06
240	0x3c52459c	0.012833979
241	0x3a62aa3a	0.00086465816
242	0x3d05e26c	0.032686636
243	0x3b48c97d	0.0030637674
244	0x3ca4a759	0.020099329
245	0x3c9d4ab3	0.019200658
246	0xbb3b66a6	-0.0028595119
247	0x3cb713b6	0.022348266
248	0xbc0e2c28	-0.00867752
249	0x3c8ce93e	0.017201062
250	0xbd3fba3c	-0.046808466
251	0xbcb1c1e4	-0.0216989
252	0x3cd02542	0.02540839
253	0xbc028a42	-0.007967534
254	0xbcab3066	-0.020897102
255	0xbcb3e0a3	-0.021957701

transformer.layers.0.self_attn.out_proj.bias f4 [64]
0	0x3ab3add7	0.0013708425
1	0x3c2958e9	0.010336139
2	0x3ba3a90e	0.004994518
3	0x3c1d5027	0.009601629
4	0x3be30df8	0.0069291554
5	0xbc3745d8	-0.011186086
6	0xbbf6bba3	-0.0075296923
7	0x3bff6e9c	0.007795168
8	0xbb48497f	-0.0030561385
9	0x3be8f54e	0.0071093207
10	0x381a7060	3.682112e-05
11	0xbc4c1cb2	-0.012458013
12	0xbc08e2fe	-0.0083549
13	0xbb9b1096	-0.004732202
14	0x3be58d94	0.007005403
15	0xbb64537a	-0.0034839795
16	0x3bd42260	0.0064738244
17	0x3b8c7411	0.004286297
18	0xbc461883	-0.012090805
19	0x3bc97982	0.006148518
20	0x3c29e32e	0.010369105
21	0xb9b71143	-0.0003491734
22	0x3befb216	0.0073149307
23	0xbc0dc461	-0.008652777
24	0xbbef7d74	-0.0073086563
25	0x3c1717f8	0.009222023
26	0x3c342e77	0.010997406
27	0xbc0a7692	-0.008451121
28	0xbc12d7c2	-0.0089625735
29	0xbb406b36	-0.0029360778
30	0xbb486430	-0.0030577295
31	0x3bfa058e	0.0076300567
32	0xbbee64e7	-0.007275212
33	0x3b33b1d8	0.0027419236
34	0x3bea9330	0.0071586594
35	0x3ab3fcc1	0.0013731943
36	0xbbcab614	-0.006186256
37	0x3b9ba567	0.004749942
38	0x3b4a10e4	0.0030832822
39	0x3ac79890	0.0015227962
40	0x3c2f007d	0.010681269
41	0xbc22390b	-0.009901295
42	0xbc3ae44d	-0.01140697
43	0xbbd82e9f	-0.0065973545
44	0x3c0030d0	0.007824138
45	0x3b64ca59	0.0034910648
46	0xbc45054c	-0.012025189
47	0x3b09f44e	0.0021050158
48	0xbc0b3f28	-0.008498944
49	0x3a015e7b	0.0004935038
50	0xbc3a9d39	-0.011390024
51	0xbb5abc58	-0.0033376422
52	0xbb249991	-0.0025115947
53	0x3ba2583a	0.004954365
54	0xbc05b4cb	-0.00816078
55	0x3c24874f	0.010042026
56	0xbc149afc	-0.009070154
57	0xba1ba52a	-0.0005937392
58	0x3c37b3d6	0.01121231
59	0x3bd0ab89	0.006368105
60	0xbbfd7621	-0.0077350293
61	0xbc1bcd80	-0.009509444
62	0xbbc5f189	-0.006040756
63	0xbbe8603e	-0.007091551

transformer.layers.0.linear1.weight f4 [128, 64]
0	0x3c69c996	0.014269253
1	0xbaf92b9d	-0.001901019
2	0xbd36d12d	-0.04463308
3	0x3cdd4a1c	0.027012877
4	0x3cac7d95	0.021055976
5	0x3c0c0a6c	0.008547407
6	0xbc7e0a5e	-0.015505401
7	0xbc53d51c	-0.012929227
8	0xbd0daed0	-0.034590542
9	0x396f8e02	0.00022845718
10	0x3c2e831f	0.010651379
11	0xbb8a40b3	-0.0042191385
12	0x3d67b567	0.056569483
13	0xbcd82481	-0.026384594
14	0xbd208485	-0.03918888
15	0xbc791e01	-0.015204907
16	0x3d3ae557	0.04562887
17	0x3d185256	0.037187897
18	0x3c552895	0.013010164
19	0x3d0372d7	0.03209194
20	0xbc51d116	-0.012806198
21	0x3d2d3987	0.04229119
22	0x3d187da4	0.037229195
23	0xbb7e8474	-0.0038836272
24	0xbcdc960e	-0.02692702
25	0x3d103d91	0.035214964
26	0xbc093c64	-0.008376215
27	0x3bd037aa	0.006354292
28	0x3c7e2a80	0.0155130625
29	0xbbecfc8f	-0.007232256
30	0xbbef0709	-0.00729454
31	0x3d1fe9d1	0.039041344
32	0xbc577561	-0.013150544
33	0x3c18967e	0.009313224
34	0xbbe04c11	-0.0068450053
35	0xbc977eed	-0.01849314
36	0xbc018551	-0.00790532
37	0x3cbdd152	0.0231711
38	0x3d411c3b	0.047146063
39	0x3cd40db1	0.025885435
40	0xbbb15f4d	-0.005412972
41	0xbcd99d8a	-0.026564378
42	0xbbc4fa6c	-0.006011298
43	0xbce92765	-0.028461168
44	0xba800544	-0.0009767194
45	0x3cd55f1c	0.026046328
46	0xbc8e465c	-0.017367534
47	0x3cdaf80c	0.026729606
48	0x3d2ad9fe	0.0417118
49	0x385f0058	5.3167663e-05
50	0x3b2fc35c	0.0026819324
51	0xbd288a13	-0.041147303
52	0xbc1562fe	-0.00911784
53	0x3c98a8a3	0.0186351
54	0xbc8a92cd	-0.016915703
55	0xbd13f1ce	-0.036119275
56	0xbd159675	-0.03652044
57	0xbd02e1cb	-0.031953614
58	0x3b04794a	0.0020213895
59	0x3cde3f3b	0.02712976
60	0xbc3127bb	-0.010812695
61	0xbb25456f	-0.0025218388
62	0x3b87e02a	0.0041465955
63	0x3c65c757	0.014024577
64	0x3ced44cd	0.02896347
65	0x3c6d9293	0.014500278
66	0xbd021192	-0.031755038
67	0x3ccbfcdf	0.024900852
68	0xbcd4c4e2	-0.025972787
69	0x3ba62ba6	0.0050711213
70	0xbd17bdc3	-0.037046205
71	0xbd487960	-0.048943877
72	0xbd3e9aad	-0.04653423
73	0xbc125c54	-0.008933146
74	0xbba96e60	-0.0051706284
75	0x3c481183	0.012211206
76	0xbbe4da15	-0.006984005
77	0xba87bb6e	-0.0010355541
78	0x3c9b7f30	0.018981546
79	0x3d2b7cfb	0.041867238
80	0x3d7d41ee	0.061830454
81	0x3c91f3f1	0.017816516
82	0xbd1be6e2	-0.038061984
83	0x3d622f6f	0.055221017
84	0xbd77ccfc	-0.060498223
85	0x3d9d5af3	0.07683363
86	0xbb578557	-0.0032885873
87	0x3b985d5c	0.004649801
88	0xbd312781	-0.043250564
89	0x3a32c50f	0.0006819525
90	0xbc84d226	-0.016213488
91	0xbcf7cac6	-0.030248057
92	0x3c49383c	0.012281474
93	0x3d58c41a	0.052921392
94	0x3c284fb7	0.010272912
95	0xbc62b5fa	-0.013837332
96	0x3b586c90	0.0033023693
97	0xbd112f5d	-0.03544556
98	0x3c8e82ed	0.017396415
99	0xbd1d8434	-0.038456157
100	0xbd08f2ee	-0.0334348
101	0xbb214e72	-0.0024613407
102	0x3cb295a0	0.021799862
103	0x3d6ec1ac	0.05829017
104	0xbb34b204	-0.0027571926
105	0xbb36f08c	-0.0027914373
106	0xbd196f5d	-0.03745972
107	0xbd071e74	-0.032988027
108	0x3d4885cb	0.04895572
109	0xbc126ef8	-0.00893759
110	0xbd726071	-0.059174005
111	0x3bf77292	0.0075514996
112	0x3c0f8b9f	0.008761316
113	0xbc8cd0f6	-0.017189484
114	0xbc73494e	-0.01484902
115	0xbd0442f2	-0.032290407
116	0x3b02afe7	0.0019941272
117	0x3bd00370	0.006348066
118	0x3bc63164	0.0060483683
119	0x3d6f4e89	0.058424506
120	0x3c621e10	0.013801113
121	0xbc139435	-0.009007503
122	0x3d34cce8	0.044140726
123	0x3c8122fa	0.015763748
124	0x3ca7367a	0.020411719
125	0xbd058162	-0.032594092
126	0xbcd47d64	-0.025938697
127	0x3caf4f69	0.02140017
128	0xbbca4532	-0.0061727995
129	0x3ca4df26	0.020125937
130	0xbc75dbfe	-0.0150060635
131	0xbccc90ee	-0.024971452
132	0x3cc2e2da	0.023789812
133	0xbd4827f6	-0.048866235
134	0x3d190a37	0.037363257
135	0xbd3fc9b2	-0.04682321
136	0xbca2dcab	-0.019880613
137	0x3d3da328	0.046298176
138	0xbb5cb1dd	-0.003367535
139	0xbd5896c4	-0.052878156
140	0x3c168c11	0.009188668
141	0x3d250cb5	0.04029532
142	0x3cbdebb8	0.023183689
143	0x3c58646c	0.013207536
144	0x3d476208	0.048677474
145	0x3d121419	0.035663698
146	0xbd514153	-0.05108769
147	0xbcd78a41	-0.026311042
148	0x3d1a3824	0.037651196
149	0xbc1837c6	-0.009290641
150	0x3d02df9d	0.031951535
151	0x3be6a6c2	0.007038922
152	0xbcaa4825	-0.020786354
153	0xbb4e495f	-0.0031476838
154	0x3d21b2bb	0.03947709
155	0xbd4ccac6	-0.049998067
156	0x3bc66aec	0.0060552265
157	0xba3538c0	-0.00069130585
158	0xbcd4d743	-0.025981551
159	0x3d26e7ed	0.040748525
160	0xbca81232	-0.020516489
161	0x3c572b02	0.013132812
162	0xbb95e889	-0.0045748395
163	0xbbf9beca	-0.007621621
164	0x3c2504dd	0.01007196
165	0x3d5c4470	0.053776205
166	0xbcd59941	-0.026074054
167	0xbd5d2cc4	-0.05399777
168	0x3c7638f6	0.015028229
169	0xbcaf3940	-0.021389604
170	0xbcc1d852	-0.02366272
171	0xbb73e8b2	-0.0037217555
172	0xbccb95de	-0.024851736
173	0x3cc78449	0.02435507
174	0xbd05f1b3	-0.032701205
175	0x3c1ed567	0.009694434
176	0xbc95477e	-0.018222567
177	0xbcc141c4	-0.02359093
178	0x3c5c2730	0.013437077
179	0xbd26262e	-0.040563755
180	0xbc6f0456	-0.014588436
181	0x3a43850a	0.0007458484
182	0xbc97e7f1	-0.018543215
183	0x3c865cd0	0.016401678
184	0x3cad0b4f	0.021123556
185	0x3d2ae7c5	0.04172494
186	0x3bce5b0e	0.0062974757
187	0xbcdf419c	-0.027252965
188	0x3cc7515b	0.024330785
189	0xbd54b938	-0.05193445
190	0x3b856d4a	0.004071866
191	0xbcde8c8c	-0.027166627
192	0xbc80c992	-0.015721116
193	0x3d1e98dd	0.03872
194	0xbcb65c5e	-0.022260841
195	0xbd1a1039	-0.037613127
196	0x3d1ebc82	0.038753994
197	0xba39611f	-0.0007071662
198	0x3cb1a7c2	0.021686438
199	0x3d0582e7	0.03259554
200	0xbc8cbc21	-0.01717955
201	0x3a8f1edc	0.0010919231
202	0xbc3212cf	-0.010868742
203	0x3b432427	0.0029776187
204	0xbc17a02a	-0.009254495
205	0xbc1c5f68	-0.009544231
206	0x3d1ef11d	0.038804162
207	0x3c87803b	0.016540637
208	0x3c99e1dd	0.018784458
209	0xbd42259a	-0.04739914
210	0x3c8910a9	0.016731577
211	0x3cb4175b	0.021983793
212	0x3d87fa1b	0.06639501
213	0x3c6ac018	0.014328025
214	0x3cf6e660	0.030139148
215	0x3c9bc1cb	0.019013306
216	0xbd28b756	-0.041190468
217	0x3ac6f253	0.0015178419
218	0x3cc57f38	0.024108514
219	0x3d08b05a	0.033371307
220	0x3c20b33f	0.009808361
221	0xbc46d3ed	-0.012135488
222	0xbbe43e34	-0.006965423
223	0x3c418142	0.011810603
224	0x3cded4d6	0.027201097
225	0x3c7dc577	0.015488974
226	0x3cbe998f	0.023266582
227	0x3c752f53	0.014964896
228	0xbc17df4a	-0.009269545
229	0x3cbdf3a7	0.023187472
230	0xbca3bfab	-0.019988855
231	0xbcbc2423	-0.02296645
232	0xbbe27148	-0.006910477
233	0x3d21efd2	0.03953535
234	0xbd82e4f0	-0.063913226
235	0xbcc4f6ce	-0.024043467
236	0x3d0eb6fb	0.034842473
237	0x3d2c0596	0.041997515
238	0xbaf439b6	-0.0018632922
239	0x3c5d303a	0.013500268
240	0x3ace6a92	0.0015748313
241	0x3ca35a76	0.019940596
242	0xbd41c695	-0.047308523
243	0xbd1a0be3	-0.037608992
244	0xbcdbd413	-0.026834523
245	0xbc1643c2	-0.009171428
246	0xbc0aa255	-0.008461555
247	0x3cb9761a	0.022639323
248	0x3cad1ab0	0.02113089
249	0x3cf4e907	0.029896272
250	0x3c4d3a77	0.012526146
251	0xbc8e419d	-0.017365271
252	0x3c6de9e0	0.014521092
253	0xbd96fdca	-0.07372625
254	0xbd1afd1c	-0.03783904
255	0xbd25514c	-0.040360734

transformer.layers.0.linear1.bias f4 [128]
0	0x3bb2530d	0.0054420293
1	0x3bf13fe9	0.007362355
2	0x3c2e4769	0.010637143
3	0x3c051853	0.008123475
4	0x3bd4d5a1	0.006495193
5	0x3c80f8a2	0.015743557
6	0x3c5886b4	0.0132157095
7	0x3c23cca6	0.009997522
8	0xbb3124d7	-0.0027030015
9	0x3c9271cd	0.01787653
10	0x3c4b70f6	0.012417069
11	0x3c271c0b	0.010199557
12	0xbb7cbcf9	-0.0038564785
13	0xbc87a053	-0.01655594
14	0x3c33caa6	0.010973608
15	0x3bf72a1b	0.007542861
16	0x3adf281f	0.0017025507
17	0x3b7bd6f6	0.0038427687
18	0x3a56c576	0.0008192876
19	0x3c831ece	0.0160059
20	0x3b8e0b76	0.0043348623
21	0xbc88a2f2	-0.01667926
22	0x3bc9ba0a	0.006156211
23	0xbc9eebc4	-0.019399531
24	0xbc2d6877	-0.010583988
25	0x3c560bf3	0.013064372
26	0xbb9652b4	-0.0045874957
27	0x3bc666cd	0.0060547353
28	0x3c638be8	0.013888337
29	0xba75c5c8	-0.000937548
30	0x3cb493e3	0.022043174
31	0xbc51de70	-0.012809381
32	0x3c6d61c1	0.014488638
33	0x3c5433e0	0.012951821
34	0x3c2c7b2f	0.010527416
35	0x3c80ebd3	0.01573745
36	0xb97f712a	-0.00024360852
37	0x3c826452	0.015916977
38	0x3c297f2f	0.010345264
39	0x3ba1acef	0.0049339454
40	0x3bf723b5	0.0075420984
41	0x3b537d29	0.0032270646
42	0x3c96016b	0.018311223
43	0x3bdedd79	0.006801304
44	0x3c00e8bf	0.007867991
45	0x3bf080b6	0.0073395623
46	0xbbb0f318	-0.005400073
47	0x3cabf193	0.020989215
48	0x378f27e0	1.7065497e-05
49	0x3a119278	0.00055531366
50	0x3c53674d	0.012903047
51	0x3bbcd46c	0.0057626273
52	0x3a85900a	0.0010190022
53	0x3c6ad76c	0.014333587
54	0x3c93269d	0.017962748
55	0x3c630dd7	0.01385828
56	0x3c518ea5	0.012790357
57	0x3c015dfa	0.007895941
58	0xbbf4a840	-0.007466346
59	0x3b7bbf8a	0.0038413727
60	0x3bceda7a	0.0063126655
61	0x3cd40d24	0.025885172
62	0xbc4c87d2	-0.012483554
63	0xbbb8518c	-0.0056249555
64	0x3bcb788f	0.00620944
65	0x3c29631b	0.01033857
66	0x3c1dd760	0.009633869
67	0x3b8fc939	0.0043880013
68	0xbbe725b4	-0.007054055
69	0x3c9b5d25	0.018965313
70	0xbc657761	-0.014005513
71	0x3b7b6672	0.0038360623
72	0x3c938902	0.018009666
73	0x3c0aea65	0.008478736
74	0x3bd037f2	0.0063543255
75	0x3b95c985	0.004571142
76	0xbc8ca194	-0.01716689
77	0x3c7d81b9	0.015472823
78	0x3c130644	0.008973662
79	0xbc402949	-0.011728593
80	0x3c802a7d	0.01564526
81	0x3c30094f	0.010744407
82	0x3bd455da	0.006479961
83	0x3b0523c6	0.0020315512
84	0x3c6de9ba	0.014521057
85	0x3b10bf29	0.0022086597
86	0x3c1869a1	0.009302528
87	0x3c9483a0	0.01812917
88	0x3c4ab3ed	0.012371999
89	0x3c098955	0.008394559
90	0xbc944303	-0.01809836
91	0x3c91f6f7	0.017817957
92	0x3c0a809c	0.008453514
93	0xbbda2714	-0.0066574905
94	0x3bbd0e3e	0.00576952
95	0xbb6354d7	-0.003468802
96	0x3c2236e3	0.009900781
97	0xba35db63	-0.0006937293
98	0xbbde0141	-0.006775052
99	0x3c8d1a6b	0.017224511
100	0xba1b47fc	-0.0005923507
101	0x3c3e7b24	0.011626039
102	0x3c9501ee	0.018189397
103	0x3ac3654d	0.0014907509
104	0xbb25cb35	-0.0025298123
105	0xbaf775e4	-0.0018879739
106	0xbc715fb8	-0.014732294
107	0xbbf8c128	-0.0075913854
108	0x3c17bfce	0.009262038
109	0xbb88d431	-0.004175686
110	0x3b315eef	0.0027064641
111	0x3cb3efef	0.021964995
112	0xbb5f0271	-0.0034028555
113	0x3c276d3b	0.010218914
114	0x3c10917f	0.0088237515
115	0xbae1fe44	-0.0017241915
116	0x3c9197d7	0.017772598
117	0x3c88ffb8	0.016723499
118	0x3b4bb562	0.0031083454
119	0x3c47de1d	0.012198952
120	0x3c6a6e55	0.014308532
121	0x3cb8cfa1	0.022559943
122	0x3c3ac51c	0.011399534
123	0x3c614f10	0.01375176
124	0x3c1f9aa6	0.009741461
125	0x3cb9bb36	0.022672277
126	0xbc1a436c	-0.009415489
127	0x3c4a6abc	0.012354549
