marble_model/best_model_v3.0_20250531_004313.pt (torch, 295593 bytes, 30 tensors)

token_embedding.weight f4 [13, 64]
0.041739814 0.012400121 0.018518992 0.016729873 -0.009946816 -0.025083799 -0.022774443 -0.017014325
0.04827585 -0.015521857 -0.0361638 -0.0049193567 0.01681519 0.009925576 -0.010869889 -0.0119512845
0.020973755 -0.028563764 0.020302586 0.03642615 -0.012052949 0.009819067 0.006473735 0.01755783
0.0015198258 -0.018549766 0.021382492 0.011904901 0.01502956 -0.013098603 -0.016597373 -0.0028967792
0.0044367993 0.045723923 -0.0031537332 0.056665797 -0.0005705355 0.021284925 0.011072316 -0.00522902
-0.008512799 0.021583868 -0.036878414 0.03663379 0.03519964 0.022017224 -0.0021444026 -0.004099331
-0.008795872 -0.025941147 0.0024723005 0.024136176 -0.019918637 -0.02663207 -0.009469506 0.00046106055
0.031476274 0.011901414 0.02015496 0.03722183 0.018444741 -0.012249972 0.0023568356 -0.0023895223
-0.0055743544 0.015420223 -0.001582484 -0.0019664515 -0.014062771 -0.07409782 0.023657376 -0.052023895
-0.004410344 0.02192257 0.023370018 0.04717978 0.037185974 0.014432453 -0.004557482 0.0046294364
0.017149108 -0.02638254 0.053581666 -0.00088218733 0.03332966 0.009634075 -0.005120481 0.035310425
0.015930098 -0.01334156 0.02267082 -0.051510155 -0.034077216 0.042754497 -0.02716556 -0.029502105
-0.03237438 0.0029930547 0.03921912 -0.019944197 -0.01305921 -0.001367841 0.025450995 0.0096590975
-0.04765133 -0.026355583 0.010329007 0.018747466 -0.026321568 0.021928336 0.027457906 -0.0040985737
0.0005670121 0.023318186 -0.012808284 -0.036010236 0.0017625822 -0.03230308 0.030999102 -0.023489868
-1.2943352e-05 0.011343339 -0.026348434 0.029891118 0.030252771 -0.013553857 0.02635586 0.0064267116
0.0017325926 0.0024246601 0.0042992183 0.00048354777 0.02240481 -0.0055986634 -0.027150862 0.030210566
-0.027964508 0.024407888 -0.0037700506 0.00798033 -0.007226001 -4.255914e-06 -0.041270833 0.011798607
-0.0057521793 -0.059088588 -0.01984205 0.0030916482 0.0029388478 0.016164081 0.0074578 0.018680668
-0.03378358 0.0061333594 0.00286735 0.016763771 -0.0054316423 -0.026997112 0.042828653 -0.0018292657
-0.029108992 0.013313262 -0.015486451 0.024048371 -0.0059788125 -0.042119935 0.020709965 -0.030518932
0.051583562 0.007368534 -0.009524829 -0.023570234 -0.013465803 0.033013757 -0.02018673 -0.0015180224
-0.006076961 0.004025698 -0.010689297 -0.00054847373 -0.015820479 0.010898458 0.027097698 -0.004693041
-0.0061616865 -0.018708019 -0.0146769155 -0.0007091599 0.010274921 0.007935839 -0.01475778 0.010943306
0.02191767 -0.014885562 -0.016635021 -0.0020781083 0.039303645 0.0024805972 -0.007340597 7.937057e-05
-0.014095779 0.025094 -8.6349624e-05 -0.0014476895 0.004211515 -0.018811513 0.007132991 -0.0009660308
-0.016305942 0.028938696 0.014662119 0.015520881 -0.021392882 0.009172289 0.007778454 0.005975953
0.010060365 0.00030230187 0.029965015 0.02444913 0.008603928 0.0031923272 0.001744963 0.032269537
-0.0027101962 -0.013671673 -0.014284516 0.0110162655 -0.012097219 0.015319857 0.0011948382 -0.014846196
-0.0035365738 0.018972285 0.019452866 -0.00021846386 0.011672879 -0.011455477 -0.030401358 -0.03260207
-0.0024538306 0.021463094 0.00068101805 0.024279846 0.00048289442 -0.003691754 -0.0015439896 0.0102465125
0.015804796 -0.02094364 -0.005883388 1.6413582e-05 -0.04005113 -0.0013662488 -0.0010553813 0.026224561
00000000: 5ef7 2a3d e129 4b3c 24b5 973c 160d 893c
00000010: f8f7 22bc 8a7c cdbc 7891 babc a061 8bbc
00000020: e6bc 453d 634f 7ebc 7e20 14bd 8e32 a1bb
00000030: 02c0 893c e29e 223c 9e17 32bc 52cf 43bc
00000040: 27d1 ab3c 8efe e9bc 9c51 a63c 9633 153d
00000050: bb79 45bc 27e0 203c a021 d43b 70d5 8f3c
00000060: e434 c73a aef5 97bc 562a af3c c60c 433c
00000070: 8b3e 763c 869b 56bc 37f7 87bc e4d7 3dbb
00000080: 9262 913b 0249 3b3d ddae 4ebb 651a 683d
00000090: fd8f 15ba b95d ae3c a968 353c 3358 abbb
000000a0: 4479 0bbc a7d0 b03c d20d 17bd 500d 163d
000000b0: 7f2d 103d 775d b43c 1b89 0cbb ae53 86bb
000000c0: 901c 10bc 8782 d4bc 5206 223b 3bb9 c53c
000000d0: 692c a3bc 802b dabc fd25 1bbc 80ba f139
000000e0: 44ed 003d 26fe 423c 041c a53c eb75 183d
000000f0: 6d19 973c 1bb4 48bc 2475 1a3b 8899 1cbb
00000100: 13a9 b6bb 1aa5 7c3c 5a6b cfba 95df 00bb
00000110: 8967 66bc 99c0 97bd 1dcd c13c 0217 55bd
00000120: a684 90bb f696 b33c 7b72 bf3c 963f 413d
00000130: 5250 183d 1876 6c3c ee56 95bb 87b2 973b
00000140: 497c 8c3c 3220 d8bc 7378 5b3d 9742 67ba
00000150: ae84 083d 3dd8 1d3c b5c9 a7bb aaa1 103d
00000160: d67f 823c 8f96 5abc 28b8 b93c 50fc 52bd
00000170: 8d94 0bbd 571f 2f3d 4f8a debc 66ae f1bc
00000180: ff9a 04bd 2027 443b 3aa4 203d 0362 a3bc
00000190: 4cf6 55bc 2149 b3ba 9b7e d03c 3141 1e3c
000001a0: 0a2e 43bd aae7 d7bc ff3a 293c 4994 993c
000001b0: 54a0 d7bc 0ea3 b33c 67ef e03c 544d 86bb
000001c0: 8aa3 143a c805 bf3c d6d9 51bc 787f 13bd
000001d0: 7206 e73a 3c50 04bd d4f1 fd3c d36d c0bc
000001e0: 4627 59b7 6ad9 393c acd8 d7bc 38de f43c
000001f0: a9d4 f73c ff10 5ebc 3fe8 d73c 2a97 d23b
00000200: 2918 e33a 0ce7 1e3b 75e0 8c3b af84 fd39
00000210: 4b8a b73c fe74 b7bb 7c6b debc 267c f73c
00000220: d315 e5bc 0df3 c73c f412 77bb eebf 023c
00000230: 17c8 ecbb 06ce 8eb6 9b0b 29bd f24e 413c
00000240: c77c bcbb e006 72bd cb8b a2bc 409d 4a3b
00000250: af99 403b 896a 843c 9060 f43b 3308 993c
00000260: a760 0abd 59fa c83b 26ea 3b3b 2d54 893c
00000270: ebfb b1bb 0c29 ddbc 196d 2f3d f9c3 efba
00000280: fb75 eebc de1f 5a3c e2ba 7dbc 1701 c53c
00000290: eae9 c3bb f485 2cbd f2a7 a93c d702 fabc
000002a0: 4949 533d be73 f13b 070e 1cbc 5d16 c1bc
000002b0: ac9f 5cbc 6f39 073d a45e a5bc 61f8 c6ba
000002c0: 3e21 c7bb 01ea 833b 2922 2fbc 73c7 0fba
000002d0: f399 81bc 728f 323c fefb dd3c 15c8 99bb
000002e0: f9e7 c9bb 8f41 99bc 7277 70bc eae6 39ba
000002f0: 2458 283c 5205 023c 9eca 71bc 8d4b 333c
00000300: af8c b33c 92e2 73bc 2b46 88bc df30 08bb
00000310: dcfc 203d 8491 223b 6489 f0bb c073 a638
00000320: fbf1 66bc ef91 cd3c 9a16 b5b8 66c0 bdba
00000330: c000 8a3b 9a1a 9abc debb e93b 3b3d 7dba
00000340: 0a94 85bc d810 ed3c 6239 703c 4b4b 7e3c
00000350: 2040 afbc 5e47 163c 67e2 fe3b edd1 c33b
00000360: 3bd4 243c 457e 9e39 3179 f53c 8b49 c83c
00000370: 7df7 0c3c 5d36 513b 3eb7 e43a 102d 043d
00000380: 8c9d 31bb 27ff 5fbc 9a09 6abc 917d 343c
00000390: 6a33 46bc 2300 7b3c 1e9c 9c3a 763d 73bc
000003a0: ddc5 67bb c46b 9b3c 9e5b 9f3c 7213 65b9
000003b0: 9a3f 3f3c c1af 3bbc 450c f9bc c089 05bd
000003c0: 72d0 20bb 5fd3 af3c 5986 323a 87e6 c63c
000003d0: fe2c fd39 5bf1 71bb b25f caba fde0 273c
000003e0: 0f79 813c ff91 abbc 70c9 c0bb e6af 8937
000003f0: a70c 24bd b413 b3ba b854 8aba e4d4 d63c

position_embedding.weight f4 [30, 64]
-0.026887987 0.009661706 0.04564678 0.005168042 -0.030963989 -0.013463376 0.03083695 -0.011705927
-0.05676059 0.053368416 0.027925177 0.0034240389 -0.0013895235 0.04051242 -0.038398836 0.029752888
0.02914226 -0.012646814 0.010047152 -0.03573053 0.012990228 0.02448579 -0.033720415 0.020535333
-0.021130843 -0.03841786 -0.03750293 0.015430922 -0.020052757 0.01032283 -0.035103254 -0.026565066
-0.00237305 0.018964527 0.019684134 -0.016974533 -0.012711386 0.03650192 0.0030696618 0.0330145
-0.020527443 -0.008649678 0.061393365 0.01404423 -0.021252261 0.03923224 0.003642092 0.03640745
-0.02380208 0.0056684925 0.025683513 -0.004251648 -0.04529035 -0.033114027 0.022451371 -0.02339865
-0.008173027 0.056431 -0.003520164 0.033933345 0.035957646 -0.0064168237 0.0035004371 -0.03715501
0.0197717 -0.013953919 -0.044291213 0.015398628 -0.010984324 0.030026736 -0.011645572 -0.025325378
-0.0061819786 -0.026602803 0.031631403 -0.0015098245 -0.024935776 0.026480163 0.016086513 -0.019319603
-0.035607815 -0.0122030135 -0.0038067582 0.019062618 -0.01904529 -0.016977355 0.0139223 -0.01386443
0.02604383 -0.0013196556 0.0068076113 0.026440691 -0.030438272 -0.020089014 -0.0105850035 0.010912003
0.0009383086 -0.045542315 -0.027350599 0.0013483836 0.027539188 0.0069819125 -0.02635345 -0.017367484
-0.011775714 0.02295224 -0.011368882 -0.013086034 -0.027011659 -0.013219301 -0.023010865 -0.027947482
0.030466214 0.017283365 0.045602795 -0.0002265414 0.03686839 0.0006279757 -0.011140446 0.043309234
-0.011412235 0.02868332 0.009883047 0.015799914 -0.021653488 0.0038486107 0.01730757 0.0072708917
-0.007876961 -0.024039658 0.0030361805 0.043257896 -0.022493118 0.01459213 -0.0049836207 -0.013573636
0.04684926 -0.041460313 0.0121626975 -0.023122864 -0.024193013 0.0074950573 0.036858253 -0.045582205
0.010601102 -0.026401052 0.034149837 0.015599052 -0.015921336 -0.019576801 0.052620757 -0.008381686
0.005361186 -0.023076497 -0.026307393 -0.005525794 -0.03535335 -0.02684319 -0.020739784 -0.02637596
0.0043732803 -0.037331223 0.014236679 0.02442686 0.057848405 -0.008336819 -0.01633544 0.00033048625
0.002646172 0.016642263 -0.019407906 -0.022194935 -0.048182394 0.0001869855 0.032607015 -0.0047351937
0.024368227 0.006315678 0.048227005 0.008603533 0.016506236 0.017170593 -0.011292457 0.030237217
-0.014414597 0.049282618 0.035855215 0.0039216853 0.027294677 0.019280784 0.052273583 0.012661505
0.036546044 0.038021002 0.040667217 -0.018209947 -0.013026275 -0.05317345 -0.03348916 0.038404226
-0.03138306 0.024407934 0.023690335 0.023534592 0.002262198 -0.01814958 -0.034525827 0.039430864
-0.037401803 0.00041490438 0.009712239 0.03516416 0.031123439 0.032709755 -0.050516307 0.025574408
-0.030632077 -0.022310007 0.010943387 0.019109922 0.029144416 -0.033991747 0.0124610625 0.025399419
-0.03312354 -0.018241689 -0.027182003 0.03277241 -0.022367338 0.04035356 0.038601566 -0.029482696
0.04087774 -0.042645074 0.019552307 0.037471555 0.02810921 -8.352211e-05 -0.02466765 0.019756055
-0.014713736 -0.036858052 -0.025706045 -0.0068272315 0.01021494 -0.033267558 0.035576407 0.029024139
0.043150336 -0.027724434 -0.031289425 0.027167458 -0.0022148332 -0.037156235 -0.04074616 0.013706681
00000000: 3244 dcbc 224c 1e3c 1ef8 3a3d ae58 a93b
00000010: 31a8 fdbc 7e95 5cbc c59d fc3c 37ca 3fbc
00000020: cb7d 68bd d798 5a3d 57c3 e43c d765 603b
00000030: ac20 b6ba 5af0 253d 1948 1dbd 54bc f33c
00000040: c0bb ee3c 9534 4fbc cf9c 243c 2d5a 12bd
00000050: f7d4 543c 6c96 c83c 6b1e 0abd b739 a83c
00000060: 971a adbc 0c5c 1dbd ac9c 19bd fad1 7c3c
00000070: ae45 a4bc 1621 293c 6ec8 0fbd fb9e d9bc
00000080: 2c85 1bbb 7f5b 9b3c 9f40 a13c 2d0e 8bbc
00000090: 6b43 50bc 0a83 153d 612c 493b 363a 073d
000000a0: 2b29 a8bc 61b7 0dbc 9c77 7b3d c519 663c
000000b0: 3919 aebc fcb1 203d 2ab0 6e3b fa1f 153d
000000c0: 94fc c2bc c3be b93b 3b66 d23c 6951 8bbb
000000d0: 6082 39bd 93a2 07bd f0eb b73c 87ae bfbc
000000e0: 29e8 05bc 3124 673d 8db2 66bb b1fd 0a3d
000000f0: 5348 133d 3844 d2bb 9767 653b da2f 18bd
00000100: 43f8 a13c fa9e 64bc b46a 35bd 874a 7c3c
00000110: 98f7 33bc a1fa f53c 12cd 3ebc 2b77 cfbc
00000120: 3292 cabb 1fee d9bc ee8f 013d 4ee5 c5ba
00000130: 1d46 ccbc edec d83c ddc7 833c 2544 9ebc
00000140: 80d9 11bd 26ef 47bc ce7a 79bb 3529 9c3c
00000150: de04 9cbc 1814 8bbc 5c1a 643c a227 63bc
00000160: df59 d53c 4bf8 acba 6212 df3b 269a d83c
00000170: af59 f9bc b791 a4bc b96c 2dbc 42c8 323c
00000180: d3f8 753a 948a 3abd 5d0e e0bc 3fbc b03a
00000190: dd99 e13c 87c8 e43b 31e3 d7bc 4146 8ebc
000001a0: edee 40bc 5606 bc3c 8c44 3abc ce66 56bc
000001b0: 8e47 ddbc c495 58bc 4881 bcbc 1ef2 e4bc
000001c0: 4894 f93c d895 8d3c ffc9 3a3d be8b 6db9
000001d0: 4f03 173d bc9e 243a 6b86 36bc 0665 313d
000001e0: 62fa 3abc 48f9 ea3c 81ec 213c d26e 813c
000001f0: a862 b1bc f938 7c3b 9bc8 8d3c a940 ee3b
00000200: 5e0e 01bc d1ee c4bc a8fa 463b 312f 313d
00000210: 7d43 b8bc d413 6f3c a44d a3bb f563 5ebc
00000220: 02e5 3f3d 4ad2 29bd 0d46 473c 296c bdbc
00000230: 6d30 c6bc 1999 f53b aef8 163d 68b4 3abd
00000240: 3fb0 2d3c 0547 d8bc b3e0 0b3d 2b93 7f3c
00000250: 766d 82bc 875f a0bc dd88 573d 5753 09bc
00000260: e3ac af3b ec0a bdbc 9a82 d7bc b811 b5bb
00000270: adce 10bd 40e6 dbbc 7be6 a9bc 6612 d8bc
00000280: bc4d 8f3b a0e8 18bd f640 693c d71a c83c
00000290: 73f2 6c3d 2797 08bc e7d1 85bc 1d45 ad39
000002a0: 666b 2d3b 5b55 883c 54fd 9ebc 27d2 b5bc
000002b0: e75a 45bd 8a11 4439 ef8e 053d af29 9bbb
000002c0: e09f c73c bff3 ce3b ae89 453d d5f5 0c3c
000002d0: 1638 873c 58a9 8c3c ff03 39bc 0ab4 f73c
000002e0: 342b 6cbc 92dc 493d ebdc 123d 7b81 803b
000002f0: 1699 df3c bcf2 9d3c d31c 563d 3372 4f3c
00000300: 4eb1 153d e9bb 1b3d ab92 263d 072d 95bc
00000310: 286c 55bc 67cc 59bd ee2b 09bd c04d 1d3d
00000320: 868b 00bd 26f3 c73c 3c12 c23c 9ecb c03c
00000330: 6241 143b 6eae 94bc f46a 0dbd 4282 213d
00000340: a232 19bd 8687 d939 1520 1f3c 4b08 103d
00000350: 95f6 fe3c aafa 053d 30ea 4ebd 6c81 d13c
00000360: 1ff0 fabc 7ac3 b6bc e44b 333c 698c 9c3c
00000370: 45c0 ee3c ee3a 0bbd 7c29 4c3c 7112 d03c
00000380: 8dac 07bd 986f 95bc cbac debc 5d3c 063d
00000390: b53b b7bc c649 253d ad1c 1e3d b285 f1bc
000003a0: 6b6f 273d 9aac 2ebd 292c a03c c67b 193d
000003b0: 4945 e63c 9728 afb8 d013 cabc 73d7 a13c
000003c0: e211 71bc 78f8 16bd 7c95 d2bc f8b6 dfbb
000003d0: 905c 273c 9043 08bd 91b8 113d 08c4 ed3c
000003e0: 68be 303d 5a1e e3bc 5729 00bd 4a8e de3c
000003f0: bc26 11bb 2331 18bd 72e5 26bd fd91 603c

transformer.layers.0.self_attn.in_proj_weight f4 [192, 64]
-0.04978327 -0.094071195 -0.1089983 -0.042332713 0.021763885 0.09603128 -0.028327923 0.019946085
0.07406606 -0.02903189 0.052673977 0.025818586 0.06597969 -0.08124374 -0.10688241 0.14478496
-0.12354351 0.12588033 0.11760941 0.13343558 -0.13391115 0.12611541 -0.084902026 -0.04556603
0.064458765 -0.008978512 -0.09842166 0.070373714 -0.124697946 0.107837036 0.10573801 -0.008775316
-0.11688996 0.12824023 -0.016058594 -0.13340598 0.11590676 0.031885307 -0.15450066 0.062083926
-0.119043775 -0.08164914 -0.098084785 -0.0064821634 0.05881657 0.12652475 -0.04068249 -0.040483892
-0.036802392 0.101902716 -0.08440329 0.1701719 -0.17843366 -0.019402927 -0.108613044 0.04400052
0.15382756 -0.041074403 -0.12523253 0.1482602 0.11509249 0.017125167 0.036668424 -0.05374518
0.040301353 0.11124325 0.055777747 -0.03578116 -0.017891146 -0.12285703 -0.09961464 -0.15237507
-0.0573719 -0.066825956 -0.12009238 -0.092407964 0.04910907 -0.11650231 -0.16699453 -0.087697335
0.10641899 0.11350659 0.14756928 0.049768176 0.14480525 -0.03539011 -0.17169462 0.18038937
0.027324075 -0.10099238 0.032673314 -0.081897885 -0.06147293 -0.08384408 0.095483005 -0.061405726
0.17269637 0.080237366 -0.15437257 0.11098275 -0.12336178 0.04523249 0.06802478 -0.0711041
0.10477209 0.055790223 0.096499994 0.034204885 0.11642636 -0.015111912 -0.088799044 0.11028419
-0.07912476 0.13042603 -0.062488806 0.12006805 -0.08818214 -0.056343157 0.03376089 0.07934374
0.03922164 -0.028837781 -0.13805999 -0.0692908 -0.070946604 0.093967356 -0.15938072 0.08886377
-0.039409857 -0.04433026 0.119877316 0.06235449 0.11157975 -0.11702254 -0.09894529 -0.06850624
-0.0020294723 -0.14408895 -0.051297005 -0.076693624 -0.0006237764 0.10979557 0.023460547 -0.024890658
-0.11617731 -0.11433613 -0.111690454 0.1254886 -0.12701036 -0.01589529 0.1579789 -0.115299135
0.11876793 0.08676801 0.12466597 0.011039788 -0.02573311 0.014749293 0.013993996 -0.13967837
0.15324731 -0.12172916 0.05563264 0.05892513 0.17283317 -0.08511212 0.03043769 -0.13937028
-0.08883789 -0.04068369 -0.13940382 -0.039402675 0.016232196 0.08040043 -0.035953436 -0.0925267
-0.08222889 -0.14595972 0.026483051 -0.08092907 0.14364797 0.11607408 -0.008143274 0.09161498
0.075683855 0.010563844 -0.031116586 -0.074733905 0.14698796 -0.0071146134 0.0617609 -0.005224525
0.084483206 -0.13426876 -0.0980274 0.024249045 0.01998638 0.10380175 0.0047196695 0.076717265
-0.037038695 0.027400713 0.008281493 0.14527936 -0.0121523915 0.059340563 -0.016445737 -0.020785337
0.14319341 0.09170822 -0.14624827 -0.11662697 -0.11415184 -0.098286875 -0.14275509 0.028124252
0.12158618 -0.120541446 0.02389144 0.10714473 -0.14848372 0.1665487 -0.09505778 -0.107508734
0.07943188 -0.020180592 -0.032456584 0.12500012 -0.08666208 -0.11398399 -0.121087514 -0.032635476
0.103832446 -0.120857954 0.08320794 0.1484883 0.07386133 -0.11816832 -0.109567344 0.105377555
-0.12883107 0.134469 -0.025575416 0.13773382 -0.058761362 -0.05231534 0.11237186 0.068484016
-0.051186334 0.16251597 0.09189753 0.07576017 -0.02809545 0.11582877 0.026930189 0.07422147
00000000: 8be9 4bbd 66a8 c0bd 803a dfbd 1165 2dbd
00000010: 2d4a b23c 0cac c43d f60f e8bc f965 a33c
00000020: f2af 973d 49d4 edbc abc0 573d 8081 d33c
00000030: 5c20 873d 1e63 a6bd 2ae5 dabd 8242 143e
00000040: 6104 fdbd c6e6 003e 34dd f03d 56a3 083e
00000050: 0120 09be 6624 013e 1de1 adbd 72a3 3abd
00000060: f502 843d 9c1a 13bc 4c91 c9bd 1820 903d
00000070: a361 ffbd aad9 dc3d 2b8d d83d 58c6 0fbc
00000080: 0164 efbd 6851 033e 508d 83bc 949b 08be
00000090: 8660 ed3d 2b9a 023d 6c35 1ebe b74b 7e3d
000000a0: 39cd f3bd aa37 a7bd ade0 c8bd 5468 d4bb
000000b0: a5e9 703d b48f 013e afa2 26bd 70d2 25bd
000000c0: 1bbe 16bd 5fb2 d03d a2db acbd 8b41 2e3e
000000d0: 50b7 36be e3f2 9ebc 8470 debd e439 343d
000000e0: f984 1d3e a23d 28bd f53c 00be 86d1 173e
000000f0: 9db5 eb3d 144a 8c3c a131 163d e823 5cbd
00000100: 0813 253d 80d3 e33d 3577 643d 448f 12bd
00000110: 7490 92bc 779c fbbd c302 ccbd 3608 1cbe
00000120: ccfe 6abd 0cdc 88bd fef2 f5bd 6340 bdbd
00000130: 9826 493d c398 eebd 9d00 2bbe a99a b3bd
00000140: 33f2 d93d 2576 e83d 671c 173e b7d9 4b3d
00000150: d447 143e 38f5 10bd b7d0 2fbe feb7 383e
00000160: bdd6 df3c 18d5 cebd 74d4 053d 14ba a7bd
00000170: 0acb 7bbd 72b6 abbd 988c c33d 9284 7bbd
00000180: 51d7 303e 7d53 a43d d813 1ebe ed4a e33d
00000190: 1aa5 fcbd b445 393d 9350 8b3d 079f 91bd
000001a0: c092 d63d 4a84 643d caa1 c53d 6c1a 0c3d
000001b0: f270 ee3d f497 77bc 46dc b5bd addc e13d
000001c0: 2a0c a2bd 678e 053e 43f4 7fbd 3de6 f53d
000001d0: d698 b4bd 15c8 66bd dc48 0a3d f97e a23d
000001e0: dfa6 203d 363d ecbc 995f 0dbe 56e8 8dbd
000001f0: 744c 91bd f571 c03d b334 23be 35fe b53d
00000200: 3b6c 21bd a693 35bd 3d82 f53d 6c67 7f3d
00000210: ed83 e43d 83a9 efbd d4a3 cabd 004d 8cbd
00000220: e500 05bb 0e8c 13be cf1c 52bd 8c11 9dbd
00000230: ed84 23ba 80dc e03d 5530 c03c 7ee7 cbbc
00000240: 5fee edbd 1029 eabd f7bd e4bd 1580 003e
00000250: 010f 02be d736 82bc 39c5 213e f421 ecbd
00000260: 9a3c f33d 6db3 b13d df50 ff3d 3ae0 343c
00000270: 3ece d2bc 05a7 713c 1347 653c d907 0fbe
00000280: ddec 1c3e 234d f9bd 0ddf 633d 7a5b 713d
00000290: 2efb 303e 434f aebd 7658 f93c 15b7 0ebe
000002a0: a4f0 b5bd f1a3 26bd e0bf 0ebe b364 21bd
000002b0: 62f9 843c fba8 a43d e943 13bd a37e bdbd
000002c0: 9f67 a8bd 7776 15be fcf2 d83c 24be a5bd
000002d0: 7418 133e 3fb8 ed3d 5e6b 05bc a2a0 bb3d
000002e0: 2300 9b3d f913 2d3c 36e8 febc 170e 99bd
000002f0: 0384 163e b421 e9bb fff8 7c3d 7e32 abbb
00000300: 8805 ad3d c07d 09be 97c2 c8bd efa5 c63c
00000310: 7aba a33c 0396 d43d 75a7 9a3b f11d 9d3d
00000320: e3b5 17bd 7677 e03c 19af 073c 1dc4 143e
00000330: d31a 47bc 170f 733d 36b9 86bc 0346 aabc
00000340: 4ba1 123e 85d1 bb3d 1bc2 15be 1fda eebd
00000350: 71c8 e9bd a14a c9bd 642e 12be d564 e63c
00000360: 2d02 f93d 6fde f6bd fbb7 c33c b26e db3d
00000370: 1e0c 18be be8b 2a3e a7ad c2bd 8a2d dcbd
00000380: 2ead a23d c551 a5bc 32f1 04bd 0800 003e
00000390: e37b b1bd 7070 e9bd bbfc f7bd c7ac 05bd
000003a0: 1ba6 d43d 6084 f7bd ed68 aa3d 510d 183e
000003b0: 9c44 973d 3b02 f2bd d864 e0bd 30d0 d73d
000003c0: 4bec 03be 3eb2 093e 8983 d1bc 180a 0d3e
000003d0: c1af 70bd 9c48 56bd 3823 e63d 5941 8c3d
000003e0: c3a8 51bd 966a 263e c634 bc3d 2628 9b3d
000003f0: 6e28 e6bc a237 ed3d b39c dc3c 6d01 983d

transformer.layers.0.self_attn.in_proj_bias f4 [192]
0.009243593 0.0015963907 -0.0122478455 -0.005617321 0.014198826 -0.0046683513 -0.0074706515 0.007843578
0.0047272374 -0.0059195035 0.015979424 0.013466475 0.012249453 0.010495833 -0.005011341 0.002527051
0.004062222 0.006688575 0.0007682454 0.019551156 0.0071244426 0.0072102603 0.0021304719 0.016911114
0.005557337 -0.01978021 -0.0015168109 0.004497998 0.0042454535 -0.0016750166 0.0034016038 0.0072833407
-0.0022420483 -0.0042023314 0.0013721365 -0.011378084 0.004410375 0.0027064611 0.0018750913 0.002814448
0.004269893 0.00030810345 0.0052779634 -0.005715039 -0.00027397453 7.122782e-05 -0.008216136 -0.004914774
-0.011103832 0.008008914 -0.009271273 0.0057335016 -0.0075285216 -0.0032404943 0.00077522855 0.002574563
-0.0040529068 -0.0026597888 0.0033434432 0.003914244 0.0024605766 0.0060750027 0.0046543516 0.0018931853
1.0271191e-07 1.2170496e-07 -1.4155262e-07 1.2777882e-07 -3.70867e-07 1.9304399e-07 1.1980299e-07 -4.2276986e-07
8.421418e-08 -2.492894e-08 1.05428796e-07 -1.10828644e-07 3.5244813e-08 2.4976487e-07 1.0648075e-07 1.457866e-07
2.0031084e-07 -8.249739e-08 2.1666936e-07 5.3962845e-07 1.5290537e-07 2.359649e-07 1.3726506e-07 6.055066e-07
-2.293155e-07 -3.658749e-07 1.8794978e-08 2.6307745e-07 4.7259412e-08 5.4653803e-08 5.977116e-09 1.7914196e-07
-6.4417045e-09 7.433421e-09 1.7591468e-07 -5.2820145e-08 6.282263e-08 7.01989e-08 1.7143202e-07 1.2315247e-08
-7.8664115e-08 1.09420654e-07 -3.3914425e-08 1.1194919e-07 -8.353963e-09 5.432288e-07 -2.438245e-07 -5.813198e-08
-4.5173504e-08 4.9893224e-08 -5.1344253e-09 -1.6634971e-07 -1.7236829e-07 -4.9251778e-08 -1.9449049e-08 -8.6831825e-08
-2.1497772e-07 5.6245113e-08 -1.7491048e-07 -7.988593e-08 7.493419e-08 5.5655743e-08 2.216829e-09 2.0472078e-07
0.001967835 -0.0017072873 0.0030132981 -0.0035574601 0.00023049177 -0.0015805444 -0.0058103846 0.0057457765
0.002183527 -0.0030053488 -0.0054074926 0.018765101 0.0056267194 0.012208965 -0.011829866 0.0048115095
-0.0066208793 -0.008053454 0.0023974087 -0.0020726698 -0.016502386 -0.0071967384 0.0012172669 -0.0036548332
-0.0021533552 -0.02197966 0.008609263 0.0015158902 -0.00036356298 0.009232555 -0.0069370964 -0.00089349196
0.0035317405 0.010359263 -0.018548377 -0.00572122 0.0037061225 0.00467006 0.0011700506 -0.006545895
0.0015456025 -0.0052340324 -0.015540923 0.0070008105 -0.00045749857 0.014751422 -0.006587972 -0.002540572
-0.0068104584 -0.00017096671 -0.021753293 -0.015392563 0.0038033486 -0.010223984 -0.0020541518 0.015134326
-0.011633925 0.0008725895 -0.005801706 0.013766107 0.017203746 0.016969372 0.013744083 0.006213128
00000000: 7072 173c fc3d d13a 30ab 48bc 8111 b8bb
00000010: 31a2 683c f8f8 98bb 5ecc f4bb 5a82 003c
00000020: f1e6 9a3b 65f8 c1bb 48e7 823c 7da2 5c3c
00000030: eeb1 483c b7f6 2b3c 2d36 a4bb e19c 253b
00000040: 631c 853b d52b db3b 1364 493a bf29 a03c
00000050: 2874 e93b 0c44 ec3b 639f 0b3b 2d89 8a3c
00000060: 521a b63b 1b0a a2bc bacf c6ba f163 933b
00000070: 721d 8b3b 3b8c dbba 71ed 5e3b 17a9 ee3b
00000080: 54ef 12bb b6b3 89bb 43d9 b33a 256b 3abc
00000090: e884 903b e25e 313b a0c5 f53a 9a72 383b
000000a0: 75ea 8b3b f288 a139 c4f2 ac3b 3945 bbbb
000000b0: 3da4 8fb9 2560 9538 f99c 06bc 1d0c a1bb
000000c0: d9ec 35bc d237 033c 8ae6 17bc 19e0 bb3b
000000d0: d1b1 f6bb 795e 54bb b538 4b3a 00ba 283b
000000e0: 3fce 84bb da4f 2ebb ab1d 5b3b 0f43 803b
000000f0: a041 213b d110 c73b 8883 983b c224 f83a
00000100: 7892 dc33 01ae 0234 b0fd 17b4 9333 0934
00000110: 931b c7b4 8747 4f34 32a3 0034 0cf9 e2b4
00000120: 3cd9 b433 5223 d6b2 1868 e233 b100 eeb3
00000130: 1560 1733 6c17 8634 69aa e433 8489 1c34
00000140: 0615 5734 6b29 b1b3 9fa5 6834 fcda 1035
00000150: 4f2e 2434 8a5d 7d34 2263 1334 198a 2235
00000160: c439 76b4 776d c4b4 9872 a132 173d 8d34
00000170: 46fa 4a33 7ebc 6a33 455f cd31 2b5a 4034
00000180: d555 ddb1 1069 ff31 0fe3 3c34 5ddc 62b3
00000190: 1be9 8633 41c0 9633 e012 3834 0793 5332
000001a0: 0eee a8b3 a4fa ea33 4ea9 11b3 b868 f033
000001b0: 1e85 0fb2 66d2 1135 fce6 82b4 caac 79b3
000001c0: cb04 42b3 2e4a 5633 e26a b0b1 dc9d 32b4
000001d0: 3c14 39b4 e788 53b3 e910 a7b2 4d78 bab3
000001e0: a0d4 66b4 2892 7133 07cf 3bb4 c18d abb3
000001f0: 82eb a033 230a 6f33 de56 1831 38d1 5b34
00000200: cbf6 003b 0ec7 dfba c17a 453b 4724 69bb
00000210: 2ab0 7139 452a cfba 0a65 bebb 1147 bc3b
00000220: 8119 0f3b 63f5 44bb 5631 b1bb 45b9 993c
00000230: 5860 b83b 1c08 483c 0ed2 41bc dea9 9d3b
00000240: f6f3 d8bb a2f2 03bc d81d 1d3b a1d5 07bb
00000250: 0330 87bc 9ed2 ebbb b38c 9f3a ed85 6fbb
00000260: 4e1f 0dbb b00e b4bc de0d 0d3c d6b0 c63a
00000270: 999c beb9 2444 173c 9550 e3bb 3b39 6aba
00000280: c674 673b e6b9 293c c4f2 97bc 1279 bbbb
00000290: 6be2 723b 4d07 993b 625c 993a f27e d6bb
000002a0: d095 ca3a 3f82 abbb 5b9f 7ebc 0e67 e53b
000002b0: 6bdc efb9 f3af 713c eadf d7bb ba7f 26bb
000002c0: 442a dfbb 8745 33b9 f633 b2bc 1731 7cbc
000002d0: 9a41 793b 7f82 27bc f39e 06bb f7f5 773c
000002e0: 389c 3ebc 7dbe 643a 3d1c bebb 3d8b 613c
000002f0: dfee 8c3c 5a03 8b3c dd2e 613c 7f97 cb3b

transformer.layers.0.self_attn.out_proj.weight f4 [64, 64]
0.0051009892 -0.03512414 -0.062870085 -0.019556705 -0.026263755 0.031902097 0.011358454 0.045381818
0.019561023 0.008667145 0.019320013 -0.028871564 -0.02762888 -0.04407135 0.012790234 0.03823658
-0.0054918346 0.004133376 -0.009222361 -0.006579828 0.03562729 0.0036184115 -0.031102221 0.00991445
0.0039673257 0.018844137 0.016248936 -0.026753206 -0.0009275827 0.0005501924 0.0026855187 -0.0025841084
-0.018642388 -0.016021643 0.0352681 -0.004067111 0.011663372 0.02592957 -0.029419445 -0.011858578
0.016487174 -0.013932168 -0.010937766 -0.028610103 0.009191076 0.01414499 0.04161673 -0.0060292087
0.03031357 -0.026395367 0.0027521334 0.024146136 -0.041279584 0.008690723 -0.003752879 -0.030982204
-0.013246259 0.0034034317 0.0057863705 0.013780707 0.012794408 -0.033937536 -0.01550968 -0.021779038
-0.056185603 -0.010714436 -0.026834855 0.020888727 -0.008554343 -0.04340155 0.004591076 0.004432133
0.027940704 0.013158575 0.037391473 -0.02736275 -0.003440814 -0.0018111162 0.0031164098 -0.024961988
0.014384969 -0.026388953 -0.03483647 -0.03596417 -0.0032695301 0.01056324 -0.031417593 -0.002475803
0.008899178 0.004691978 -0.025282037 -0.021940136 0.022062913 0.0073061986 0.009202884 -0.016857851
0.006341239 0.0031080202 -0.013843176 0.027719477 0.013338903 -0.018835146 0.018559948 -0.0068854596
-0.0063943267 0.016048191 -0.014588495 9.5232215e-05 0.005365119 -0.01786528 0.031497266 -0.037382316
-0.026029771 -0.019811084 -0.029308448 0.0021592237 0.019632649 0.04874301 -0.009500861 -0.037985157
-0.027971754 0.03369419 -0.043670263 0.010725488 0.0021609794 -0.021093119 -0.010982863 -0.014103735
0.009419326 0.023788009 -0.021903235 -0.0039975126 0.029072935 0.009130081 0.002517128 -0.0064760395
-0.030057482 0.03326306 -0.012430519 0.020300405 -0.017174667 0.014068912 0.01728333 -0.006563371
-0.017177468 -0.0004676091 -0.0020167297 0.013657564 0.016947038 0.043310247 -0.009262488 0.012295639
-0.0043253126 0.022117691 0.08430755 0.015416845 0.02968378 -0.00648005 -0.024024587 0.028554184
0.043706853 0.011237526 0.0037584768 -0.008836008 -0.0011664939 0.027582366 -0.0016684536 -0.029606612
-0.011840935 0.0076895887 -0.007988257 -0.017069938 0.0031063599 0.0153141245 -0.015181427 -0.021772288
-0.015738769 -0.0060451883 0.03501798 -0.0168814 0.00017777814 -0.016960002 -0.009615995 -0.0052914433
0.0032492245 -0.01318333 0.004144798 -0.004213251 0.012662422 -0.022189276 0.030054886 0.019702116
0.007838803 -0.0006992967 -0.01570432 -0.0025172895 0.0048324983 -0.0142740775 0.005925201 0.029261552
-0.010488566 0.0020939985 0.012920347 0.024169607 0.0076033305 0.00815176 0.0022976033 -0.010349292
0.018655367 0.033345304 -0.026300726 0.04339399 0.022748863 0.06077703 0.006514324 0.0102186
0.015301049 0.023083203 -0.004674232 0.017048404 -0.02040704 0.0026089258 -0.0004891764 0.015659677
-0.0040342556 1.0673245e-05 0.0120438 -0.00977534 -0.009306331 0.014488439 0.03966701 -0.026656376
-0.0076616346 0.021300709 -0.019369444 0.015494984 0.006691836 -0.0078102946 0.03521662 -0.03875888
-0.0032275743 0.006208027 0.053521987 0.038797077 -0.0333019 0.02099119 -0.039741673 -0.014641523
-0.017271833 -0.013978583 0.030286215 0.0152912075 -0.036973402 0.019200638 -0.033672888 0.02846347
00000000: 3326 a73b 55de 0fbd 08c2 80bd 6235 a0bc
00000010: 1627 d7bc c6ab 023d cf18 3a3c 49e2 393d
00000020: 703e a03c a400 0e3c 0145 9e3c 0f84 ecbc
00000030: f655 e2bc 2984 34bd 218e 513c f69d 1c3d
00000040: d9f4 b3bb 4571 873b 6319 17bc 999b d7bb
00000050: eced 113d df22 6d3b 16ca febc 3870 223c
00000060: 5700 823b 055f 9a3c 7d1c 853c 8a29 dbbc
00000070: 0529 73ba c93a 103a 87ff 2f3b 255a 29bb
00000080: ecb7 98bc d23f 83bc 4975 103d 6645 85bb
00000090: ba17 3f3c 406a d43c 0c01 f1bc 7b4a 42bc
000000a0: 1c10 873c bf43 64bc 5134 33bc bc5f eabc
000000b0: 2b96 163c 63c0 673c 4e76 2a3d ab90 c5bb
000000c0: 2a54 f83c 193b d8bc 235d 343b 1ece c53c
000000d0: c814 29bd 8963 0e3c ddf2 75bb 64ce fdbc
000000e0: d606 59bc 1c0c 5f3b 989b bd3b 79c8 613c
000000f0: a39f 513c 1602 0bbd 501c 7ebc f469 b2bc
00000100: e022 66bd 9a8b 2fbc c5d4 dbbc d61e ab3c
00000110: 8427 0cbc d3c5 31bd bd70 963b 6d3b 913b
00000120: e7e3 e43c 1097 573c cd27 193d d927 e0bc
00000130: 487f 61bb fa62 edba ae3c 4c3b 157d ccbc
00000140: efae 6b3c a52d d8bc b0b0 0ebd 2a4f 13bd
00000150: 9d45 56bb 7111 2d3c bcaf 00bd 1541 22bb
00000160: dccd 113c 2abf 993b 461c cfbc cdbb b3bc
00000170: 48bd b43c d668 ef3b b1c7 163c 7a19 8abc
00000180: 2bca cf3b edaf 4b3b 7dce 62bc f513 e33c
00000190: 6a8b 5a3c 2a4c 9abc 080b 983c 6c9f e1bb
000001a0: 8087 d1bb 7f77 833c 9504 6fbc 68b7 c738
000001b0: e1cd af3b 355a 92bc 4703 013d 331e 19bd
000001c0: 633c d5bc db4a a2bc 4518 f0bc c381 0d3b
000001d0: a6d4 a03c c0a6 473d 80a9 1bbc 5396 1bbd
000001e0: 0525 e5bc eb02 0a3d 97df 32bd f5b9 2f3c
000001f0: 389f 0d3b 7acb acbc 77f1 33bc 5a13 67bc
00000200: 8453 1a3c 12df c23c 6a6e b3bc 91fd 82bb
00000210: 5d2a ee3c 5696 153c 66f6 243b f534 d4bb
00000220: 1c3b f6bc d93e 083d 60a9 4bbc 094d a63c
00000230: e3b1 8cbc 4b81 663c c595 8d3c 8c11 d7bb
00000240: c3b7 8cbc 6e29 f5b9 1c2b 04bb fac3 5f3c
00000250: 84d4 8a3c 1666 313d b1c1 17bc a673 493c
00000260: 5abb 8dbb 2930 b53c 70a9 ac3d ef96 7c3c
00000270: 662b f33c 9956 d4bb 36cf c4bc 77ea e93c
00000280: f505 333d 9a1d 383c c750 763b e7c4 10bc
00000290: 0ae5 98ba 6af4 e13c 03b0 daba 9189 f2bc
000002a0: 7b00 42bc f2f8 fb3b 2ee1 02bc 41d6 8bbc
000002b0: 1294 4b3b 18e8 7a3c 85bb 78bc cc5b b2bc
000002c0: 97ee 80bc b716 c6bb 036f 0f3d dd4a 8abc
000002d0: f569 3a39 b4ef 8abc 688c 1dbc d863 adbb
000002e0: f1f0 543b e5fe 57bc 16d1 873b 500f 8abb
000002f0: 0c76 4f3c 49c6 b5bc aa35 f63c 5566 a13c
00000300: 536e 003c 0251 37ba 59a6 80bc 1cf9 24bb
00000310: ef59 9e3b d2dd 69bc 3028 c23b ecb5 ef3c
00000320: 3cd8 2bbc 773b 093b ddaf 533c 57ff c53c
00000330: 5c25 f93b f68e 053c 6393 163b 1490 29bc
00000340: 24d3 983c 1695 083d 9f74 d7bc e5bd 313d
00000350: d35b ba3c 56f1 783d 1c76 d53b ea6b 273c
00000360: 40b1 7a3c fc18 bd3c 4d2a 99bb 18a9 8b3c
00000370: aa2c a7bc 83fa 2a3b 133c 00ba b948 803c
00000380: ca31 84bb 3d11 3337 5c53 453c bf28 20bc
00000390: 9579 18bc eb60 6d3c e079 223d 795e dabc
000003a0: 730e fbbb d37e ae3c abac 9ebc acde 7d3c
000003b0: 3047 db3b 80ed ffbb 4d3f 103d a2c1 1ebd
000003c0: b685 53bb b46c cb3b df39 5b3d afe9 1e3d
000003d0: 9367 08bd b7f5 ab3c 2ac8 22bd 00e3 6fbc
000003e0: a97d 8dbc 6d06 65bc cc1a f83c f987 7a3c
000003f0: 6c71 17bd a84a 9d3c 95ec 09bd 392c e93c

transformer.layers.0.self_attn.out_proj.bias f4 [64]
0.0068479064 0.0044110287 -0.0019720972 0.008271746 0.00046205334 0.004309305 -0.0035270546 -0.0012206996
0.0055941707 -0.012092616 0.0082933 -0.007974415 -0.01021716 -0.008745423 0.006171271 -0.0081376545
-0.0029572928 0.0073166187 0.0069411793 0.0037843361 -0.005048302 -0.0079250205 0.0054897773 -0.006370588
0.0036574153 -0.005164601 -0.009356161 0.0040351287 -0.0031949182 -0.006033339 -0.002914971 0.0047382494
0.0015524104 -0.0058030803 0.0037040152 0.0023294638 0.0092377225 0.0046844436 -0.007422318 -0.0022313043
-0.0068659824 0.0063955723 0.0021220322 -0.010453758 -0.0075038825 -0.0054270155 0.0039745974 -0.0049933773
0.009647107 0.0060979 0.0034211774 0.0073331473 0.010500156 -0.0004053993 -0.010777687 0.008054397
-0.0047074817 0.011444155 0.0050727655 0.0056859767 -0.004754621 0.008959417 0.00056118384 0.0038486551
00000000: 6764 e03b 648a 903b 4d3e 01bb 3886 073c
00000010: c03f f239 1235 8d3b 2826 67bb e2ff 9fba
00000020: 4e4f b73b 1c20 46bc 9fe0 073c 1fa7 02bc
00000030: e065 27bc f648 0fbc 6038 ca3b cc53 05bc
00000040: 24cf 41bb 3fc0 ef3b d572 e33b a002 783b
00000050: 3a6c a5bb f2d7 01bc 97e3 b33b 5ec0 d0bb
00000060: 3fb1 6f3b d03b a9bb 954a 19bc 1d39 843b
00000070: d561 51bb 51b3 c5bb 1909 3fbb 5143 9b3b
00000080: 407a cb3a c427 bebb 10bf 723b eba9 183b
00000090: d159 173c f67f 993b eb36 f3bb 133b 12bb
000000a0: 09fc e0bb f391 d13b cb11 0b3b 3d46 2bbc
000000b0: 21e3 f5bb 1bd5 b1bb 573d 823b 7c9f a3bb
000000c0: e60e 1e3c e5d0 c73b d535 603b e64a f03b
000000d0: d908 2c3c c68b d4b9 e594 30bc 97f6 033c
000000e0: 3841 9abb 4480 3b3c 7139 a63b 6e51 ba3b
000000f0: a7cc 9bbb 85ca 123c 691c 133a b839 7c3b

transformer.layers.0.linear1.weight f4 [128, 64]
0.0070850924 0.009324611 -0.0042511183 -0.018719649 -0.026729565 -0.034046777 4.855752e-05 0.029443095
0.02891104 -0.026383072 -0.024399126 -0.012842571 -0.020373156 0.0043899748 0.013267147 0.051575564
-0.018809145 -0.0051400852 -0.03297287 -0.018496286 -0.012295994 -0.053152353 0.018966345 -0.058891993
0.01603356 0.0022467177 -0.029863534 -0.004242206 -0.0410071 0.0021201468 -0.02975244 0.025908642
-0.009396803 -0.025728473 0.02382125 0.041645516 0.012148864 0.021550726 -0.016779423 1.8068842e-05
-0.037640974 0.027423913 0.013005755 -0.045264658 -0.039506495 0.013179144 0.0076117525 -0.008342768
0.0015621136 0.016963989 0.03131318 0.028526962 0.010387367 -0.0068823895 -0.01392689 0.05048057
-0.0050944244 0.00059360056 0.0019745182 -0.0026804367 -0.033254128 0.0015041366 -0.020198671 0.05131723
0.012261754 0.012033044 0.0026568978 -0.068418756 0.014653074 0.023352303 -0.0144978445 0.0019799988
-0.018861258 0.019348 -0.035515152 -0.01671886 0.036096323 0.06445703 -0.005968094 0.0063178465
-0.000888068 0.023738628 -0.029094245 0.008090644 0.011226937 0.017825723 -0.03199942 0.016815357
-0.011694936 0.0053987354 0.029989215 -0.020646617 0.03146918 -0.0035677894 0.02870104 -0.0027366409
0.008477815 0.003101757 -0.024621524 0.032618247 -0.009052306 0.08674187 0.016072407 -0.0074424464
-0.024135003 0.0036705818 0.016256496 -0.03439794 0.04503446 -0.03848818 -0.027600268 0.022705762
-0.030314704 -0.010675271 0.015293416 0.018009704 -0.006317951 -0.017950699 -0.007887952 0.015163565
0.014474027 -0.05037008 0.009234901 -0.011619735 0.028146684 -0.0055149393 -0.0366307 0.020753197
0.021416234 0.0025006488 -0.029200802 0.0496473 -0.014917607 0.030118657 -0.014857839 0.0034381181
-0.009560005 0.0006728819 -0.001737674 0.016178964 -0.06114719 -0.007935485 0.04849517 -0.029805835
0.019766917 -0.0036204953 0.015698556 0.015571932 -0.006958864 0.0040378305 0.031159494 0.008506921
0.021115366 -0.015975107 0.029961685 0.011697482 0.00052190566 -0.032222893 -0.018026631 -0.030280791
-0.05664318 -0.018611822 -0.018454196 0.01352899 0.021101257 0.0043953652 0.009509139 0.011502133
0.012371668 -0.007582787 -0.00827334 0.027967606 -0.04573893 -0.029596273 0.0068067326 -0.004350129
0.01731017 0.017454932 0.050650544 0.017092437 0.010343905 0.028825952 0.028445477 0.04022572
0.024042413 0.014587363 -0.013155596 -0.043281842 0.018084828 -0.06737426 0.036066115 0.061043102
-0.020510837 -0.008358144 -0.05986523 0.0491635 0.009121321 0.020849645 -0.042121194 -0.034502544
0.022289958 0.009301303 0.046681296 -0.03627002 -0.05557845 -0.0006526297 0.026276112 -0.0062748264
-0.0078035947 0.0045358595 0.0027531309 0.009032784 -0.05279507 0.006161435 0.011601393 0.01900613
0.017202904 -0.043009147 0.0380528 0.00072826614 0.011165553 -0.011104323 -0.01843207 0.006054425
0.0048720734 -0.009293875 -0.019938167 0.02608819 0.046649422 0.0024465432 -0.018818999 0.021439485
0.032764282 0.008043535 0.0018882281 0.013930139 -0.020011468 0.021101123 -0.012211861 -0.03372991
0.024526615 -0.03160516 0.046198104 0.0107024815 0.027495537 0.026359135 0.015860483 0.018320672
-0.019021677 0.01793359 -0.0024213775 0.004367045 0.0003275001 -0.022882575 0.044988383 -0.0007895553
00000000: 102a e83b 41c6 183c f74c 8bbb f359 99bc
00000010: f6f7 dabc a274 0bbd 3daa 4b38 a532 f13c
00000020: d8d6 ec3c 5021 d8bc ade0 c7bc a669 52bc
00000030: 9be5 a6bc c7d9 8f3b 735e 593c e640 533d
00000040: a315 9abc 296e a8bb 8f0e 07bd 8685 97bc
00000050: 2375 49bc 48b6 59bd 4f5f 9b3c bb38 71bd
00000060: d058 833c ab3d 133b 5fa4 f4bc 3402 8bbb
00000070: 10f7 27bd 29f2 0a3b 64bb f3bc 5c3e d43c
00000080: 0cf5 19bc 85c4 d2bc c824 c33c 7d94 2a3d
00000090: 070c 473c 268b b03c 0075 89bc 8b92 9737
000000a0: 6c2d 1abd 1da8 e03c 1716 553c 6f67 39bd
000000b0: 90d1 21bd 56ed 573c 026c f93b 1bb0 08bc
000000c0: d6bf cc3a 10f8 8a3c 4042 003d 60b1 e93c
000000d0: c62f 2a3c ab85 e1bb 9c2d 64bc b7c4 4e3d
000000e0: 21ef a6bb dc9b 1b3a eb66 013b 44aa 2fbb
000000f0: 7b35 08bd 7326 c53a af77 a5bc 0432 523d
00000100: 86e5 483c 3f26 453c 591f 2e3b 221f 8cbd
00000110: 7213 703c 544d bf3c 5e88 6dbc dec2 013b
00000120: ed82 9abc b27f 9e3c 5678 11bd fef5 88bc
00000130: bdd9 133d 0c02 843d 0090 c3bb f005 cf3b
00000140: 3ccd 68ba 8377 c23c 0e57 eebc 9f8e 043c
00000150: 30f1 373c 4007 923c d311 03bd 5cc0 893c
00000160: 1e9c 3fbc e0e7 b03b f1ab f53c 1823 a9bc
00000170: d4e5 003d 93d1 69bb 721e eb3c 3759 33bb
00000180: 89e6 0a3c d946 4b3b 14b3 c9bc b69a 053d
00000190: 2050 14bc b9a5 b13d 48aa 833c c4df f3bb
000001a0: c5b6 c5bc 258e 703b 582c 853c dbe4 0cbd
000001b0: 0e76 383d c8a5 1dbd f519 e2bc 6f01 ba3c
000001c0: 8b56 f8bc 55e7 2ebc 3c91 7a3c 1689 933c
000001d0: d006 cfbb 580d 93bc 783c 01bc 9a70 783c
000001e0: 7824 6d3c db50 4ebd fb4d 173c b360 3ebc
000001f0: e093 e63c aab6 b4bb 130a 16bd 9c02 aa3c
00000200: 1971 af3c ede1 233b 8536 efbc f85a 4b3d
00000210: fb68 74bc 67bb f63c 4b6e 73bc 0d52 613b
00000220: 91a1 1cbc 5764 303a aac2 e3ba bf89 843c
00000230: 7a75 7abd d603 02bc dfa2 463d 5e2b f4bc
00000240: 3bee a13c d545 6dbb 429a 803c 6b21 7f3c
00000250: 2f07 e4bb c74f 843b 3242 ff3c 9d60 0b3c
00000260: 22fa ac3c 3ade 82bc 3572 f53c cca6 3f3c
00000270: 7fd0 083a 27fc 03bd 96ac 93bc 6c0f f8bc
00000280: ae02 68bd d277 98bc 412d 97bc b2a8 5d3c
00000290: 8bdc ac3c ff06 903b 38cc 1b3c 7173 3c3c
000002a0: 89b2 4a3c 0779 f8bb e78c 07bc 521c e53c
000002b0: bf58 3bbd e273 f2bc 030b df3b 878b 8ebb
000002c0: 0fce 8d3c a5fd 8e3c f276 4f3d 7005 8c3c
000002d0: 7b79 293c 6724 ec3c 7d06 e93c b9c3 243d
000002e0: 98f4 c43c d6ff 6e3c 928a 57bc 4d48 31bd
000002f0: a226 943c 84fb 89bd 10ba 133d 5508 7a3d
00000300: 5806 a8bc 99f0 08bc 3e35 75bd ab5f 493d
00000310: 9871 153c e0cc aa3c 4687 2cbd 8a52 0dbd
00000320: 6e99 b63c 7e64 183c e334 3f3d df8f 14bd
00000330: 3ba6 63bd 3d15 2bba 0041 d73c 0f9d cdbb
00000340: 4cb5 ffbb 8ca1 943b df6d 343b 3efe 133c
00000350: a53f 58bd dde5 c93b c513 3e3c beb2 9b3c
00000360: 1bed 8c3c 5c2a 30bd 41dd 1b3d 1de9 3e3a
00000370: b9ef 363c e8ee 35bc dafe 96bc 3364 c63b
00000380: eaa5 9f3b 5645 18bc 5e55 a3bc e6b6 d53c
00000390: 7713 3f3d 2f56 203b 4d2a 9abc dca1 af3c
000003a0: d733 063d 08c9 033c 6c7e f73a 3d3b 643c
000003b0: 17ef a3bc 43dc ac3c 4214 48bc 6028 0abd
000003c0: 0aec c83c 6a74 01bd 393a 3d3d 7659 2f3c
000003d0: 523e e13c 1def d73c d8ed 813c 3c15 963c
000003e0: 59d3 9bbc 77e9 923c f9af 1ebb 6e19 8f3b
000003f0: 52b4 ab39 3d74 bbbc bd45 383d 29fa 4eba

transformer.layers.0.linear1.bias f4 [128]
0.015568329 -0.0297593 -0.00094549445 0.016781341 0.018124882 0.0072726654 -0.005609103 -0.011204265
-0.008150977 0.0154680945 -0.009700936 0.0125301825 0.004947641 0.018030219 0.018338734 0.00014768788
0.018530464 0.011033247 0.01319956 0.0085584745 0.0031489017 0.01605589 -0.0037689833 0.025419032
0.005409132 0.013929601 0.0035940933 0.022679275 -0.014137433 -0.004888272 -0.009765598 0.01519678
0.010051261 0.0064144414 -0.0122750625 -0.013023552 0.0022301888 -0.010306197 0.025646692 0.014214382
0.016295634 0.009324529 0.0074584456 0.005287505 -0.0083463 0.028102303 -0.021506181 0.013172973
0.0053234445 -0.0077196313 -0.016269676 0.024422571 0.012798986 -0.016855968 0.013195288 0.0061651855
-0.0041675745 0.013585565 0.0072459695 0.02226596 -0.0027339852 -0.009192472 -0.0030948045 -0.0019883502
0.0073112417 0.0059534847 0.006253684 0.0058719395 0.024021605 0.01469765 0.0062870025 0.017940247
0.0028850685 -0.007580436 0.020811772 0.008617577 -0.004649608 -0.0051503237 0.017174713 -0.0020011887
-0.0025966489 -0.0010518538 -0.0050373576 0.01725232 0.015976546 0.010266427 0.011077409 -0.032398205
0.02560735 -0.009196181 -0.013942884 0.02013681 0.017534047 -0.01092587 0.0024188072 -0.003024211
-0.0025697942 0.007665548 0.026969802 0.013495017 0.0054187593 0.0003465347 0.0017710907 0.015938194
-0.0061276183 -0.012965724 0.00046495697 0.01675366 0.013493207 0.014782747 -0.0233813 0.0043157
-0.00092201197 0.014565945 -0.012937222 0.0075907046 0.016177136 0.015639896 0.017128818 0.021851894
0.013735546 0.016417058 0.02408991 -0.0012530094 0.028981479 0.0027961906 0.0092087 0.017710613
00000000: 4e12 7f3c c7c9 f3bc 0fdb 77ba 0679 893c
00000010: a27a 943c 8a4f ee3b 91cc b7bb 1892 37bc
00000020: ad8b 05bc e46d 7d3c adf0 1ebc 654b 4d3c
00000030: d21f a23b 1cb4 933c 1d3b 963c aadc 1a39
00000040: 33cd 973c cbc4 343c f842 583c d838 0c3c
00000050: ce5d 4e3b a487 833c 0c01 77bb 933b d03c
00000060: 173f b13b fb38 643c e18a 6b3b e3c9 b93c
00000070: b1a0 67bc cc2d a0bb e3ff 1fbc eafb 783c
00000080: 0bae 243c 3c30 d23b 581d 49bc bc60 55bc
00000090: 5c28 123b 53db 28bc 0319 d23c 70e3 683c
000000a0: 6c7e 853c e9c5 183c fa65 f43b cf42 ad3b
000000b0: ebbe 08bc cd36 e63c bb2d b0bc 74d3 573c
000000c0: 4a70 ae3b f6f4 fcbb fc47 85bc d811 c83c
000000d0: d7b2 513c 8715 8abc 0d31 583c 5305 ca3b
000000e0: 2690 88bb fd95 5e3c 996f ed3b 1a67 b63c
000000f0: a92c 33bb 069c 16bc 34d2 4abb fb4e 02bb
00000100: 2493 ef3b 7315 c33b b4eb cc3b 6669 c03b
00000110: f5c8 c43c 6ace 703c 3303 ce3b 6df7 923c
00000120: 6b13 3d3b 4e65 f8bb 737d aa3c bd30 0d3c
00000130: bd5b 98bb 0cc4 a8bb fcb1 8c3c 6026 03bb
00000140: 8a2c 2abb 5bde 89ba 6b10 a5bb bd54 8d3c
00000150: 3fe1 823c 8434 283c 057e 353c fbb3 04bd
00000160: 81c6 d13c 94ab 16bc b270 64bc f4f5 a43c
00000170: 90a3 8f3c 6c02 33bc da84 1e3b d731 46bb
00000180: fe69 28bb 472f fb3b c6ef dc3c 341a 5d3c
00000190: d98f b13b 1aaf b539 f123 e83a d190 823c
000001a0: 30ca c8bb 306e 54bc 78c5 f339 f93e 893c
000001b0: 9d12 5d3c 5633 723c 248a bfbc b76a 8d3b
000001c0: 2db3 71ba 00a6 6e3c a4f6 53bc 72bb f83b
000001d0: ea85 843c 3d1f 803c bc51 8c3c be02 b33c
000001e0: 0e0b 613c 117d 863c 3458 c53c 053c a4ba
000001f0: 916a ed3c 4b40 373b 16e0 163c d915 913c

transformer.layers.0.linear2.weight f4 [64, 128]
0.04199271 -0.009937894 0.018879183 0.022107853 0.014536982 -0.0025912365 -0.012620044 0.046518803
0.028818756 -0.010125277 0.010284455 0.01891351 -0.0044668606 -0.029618496 0.011839672 0.014484447
-0.0015921732 0.06528817 -0.011161368 0.008380443 0.006953379 0.016974222 0.037114486 0.0119919
0.017618794 -0.02034187 0.0035487735 -0.033464488 0.02257892 0.023683239 0.014285492 -0.048323616
-0.011176423 -0.038909625 0.019599212 0.037414458 0.023466574 0.01795878 -0.02767542 -3.5743604e-05
-0.041300207 0.02967331 -0.03395233 0.014293246 0.036928505 0.0018262522 -0.031345025 -0.04451131
0.0053046895 -0.026649306 0.023880782 -0.010627168 0.049636286 0.026578631 -0.015193138 -0.034858584
0.042048432 0.01687809 0.013173472 -0.02605096 -0.0019091077 -0.0055505466 -0.036009595 -0.01259503
-0.024456318 0.031903557 -0.040179938 0.028059382 -0.02126061 -0.03969592 0.015548431 -0.01738924
0.008045873 0.033146977 -0.030946087 -0.03434848 0.047335792 -0.00019436317 -0.03178833 0.010049241
0.022633675 0.018320432 0.025031561 0.010024444 -0.020052005 -0.043305963 0.009543485 0.02127572
-0.031526424 0.00668263 0.0025021627 -0.0036947194 -0.00751616 0.03226112 0.020440264 -0.0048590493
0.035768215 0.041122966 0.023596494 0.008849483 -0.016083302 0.04957638 0.016414998 -0.0226115
0.009562506 -0.0550991 0.020029189 -0.034829017 -0.008535887 0.0033169463 0.0015058994 0.030745318
0.014562509 0.019709952 0.050615903 -0.022211334 -0.009165895 -0.0019151348 -0.004729492 0.0088245105
0.0299824 -0.0069517214 0.0017452813 0.01460634 -0.02024844 -0.0029802073 0.0088454895 -0.0016579048
-0.044177175 -0.037761558 0.0033769938 -0.043912094 0.06257191 0.049165897 0.03448095 0.028289832
0.027951485 -0.028961904 0.03738322 -0.021199865 -0.030346712 0.031472486 -0.057728454 -0.057244975
-0.0054696715 0.01161587 -0.021074014 -0.044800412 -0.031550426 -0.011190673 0.056842394 -0.016683538
0.034204774 -0.016472328 0.04950724 -0.06426807 0.036546122 0.0112850815 0.025727155 -0.019322736
-0.031642023 0.012373899 -0.0010066306 0.044209205 0.03806165 -0.005080233 -0.01909795 -0.03298949
-0.026112087 0.003174075 -0.004312269 0.02000256 0.034445833 -0.026781267 -0.017028496 -0.03330662
-0.012827032 -0.023585908 0.029194336 -0.03464788 0.007487253 0.016968096 -0.021460667 -0.038270723
0.039228182 0.005953019 0.025233544 -0.011547055 -0.02157787 0.04242222 0.050694708 0.001429313
0.0056067477 0.03319043 -0.035821497 -0.027208606 -0.012449955 -0.00787629 0.03473046 -0.08463537
0.025735425 0.035945144 -0.034959752 -0.016990736 0.015039602 0.04082009 -0.012045662 0.023449624
0.008408223 0.023515284 0.008231539 -0.067443 -0.004454846 -0.0006359554 0.016600916 -0.0009241721
-0.047435783 0.03643301 -0.015183519 -0.024944864 -0.06348933 0.014882483 -0.02807103 -0.040975273
-0.0041497024 -0.011924914 -0.020164542 -0.04175967 0.027015911 0.031420562 0.00068179704 -0.045818858
0.017766772 -0.0010385708 0.023996532 -0.06427021 -0.04052736 -0.004401986 0.015206554 0.04527753
-0.007896683 -0.03161848 0.03176609 -0.021248829 -0.01912725 -0.019065352 -0.035706136 -0.008906876
-0.014304906 -0.06346425 -0.016200356 0.011104993 0.004050659 0.002363056 -0.04756493 -0.019569013
00000000: 8c00 2c3d 8cd2 22bc 84a8 9a3c 871b b53c
00000010: 862c 6e3c bcd1 29bb 4dc4 4ebc 808a 3e3d
00000020: 5015 ec3c 7de4 25bc 2180 283c 81f0 9a3c
00000030: be5e 92bb 7da2 f2bc 2ffb 413c 2d50 6d3c
00000040: 78b0 d0ba ceb5 853d 2cde 36bc 204e 093c
00000050: 2cd9 e33b 860d 8b3c 5c05 183d ad79 443c
00000060: 4a55 903c fea3 a6bc 8a92 683b 0f12 09bd
00000070: 6df7 b83c 5a03 c23c b20d 6a3c fcee 45bd
00000080: 511d 37bc b35f 1fbd 878e a03c e73f 193d
00000090: f93c c03c 4b1e 933c 90b7 e2bc 67eb 15b8
000000a0: 682a 29bd 7115 f33c 9911 0bbd 382e 6a3c
000000b0: 5842 173d db5e ef3a a463 00bd 7e51 36bd
000000c0: f6d2 ad3b a54f dabc a1a1 c33c 931d 2ebc
000000d0: 6b4f 4b3d 6ebb d93c a4ec 78bc e0c7 0ebd
000000e0: fa3a 2c3d ec43 8a3c 8cd5 573c d368 d5bc
000000f0: 063b faba 5ce1 b5bb cc7e 13bd 625b 4ebc
00000100: 9e58 c8bc 4ead 023d b893 24bd cadc e53c
00000110: bb2a aebc 3098 22bd d9be 7e3c e173 8ebc
00000120: d6d2 033c 20c5 073d a682 fdbc feb0 0cbd
00000130: 2de3 413d f7cd 4bb9 7b34 02bd 92a5 243c
00000140: 426a b93c bb14 963c fd0e cd3c 913d 243c
00000150: 1a44 a4bc 9861 31bd 475c 1c3c 6b4a ae3c
00000160: da21 01bd f7f9 da3b 53fb 233b 1b23 72bb
00000170: 1f4a f6bb 3c24 043d 5772 a73c a938 9fbb
00000180: b181 123d 8e70 283d 6f4d c13c 6cfd 103c
00000190: 21c1 83bc 9a10 4b3d bf78 863c c13b b9bc
000001a0: 0fac 1c3c 98af 61bd 4114 a43c dfa8 0ebd
000001b0: 1bda 0bbc 2061 593b 9961 c53a 9bdd fb3c
000001c0: 9797 6e3c c476 a13c 9f52 4f3d 8bf4 b5bc
000001d0: 8d2c 16bc 4305 fbba dbf9 9abb ae94 103c
000001e0: a69d f53c 44cb e3bb ecc1 e43a 6e4f 6f3c
000001f0: 0ee0 a5bc 954f 43bb acec 103c 0e4e d9ba
00000200: 20f3 34bd ddab 1abd 8e50 5d3b 2bdd 33bd
00000210: b425 803d 2e62 493d e63b 0d3d 14c0 e73c
00000220: 83fa e43c 8441 edbc 261f 193d 57ab adbc
00000230: ab99 f8bc 4be9 003d ac74 6cbd b579 6abd
00000240: ee3a b3bb 7d50 3e3c 69a3 acbc a380 37bd
00000250: 053b 01bd 1659 37bc 92d3 683d eaab 88bc
00000260: 4e1a 0c3d faf0 86bc 1bc8 4a3d fa9e 83bd
00000270: 63b1 153d 10e5 383c c1c1 d23c b74a 9ebc
00000280: 119b 01bd e5bb 4a3c ebf0 83ba b614 353d
00000290: 88e6 1b3d 1578 a6bb 4e73 9cbc fd1f 07bd
000002a0: 04e9 d5bc 2404 503b ef4d 8dbb 69dc a33c
000002b0: 1317 0d3d 6364 dbbc 587f 8bbc 866c 08bd
000002c0: 7928 52bc 3c37 c1bc f628 ef3c efea 0dbd
000002d0: a157 f53b ad00 8b3c 48ce afbc c3c1 1cbd
000002e0: bbad 203d 8b11 c33b 94b6 ce3c dc2f 3dbc
000002f0: 13c4 b0bc ecc2 2d3d 41a5 4f3d c957 bb3a
00000300: cfb8 b73b b0f2 073d 90b9 12bd 95e4 debc
00000310: e5fa 4bbc 8e0b 01bc 8741 0e3d 4f55 adbd
00000320: 19d3 d23c 373b 133d f531 0fbd 2830 8bbc
00000330: aa68 763c f732 273d 2b5b 45bc 6d19 c03c
00000340: a5c2 093c 20a3 c03c 94dd 063c 8e1f 8abd
00000350: f5f9 91bb 3fb6 26ba a5fe 873c 2444 72ba
00000360: 064c 42bd c83a 153d 4bc4 78bc 2c59 ccbc
00000370: b206 82bd a8d5 733c 37f5 e5bc b0d5 27bd
00000380: 3afa 87bb b760 43bc 1c30 a5bc 300c 2bbd
00000390: 7950 dd3c d9b2 003d a0ba 323a 8eac 3bbd
000003a0: 9f8b 913c a720 88ba 6094 c43c 1aa0 83bd
000003b0: 0400 26bd 893e 90bb e924 793c ee74 393d
000003c0: 1761 01bc 6182 01bd 291d 023d 0612 aebc
000003d0: c0b0 9cbc f12e 9cbc 9940 12bd 25ee 11bc
000003e0: 205f 6abc 8bf9 81bd 9cb6 84bc b7f1 353c
000003f0: 64bb 843b 80dd 1a3b 72d3 42bd 324f a0bc

transformer.layers.0.linear2.bias f4 [64]
0.0031092765 -0.0019798998 0.0031067366 0.016462045 0.0073424843 -0.002368354 0.003484798 -0.008726895
0.0103828125 -0.01737531 0.009151482 -0.012298105 -0.012359443 -0.0073788585 0.0177482 -0.012662976
-0.0005026875 0.010392225 0.010483116 0.0030404406 -0.0059927297 -0.009565517 0.010122432 -0.009249465
0.0032181283 -0.007183618 -0.011288835 0.00160838 -0.00803448 -0.011668325 -0.005407261 0.0019068115
0.0027491837 -0.0032051029 0.008991987 -0.003660915 0.017259123 0.006520881 -0.009096188 -0.00015341878
-0.011878034 0.011036768 0.0058952314 -0.009887945 -0.011319628 -0.0038955195 0.007540165 -0.003236992
0.012292136 0.0038131808 0.010585393 0.009665656 0.011445681 0.0036908768 -0.0109863505 0.013671112
-0.013163437 0.017696923 0.0061406903 0.013203356 -0.0018936703 0.00853563 0.0023467843 -0.0008340654
00000000: 01c5 4b3b 35c1 01bb 649a 4b3b 69db 863c
00000010: 3999 f03b 6336 1bbb 3561 643b 40fb 0ebc
00000020: ac1c 2a3c ab56 8ebc 19f0 153c fe7d 49bc
00000030: 437f 4abc 5aca f1bb ac64 913c 5f78 4fbc
00000040: c9c6 03ba 2744 2a3c 60c1 2b3c 2142 473b
00000050: a95e c4bb b0b8 1cbc 8fd8 253c 118b 17bc
00000060: 3ce7 523b 8e64 ebbb cef4 38bc 47d0 d23a
00000070: 0da3 03bc 812c 3fbc 652f b1bb faed f93a
00000080: a62b 343b b40c 52bb 2153 133c f6eb 6fbb
00000090: 0163 8d3c 1dad d53b 2d08 15bc 0adf 20b9
000000a0: 169c 42bc 8fd3 343c c92c c13b 0c01 22bc
000000b0: f675 39bc f94b 7fbb 7d13 f73b b723 54bb
000000c0: f564 493c 8fe6 793b 5b6e 2d3c b35c 1e3c
000000d0: aa86 3b3c a3e2 713b 1800 34bc cdfc 5f3c
000000e0: 75ab 57bc 23f9 903c d837 c93b e452 583c
000000f0: 0835 f8ba 07d9 0b3c 82cc 193b 2ea5 5aba
