marble_model/best_model_v3.0_20250531_005428.pt (torch, 295593 bytes, 30 tensors)

token_embedding.weight f4 [13, 64]
0	0xbbce4d1c	-0.0062958132
1	0x3c484d5c	0.012225475
2	0x3d1191fc	0.035539612
3	0xbba1936c	-0.004930904
4	0x3cda5d4c	0.026655816
5	0xbc869beb	-0.01643177
6	0xbd0f1228	-0.034929425
7	0x3bfca79d	0.0077104107
8	0x3d42c179	0.04754779
9	0xbc992056	-0.018692177
10	0x3d2f775d	0.042838443
11	0x3d3cf1b2	0.046128936
12	0xbca06322	-0.01957852
13	0x3c58a8f9	0.01322388
14	0x3cd1cbef	0.025609938
15	0xbc1ff720	-0.009763509
16	0x3c50dde4	0.012748215
17	0xbd1f8c51	-0.038952176
18	0xbcb439c5	-0.022000203
19	0x3c3f759b	0.011685754
20	0x3c36d057	0.0111580705
21	0x3c92f7a8	0.017940357
22	0xbcc03ecd	-0.023467446
23	0x3d1431f1	0.03618044
24	0xbc65cc55	-0.014025767
25	0x3c50863b	0.012727316
26	0xbcaea4b9	-0.02131878
27	0x3caa0fce	0.02075949
28	0xbafe98d9	-0.0019424214
29	0x3b9d0f38	0.004793074
30	0x3b4a5a5b	0.003087661
31	0x3c5b6dde	0.013392894
32	0x3d1c0811	0.03809363
33	0x3d1bc0a0	0.0380255
34	0x3d3ec2c5	0.046572465
35	0x3c9d5dd1	0.019209774
36	0x3aec0b7d	0.0018008795
37	0x3bb3abaa	0.0054831104
38	0xba96196b	-0.0011451667
39	0x3cb84f64	0.022498794
40	0x3d31163c	0.043234095
41	0x3d24c624	0.040228024
42	0x3ce74274	0.02822993
43	0xbc039fca	-0.008033702
44	0xbc76b500	-0.015057802
45	0xbb9a3e4a	-0.0047071325
46	0x3bbc0d01	0.005738855
47	0x3bf7e155	0.0075647035
48	0x3c16d173	0.00920521
49	0x3c8d03e7	0.017213775
50	0xbbf7c1be	-0.0075609377
51	0x39fe6f66	0.00048529654
52	0x3d5453c4	0.051837698
53	0x3c315002	0.010822298
54	0xbc40cb3e	-0.011767207
55	0xbba99525	-0.00517525
56	0xbcbe0a47	-0.02319826
57	0xbcc80ce7	-0.024420215
58	0x3d162d43	0.03666426
59	0xbd26faa1	-0.040766362
60	0xbc046f6b	-0.008083205
61	0xbc29cbcb	-0.010363529
62	0xbd11c2df	-0.035586234
63	0xbcfcd9a1	-0.030865492
64	0x3cf81cab	0.030287107
65	0xbc907749	-0.017635005
66	0x3c94c134	0.018158533
67	0x3d1c3c5f	0.03814351
68	0xbcb97b5f	-0.022641836
69	0x3cf3fc38	0.029783353
70	0x3c86189d	0.016369158
71	0x3ccaf65f	0.024775682
72	0xbd0dfafd	-0.03466319
73	0xbd09b803	-0.033622753
74	0x3ba28f42	0.0049609253
75	0x3c9dcb99	0.019262122
76	0xbd81fd0d	-0.06347094
77	0x3c773202	0.015087606
78	0xbcd32100	-0.025772572
79	0xbb635ca2	-0.0034692665
80	0x3cdfeaae	0.027333584
81	0xbcc0c421	-0.023531022
82	0x3d166946	0.03672149
83	0x3cda5541	0.02665198
84	0xbc820a59	-0.015874075
85	0xbd32671f	-0.043555375
86	0x3d1a885e	0.037727706
87	0xbcc41d91	-0.02393988
88	0x3c931d27	0.017958237
89	0xbd03d1bd	-0.032182444
90	0xbd3d2a34	-0.046182826
91	0xba74eb45	-0.0009342919
92	0xbd2e88a9	-0.042610798
93	0x3d2857c0	0.04109931
94	0xbc961ece	-0.018325236
95	0x3d399a4b	0.04531316
96	0xbcd42009	-0.025894182
97	0x3cc0dd55	0.02354304
98	0x3cf32112	0.029678855
99	0xbc866388	-0.016404882
100	0xbcabf05d	-0.020988638
101	0xbc9a14b2	-0.018808696
102	0x3d205d49	0.039151464
103	0xbd2d5308	-0.042315513
104	0xbd1788f6	-0.03699585
105	0xbb752574	-0.0037406357
106	0x3d227309	0.039660487
107	0xbbbea0f9	-0.0058175293
108	0x3cdda1ce	0.027054694
109	0xbd0adb67	-0.033900645
110	0xbc612095	-0.013740678
111	0xbd515b4f	-0.05111247
112	0xbaf1cc62	-0.0018447752
113	0x3d02a285	0.031893272
114	0x3bc45c0f	0.0059924196
115	0xbc30bb57	-0.010786853
116	0x3ca48d04	0.020086773
117	0xbbb3c263	-0.005485819
118	0xbc935167	-0.017983152
119	0xbcccc104	-0.02499438
120	0xbc3c745a	-0.01150235
121	0x3d005101	0.03132725
122	0x3d32ed77	0.043683495
123	0x3c15f94d	0.009153676
124	0xbcff0ccf	-0.031134037
125	0x3b546261	0.0032407271
126	0xbd1fbc4d	-0.038997937
127	0x3c9657f0	0.018352479
128	0x3c60b3fd	0.013714788
129	0xbc905998	-0.017620847
130	0xbb062ba9	-0.00204728
131	0x3cf1a1b2	0.029496048
132	0xbbf62199	-0.0075113294
133	0x3ba39851	0.0049925228
134	0xbcda02a6	-0.026612591
135	0xbd15c06d	-0.036560465
136	0x3c87c817	0.016574902
137	0xbcef6ae6	-0.029225778
138	0x3c9f7493	0.019464767
139	0x3c81aea5	0.015830347
140	0x3c16092d	0.009157461
141	0x3cf282b7	0.029603345
142	0x3bec73c0	0.007215947
143	0xbd03d647	-0.032186773
144	0xbc1be226	-0.009514367
145	0x3c34bd10	0.011031404
146	0x3ccb382e	0.024807062
147	0xbd279945	-0.040917654
148	0xbce601ac	-0.02807697
149	0x3b985cc9	0.0046497327
150	0xbc9b852e	-0.018984403
151	0x3c4c9453	0.012486535
152	0xbbff0ff5	-0.0077838846
153	0x3b5400ec	0.0032349182
154	0x3d333821	0.0437547
155	0xbc05ca06	-0.008165842
156	0x3c1ffeba	0.009765321
157	0xbc1c7f41	-0.009551824
158	0xbc43d438	-0.011952452
159	0x3a8a45cf	0.0010549369
160	0x3c57ae0f	0.013164057
161	0xbc28f581	-0.010312439
162	0x3d0a8c0b	0.03382496
163	0x3be2b63c	0.0069186967
164	0x3aae41aa	0.0013294716
165	0x3d29a9f9	0.041421864
166	0x3c47555e	0.012166349
167	0x3bdc372b	0.0067204437
168	0xbd23e2eb	-0.040011328
169	0x3c14bd0b	0.0090782745
170	0xbc8493d2	-0.016183767
171	0x3c894f76	0.016761523
172	0x3a0f3897	0.00054634496
173	0x3c452f66	0.012035226
174	0x3c962034	0.018325903
175	0xba09f99f	-0.00052633317
176	0x3b98398b	0.0046455315
177	0x3cc10d12	0.023565803
178	0xbd089cdc	-0.033352718
179	0xbcb35b7e	-0.021894213
180	0x3a497235	0.00076845597
181	0x3bb3fe57	0.005492966
182	0x3c645bc2	0.013937892
183	0xbb2171a6	-0.002463439
184	0xbc856b99	-0.016286658
185	0xbbfa85c3	-0.00764534
186	0xbd1de0a9	-0.03854433
187	0x3ca29152	0.019844685
188	0x3a09611b	0.0005240605
189	0x3a7abdef	0.00095650455
190	0x3b8f649d	0.0043760077
191	0xbc0999c2	-0.008398475
192	0xbb6615be	-0.0035108174
193	0x3d29f262	0.04149092
194	0xbbc47fc9	-0.0059966785
195	0x3c78a3ec	0.015175801
196	0x3cd93ea9	0.026519137
197	0xbc9be357	-0.019029303
198	0x3c3c126c	0.0114790015
199	0x3c02e65d	0.007989493
200	0x3c87b58f	0.016566066
201	0xbb86198d	-0.0040924014
202	0xbc1ece17	-0.00969269
203	0x3c3be5f0	0.011468396
204	0xbbd35ccc	-0.0064502712
205	0x3b92ed81	0.004483879
206	0xbc3af605	-0.011411195
207	0x3c4e5623	0.012593779
208	0xbcbab87d	-0.022793049
209	0x3d0c7d8c	0.03429942
210	0x3caae1f0	0.020859689
211	0xbc2a337d	-0.010388252
212	0xbad3e3f1	-0.0016165954
213	0x3d09e4eb	0.03366558
214	0x3ad9b99f	0.0016611106
215	0x3bd7388f	0.0065680216
216	0xbb491abb	-0.0030686099
217	0x3cc94d54	0.024573006
218	0x3bd13ac5	0.0063851797
219	0x3cbb8baf	0.022893755
220	0x3c8c9d87	0.017164959
221	0x3c7965fe	0.015222071
222	0x39bfc22b	0.00036575025
223	0xbaa6305d	-0.0012679208
224	0x3cb66da0	0.02226907
225	0xb9313935	-0.00016901347
226	0xbc5d7455	-0.013516505
227	0xbc3de81c	-0.011590984
228	0x3c907014	0.017631568
229	0x3b350618	0.002762204
230	0xbbce48ac	-0.0062952843
231	0xbbe5a75a	-0.0070084753
232	0x3c9c1f9f	0.019058047
233	0xbc9d40b7	-0.019195898
234	0xbc24a192	-0.010048287
235	0xbbd1288f	-0.006383009
236	0xbca50e99	-0.020148562
237	0xba2fd5ec	-0.0006707597
238	0xbb0876fe	-0.0020822878
239	0xbc56a1a6	-0.013100063
240	0x3d03ed84	0.032208934
241	0xbb9c8b5f	-0.0047773565
242	0xbcc29276	-0.023751479
243	0x3abcc1dd	0.0014401037
244	0xbbfdeaf2	-0.007748955
245	0x3bc068ae	0.005871854
246	0x3c09aa4c	0.008402418
247	0x3cd3fb55	0.02587668
248	0x3d0f9632	0.035055347
249	0xbbfae4c3	-0.007656665
250	0x3b97ca62	0.00463228
251	0xbca7e49b	-0.02049475
252	0x3c0d9c76	0.00864326
253	0xbc31a2fa	-0.010842079
254	0xbc8f7b93	-0.01751498
255	0xbc5e4cf1	-0.013568149

position_embedding.weight f4 [30, 64]
0	0x3d0a5eac	0.033781692
1	0xbd2d502d	-0.04231279
2	0xbb2b0b6d	-0.002609934
3	0xba86cc80	-0.0010284334
4	0xbcbfa9ed	-0.023396457
5	0x3c238f48	0.009982891
6	0x3d364815	0.044502337
7	0xbb25af21	-0.0025281387
8	0xbc9e4e4c	-0.019324444
9	0xbccfc191	-0.025360854
10	0x3d1d86be	0.03845858
11	0x3cb89141	0.0225302
12	0xbd1bd4b6	-0.038044654
13	0xbd799494	-0.06093271
14	0x3bd3c122	0.006462232
15	0x3cb41302	0.02198172
16	0x3d10a76d	0.03531592
17	0xbcabe063	-0.02098102
18	0x3d0c7066	0.03428688
19	0x3c9d0f5b	0.019172361
20	0x3c8352d6	0.01603071
21	0x3b72ab19	0.0037028252
22	0xbc788d26	-0.015170371
23	0x3c3d4a4c	0.011553358
24	0x3bd3a746	0.0064591495
25	0xbcef9b92	-0.029248986
26	0xbd2b853e	-0.041875117
27	0x3d50b604	0.050954834
28	0xbbbec73f	-0.005822092
29	0x3be06817	0.006848346
30	0xbcc8eb16	-0.02452616
31	0x3d1248d5	0.03571399
32	0xbcaf3d77	-0.021391613
33	0x3d7cdae1	0.061732177
34	0x3be80057	0.0070801186
35	0x3b9fec47	0.0048804614
36	0xbcf75afe	-0.030194756
37	0xbd0085c8	-0.031377584
38	0x3c13594d	0.008993459
39	0xbcb9be2d	-0.02267369
40	0xbcf1dec0	-0.02952516
41	0x3d3abce4	0.045590296
42	0x3c7c0c4a	0.015383789
43	0x3c2de97c	0.010614749
44	0x3a436a9b	0.0007454545
45	0xbd741215	-0.059587557
46	0x3d2f5a1f	0.042810556
47	0xbb329bee	-0.0027253586
48	0xbd2f4329	-0.04278866
49	0x3c15e53b	0.009148891
50	0xbd90786f	-0.07054221
51	0xbcab683f	-0.020923732
52	0xbd8ee7c1	-0.06977797
53	0xbd24504b	-0.040115636
54	0xbd290650	-0.041265786
55	0xbc1e6635	-0.009667923
56	0x3d04751a	0.03233824
57	0x3c5efa63	0.0136095015
58	0xba89cfa5	-0.0010514153
59	0x3d428700	0.047492027
60	0xbc6bd810	-0.014394775
61	0x3bb73c59	0.005591911
62	0xbd0a4e30	-0.03376597
63	0x3c6b852f	0.014375015
64	0x3c980d39	0.018560993
65	0x3c9812d6	0.01856367
66	0xbd0cc261	-0.03436506
67	0x3c12cf3c	0.008960541
68	0x3c8209e6	0.01587386
69	0x3ce2e3f2	0.027696583
70	0xbcb89218	-0.0225306
71	0x3cde4806	0.027133953
72	0x3c9e29c1	0.01930702
73	0x3cf261e4	0.029587694
74	0xbbb07fa3	-0.005386309
75	0xbbf651b0	-0.007517062
76	0xbc578553	-0.013154346
77	0xbd3c2566	-0.045934103
78	0x3c993bdd	0.018705303
79	0xbd31d71c	-0.043418035
80	0xbca02b34	-0.01955185
81	0x3bf8446c	0.007576516
82	0xbc609c55	-0.013709147
83	0x3c581efa	0.013190979
84	0x3c4da4a3	0.0125514595
85	0xbc66b042	-0.014080109
86	0x3ac280b8	0.0014839387
87	0x3c5bff1e	0.013427524
88	0xbca4dd29	-0.020124989
89	0xbc7210c0	-0.014774501
90	0xbc9c2f5e	-0.019065555
91	0xbc8ec32d	-0.017427051
92	0x3cb9155a	0.022593189
93	0xbc2440ed	-0.010025245
94	0xb87c7184	-6.01872e-05
95	0x3caa6f6e	0.020805087
96	0xbcb01c7c	-0.021497957
97	0x3becc016	0.007225047
98	0xbce825d2	-0.028338347
99	0xbce70c62	-0.028204147
100	0x3d329e05	0.04360773
101	0x3bd3a919	0.006459367
102	0x3ba9ebec	0.005185595
103	0x3cfe1303	0.031014925
104	0x3ca922c2	0.020646457
105	0x3b3ae975	0.00285205
106	0xbc081c67	-0.008307553
107	0xbd05f82a	-0.03270737
108	0xbcfa9799	-0.030589866
109	0xbc22fcb3	-0.0099479435
110	0xbd01bab4	-0.031672195
111	0x3c155b17	0.009115956
112	0xbc00ca24	-0.007860694
113	0xbccbc6a7	-0.024874998
114	0xbb36ece0	-0.0027912185
115	0x3c8d6831	0.017261596
116	0xba9170f1	-0.0011096281
117	0x3ca3bd4f	0.01998773
118	0x3b18ee99	0.0023335575
119	0x3bc408e6	0.005982506
120	0xbcde002e	-0.027099695
121	0xbd086e01	-0.033308033
122	0xbcf63759	-0.030055689
123	0xbcd929b8	-0.02650915
124	0x3cbd60d1	0.023117455
125	0xbcf12dca	-0.02944078
126	0x3c4dd629	0.012563267
127	0xbc1726da	-0.0092255715
128	0x3cbcb18e	0.023033883
129	0x3c89766d	0.016780103
130	0xbd34d1a4	-0.04414524
131	0xbc025751	-0.007955388
132	0x3c092cf3	0.008372533
133	0xbb655409	-0.0034992716
134	0xbd173f19	-0.03692541
135	0x3c291b19	0.010321402
136	0x3bce3037	0.0062923688
137	0x3cfb2fe8	0.030662492
138	0x3bc0b654	0.00588111
139	0xbc8f5d14	-0.017500438
140	0x3bcacc89	0.0061889333
141	0xbcf7b7e1	-0.030239047
142	0x3d2c117b	0.04200886
143	0xbcbd290d	-0.023090864
144	0x3b6be0b8	0.0035992097
145	0xbb210756	-0.0024571023
146	0xbcf99924	-0.030468531
147	0xbbaf77ef	-0.0053548734
148	0xbb73e6e9	-0.003721649
149	0xbc87a372	-0.016557429
150	0xbccad78f	-0.02476099
151	0x3c548d28	0.012973107
152	0xbcd088e5	-0.025455901
153	0xbc0c60c3	-0.008567992
154	0xbc9fa1bc	-0.0194863
155	0xbd647c1d	-0.055782426
156	0x3d2444a9	0.040104542
157	0xbcc2f164	-0.023796745
158	0xbbba037d	-0.0056766854
159	0x3cb6f704	0.022334583
160	0xbcf3ea3a	-0.029774774
161	0x3cd88b74	0.026433684
162	0x3a6aa416	0.00089508423
163	0xbcd651e7	-0.026162101
164	0x3c9455df	0.018107353
165	0xbcb7bfe9	-0.022430377
166	0xbbe39a44	-0.00694588
167	0x3d1aa8b1	0.037758533
168	0xbc7c5442	-0.015400948
169	0x3d093eba	0.033507086
170	0xbb3e6714	-0.0029053139
171	0xbc97a28d	-0.018510127
172	0x3c2fb185	0.010723476
173	0xbb28572e	-0.0025686729
174	0xbc32ab1f	-0.010905056
175	0x3d38c13f	0.04510617
176	0xbd0b6f47	-0.03404167
177	0xbad09e96	-0.0015916403
178	0x3d0b2eca	0.03398017
179	0x3d2cf647	0.042227056
180	0xbc0c794e	-0.008573843
181	0x3c99f44b	0.018793246
182	0x3cbca067	0.023025705
183	0xbc5045de	-0.01271197
184	0xbd45ce6a	-0.048292555
185	0xbc963f31	-0.018340679
186	0xbcf6a6b3	-0.030108785
187	0x3ba93720	0.005164042
188	0x3d2c8d9f	0.042127248
189	0xbd03e16f	-0.032197412
190	0x3d036956	0.032082878
191	0xbc1edfe7	-0.009696937
192	0xbd557c31	-0.05212039
193	0xbce40354	-0.027833618
194	0x3d4fee9f	0.050764676
195	0xbd2ef7f6	-0.042716943
196	0xbcaf0fe8	-0.02136989
197	0xbcc81046	-0.024421822
198	0x3ce1eae1	0.02757782
199	0xba625794	-0.0008634266
200	0x3c40ded6	0.011771878
201	0xbba57ba2	-0.0050501386
202	0xbcf48ae0	-0.029851377
203	0x3c7673ef	0.015042289
204	0xbcbe6a35	-0.023244003
205	0x3d3d0f15	0.04615696
206	0xbd50234f	-0.050814923
207	0x3c8b5e00	0.017012596
208	0x3c490e63	0.0122714965
209	0xbcc6bc7f	-0.024259804
210	0x3cc06ce7	0.023489429
211	0xbd47354f	-0.048634823
212	0x3d3cfe1b	0.04614077
213	0x3cb28ce3	0.021795696
214	0x3d26ff35	0.04077073
215	0x3cfba345	0.030717501
216	0xbd0c406d	-0.03424113
217	0x3ce23d84	0.027617224
218	0xbc9ee25f	-0.019395052
219	0x3c11849f	0.008881717
220	0xbd0cb9dc	-0.034356937
221	0x3d24f2eb	0.040270727
222	0x3d3cfb63	0.04613818
223	0x3cd572a5	0.026055643
224	0x3d3477cc	0.04405956
225	0xbd1aaa2a	-0.037759937
226	0xbd0aabbb	-0.03385518
227	0x3d520303	0.051272403
228	0xbd26f6cf	-0.04076272
229	0x3d122fbd	0.035690058
230	0xbc6e9ca2	-0.014563711
231	0x39c7caba	0.0003810728
232	0x3d517f96	0.051147066
233	0xbcde4d81	-0.027136566
234	0xbd5aa34b	-0.053378385
235	0xbc5cdc51	-0.013480262
236	0xbd6eda58	-0.058313698
237	0x3ce62668	0.028094485
238	0x3caf38bd	0.02138936
239	0xbd48d186	-0.049027942
240	0x3d04e82c	0.03244798
241	0xbd481b13	-0.048853945
242	0x3c79f13d	0.01525527
243	0xbcc64c63	-0.024206346
244	0x3bf9b24a	0.0076201307
245	0xbc15203a	-0.009101922
246	0xbd6717b4	-0.05641909
247	0x3ce6d3e4	0.02817721
248	0x3beb57da	0.0071821036
249	0xbd3674be	-0.044544928
250	0xbcb71270	-0.022347659
251	0xbd31aa88	-0.043375522
252	0x3cb9ae5d	0.02266615
253	0xbc65e3d9	-0.014031374
254	0xbd0fe04d	-0.03512602
255	0xbc4fba7b	-0.012678738

transformer.layers.0.self_attn.in_proj_weight f4 [192, 64]
0	0xbdcfc3d7	-0.10144775
1	0xbd6846b7	-0.056708064
2	0x3e2a544a	0.16633716
3	0x3dd50ea6	0.104031846
4	0xbd8976f6	-0.06712143
5	0x3e18b9c6	0.14914617
6	0xbdcfd9fa	-0.101489976
7	0xbe1ec98e	-0.15506575
8	0x3e1808e3	0.1484714
9	0xbda9faa4	-0.08299759
10	0xbd93b28b	-0.07211789
11	0xbd8c1737	-0.068403654
12	0x3d433c13	0.047664713
13	0x3d3bbed1	0.045836274
14	0xbc877a7a	-0.016537894
15	0x3ca162f5	0.019700507
16	0x3e28f5c2	0.16499999
17	0x3d5ba7bd	0.053626765
18	0xbd2227e9	-0.039588843
19	0xbe0b2a32	-0.13590315
20	0x3de31840	0.1108861
21	0xbdf92691	-0.12165559
22	0xbd22544d	-0.039631177
23	0xbd9b3e8e	-0.07580291
24	0xbd102e3b	-0.03520034
25	0xbdbb778b	-0.091536604
26	0xbd9b716f	-0.07589995
27	0x3e421ecf	0.18957065
28	0x3dd704b4	0.10498944
29	0xbd1ce278	-0.038301915
30	0xbd84aae8	-0.0647791
31	0x3dd87c6a	0.10570605
32	0x3e158492	0.14601353
33	0xbe19c9f2	-0.15018442
34	0x3d4a7e0d	0.049436618
35	0x3ded1715	0.11576668
36	0xbdc3e3e4	-0.09564951
37	0xbd93f21b	-0.07223912
38	0xbc0c1a95	-0.0085512595
39	0xbdf77f99	-0.12084884
40	0xbd6c5796	-0.057700716
41	0x3ced0fa5	0.028938124
42	0x3d0932b6	0.033495627
43	0x3df1e711	0.118116505
44	0xbd784765	-0.060614962
45	0x3d9978c1	0.07493735
46	0x3e09e5ae	0.13466522
47	0xbd83086a	-0.06398089
48	0xbd1fcc08	-0.03901294
49	0x3da79d32	0.081842795
50	0x3d8a0249	0.06738717
51	0xbd11faca	-0.03563956
52	0x3c93ec98	0.018057153
53	0xbd937554	-0.07200113
54	0x3d93ac60	0.07210612
55	0x3e1ac889	0.1511556
56	0x3e072bf1	0.13200356
57	0x3dcc44bd	0.09974048
58	0x3d9b55cd	0.075847246
59	0xbd6ea878	-0.058266133
60	0x3db06628	0.08613235
61	0xbd96a207	-0.07355123
62	0x3dc513ef	0.09622943
63	0xbdc760e5	-0.09735278
64	0x3da6f26c	0.08151707
65	0xbdc9590f	-0.0983144
66	0xbdbcbe5f	-0.09215998
67	0xbe1ad0c5	-0.15118702
68	0x3e086732	0.13320616
69	0x3c73259a	0.014840508
70	0x3d6318dd	0.055443633
71	0xbe167e08	-0.14696515
72	0x3d6c4beb	0.05768959
73	0xbd026bd7	-0.031841125
74	0x3dcbf81e	0.09959434
75	0xbd91bc10	-0.07115948
76	0x3ba50cdc	0.0050369333
77	0xbc3b2a16	-0.011423608
78	0xbd243542	-0.040089853
79	0x3dba969a	0.09110756
80	0x3d0a81df	0.03381526
81	0x3df8283c	0.12117049
82	0x3e02a8a6	0.12759647
83	0xbe08a105	-0.13342674
84	0xbde2d1a1	-0.1107514
85	0x3db5bd0e	0.0887395
86	0x3d934e83	0.07192709
87	0x3d06d491	0.032917563
88	0xbdc54eb1	-0.0963415
89	0x3d635e35	0.055509765
90	0xbdd63e69	-0.104611225
91	0x3dd6023d	0.10449646
92	0x3cc2b245	0.023766646
93	0xbda113e2	-0.078651205
94	0x3d6a6d1e	0.05723297
95	0xbdd59c17	-0.104301624
96	0xbda5f23e	-0.08102845
97	0xbdec83f1	-0.11548603
98	0x3dd83366	0.105566785
99	0x3b489aa7	0.0030609758
100	0x3da0e11e	0.07855438
101	0x3e0c4b87	0.13700686
102	0xbd97df55	-0.07415644
103	0xbcac7e46	-0.021056306
104	0x3e212feb	0.15740936
105	0x3d2855d5	0.04109748
106	0xbd137434	-0.03599949
107	0xbdb958e7	-0.0905016
108	0x3db77f10	0.08959782
109	0xbdbee849	-0.09321649
110	0x3e4442f2	0.19166163
111	0x3d8e20b9	0.06939835
112	0xbd4301f9	-0.047609303
113	0x3d8b3c3c	0.06798598
114	0xbd6ac221	-0.057314042
115	0xbe3586db	-0.17727225
116	0x3bba25df	0.005680784
117	0xbd699215	-0.05702408
118	0xbe19c664	-0.15017086
119	0x3d3c2268	0.04593125
120	0x3e031c89	0.12803854
121	0x3bf34be8	0.00742482
122	0xbd8681ec	-0.065677494
123	0x3da29191	0.07937921
124	0xbddfc14c	-0.1092554
125	0x3d7be161	0.061494235
126	0x3bcab5a5	0.0061862045
127	0xbc305aa5	-0.010763799
128	0x3d5ae899	0.05344448
129	0x3db22503	0.08698466
130	0x3d93f464	0.07224348
131	0xbe30b43d	-0.17256255
132	0xbdcb1b98	-0.099173725
133	0xbc7d0e60	-0.015445322
134	0x3d72acf3	0.05924697
135	0xbd857e45	-0.065182246
136	0x3dc8670e	0.09785281
137	0xbd90cff5	-0.07070915
138	0x3ddb5227	0.10709029
139	0x3d131b01	0.035914425
140	0xbde314ed	-0.11087976
141	0x3d3f537a	0.04671047
142	0xbe0bdac8	-0.13657677
143	0x3e0e119b	0.13873903
144	0x3d8e453e	0.06946801
145	0xbd972ab0	-0.07381189
146	0x3d364469	0.044498835
147	0xbd91a979	-0.071124025
148	0xbdfa6def	-0.122279994
149	0x3d98b361	0.07456089
150	0x3e265689	0.16243948
151	0x3df1132b	0.11771234
152	0xbddd1757	-0.10795467
153	0x3dd30f9a	0.1030571
154	0xbda9af99	-0.08285446
155	0x3e2adaa1	0.16684963
156	0x3934a0aa	0.0001722599
157	0x3e3411ce	0.17584917
158	0xbcd84637	-0.026400669
159	0xbb4ba87c	-0.0031075766
160	0x3e3bcca8	0.18339789
161	0xbdbf398c	-0.09337148
162	0xbdfb70b7	-0.12277358
163	0x3e56a99d	0.2096314
164	0x3c578da8	0.013156332
165	0xbd4ceb5f	-0.050029155
166	0x3d9fa21c	0.07794592
167	0xbe0c6eca	-0.13714138
168	0xbdf56f58	-0.11984128
169	0xbdb25c3e	-0.08709
170	0x3d2227aa	0.039588608
171	0x3d9ce600	0.076610565
172	0xbe00c2a2	-0.12574247
173	0x3e34f4a2	0.17671445
174	0x3c6339d7	0.013868771
175	0xbd074fab	-0.03303496
176	0xbd6fb18e	-0.05851894
177	0xbd13be1d	-0.036069978
178	0x3de48fbb	0.11160227
179	0x3b6eaa4f	0.003641743
180	0x3d58cecd	0.052931596
181	0xbdb9364b	-0.09043559
182	0x3cdd039d	0.026979262
183	0xbbdedf00	-0.006801486
184	0x3e36adc6	0.17839727
185	0xbd3dbd11	-0.046322886
186	0x3e211ffa	0.15734854
187	0x3d9a1399	0.07523269
188	0xbcacf42a	-0.02111252
189	0x3d39461e	0.045232885
190	0xbdcb3943	-0.09923031
191	0x3def6cc9	0.11690671
192	0xbe047cfc	-0.12938303
193	0x3ddb3aea	0.10704596
194	0x3dc365b3	0.09540882
195	0x3ac28f5f	0.0014843753
196	0xbd12019d	-0.03564607
197	0x3d8197f8	0.06327814
198	0x3d13de73	0.036100816
199	0x3de92ccb	0.11385497
200	0xbdce93a6	-0.100867555
201	0x3db72ee2	0.08944489
202	0xbd4e8718	-0.050421804
203	0x3c20958b	0.009801279
204	0x3c1e0f8a	0.0096472595
205	0x3de423da	0.11139651
206	0x3ddaaa20	0.1067698
207	0x3d5dbce5	0.054135222
208	0xbd76a203	-0.0602131
209	0x3d995f10	0.07488835
210	0x3e1ee5dd	0.15517373
211	0x3d6264f0	0.055272043
212	0xbdd7f8d5	-0.10545508
213	0x3e139c9a	0.14415208
214	0x3e3bd4e9	0.18342938
215	0xbdad426d	-0.08459935
216	0x3da4492e	0.080217704
217	0xbdaa67fc	-0.08320615
218	0x3e027f47	0.12743865
219	0x3e16541c	0.14680523
220	0xbdf0db34	-0.1176056
221	0x3dd20ba7	0.10256129
222	0x3e153926	0.14572582
223	0x3d96c360	0.073614836
224	0x3c11d863	0.008901688
225	0xbd9e5884	-0.07731727
226	0xbdc99486	-0.09842782
227	0x3e3eda46	0.18637952
228	0x3dbf8c7a	0.09352966
229	0x3d960afb	0.07326313
230	0xbd45e683	-0.048315536
231	0xbd24c595	-0.04022749
232	0x3e0eb2f7	0.13935457
233	0xbe231ea5	-0.15929659
234	0xbdcc2a4c	-0.09969005
235	0xbd3b8bf4	-0.045787767
236	0x3e009658	0.12557352
237	0x3e003f33	0.12524109
238	0xbd69c620	-0.057073712
239	0xbd887979	-0.06663794
240	0xbd80f01e	-0.06295799
241	0xbe329258	-0.17438638
242	0xbb7a6cf2	-0.003821191
243	0xbe488e32	-0.19585493
244	0x3ddfdfe0	0.10931373
245	0x3de574df	0.11203932
246	0x3d6919da	0.05690942
247	0xbd4c2c5d	-0.049846996
248	0xbd138679	-0.036016915
249	0xbd563a53	-0.052301716
250	0xbc94b114	-0.018150844
251	0xbd5678e5	-0.052361388
252	0x3ddcfe69	0.107907124
253	0x3d808d4f	0.062769525
254	0x3c11df64	0.008903358
255	0x3da34ce5	0.07973651

transformer.layers.0.self_attn.in_proj_bias f4 [192]
0	0x3c99eb21	0.018788876
1	0x3c326197	0.010887525
2	0x3be8dd66	0.007106471
3	0x3b1a1f84	0.002351732
4	0x3b4f1176	0.00315961
5	0x3be3bf88	0.0069503225
6	0x3ca7b0cd	0.020470047
7	0x3b3c3207	0.0028716342
8	0xbc1a27b8	-0.009408884
9	0xbcd803a1	-0.026368918
10	0xbc08fa63	-0.008360478
11	0x3c236e0a	0.009974966
12	0x3b35ddae	0.002775054
13	0x3abf4458	0.0014592512
14	0xbae42c21	-0.0017408171
15	0x39005fef	0.0001224277
16	0xbb14539d	-0.0022632845
17	0x3c47fa2c	0.012205642
18	0xbbbf638e	-0.0058407253
19	0x3cfea73c	0.031085603
20	0xbc876948	-0.016529694
21	0x3c742fb3	0.0149039505
22	0xb756b01e	-1.27963995e-05
23	0xbb3af325	-0.0028526273
24	0xbb3046e5	-0.0026897725
25	0x3b350f43	0.0027627505
26	0xbaccf790	-0.0015637744
27	0x3b91338f	0.004431195
28	0xb9f9edef	-0.00047670255
29	0x3bf97b5d	0.007613583
30	0x3bd81723	0.006594555
31	0x3c92c60e	0.017916705
32	0xbb293484	-0.0025818655
33	0x3bf8a73e	0.007588296
34	0x3c994fa1	0.018714728
35	0xbcb21729	-0.02173956
36	0x3c0bdf2f	0.008537098
37	0x3cb2e57b	0.02183794
38	0xbc0acda7	-0.008471883
39	0xbcd18c87	-0.025579704
40	0xbbf56948	-0.007489357
41	0xbc6481cf	-0.013946964
42	0xbc1798b9	-0.0092527205
43	0x3a384e1f	0.0007030684
44	0xbcbc29fb	-0.022969237
45	0xbcd6da94	-0.026227273
46	0xbc323745	-0.010877435
47	0x3cea2429	0.028581696
48	0x3c0c511c	0.00856426
49	0x3cc4cb26	0.02402265
50	0x3ca1ec0e	0.01976588
51	0xbc5a9eb8	-0.013343506
52	0x3baddbfc	0.005305765
53	0xbc940c1a	-0.018072177
54	0x3c1650df	0.009174555
55	0xbcc4900b	-0.023994466
56	0xbbf011ee	-0.007326356
57	0xbc8af71a	-0.01696353
58	0x3c337c2b	0.010954897
59	0xbba7faa8	-0.005126316
60	0x3bf35262	0.0074255923
61	0xbca91b55	-0.020642916
62	0xbc12e506	-0.008965736
63	0x3acaab77	0.0015462477
64	0xb43a8983	-1.7372626e-07
65	0xb4d5a1d4	-3.9792087e-07
66	0x348dde12	2.6424874e-07
67	0x34a3651f	3.043469e-07
68	0xb449ec40	-1.8805531e-07
69	0xb325c4da	-3.859609e-08
70	0x3224d624	9.594746e-09
71	0x330ab679	3.2296587e-08
72	0x34d4a8e4	3.961096e-07
73	0x34b80f00	3.4283585e-07
74	0x345a5112	2.0332325e-07
75	0xb4140079	-1.3783746e-07
76	0xb489bf5e	-2.5657476e-07
77	0x3462dd45	2.1128388e-07
78	0x341c9322	1.4582159e-07
79	0xb2c8f5ce	-2.3394843e-08
80	0xb3343400	-4.195681e-08
81	0xb381392e	-6.0174315e-08
82	0x346815fe	2.1614684e-07
83	0xb43cee9d	-1.7595671e-07
84	0xb42a1eef	-1.5843737e-07
85	0x33071502	3.1451243e-08
86	0xb493f024	-2.755561e-07
87	0x33805f3b	5.977787e-08
88	0xb46215f3	-2.1055875e-07
89	0xb4412c05	-1.799054e-07
90	0xb48e770f	-2.6536188e-07
91	0x34b8edfa	3.4445821e-07
92	0x33fba0e0	1.1717361e-07
93	0x3107ae31	1.9744102e-09
94	0xb3addecc	-8.096467e-08
95	0xb2537ac1	-1.23097275e-08
96	0xb313f6c6	-3.4450544e-08
97	0xb4847c7d	-2.4677493e-07
98	0x335fd9af	5.2119216e-08
99	0xb471ce4a	-2.2519922e-07
100	0xb433e72e	-1.6754777e-07
101	0x342405d2	1.5275808e-07
102	0x32f21033	2.8179874e-08
103	0xb34493c3	-4.5769195e-08
104	0xb409bc57	-1.2827637e-07
105	0xb43ca0fc	-1.756743e-07
106	0xb3923785	-6.808754e-08
107	0x33b23cdd	8.299842e-08
108	0x33b97f3b	8.637877e-08
109	0xb4707f21	-2.2397991e-07
110	0xb43caa11	-1.7570734e-07
111	0xb410360d	-1.3430709e-07
112	0x342223f4	1.5100505e-07
113	0x341cc34e	1.4599684e-07
114	0x340c14b6	1.304605e-07
115	0xb40e5533	-1.3255776e-07
116	0xb4002c3f	-1.1937026e-07
117	0x33466560	4.6192667e-08
118	0xb2df0eaf	-2.5967294e-08
119	0xb35cfada	-5.145089e-08
120	0x3308b9ce	3.1833956e-08
121	0xb3be694d	-8.8667186e-08
122	0xb3e3d571	-1.0609336e-07
123	0xb44e96f6	-1.9240164e-07
124	0xb3c43435	-9.1364576e-08
125	0xb3c930cc	-9.368668e-08
126	0xb383136d	-6.1036964e-08
127	0xb41ff6d0	-1.4897819e-07
128	0x3a1aa19b	0.0005898715
129	0x3bfaaded	0.007650128
130	0x3c1f63a5	0.009728347
131	0xbc888fa9	-0.016670065
132	0xbc8bc5b6	-0.01706205
133	0x3c019695	0.007909437
134	0x3be83285	0.0070861005
135	0xbb78cfd9	-0.0037965684
136	0x3a598692	0.00082979456
137	0xbb41f95a	-0.0029598088
138	0xbc99044d	-0.018678809
139	0x3bbb3510	0.0057131127
140	0x3a04889b	0.0005055756
141	0x3b510754	0.0031895237
142	0x3b587b0a	0.0033032321
143	0xbc9239ec	-0.017849885
144	0x3a99f62f	0.0011746342
145	0xbca7f49c	-0.020502381
146	0xbc316a16	-0.0108285155
147	0x3b816b2e	0.0039495444
148	0xbc7d5d4e	-0.01546414
149	0xbc59f7f2	-0.013303744
150	0x3b94ae29	0.004537363
151	0xbaa8c506	-0.00128761
152	0xbc384d13	-0.011248845
153	0x3bfdeb50	0.0077489987
154	0x3c09c281	0.00840819
155	0xbb28e2c6	-0.0025769933
156	0xbc7240f7	-0.014785997
157	0xbca0b199	-0.019615935
158	0xbc4f1c68	-0.01264105
159	0xbb6ecc04	-0.003643752
160	0x3c8e8295	0.01739625
161	0x3c2cc18e	0.010544194
162	0x3ba4e410	0.00503207
163	0x3a6f6b4e	0.0009133116
164	0x3cac0727	0.020999504
165	0xbc48f221	-0.012264759
166	0xba1cb1d6	-0.00059774274
167	0xbc64431d	-0.013932017
168	0xbc9f9330	-0.019479364
169	0xbb03e7a9	-0.0020127094
170	0xbaa191fa	-0.001232683
171	0xbca070a5	-0.019584963
172	0x3c12a4bd	0.0089504095
173	0xbb4032e9	-0.002932722
174	0x3b9912d9	0.0046714363
175	0xbc28ce04	-0.010303024
176	0xbc2055f0	-0.009786114
177	0x3c8994f9	0.016794669
178	0xbab4cb96	-0.0013793583
179	0xbbafe72e	-0.005368135
180	0xba96e8d7	-0.0011513483
181	0xba24321d	-0.0006263571
182	0xba232c86	-0.0006224591
183	0x3bbcf00b	0.00576592
184	0xbb0affc7	-0.0021209584
185	0x3b0ff642	0.002196685
186	0xbb2eb14e	-0.0026655975
187	0xbbfedd63	-0.007777856
188	0x3aebb44c	0.001798281
189	0x3c6e00b4	0.014526535
190	0xbb56a7e7	-0.0032753886
191	0x3b295c3f	0.0025842336

transformer.layers.0.self_attn.out_proj.weight f4 [64, 64]
0	0x3bf2d4f4	0.00741064
1	0xbc0a878f	-0.008455171
2	0x3c0812b4	0.00830524
3	0xbc86a859	-0.016437696
4	0x3b1f8fbd	0.002434715
5	0xba49ddff	-0.00077006215
6	0x388ed34e	6.810446e-05
7	0x3d3ed2d9	0.0465878
8	0xbce46260	-0.02787894
9	0x3c1ab738	0.009443097
10	0xbb06acff	-0.002054989
11	0xbd807850	-0.06272948
12	0x3cba66e9	0.02275415
13	0x39f825b9	0.00047330352
14	0x3cf0ab95	0.029378692
15	0x3bbcad1b	0.0057579405
16	0xbc7837cd	-0.015150023
17	0x3d2af1d6	0.04173454
18	0x3cdf3c9f	0.027250586
19	0xbc06fb15	-0.008238574
20	0x3c73e5bf	0.014886319
21	0x3c8ca1af	0.01716694
22	0xbca2fcc9	-0.019895928
23	0x3c9c24f6	0.019060593
24	0x3b6556b0	0.0034994297
25	0xbcec5b41	-0.028852107
26	0x3d05d5a0	0.03267443
27	0xbce6a97c	-0.028156988
28	0x3c1c6a1d	0.009546784
29	0xbce91070	-0.02845022
30	0xbc81f42d	-0.015863502
31	0x3c1eb964	0.009687755
32	0x3d12256e	0.035680227
33	0xbd199981	-0.03749991
34	0xbc684f04	-0.014178995
35	0xbbd627ed	-0.0065355212
36	0x3d0b7a96	0.034052454
37	0x3cc7d51e	0.024393614
38	0xbc2a06cd	-0.010377598
39	0xbc87c29c	-0.01657229
40	0x3c756209	0.014976987
41	0x3c1dfda6	0.009642994
42	0x39e0f4a6	0.00042906887
43	0xbbf568da	-0.007489306
44	0xbd431026	-0.047622822
45	0x3cc14f33	0.023597335
46	0x3d24a0d7	0.04019245
47	0xbbe0f98b	-0.0068656853
48	0xbbde9fe1	-0.0067939614
49	0xbd26d3ad	-0.040729214
50	0xbc03ed2f	-0.008052154
51	0x3cad7925	0.02117593
52	0x3c2c19b1	0.010504172
53	0x3bea81e4	0.0071565975
54	0xbbb97274	-0.005659396
55	0xbd468a5f	-0.048471805
56	0x3cacc42d	0.021089638
57	0xbbec48ed	-0.007210842
58	0xbd52d77d	-0.051475037
59	0x3d102d16	0.035199247
60	0x3cacef56	0.021110218
61	0x3ce56ec1	0.028006913
62	0xbbed7e8b	-0.007247751
63	0x3c3229d1	0.010874228
64	0x3b3f8145	0.0029221338
65	0xbcb0e10d	-0.021591688
66	0xbca9ca88	-0.020726457
67	0x3cb86ee9	0.022513824
68	0x3d09fffe	0.0336914
69	0xbbb5b898	-0.005545687
70	0x3a6d874a	0.0009060992
71	0xbc9b2c95	-0.018942157
72	0xbcdfaea8	-0.027304962
73	0xbc49b7de	-0.012311904
74	0xbca89eaa	-0.02058347
75	0xbd157702	-0.036490448
76	0x3cdb34d6	0.026758593
77	0xbab8f0a5	-0.0014109804
78	0x3b96da12	0.0046036327
79	0x3d088f0a	0.033339538
80	0x3bdfd9f7	0.0068314034
81	0x3c677155	0.014126142
82	0x3a6c972c	0.0009025212
83	0xbc33112b	-0.010929386
84	0x3c8fd330	0.017556757
85	0x3d0f23a1	0.034946088
86	0x3d1af595	0.03783186
87	0x3d1688f7	0.036751714
88	0xbcb994b5	-0.022653917
89	0xbbe47825	-0.00697233
90	0xbcd460f9	-0.025925146
91	0xbc81d092	-0.015846524
92	0xbd164f46	-0.036696695
93	0xbd069afe	-0.032862656
94	0x3c356407	0.011071212
95	0x3ca50cb5	0.02014766
96	0x3bf55a41	0.0074875657
97	0x3cd22987	0.025654567
98	0x3cdd0b03	0.02698279
99	0x3c8df97e	0.017330881
100	0xba1caa48	-0.00059763016
101	0x3cc0bb22	0.023526732
102	0x3ba5a405	0.005054953
103	0xbc7a6ea0	-0.015285164
104	0xb8795113	-5.9441732e-05
105	0x3c868f7b	0.016425839
106	0xbd569312	-0.05238635
107	0x3d3f6f97	0.04673728
108	0xbc85b0d8	-0.016319677
109	0xbd29dd01	-0.04147053
110	0xbbc95406	-0.0061440496
111	0x3bc79f44	0.006091984
112	0xbd1e4dbf	-0.038648363
113	0xbbca4acf	-0.0061734687
114	0xbca873d5	-0.020563046
115	0x3bc9d617	0.0061595547
116	0xbba907e4	-0.0051584113
117	0x3d144b90	0.036204875
118	0xbca8cc89	-0.020605342
119	0xbc536ffa	-0.012905115
120	0xbd44b76c	-0.048026487
121	0xbbaf557a	-0.005350766
122	0x3cd2f023	0.025749272
123	0x3c203b57	0.009779773
124	0xbcff874d	-0.031192446
125	0x3bfa50b5	0.0076390156
126	0x3c242f1e	0.010020999
127	0x3af2923e	0.0018506718
128	0xbbfab411	-0.00765086
129	0x3cb85dfe	0.022505756
130	0xbc61a4e4	-0.013772223
131	0x3c1b8d50	0.009494141
132	0xbc512180	-0.012764335
133	0x3bdb776e	0.0066975867
134	0x3c19c924	0.009386335
135	0x3cb6adec	0.02229973
136	0x3ca3b779	0.019984948
137	0x3cbf858f	0.023379115
138	0xbbb1c4a8	-0.0054250546
139	0xbc44b4a7	-0.0120059615
140	0x3c09473d	0.008378801
141	0xbba7cc3f	-0.0051207836
142	0x3d13a4d2	0.036045857
143	0xbc16e5bc	-0.009210046
144	0xbc2c4b79	-0.010516041
145	0xbc454cba	-0.012042219
146	0xbcf24488	-0.029573694
147	0xbd318119	-0.043336008
148	0xbc8d2541	-0.017229678
149	0x3c26d05f	0.0101815155
150	0xbb75f2b5	-0.0037528698
151	0x3c19b35c	0.0093811415
152	0xbba790b9	-0.005113688
153	0xbb1b2739	-0.0023674502
154	0xbc8ca9df	-0.017170845
155	0x3c986ff9	0.01860808
156	0xbd2b57b7	-0.0418317
157	0xbc3577a8	-0.011075892
158	0xbc89d3df	-0.01682466
159	0xbc8f9468	-0.01752682
160	0xbc1f1da4	-0.009711657
161	0x3c2a4af1	0.010393844
162	0xbc0e4c18	-0.008685134
163	0x3cdb8d66	0.026800822
164	0x3b79b3d6	0.0038101575
165	0xbc30de2d	-0.010795158
166	0x3ccb3c45	0.024809012
167	0x3c6e4a16	0.014544031
168	0x3c8c5e02	0.01713467
169	0xbbc34ba2	-0.005959944
170	0xbc3e3760	-0.011609882
171	0x3ce0c561	0.027437868
172	0x3c00bc4d	0.007857394
173	0xbc0af4aa	-0.008481184
174	0x3d2edac8	0.042689115
175	0xbd1e75c1	-0.038686518
176	0x3b20cc82	0.0024535959
177	0x3b820f0e	0.00396908
178	0xbbdd04d2	-0.0067449594
179	0xbca8b42a	-0.020593721
180	0xbc579507	-0.0131580895
181	0x3cc71e54	0.024306454
182	0x3d263c87	0.040585067
183	0x3c232a20	0.009958774
184	0xbd17d4f5	-0.037068326
185	0x3c6a38d4	0.014295775
186	0xbc6c471f	-0.014421253
187	0xbc0269e7	-0.007959819
188	0x3c8a411a	0.016876746
189	0xbbf71df6	-0.0075414134
190	0xbbc0386a	-0.0058661
191	0xbc3a85cc	-0.011384439
192	0xbd03e6ee	-0.032202654
193	0xb7c2684b	-2.3175167e-05
194	0x3c399c76	0.011328807
195	0xbcaaa58d	-0.020830894
196	0x3b842dc5	0.0040337765
197	0xbcbcee04	-0.023062713
198	0x3cf1a930	0.02949962
199	0x3c74785a	0.014921272
200	0xbb53e95a	-0.0032335133
201	0x3cb979d0	0.022641093
202	0x3c645a23	0.013937506
203	0x3b354d1e	0.0027664374
204	0x3c10ccc2	0.008837881
205	0x3b13f9be	0.0022579278
206	0x3c2cd752	0.010549383
207	0xba776fac	-0.00094389427
208	0x3bd124d9	0.0063825664
209	0xbbb9d972	-0.0056716735
210	0x3cd015c2	0.025401
211	0xbc570198	-0.013122939
212	0x3cee7510	0.029108554
213	0x3d13edbf	0.036115404
214	0x3c6e66eb	0.014550905
215	0xbcbbe921	-0.022938313
216	0x3bc33c39	0.005958107
217	0xbbfd94a7	-0.007738668
218	0x3d195310	0.03743273
219	0xbca80e23	-0.020514553
220	0xbb5145f0	-0.0031932555
221	0x3d386527	0.04501834
222	0x3b007824	0.001960286
223	0xb965a19a	-0.00021899343
224	0x3c0552b7	0.008137397
225	0xbd343441	-0.043995146
226	0x3c1c282a	0.00953106
227	0x3a7564f0	0.0009361049
228	0xbd0737e3	-0.033012282
229	0x3c58b7a6	0.013227379
230	0xbc7f490a	-0.015581379
231	0xbc518353	-0.012787658
232	0x3be3bd36	0.006950046
233	0xbcb11226	-0.0216151
234	0xbcc4e951	-0.024037035
235	0x39f9a3ff	0.00047615168
236	0xbb8ecc18	-0.004357826
237	0x3d34ecb8	0.044171065
238	0x3c1eac37	0.009684614
239	0x3d26fb57	0.04076704
240	0xbd0375da	-0.032094814
241	0x3b2c10c1	0.0026255103
242	0xbc1eb07a	-0.00968563
243	0x3cb1dece	0.021712687
244	0x3d076e2e	0.03306406
245	0x3be3f57e	0.006956755
246	0x3c4d7e87	0.0125423735
247	0x3d25130b	0.040301364
248	0xbc0e6c46	-0.008692807
249	0xbd1e0748	-0.038581163
250	0xbc95ba58	-0.018277332
251	0x3ba713c2	0.005098791
252	0xbb1665e6	-0.002294892
253	0xbd3c152d	-0.045918632
254	0x3d22cedd	0.03974806
255	0x3c7e33ae	0.015515251

transformer.layers.0.self_attn.out_proj.bias f4 [64]
0	0x3c14509d	0.009052423
1	0x3b9468b7	0.0045290845
2	0xbbc17cb9	-0.0059047607
3	0x3be33ab3	0.0069344877
4	0x3b8f85fa	0.004379985
5	0x3abb5eb4	0.0014295192
6	0xbc02df72	-0.007987844
7	0x3c14730a	0.009060631
8	0x3bc83723	0.0061100884
9	0x3c2fde42	0.010734143
10	0xbc02e028	-0.007988013
11	0x3b83cf95	0.0040225484
12	0xb9d9711c	-0.00041473738
13	0xbbb1f3cf	-0.0054306756
14	0x3c2c00b4	0.0104982145
15	0xbc1da2f4	-0.009621371
16	0xbbf98102	-0.007614256
17	0x3afcac1e	0.0019277369
18	0x3b3b2499	0.002855575
19	0x3be69abd	0.007037489
20	0xbb2c362b	-0.0026277404
21	0x3bba9688	0.0056942143
22	0xbbd02c1b	-0.006352914
23	0x3bd3161c	0.0064418446
24	0xbc076684	-0.008264188
25	0x3a769971	0.000940702
26	0xbc028c18	-0.007967971
27	0x3bb2bb09	0.0054544252
28	0x3bb5109e	0.0055256626
29	0xbb507fda	-0.0031814487
30	0x3c003191	0.007824318
31	0x3bf482cb	0.007461881
32	0x3bca2027	0.0061683836
33	0x3bcff8cb	0.006346797
34	0xba908762	-0.0011026675
35	0xbad663ab	-0.0016356608
36	0x3b7f6b51	0.0038973878
37	0xbc1272b1	-0.008938477
38	0xb9f79a8e	-0.00047226663
39	0x3c1cc0a1	0.009567411
40	0xbc39e092	-0.011345046
41	0x3aefd3d3	0.0018297381
42	0xbbd98665	-0.0066383355
43	0xbc24bbcf	-0.010054543
44	0xbbbd83f8	-0.005783554
45	0xbb3ad50f	-0.002850834
46	0xbbc25440	-0.0059304535
47	0x3bf6c14b	0.0075303665
48	0xbb961e13	-0.004581222
49	0xba602451	-0.00085503334
50	0x3c3f10ad	0.011661691
51	0xbb5ef566	-0.003402078
52	0xbc0b35be	-0.0084967
53	0x3bef4540	0.0073019564
54	0x3c12abc2	0.008952083
55	0xbb843fae	-0.0040359115
56	0xbc21624a	-0.009850094
57	0xbbd29205	-0.0064260983
58	0xbc182388	-0.009285815
59	0xbad6b07e	-0.0016379503
60	0x3be189f8	0.0068829022
61	0xbbaf81aa	-0.0053560333
62	0x3b86a2fd	0.004108785
63	0xbc1e2b31	-0.009653852

transformer.layers.0.linear1.weight f4 [128, 64]
0	0xbd728c9c	-0.059216127
1	0xbcc51a0c	-0.024060272
2	0x3d17ebcc	0.037090108
3	0xbd114ef1	-0.035475675
4	0x3cd5ebb5	0.02611337
5	0xbc7a496d	-0.015276295
6	0xbc2b6157	-0.010460219
7	0x3d63e2c2	0.055636175
8	0x3cfe20fb	0.031021586
9	0xbc26fb9c	-0.010191824
10	0xbd3e0867	-0.04639473
11	0x3d1ee617	0.03879365
12	0x3c9f89ae	0.01947483
13	0x3cef58e8	0.029217198
14	0xbcb6f0f1	-0.022331687
15	0x3c835c05	0.01603509
16	0xbca67681	-0.020320179
17	0x3c8377da	0.01604836
18	0x3d567256	0.052355133
19	0xbd70287f	-0.05863237
20	0x3d61fa73	0.055170488
21	0x3c13827e	0.00900328
22	0x3da4800a	0.08032234
23	0xbb36cab0	-0.0027891807
24	0x3c3bd984	0.011465434
25	0xbbb3ee59	-0.0054910597
26	0x3c1878b7	0.009306124
27	0x3c39916c	0.011326175
28	0xbd99bca1	-0.07506681
29	0x3a432077	0.00074434973
30	0x3d4e29c9	0.05033282
31	0x3c8a5660	0.01688689
32	0x3d229a64	0.03969802
33	0xbd7d052d	-0.061772514
34	0xbc938e45	-0.018012175
35	0x3cceca1f	0.025242863
36	0xbc91c897	-0.017795844
37	0x3bfdd582	0.0077463994
38	0x3cd617d7	0.026134415
39	0xbc8afb9d	-0.016965682
40	0x3c47dd69	0.012198784
41	0xbcb1461d	-0.021639878
42	0xbd696e97	-0.056990232
43	0xbbef1bf2	-0.0072970325
44	0xbd04a3a0	-0.032382607
45	0xbd015866	-0.031578444
46	0x3c094c02	0.008379938
47	0xbd12835e	-0.035769813
48	0x3c8d4fdb	0.017249992
49	0xbc967d74	-0.018370368
50	0xbc7e9be4	-0.015540097
51	0xbd0e1e62	-0.034696944
52	0x3da8385d	0.082138754
53	0x3cd2fc05	0.025754938
54	0xbd84b61e	-0.064800486
55	0xbb9882af	-0.0046542506
56	0xbcb33642	-0.021876458
57	0xbcfae6c5	-0.030627618
58	0xbba96d15	-0.0051704743
59	0xbd9fe9f3	-0.07808294
60	0x3bab9f7d	0.0052375183
61	0xbcaa4621	-0.020785393
62	0xbc121b89	-0.008917698
63	0xbcc73ec5	-0.024321923
64	0xbcca660f	-0.024706868
65	0x3c0c80c0	0.008575618
66	0x3ca549ae	0.020176735
67	0xbc96bb51	-0.018399866
68	0x3c5491f3	0.01297425
69	0x3c290b25	0.0103175985
70	0xbcdca9f0	-0.026936501
71	0x3cc4d8b5	0.024029115
72	0x3b670fca	0.0035257214
73	0x3ce6787e	0.028133627
74	0xbcd64203	-0.026154524
75	0xbd46bcdb	-0.04851995
76	0xbd2bcfc5	-0.04194619
77	0xbc70749c	-0.014676239
78	0x3cbdaf21	0.023154797
79	0x3c9ccd10	0.01914075
80	0xbca6a716	-0.020343345
81	0xbc9adf0f	-0.01890519
82	0xbd08a513	-0.033360552
83	0x3c84bb6a	0.016202647
84	0x3b9df74f	0.0048207412
85	0xbc63c431	-0.013901756
86	0xbcca81c1	-0.024720075
87	0xbbf64282	-0.0075152526
88	0x3c5d3bd5	0.013503035
89	0x3adf5ead	0.0017041765
90	0xbc21c194	-0.009872813
91	0xbd38ab65	-0.04508533
92	0x3c4b06e9	0.012391784
93	0xbc125f09	-0.008933791
94	0xbd4da9fe	-0.050210945
95	0xbc87a6c0	-0.016559005
96	0x3d19387d	0.037407387
97	0xbb01e480	-0.0019820035
98	0xbb3177cd	-0.0027079463
99	0xbc2cbfe2	-0.010543795
100	0x3bf17a4e	0.007369316
101	0x3be462ef	0.0069698016
102	0xbd02d4c9	-0.03194121
103	0x3c2a3415	0.010388394
104	0x3bc0ec50	0.0058875456
105	0x3b6d645b	0.0036223147
106	0xbcd76f87	-0.026298298
107	0x3b2f6f65	0.0026769277
108	0xbc7585d0	-0.014985517
109	0x3c8bba1b	0.017056515
110	0xbc851867	-0.016246988
111	0xbd2bdbc2	-0.041957624
112	0x3ca8d2e0	0.020608366
113	0x3cc9d929	0.024639683
114	0xbc579d7b	-0.013160105
115	0x3c4dcf51	0.012561635
116	0x3d0b896e	0.03406661
117	0x3c81c589	0.015841262
118	0x3ccfdd96	0.025374215
119	0x3cf7d0a7	0.03025086
120	0xbd4d6f67	-0.05015507
121	0xbb619696	-0.0034422032
122	0x3d06601f	0.032806512
123	0xbcfe50c2	-0.031044368
124	0x3c122869	0.008920767
125	0x3c1d8e5d	0.009616462
126	0x3d250562	0.040288337
127	0x3c162581	0.009164215
128	0x3d7ac9ab	0.06122748
129	0x3cd836ab	0.026393255
130	0xbc3cf67d	-0.011533377
131	0x3cefff98	0.029296681
132	0x3bb2333f	0.005438238
133	0xbc977533	-0.018488502
134	0xbc6249de	-0.013811557
135	0xbc63b7cb	-0.0138988
136	0x3cd0c4f0	0.025484532
137	0x3c87b717	0.016566796
138	0x3bee6b32	0.0072759623
139	0xbc9a84d5	-0.018862167
140	0xbd08cf8a	-0.03340105
141	0xbd33b2a7	-0.043871548
142	0x3c05b600	0.008161068
143	0xbc2473f5	-0.010037412
144	0x3b92c283	0.004478754
145	0xbc8e3827	-0.01736076
146	0xbd20c0c3	-0.039246332
147	0xbc37e163	-0.01122317
148	0x3d9d5ee4	0.076841146
149	0x3caa10ed	0.020760024
150	0x3b6cbae1	0.003612213
151	0x3d256100	0.04037571
152	0xb971e333	-0.0002306819
153	0x3a96ad00	0.001149565
154	0x3b5de384	0.0033857534
155	0xbd28aa13	-0.04117782
156	0x3d638059	0.055542324
157	0x3bf56d38	0.0074898265
158	0x3c3a31d9	0.011364424
159	0x3c69498f	0.014238729
160	0x3c87f171	0.01659462
161	0x3bfdb801	0.0077428822
162	0xbca437e4	-0.020046182
163	0xbc994fd9	-0.018714832
164	0x3d2740b8	0.040833205
165	0xbc64ad70	-0.013957366
166	0xbc874c71	-0.016515942
167	0x3cf8b105	0.030357847
168	0xbd8cb6bb	-0.068707906
169	0x3cc587bf	0.02411258
170	0xbb6f7968	-0.003654087
171	0xb9491010	-0.00019174838
172	0x3b22d031	0.002484333
173	0xbc818a81	-0.015813114
174	0x3b2e8e42	0.0026635085
175	0xbc70bdb3	-0.014693665
176	0x3b2238eb	0.0024753164
177	0x3d859205	0.06521992
178	0x3d1b3b6e	0.037898473
179	0x3d1bd17d	0.03804158
180	0x3c03c6e1	0.008043022
181	0x3cf7bade	0.030240472
182	0xbd21dff8	-0.039520234
183	0xbbf95093	-0.007608482
184	0xbc91f297	-0.017815871
185	0x3aff7677	0.0019490261
186	0xbc8758cb	-0.016521832
187	0xbc82383f	-0.01589596
188	0x3d1be831	0.03806323
189	0xbcc02ad2	-0.023457918
190	0x3afe4741	0.0019399897
191	0xbc8349ef	-0.016026465
192	0x3d37d9ce	0.04488545
193	0xbc948790	-0.018131047
194	0x3d070c92	0.032970972
195	0x3c74feda	0.0149533395
196	0x3bfd7098	0.0077343695
197	0x3c9d1ee4	0.019179769
198	0xbcecb635	-0.028895477
199	0x3cd03b5b	0.025418928
200	0xbb158904	-0.0022817263
201	0x3d8bb21e	0.068210825
202	0x3d3fd4ab	0.046833675
203	0xbbc6fdee	-0.0060727512
204	0x3cbf070d	0.023318792
205	0xba18ba94	-0.0005826142
206	0x3d0a7b53	0.033809017
207	0xbb98bc37	-0.004661109
208	0x3cc1ad7e	0.023642298
209	0x3cccf38c	0.025018476
210	0xbc8b68bc	-0.017017715
211	0x3dae254b	0.08503207
212	0xbc0a57fd	-0.00844383
213	0x3cc6f164	0.024285026
214	0xbd3a0ebf	-0.04542422
215	0x3d32b78c	0.043632075
216	0xbc278a10	-0.010225788
217	0x3a9b72a3	0.0011859726
218	0xbbac7fe8	-0.005264271
219	0x3c12ae35	0.008952667
220	0x3c4f2c25	0.012644802
221	0xbd874005	-0.06604008
222	0x3ce9c3f6	0.028535824
223	0xbca0f616	-0.019648593
224	0xbc8221e8	-0.015885308
225	0x3d3bae1b	0.045820337
226	0x3af3c1bf	0.001859717
227	0xbca722fb	-0.020402422
228	0x3b0c0b98	0.0021369215
229	0xbc29a51d	-0.0103543075
230	0xbccd229a	-0.025040913
231	0x3c8457ea	0.016155202
232	0x3c411a59	0.011786067
233	0x3d0370c1	0.032089952
234	0xbd1028c1	-0.035195116
235	0xbd67af70	-0.056563795
236	0xbba9c9d5	-0.005181531
237	0xbd48073c	-0.048835024
238	0x3c014c0a	0.007891664
239	0x3d59fe30	0.053220928
240	0x3d511d10	0.051053107
241	0x3bc57f06	0.0060271053
242	0x3db3681f	0.08760094
243	0x3af6e80b	0.0018837465
244	0xb8e51ba6	-0.00010924721
245	0x3ab75e6e	0.0013989934
246	0x3bd3b750	0.0064610615
247	0x3cdf7fdf	0.027282653
248	0xbd4ae89d	-0.049538244
249	0x3c36bd10	0.011153474
250	0xbcf60344	-0.030030854
251	0x3853cace	5.0495197e-05
252	0x3d822a8b	0.06355771
253	0xbc9d77b9	-0.019222127
254	0x3ca11675	0.019664029
255	0xbc280f67	-0.010257578

transformer.layers.0.linear1.bias f4 [128]
0	0xbb425276	-0.0029651201
1	0xbb276eee	-0.0025548297
2	0x3c222a14	0.0098977275
3	0x3cbec0bc	0.023285262
4	0x3b4f492c	0.0031629307
5	0xbbfe72ab	-0.0077651343
6	0x3cc5396d	0.024075234
7	0x3c8cb53a	0.01717626
8	0x3bbc9402	0.0057549486
9	0x3b3ede38	0.0029124152
10	0x3bc0360f	0.0058658193
11	0x3c244359	0.010025823
12	0xbb813273	-0.0039427816
13	0x3b7cc66a	0.0038570412
14	0x3bd2122c	0.0064108577
15	0xbc4a1179	-0.012333267
16	0x3c8e8300	0.01739645
17	0x3c9ab42e	0.018884744
18	0xbbbfa032	-0.005847954
19	0x3b890f4e	0.0041827327
20	0x3c46ea6b	0.012140851
21	0xbcc68833	-0.024234867
22	0x3cc8091e	0.02441841
23	0x3c3a2e55	0.0113635855
24	0x3c43f874	0.011961091
25	0x3bc9717c	0.0061475616
26	0x3c226af6	0.009913197
27	0x3ca7a28d	0.020463252
28	0x3c48b14c	0.012249302
29	0x3c85f037	0.016349895
30	0x3bfdbcb9	0.0077434448
31	0xbbf2e05e	-0.0074120006
32	0xbb1c75e3	-0.0023873977
33	0x3ba59e2b	0.0050542555
34	0x3b679c74	0.0035341056
35	0x3bcb1cde	0.0061985096
36	0x3bdb19a8	0.006686408
37	0x3ca7cbdb	0.020482948
38	0x3bf3a7cc	0.0074357744
39	0xbc5e2c1c	-0.013560321
40	0x3bfde460	0.0077481717
41	0x3bb5ab8d	0.005544132
42	0x3c2c35c5	0.0105108665
43	0x3b1e9a50	0.0024200864
44	0x3cb4c3a8	0.022065952
45	0x3bf281bc	0.0074007194
46	0x3c103893	0.008802551
47	0x3b8d5d67	0.004314113
48	0xbaf1a045	-0.0018434605
49	0x3b8aabbb	0.0042318976
50	0xbc5c6c81	-0.013453604
51	0x3a52ef79	0.00080465485
52	0x3c4c5537	0.012471489
53	0x3c85ef7e	0.01634955
54	0x3bd99a1c	0.0066406857
55	0xbbd5274b	-0.006504928
56	0x3c4bdaa9	0.012442269
57	0xbc708bb1	-0.0146817425
58	0x3bbd5c26	0.005778807
59	0xbc7c904c	-0.015415262
60	0x3c207009	0.009792336
61	0x3c31e2d5	0.010857304
62	0x3c44e40c	0.012017261
63	0x3c65b490	0.0140201
64	0x3aba8910	0.0014231522
65	0x3c1e7b7d	0.009672997
66	0xbbdc2fe5	-0.0067195767
67	0x3c96cec2	0.018409137
68	0xba55d159	-0.00081565004
69	0x3cd5bd1e	0.026091155
70	0x3c154bc3	0.009112301
71	0xbab868af	-0.0014069284
72	0xbb8cb5f1	-0.00429415
73	0x3b15e41a	0.0022871555
74	0x3c4ba450	0.012429312
75	0x3bbc63c2	0.0057491967
76	0x3c30a89e	0.010782389
77	0x3b65594d	0.0034995854
78	0x3cad1658	0.021128818
79	0x3b85f97c	0.0040885787
80	0x3cabab51	0.020955713
81	0xba7e5203	-0.0009701552
82	0x3c27a15f	0.010231345
83	0xbbe58ad3	-0.0070050745
84	0x3bbe4ef8	0.0058077537
85	0x3c0e5a55	0.008688529
86	0x3ca05bb8	0.019574985
87	0x3bd0fbd4	0.0063776765
88	0xbc1e4341	-0.009659589
89	0x3c042da5	0.008067523
90	0x3c05dd8d	0.008170498
91	0x3c4ef399	0.01263132
92	0xbcae20ae	-0.021255817
93	0x3a854bdc	0.0010169703
94	0x3c95f346	0.018304478
95	0x3b22d551	0.0024846385
96	0x3c879c8f	0.016554145
97	0xbb9c2400	-0.0047650337
98	0x3b63fb2f	0.0034787168
99	0x3c30e5c4	0.010796968
100	0x3c4d27c1	0.012521685
101	0x3be7d4d3	0.007074931
102	0xba5e0d5c	-0.00084706186
103	0x3cbd2363	0.023088163
104	0x3a78a5ae	0.00094851374
105	0x3bf5607b	0.007488308
106	0x3b5644c7	0.0032694803
107	0x3cc27fa6	0.023742508
108	0x3c842433	0.016130542
109	0xbb6a58e8	-0.0035758559
110	0x3c17c0b0	0.009262249
111	0x3c207b70	0.009795055
112	0xbc366758	-0.0111330375
113	0x3c77cd4d	0.015124631
114	0x3bd91f37	0.0066260356
115	0x3ba8f6b4	0.0051563624
116	0x3c84fa03	0.016232496
117	0x3a71809c	0.00092125847
118	0x3a3bab51	0.0007159012
119	0xbc9475da	-0.018122602
120	0xbbdf889d	-0.0068217055
121	0x38229769	3.876482e-05
122	0xbb44987c	-0.0029998114
123	0x3c489a38	0.0122438
124	0x3b9fece6	0.0048805354
125	0xba79420e	-0.0009508439
126	0x3c202c06	0.009776121
127	0x3c7a606e	0.01528178
