marble_model/best_model_v3.0_20250531_004649.pt (torch, 295593 bytes, 30 tensors)

token_embedding.weight f4 [13, 64]
000000 cb 12 11 bd 82 88 f9 3c 4b ff 8d bc 66 35 39 3d
       -0.035418313 0.0304606 -0.017333647 0.04521694
000010 b8 8e 8a bc e6 33 8d bc c9 cc fd 3b 09 14 1a bd
       -0.016913757 -0.017236661 0.0077453596 -0.037616763
000020 be 6e 24 3a 78 7e 00 3b 07 1c 90 bb d2 c9 21 bc
       0.00062726054 0.0019606631 -0.0043978724 -0.009874778
000030 f0 b8 a2 3c b3 b5 52 3d fb 5e d8 bb c0 dc 80 bd
       0.019863576 0.051442813 -0.0066031194 -0.06292105
000040 07 cf c7 bc f4 5e e6 bb a6 70 7d bb 1e 9e af bc
       -0.02439071 -0.0070303623 -0.003867188 -0.0214377
000050 bd 54 8b 3c 0e 64 52 bc 97 b8 06 bd 22 35 04 bc
       0.01700818 -0.012841238 -0.032890882 -0.0080693085
000060 46 97 24 3b 67 d4 3a 3c 5b 73 ca bc fd 2c ab bb
       0.002511458 0.01140318 -0.024713209 -0.005223869
000070 35 88 de 3b 7d b0 89 bc 49 78 27 3a f9 47 f9 bb
       0.0067911395 -0.016807789 0.00063884683 -0.0076074568
000080 9b 87 0b bc ab 94 1a 3c ee f0 a4 bc 6d 60 17 3c
       -0.008516218 0.009434859 -0.020134415 0.009239298
000090 f5 a8 cc 3b 69 1d 87 bc a4 be b1 3a 98 83 82 3b
       0.006245727 -0.016493516 0.0013560844 0.0039829724
0000a0 ff ff 0d bc 74 57 62 3c 6e 4a cd 3a 42 21 bc 3b
       -0.008666991 0.013814796 0.001566244 0.0057412693
0000b0 4d 70 41 bc 22 14 14 bd 45 f6 35 bc 82 d5 ba 3b
       -0.01180656 -0.036152013 -0.0111060785 0.0057017216
0000c0 a6 94 09 bd ee ee 9e 3c 2f 1d 38 bc 90 29 a1 3c
       -0.033589028 0.01940104 -0.011237427 0.019673139
0000d0 90 12 c4 bb 8a 91 2c bc 90 e9 5e 3c dd 11 d9 bc
       -0.005983658 -0.010532746 0.01360549 -0.026497776
0000e0 be 33 80 3a 1f 95 84 bc a4 23 13 3b ab 2d 43 bc
       0.0009781045 -0.016184388 0.0022451663 -0.011912744
0000f0 50 53 31 bc f7 8f 95 bc d3 ac 42 3c 74 3b 39 3b
       -0.010823086 -0.018257124 0.011882025 0.0028264197
000100 a1 1d 70 3c 0e 40 c3 3c c1 fd 99 3c 37 fe b1 bb
       0.014655502 0.023834255 0.018797757 -0.005431916
000110 1f 37 01 bc 61 48 2f 3d 47 b6 e3 3c 96 1c 1f bd
       -0.007886677 0.042793635 0.027796878 -0.03884562
000120 59 3b 96 bc b2 2b 24 3c 82 a4 23 bc d5 6c 18 3d
       -0.018338846 0.010020183 -0.009987952 0.037213165
000130 91 e9 3e 3b f4 71 6f 3c c5 19 2e 3d f3 2e 1c 3c
       0.0029130916 0.014614571 0.042505044 0.009532678
000140 4f 8d c8 3c 2e df 37 bc cb e2 bf bc 88 ba c3 3c
       0.024481444 -0.011222644 -0.023423573 0.023892656
000150 a9 e6 ac 3c 1f 28 c6 bc e1 54 48 3c 86 14 fb bc
       0.021106081 -0.024189053 0.012227268 -0.030649435
000160 de 0f 17 3d fe 34 e8 bc 20 ec 77 bc 04 84 f1 bc
       0.036880367 -0.028345581 -0.01513198 -0.029481895
000170 19 70 dd 3c 69 cb e7 bc 5a b9 c5 bc 66 e2 34 3d
       0.027030991 -0.028295236 -0.024136234 0.044161223
000180 d1 c8 cd b9 d8 a8 96 3c 32 32 c7 3c 45 24 a1 bc
       -0.00039250267 0.018391058 0.024315927 -0.019670615
000190 b5 00 ee 3c 75 8e eb 3c 67 5e 25 bd 0f 11 8c 3c
       0.029053072 0.028754452 -0.040373232 0.017097978
0001a0 27 f7 d3 3c 1d 9d c9 3b e0 cf 79 3a 65 c5 1d 3c
       0.025874687 0.0061527626 0.0009529572 0.009629582
0001b0 53 52 00 bd 06 11 68 3c e1 c4 aa bc ca 26 7f bc
       -0.03132851 0.014164215 -0.020845832 -0.015573213
0001c0 a9 0b a2 bc 36 c9 b6 bc 27 84 6b 3c 97 50 bb bc
       -0.01978095 -0.022312742 0.014374769 -0.022865577
0001d0 35 81 d1 3c de aa 38 bc 5f d4 c6 bb 6b 50 be 3c
       0.025574306 -0.011271207 -0.006067797 0.023231706
0001e0 72 c1 be 3a 46 19 95 bb c3 1d 05 3d 49 db 14 3d
       0.0014553501 -0.004550132 0.032499086 0.03634194
0001f0 ca 5b 06 bd 93 1b 06 bd e7 05 0a 3d 4a c3 20 bd
       -0.03280238 -0.03274114 0.033697035 -0.039248742
000200 f7 c1 e3 3b 2e e4 28 3c a7 90 17 bd e8 77 a0 3b
       0.0069506126 0.0103083085 -0.037003186 0.0048971064
000210 87 3c 95 bc 44 09 e7 3c 5b f3 99 3b 58 d0 b4 bb
       -0.018217338 0.02820266 0.0046981997 -0.0055180006
000220 84 c0 ad bc f7 46 c3 bb d7 97 2f bc e5 e2 94 bb
       -0.021209963 -0.0059593874 -0.010717354 -0.0045436495
000230 89 ed f7 bc df bc 02 bc 77 db 88 3c c0 2e 44 3b
       -0.030264633 -0.007979601 0.016706211 0.0029935092
000240 89 e2 3a 3b 0d 2e a3 3b 37 35 9e 3c 09 2c 8b bc
       0.0028516373 0.004979855 0.019312484 -0.016988771
000250 4b eb 89 3b a5 ed 92 3a 49 ee 9a bc 65 e8 5b 3b
       0.0042089573 0.001120974 -0.018912451 0.0033555266
000260 42 d9 b7 3c f7 1e de bc fc 52 a5 bb bb 5f 0a bd
       0.022442464 -0.027114375 -0.005045293 -0.033782702
000270 02 c6 17 bd 21 a8 77 bc 38 24 51 bd a2 8c 06 3d
       -0.03705407 -0.015115769 -0.05105993 0.03284896
000280 f1 21 8a 3c 33 d2 f4 3b ee 3e 70 bc c7 b7 9e bc
       0.016861888 0.0074713468 -0.014663441 -0.019374741
000290 5b b2 8b bc 5d 46 9c bc db a6 17 bd 57 49 14 3b
       -0.01705282 -0.01907652 -0.03702436 0.0022626722
0002a0 c4 09 52 bc 59 27 68 bd fe 4a e4 3c bc a6 d2 3c
       -0.012819711 -0.05667815 0.02786779 0.02571427
0002b0 b5 53 ee bc e7 5e 96 3c 04 5a 0c 3c 36 92 22 3a
       -0.029092649 0.0183558 0.008566383 0.00062015967
0002c0 67 91 01 3d c2 54 69 3c 06 da 7a 3c 21 82 f3 bc
       0.031632807 0.014241399 0.01531077 -0.029725136
0002d0 ee 50 35 bc 5c e4 6f bc f5 f8 3b 3c 38 63 7f bb
       -0.011066658 -0.014641847 0.01147293 -0.003896905
0002e0 9e e5 d2 bc e2 6d 17 bd b7 ef fd bb 05 74 3c bb
       -0.025744256 -0.036970027 -0.0077495235 -0.0028755676
0002f0 77 31 c2 3b 34 1d 90 bc 3a 14 86 bc a6 ae 22 3d
       0.005926307 -0.01759205 -0.016367067 0.03971734
000300 99 60 86 3a dc 84 cd bb 58 d6 cb ba 6e b0 15 bb
       0.0010252177 -0.0062719416 -0.001555155 -0.0022840756
000310 81 a6 fd 3b 5e b9 3c bc f3 a0 2b bc ef 9e 52 3c
       0.007740796 -0.011518804 -0.010475385 0.0128552755
000320 94 81 58 bc 88 74 ca bc 96 5d 0f bb b1 5f e5 3b
       -0.013214488 -0.02471377 -0.002187585 0.0069999327
000330 fd bf 3f bc 1f 3e 9f 3c 9c d7 1e 3d 53 11 b7 bc
       -0.011703488 0.019438801 0.03877984 -0.022347128
000340 1e 4c 0a bd 2e cb da 3c 56 dd 16 3d 71 44 92 3c
       -0.033763997 0.026708212 0.036832176 0.017854901
000350 2d d3 f5 3a 95 9b d6 3b c8 3d f0 3c 1f 56 51 bc
       0.0018754952 0.0065493085 0.029326335 -0.0127768805
000360 4f 3c 57 bc 1d be e8 3c fa 16 f5 3b 73 e5 5c b9
       -0.013136937 0.028410966 0.0074795457 -0.00021066311
000370 ba 39 02 bc 2b 53 09 3c b7 0e 72 ba b4 d1 8c 3b
       -0.007948333 0.008381645 -0.000923376 0.0042974595
000380 88 32 83 bc ce 4e 78 bc ba 56 0a 3c ba 8b bc 3c
       -0.016015306 -0.015155507 0.008443529 0.023015846
000390 18 29 16 bc 17 fe ae 3c 1e 94 27 3c e1 bc 98 bc
       -0.009165071 0.021361394 0.010228185 -0.018644752
0003a0 d9 88 a7 3a f3 c8 fe bb f2 a0 e7 bc b1 fa 42 bc
       0.0012781873 -0.00777542 -0.028274987 -0.01190059
0003b0 78 eb cf bb 40 47 89 bc 71 0c 24 3c 56 c0 95 bc
       -0.0063452087 -0.016757607 0.010012732 -0.01828019
0003c0 8a 13 d2 bc ca 44 b0 bb 4b 17 f5 bb 36 8e 6e ba
       -0.025644083 -0.005379294 -0.0074795834 -0.00091001706
0003d0 cc 23 40 bc d8 10 f7 3c ee 31 87 3c b2 5d c3 3b
       -0.011727285 0.030159399 0.0165033 0.005962097
0003e0 c2 44 94 3b bf 17 24 bc dd d2 f6 3b 91 60 06 3b
       0.004524798 -0.010015427 0.007532461 0.0020504335
0003f0 7d 78 ba 3c 94 63 8b 3c 54 8f 7c b9 2f 42 71 bc
       0.022762531 0.017015256 -0.00024085987 -0.014725252

position_embedding.weight f4 [30, 64]
000000 bb 11 ef 3c 40 29 a1 3c bf 73 9f 3c ba df 08 3d
       0.02918326 0.01967299 0.019464372 0.033416487
000010 a1 92 57 bd 5c 16 3e bb e2 b7 4d 3c 45 05 65 bd
       -0.05263007 -0.0029005026 0.012556048 -0.05591323
000020 c6 16 13 bd c8 ca 2e 3d 1d 12 80 3b ec 96 8e 3c
       -0.03591039 0.042673856 0.0039084093 0.01740595
000030 d2 b6 d8 3c f1 f1 e0 bc 1e 10 8f 3c 6c 8c 5c 3c
       0.026454363 -0.027459117 0.01746374 0.013461214
000040 f2 79 c1 3b a0 84 61 bb b0 06 ff bc 80 7a d7 3c
       0.0059044296 -0.0034411326 -0.031131119 0.02630353
000050 86 1a 79 3b 59 0b ee bc 37 b7 fe bc f0 b9 9d 3b
       0.0038010194 -0.029058145 -0.031093223 0.0048134252
000060 24 c1 65 bc 54 1e e0 bc 4c 41 03 bd ce 8d ac bc
       -0.014023099 -0.027358212 -0.032044694 -0.021063711
000070 a3 75 b7 3c be 02 bf bb 53 a4 fc bb ca 95 bc bb
       0.02239496 -0.0058291843 -0.0077100187 -0.005755161
000080 20 56 19 3d a3 5b ed 3c 34 c4 01 bd af f1 2d bc
       0.03743565 0.02897436 -0.031681255 -0.010616704
000090 e7 79 5f 3c 1c 55 2b 3d 6e 75 0d bc 6e 72 f4 3c
       0.013639904 0.041829214 -0.008633954 0.02983972
0000a0 f5 1a 0a 3d 33 8c b6 3c 4f d5 fa bb 8a b2 f5 3b
       0.033717114 0.02228365 -0.007654823 0.00749809
0000b0 6a f5 c6 bc 31 8c ba 3c 99 6c f7 bc b4 72 b3 bc
       -0.024286944 0.022771927 -0.03020315 -0.02190528
0000c0 35 bd df bc 11 86 1b bc 92 2b d1 3c 43 df 24 bd
       -0.0273119 -0.009492413 0.025533471 -0.04025198
0000d0 57 ef df 3c a2 4c 2c bd 68 b0 9a bc a3 e6 0c 3d
       0.027335806 -0.04206527 -0.018882945 0.03439964
0000e0 15 d6 85 bc 79 f8 f4 3c ee 3d 0c 3d 4c e4 ca 3c
       -0.016337434 0.029903637 0.03423875 0.024767064
0000f0 46 09 b1 bc 0a 76 c3 bc f5 50 f0 3b 76 e7 f2 bc
       -0.021610867 -0.023859996 0.0073338696 -0.029651385
000100 c7 0d 81 39 7c 75 6b bc 1d 54 1a bd 41 2a 35 bd
       0.00024615062 -0.014371272 -0.037677873 -0.04422975
000110 02 3e 16 3d a9 9e f9 bc f1 ad 80 bc ec 64 21 3d
       0.03668023 -0.030471163 -0.015707942 0.039402887
000120 a3 a7 9e 3b b0 42 15 3b f4 f9 3f 3c 8d ef 08 bd
       0.004841761 0.0022775345 0.011717308 -0.03343158
000130 e3 e4 df bc 8b 7f 4e 3d 40 c5 3a 3c 80 51 d0 bc
       -0.027330821 0.050414603 0.011399567 -0.025429487
000140 70 23 aa 3c d1 47 bb 3c a1 e4 83 3c 74 a4 c9 bc
       0.020768851 0.022861393 0.01610023 -0.02461455
000150 ca b5 cc bc eb 20 d0 bc 43 9d 51 3d 66 47 07 bd
       -0.024989028 -0.025406322 0.051175367 -0.033027075
000160 14 ff 82 bc e3 aa e9 bc 81 0a 2e 3d 62 f4 16 bc
       -0.015990771 -0.028523868 0.042490486 -0.009213539
000170 f2 48 45 3b 50 a1 7d bb e9 2f 6c 3c d5 85 0a bc
       0.0030103293 -0.0038700886 0.01441572 -0.00845476
000180 40 36 0f bd 53 c4 64 bc ac 3c 33 3c 13 de cb 3c
       -0.034963846 -0.013962823 0.010939758 0.024886167
000190 24 9b 00 bd cf 11 69 bb 4c e8 6c bb 3e f1 6b 3c
       -0.031397954 -0.0035563593 -0.0036149202 0.014400778
0001a0 7c ca a4 3c 8b e8 3c bc 3a b7 22 3c dc 0b d3 b8
       0.020116083 -0.011530052 0.00993138 -0.00010063473
0001b0 62 45 a8 3c 00 36 24 bb 70 ed 9e 3b 8f 78 52 3c
       0.020540897 -0.00250566 0.004850082 0.012846126
0001c0 47 a9 25 bc e4 c2 be 3c 5f 53 b3 bc be f6 87 3b
       -0.01011116 0.02328629 -0.02189034 0.004149287
0001d0 68 f2 07 b9 a7 25 c0 bb 34 c4 d0 3c 7b 22 43 3d
       -0.00012964907 -0.0058638635 0.025484182 0.047640305
0001e0 6b 08 da 3b d8 b8 84 bc 69 b8 a3 3c e3 7b 08 3b
       0.0066538355 -0.016201422 0.019985395 0.0020825795
0001f0 cf f5 1e bb d0 d6 e4 3b 60 74 de 3b 90 f4 11 bd
       -0.00242554 0.0069836155 0.0067887753 -0.035633624
000200 4d 8b f5 bc 81 f4 70 bc 2e 47 0a bd 76 47 a0 bc
       -0.02997365 -0.014706732 -0.03375929 -0.019565325
000210 1c 7f 29 3d 51 6f 15 bc c9 8c 0b bc 98 11 08 3d
       0.041380987 -0.009120778 -0.0085174525 0.033219904
000220 f5 0f c4 3c 3f fa f8 3c fa 76 36 3d 9d e8 aa bc
       0.02393339 0.030392764 0.04454706 -0.020862872
000230 8d dc d0 bc d9 37 07 3d 15 55 99 bc e0 92 98 bc
       -0.025495792 0.033012245 -0.018717328 -0.018624723
000240 14 0e cf 3c 7a 0e 80 3b 37 dc b5 bc fb b1 41 bc
       0.025275268 0.0039079757 -0.022199733 -0.011822219
000250 c1 98 0d bd 6e 79 18 bd 01 13 d4 ba 1a 64 41 bc
       -0.034569506 -0.03722518 -0.001617998 -0.011803651
000260 0a df 7b bc 43 30 8f bc e4 51 dd 3c 8d ac 90 ba
       -0.015373001 -0.017479068 0.027016588 -0.0011037752
000270 de ee 2e 3d 98 2c 33 3d d4 17 8b 3c 85 8f c8 bc
       0.04270827 0.0437437 0.016979136 -0.024482498
000280 df c7 f6 bc 69 e5 62 bc 70 b8 14 bb 73 6e ea bc
       -0.030124603 -0.013848641 -0.002269294 -0.02861712
000290 26 76 11 bd 1a 2d 85 bc 08 cd 9d 3c dd cf fe 3c
       -0.035513066 -0.016256858 0.019262806 0.031104976
0002a0 f8 53 ac 3c 9f df d2 bc 39 44 1d 3c c7 9e a0 bc
       0.021036133 -0.025741396 0.009598785 -0.019606961
0002b0 ac a3 43 3d 50 cb ab ba ae 20 e3 3b 16 17 4d 3d
       0.04776351 -0.0013106856 0.006931386 0.050070845
0002c0 5d 57 45 3c 77 84 1e 3d 98 db 22 bd 8a 17 00 bd
       0.012044755 0.038700547 -0.039760202 -0.03127245
0002d0 98 5a 61 3c 32 17 ff bb 75 57 8e 3c c8 b7 3a 3d
       0.013754509 -0.0077847475 0.017375687 0.045585424
0002e0 37 db 75 bb 9b 7a 0f bd 8b 03 da bb 63 b1 1f bc
       -0.0037514695 -0.035029035 -0.0066532544 -0.009746882
0002f0 45 a0 ae bc 6c 73 1e bd c2 8f 1e 3c 8f a0 13 3b
       -0.021316657 -0.038684294 0.009677829 0.002252612
000300 f8 25 26 bd 6c 3b 2c bd 36 ba fc 3c 30 2a df 3c
       -0.040563554 -0.042048857 0.030850511 0.027241796
000310 93 97 e6 bc f2 cf 36 bd 6c a8 d7 bc 72 8e 9a bc
       -0.028148448 -0.044631906 -0.026325427 -0.018866751
000320 19 bc fb bc 45 e1 da bc e5 11 9b bc a4 82 f6 3c
       -0.03072934 -0.026718745 -0.018929431 0.030091591
000330 1a fa 4d 3d 5d 4f 90 bc 8b db 09 bd 6f bd 84 3c
       0.050287344 -0.017615968 -0.033656638 0.01620361
000340 b2 eb de bb d1 44 22 3a e8 6c 23 bb f6 d4 07 3d
       -0.0068029994 0.0006190064 -0.002493674 0.03316208
000350 2b b5 2a bd 9e 99 b5 3c d9 73 03 bc c3 78 93 bc
       -0.04167668 0.022167977 -0.008023226 -0.01800192
000360 94 09 e8 3c 9e e2 c4 3c b0 f0 ed 3c ac f1 12 3d
       0.02832488 0.02403384 0.029045433 0.035875008
000370 7c 4b f5 bc 2c 06 bd bc cd ce 40 bd 4c 74 14 bd
       -0.02994322 -0.023074232 -0.04707222 -0.03624372
000380 ac 39 5d bc 5e 29 1d 3d e2 3e 6a bd c3 fe 05 3d
       -0.01350252 0.03836953 -0.057188876 0.032713663
000390 3d 8a 43 3d 75 83 57 3b e2 dd 1f bc bb e9 0d bc
       0.047739256 0.003288475 -0.009757491 -0.008661683
0003a0 96 92 80 3c 28 a8 30 3c 30 62 fd bc e6 8f 9d bb
       0.015694898 0.010782279 -0.030930609 -0.004808414
0003b0 62 4c b0 bc 74 36 32 bc 4d ba 24 ba 8f 03 4d bc
       -0.021520797 -0.01087724 -0.00062838645 -0.0125130555
0003c0 ec fb 2b 3d 44 0f 2c bd 7a 6f 1c bc 60 c4 07 3d
       0.0419883 -0.042006746 -0.009548062 0.033146262
0003d0 54 f2 a5 bc 08 b4 82 3c ef 7e 5b bd 5f c4 e0 3c
       -0.020257153 0.015954986 -0.05358785 0.027437387
0003e0 58 13 25 3d bd 38 2c 3d 33 50 bc 3c 1a 81 be 3c
       0.04030165 0.042046297 0.02298746 0.02325492
0003f0 3b 84 b4 3c 99 51 f0 3c 6d a8 dd 3c 70 13 c3 bc
       0.022035709 0.029335784 0.02705785 -0.02381298

transformer.layers.0.self_attn.in_proj_weight f4 [192, 64]
000000 2d be e5 bd 3e ea 89 3d 1b fc 4e 3d 22 fd fe 3d
       -0.11217914 0.06734131 0.050533395 0.12450625
000010 4d e3 db 3c 45 b9 ce 3d 3f 5c cb 3d ad 7d d7 3c
       0.026841784 0.10093931 0.09929704 0.026305044
000020 82 89 9b bd 87 2d f4 3d 15 ee a4 bd 7e af de bd
       -0.07594587 0.11922746 -0.08053223 -0.10873316
000030 77 bd 94 bd e0 37 0f 3e 3b 02 ab 3d e9 32 c0 bd
       -0.072627 0.13986158 0.08350035 -0.0938471
000040 e7 05 b9 3d 92 1e 62 3d 97 4b 8a bd fa e2 8c bc
       0.09034329 0.055204935 -0.06752699 -0.017198075
000050 71 f7 25 bd f3 2f dc 3d d6 5c 16 3d 8f c4 97 bd
       -0.04051918 0.10751333 0.03670963 -0.074105375
000060 2f 43 30 3d 10 a1 d2 bd 7d 22 a8 bc ae 2c 65 bd
       0.04303282 -0.102846265 -0.020524258 -0.055950813
000070 4b 6b e2 3c f0 77 ad bd 9a c1 a9 3d 6b f9 13 be
       0.027639052 -0.08470142 0.0828888 -0.14450614
000080 c7 9b c1 bd 4e 75 7a 3d fc 2f 3d bc 41 a3 18 3c
       -0.0945354 0.061147027 -0.011547085 0.0093162665
000090 cf c7 cf bd 6b ce 09 be 1c 5b 7c bb 6c d5 09 be
       -0.10145532 -0.13457648 -0.0038506454 -0.1346032
0000a0 ae db 08 bd 21 36 50 3d 84 7a 2e be 51 4e 4c 3c
       -0.033412628 0.05083287 -0.17038924 0.012469844
0000b0 6d 74 4f bd 85 91 9c 3d f0 5f c4 bd 47 19 ad bd
       -0.05064814 0.07644943 -0.09588611 -0.08452087
0000c0 50 47 be 3d 93 fa 56 3c fe 9c 02 3c 52 ed 8b bc
       0.092909455 0.013121265 0.007972 -0.017080937
0000d0 28 1e d3 3d 7f f6 d7 bd c0 29 1f 3c c1 51 a7 bd
       0.10308486 -0.10545062 0.009714544 -0.0816989
0000e0 c0 2d 51 3d 38 97 e5 bd e1 58 ef 3d 02 59 86 bd
       0.05106902 -0.11210483 0.11686874 -0.06559946
0000f0 6d bb bd bd b8 83 82 3d 35 3b 01 3c cf a6 06 bd
       -0.09264264 0.063727796 0.007887651 -0.032873925
000100 d8 2e b4 bd 15 bc 1f 3e 06 d3 c9 bd cd ef b0 3d
       -0.08797997 0.15599091 -0.09854703 0.08639488
000110 71 93 e6 bc 6b 62 f6 3d 65 40 ea bd 9d 07 2f 3d
       -0.028146477 0.120304905 -0.114380635 0.04273187
000120 50 73 12 3e 9b b6 5a bd 70 fb f5 bd ee 9f 02 be
       0.143018 -0.053396802 -0.120108485 -0.12756321
000130 62 01 22 3d e0 79 25 3e 74 7e e2 bc 9c 13 97 bd
       0.0395521 0.16159773 -0.027648188 -0.07376787
000140 d5 29 95 bc 8f 31 d3 bd 65 cc 94 bb 9c 51 ed bb
       -0.018208424 -0.10312187 -0.0045409673 -0.0072423946
000150 a0 37 a1 3d 34 7c 99 bb da 34 0e be b6 5f f7 3d
       0.07871938 -0.0046839956 -0.13887349 0.12078802
000160 a6 61 82 3d d4 c3 87 bd 6d 34 2a 3e 90 2a 54 3c
       0.06366281 -0.06629148 0.16621561 0.012949601
000170 8b 5a 2f bd 4a 81 02 bd 12 02 97 bc 59 79 dd 3d
       -0.042810958 -0.03186158 -0.018433604 0.10814161
000180 4d ca f5 3d f8 ab e3 bb be ba 1a 3e 28 cf 13 bd
       0.120014764 -0.0069479905 0.15110299 -0.03608623
000190 54 ef e5 3d 99 96 05 3d 66 97 b8 bd ee 52 18 3e
       0.11227289 0.032614324 -0.09013252 0.14875385
0001a0 20 5d e8 bd 93 f6 c1 3d 0b d7 87 bd 89 4c 21 3d
       -0.11345887 0.094708584 -0.06632813 0.03937963
0001b0 10 33 18 3e 2b 89 ec 3d f4 99 b7 3d 1d 24 5c bd
       0.14863229 0.115496 0.08964911 -0.053745378
0001c0 46 9e 26 be d6 8d 9e 3d 72 a3 ea bc a3 b5 c6 bd
       -0.16271314 0.07741897 -0.02864239 -0.09702613
0001d0 51 6f b9 3a b1 99 0f bd ce 9f 9d ba 88 2c e7 3d
       0.0014147555 -0.03505868 -0.0012025775 0.112877905
0001e0 51 1f b1 3d 03 1e 99 3d 84 82 ac bd 7c 97 83 bd
       0.08648551 0.074764274 -0.084233314 -0.06425378
0001f0 df 52 17 be d8 96 3c 3d 2e e2 09 3c f4 51 93 3d
       -0.14777707 0.046042293 0.008415742 0.07193366
000200 a0 2e c0 ba 38 fb c2 bd 7f 46 e8 bd 7e 29 5c bc
       -0.0014662333 -0.095205724 -0.11341571 -0.013437627
000210 31 a2 0b be a0 6d f3 3c 8d e4 d8 3d 83 27 de 3d
       -0.1363609 0.02971536 0.105904676 0.1084738
000220 32 92 c9 3c 75 90 18 bd 34 3a 2e 3e 75 95 0a be
       0.024605844 -0.03724714 0.1701439 -0.13533576
000230 1e e1 8f bc f4 e2 d9 bd a2 a5 09 3e 0f c6 89 3c
       -0.017563399 -0.10638991 0.1344209 0.016818075
000240 c9 79 41 3d c9 6b f2 3d 6f b6 d7 bd a1 9e 59 bd
       0.047235284 0.11836965 -0.10532843 -0.053129796
000250 3c bf c2 bd 1e 1d c6 3d f4 45 1a be 5a 97 07 bc
       -0.09509131 0.096735224 -0.15065747 -0.008275831
000260 b2 c4 c3 3c 8a 0d a1 3d be 6b 16 3e 51 f5 99 3c
       0.023897503 0.078639105 0.14689538 0.018793734
000270 a7 88 23 bd 46 3f b7 3d df 24 8f bc f4 f3 a6 3d
       -0.039925244 0.08947615 -0.017473636 0.08151999
000280 13 23 38 be f3 7a 2d bd 72 eb 12 3d 09 21 f3 bd
       -0.1798213 -0.04235358 0.03586907 -0.11871535
000290 d8 9a 10 3c 41 fa 6e 3d f6 a3 cf bc 60 7a c3 3d
       0.00882598 0.05834413 -0.025346737 0.095448256
0002a0 09 34 d7 ba 38 f8 ff bd 6a c2 bd bb 23 e0 b8 3c
       -0.0016418706 -0.12498516 -0.005790998 0.022567814
0002b0 62 c4 8f 3d 49 72 84 3d 3d 14 84 3d 84 43 10 3e
       0.07019879 0.06467111 0.06449173 0.14088255
0002c0 af ab e1 bb 7e 2c a7 3d 35 f6 1f be 4f ec d3 3d
       -0.0068869214 0.08162783 -0.15621264 0.10347807
0002d0 89 50 34 bd f4 2d 43 bd 06 c3 ff 3d e4 0e 2e 3d
       -0.044022117 -0.047651246 0.1248837 0.04249467
0002e0 94 b9 31 3c 41 0a ef bb cf 6c fe 3d 31 88 31 3d
       0.010847468 -0.0072949235 0.12423097 0.043342773
0002f0 a9 37 99 3d 60 cf 97 bc 56 69 fb 3d 2d c6 13 bd
       0.074813195 -0.018531501 0.122759506 -0.036077667
000300 46 2c 0d bd be fe dd bd 44 f8 c3 3c 19 9b 25 3e
       -0.03446605 -0.10839604 0.023922093 0.16172446
000310 5f c8 6b 3d 9c 18 61 bd 5c ad eb 3d 33 b9 a1 bc
       0.057564136 -0.05495511 0.11507675 -0.01974163
000320 7a 02 cb bd 70 ce eb 3c 2e 85 9d bd 53 7f 2d 3d
       -0.09912582 0.02878496 -0.07691418 0.042357754
000330 18 0b 5d 3d 67 b6 90 bd 2b 37 16 be e7 fd e8 bd
       0.053965658 -0.070660405 -0.14669482 -0.11376553
000340 06 c9 75 bd f1 42 fb 3d 9b a7 82 3d 1c af c3 3d
       -0.060006164 0.122686274 0.063796245 0.09554884
000350 f5 6a d7 3d 98 54 d7 3d 5b 91 09 be 53 02 16 3d
       0.10518447 0.10514182 -0.13434355 0.03662331
000360 e1 ff 03 be b9 fd 17 3e d3 49 7d bc 92 a7 0d 3e
       -0.12890579 0.14842881 -0.015459496 0.13833454
000370 e7 46 8f 3d 9b 2a a1 3d 55 60 c4 3d 82 1c 33 bd
       0.069959454 0.078694545 0.095886864 -0.04372836
000380 d5 a7 34 bd 7f f3 f2 3d 26 ef 2c be 53 f1 f8 bd
       -0.04410537 0.118628494 -0.16888103 -0.12155404
000390 1d 4c 14 3d 3a cb 82 bc 39 e2 3d bc 60 37 d6 bd
       0.0362054 -0.015966047 -0.01158958 -0.10459781
0003a0 a4 bc 52 bd d1 27 b0 3d 68 c4 0b be fc 92 8c bc
       -0.051449433 0.086013444 -0.13649142 -0.017159931
0003b0 4d 7e ff 3d e2 36 8e 3c 6a cf e2 bd 67 4d 19 3b
       0.12475262 0.017360155 -0.11074717 0.0023392083
0003c0 6a 8e 83 bd 6c 11 00 be bc f4 01 bd 5a 75 4b 3c
       -0.06423648 -0.12506646 -0.031727538 0.0124181155
0003d0 f9 d0 25 bd bd 7f 40 3d 0a 38 04 bd 70 c5 b5 3d
       -0.040482495 0.04699682 -0.032280006 0.08875549
0003e0 2a 9e a8 3d 6b b9 98 bc 25 ab f3 bd aa 70 d8 3d
       0.082332924 -0.018643102 -0.118978776 0.10568364
0003f0 8d e4 a4 bc 63 b6 f0 bd 2e 68 98 3d 3c 1c 23 3c
       -0.020128513 -0.117535375 0.07441746 0.009955462

transformer.layers.0.self_attn.in_proj_bias f4 [192]
000000 ce a9 e6 3c ee 77 e5 bb f6 42 25 3c 87 86 a2 3c
       0.028157141 -0.007002822 0.0100867655 0.019839538
000010 df c9 0b bc 95 71 7c 3b 24 b4 f0 bb e0 56 b3 b9
       -0.008532017 0.0038519849 -0.007345693 -0.00034206267
000020 6b 38 64 3c 7a 6e 52 bc b0 c6 a3 bc 3d 70 a5 bc
       0.013929467 -0.0128437225 -0.019992203 -0.020195121
000030 86 df f4 3a 42 84 11 3b 8b dd 8d 3b 6c e3 8c bc
       0.0018682338 0.0022204076 0.0043293885 -0.017198287
000040 60 d6 74 bc 95 78 b9 bb 54 a6 f6 3b 75 1b 2f 3c
       -0.014943689 -0.0056601265 0.007527152 0.010687699
000050 35 8d fa bb 4c d3 a6 3c 7d 5a e6 ba 8f e0 85 3b
       -0.0076462277 0.020364426 -0.0017574575 0.0040856074
000060 67 a2 5f 3c d7 ec 67 bc 5d 36 02 bd 34 9e aa 38
       0.01364956 -0.014155588 -0.031790126 8.135699e-05
000070 f4 87 10 3c 9d cb 98 3b 13 07 8b 3b 9c 07 d2 bb
       0.008821476 0.0046629445 0.0042427867 -0.0064095985
000080 ea 0f 83 3b b6 a6 93 bb 9c ce 4f 3c 39 d8 69 3b
       0.0039997 -0.0045059575 0.012683537 0.0035681857
000090 cf c4 dd bb ba e4 0e 3c 74 e2 05 3c 50 42 8c b9
       -0.006767846 0.008721525 0.008171666 -0.00026752288
0000a0 d1 6c be 3b 90 a6 17 3c e2 38 67 3b e2 60 01 b8
       0.005811312 0.00925602 0.0035281708 -3.0846226e-05
0000b0 0e e0 2a bc a6 40 65 3c 5a 4d 82 3c fe 5a 2a bb
       -0.010429395 0.013992464 0.015906025 -0.0025994177
0000c0 bb c9 36 bc c0 d5 4f 3c ef 44 c6 bb bf 7e fb bb
       -0.011156495 0.012685239 -0.006050698 -0.0076750214
0000d0 c3 15 9a 3c 04 21 ae 3a 89 f2 b7 bb ae 00 84 3b
       0.018809205 0.0013284986 -0.0056136292 0.0040284013
0000e0 a6 95 f9 3b 54 d5 cd bb 2c 0e 2b 3c d5 e1 41 bb
       0.0076167164 -0.006281534 0.010440391 -0.002958407
0000f0 95 7d fa bb 45 fd 6a 3c 64 73 3a bb c8 36 60 bb
       -0.007644365 0.014342611 -0.0028450126 -0.003421234
000100 75 f0 a5 b2 23 e0 91 b4 5f 17 20 33 ed 3e c0 b3
       -1.9317875e-08 -2.7171436e-07 3.727416e-08 -8.952143e-08
000110 73 13 85 b3 22 d0 97 33 6f 4b 20 34 b7 07 24 b4
       -6.196833e-08 7.0693446e-08 1.4928604e-07 -1.5276497e-07
000120 5d 4c 3e 34 82 e3 4b 34 fa 52 97 b3 b2 a8 17 b3
       1.772291e-07 1.8988615e-07 -7.046579e-08 -3.5310855e-08
000130 9b a0 50 34 48 b9 4d b2 25 74 ad 34 8c 88 5e b3
       1.9429937e-07 -1.1974699e-08 3.2308267e-07 -5.181259e-08
000140 88 3e d6 b3 19 91 b3 b4 bf e0 02 34 5f 59 f0 b2
       -9.976526e-08 -3.344692e-07 1.2188956e-07 -2.7980319e-08
000150 30 84 9e b4 ab b6 2b b4 c8 ea 33 b3 a0 41 3a b3
       -2.9525972e-07 -1.599207e-07 -4.1890218e-08 -4.3366185e-08
000160 e0 d2 70 b3 0f 4e 7b 32 10 47 40 b4 a7 b9 83 34
       -5.6071144e-08 1.4627871e-08 -1.7907246e-07 2.453573e-07
000170 d2 44 ad b0 cc e4 af b3 f8 8a 17 b2 a9 83 50 33
       -1.2606967e-09 -8.1906904e-08 -8.820955e-09 4.8548518e-08
000180 8d c4 9d 32 40 58 20 34 e5 48 76 33 c9 a0 b8 33
       1.8366586e-08 1.4933266e-07 5.7342636e-08 8.597414e-08
000190 7b da 3b b3 0b 33 37 b4 04 ff 24 b4 fc 8c 68 33
       -4.3738037e-08 -1.7061772e-07 -1.5366464e-07 5.4144934e-08
0001a0 2e 2d cc b3 ba fb b1 b2 97 d1 b0 33 d5 09 06 b4
       -9.5077084e-08 -2.0719984e-08 8.233763e-08 -1.24833e-07
0001b0 76 3e 5c 33 39 1b 48 b2 a3 2b 02 b4 ac 1a 84 b4
       5.127955e-08 -1.1647722e-08 -1.2123068e-07 -2.4606322e-07
0001c0 2f e3 d1 33 17 60 27 34 d2 fa 3a b4 24 e8 7a b4
       9.7736454e-08 1.5588044e-07 -1.7413848e-07 -2.3367517e-07
0001d0 21 78 4a 33 4b 8a d8 33 80 2f c2 32 ea 8b 50 33
       4.7141047e-08 1.0083439e-07 2.2606173e-08 4.8556025e-08
0001e0 c0 e1 b6 33 e8 f9 10 b4 a4 40 30 b4 96 f1 58 34
       8.516099e-08 -1.350196e-07 -1.6414793e-07 2.0204456e-07
0001f0 cc a6 35 b4 37 d1 db 33 af c7 cd b2 69 9a 7d b3
       -1.6917619e-07 1.0236038e-07 -2.3955947e-08 -5.9046588e-08
000200 87 d7 93 bc fc 19 e5 39 59 97 20 bc 57 a0 3c bb
       -0.018047107 0.00043697644 -0.009801709 -0.0028782093
000210 51 e6 6d b8 6b 6b af 3b 85 f2 08 3a e7 03 3a 3b
       -5.6719702e-05 0.0053533814 0.00052241265 0.0028383674
000220 df 46 08 3c d2 2a 3c 3b 15 96 54 3c a9 cb 88 bc
       0.008317678 0.0028712046 0.0129752355 -0.016698675
000230 43 ba aa bb 3b 0d 62 ba 6d e0 56 bb ae d9 8e 3b
       -0.0052101924 -0.00086231873 -0.0032787577 0.0043594455
000240 21 84 57 bc 93 55 b5 bb a3 c8 88 ba 28 86 4f 3a
       -0.013154061 -0.005533883 -0.0010435771 0.0007916414
000250 56 09 34 bb 94 93 c1 3c 0c d3 28 3b 25 68 09 3b
       -0.0027471385 0.023629941 0.002576056 0.0020966616
000260 59 b3 e9 3b 0f 6d b7 3b 6d f4 47 3b 4a 24 2a bc
       0.0071319756 0.0055977176 0.003051068 -0.010384629
000270 ac e0 15 3b 15 b3 2c bb 4b 8b 4a bb fa f8 fe ba
       0.002286951 -0.0026351858 -0.003090578 -0.0019452863
000280 64 33 3d 3c 24 f9 03 ba a1 47 8a bc f1 c6 40 bc
       0.011547897 -0.0005034378 -0.016879858 -0.011766181
000290 84 25 cd 3a 55 a6 81 3b 1d ba e8 bb 93 8b bb b9
       0.0015651439 0.003956596 -0.0071022646 -0.0003577141
0002a0 55 25 6f 38 98 a2 46 ba 1e f8 cb bb 76 30 b8 3c
       5.701681e-05 -0.0007577329 -0.0062246462 0.022484045
0002b0 4c 6d 0b 39 90 f9 f5 3b 67 31 a5 39 32 68 03 3c
       0.00013296789 0.007506557 0.0003150806 0.008020448
0002c0 59 77 bf 3b b5 e5 8b 3a 79 9f 67 bb 82 46 16 3c
       0.005843085 0.0010673316 -0.0035342856 0.009172084
0002d0 99 98 10 bc 66 d1 2e bb 37 6d 60 3c c1 46 f0 39
       -0.008825445 -0.0026675104 0.013697914 0.00045829083
0002e0 c9 05 00 bc 36 99 c2 3a 6b d2 25 3b aa 90 65 3c
       -0.007813879 0.0014846686 0.002530242 0.014011541
0002f0 8d b9 16 bc 86 61 c9 3a 8d 3c 9c bb 13 99 58 bc
       -0.009199512 0.0015364147 -0.0047679604 -0.0132200895

transformer.layers.0.self_attn.out_proj.weight f4 [64, 64]
000000 76 b4 e1 bc bc de 87 bc 60 08 f4 ba 2f 97 0a bc
       -0.02755187 -0.0165857 -0.0018618219 -0.008458897
000010 fc d1 a4 bc c7 11 d8 3c d3 8b b0 bc 89 47 10 3b
       -0.02011966 0.026375664 -0.021551048 0.0022015295
000020 5f 52 bf 3a d9 63 f7 3b fc 5a f6 bb eb f7 2e bd
       0.0014596692 0.0075497446 -0.0075181704 -0.0427169
000030 c7 f2 e5 3c 9f 9b c5 3c fe e1 54 3c 22 c2 8b 3c
       0.028069867 0.024122057 0.012993334 0.017060343
000040 e5 ca d6 3c 53 2d c8 bc 4b 11 b2 bb 9a b7 f8 3b
       0.026219795 -0.024435675 -0.0054341904 0.0075902464
000050 36 96 37 bc e7 87 6a 3c 1f 2b 78 3c 78 d3 7e bc
       -0.011205247 0.014314628 0.015147 -0.015553348
000060 4f 93 88 3a 9d e2 1b 3b b9 c7 67 bd c5 3d 58 3b
       0.0010419878 0.0023786195 -0.056586955 0.0032995802
000070 40 20 20 3c a1 3c 96 3c 5f 6f 8d 3a 53 e8 bb bc
       0.009773314 0.018339457 0.0010790637 -0.02293793
000080 3e 14 00 3b dc 76 15 3d aa 62 0f 3c fa 90 c1 bc
       0.0019543315 0.036490306 0.008751551 -0.0236287
000090 94 0e f7 3c a4 08 5a 3c 81 e3 cc bc 56 3e 03 3c
       0.030158319 0.013307724 -0.025010826 0.0080104675
0000a0 56 e1 ad bb 2a f9 20 bc 2e cf 92 bc 67 71 01 3d
       -0.005306403 -0.00982503 -0.017921057 0.03160229
0000b0 75 2a 45 bc 78 2e f5 bc 2a b8 91 bc 76 90 94 bc
       -0.012034048 -0.029929385 -0.017788012 -0.01813529
0000c0 3a f0 ab bc 65 20 76 3b f4 94 2f 3d 4c 26 90 bb
       -0.020988572 0.003755593 0.042866662 -0.0043990966
0000d0 1c 1b b1 bc 9f b8 c0 3c 97 f5 a7 bc 82 db 9f 3c
       -0.021619372 0.023525534 -0.020502849 0.01951385
0000e0 76 a8 e2 3a 23 36 04 bd 8d 4d 8d 3c 6c 80 d9 3c
       0.0017292637 -0.03227819 0.017248893 0.026550494
0000f0 c5 79 49 bb 72 d9 16 bc 22 f6 f4 3b c3 80 55 bc
       -0.0030742746 -0.009207116 0.0074756304 -0.0130311875
000100 1f 07 11 bc 30 ad 6f bc 9a 66 48 bc db f2 1b bd
       -0.008851795 -0.014628693 -0.012231493 -0.038073402
000110 28 76 ba bc 24 8e bb 3c ee 86 3c bc 22 37 56 bc
       -0.02276142 0.022894926 -0.011506779 -0.013074668
000120 dd 04 d1 bb b1 80 47 3c 15 0e 7a bc db 92 5e bc
       -0.0063787536 0.0121766785 -0.0152621465 -0.013584818
000130 ff c5 f4 3a 56 1c 23 3c e7 af 3f 3b 19 62 74 bc
       0.001867473 0.009955486 0.0029249133 -0.014915966
000140 53 53 02 3b cb f2 a5 3b c1 04 f6 3c 38 54 ee 3c
       0.001988609 0.0050643436 0.030031564 0.029092893
000150 cc 79 b3 bc 9b bd 19 3c 42 bc 22 bc 82 ff 2c 3c
       -0.021908663 0.009383584 -0.0099325795 0.010558965
000160 88 7a e1 3c 64 d9 8e 3c 3f 93 a1 bb 94 23 b5 bb
       0.027524248 0.017437644 -0.004930883 -0.005527923
000170 37 49 ee 39 01 04 9b bc 51 0e 12 bc 28 98 2a 3c
       0.00045449447 -0.018922808 -0.008914546 0.010412253
000180 a4 62 f4 bb 62 60 b9 3c c3 0d 0a bd a9 86 20 bc
       -0.007458048 0.022628967 -0.03370453 -0.0097977305
000190 4a a8 5b bc e2 60 cf bc 6b 8c 99 3c 5e f8 b1 bc
       -0.013406822 -0.025314752 0.018743714 -0.021724876
0001a0 4c 1c 02 3d f0 bf ad 3c 73 18 e1 39 27 d0 fc 3c
       0.031765267 0.021209687 0.0004293356 0.030860974
0001b0 4b c5 e3 bc 85 4d 5a 3c 25 41 68 3a 5f 85 a3 3c
       -0.027804038 0.013324146 0.0008859805 0.019961057
0001c0 f8 ad 94 bc f2 87 33 3c 04 5b 20 3a 12 64 96 3c
       -0.018149361 0.010957705 0.0006117078 0.018358264
0001d0 8c 95 1e bd bf 8f 04 3d 44 1e 37 bc b7 04 3f bc
       -0.038716838 0.03236365 -0.0111766495 -0.011658839
0001e0 9d 0c 33 bd d5 ea 18 bc 81 ce d1 3b c3 e0 e4 bb
       -0.0437132 -0.009333332 0.006402791 -0.0069848015
0001f0 b5 34 95 bc 68 07 2d bd 78 b1 ce bc 77 73 f2 bc
       -0.01821361 -0.04224339 -0.025231108 -0.029596074
000200 e7 75 01 bd 95 da 62 3c e4 dc 9c bd 87 47 7d 3c
       -0.03160658 0.013846059 -0.07659319 0.015458948
000210 52 f6 74 bc 23 f7 99 bb 3d f9 b1 bc 2e 90 94 3c
       -0.014951305 -0.0046986504 -0.021725291 0.018135156
000220 4f bb 80 bc 97 c7 c6 3b 64 d0 f6 3c ab 57 80 3c
       -0.015714316 0.0060662734 0.030128665 0.015666803
000230 a1 5a de 3c b1 69 2e 3c ac 89 47 3c cf 9a 8a bc
       0.027142825 0.010645316 0.01217882 -0.016919522
000240 b4 72 14 bb 08 c4 56 bc c0 3c d5 bc 86 11 0b 3c
       -0.0022651376 -0.013108261 -0.026029944 0.008488065
000250 f9 a9 9b 3c 09 75 9f 3c 94 48 80 3c 58 d9 02 3c
       0.019001948 0.019464986 0.015659608 0.007986389
000260 86 9b c5 3c 67 c2 79 3c 04 bd 01 bd 00 eb b1 bb
       0.02412201 0.015244103 -0.0316744 -0.0054296255
000270 37 b9 1f bb ec 00 f1 bb 14 39 68 bb 2f 2d e4 3c
       -0.0024371871 -0.007354846 -0.0035434412 0.027853576
000280 ae 37 93 3c bf c4 f4 3c e4 6f b4 bc 28 c7 05 bd
       0.017970886 0.029878972 -0.02202601 -0.032660633
000290 64 db b2 bb 2f a7 4b bb 1b ab bb 3b da 8f 2a bd
       -0.0054582823 -0.003107499 0.0057271845 -0.041641094
0002a0 6d 01 c1 3b c8 8a 06 bc a6 a9 a9 3c cb b8 60 bb
       0.0058900625 -0.008211799 0.020710777 -0.0034289833
0002b0 e2 2c 18 3d ea 6d 72 bd 55 db cb bc fd fa b2 bc
       0.03715218 -0.059186853 -0.02488486 -0.021848196
0002c0 76 f5 1a 3b e8 12 58 3c a4 34 13 3c b6 9b 61 bc
       0.0023644841 0.013188101 0.0089847185 -0.013770035
0002d0 9b b1 9d bc 56 e3 78 bd b5 50 85 bc 3f 56 96 bc
       -0.019249728 -0.06076368 -0.016273836 -0.018351672
0002e0 73 9e 4d bc 03 a8 98 3a 3d b3 4d bc fb 9b ad bc
       -0.012549984 0.0011646751 -0.012554941 -0.021192541
0002f0 3b b5 ba 3a 88 4a 6e 3b 7d d5 3d 3d 84 54 4d bc
       0.0014244685 0.0036360342 0.046346176 -0.012532357
000300 9a 35 b8 3c 5e 93 32 3b 3a d6 85 bb 85 6a cd 39
       0.022486497 0.0027248482 -0.0040843757 0.0003918001
000310 0c f6 d3 bc 1d 03 99 3c 1b c5 eb bb a4 b4 13 3d
       -0.02587416 0.018678242 -0.0071951277 0.036060944
000320 31 3f 08 bc 2d 72 a2 bc 47 39 b7 3c 99 c8 3d bd
       -0.008315847 -0.019829834 0.02236618 -0.046333883
000330 22 d2 fd 3c df 2c 27 3c 23 29 bf 3c 6b 62 4f bc
       0.030983988 0.010203569 0.023335045 -0.012657742
000340 41 d0 4a bd 9d 60 ba bc dd 19 ad bc 38 39 72 3b
       -0.049515013 -0.022751147 -0.021130497 0.0036960375
000350 88 0c 1f bc d0 9c 10 bc 92 a9 bd 3c 2c c1 8c 3c
       -0.0097075775 -0.0088264495 0.023152146 0.017181955
000360 f4 19 40 bb 8f 8c 4a bc 70 ad 01 bd 0c ca 50 bb
       -0.0029312344 -0.012362613 -0.031659544 -0.003185871
000370 bb b2 8e 3a 05 7b 59 bc 78 aa 4f bb 7f 00 14 3d
       0.0010887006 -0.013273959 -0.00316873 0.036133286
000380 a5 33 89 3c a2 4e 47 bd fd 27 66 bd f8 c8 23 3c
       0.016748259 -0.048658974 -0.05619048 0.009996645
000390 76 ea bb 3c df 72 dc bb 0b c1 1f 3d 5a 23 24 bc
       0.022938948 -0.006727561 0.03900246 -0.010018194
0003a0 58 ac d4 bb 3c b6 42 3d 88 1b a3 bc af ed 28 3d
       -0.0064902715 0.047537073 -0.019910589 0.041242298
0003b0 bc d2 e8 ba d2 83 0e bd 64 62 b6 bc f9 59 0b bd
       -0.0017762999 -0.034793682 -0.022263713 -0.03402135
0003c0 6c ee c1 bb 6b cb 05 bb 0b 22 9c 3c 74 5c 07 bd
       -0.0059183147 -0.0020415436 0.019059202 -0.033047155
0003d0 9e bc a7 bb 74 07 dc bc ee 38 40 bc 55 84 88 3d
       -0.0051189205 -0.026859023 -0.011732323 0.06665865
0003e0 cc 03 b8 bc a4 2a bc 3c cd 59 18 3d 18 90 8d 39
       -0.022462748 0.022969551 0.037195016 0.00027000974
0003f0 c8 74 d3 3c e8 9c 35 bd 46 19 b8 3a e9 82 3a 3b
       0.025812522 -0.04433909 0.0014045618 0.0028459376

transformer.layers.0.self_attn.out_proj.bias f4 [64]
000000 9f 8a be bb c5 e6 f3 bb 04 a2 6c bb be 4d ad bb
       -0.0058148648 -0.0074432814 -0.003610731 -0.0052888086
000010 68 e4 9e 3b 66 3d 10 ba a0 21 04 bc 77 5f 28 3c
       0.0048490055 -0.0005502313 -0.008064657 0.010276667
000020 39 e5 e8 3a 7f f4 10 3c 5f d2 2e 3b 19 7e d0 bb
       0.0017768509 0.008847355 0.0026675684 -0.0063626883
000030 5d 8c 8c bb a5 82 78 3b 78 f0 f7 bb b2 28 a8 bb
       -0.0042891935 0.0037919667 -0.007566508 -0.0051318044
000040 ab dc e8 ba 15 c7 b7 3b b4 13 1b 3a 5c 2c de bb
       -0.001776596 0.005608449 0.0005915717 -0.0067801904
000050 f0 2b ff bb 9e 83 f6 3b 92 c4 2d bb 29 90 e4 bb
       -0.00778722 0.007523014 -0.002651487 -0.006975193
000060 1e b4 ed bb b7 c7 98 3b f4 f4 3b 3b a3 fd f9 bb
       -0.0072541377 0.0046624797 0.002867994 -0.007629113
000070 3d ae d4 3b 8e e3 15 3c 35 b6 06 3c c6 c5 97 bb
       0.0064904974 0.009148492 0.0082221525 -0.0046317307
000080 e2 87 c0 3a 2d 36 47 bb 53 4c 01 3c a7 60 d5 bb
       0.0014688934 -0.0030397282 0.007891732 -0.006511766
000090 f8 aa b9 bb 8a dc e0 3a 4c de 8d 3b 79 d1 cb bb
       -0.005666133 0.001715557 0.0043294784 -0.0062200394
0000a0 c6 07 7c 3b 5d c1 72 3b b7 04 87 bb ee 09 16 bc
       0.0038456782 0.0037041523 -0.004120435 -0.009157641
0000b0 f4 a0 1e 3c 72 15 8f bb e7 ae 0c 3c db 17 a8 3b
       0.009681929 -0.00436657 0.008586622 0.005129797
0000c0 bd ae df bb 90 ee 18 3c 4e ea 06 bc 3e 3f f2 bb
       -0.0068262503 0.0093342215 -0.0082345735 -0.007392793
0000d0 17 43 dd 3b 0e 42 56 bb 82 84 43 38 40 7e d6 3b
       0.0067523825 -0.003269318 4.661503e-05 0.006545812
0000e0 35 9f b7 bb 2a cc 99 bb 6d 06 8a 3b 8e 72 04 bc
       -0.0056036958 -0.0046935277 0.004212192 -0.008083953
0000f0 dc 20 09 bc 0d 84 f0 bb ba 67 4d 3a e6 e4 fc bb
       -0.008369651 -0.0073399604 0.0007835586 -0.0077177165

transformer.layers.0.linear1.weight f4 [128, 64]
000000 4d 0e 31 bd 45 cd db bc 2c 01 d9 bc 42 3e f8 3c
       -0.04322653 -0.026831279 -0.026489817 0.030303124
000010 4a d4 3f 3c 99 7b 06 bc 45 fe 09 bd fb 18 a2 3c
       0.0117083285 -0.008208179 -0.033689756 0.019787302
000020 77 38 81 3d 39 0f 34 3d dd ff 56 3d 65 d0 3c bc
       0.06309598 0.04395983 0.052490104 -0.0115242945
000030 b2 a7 dc bc 7b fc 5a 3d 9f 63 39 bc cd 9d 7c bd
       -0.026935432 0.05346344 -0.011315255 -0.061673928
000040 a9 91 ae 3c 9e 5b 00 3d 7e 88 38 bb 76 ce f0 bb
       0.02130969 0.031337373 -0.0028157528 -0.007348831
000050 b5 75 b8 bb 72 c4 14 bd 00 a2 7b 3c c4 b9 e6 bc
       -0.005629266 -0.036320157 0.015358448 -0.028164752
000060 de 90 a7 3c 04 9d 32 bd 88 5f 2f 3d c6 33 0c bd
       0.02045482 -0.043606773 0.042815715 -0.034229062
000070 09 39 f8 3c d2 e4 81 3c d1 db 00 3d 6c 57 13 bd
       0.030300634 0.01585618 0.031459633 -0.035972044
000080 74 67 14 bd 30 f8 03 bc ac 35 4d 3c 16 af 20 bd
       -0.036231473 -0.008054778 0.012525003 -0.039229475
000090 2f 8a 0a bc a5 f0 ee bc 6e 80 86 3c a0 90 10 3d
       -0.008455797 -0.029167483 0.016418662 0.035294175
0000a0 ed 8c 06 bd 75 f8 2d 3c fb d9 7e 3b 9a ff 48 bc
       -0.03284924 0.010618319 0.003888725 -0.012267971
0000b0 05 7a 5b 3d 65 65 82 bd 9e 33 5e 3d 07 7e 6e 3b
       0.053583164 -0.06366996 0.054248445 0.0036391036
0000c0 28 0f 46 3c 4e ca 27 3d 2e 90 0f bd f3 9a 9b bc
       0.0120885745 0.040964417 -0.03504961 -0.018994784
0000d0 4b b5 b5 bc af 1f a1 3b 73 2f 1c 3d 8b 45 64 3d
       -0.022181174 0.004917107 0.03813119 0.055730384
0000e0 64 1e 8e bc d7 c7 18 bc fa 75 3f bb e5 e3 d2 bc
       -0.017348476 -0.009324989 -0.0029214607 -0.025743434
0000f0 df f6 ae bc 65 79 cd 3b 00 9b c0 bc c2 71 2c 3c
       -0.021357952 0.006270575 -0.02351141 0.010525169
000100 92 a2 84 bb f8 f3 7c bd 39 5c 3b 3c 08 69 12 bc
       -0.0040477 -0.061756104 0.011435562 -0.008936174
000110 ac 86 fa 3c ee 31 89 bd 8d 06 d4 bc 8f e5 84 3d
       0.030581795 -0.066989765 -0.02588203 0.06489097
000120 c5 60 28 3c 2c 42 dd 3b dd fa 15 3d 95 aa 64 bd
       0.010276978 0.006752273 0.036616195 -0.055826742
000130 27 74 99 3c 20 b0 51 3c 73 af a5 bc 9a a1 e9 3c
       0.018732144 0.012798339 -0.020225262 0.02851944
000140 7c 21 d1 3c 81 86 50 3d 76 45 02 bd 4a 08 02 bd
       0.025528662 0.050909523 -0.031804524 -0.031746186
000150 50 ea 96 bc 3a a2 14 3d 87 ee 2d 3a 0f a7 21 bd
       -0.018422276 0.036287524 0.00066349696 -0.03946596
000160 0d 0d 23 bc f5 07 9c 3a 57 d1 12 3c fd 83 b7 3b
       -0.009951842 0.0011904227 0.008961043 0.005600451
000170 8e b3 fa 3b b3 7b 20 bb 39 2e 9f 3c 99 fc e5 bb
       0.007650799 -0.0024487793 0.01943122 -0.0070186374
000180 8a ea 3b bc 0f b3 2c bb fe 05 9a bc a7 25 20 bc
       -0.011469493 -0.0026351844 -0.018801685 -0.009774602
000190 90 d1 35 3d 4b 39 b9 bb cc fe f5 bc 4a ce 1f 3d
       0.044389307 -0.005652582 -0.030028723 0.039015092
0001a0 93 f0 b1 3c 33 18 e1 bc 81 7d 07 bd a9 60 2d bb
       0.02172116 -0.02747736 -0.033078674 -0.002645532
0001b0 9b 9c 22 3b 8c 44 c8 bc 0e 64 9f 3c a1 a6 51 3d
       0.0024812582 -0.024446748 0.01945689 0.0511843
0001c0 28 fb 34 3d a1 02 73 3c 44 57 37 bd 4a d4 64 bc
       0.044184834 0.01483217 -0.044760957 -0.013966629
0001d0 7d 3a be 3c 7a ee b0 bc f4 02 3f bd df 61 ac 3c
       0.023221249 -0.02159809 -0.046633676 0.021042762
0001e0 48 85 4b 3d 69 07 fc bc 69 38 8f 3c 97 74 8d 3b
       0.049687654 -0.030765252 0.017482953 0.004316877
0001f0 ab 1e 30 3d 91 dc ab 3c f7 45 c4 bc 8c 7c 0c bc
       0.042997997 0.020979198 -0.023959143 -0.008574616
000200 26 03 59 bd 83 ed 50 bd bc d2 a4 3c 17 0b 2a 3d
       -0.05298152 -0.05100776 0.020120017 0.041514482
000210 b0 67 33 3c 0a e9 35 bc b3 80 11 3d e1 da 15 3d
       0.010950014 -0.011102924 0.035523128 0.036585692
000220 7d 83 00 bd b5 98 3f bc 84 67 09 3a 7c 80 79 3b
       -0.031375397 -0.011694123 0.000524156 0.0038070967
000230 2d 97 35 3c 89 15 c6 3b 8b 4e f2 3b c9 23 2e 3c
       0.011083406 0.0060450477 0.007394617 0.010628649
000240 6f 9f 44 bb 74 a0 71 3b 51 3a 41 3c 3b eb 50 bc
       -0.0030002256 0.003686932 0.011793689 -0.012751396
000250 68 21 b4 bc 0c f3 d8 bb 4e 99 37 bb 88 7f 76 bd
       -0.021988586 -0.0066207703 -0.002801496 -0.060180217
000260 10 f7 b9 bc 48 88 3d 3d a9 14 07 3d 74 fd 87 bc
       -0.022700816 0.046272546 0.032978687 -0.016600348
000270 bc 42 b3 bd 47 32 dd bb 57 38 6c bc 0b 31 38 bd
       -0.08752963 -0.0067503783 -0.014417729 -0.044968646
000280 a3 29 60 bc 1b f4 e7 bb 0a 08 e4 bc d6 a9 0b 3d
       -0.013681802 -0.00707866 -0.027835865 0.034097515
000290 45 e1 87 3c 3c 05 8e bb 43 80 88 3c ce 56 65 3d
       0.01658691 -0.00433412 0.016662722 0.055990987
0002a0 ac c4 17 bd 81 8e b9 bc cd c6 20 bb da 24 cf 3b
       -0.037052795 -0.022650959 -0.0024532557 0.0063215317
0002b0 d5 65 46 bc e8 81 a3 ba 38 13 5b bb 60 1e 09 bd
       -0.01210924 -0.0012474628 -0.0033428203 -0.033476233
0002c0 1b 46 b0 bc dd cd cc 3c 65 17 89 bc 3a 93 92 bc
       -0.021517804 0.025000507 -0.016734788 -0.017892469
0002d0 7c 21 5b bb bd 28 26 3d 69 73 8b bd 26 90 07 3d
       -0.0033436706 0.040566195 -0.06809122 0.033096455
0002e0 87 7f 49 3c ec 73 a7 3c ff 56 05 3c 2b bd 2f 3c
       0.012298471 0.020441018 0.008138417 0.0107262535
0002f0 93 91 30 bb 68 fd 0a 3d 73 88 44 3b ff 2f e4 3a
       -0.0026942238 0.033933073 0.0029988557 0.0017409323
000300 f7 ea 94 ba 7d 18 07 3d 57 bb 89 3c a6 21 96 bc
       -0.0011361529 0.03298234 0.016812963 -0.018326592
000310 1e 2b f9 bb 90 cb d6 bc ab fd b6 bc 8b 8b 79 bd
       -0.007604017 -0.026220113 -0.022337755 -0.060924094
000320 e3 ee 9b bc 01 33 58 bd 19 c6 f2 bb 37 f0 a3 3c
       -0.019034809 -0.052783016 -0.007408869 0.020012004
000330 a8 5e f7 3b 4a 4f ce 3c 8f 93 7c 3c 4d a1 bd bc
       0.0075491257 0.025184292 0.01541604 -0.023148203
000340 85 ae ba 3b fa a7 91 bc 5b 2a 34 3d ab f4 96 3c
       0.005697074 -0.017780293 0.043985706 0.018427214
000350 35 ff e0 bb ab 4d 52 3d d5 14 c4 3c b0 a6 d4 3b
       -0.0068663605 0.0513436 0.023935715 0.0064895973
000360 6c 8e 9c bc 73 a3 b8 3c 1d 55 ac bc 70 28 ad bc
       -0.01911088 0.022538876 -0.021036679 -0.021137446
000370 b1 14 0e bd 0b 49 88 3d e7 af de ba 35 5b 7e 3d
       -0.0346877 0.06654557 -0.0016989679 0.0620987
000380 f3 f2 5a bd 3c c0 84 bc 79 28 c9 bc f1 d8 29 3d
       -0.05345435 -0.016204946 -0.024555432 0.041466657
000390 ed ad 6b 3d 20 6b d6 3c 0c 14 3e bc a3 9c 9c bc
       0.057538915 0.026174128 -0.011601459 -0.019117659
0003a0 fd 74 b9 3b 66 9c 87 3c 08 47 d2 bc 99 78 9c bc
       0.005659698 0.016554069 -0.025668636 -0.019100474
0003b0 b6 e9 08 bd cb 0e 48 3d d7 41 ba 3c 2c 0a ec bb
       -0.03342601 0.048842233 0.022736473 -0.007203361
0003c0 38 e7 d3 bc a2 19 ce bc c3 89 48 3d 5f e6 d8 3c
       -0.02586709 -0.025158707 0.048959505 0.026477037
0003d0 a4 77 66 3b a1 13 2b 3c 5b c6 9d bc 78 4e 38 3b
       0.0035166526 0.010441692 -0.019259622 0.0028122943
0003e0 8b f8 fd bc be 64 ed bb 4d ad 33 3d e6 ff 02 bd
       -0.031002304 -0.0072446754 0.043866444 -0.031982325
0003f0 a7 4b cf bb a4 b0 22 3d e0 b4 53 3c 4d 71 d6 bc
       -0.006326157 0.03971924 0.012921542 -0.026177073

transformer.layers.0.linear1.bias f4 [128]
000000 4b 12 a3 3c 72 93 36 3c a9 c8 c3 3b 7d 7a d9 bb
       0.019906184 0.011143552 0.0059748483 -0.006636916
000010 07 d0 9f bb 54 fc 9e 3c 03 19 0b bc 51 f9 28 3b
       -0.0048770937 0.019407429 -0.00848985 0.002578337
000020 f6 da f7 3b ce 9f a5 3b 47 b4 96 3a 30 05 60 3b
       0.007563944 0.0050544506 0.0011497819 0.003418278
000030 fa 8a 3d 3c 1f 93 75 3c f7 78 ab bb 19 34 13 3c
       0.011568779 0.01498869 -0.005232926 0.008984589
000040 a8 29 e8 3b c7 19 e6 3c 0f f0 8a 3b be 51 32 ba
       0.007085044 0.028088463 0.004240043 -0.00068023417
000050 4b e0 d9 3c 24 6a 8e 3b 5e f3 f9 bb c6 d2 a6 3c
       0.026596209 0.004346149 -0.0076278886 0.020364176
000060 e9 50 e3 3b 56 c9 4f 3c d6 04 b8 3c fb 81 1e 3c
       0.0069371355 0.01268228 0.022463243 0.009674544
000070 76 ab 46 bb d9 2d 08 bb 39 a3 8e 3a f5 28 c9 3c
       -0.00303146 -0.002077928 0.0010882384 0.024555663
000080 00 49 da 39 a1 2c ab bc 24 d6 fa 3b 06 66 75 3c
       0.0004163459 -0.020895304 0.007654922 0.014977938
000090 59 ec 46 3c b1 30 12 bb 72 95 ec bc 93 8e b8 3c
       0.012141311 -0.0022306854 -0.028879855 0.022528922
0000a0 ee e0 94 3b f9 f2 5f 3c 24 c2 91 3b ad 64 33 bb
       0.0045434153 0.013668769 0.004448192 -0.002737324
0000b0 b2 e5 74 ba 8e f8 bd bc dd ab 79 3b e5 ce 28 3c
       -0.00093420886 -0.02318981 0.0038096823 0.010303234
0000c0 85 5f 9d 3c cb 42 8e 3c 4d 87 35 3c ab 70 22 3c
       0.019210586 0.017365834 0.0110796215 0.009914557
0000d0 31 93 3d 3b 9e f3 fe 3b 97 5f b3 3c 1c 0a 6d b9
       0.0028926844 0.0077805063 0.021896167 -0.00022605847
0000e0 e3 62 c6 3b fe 24 42 3b 96 c2 31 3c 5e d7 16 3c
       0.0060542687 0.00296241 0.010849616 0.009206621
0000f0 ea 21 11 bc 7f 47 35 3c c1 81 14 39 52 4d 0e 3c
       -0.008858183 0.011064409 0.00014162717 0.008685427
000100 f6 42 81 bb 0f 91 d7 3c 24 af 7c b9 14 82 58 bc
       -0.00394475 0.026314287 -0.00024097838 -0.013214607
000110 93 08 2f 3c 01 1e 19 3c 6f 4e bd 3c 36 f6 f3 3b
       0.010683197 0.009345532 0.02310869 0.007445122
000120 d7 e0 a0 3c dc 84 c7 3a bc d1 5b bc c2 a7 16 3b
       0.019638462 0.001522209 -0.013416704 0.0022988175
000130 2c c6 11 3c 72 a5 8e 3c 4c 91 ed 3c aa d6 17 3c
       0.0088973455 0.017412875 0.028999947 0.0092674885
000140 e6 68 96 ba d3 34 5b bc 97 ab e5 3c 54 c6 bc 3b
       -0.0011475354 -0.0133792935 0.028035922 0.0057609472
000150 ab f1 85 3c 53 6f 0f 3c a6 05 00 ba 65 c1 f0 3c
       0.016350588 0.008754569 -0.0004883654 0.029389093
000160 f7 7e a8 3b 6e 40 19 3c 94 57 1a bc 29 d9 94 39
       0.0051420885 0.00935374 -0.009420294 0.00028390557
000170 c0 23 7d bc cc c7 d6 3b 1f 89 2c 3c e8 6e 91 3c
       -0.015450418 0.0065545794 0.010530739 0.01775308
000180 95 fe ce 3c 00 89 c7 3b a3 da 3b bc 59 96 5e bb
       0.025267879 0.0060893297 -0.011465701 -0.0033964126
000190 90 76 a7 bb f2 86 89 3c dd d2 9c 3c 3c 97 9d 3c
       -0.0051105693 0.01678798 0.019143516 0.019237153
0001a0 9e f6 6d bb 04 83 da 3b 72 11 b2 3b 05 49 13 3b
       -0.0036310325 0.0066684503 0.0054342085 0.0022473943
0001b0 87 14 32 3a 4f 66 65 3c c3 e6 c3 3b 22 31 dd 3b
       0.000679322 0.014001443 0.0059784367 0.006750242
0001c0 51 45 72 3b 42 56 d2 3a f8 87 75 bb 81 31 9a bb
       0.0036967585 0.0016047435 -0.0037465077 -0.0047056084
0001d0 b6 0d 36 3b e4 0e 40 3c a9 7c 4a 3c 30 31 21 3b
       0.0027779168 0.0117223 0.012358823 0.0024595968
0001e0 d5 f8 12 3c a7 ef b0 3c ff b5 d8 3b fc c5 89 3c
       0.008970459 0.02159865 0.0066134925 0.01681804
0001f0 e2 50 06 3d 61 60 51 3c a6 e9 aa bb 9d 1c 6b 3c
       0.03279198 0.012779326 -0.0052158413 0.014350084
