marble_model/best_model_v3.0_20250531_005928.pt (torch, 295593 bytes, 30 tensors)

token_embedding.weight f4 [13, 64]
-0.025794582 0.008222533 0.024446147 0.010431006 0.006149727 0.022150261 -0.010827096 0.035703745
-0.022929976 -0.008535217 -0.011484239 -0.032903533 0.0025636184 -0.0077393083 -0.0004823642 -0.0017626126
0.018365368 -0.016710699 -0.020261561 -0.008501025 0.021410491 0.036616385 -0.015618463 -0.017536743
-0.0070503294 0.02927594 -0.0017402731 0.051260557 0.009153423 -0.0040186075 -0.02712679 -0.019636188
-0.0048779133 0.02160912 0.010110008 0.0061018947 -0.014115394 0.009514901 0.030585323 -0.042821817
-0.03966713 0.009681378 -0.02497748 0.006616578 0.01335577 0.0009592685 -0.001723102 0.030092483
0.0020500247 -0.02584249 0.03044291 -0.01323623 0.0095379595 -0.0024554355 -0.0074216384 -0.0155493645
0.007319307 0.006713987 0.015490717 -0.0074447445 0.006988862 0.01967023 -0.013271574 0.03672883
-0.022496983 -0.01045905 0.04726 0.04321666 -0.017833365 0.01614535 -0.018801726 0.005069021
0.03261192 -0.025701426 -0.023378087 0.022977171 0.012451717 0.026175918 0.036812566 0.038784247
0.0050451346 -0.0112478845 0.023305966 0.036352348 0.0018572484 0.012082258 -0.026705846 -0.029730605
-0.013243299 0.010181927 -0.026775938 -0.012156276 -0.049223594 -0.017115109 0.030044332 0.020744113
-0.013117561 -0.0033512674 0.017999433 0.04434377 -0.035525355 0.054598264 0.06332692 -0.0464186
0.058909506 0.00813105 0.00400469 -0.015094044 0.012780715 0.01267679 0.04115357 0.008470939
-0.05447892 -0.056077257 -0.044870157 0.059491508 -0.0020079007 -0.014989197 0.023274768 -0.015810462
0.01356518 -0.000107668835 -0.01609298 0.013995106 -0.018100524 -0.06683242 0.022209868 -0.013713397
0.0103909895 -0.0040425835 -0.00018435079 0.03448976 0.044032145 0.021158168 0.020987766 -0.020006144
0.004740529 0.022350593 0.032615907 -0.0069041457 -0.019146264 0.023015095 0.023533942 -0.013369813
-0.0015015443 0.0071014985 -0.06420997 -0.0029705092 -0.021574976 -0.038045313 -0.020406362 -0.010192464
-0.00046788357 0.008763638 -0.012497341 -0.0076787835 0.0144354375 0.018468503 0.0020282788 0.0028356935
-0.0026206214 0.0007724006 0.011744723 0.03501702 0.0044803154 -0.0002093653 0.010802744 -0.02696648
0.03629742 1.8715733e-07 0.044707272 0.01636887 -0.04281533 0.005069735 -0.0018667537 -0.012422879
0.007716273 -0.0020320886 -0.017163778 0.018326273 0.010896363 -0.0068334755 0.0077542015 -0.017498739
0.012997356 -0.022380149 -0.02698862 -0.007676404 0.010808412 0.002313981 0.01285997 -0.021047167
0.010192388 -0.0024605994 -0.01805805 0.025528135 0.003817745 -0.02066493 0.02203072 0.025602274
0.018583657 0.008167275 0.0020154186 -0.013764443 -0.012356095 -0.016695399 -0.0139613 -0.008546448
0.0037571874 0.025026336 0.02509746 -0.009459024 -0.0065258252 -0.0013720387 -0.005858031 -0.034417003
-0.0013074932 -0.030688005 -0.0034856605 0.0061191428 -0.040754944 -0.013062112 -0.0031713378 0.0060038185
0.018368986 -0.0021150897 -0.0038744016 0.0005034838 -0.00018830593 -0.016930273 -0.03126131 0.024702607
0.008634435 -0.02281788 -0.0023408171 0.030403975 0.008101601 -0.0070005343 -0.039565064 -0.0069338554
0.025753293 0.002308713 -0.014485534 -0.012536014 0.011910896 0.0044631767 -0.012210781 0.024983348
0.0020360923 0.004758885 -0.01834016 -0.024289738 0.0025911946 0.0030241737 0.008219335 -0.000419799
00000000: 294f d3bc ceb7 063c 4943 c83c cfe6 2a3c
00000010: a683 c93b 7774 b53c 2264 31bc 173e 123d
00000020: a5d7 bbbc 4bd7 0bbc 6428 3cbc dbc5 06bd
00000030: 6102 283b 069a fdbb d4e5 fcb9 7707 e7ba
00000040: f872 963c e0e4 88bc 93fb a5bc e247 0bbc
00000050: 0e65 af3c 10fb 153d 95e4 7fbc 37a9 8fbc
00000060: 7306 e7bb 19d4 ef3c e019 e4ba 97f6 513d
00000070: 3df8 153c 86ae 83bb 0039 debc 12dc a0bc
00000080: e7d6 9fbb 9c05 b13c 72a4 253c 67f2 c73b
00000090: 4144 67bc 63e4 1b3c 128e fa3c ee65 2fbd
000000a0: 007a 22bd a49e 1e3c 929d ccbc e1cf d83b
000000b0: 29d2 5a3c 6b77 7b3a b5d9 e1ba 8384 f63c
000000c0: b559 063b a1b3 d3bc 6963 f93c c6dc 58bc
000000d0: 1a45 1c3c 5feb 20bb 3731 f3bb c3c2 7ebc
000000e0: ccd6 ef3b 0101 dc3b c7cc 7d3c 0bf3 f3bb
000000f0: d302 e53b 7623 a13c 0471 59bc f870 163d
00000100: 984b b8bc 6f5c 2bbc b493 413d f403 313d
00000110: 4717 92bc 4143 843c 1406 9abc 081a a63b
00000120: 1494 053d cc8b d2bc 6783 bfbc 9f3a bc3c
00000130: 4902 4c3c e16e d63c c6c8 163d 3bdc 1e3d
00000140: a851 a53b 0c49 38bc 27ec be3c 33e6 143d
00000150: ea6e f33a aaf4 453c 38c6 dabc 998d f3bc
00000160: 6cfa 58bc 19d2 263c 3659 dbbc 1e2b 47bc
00000170: ae9e 49bd fc34 8cbc 881f f63c 8fef a93c
00000180: 0aeb 56bc f0a0 5bbb 8c73 933c d0a1 353d
00000190: 0983 11bd 6ea2 5f3d 8bb1 813d 6e21 3ebd
000001a0: 184b 713d 1838 053c c639 833b 024d 77bc
000001b0: 3466 513c 50b2 4f3c a590 283d b1c9 0a3c
000001c0: 4a25 5fbd 44b1 65bd c5c9 37bd 5ead 733d
000001d0: fc96 03bb 4095 75bc baaa be3c f184 81bc
000001e0: 7d40 5e3c 44cc e1b8 6dd5 83bc bb4b 653c
000001f0: 8d47 94bc 70df 88bd 78f1 b53c 28ae 60bc
00000200: f83e 2a3c a677 84bb 4a4e 41b9 2245 0d3d
00000210: 0d5b 343d e553 ad3c 89ee ab3c ede3 a3bc
00000220: 7156 9b3b 9718 b73c 4298 053d 2c3c e2bb
00000230: a0d8 9cbc 278a bc3c 41ca c03c 0f0d 5bbc
00000240: 77cf c4ba b0b3 e83b 8480 83bd e0ac 42bb
00000250: 01be b0bc 67d5 1bbd 3e2b a7bc 4bfe 26bc
00000260: 454e f5b9 5d95 0f3c a6c1 4cbc 4e9e fbbb
00000270: 9d82 6c3c 424b 973c dfec 043b 0bd7 393b
00000280: bbbe 2bbb ed7a 4a3a f06c 403c 026e 0f3d
00000290: 9ccf 923b 1289 5bb9 fefd 303c cfe8 dcbc
000002a0: 9aac 143d 6af5 4834 f91e 373d 0218 863c
000002b0: 215f 2fbd 0520 a63b dcad f4ba 5589 4bbc
000002c0: cad8 fc3b ca2c 05bb 0d9b 8cbc fb20 963c
000002d0: a986 323c 59eb dfbb f516 fe3b 8459 8fbc
000002e0: ddf2 543c 9356 b7bc 3d17 ddbc 588a fbbb
000002f0: c415 313c 29a6 173b a0b2 523c 1c6b acbc
00000300: f9fd 263c 0242 21bb 7aee 93bc 6120 d13c
00000310: 2233 7a3b 8049 a9bc c579 b43c dcbb d13c
00000320: c13c 983c 09d0 053c 1d15 043b 4284 61bc
00000330: 3871 4abc cac4 88bc f0bd 64bc 6706 0cbc
00000340: 253b 763b 0804 cd3c 3099 cd3c 06fa 1abc
00000350: 97d6 d5bb fbd5 b3ba baf4 bfbb d8f8 0cbd
00000360: 3160 abba 6965 fbbc ae6f 64bb 1783 c83b
00000370: a8ee 26bd 7802 56bc 38d6 4fbb aebb c43b
00000380: 8e7a 963c 519d 0abb ace9 7dbb 3afc 033a
00000390: fd73 45b9 5bb1 8abc dc0b 00bd 1f5d ca3c
000003a0: 7277 0d3c 90ec babc 6568 19bb c211 f93c
000003b0: 94bc 043c bd64 e5bb fa0e 22bd 6535 e3bb
000003c0: 92f8 d23c c74d 173b bc54 6dbc db63 4dbc
000003d0: eb25 433c d73f 923b ba0f 48bc e1a9 cc3c
000003e0: f66f 053b 6cf0 9b3b 1a3e 96bc 46fb c6bc
000003f0: 08d1 293b 3731 463b 64aa 063c 7818 dcb9

position_embedding.weight f4 [30, 64]
-0.026746236 -0.030700674 -0.015167415 0.021984223 0.007440322 0.032016143 -0.0039291033 -0.025604991
0.013829367 -0.009310463 0.005364241 0.05796053 0.039160814 0.026170114 -0.007887099 0.044148114
-0.0043036523 -0.023768822 -0.006804599 0.03393448 0.041654173 -0.012272848 -0.035846703 -0.03349088
-0.036186483 0.038363647 -3.9962095e-05 0.004068238 -0.03476475 -0.014734032 0.046007156 0.05112267
-0.02497265 0.03277902 -0.038729455 0.0265621 -0.025827916 0.048215784 0.011979179 0.0072252396
0.0033605737 0.02916191 0.034231868 -0.014742807 -0.032881368 0.048527885 0.025861405 0.040389434
-0.0044585355 0.004160382 -0.027536413 0.005979199 -0.0103459 -0.033953626 0.024406832 -0.026405701
0.051644288 -0.06160725 -0.014853338 0.012075992 -0.046289515 -0.020069014 0.046529945 -0.023409644
0.01979764 -0.02557044 -0.041188188 -0.008446438 0.029377995 -0.035823397 -0.03365359 -0.00034050425
-0.0059358124 0.022006439 0.0367433 -0.036300045 -0.016804837 -0.020027528 -0.029764654 -0.0144319
-0.03375541 -0.0027122663 0.0068140635 0.049850848 0.011786248 0.006445502 0.0022623297 0.0042894688
0.03657956 0.0068054046 0.012745362 -0.012019767 0.016011335 0.014422224 0.020422382 0.009001119
0.023857428 -0.011045217 0.010399816 0.0009388504 -0.0069306553 -0.0071471683 -0.010745388 0.038987886
-0.0037496565 0.0047587543 0.04573749 -0.007047922 0.028809007 -0.030098956 -0.019168722 -0.01486703
-0.014873575 0.016294302 0.010750133 -0.019089047 0.027300013 -0.027791135 -0.02066635 0.010051506
0.0067634084 0.014926111 0.024435556 -0.034889877 0.000774161 -0.015048407 0.01933862 0.031877257
-0.0045292303 -0.021427933 -0.01504404 -0.03887933 0.018124165 -0.029638253 -0.022440815 -0.020695535
-0.028351184 0.015580471 0.028987292 -0.008858311 -0.019346243 -0.0032833314 -0.031126954 -0.01695282
-0.033936422 0.00034513773 -0.017093241 0.057212703 0.03197835 0.0075996686 0.0064803488 0.021589126
0.05826619 0.042697962 0.0337097 -0.015248838 0.023689998 0.06293713 0.030685745 0.018329902
0.024578901 -0.005147477 0.03855714 -0.018932061 -0.037929393 0.020289242 -0.014274217 0.03504658
-0.01630637 0.033432126 0.021546388 -0.0020577393 0.03604743 -0.03614429 0.044935282 -0.021915138
-0.049425233 0.030958718 -0.011708525 -0.024172071 0.017447194 -0.006874087 -0.023962254 -0.0007040675
-0.008325596 0.021902967 0.037580293 0.0042132437 0.023462513 -0.019372877 0.010730802 0.053280763
0.028017396 0.0055499803 -0.021624843 0.009796278 -0.035502963 0.032288402 0.04231259 0.022727216
0.014662804 0.02212211 -0.012400254 -0.042432185 0.008329987 0.047826342 0.006092811 -0.023164896
0.011819682 -0.05360953 0.0010623761 -0.0019999458 -0.038590625 -0.033669684 0.025706638 -0.0056552687
0.027496295 -0.019384209 -0.03400263 0.037158493 -0.018327003 -0.023638563 0.017202254 -0.037614513
0.036213934 0.004468355 0.03271688 0.0052396758 0.034508523 -0.0187778 -0.012300489 -0.013819753
0.030273063 -0.030818198 -0.04424062 0.038388103 -0.025657162 0.04204263 -0.026173197 -0.030768583
0.042735897 -0.05499545 -0.05322507 0.039627954 -0.013149018 0.037263025 -0.034159817 0.011801034
-0.013332829 -0.039414268 -0.01929324 0.013123294 -0.03073767 0.016398985 -0.05762631 -0.045318525
00000000: ec1a dbbc fb7f fbbc c080 78bc 4218 b43c
00000010: f2cd f33b 5c23 033d b5bf 80bb 8fc1 d1bc
00000020: 9294 623c ea8a 18bc 84c6 af3b 0568 6d3d
00000030: 1767 203d b562 d63c e438 01bc a7d4 343d
00000040: a705 8dbb d5b6 c2bc 1df9 debb e2fe 0a3d
00000050: 919d 2a3d 0e14 49bc fed3 12bd bc2d 09bd
00000060: 4738 14bd 3323 1d3d f99c 27b8 db4e 853b
00000070: 7c65 0ebd 0267 71bc 0072 3c3d 0166 513d
00000080: 7193 ccbc 4b43 063d c7a2 1ebd c398 d93c
00000090: 1195 d3bc ea7d 453d 5244 443c b4c1 ec3b
000000a0: 123d 5c3b f5e4 ee3c b736 0c3d d08b 71bc
000000b0: 9dae 06bd 2dc5 463d 4cdb d33c 646f 253d
000000c0: e818 92bb d053 883b 0b94 e1bc 28ed c33b
000000d0: da81 29bc f512 0bbd d6f0 c73c c550 d8bc
000000e0: f688 533d e257 7cbd 6a5b 73bc 62da 453c
000000f0: 139a 3dbd c667 a4bc 2f96 3e3d 95c5 bfbc
00000100: a92e a23c 1979 d1bc f2b4 28bd ee62 0abc
00000110: 1faa f03c 8ebb 12bd 59d8 09bd b585 b2b9
00000120: 3481 c2bb d946 b43c 2480 163d 5baf 14bd
00000130: 4caa 89bc c510 a4bc 01d5 f3bc c773 6cbc
00000140: 1d43 0abd 47c0 31bb 8248 df3b 6730 4c3d
00000150: 1b1b 413c ca34 d33b 9843 143b ac8e 8c3b
00000160: 73d4 153d dfff de3b ecd1 503c 8fee 44bc
00000170: 342a 833c 314b 6c3c d74c a73c 6e79 133c
00000180: a770 c33c fff6 34bc fd63 2a3c 2f1d 763a
00000190: 8d1a e3bb cb32 eabb 6d0d 30bc c3b1 1f3d
000001a0: ccbc 75bb 53ef 9b3b 3c57 3b3d 41f2 e6bb
000001b0: de00 ec3c 1692 f6bc b907 9dbc d894 73bc
000001c0: 4cb0 73bc a17b 853c 5321 303c a260 9cbc
000001d0: 47a4 df3c 3caa e3bc 7a4c a9bc 12af 243c
000001e0: 959f dd3b a68c 743c 132d c83c b0e8 0ebd
000001f0: 11f1 4a3a 988d 76bc 076c 9e3c ba91 023d
00000200: f069 94bb a289 afbc 477b 76bc ef3f 1fbd
00000210: 2179 943c eccb f2bc cdd5 b7bc af89 a9bc
00000220: be40 e8bc 3b45 7f3c c276 ed3c 7322 11bc
00000230: 037c 9ebc 292d 57bb f4fd febc a4e0 8abc
00000240: eb00 0bbd 9af3 b439 2007 8cbc de57 6a3d
00000250: bbfb 023d a406 f93b 1b59 d43b aedb b03c
00000260: 87a8 6e3d 0fe4 2e3d 2f13 0a3d 43d6 79bc
00000270: 8711 c23c 2fe5 803d ac60 fb3c 9728 963c
00000280: b159 c93c 2bac a8bb 17ee 1d3d 6917 9bbc
00000290: da5b 1bbd a035 a63c 68de 69bc 018d 0f3d
000002a0: f094 85bc 20f0 083d 0d82 b03c 23db 06bb
000002b0: 78a6 133d 090c 14bd 0f0e 383d 6087 b3bc
000002c0: 1d72 4abd 239d fd3c 1dd5 3fbc 8204 c6bc
000002d0: 6bed 8e3c 0540 e1bb 7d4c c4bc 2c91 38ba
000002e0: 1568 08bc da6d b33c cbed 193d 400f 8a3b
000002f0: 7534 c03c deb3 9ebc 3fd0 2f3c ee3c 5a3d
00000300: bd84 e53c 9cdc b53b 9526 b1bc 9180 203c
00000310: 8e6b 11bd d840 043d f74f 2d3d 6d2e ba3c
00000320: 423c 703c 6d39 b53c 6f2a 4bbc 5fcd 2dbd
00000330: 7f7a 083c 8ee5 433d 34a6 c73b 4fc4 bdbc
00000340: 57a7 413c ab95 5bbd 6d3f 8b3a 8611 03bb
00000350: 3411 1ebd 39e9 09bd ba96 d23c d54f b9bb
00000360: e93f e13c a2cb 9ebc 5746 0bbd 8133 183d
00000370: 8322 96bc a9a5 c1bc beeb 8c3c ad11 1abd
00000380: 1055 143d 476b 923b 2302 063d 96b1 ab3b
00000390: cf58 0d3d e7d3 99bc fd87 49bc 3f6c 62bc
000003a0: 37ff f73c 7276 fcbc a735 35bd d83c 1d3d
000003b0: f82e d2bc e534 2c3d 2c69 d6bc 650e fcbc
000003c0: d60b 2f3d e942 61bd 8802 5abd ec50 223d
000003d0: fb6e 57bc 1da1 183d 2aeb 0bbd 2059 413c
000003e0: f071 5abc db70 21bd db0c 9ebc 1603 573c
000003f0: 91cd fbbc 2a57 863c 9109 6cbd eb9f 39bd

transformer.layers.0.self_attn.in_proj_weight f4 [192, 64]
0.122386046 0.1288242 -0.104463786 0.14301647 -0.06701733 0.082755595 -0.032316294 -0.14050926
0.106334984 0.024695711 0.11138711 0.116916806 -0.02411498 -0.048001904 -0.031562794 -0.047923256
-0.014051278 -0.107446484 0.10975597 0.1063621 0.093362786 0.03430737 -0.0071801613 0.10127194
-0.013340827 0.00042735634 -0.116853334 0.14628121 0.05553617 -0.02181326 -0.04584581 -0.0229073
0.029797941 0.00906374 -0.11221033 -0.04254029 -0.070115626 -0.06757896 -0.10179482 0.03377475
-0.009182268 0.030826354 -0.1009782 0.10784477 -0.1189495 -0.1549709 0.1126547 0.1027245
0.051081877 0.122569494 -0.12666462 0.0061075347 0.04083768 0.050089426 0.059156135 -0.080736555
0.07769798 -0.063714795 0.13582982 0.08581097 -0.11989032 0.110906035 -0.0604714 0.031887796
-0.11895499 -0.062481925 -0.06341085 -0.13701439 0.1042617 0.0024625754 -0.056286495 0.10209097
-0.09414939 0.020942016 0.15053011 0.124652 -0.15033992 -0.054390017 -0.033515025 -0.0088567585
0.013612155 -0.007009043 0.105098136 -0.11709204 0.04277703 -0.036263388 0.10818554 0.13568766
-0.08690812 0.15927857 -0.007644441 -0.15747441 0.10773001 0.15218845 0.08163748 -0.09603483
-0.17493616 -0.10305257 -0.106080316 -0.036579 0.11882862 -0.06225745 0.14986639 -0.09134968
0.049934905 0.102941886 -0.071428865 -0.17991374 0.09006899 0.13925959 0.18304925 -0.05248207
-0.09198905 0.14805159 0.14631882 0.1498573 0.12983124 -0.03666943 -0.13637729 -0.17350927
-0.011452859 0.0049455836 0.15387708 0.15708978 0.022182519 -0.013444958 -0.05824481 -0.026911356
-0.0061596353 0.037537016 -0.0958383 0.046231985 0.13931061 -0.05750338 -0.092179365 0.029213732
0.04793892 -0.07130253 0.16698636 0.09344043 0.05635417 -0.03954871 0.012264733 0.11127237
0.0023375722 0.16143341 0.058546524 0.13410844 -0.0824391 0.14932476 0.1318872 -0.006521399
0.0147802355 0.08194977 0.18923284 -0.02857673 -0.018797303 -0.08644208 0.11058229 0.14078575
0.08339977 -0.14331476 0.13704881 0.09526201 -0.01464163 0.10844138 0.02528514 0.11893693
0.12579751 0.020245709 -0.07042561 0.123867564 -0.096014 0.083867565 0.16262491 0.055436477
-0.1669146 0.16643006 0.056306764 -0.030226743 -0.04362329 0.105667576 0.01779781 -0.083945625
0.05652156 0.14557026 -0.0056502265 -0.13429388 0.018394481 -0.14217249 -0.07082709 0.078567505
0.07672928 0.11714627 -0.08770267 -0.11241457 -0.07145016 -0.10715045 0.045889497 0.03823422
0.028998753 0.16171558 -0.043458536 -0.042900976 0.092040874 -0.13297106 0.04609997 0.06389992
-0.1085771 -0.12187346 -0.097077645 0.054155428 -0.036290105 -0.09159676 0.11582237 -0.072213165
0.14418207 -0.0539752 -0.12658845 -0.15932934 0.095235966 0.011471685 -0.027789034 0.07425848
-0.05138355 0.0008662225 -0.073491566 -0.07142871 -0.045103878 -0.04179959 0.049388822 -0.04456839
0.029898455 -0.020399144 0.024889713 -0.13968277 -0.0038978113 -0.10410053 -0.08966852 -0.022185002
-0.04428112 -0.118451916 -0.08323447 0.006978042 0.07045459 -0.03846099 -0.029287757 -0.050635926
-0.050025713 -0.14311528 0.06779266 0.014245869 0.10123628 -0.10230835 -0.09994512 0.08731888
00000000: 89a5 fa3d 7eea 033e 1cf1 d5bd e972 123e
00000010: 6240 89bd c47b a93d 175e 04bd a9e1 0fbe
00000020: 28c6 d93d a94e ca3c ed1e e43d 1472 ef3d
00000030: c78c c5bc a59d 44bd fd47 01bd 2d4b 44bd
00000040: 5537 66bc e70c dcbd bdc7 e03d 5fd4 d93d
00000050: fd34 bf3d e385 0c3d 8f47 ebbb aa67 cf3d
00000060: 7c93 5abc cc0e e039 cd50 efbd beca 153e
00000070: e579 633d b9b1 b2bc d1c8 3bbd 17a8 bbbc
00000080: d01a f43c 1580 143c 88ce e5bd ba3e 2ebd
00000090: c898 8fbd d666 8abd cd79 d0bd 6457 0a3d
000000a0: 3971 16bc 8d87 fc3c a9cd cebd b8dd dc3d
000000b0: cc9b f3bd b1b0 1ebe 82b7 e63d 3961 d23d
000000c0: 3b3b 513d b705 fb3d 5fb4 01be b721 c83b
000000d0: 6945 273d 922a 4d3d b44d 723d 3559 a5bd
000000e0: 1e20 9f3d e77c 82bd f916 0b3e a9bd af3d
000000f0: 0e89 f5bd b422 e33d dcb0 77bd c79c 023d
00000100: ac9e f3bd 0ced 7fbd 8cdd 81bd 804d 0cbe
00000110: 2887 d53d 2963 213b ab8c 66bd 1215 d13d
00000120: 65d1 c0bd 978e ab3c 9124 1a3e 8c49 ff3d
00000130: b5f2 19be 11c8 5ebd 0d47 09bd f01b 11bc
00000140: 8405 5f3c 1dac e5bb b13d d73d f4cd efbd
00000150: f836 2f3d eb88 14bd 6190 dd3d b5f1 0a3e
00000160: e2fc b1bd ec19 233e 387e fabb f940 21be
00000170: 8da1 dc3d 4ad7 1b3e 8d31 a73d e9ad c4bd
00000180: 7722 33be 3a0d d3bd a340 d9bd ddd3 15bd
00000190: 6b5c f33d ab01 7fbd 9376 193e 8b15 bbbd
000001a0: 8b88 4c3d 32d3 d23d 4c49 92bd 4f3b 38be
000001b0: 1776 b83d 119a 0e3e 4371 3b3e 70f7 56bd
000001c0: c164 bcbd d69a 173e 9ad4 153e 3174 193e
000001d0: 7bf2 043e af32 16bd 7da6 0bbe 6aac 31be
000001e0: c6a4 3bbc 900e a23b f491 1d3e 25dc 203e
000001f0: 1db8 b53c 3e48 5cbc 1c92 6ebd 3475 dcbc
00000200: c4d6 c9bb 6ac0 193d df46 c4bd c05d 3d3d
00000210: 71a7 0e3e aa88 6bbd 89c8 bcbd a351 ef3c
00000220: 9a5b 443d 1007 92bd 79fe 2a3e b25d bf3d
00000230: a1d3 663d d4fd 21bd 05f2 483c c5e2 e33d
00000240: f431 193b cd4e 253e 7bce 6f3d b953 093e
00000250: d5d5 a8bd 97e8 183e 700d 073e 76b1 d5bb
00000260: cd28 723c 48d5 a73d 41c6 413e bf19 eabc
00000270: cdfc 99bc 8c08 b1bd f878 e23d 242a 103e
00000280: 80cd aa3d 1bc1 12be 8656 0c3e bb18 c33d
00000290: 73e3 6fbc 8416 de3d c822 cf3c 3595 f33d
000002a0: 10d1 003e 54da a53c 4d3b 90bd 47ae fd3d
000002b0: fda2 c4bd c2c2 ab3d 2587 263e 5c11 633d
000002c0: a9eb 2abe a46c 2a3e eca1 663d 139e f7bc
000002d0: 56ae 32bd 3e68 d83d b6cc 913c afeb abbd
000002e0: 2783 673d 5f10 153e 8925 b9bb 5684 09be
000002f0: 06b0 963c aa95 11be cb0d 91bd 00e8 a03d
00000300: 3e24 9d3d 62ea ef3d 759d b3bd 9c39 e6bd
00000310: 7654 92bd b271 dbbd a0f6 3b3d 7c9b 1c3d
00000320: cb8e ed3c c598 253e 9401 32bd efb8 2fbd
00000330: ed7f bc3d 9129 08be 52d3 3c3d f6dd 823d
00000340: ac5d debd cb98 f9bd a5d0 c6bd 15d2 5d3d
00000350: efa4 14bd 1597 bbbd 4734 ed3d 7fe4 93bd
00000360: 77a4 133e 1915 5dbd 67a0 01be 3b27 23be
00000370: 130b c33d bcf3 3b3c d4a5 e3bc d414 983d
00000380: 8f77 52bd 3513 633a bf82 96bd 3749 92bd
00000390: d8be 38bd 0c36 2bbd ef4b 4a3d 588d 36bd
000003a0: 9bed f43c 1b1c a7bc 83e5 cb3c 0009 0fbe
000003b0: 6c72 7fbb a932 d5bd 21a4 b7bd 52bd b5bc
000003c0: 1f60 35bd eb96 f2bd d576 aabd 0fa8 e43b
000003d0: 7f4a 903d 4589 1dbd e1ec efbc 9e67 4fbd
000003e0: c3e7 4cbd d08c 12be e1d6 8a3d 8167 693c
000003f0: f754 cf3d 0a87 d1bd 07b0 ccbd 3ed4 b23d

transformer.layers.0.self_attn.in_proj_bias f4 [192]
0.009661697 -0.042090435 0.0035506939 -0.0046296986 -0.0055945767 0.005707601 0.015347582 -0.024163982
-0.00085189176 0.014600469 0.0054051587 -0.052183148 -0.0056948927 -0.0049036094 0.01684625 -0.015578903
-0.0056402236 0.019766489 0.0029365537 0.018025488 -0.023978937 6.936656e-05 -0.0005841985 0.0033812854
-0.016331084 0.028268548 -0.007451209 -0.00058891054 -0.0100542065 -0.004689339 -0.050314985 0.008861166
-0.015026683 0.005663264 0.012662869 -0.0016935501 0.0040710173 -0.010536475 -0.03306425 0.018315196
-0.0069696154 -0.032857057 0.0007966113 -0.013198821 0.0045565944 0.002532425 0.0067592026 0.03358071
-0.017322004 -0.0031241644 -0.008098747 0.0002862687 0.0018045551 0.015111984 -0.0074683907 0.010432114
-0.019887585 -0.0066922237 0.0027786912 -0.01011252 0.007261022 -0.005910038 0.014749558 0.0063800863
1.5137472e-08 -1.0700727e-08 8.562572e-08 2.7787177e-08 9.225868e-08 3.2390187e-08 1.5225018e-07 -5.062129e-08
1.3040461e-08 9.355807e-09 5.5017114e-08 -2.1716971e-08 1.8798468e-07 2.9570682e-08 -9.052345e-08 2.0566046e-07
1.387544e-07 -4.0140183e-08 -3.3017105e-08 -9.889128e-08 -3.198676e-08 8.4921034e-08 1.7979957e-07 1.6649457e-07
-1.0007322e-07 -5.770787e-08 -1.8531856e-07 6.0076594e-08 4.9201798e-08 -1.6466169e-07 -8.688773e-08 1.819864e-08
7.832456e-08 3.8083323e-09 2.0881427e-07 -1.3468584e-08 -1.18749035e-07 -2.9886916e-08 -8.771985e-08 -1.3447554e-07
1.3294893e-07 1.7103682e-07 -7.0254746e-10 3.101603e-08 -4.6614113e-09 -5.415976e-08 1.00166595e-07 2.6250532e-07
-1.481019e-07 -8.826659e-08 -1.1211559e-07 4.8993144e-08 1.5766734e-07 1.810235e-08 3.0323778e-07 -3.7262932e-08
2.1527016e-07 1.12047914e-07 -6.381089e-08 -2.1671946e-07 8.5817184e-08 5.600425e-09 8.166043e-08 -2.1252478e-07
0.00484273 -0.0028625885 -0.0039373646 -0.0012295861 0.021997474 0.005077358 -0.0025711062 -0.010759906
0.002304803 0.0153029375 -0.017302172 0.0038110043 -0.004906941 0.01837357 -0.0025511696 0.002055163
0.0003588018 -0.021385878 -0.0018822235 0.0067070746 -0.005574735 -0.020803314 -0.0069975737 0.012394398
-0.015874665 0.014355634 0.0010758486 0.01789097 0.020315826 0.0106740715 0.012356185 -0.010637559
-0.005333078 0.004661352 0.0028068882 -0.0027655382 0.007864475 0.016059402 -6.711334e-05 -0.009172307
-0.015373533 0.013006924 0.00850095 0.005756855 -0.0032718931 -0.021482378 -0.0091996575 -0.00086081604
-0.0037889401 0.005076571 0.008203225 0.0020761003 0.0033942538 -0.0077877752 -0.0026484288 -0.022153512
0.0013297388 -0.0070046284 0.0064330627 0.013467117 0.0001908902 -0.00073016586 -0.0027728977 0.0066267885
00000000: 184c 1e3c 0567 2cbd c2b2 683b bab4 97bb
00000010: b652 b7bb d406 bb3b 6d74 7b3c 8bf3 c5bc
00000020: 7d51 5fba ce36 6f3c c21d b13b ffbd 55bd
00000030: 399c babb 75ae a0bb 2601 8a3c a83e 7fbc
00000040: a0d1 b8bb 55ed a13c 3273 403b 30aa 933c
00000050: 7a6f c4bc e378 9138 e624 19ba 8e98 5d3b
00000060: c4c8 85bc 7193 e73c 4529 f4bb 1e61 1aba
00000070: 66ba 24bc 07a9 99bb 1617 4ebd 6d2e 113c
00000080: 7a32 76bc e792 b93b ec77 4f3c 1dfa ddba
00000090: 2b66 853b 2ea1 2cbc 616e 07bd c009 963c
000000a0: 5f61 e4bb 1f95 06bd aed3 503a de3f 58bc
000000b0: 7c4f 953b 0bf7 253b 4d7c dd3b ed8b 093d
000000c0: e0e6 8dbc c8be 4cbb 9bb0 04bc 5616 9639
000000d0: d286 ec3a 4198 773c 67b9 f4bb 75eb 2a3c
000000e0: 4aeb a2bc 714a dbbb b41a 363b fcae 25bc
000000f0: deed ed3b fea8 c1bb 21a8 713c 0b10 d13b
00000100: a707 8232 4cd6 37b2 3de1 b733 a6b0 ee32
00000110: bf1f c633 631d 0b33 367a 2334 b26a 59b3
00000120: 8e08 6032 46bb 2032 f54b 6c33 208c bab2
00000130: d6d8 4934 9e02 fe32 cb65 c2b3 84d3 5c34
00000140: 85fc 1434 9966 2cb3 b1ce 0db3 0e5e d4b3
00000150: d161 09b3 d55d b633 ee0e 4134 aec5 3234
00000160: d6e7 d6b3 79da 77b3 fafb 46b4 7503 8133
00000170: f351 5333 dccd 30b4 0997 bab3 3c53 9c32
00000180: 6233 a833 72da 8231 6e36 6034 7563 67b2
00000190: f902 ffb3 035d 00b3 7f60 bcb3 5b64 10b4
000001a0: b9c0 0e34 3ea6 3734 621d 41b0 7c36 0533
000001b0: 352a a0b1 499d 68b3 2b1b d733 75ee 8c34
000001c0: f105 1fb4 128d bdb3 33c4 f0b3 886c 5233
000001d0: 454b 2934 7d7f 9b32 afcc a234 070b 20b3
000001e0: 0325 6734 fe9e f033 6808 89b3 64b3 68b4
000001f0: 7f4a b833 dc6d c031 4c5d af33 5e32 64b4
00000200: c3af 9e3b 449a 3bbb 0205 81bb 102a a1ba
00000210: 0c34 b43c f75f a63b 0180 28bb 514a 30bc
00000220: 2e0c 173b 2cb9 7a3c 49bd 8dbc 0bc2 793b
00000230: 68ca a0bb 2b84 963c 8631 27bb eaaf 063b
00000240: 901d bc39 7031 afbc f1b4 f6ba 05c7 db3b
00000250: 44ac b6bb b66b aabc e74b e5bb e011 4b3c
00000260: 960b 82bc e533 6b3c 7d03 8d3a 1590 923c
00000270: 606d a63c 4de2 2e3c 9971 4a3c 2849 2ebc
00000280: 1ac1 aebb 41be 983b c5f3 373b 083e 35bb
00000290: 00da 003c 028f 833c 33bf 8cb8 7247 16bc
000002a0: 45e1 7bbc fe1a 553c 9247 0b3c 00a4 bc3b
000002b0: 426d 56bb d0fb afbc 29ba 16bc 63a8 61ba
000002c0: de4f 78bb 5d59 a63b d266 063c 2f0f 083b
000002d0: 2172 5e3b 9830 ffbb 4391 2dbb 487b b5bc
000002e0: a14a ae3a 1587 e5bb 71cc d23b 2fa5 5c3c
000002f0: b329 4839 9a68 3fba 81b9 35bb 8825 d93b

transformer.layers.0.self_attn.out_proj.weight f4 [64, 64]
0.020964166 -0.03336787 -0.008813469 0.035088073 -0.014219088 -0.015450713 -0.014047771 -0.021034027
-0.023035912 -0.009682444 0.011274625 -0.007053546 -0.035143204 0.021859381 0.0015861636 -0.0036038868
-0.03371842 0.015630398 -0.021262081 -0.024278097 0.043243777 0.020107783 0.0347964 -0.028741665
0.012129395 -0.046950947 0.012676491 -0.02848704 -0.036849976 -0.030782748 -0.0039057059 0.032419037
0.022323955 0.021120122 0.034521293 -0.0022785317 -0.048424207 -0.018490963 -0.030982144 -0.011023063
0.032453973 0.0034400616 -0.013465444 -0.010780997 0.023804482 0.0073382575 0.01527691 0.02249124
0.007903852 0.006957428 0.037465826 -0.026433147 0.0045032427 -0.008232881 -0.0025541107 -0.0018066308
0.012811964 0.02000917 0.013044447 -0.028181667 -0.027783936 0.012319682 0.01666859 0.01779612
0.018481692 0.041632753 0.021792807 0.011549173 0.021682767 -0.039535545 0.015403636 -0.0035901365
0.0070271925 0.025178669 -0.013025427 0.021046456 -0.00034036834 0.016336832 0.036781386 -0.016338786
0.024180485 -0.023312662 0.018480528 -0.054561246 -0.015074244 -0.044005614 -0.032860175 -0.029155225
-0.01708821 -0.007916233 0.020654546 0.013748532 0.034757305 0.033703975 -0.008551981 -0.02988911
0.01282781 -0.002775219 -0.004631574 -0.0033630154 0.015602742 0.00212369 0.00071623217 0.01375701
0.021054745 0.02113656 0.024162084 0.06392852 0.0064968853 -0.039129924 0.00062081235 -0.028585115
-0.037737936 -0.00013702249 0.037063405 -0.036185805 0.0016091703 0.015172435 0.018308977 0.016761633
0.012093124 -0.022403978 0.0474057 -0.00029380078 -0.009654821 0.017924754 -0.027680555 -0.021443553
-0.015702125 0.006968905 0.04393509 0.01870967 -0.0007108304 -0.04309941 0.014158876 -0.021552533
-0.018434476 0.021893322 0.012069453 0.01695861 -0.011865404 0.017036865 -0.0010216403 0.009309459
-0.004525524 0.006003372 0.029557 -0.00013917252 -0.007880609 0.017733462 -0.014419223 0.011206486
0.0081201 -0.0106443595 -0.004759949 0.0068886466 0.025752494 0.0060326266 0.0075812433 -0.025337175
0.034523394 -0.028257042 -0.007474812 -0.0014826981 -0.04356921 0.0075345174 -0.021130566 -0.010708639
0.0068239626 0.009392503 -0.0066535836 0.0026947781 0.004447129 0.008026016 0.012466144 -0.010078385
-0.015280139 -0.020774478 0.027156018 0.028265696 0.006144549 0.02608369 0.063762285 -0.025144188
-0.010411174 -0.021039236 0.058448885 0.007537566 0.010526423 0.0012918621 0.020581653 0.008631588
-0.014870052 0.020415563 -0.009510182 -0.03799368 0.019368997 -0.0015305982 0.02284245 0.025356011
0.0005258576 0.029346298 0.016013961 -0.009104979 0.011123366 0.011486764 -0.017630026 0.00936656
-0.03889084 -0.0060779364 0.007340137 0.0050329803 -0.028242428 0.025755525 0.012881719 0.007406583
-0.011139367 0.025113227 -0.02095101 -0.006456814 -0.018941093 0.000765289 0.09297748 3.76439e-06
-0.018208299 -0.0052827233 -0.042351034 0.008529835 0.03432231 0.011244269 0.038309753 -0.001510131
-0.00057181704 -0.001105419 -0.020447595 -0.015866859 -0.029040769 -0.014664675 -0.0038611488 -0.0026930778
-0.012982504 0.043755595 -0.015306605 0.0065821074 0.010314866 -0.041129384 0.0032752885 -0.004129162
-0.012076622 -0.011352978 0.015218072 0.0015667778 -0.025630401 -0.036771026 0.02383952 -0.036115497
00000000: 0bbd ab3c bfac 08bd 5e66 10bc 83b8 0f3d
00000010: 2df7 68bc fd24 7dbc 9f28 66bc 8d4f acbc
00000020: cfb5 bcbc 1da3 1ebc 34b9 383c 6f21 e7bb
00000030: 52f2 0fbd 7212 b33c d2e6 cf3a 302f 6cbb
00000040: 531c 0abd 520b 803c d12d aebc dce2 c6bc
00000050: 6320 313d 14b9 a43c ac86 0e3d a473 ebbc
00000060: 5fba 463c a34f 40bd 0fb1 4f3c a75d e9bc
00000070: 00f0 16bd 1a2c fcbc dff6 7fbb d3c9 043d
00000080: bae0 b63c 1b04 ad3c 3366 0d3d 6b53 15bb
00000090: 7658 46bd 5c7a 97bc 44ce fdbc 149a 34bc
000000a0: 75ee 043d a872 613b 2a9e 5cbc c7a2 30bc
000000b0: 9e01 c33c c475 f03b 014c 7a3c 8d3f b83c
000000c0: 287f 013c 23fb e33b c475 193d 548a d8bc
000000d0: f08f 933b 35e3 06bc de62 27bb 78cc ecba
000000e0: 46e9 513c 45ea a33c 60b8 553c 3ddd e6bc
000000f0: 239b e3bc 7ed8 493c 918c 883c 2bc9 913c
00000100: eb66 973c 1b87 2a3d d486 b23c be38 3d3c
00000110: 0fa0 b13c 06f0 21bd 885f 7c3c 7f48 6bbb
00000120: 5d44 e63b 7f43 ce3c 9a68 55bc 9e69 ac3c
00000130: 7773 b2b9 d2d4 853c 14a8 163d ebd8 85bc
00000140: 2716 c63c 32fa bebc 7a64 973c 9d7b 5fbd
00000150: f6f9 76bc 3b3f 34bd 6498 06bd f0d6 eebc
00000160: 93fc 8bbc 16b3 01bc b933 a93c 8641 613c
00000170: ad5d 0e3d 2e0d 0a3d 9c1d 0cbc 02da f4bc
00000180: bc2b 523c 73e0 35bb 75c4 97bb 0966 5cbb
00000190: a5a2 7f3c 9b2d 0b3b 87c1 3b3a 1565 613c
000001a0: 007b ac3c 9426 ad3c 90ef c53c f5ec 823d
000001b0: d3e3 d43b b346 20bd 03be 223a 552b eabc
000001c0: 1893 1abd b2ad 0fb9 cccf 173d 9137 14bd
000001d0: ccea d23a ce95 783c b5fc 953c b14f 893c
000001e0: 3d22 463c 8c88 b7bc 7b2c 423d 4609 9ab9
000001f0: 412f 1ebc efd6 923c 55c2 e2bc 64aa afbc
00000200: bea1 80bc 6a5b e43b 48f5 333d 0645 993c
00000210: 0557 3aba 0289 30bd a1fa 673c f08e b0bc
00000220: e603 97bc a059 b33c f4be 453c c8ec 8a3c
00000230: 1d67 42bc e590 8b3c 8fe8 85ba b386 183c
00000240: d94a 94bb efb7 c43b 8621 f23c d7ee 11b9
00000250: ab1d 01bc c445 913c 9b3e 6cbc 699b 373c
00000260: 2b0a 053c ae65 2ebc 59f9 9bbb 28ba e13b
00000270: e5f6 d23c 57ad c53b 146c f83b e88f cfbc
00000280: 6768 0d3d 507b e7bc 45ef f4bb 1857 c2ba
00000290: a175 32bd 1de4 f63b 021a adbc 4a73 2fbc
000002a0: 8c9b df3b 03e3 193c 4e06 dabb e09a 303b
000002b0: 39b9 913b 8d7f 033c cc3e 4c3c cf1f 25bc
000002c0: 8c59 7abc 3d2f aabc 4c76 de3c 768d e73c
000002d0: 3758 c93b 76ad d53c cd95 823d 2ffb cdbc
000002e0: a193 2abc 7a5a acbc 1968 6f3d b0fd f63b
000002f0: 0577 2c3c b353 a93a db9a a83c 816b 0d3c
00000300: 85a1 73bc 8a3e a73c 98d0 1bbc 439f 1bbd
00000310: bbab 9e3c 5a9e c8ba 1720 bb3c 69b7 cf3c
00000320: b5d9 093a a667 f03c b62f 833c 0d2d 15bc
00000330: c73e 363c fb32 3c3c d86c 90bc 3376 193c
00000340: 004c 1fbd 6d29 c7bb 8885 f03b b3eb a43b
00000350: aa5c e7bc 40fd d23c d80d 533c ecb2 f23b
00000360: e481 36bc 41ba cd3c 74a1 abbc ae93 d3bb
00000370: 5a2a 9bbc ad9d 483a fa6a be3d ba9f 7c36
00000380: 9229 95bc b21a adbb 4778 2dbd b9c0 0b3c
00000390: 8d95 0c3d e239 383c b0ea 1c3d 97ef c5ba
000003a0: fee5 15ba b5e3 90ba b781 a7bc 37fb 81bc
000003b0: e8e6 edbc 1b44 70bc 540b 7dbb 597e 30bb
000003c0: 92b4 54bc 1139 333d 8ec8 7abc b8ae d73b
000003d0: afff 283c 4977 28bd 39a6 563b ec4d 87bb
000003e0: 06dd 45bc d701 3abc 3855 793c 575c cd3a
000003f0: d9f6 d1bc 379d 16bd 194b c33c d8ed 13bd

transformer.layers.0.self_attn.out_proj.bias f4 [64]
0.008573493 -0.0072226957 -0.005529928 -0.0015836165 0.0077674873 -0.010908177 -0.0034348967 0.010863184
0.0013290108 0.008744674 0.009024552 -0.0077200173 -0.00903574 -0.0065409974 -0.0014876393 -0.008557658
-0.00010164379 -0.0032104615 0.004433023 0.0073925117 -0.00035069807 0.0029413172 0.0067308326 -0.0015860794
0.00515257 -0.0035188808 0.002362758 -0.0076259123 -0.002867788 0.0070734997 0.009046942 0.0030289257
0.006786904 -0.0044386275 0.0044276062 -0.0068412162 -0.0006744473 0.009399968 -0.006647667 0.0063338764
-0.009809484 -0.00027625577 0.007992602 0.001959608 0.00466704 -0.009997459 -0.0017171535 -0.008750228
-0.008491466 0.006893621 0.0104505075 -0.011106948 0.0010312708 0.0026129596 -0.0039493856 0.006572043
0.005481439 0.0055149067 -0.0023049312 -0.0070695835 0.01058343 -0.0067998157 0.0043221805 0.005477962
00000000: d677 0c3c 5dac ecbb 6634 b5bb 5a91 cfba
00000010: 6886 fe3b 36b8 32bc 011c 61bb 7ffb 313c
00000020: 3432 ae3a d245 0f3c b7db 133c 33f8 fcbb
00000030: a40a 14bc dd55 d6bb e4fc c2ba 6b35 0cbc
00000040: 9829 d5b8 9b66 52bb e442 913b e23c f23b
00000050: e6dd b7b9 1dc3 403b 518e dc3b fee3 cfba
00000060: e4d6 a83b 069d 66bb 80d8 1a3b cae2 f9bb
00000070: 80f1 3bbb d1c8 e73b a039 143c f180 463b
00000080: ad64 de3b e871 91bb 7415 913b 482c e0bb
00000090: 64cd 30ba 5302 1a3c acd4 d9bb 688c cf3b
000000a0: f5b7 20bc 6cd6 90b9 67f3 023c c46c 003b
000000b0: f8ed 983b 62cc 23bc 1c12 e1ba 1e5d 0fbc
000000c0: ca1f 0bbc e2e3 e13b 9b38 2b3c ebf9 35bc
000000d0: b52b 873a 303e 2b3b d969 81bb 4b5a d73b
000000e0: a59d b33b 64b6 b43b 540e 17bb f7a7 e7bb
000000f0: 1f66 2d3c fdd0 debb 14a1 8d3b 7a80 b33b

transformer.layers.0.linear1.weight f4 [128, 64]
0.020815551 -0.065411694 -0.0392167 -0.06551822 0.031975172 -0.03474893 -0.02462553 -0.016801462
0.037762206 -0.028504686 0.035383597 -0.0230863 -0.02488936 -0.040503 -0.015824199 0.018788496
-0.051519964 0.03312574 0.0067299027 0.016878093 -0.032260574 -0.0038889556 0.017838674 0.012155934
0.00862184 0.040368404 0.06211581 -0.033513505 0.03022654 0.049432848 0.019555457 -0.024540458
0.012840276 -0.024220878 -0.0070059462 -0.024302565 0.0081552295 0.027559603 -0.003382768 0.021549098
-0.023331072 0.03154215 -0.009770447 0.017961057 0.013527589 0.007822172 0.03918982 -0.041624784
-0.059516195 -0.0064330013 0.029053258 -0.048785664 0.016933717 0.021761922 -0.013180565 0.014822182
0.039964497 0.031190086 0.018370407 -0.02442026 -0.029398194 -0.013852609 -0.01946568 -0.0019331932
0.004933406 -0.0063885874 0.013508865 0.0019066727 -0.019724717 0.03680318 0.046973012 0.03570574
0.050254535 0.026737131 0.018911526 -0.008292468 -0.0008471698 0.0055596833 -0.009495044 -0.0024954546
-0.023263572 -0.01248948 -0.02428031 0.0070561343 -0.010718758 -0.043041844 0.01235282 -0.034938574
-0.026176289 -0.03658371 -0.00855605 -0.0010112744 -0.027897127 -0.008582594 -0.043770313 0.030536257
0.0481412 0.014370969 0.04474807 0.00626303 0.048671447 -0.0211129 0.0053194566 0.019846888
0.05509995 -0.029119857 -0.0053423233 0.027070122 -0.011519874 0.008802537 -0.033014577 -0.012789737
0.019169044 -0.04348744 -0.029444462 0.03126161 -0.015461894 0.06601774 -0.019987028 -0.0012373348
0.016383776 -0.036779273 -0.021708587 0.006629832 0.025473094 -0.0023633565 -0.056297418 -0.026899895
-0.0072725173 -0.00036881297 -0.03297044 0.019013105 0.0111437775 0.0033060315 -0.053209618 -0.022935532
0.032297216 0.028560625 0.04998509 0.039171986 0.00062441325 0.010313921 -0.016800402 0.0107315
0.004490939 0.044320963 0.0017215811 0.01834531 0.019841965 0.015630642 -0.027588373 -0.014772223
0.03885025 0.008180948 0.06672232 -0.036015254 0.00461535 0.023069324 0.020678196 0.02486115
0.030778393 -0.012920544 -0.016179536 -0.01775368 -0.006341684 -0.026585918 0.003007334 -0.008743367
-0.06380194 0.023684338 -0.0051746755 0.0020015135 0.026208177 -0.042590536 0.018801576 0.012317161
0.0038810584 0.028319342 0.000293305 -0.017076423 -0.0004904442 0.014287934 -0.017917706 0.0013023209
-0.03538449 0.051399875 -0.010501679 0.012528163 0.0003558771 -0.0062043644 0.00363486 0.033292625
0.006410864 0.004877626 0.006037488 -0.06731601 0.04559666 -0.026404 0.014685566 -0.029646078
-0.032672204 0.024535792 0.03746773 -0.059961945 -0.014613395 -0.04605428 0.019160759 -0.019144155
0.01481395 0.029687377 -0.03456094 -0.0019511821 0.00012920793 0.04029049 -0.022187838 -0.021076845
0.026575204 -0.009487855 0.037793852 -0.020475589 0.010439786 0.02725445 0.040335413 -0.01352485
-0.0018765685 -0.0701622 0.02638797 0.012856542 0.004020027 0.046016604 -0.010505367 0.016354067
-0.056561776 0.020398948 -0.004980141 -0.0042052553 0.017549371 -0.012542293 -0.0075771213 0.0010201703
-0.040409897 0.028650679 -0.0021161137 0.007064948 0.02113298 -0.0035281286 -0.042499404 -0.04126248
0.014341857 0.02324054 0.012854047 0.005985559 0.04091635 -0.0056894524 -0.017830443 0.013307553
00000000: 6085 aa3c 91f6 85bd b1a1 20bd 6b2e 86bd
00000010: 66f8 023d e554 0ebd 7bbb c9bc 38a3 89bc
00000020: 8bac 1a3d a982 e9bc 64ee 103d 7b1f bdbc
00000030: c5e4 cbbc 79e6 25bd c0a1 81bc 55ea 993c
00000040: 9906 53bd dbae 073d 8486 dc3b ed43 8a3c
00000050: aa23 04bd d9dd 7ebb 6922 923c af29 473c
00000060: 9e42 0d3c 5759 253d 266d 7e3d 7545 09bd
00000070: a69d f73c 197a 4a3d c432 a03c 1209 c9bc
00000080: 0560 523c dd6a c6bc 2392 e5bb 2c16 c7bc
00000090: 839d 053c adc4 e13c 6eb1 5dbb bc87 b03c
000000a0: ce20 bfbc 5732 013d 3a14 20bc 1123 933c
000000b0: d2a2 5d3c 9128 003c 8185 203d c07e 2abd
000000c0: 41c7 73bd edcb d2bb 1901 ee3c 7ad3 47bd
000000d0: 94b8 8a3c 0f46 b23c 4cf3 57bc bdd8 723c
000000e0: d0b1 233d 5a82 ff3c 897d 963c ff0c c8bc
000000f0: 7bd4 f0bc 0ef6 62bc 7d76 9fbc 3363 fdba
00000100: 69a8 a13b 5b57 d1bb 4954 5d3c 52e9 f93a
00000110: bb95 a1bc eebe 163d c666 403d 2f40 123d
00000120: b3d7 4d3d d407 db3c 58ec 9a3c 22dd 07bc
00000130: 9a14 5eba 012e b63b 1a91 1bbc c88a 23bb
00000140: 3f93 bebc ada0 4cbc 80e7 c6bc 2537 e73b
00000150: bb9d 2fbc a54c 30bd 7b63 4a3c c01b 0fbd
00000160: a86f d6bc cdd8 15bd ad2e 0cbc bd8c 84ba
00000170: 8488 e4bc 029e 0cbc 8048 33bd 2c27 fa3c
00000180: b52f 453d 3674 6b3c c149 373d 1b3a cd3b
00000190: b65b 473d f6f4 acbc d64e ae3b f195 a23c
000001a0: 7cb0 613d c48c eebc a80e afbb 29c2 dd3c
000001b0: dbbd 3cbc 8438 103c 4b3a 07bd 0c8c 51bc
000001c0: 6608 9d3c e31f 32bd 8335 f1bc 2d0c 003d
000001d0: e253 7dbc 4f34 873d d6bb a3bc 112e a2ba
000001e0: 4537 863c dda5 16bd 35d6 b1bc 103f d93b
000001f0: f3ac d03c 8be2 1abb 1f98 66bd 2b5d dcbc
00000200: 4c4e eebb 3d5d c1b9 030c 07bd 5fc1 9b3c
00000210: 6494 363c 01aa 583b 54f2 59bd 4ce3 bbbc
00000220: 164a 043d f9f7 e93c 2abd 4c3d ce72 203d
00000230: aaaf 233a b8fb 283c ffa0 89bc 2cd3 2f3c
00000240: ba28 933b e689 353d ada6 e13a e748 963c
00000250: 9e8b a23c d50b 803c 0301 e2bc 3207 72bc
00000260: 7121 1f3d 6209 063c b6a5 883d bb84 13bd
00000270: 5d3c 973b e1fb bc3c 5265 a93c 9ca9 cb3c
00000280: f822 fc3c b0b0 53bc f28a 84bc 2a70 91bc
00000290: e7cd cfbb b6ca d9bc b116 453b 5740 0fbc
000002a0: 97aa 82bd a805 c23c 5390 a9bb d32b 033b
000002b0: 88b2 d63c 6a73 2ebd c305 9a3c ebcd 493c
000002c0: 5b59 7e3b f7fd e73c bbc6 9939 dbe3 8bbc
000002d0: 2791 00ba f017 6a3c 27c8 92bc a3b2 aa3a
000002e0: 54ef 10bd ad88 523d 3c0f 2cbc ed42 4d3c
000002f0: 0495 ba39 fb4d cbbb d536 6e3b d95d 083d
00000300: 3a12 d23b 7ed4 9f3b 1fd6 c53b fadc 89bd
00000310: 90c3 3a3d 344d d8bc ba9b 703c 55dc f2bc
00000320: 4ad3 05bd 49ff c83c c377 193d a89a 75bd
00000330: 056d 6fbc 6aa3 3cbd 06f7 9c3c 34d4 9cbc
00000340: 36b6 723c f132 f33c c68f 0dbd cfbe ffba
00000350: fd7b 0739 a407 253d 45c3 b5bc 59a9 acbc
00000360: 3eb4 d93c f372 1bbc bacd 1a3d 6cbc a7bc
00000370: a30b 2b3c b944 df3c bf36 253d 5597 5dbc
00000380: 31f7 f5ba 33b1 8fbd 962b d83c 3fa4 523c
00000390: 6eba 833b e87b 3c3d b41e 2cbc f7f8 853c
000003a0: 52ad 67bd b21b a73c 7330 a3bb 3dcc 89bb
000003b0: b3c3 8f3c 317e 4dbc 8049 f8bb 3cb7 853a
000003c0: d984 25bd d4b4 ea3c 7fae 0abb 1481 e73b
000003d0: 121f ad3c 2d38 67bb db13 2ebd d902 29bd
000003e0: 1cfa 6a3c f262 be3c c899 523c 8222 c43b
000003f0: e797 273d 966e babb 2611 92bc ec07 5a3c

transformer.layers.0.linear1.bias f4 [128]
0.030198608 0.0023815143 0.0075669447 0.004512577 0.0009686183 0.0073721074 0.0055107395 0.02075886
0.0015205054 -0.0004244731 0.019175535 0.026140368 0.008659338 -0.0046072793 0.010896542 0.0018850104
0.00756894 0.020176463 0.0061126333 0.007100472 0.022098564 0.021755463 0.018123118 0.012433235
0.013006695 -0.017671173 0.010678102 0.00509759 0.008222994 0.005271948 0.020698255 0.027815552
0.0013054488 0.0017744926 0.017266128 0.009066196 0.0032728638 0.0071669924 0.03304526 0.011501504
0.020844692 0.001842956 0.0190148 0.0021798045 0.014192 0.03090491 0.019533882 0.019720346
0.007526132 -0.00061853824 0.002763489 0.008638181 0.004005104 0.019910278 0.021260738 0.008935859
0.0021116051 0.013564876 -0.009627995 0.01857702 0.0015689993 -0.0054174527 0.0142327575 0.01502456
0.029633025 -0.0025809656 0.017526815 0.0067187245 0.019499686 -0.0036647888 0.01775183 0.010146805
0.003700367 0.007509858 -0.006769679 -0.0052123633 -0.0056121224 -0.013934837 -0.005588302 -0.008616038
0.0041630175 -0.0013683953 0.010746659 0.017696766 0.002241465 -0.0058836085 -0.002808591 0.03629147
0.017383052 0.0027502417 0.0197031 0.015566099 0.023791721 -0.021313317 0.017339408 0.010627373
0.02442302 0.022741765 0.011176933 0.008539617 -0.002873808 0.018997425 0.011668743 0.001712621
0.016789937 0.00075839116 0.025006896 0.01496039 0.004634488 0.023902766 -0.010516572 0.009325276
0.0024303328 0.006865801 0.009684721 0.00014563678 0.007601524 0.023855068 0.026238829 0.028566444
-0.011491339 0.014568572 0.00623484 -0.006363433 0.0026353376 0.018145531 0.015570708 0.014728184
00000000: 1263 f73c 2e13 1c3b 22f4 f73b 3dde 933b
00000010: e0ea 7d3a b891 f13b 6f93 b43b 7c0e aa3c
00000020: b24b c73a d18b deb9 0316 9d3c 5324 d63c
00000030: e5df 0d3c a9f8 96bb 6987 323c 7412 f73a
00000040: df04 f83b 1c49 a53c 7c4c c83b 14ab e83b
00000050: 0c08 b53c 8338 b23c ef76 943c c4b4 4b3c
00000060: 081a 553c 23c3 90bc 35f3 2e3c af09 a73b
00000070: bdb9 063c 4ec0 ac3b 638f a93c 71dd e33c
00000080: 981b ab3a 1796 e83a b271 8d3c 628a 143c
00000090: 8b7d 563b 17d9 ea3b 775a 073d ce70 3c3c
000000a0: 7dc2 aa3c 578f f13a edc4 9b3c 0ddb 0e3b
000000b0: 9085 683c 4b2c fd3c 8505 a03c 908c a13c
000000c0: c59d f63b 6625 22ba a71b 353b 2887 0d3c
000000d0: 3f3d 833b e11a a33c 002b ae3c b667 123c
000000e0: db62 0a3b 373f 5e3c bdbe 1dbc d62e 983c
000000f0: e1a6 cd3a e384 b1bb 8330 693c 9229 763c
00000100: f5c0 f23c 6b25 29bb 6594 8f3c bf28 dc3b
00000110: cebd 9f3c f42c 70bb 496c 913c c93e 263c
00000120: db81 723b 4115 f63b 2fd4 ddbb 79cc aabb
00000130: e5e5 b7bb f14e 64bc 131e b7bb 482a 0dbc
00000140: ec69 883b ba5b b3ba c112 303c cff8 903c
00000150: 8be5 123b 49cb c0bb 5610 38bb 5da6 143d
00000160: e766 8e3c 663d 343b 6568 a13c f408 7f3c
00000170: dbe6 c23c 4499 aebc 600b 8e3c 6f1e 2e3c
00000180: c912 c83c f04c ba3c 741f 373c c0e9 0b3c
00000190: 7f56 3cbb 7da0 9b3c 412e 3f3c 067a e03a
000001a0: 0d8b 893c c5ce 463a 43db cc3c 6c1c 753c
000001b0: e7dc 973b bccf c33c b34d 2cbc 0bc9 183c
000001c0: 3846 1f3b 83fa e03b aaac 1e3c 13b6 1839
000001d0: 3416 f93b b46b c33c d0f2 d63c 2d04 ea3c
000001e0: 2b46 3cbc 05b1 6e3c a14d cc3b 5884 d0bb
000001f0: a1b5 2c3b f0a5 943c 481c 7f3c 7b4e 713c

transformer.layers.0.linear2.weight f4 [64, 128]
0.01433312 0.022706915 0.00073077984 -0.0019172884 0.028301213 0.016533982 0.016386105 0.042701393
0.020316308 0.011841632 -0.03870222 0.020694286 0.029851492 -0.015535062 -0.02960299 0.05175688
-0.0095944265 -0.0063715554 -0.030972522 -0.006524366 0.047214612 0.005456912 0.038456086 0.0032783488
-0.0072647505 0.03396725 0.035102494 -0.018782536 -0.043245725 0.018044496 -0.020064982 0.0041585173
0.0017326394 0.019773617 0.015026499 0.005082829 0.03970856 0.0058611524 -0.0012180776 -0.038231198
-0.0066949236 -0.0006307895 0.007995671 0.041678026 0.05742526 0.009285137 0.019495232 0.04274135
-0.0017449112 0.029743744 0.013331647 -0.007269718 0.03290431 0.05033535 0.0324749 0.026479706
0.028557563 0.00678527 -0.036495768 0.026838314 0.0020859689 0.01938328 -0.013480477 0.029429456
0.03267774 0.044165384 -0.013609171 -0.014992121 0.0066076117 0.05183223 0.0056381794 0.02692041
0.025078611 0.007496631 0.0422647 -0.015275094 0.017489754 -0.020467894 0.039817177 0.045801647
-0.009836774 0.02839791 0.035212707 -0.003014226 0.02336964 0.028350664 0.01989843 0.063503966
-0.0235389 0.0048252805 -0.0060436637 -0.052210607 0.018078912 -0.03298932 0.006730844 -0.031402018
-0.030282198 -0.015966604 -0.011016712 0.025938965 0.030518556 -0.0042055654 0.050074354 0.006213836
0.0071503306 -0.004821178 -0.02187304 0.05038356 0.03869491 0.011735011 -0.022302503 0.02985586
0.009430811 -0.020165505 0.003937158 -0.015635248 -0.015388055 0.008157325 0.010921612 0.034883045
0.0010799582 0.03338917 -0.009066119 0.007256883 0.0015411933 0.033288766 -0.0018689 0.028306076
-0.018718552 0.033038016 -0.048413757 -0.03154023 0.009970261 -0.00095699826 -0.01686186 -0.01754534
0.010110131 -0.028681116 -0.0055015343 -0.05865223 -0.00075012894 0.03347183 0.017583175 -0.004598373
-0.05850988 -0.005467671 -0.009865657 -0.01453012 -0.011340296 -0.0075385002 -0.008813301 0.034081824
-0.026862636 0.019958023 0.04906795 -0.013732387 0.0033891061 0.0070489882 -0.01724626 -0.031025417
-0.008509568 -0.024491128 -0.028436083 -0.0251931 0.016094238 -0.013140205 -0.02446874 0.004200467
-0.044086337 -0.0035991305 -0.045652978 0.010559631 -0.04457799 -0.024092512 -0.009732226 -0.061008535
0.0017973975 0.018486416 -0.011391845 0.027606396 0.021466397 0.023844972 -0.024541536 0.0028148019
0.035590626 -0.0048949327 -0.023859588 -0.008862942 0.038817063 0.010185427 -0.030789532 0.0015496907
-0.038778912 0.041375164 -0.008617877 0.022716189 -0.047490098 0.010973137 -0.0087302895 0.00300354
-0.009306386 0.02549504 -0.019668713 0.030560197 0.0043643615 -0.04184599 0.027354652 0.032254655
0.0011373506 -0.03853572 0.009268125 -0.03206826 -0.022948574 0.004679473 0.008603021 -0.028807966
0.0017229285 -0.0075784507 -0.029680545 0.02191539 -0.023640767 -0.008111014 -0.03652102 -0.043294758
-0.032549404 -0.020752262 -0.03972947 0.029022358 0.005253577 -0.080894545 0.007013785 -0.049155973
-0.039516576 0.008789809 -0.016999928 -0.011655129 -0.0055691996 -0.008642097 -0.027012901 -0.020418867
-0.010456347 0.025441647 0.0008535152 -0.06841417 0.029263582 -0.03791846 -0.01925645 -0.052169528
0.014818595 -0.047112923 -0.009973845 0.0036483225 -0.012765778 -0.045657117 -0.027428752 -0.015171873
00000000: 76d5 6a3c da03 ba3c ce91 3f3a 864d fbba
00000010: f2d7 e73c 4672 873c 273c 863c a8e7 2e3d
00000020: 636e a63c 6803 423c 3886 1ebd 1087 a93c
00000030: 1e8b f43c c686 7ebc f881 f2bc 06ff 533d
00000040: f131 1dbc 7bc8 d0bb 16ba fdbc 59ca d5bb
00000050: 1c64 413d e5cf b23b 2184 1d3d 91d9 563b
00000060: 250d eebb 3e21 0b3d a2c7 0f3d d5dd 99bc
00000070: 6e22 31bd 0dd2 933c 515f a4bc 2c44 883b
00000080: bb19 e33a 48fc a13c b431 763c dc8d a63b
00000090: 71a5 223d e90e c03b e7a7 9fba 5198 1cbd
000000a0: 1761 dbbb 915b 25ba 4600 033c 94b6 2a3d
000000b0: c036 6b3d b020 183c 77b4 9f3c 8e11 2f3d
000000c0: 81b5 e4ba 27a9 f33c fb6c 5a3c d136 eebb
000000d0: abc6 063d 712c 4e3d 6704 053d f8eb d83c
000000e0: 8df1 e93c f856 de3b 967c 15bd 06dc db3c
000000f0: c0b4 083b afc9 9e3c 38dd 5cbc 0b16 f13c
00000100: 18d9 053d c3e6 343d 00f9 5ebc 83a1 75bc
00000110: aa84 d83b 084e 543d 7ac0 b83b 3188 dc3c
00000120: a971 cd3c 4ca6 f53b c01d 2d3d 6344 7abc
00000130: ac46 8f3c 49ac a7bc 5617 233d 829a 3b3d
00000140: 6c2a 21bc bca2 e83c 333b 103d 528a 45bb
00000150: b071 bf3c a73f e83c 0802 a33c 5e0e 823d
00000160: a7d4 c0bc 631d 9e3b ed09 c6bb cada 55bd
00000170: 3a1a 943c cf1f 07bd 698e dc3b 679f 00bd
00000180: 5f12 f8bc 65cc 82bc 707f 34bc f47d d43c
00000190: 0d02 fa3c d7ce 89bb c41a 4d3d 6f9d cb3b
000001a0: 524d ea3b f9fa 9dbb 172f b3bc fe5e 4e3d
000001b0: 8e7e 1e3d 3444 403c bdb3 b6bc 4794 f43c
000001c0: b083 1a3c 2132 a5bc 4603 813b 7e15 80bc
000001d0: 2e1e 7cbc 4da6 053c 90f0 323c 86e1 0e3d
000001e0: 628d 8d3a 15c3 083d 0f8a 14bc 26cb ed3b
000001f0: de01 ca3a cd59 083d e1f5 f4ba 25e2 e73c
00000200: a657 99bc df52 073d 814d 46bd 5430 01bd
00000210: 4e5a 233c 11df 7aba e221 8abc 3fbb 8fbc
00000220: f7a4 253c a9f4 eabc 3746 b4bb 523d 70bd
00000230: 4da4 44ba c219 093d 970a 903c f3ad 96bb
00000240: 0ea8 6fbd 262a b3bb 91a3 21bc be0f 6ebc
00000250: a6cc 39bc 8605 f7bb aa65 10bc 6299 0b3d
00000260: 080f dcbc 027f a33c 7afb 483d cefd 60bc
00000270: c41b 5e3b 33fb e63b 0748 8dbc 0429 febc
00000280: b76b 0bbc 9ea1 c8bc caf2 e8bc c361 cebc
00000290: 10d8 833c 044a 57bc ab72 c8bc 12a4 893b
000002a0: e093 34bd 64df 6bbb 9efe 3abd 4d02 2d3c
000002b0: 6997 36bd a95d c5bc ea73 1fbc 16e4 79bd
000002c0: a796 eb3a d370 973c dca4 3abc cf26 e23c
000002d0: 4cda af3c 8856 c33c 550b c9bc 8a78 383b
000002e0: 7ac7 113d ac65 a0bb 2f75 c3bc e035 11bc
000002f0: a4fe 1e3d c7e0 263c 543a fcbc fe1e cb3a
00000300: a3d6 1ebd 0179 293d ff31 0dbc 4d17 ba3c
00000310: fa84 42bd acc8 333c 7d09 0fbc 0ad7 443b
00000320: d079 18bc f9da d03c 4820 a1bc 6159 fa3c
00000330: eb02 8f3b b366 2bbd dd16 e03c 751d 043d
00000340: 2713 953a a2d7 1dbd 55d9 173c 025a 03bd
00000350: a6fe bbbc 4456 993b aff3 0c3c affe ebbc
00000360: e3d3 e13a a754 f8bb 9d24 f3bc e787 b33c
00000370: 48aa c1bc 0fe4 04bc 1197 15bd d855 31bd
00000380: 8652 05bd a600 aabc 5ebb 22bd 4cc0 ed3c
00000390: 3326 ac3b 0aac a5bd e5d3 e53b c657 49bd
000003a0: 22dc 21bd 2203 103c 6f43 8bbc 27f5 3ebc
000003b0: d57d b6bb 9597 0dbc 294a ddbc 7845 a7bc
000003c0: 1951 2bbc 006b d03c 6fbe 5f3a ba1c 8cbd
000003d0: 2eba ef3c 6350 1bbd b4bf 9dbc b7af 55bd
000003e0: b1c9 723c 7bf9 40bd 5769 23bc b218 6f3b
000003f0: 8e27 51bc f502 3bbd 43b2 e0bc 7393 78bc

transformer.layers.0.linear2.bias f4 [64]
0.007419233 -0.011589692 -0.0055531175 -0.0026795089 0.0060975174 -0.011553371 -0.00039630753 0.015756205
0.011502808 0.0075583057 0.0105156675 -0.008117868 -0.011274908 -0.006567767 -0.0062274416 -0.008832831
-0.0009928608 -0.0035666726 0.005628277 0.008103751 0.01025006 -0.0017969058 0.008165421 -0.001227177
0.0065529402 -0.0202251 0.011445178 -0.012903947 -0.00088263344 0.010972525 0.010918191 0.008178211
0.0093125235 -0.0004845938 0.0034106798 -0.011550103 -0.008333674 0.010591669 -0.0069129835 0.008485045
-0.014303919 0.028621007 0.012782181 0.0017607559 0.0047543864 -0.011131483 0.010253446 -0.008204375
-0.010266958 0.013601605 0.008892286 -0.010252729 -0.004632895 -0.00045401114 0.0019901972 0.0051725185
0.007956201 0.010720663 -0.0180964 -0.007330305 0.01182132 -0.008576311 0.011357326 0.007317352
00000000: 0a1d f33b b1e2 3dbc edf6 b5bb b39a 2fbb
00000010: afcd c73b 5a4a 3dbc 7fc7 cfb9 2813 813c
00000020: 4676 3c3c aaab f73b e849 2c3c ce00 05bc
00000030: 64ba 38bc 6c36 d7bb 910f ccbb 94b7 10bc
00000040: e122 82ba d6be 69bb 696d b83b 98c5 043c
00000050: deef 273c 2786 ebba 42c8 053c 3ad9 a0ba
00000060: 0cba d63b 1caf a5bc 8e84 3b3c 146b 53bc
00000070: 8760 67ba 1bc6 333c 36e2 323c e7fd 053c
00000080: 8e93 183c 1411 feb9 b685 5f3b a53c 3dbc
00000090: f689 08bc ae88 2d3c 4f86 e2bb dc04 0b3c
000000a0: fc5a 6abc 9a76 ea3c 5a6c 513c 2ac9 e63a
000000b0: afca 9b3b d360 36bc 12fe 273c a56b 06bc
000000c0: be36 28bc 44d9 5e3c f3b0 113c 10fb 27bc
000000d0: 8acf 97bb 5808 eeb9 f86d 023b 3b7e a93b
000000e0: ba5a 023c b8a5 2f3c e73e 94bc 0e33 f0bb
000000f0: 36ae 413c a883 0cbc 1414 3a3c 66c6 ef3b
