marble_model/best_model_v3.0_20250531_004959.pt (torch, 295593 bytes, 30 tensors)

token_embedding.weight f4 [13, 64]
0.015660878 -0.0066117477 -0.011740309 0.012772071 -0.044808984 -0.03080777 0.027351873 -0.008410186
-0.020803746 -0.019498209 0.003091365 -0.0077246553 0.0025938535 0.0075977976 -0.005330301 -0.00985997
-0.014249636 -0.004395117 0.03605788 0.0015037906 0.0062557873 0.03082245 -0.035067633 0.004629612
0.006218978 -0.006852862 -0.00080051087 0.0154474545 -0.031126205 0.03752378 -0.008773645 -0.03538671
0.016902855 0.052848518 -0.04147858 -0.00993141 0.001476381 0.019372104 0.012715582 -0.009987386
0.009047545 0.01037298 -0.018058188 0.010083658 -0.001744155 0.037015643 0.0004260316 -0.029360674
0.008748865 -0.031181755 -0.0015306525 0.028518585 -0.006100701 0.032929346 0.01570335 -0.017295703
0.006521977 0.005288616 0.007508123 0.045313153 0.005992581 0.010902779 -0.0081351055 -0.008459308
0.027858859 -0.017735481 -0.009759259 0.0005246256 -0.0029680976 0.031162765 -0.02026776 -0.024515023
-0.024639513 -0.018630158 -0.039249446 -0.028367497 0.0088365935 -0.035792682 -0.0046429993 -0.011364701
0.013376953 -0.029352866 0.016663598 -0.018192433 0.01346006 -0.041842278 0.039381325 0.0016042691
-0.040350012 0.019689187 -0.07178707 -0.0008351527 0.00901574 0.009804907 0.008514741 0.027047545
0.0010215038 0.01688582 -0.032879464 0.03272814 0.04343536 -0.038971264 -0.0030034818 0.060739517
0.021445204 0.05624233 0.004008333 -0.0007964282 0.037038047 0.014923167 0.0001333011 -0.02456071
0.0012401092 -0.030201836 0.007263107 0.011625993 -0.0073969457 -0.030693667 -0.049177766 -0.013613377
0.0063572805 0.0021843067 0.02169918 0.01938621 0.024555335 0.040554415 -0.006739968 -0.0043162974
-0.016928513 0.016551014 -0.011853283 -0.005641025 -0.019658001 0.038935307 -0.014718617 -0.013913501
-0.0006722434 -0.01154599 -0.007702225 0.027175035 -0.009848912 0.020856898 -0.0065552425 0.03666913
0.020127084 0.0009772726 0.0105081005 -0.018204628 0.024831828 -0.039068036 -0.035177227 0.0074513056
-0.026522102 -0.0030770772 0.03433459 0.006497845 -0.04908845 0.023129312 0.013528595 -0.0059591937
0.008264564 -0.0041152765 0.012077229 0.006066858 -0.021823741 0.019873941 -0.0034771662 -0.004998747
0.003911048 -0.013156734 -0.009314116 0.003841891 0.027126946 -0.032297134 0.00032115242 0.0029247513
0.013902585 -0.014767598 0.03308711 -0.0016015284 -0.0016586926 0.0024805656 0.01098039 0.0059972666
-0.012376156 0.026607396 0.01918399 0.01249652 -0.0138320085 0.0064879856 -0.028632365 -0.0056661833
-0.037386924 -0.0020667706 0.012168042 -0.024070693 -0.01542479 -0.031738073 -0.012251103 0.00046925922
0.002537611 -0.021663152 0.004403821 -0.0010201395 -0.0077395127 -0.001990378 0.02491224 -0.0048984718
-0.011163072 0.014131165 -0.015223303 -0.015529794 -0.03297329 0.0106620025 -0.009828518 -0.0062918873
-0.008836262 -0.014491437 0.01140474 -0.010858232 -0.023230722 -0.0029619683 0.003746923 -0.016379181
-0.016357215 0.0062796464 -0.033575345 0.014173452 -0.019336918 0.0044048866 0.025880648 -0.007803729
0.0026987651 -0.00950374 -0.0077737635 0.01211751 0.00978329 0.0053891325 0.028662233 0.010308062
-0.0045504617 0.030056475 0.018852307 -0.027887095 -0.031030584 -0.017788991 -0.0032283335 -0.03763787
-0.015627561 0.0087303845 -0.00045976037 0.009843338 0.014290556 -0.013653906 -0.01878025 0.0264115
00000000: 3e4b 803c 5ca7 d8bb 6d5a 40bc f341 513c
00000010: a089 37bd 9460 fcbc 0911 e03c e0ca 09bc
00000020: 9e6c aabc b5ba 9fbc 8098 4a3b 1b1f fdbb
00000030: a4fd 293b f2f6 f83b cea9 aebb b68b 21bc
00000040: 4e77 69bc ea04 90bb 6db1 133d d71a c53a
00000050: 59fd cc3b 5d7f fc3c 14a3 0fbd 00b4 973b
00000060: 92c8 cb3b f98d e0bb 60d9 51ba 5217 7d3c
00000070: 62fc febc 89b2 193d 56bf 0fbc a8f1 10bd
00000080: db77 8a3c b077 583d 72e5 29bd 5ab7 22bc
00000090: 2083 c13a 3fb2 9e3c 0455 503c 22a2 23bc
000000a0: 273c 143c 6ef3 293c c4ee 93bc ed35 253c
000000b0: 219c e4ba b79d 173d fe5c df39 cc85 f0bc
000000c0: 6657 0f3c e170 ffbc 2da0 c8ba cf9f e93c
000000d0: 64e8 c7bb ece0 063d 50a4 803c b8af 8dbc
000000e0: 4fb6 d53b 204c ad3b b306 f63b 499a 393d
000000f0: 6a5d c43b 92a1 323c 1b49 05bc e998 0abc
00000100: 4338 e43c 004a 91bc 4de5 1fbc 0787 093a
00000110: 6a84 42bb 0e49 ff3c 9308 a6bc bbd3 c8bc
00000120: ced8 c9bc 469e 98bc 07c4 20bd f462 e8bc
00000130: 5cc7 103c 599b 12bd 4d24 98bb 0333 3abc
00000140: 022b 5b3c 6c75 f0bc 1982 883c 4c08 95bc
00000150: 9587 5c3c cf62 2bbd 504e 213d 5746 d23a
00000160: 0e46 25bd 384b a13c 1905 93bd 26ee 5aba
00000170: c1b6 133c c3a4 203c 6a81 0b3c d092 dd3c
00000180: fbe3 853a 2254 8a3c 9eac 06bd f10d 063d
00000190: 47e9 313d 55a0 1fbd 10d6 44bb 00ca 783d
000001a0: daad af3c 5c5e 663d 5658 833b 64c7 50ba
000001b0: 35b5 173d 4d80 743c bec6 0b39 8b33 c9bc
000001c0: 298b a23a d769 f7bc 5cff ed3b f37a 3e3c
000001d0: 1462 f2bb 4971 fbbc a06e 49bd a40a 5fbc
000001e0: bc50 d03b 9626 0f3b 7bc2 b13c d4cf 9e3c
000001f0: 4528 c93c 631c 263d f3da dcbb ba6f 8dbb
00000200: aaad 8abc fe95 873c 4634 42bc 59d8 b8bb
00000210: d109 a1bc a17a 1f3d 5b26 71bc 74f5 63bc
00000220: 7e39 30ba 642b 3dbc f262 fcbb 2e9e de3c
00000230: 555d 21bc 16dc aa3c 5ccd d6bb 5f32 163d
00000240: 8ee1 a43c d417 803a 2b2a 2c3c df21 95bc
00000250: 1e6c cb3c ce05 20bd ff15 10bd 152a f43b
00000260: e144 d9bc caa8 49bb 6da2 0c3d e0eb d43b
00000270: f810 49bd af79 bd3c 0aa7 5d3c 5745 c3bb
00000280: 1868 073c 71d9 86bb 92df 453c 7ecc c63b
00000290: b4c7 b2bc adce a23c 2be1 63bb 87cc a3bb
000002a0: 4028 803b 588f 57bc 3c9a 18bc 3cc8 7b3b
000002b0: 5439 de3c 004a 04bd 5960 a839 2fad 3f3b
000002c0: abc7 633c ccf3 71bc 5986 073d 60ea d1ba
000002d0: 7d68 d9ba fc90 223b 18e7 333c b884 c43b
000002e0: 5cc5 4abc c1f7 d93c be27 9d3c 34be 4c3c
000002f0: a69f 62bc 2b99 d43b 6c8e eabc 64ab b9bb
00000300: 0823 19bd a872 07bb 785c 473c e72f c5bc
00000310: 42b8 7cbc c8ff 01bd dab8 48bc e806 f639
00000320: 0c4e 263b ec76 b1bc ee4d 903b 34b6 85ba
00000330: bd9b fdbb 0071 02bb c114 cc3c 5c83 a0bb
00000340: 51e5 36bc 6786 673c 296b 79bc ad70 7ebc
00000350: 000f 07bd aeaf 2e3c cb07 21bc 2d2c cebb
00000360: f8c5 10bc 7e6d 6dbc f2da 3a3c bae6 31bc
00000370: 5b4e bebc 951d 42bb f08e 753b a22d 86bc
00000380: 91ff 85bc 7ec5 cd3b 4d86 09bd c437 683c
00000390: 7568 9ebc de56 903b a703 d43c 6cb6 ffbb
000003a0: c4dd 303b 93b5 1bbc 0ebb febb 8588 463c
000003b0: 184a 203c 5297 b03b 0fcd ea3c 25e3 283c
000003c0: 0a1c 95bb ff38 f63c 2770 9a3c 7a73 e4bc
000003d0: da33 febc 38ba 91bc 7392 53bb 2b2a 1abd
000003e0: 5f05 80bc e309 0f3c fe0b f1b9 f445 213c
000003f0: f022 6a3c a2b4 5fbc 0ad9 99bc ee5c d83c

position_embedding.weight f4 [30, 64]
0.03073985 -0.009266583 -0.005629397 0.0158162 -0.019981844 -0.014409941 0.0033879182 -0.043696545
0.0066139083 -0.034257527 0.013758928 -0.019470872 0.027673015 0.023960035 -0.013021626 0.014774204
-0.0006896604 -0.021199152 0.061416727 -0.010856556 -0.018153213 -0.015531539 0.032151755 0.0046139667
0.012837049 0.0002197941 -0.010554393 0.004248814 -0.028082937 3.7488644e-06 0.0479607 0.026783843
0.0020774882 -0.010817554 0.0105071515 0.017103814 0.03288151 0.009108892 -0.026576774 0.031223062
0.015908789 0.012269501 0.027676022 -0.0061241495 -0.02138461 0.010065697 0.011090666 -0.00595223
-0.026871115 -0.004579382 -0.011671409 0.0013242561 0.007961002 -0.0079798065 0.014304924 0.036941398
0.0016943737 0.00040213973 0.012092128 -0.016122866 -0.036882047 -0.0063955327 -0.029380057 -0.03134807
-0.028168937 0.026636621 -0.012529308 0.01209335 1.3208919e-05 -0.01493993 -0.01262936 0.0332389
0.0014762778 -0.0076649953 -0.044622205 -0.0116791045 -0.039654292 -0.046036735 0.011727661 0.0025111712
0.008208575 -0.011271355 -0.006595807 -0.020652853 -0.012058009 0.03592011 -0.0142669035 -0.0045643523
0.013380641 0.010733708 0.038441386 -0.0119160935 0.0021138429 -0.038018905 -0.0403249 -0.03773562
-0.015346674 0.018421188 0.0072196834 0.02622983 -0.02876427 0.016188828 -0.004704873 -0.0078124804
-0.011695708 -0.031689506 -0.030275468 0.008098746 -0.016220525 -0.003922572 -0.05184133 -0.030498657
0.016572887 0.015110873 -0.031060934 -0.027036835 -0.0065641874 0.021007866 -0.021162545 -0.0028391846
-0.028832642 0.014469652 0.007604628 -0.026152648 0.0032324658 0.0031323808 -0.00012678982 -0.0055615418
-0.03543673 0.039406516 0.044087883 0.0061459695 -0.005666623 -0.005062159 0.032424267 -0.0072783018
0.02233264 0.015724871 -0.0030834829 0.0052556824 0.0010399313 -0.0013712567 -0.008965465 0.01645083
0.016805358 -0.019170757 0.013805717 0.01882219 -0.012589525 0.05194496 -0.009857856 -0.03344249
0.035014324 -0.0059860297 0.040548947 0.0056703705 0.018688198 -0.020267969 -0.007928577 0.0026555122
0.04080001 0.014211794 0.040368486 0.004958566 -0.028456476 0.02571666 -0.008958802 -0.0041790754
-0.028292282 -0.00025116152 0.006245009 0.03160146 -0.054254327 0.0017013737 -0.063072674 -0.032721005
-0.023914335 0.040385187 -0.016938983 -0.0032086552 -0.0066211517 0.029575989 0.008928874 0.057815745
-0.030506724 -0.047419246 -0.001558202 -0.01722182 -0.011655164 0.016229615 0.00849381 -0.0463533
-0.030979523 0.030453864 -0.030594049 -0.016009172 0.014089364 -0.014388395 -0.019064793 -0.012976992
0.0024474876 -0.008326669 0.021104572 -0.0019630897 -0.010046292 -0.022189831 0.028676627 0.032248277
-0.0094720805 0.029121697 -0.031213483 -0.01721962 -0.020677859 -0.04423872 -0.026042363 0.01730066
-0.015935931 -0.015930776 0.0043159444 0.0124381725 -0.0065851435 0.022900362 0.015526659 0.0072408463
-0.0054327305 0.055845134 -0.014184235 -0.004963233 0.00056331535 0.028696358 0.032371704 -0.008341976
0.033279985 0.009472328 -0.021508794 0.011290404 0.0067751585 0.04813859 0.038178228 0.0088073695
0.027043583 -0.047417413 0.018797893 0.03209692 0.0076230355 -0.032570165 0.009565417 -0.02210259
-0.036059882 -0.021477317 -0.018629001 0.018240709 -0.017221697 0.010785446 -0.0055551752 0.01548813
00000000: 23d2 fb3c ded2 17bc ce76 b8bb fa90 813c
00000010: f7b0 a3bc ac17 6cbc d607 5e3b 26fb 32bd
00000020: 7cb9 d83b 9f51 0cbd 206d 613c 6181 9fbc
00000030: 85b2 e23c d647 c43c a858 55bc 810f 723c
00000040: 53ca 34ba d8a9 adbc 1b90 7b3d b2df 31bc
00000050: 0cb6 94bc ff77 7ebc 8fb1 033d c230 973b
00000060: 7c52 523c 8878 6639 55ec 2cbc a339 8b3b
00000070: 300e e6bc 0095 7b36 7072 443d ca69 db3c
00000080: 7826 083b 1c3c 31bc 3026 2c3c 4c1d 8c3c
00000090: c3ae 063d 763d 153c 89b7 d9bc 82c7 ff3c
000000a0: 2653 823c 0406 493c d3b8 e23c 17ad c8bb
000000b0: c72e afbc 98ea 243c a0b5 353c ed0a c3bb
000000c0: d020 dcbc a40e 96bb 7039 3fbc a992 ad3a
000000d0: dd6e 023c bcbd 02bc 335f 6a3c dd4f 173d
000000e0: bf15 de3a 48d6 d239 101e 463c 1a14 84bc
000000f0: a111 17bd 9e91 d1bb 72ae f0bc d566 00bd
00000100: 8bc2 e6bc 0b35 da3c ba47 4dbc 3023 463c
00000110: e09b 5d37 9cc6 74bc 60eb 4ebc 8325 083d
00000120: aa7f c13a a42a fbbb c6c5 36bd b759 3fbc
00000130: 8a6c 22bd 0491 3cbd 6025 403c 7692 243b
00000140: 427d 063c 7dab 38bc a421 d8bb 2c30 a9bc
00000150: f58e 45bc f720 133d bbbf 69bc 9090 95bb
00000160: 7a3a 5b3c 6fdc 2f3c b774 1d3d b83b 43bc
00000170: 6688 0a3b b6b9 1bbd b92b 25bd aa90 1abd
00000180: 9e70 7bbc 08e8 963c 1893 ec3b f1df d63c
00000190: 0ca3 ebbc 6f9e 843c 562b 9abb d6ff ffbb
000001a0: 5b9f 3fbc dbcc 01bd 4204 f8bc 9ab0 043c
000001b0: e8e0 84bc eb88 80bb 9357 54bd 52d8 f9bc
000001c0: ddc3 873c 9893 773c 8073 febc 5a7c ddbc
000001d0: 6518 d7bb b018 ac3c 135d adbc 9d11 3abb
000001e0: 6f32 ecbc 1f12 6d3c 3e30 f93b 143e d6bc
000001f0: c7d7 533b a148 4d3b e2f2 04b9 983d b6bb
00000200: 1b26 11bd ba68 213d 7f95 343d 2164 c93b
00000210: 14af b9bb 78e0 a5bb 4fcf 043d d27e eebb
00000220: f1f2 b63c 72d1 803c 4214 4abb dc37 ac3b
00000230: 4e4e 883a bdbb b3ba e3e3 12bc e4c3 863c
00000240: 64ab 893c fe0b 9dbc 6031 623c fe30 9a3c
00000250: 4c44 4ebc 3dc4 543d d882 21bc fefa 08bd
00000260: 2e6b 0f3d 7526 c4bb a716 263d 84ce b93b
00000270: fe17 993c 0309 a6bc dde6 01bc 1a08 2e3b
00000280: e91d 273d 96d8 683c 6d59 253d 777b a23b
00000290: 8e1d e9bc bfab d23c f0c7 12bc a0f0 88bb
000002a0: 37c5 e7bc 54ae 83b9 efa2 cc3b 8870 013d
000002b0: c939 5ebd a100 df3a 3f2c 81bd 7606 06bd
000002c0: ffe7 c3bc f06a 253d 9fc3 8abc 4d48 52bb
000002d0: 3ff6 d8bb 5849 f23c 694a 123c 34d0 6c3d
000002e0: 3de9 f9bc af3a 42bd 953c ccba c614 8dbc
000002f0: 4df5 3ebc f8f3 843c 9f29 0b3c f5dc 3dbd
00000300: c5c8 fdbc 627a f93c 5fa0 fabc ab25 83bc
00000310: 13d7 663c 4dbd 6bbc c52d 9cbc 739d 54bc
00000320: 0766 203b 956c 08bc 7fe3 ac3c 2ea7 00bb
00000330: 3499 24bc 73c7 b5bc 3feb ea3c c516 043d
00000340: c930 1bbc a090 ee3c 6bb3 ffbc 2910 8dbc
00000350: 9d64 a9bc a933 35bd cb56 d5bc 1dba 8d3c
00000360: 128c 82bc 4281 82bc c46c 8d3b 7ac9 4b3c
00000370: 30c8 d7bb 8a99 bb3c 8763 7e3c 9f44 ed3b
00000380: 0c05 b2bb debd 643d fe64 68bc 9ea2 a2bb
00000390: 74ab 133a a014 eb3c 3198 043d c9ac 08bc
000003a0: 9850 083d d331 1b3c 3633 b0bc 63fb 383c
000003b0: 2602 de3b f82c 453d c660 1c3d c94c 103c
000003c0: 818a dd3c c338 42bd 0afe 993c 0f78 033d
000003d0: a8ca f93b 4b68 05bd 44b8 1c3c 7e10 b5bc
000003e0: 87b3 13bd 33f1 afbc d99b 98bc 8a6d 953c
000003f0: 8414 8dbc 70b5 303c 3008 b6bb edc1 7d3c

transformer.layers.0.self_attn.in_proj_weight f4 [192, 64]
-0.107692316 0.1249077 0.03710541 0.035871632 0.1099814 0.12657914 0.043193262 -0.010833302
-0.11015916 0.09349142 -0.09054513 -0.029371329 0.009777367 0.06885103 -0.12861726 0.065518275
-0.02603562 0.055183887 -0.033008147 -0.09779785 -0.063789725 -0.10684247 -0.034312163 -0.11236384
-0.031770237 -0.098639235 0.13715959 -0.12923233 0.1536787 -0.08611895 0.1036745 -0.08276091
-0.03369311 -0.034335878 0.06436317 -0.12023914 -0.14794159 0.025185103 0.06764375 0.08117598
-0.14266697 -0.03858072 -0.13986558 0.012329497 0.14183126 -0.032413848 -0.092363454 -0.123999216
-0.044077303 0.12893584 -0.077166304 0.06610714 0.024345243 0.12543106 -0.08840617 -0.027522724
-0.0193403 0.034481056 0.07885265 0.083265334 0.07687885 0.038450763 -0.12908785 -0.117703184
0.039512336 0.02438999 0.086794004 -0.02514287 -0.09839867 0.00853234 -0.14073509 0.14210775
0.02154557 0.01611363 0.037991077 0.13997613 0.141851 0.016735548 -0.025148032 -0.027779413
-0.029530814 0.122432075 0.052779384 0.045210015 -0.096335754 -0.12949494 0.10144217 0.061511144
-0.03507095 0.05425413 -0.1472715 0.0080782175 0.034865495 -0.06567143 -0.055826128 -0.099124745
0.007600344 -0.05599372 0.15630116 0.087024435 -0.011258145 0.07337763 -0.0042524333 0.031531118
-0.12518036 -0.07222811 0.02725322 -0.090446 0.09552225 0.11372006 0.0067852996 -0.10402189
0.08896282 -0.119497076 -0.045218844 -0.06977682 0.051784277 0.015421305 -0.053974677 -0.066548824
-0.0096085 -0.13411666 0.007828293 0.106491126 0.13547167 -0.14454538 0.06295975 0.07936293
0.14073148 -0.02371263 0.14347835 0.103845194 0.06238984 0.032822374 0.041354325 0.16146788
-0.043160953 0.10267303 -0.100476235 -0.0482535 0.045150273 -0.05100473 0.1103571 -0.07379934
-0.10015593 -0.068615705 -0.06828651 -0.13178547 0.046317782 0.067520455 0.052467793 -0.11367075
0.086878486 0.06975689 0.14503287 0.029906735 0.10307144 -0.10137315 -0.04912815 0.12746221
0.04916511 -0.015815085 -0.110569544 -0.056739736 0.10423939 -0.08203594 -0.12639903 0.058054447
-0.15549642 0.08896565 0.1539163 0.10608833 0.1371976 -0.10050467 -0.078392014 0.0638185
0.0054573836 0.08220129 -0.06792878 0.11023231 0.0427464 -0.10443594 -0.106008425 0.054627534
0.0623078 0.05895209 0.14658053 -0.12069654 0.05254061 -0.05636231 -0.12489982 0.11100662
-0.15090978 -0.00584359 0.09528363 -0.12468708 -0.0034328273 0.10357436 -0.056593508 0.023901947
-0.065999985 -0.14446892 0.0526591 0.09489739 0.11788826 -0.102260545 -0.13281381 -0.013488805
-0.050397407 -0.078271024 0.10789687 0.086233 0.08416524 0.11052229 -0.079473324 0.14774424
-0.11178526 -0.07361941 -0.091589265 -0.10896847 -0.165838 0.12306152 0.080757365 0.14719883
-0.07441322 -0.09825598 0.028234918 0.110625386 -0.0041176924 0.09931835 0.053710524 0.12317132
0.0803338 0.11342723 -0.081518255 0.022683589 0.10055519 -0.035683144 0.0471926 0.15956041
-0.07505702 -0.09790729 0.13296613 -0.02547939 0.0533178 0.11116206 0.04315724 0.12792829
-0.092352875 0.021132775 0.13025227 -0.09874011 0.05098785 -0.037899055 0.1178236 0.108619176
00000000: ca8d dcbd 9ccf ff3d d8fb 173d 22ee 123d
00000010: ee3d e13d f69d 013e 6beb 303d 297e 31bc
00000020: 209b e1bd 6e78 bf3d ba6f b9bd 249c f0bc
00000030: 4031 203c c501 8d3d 3eb4 03be 722e 863d
00000040: a748 d5bc 8008 623d 8d33 07bd 3d4a c8bd
00000050: 30a4 82bd 3ad0 dabd e98a 0cbd 031f e6bd
00000060: 8221 02bd 5e03 cabd 9073 0c3e 7b55 04be
00000070: f35d 1d3e 225f b0bd 4c53 d43d 8d7e a9bd
00000080: c901 0abd c7a3 0cbd d6d0 833d f03f f6bd
00000090: 007e 17be fd50 ce3c ce88 8a3d 983f a63d
000000a0: 4a17 12be d106 1ebd ec38 0fbe a901 4a3c
000000b0: 373c 113e 62c4 04bd 0d29 bdbd 4df3 fdbd
000000c0: 678a 34bd c207 043e 5e09 9ebd 2e63 873d
000000d0: ad6f c73c 0071 003e 4b0e b5bd 5677 e1bc
000000e0: 8c6f 9ebc 023c 0d3d 807d a13d 0487 aa3d
000000f0: a972 9d3d 8c7e 1d3d 9b2f 04be 5e0e f1bd
00000100: b0d7 213d 84cd c73c 0ec1 b13d 6cf8 cdbc
00000110: 3e85 c9bd 3acb 0b3c dc1c 10be b284 113e
00000120: 5680 b03c bb00 843c 889c 1b3d e755 0f3e
00000130: 6341 113e fd18 893c 3f03 cebc a791 e3bc
00000140: 9bea f1bc abbd fa3d 322f 583d 232e 393d
00000150: ae4b c5bd 529a 04be eac0 cf3d 1cf3 7b3d
00000160: 8ea6 0fbd 9439 5e3d 57ce 16be 805a 043c
00000170: 1fcf 0e3d be7e 86bd f0a9 64bd ea01 cbbd
00000180: 4e0c f93b ac59 65bd 690d 203e de39 b23d
00000190: 1574 38bc 0347 963d ff57 8bbb c626 013d
000001a0: 482f 00be 55ec 93bd 2542 df3c c13b b9bd
000001b0: 2ba1 c33d 10e6 e83d 3857 de3b 6e09 d5bd
000001c0: 2432 b63d e2ba f4bd 6537 39bd 26e7 8ebd
000001d0: c01b 543d a4a9 7c3c 8d14 5dbd c04a 88bd
000001e0: f86c 1dbc e155 09be 3e42 003c 0518 da3d
000001f0: 16b9 0a3e b403 14be 0bf1 803d 0889 a23d
00000200: ea1b 103e fd40 c2bc fdeb 123e caac d43d
00000210: 7d8c 7f3d c170 063d 2763 293d d657 253e
00000220: 8ac9 30bd 3d46 d23d 7cc6 cdbd 76a5 45bd
00000230: 7eef 383d 56ea 50bd e702 e23d 1c24 97bd
00000240: 8d1e cdbd 6486 8cbd ccd9 8bbd c5f2 06be
00000250: b7b7 3d3d 2a48 8a3d 78e8 563d 36cc e8bd
00000260: 59ed b13d b3dc 8e3d 7f83 143e f8fe f43c
00000270: 1e17 d33d ba9c cfbd 993a 49bd 7485 023e
00000280: 5b61 493d a38e 81bc 4972 e2bd ed67 68bd
00000290: 767b d53d 7502 a8bd bf6e 01be 80ca 6d3d
000002a0: 743a 1fbe 9f33 b63d 3c9c 1d3e d744 d93d
000002b0: 877d 0c3e 64d5 cdbd fe8b a0bd 46b3 823d
000002c0: dad3 b23b 2659 a83d 3f1e 8bbd 7ac1 e13d
000002d0: d916 2f3d 83e2 d5bd f21a d9bd 1fc1 5f3d
000002e0: 7736 7f3d bf77 713d 3519 163e bf2f f7bd
000002f0: d334 573d 2adc 66bd 7acb ffbd 7057 e33d
00000300: 1888 1abe 967b bfbb 1024 c33d f15b ffbd
00000310: 49f9 60bb cb1e d43d 98ce 67bd 04ce c33c
00000320: 002b 87bd a9ef 13be 12b1 573d 9059 c23d
00000330: 666f f13d fa6d d1bd 5800 08be 2600 5dbc
00000340: 836d 4ebd 8f4c a0bd 09f9 dc3d ed9a b03d
00000350: d35e ac3d 8359 e23d e9c2 a2bd 444a 173e
00000360: acef e4bd c6c5 96bd 2793 bbbd dc2a dfbd
00000370: 70d1 29be ae07 fc3d 1e64 a53d 4abb 163e
00000380: f565 98bd 6e3a c9bd ea4c e73c 908f e23d
00000390: b5ed 86bb 6b67 cb3d 91ff 5b3d 3f41 fc3d
000003a0: 0c86 a43d 894c e83d 0bf3 a6bd efd2 b93c
000003b0: e1ef cd3d 7d28 12bd 074d 413d ce63 233e
000003c0: 7fb7 99bd 9e83 c8bd 4628 083e 27ba d0bc
000003d0: c463 5a3d efa8 e33d a5c5 303d a2ff 023e
000003e0: 8123 bdbd a41e ad3c da60 053e 4138 cabd
000003f0: a3d8 503d 0a3c 1bbd 804d f13d bb73 de3d

transformer.layers.0.self_attn.in_proj_bias f4 [192]
-0.010864435 -0.013856798 -0.008755468 0.00751717 0.0043076524 -0.01247505 0.009494264 -0.00943822
0.00075655733 0.009913764 0.004163383 -0.010434843 -0.0012230135 0.00858602 -0.011282583 -0.008106526
-0.009554209 -0.010335353 -0.012499352 -0.010738456 0.006740415 -0.005393184 -0.00958048 0.011285056
0.011695871 -0.009842806 -0.0042303097 0.011505104 -0.0095825475 0.010678309 -0.009342778 -0.009789928
0.013924684 0.012721929 -0.008559996 -0.0010036407 0.0066167633 0.0032808976 0.009778291 -0.010239221
0.01156742 -0.001074283 0.0020926658 -0.0031035852 0.004190987 -0.0068211905 -0.011640988 -0.0091496855
0.011538349 -0.012799294 -0.005533024 0.01108125 0.012213827 0.011716671 -0.007882164 0.0033812595
0.014438289 0.011761553 -0.0095390305 0.004701551 0.013035149 0.0014540863 0.0072514396 0.0132643115
-1.8470199e-07 2.877354e-09 3.4865207e-07 -9.034204e-09 -4.399032e-08 5.1260025e-07 4.9161095e-08 1.1533086e-09
-4.3145693e-08 5.368168e-08 4.3873694e-08 -3.9682824e-08 1.5638845e-07 2.3138599e-08 6.188901e-08 -2.6700644e-07
2.126344e-07 1.674367e-07 -1.5506076e-07 1.8418271e-07 8.825714e-08 -7.4188144e-08 -4.856523e-08 -1.3198614e-07
-3.7104004e-07 3.4093472e-07 1.7161312e-07 -2.1448855e-07 -8.9003414e-08 -7.302269e-08 -2.8498338e-08 -1.4803058e-07
-1.1268577e-07 -9.495393e-08 -1.2979529e-10 3.4076328e-07 5.6516832e-08 -1.8752496e-07 -1.798298e-07 2.4805335e-08
-7.894286e-08 -6.482256e-08 -9.6085564e-08 3.0077846e-08 -6.693673e-09 -7.414904e-08 6.3278044e-08 1.2438446e-07
-1.1773309e-08 2.1149853e-07 -6.694039e-08 -1.2441594e-08 -2.5881207e-07 -1.7994674e-07 -4.6435304e-08 -1.023377e-07
-8.167942e-08 1.0357762e-09 -8.433253e-08 2.1101826e-07 -7.960437e-08 7.8710755e-08 -1.3331177e-08 -6.286403e-08
-0.009114775 0.007202144 -0.012169927 -0.007833143 0.006725645 0.0064720446 -0.007483843 0.0076402817
-0.0050511877 0.00717161 -0.0051730196 -0.007908892 -0.0074059973 0.0054196203 0.012661521 0.0014672895
-0.007877325 0.0031826792 0.010239328 0.0065433686 -0.005256896 -0.00851739 0.008777982 0.004168818
-0.006249721 0.00461897 -0.006344849 0.0041396827 -0.004045279 -0.0065397997 -0.007817712 -0.006844248
-0.0040120464 -0.005951043 0.0063651213 0.0025684026 0.0120134605 -0.001819755 -0.013681226 0.013452088
-0.007758677 -0.0020795364 -0.007833625 0.0010542991 0.0076124202 0.0030306987 -0.014973093 -0.009018208
0.00045827983 -0.0125729395 -0.0032277673 -0.00065134297 -0.0073647755 0.0043934667 0.011822868 -0.005432638
0.009907149 -0.014114611 0.002768658 -0.012969543 0.0142320655 -0.0044501307 0.0037587972 0.0045768647
00000000: be00 32bc a007 63bc 1873 0fbc 9852 f63b
00000010: 3527 8d3b 2764 4cbc d48d 1b3c c4a2 1abc
00000020: b453 463a 576d 223c fd6c 883b e7f6 2abc
00000030: 864d a0ba 61ac 0c3c 95da 38bc 3cd1 04bc
00000040: 4289 1cbc 9d55 29bc 15ca 4cbc 59f0 2fbc
00000050: b3de dc3b 4eb9 b0bb 72f7 1cbc f5e4 383c
00000060: 0aa0 3f3c b843 21bc 699e 8abb e77f 3c3c
00000070: 1e00 1dbc 13f4 2e3c 7312 19bc ef65 20bc
00000080: 5c24 643c a36f 503c 3a3f 0cbc 988c 83ba
00000090: 6fd1 d83b 5404 573b 2035 203c 68c2 27bc
000000a0: 4785 3d3c f5ce 8cba 1b25 093b 8565 4bbb
000000b0: 8c54 893b 4b84 dfbb d8b9 3ebc 90e8 15bc
000000c0: 580b 3d3c 21b4 51bc 5f4e b5bb 228e 353c
000000d0: 811c 483c 48f7 3f3c 3124 01bc 1f98 5d3b
000000e0: 938e 6c3c 87b3 403c 9849 1cbc 780f 9a3b
000000f0: 6191 553c 0a97 be3a 7c9d ed3b 8e52 593c
00000100: 7f52 46b4 f2ba 4531 602e bb34 d934 1bb2
00000110: deef 3cb3 9f99 0935 3225 5333 7082 9e30
00000120: 314f 39b3 a28f 6633 a36f 3c33 ba6f 2ab3
00000130: bbeb 2734 51c2 c632 d8e7 8433 1659 8fb4
00000140: 8050 6434 a6c8 3334 c77e 26b4 c2c3 4534
00000150: e087 bd33 5d51 9fb3 0996 50b3 13b8 0db4
00000160: 5b33 c7b4 b609 b734 a844 3834 2a4e 66b4
00000170: 2522 bfb3 a6d0 9cb3 82cc f4b2 56f2 1eb4
00000180: a8fd f1b3 7ae9 cbb3 20b6 0eaf 26f2 b634
00000190: eabc 7233 785a 49b4 3d17 41b4 8213 d532
000001a0: 4c87 a9b3 9434 8bb3 9957 ceb3 f12e 0133
000001b0: 2cfe e5b1 de3b 9fb3 79e3 8733 8a8e 0534
000001c0: 9043 4ab2 4618 6334 dec0 8fb3 b6be 55b2
000001d0: dcf2 8ab4 6237 41b4 2870 47b3 bfc4 dbb3
000001e0: bc67 afb3 235b 8e30 4c1a b5b3 4294 6234
000001f0: f7f2 aab3 b207 a933 2307 65b2 deff 86b3
00000200: 2356 15bc f6ff eb3b 6064 47bc 9556 00bc
00000210: cd62 dc3b 7213 d43b 063b f5bb 545b fa3b
00000220: 6f84 a5bb d3ff ea3b 6f82 a9bb 4c94 01bc
00000230: 02ae f2bb 1297 b13b 4572 4f3c 1152 c03a
00000240: e50f 01bc 7f94 503b dbc2 273c c169 d63b
00000250: 0a42 acbb 868c 0bbc 86d1 0f3c 949a 883b
00000260: 76ca ccbb bb5a 973b 73e8 cfbb 2da6 873b
00000270: 438e 84bb d14b d6bb dc15 00bc b745 e0bb
00000280: 7c77 83bb f800 c3bb 8292 d03b a552 283b
00000290: 1bd4 443c d884 eeba 3927 60bc 2666 5c3c
000002a0: 803c febb d548 08bb 9b58 00bc 6830 8a3a
000002b0: 9c71 f93b b09e 463b b451 75bc 1bc1 13bc
000002c0: 4745 f039 bbfe 4dbc f388 53bb e3be 2aba
000002d0: 3754 f1bb 12f7 8f3b b4b4 413c 4504 b2bb
000002e0: 9851 223c f840 67bc 6072 353b 357e 54bc
000002f0: 9c2d 693c 67d2 91bb 2756 763b 86f9 953b

transformer.layers.0.self_attn.out_proj.weight f4 [64, 64]
-0.029268159 -0.012736607 -0.03707335 0.026390534 0.027762866 0.010395738 0.037558716 0.0048446385
0.015665479 -0.053761795 0.011772462 0.0040118787 0.024021758 -0.028724503 0.026363697 -0.017902037
-0.015220557 0.011182064 0.03538405 0.02603756 0.030052863 -0.0071490323 -0.020532351 -0.013727522
-0.017508924 -0.016300555 0.0098304115 -0.008938028 0.008555576 0.032860003 0.029373242 -0.03390886
-0.04022087 0.03544612 0.02023315 -0.013932845 -0.007917262 0.027357113 0.026105782 0.0041125733
0.018935723 0.03921719 0.011709143 -0.06668049 -0.012504249 -0.0063548717 -0.022667477 0.016472967
-0.008096407 0.0018669269 0.016001478 0.007299234 -0.013479116 -0.0041724117 0.026896683 0.00010283175
0.0011754987 -0.015297092 -0.02503605 -0.015125869 0.021647438 -0.017002778 0.015431904 -0.014657719
0.023866778 0.02784402 0.0053658523 -0.022271896 -0.015131619 0.032217525 0.0054820124 -0.0046066595
0.048768613 0.012322699 -0.026451906 0.0005580663 0.030417206 -0.014437344 -0.011593802 -0.02828932
0.041551314 -0.009155026 -0.0004404656 -0.02937037 0.0113089215 0.054280754 0.021278381 0.0067843227
0.030100916 -0.011849708 -0.03510321 0.01569064 -0.013160945 -0.02514455 -0.035740063 0.06269579
0.029867744 -0.024932887 0.0026851804 -0.021078942 -0.00596021 -0.0021278763 0.016237516 0.0063471147
-0.012099955 -0.027668878 -0.008636669 0.020229448 0.0072665485 0.016721178 0.025629373 0.040009428
0.006981792 0.034436326 -0.008933468 0.017101347 -0.035903953 -0.016108455 -0.00062543876 -0.014780919
-0.017655313 0.0059645814 -0.021620605 0.025246961 -0.0056861937 0.030189449 -0.010027192 0.021649783
-0.055705886 0.02423091 -0.025074761 0.020225605 0.063890316 0.018943487 0.0043213926 -0.030024042
-0.041844048 -0.004398992 0.034949522 -0.020620165 -0.014360014 0.015148521 -0.040883306 -0.0117786
-0.010731712 0.048280925 0.005368739 0.019495502 -0.008739014 0.019092008 -0.019614838 0.02819235
-0.0018253977 -0.0400648 -0.01644127 -0.0072748987 -0.05926248 -0.028172707 -0.027354069 -0.016363459
-0.016306417 0.010361512 -0.02812686 0.01501117 -0.012567155 -0.0155146 0.0062307008 0.053982925
0.0018910255 -0.011683415 -0.00296747 0.024248272 0.00034409537 -0.033238836 0.015506093 -0.03370557
0.039462406 0.017398743 0.014140281 0.03416407 -0.032075655 0.004907284 -0.018942922 -0.007033828
-0.045640055 -0.024902387 0.025030639 -0.012033402 -0.022420857 0.0002487255 -0.0022632622 -0.026670694
-0.0023584573 -0.04114347 -0.008395389 -0.0033703754 0.0149423815 0.023885248 -0.03051855 -0.023898695
0.016798204 -0.030975593 -0.0016935543 0.01900375 0.008737546 -0.006379131 -0.01952456 0.023479056
-0.018460037 0.010817339 -0.051532637 0.0015724864 0.06269875 -0.020963734 -0.03232528 0.025271924
-0.0012262486 -0.006769996 0.0075077694 -0.032222107 0.02466986 -0.027960962 0.00026827332 0.020508682
-0.009115638 -0.0009917524 -0.013773861 -0.033545487 -0.03110852 0.011903298 0.023147447 0.024491832
0.023432022 -0.024606137 -0.0038003004 -0.004367579 0.013340819 0.023805298 -0.00824846 0.007146536
-0.0046414305 0.021576272 0.00788241 0.008200749 0.024141401 0.03530826 -0.006935999 0.0038579819
0.0055352114 -0.015887532 0.0021061925 0.014112335 0.04219394 -0.00041667165 0.011659319 0.021481747
00000000: c7c3 efbc 34ad 50bc 3ada 17bd f630 d83c
00000010: f36e e33c e352 2a3c 2bd7 193d c6bf 9e3b
00000020: e454 803c 5435 5cbd 49e1 403c 1476 833b
00000030: 47c9 c43c a64f ebbc aef8 d73c 4ba7 92bc
00000040: a55f 79bc fa34 373c deee 103d b94c d53c
00000050: 6c31 f63c 6e42 eabb 7633 a8bc 67e9 60bc
00000060: e06e 8fbc be88 85bc bc0f 213c ce70 12bc
00000070: b02c 0c3c 3698 063d 27a0 f03c 04e4 0abd
00000080: a4be 24bd f32f 113d febf a53c 9646 64bc
00000090: 67b7 01bc 061c e03c cbdb d53c c4c2 863b
000000a0: 171f 9b3c 34a2 203d b5d7 3f3c c88f 88bd
000000b0: 9fde 4cbc 873c d0bb 25b1 b9bc 51f2 863c
000000c0: cba6 04bc acb3 f43a 8815 833c 6a2e ef3b
000000d0: 83d7 5cbc bab8 88bb 6f56 dc3c 60a7 d738
000000e0: 3113 9a3a a7a0 7abc 6718 cdbc 7ed2 77bc
000000f0: f855 b13c 6949 8bbc 19d6 7c3c ee26 70bc
00000100: 4384 c33c 2419 e43c 08d4 af3b 8d73 b6bc
00000110: 9cea 77bc 86f6 033d 74a2 b33b 76f3 96bb
00000120: 99c1 473d 25e5 493c abb1 d8bc 324b 123a
00000130: 812d f93c 9c8a 6cbc eef3 3dbc 01bf e7bc
00000140: b631 2a3d f6fe 15bc 4bee e6b9 219a f0bc
00000150: 0e49 393c 7f55 5e3d 0050 ae3c 064f de3b
00000160: 3296 f63c 4725 42bc 62c8 0fbd a889 803c
00000170: 01a1 57bc f1fb cdbc 2c64 12bd a666 803d
00000180: 33ad f43c 0e40 ccbc daf9 2f3b bfad acbc
00000190: de4d c3bb d773 0bbb 8a04 853c 75fb cf3b
000001a0: e43e 46bc d8a9 e2bc d180 0dbc 3ab8 a53c
000001b0: 3a1c ee3b dafa 883c b1f4 d13c ede0 233d
000001c0: 84c7 e43b 1b0d 0d3d ae5d 12bc 2018 8c3c
000001d0: 0610 13bd e1f5 83bc 7cf4 23ba ab2b 72bc
000001e0: e0a1 90bc 8972 c33b b21d b1bc b7d2 ce3c
000001f0: 4053 babb dd4f f73c 1749 24bc e35a b13c
00000200: db2b 64bd e77f c63c 9669 cdbc 2bb0 a53c
00000210: edd8 823d 5f2f 9b3c 789a 8d3b fbf4 f5bc
00000220: aa64 2bbd 6b25 90bb 3b27 0f3d 9feb a8bc
00000230: 4446 6bbc 8131 783c 4175 27bd 07fb 40bc
00000240: 10d4 2fbc 38c2 453d 3fec af3b 08b5 9f3c
00000250: 152e 0fbc d866 9c3c 4caf a0bc a5f3 e63c
00000260: 2f42 efba fd1a 24bd d8af 86bc 4662 eebb
00000270: 37bd 72bd 73ca e6bc a415 e0bc a90c 86bc
00000280: 0995 85bc 55c3 293c 4d6a e6bc 69f1 753c
00000290: 78e6 4dbc f330 7ebc e82a cc3b 331d 5d3d
000002a0: 49dc f73a cb6b 3fbc e379 42bb 50a4 c63c
000002b0: b367 b439 7225 08bd 450d 7e3c da0e 0abd
000002c0: 55a3 213d cf87 8e3c a3ac 673c a0ef 0b3d
000002d0: c361 03bd 48cd a03b 302e 9bbc 077c e6bb
000002e0: 11f1 3abd 1700 ccbc 0e0d cd3c bf27 45bc
000002f0: f2ab b7bc 5f67 8239 3d53 14bb 807c dabc
00000300: 5990 1abb 0e86 28bd d08c 09bc 84e1 5cbb
00000310: e4d0 743c ffaa c33c 0a02 fabc 32c7 c3bc
00000320: 639c 893c 87c0 fdbc 41fa ddba c1ad 9b3c
00000330: ed27 0f3c 0808 d1bb f8f1 9fbc 2657 c03c
00000340: 8139 97bc 353b 313c e313 53bd e31b ce3a
00000350: 3468 803d 23bc abbc 8367 04bd 1107 cf3c
00000360: 13ba a0ba d8d6 ddbb bc03 f63b 54fb 03bd
00000370: 7218 ca3c 630e e5bc 09a7 8c39 d301 a83c
00000380: c259 15bc b0fd 81ba c3ab 61bc fe66 09bd
00000390: 4cd7 febc 0d06 433c b79f bd3c 18a3 c83c
000003a0: 83f4 bf3c cf92 c9bc 760e 79bb e81d 8fbb
000003b0: 7393 5a3c 5403 c33c 8c24 07bc 7d2d ea3b
000003c0: 2417 98bb b9c0 b03c 3925 013c 6f5c 063c
000003d0: 30c4 c53c 659f 103d 6047 e3bb 32d6 7c3b
000003e0: b860 b53b 9226 82bc 0c08 0a3b 6c37 673c
000003f0: 8ed3 2c3d b974 dab9 ba06 3f3c 7dfa af3c

transformer.layers.0.self_attn.out_proj.bias f4 [64]
-0.006621926 0.006690534 0.008148002 0.011660233 0.012872205 -0.00250924 0.010263227 0.013008815
0.007024565 0.009887036 -0.0062687825 -0.0063521625 -0.009437557 -0.008229959 -0.0041443394 0.004532905
-0.0060486314 0.010049064 0.00863482 0.009123485 -0.002743319 0.009123683 -0.01101197 -0.0054111267
0.008750081 -0.0092571685 0.009162063 -0.010723517 0.005645091 -0.0045723724 -0.008172762 0.0049262727
0.009861353 0.006859794 0.008422252 -0.0071508256 -0.009918765 0.010144839 0.0024528576 -0.0003082348
-0.0070815566 -0.0061046374 0.010557331 0.0074248654 -0.006021982 0.0035901675 -0.0060509546 -0.008463863
-0.0062510082 0.0052410113 -0.012051646 -0.011634076 -0.011864324 0.009740979 -0.009301468 -0.005410631
-0.0048998725 -0.009997084 -0.006628215 0.0061608213 0.008975486 0.008892568 -0.0048257504 0.008019034
00000000: befc d8bb 443c db3b 337f 053c 900a 3f3c
00000010: f1e5 523c 1072 24bb 1827 283c ed22 553c
00000020: 522e e63b 3cfd 213c 5c6a cdbb cd25 d0bb
00000030: fc9f 1abc f3d6 06bc 3dcd 87bb c388 943b
00000040: 9933 c6bb d4a4 243c 0f79 0d3c ab7a 153c
00000050: 41c9 33bb 807b 153c 8d6b 34bc d24f b1bb
00000060: 805c 0f3c 61ab 17bc 7a1c 163c b1b1 2fbc
00000070: 75fa b83b d7d3 95bb 0ce7 05bc 926c a13b
00000080: 8391 213c 1fc8 e03b 7cfd 093c 7951 eabb
00000090: 5182 22bc 8a36 263c 1fc0 203b 939a a1b9
000000a0: 670c e8bb 6909 c8bb a8f8 2c3c 494c f33b
000000b0: 0c54 c5bb 0449 6b3b 1647 c6bb 04ac 0abc
000000c0: 42d5 ccbb cabc ab3b 4474 45bc da9c 3ebc
000000d0: 9562 42bc a198 1f3c 2f65 18bc aa4b b1bb
000000e0: 1c8f a0bb cfca 23bc 7f31 d9bb b7e0 c93b
000000f0: eb0d 133c 22b2 113c 5421 9ebb 4462 033c

transformer.layers.0.linear1.weight f4 [128, 64]
0.0064715175 0.012970296 -0.008927838 0.007455508 0.01618224 -0.013598384 -0.0018405181 0.0144006675
-0.009467369 0.011464058 0.014761614 0.0037282535 -0.02014788 0.019531494 0.001277841 0.042168345
-0.038794458 0.022886688 0.045602527 -0.011043144 -0.02199902 0.02094727 -0.02586407 0.019740317
0.009568794 -0.019936677 -0.02789847 -0.0045090294 -0.011041466 -0.029634442 -0.010402931 -0.020296395
0.034221184 -0.038316846 0.025933282 -0.016657386 -0.036940314 0.015270382 -0.012068443 -0.030967135
-0.054825258 -0.05506748 0.02796509 0.0484436 -0.001819934 -0.022922635 0.009861417 -0.027715253
0.031120123 -0.00013229671 -0.037255395 -0.046624117 -0.04331728 0.013298419 -0.031558704 0.016256258
0.01750589 -0.013607911 0.032012228 -0.028436007 0.046790764 -0.022441609 -0.058534972 0.037501384
0.019779356 0.03781485 0.04776655 0.034542702 -0.011606542 -0.03778577 0.026424259 -0.019364944
0.004508878 -0.004752669 -0.04444549 0.014997825 -0.014195433 -0.007438239 -0.015630353 0.008316642
0.03697754 0.012824409 -0.01871637 -0.010686375 -0.00030422828 0.040945828 -0.042130634 0.015793141
-0.0017491766 0.003711252 0.00038617 -0.030330956 0.019852037 -0.011453366 -0.043145474 -0.034678698
0.033220727 -0.008346002 -0.00015034739 0.0016760781 -0.03294314 -0.01741744 -0.0050508543 0.014793839
-0.012122777 0.008761726 0.0026664797 0.03677593 -0.022293031 -0.016535975 -0.026032828 -0.032912012
0.004383846 0.02640025 -0.03459086 -0.020766808 0.0119881015 0.04264237 -0.026078552 -0.041422598
-0.04182955 -0.015383986 0.015709257 -0.008809687 0.006445035 -0.0010328557 -0.0047564404 0.029209621
0.0005048369 0.021963373 0.017338451 0.045639105 -0.004688006 -0.02301052 -0.0006690438 -0.015055829
-0.03643923 0.04151503 0.010475686 0.00022556397 -0.04857673 0.021021413 -0.0075683505 -0.02578924
0.0028745676 0.0018207165 -0.027405301 -0.010758036 0.02379118 0.023816947 -0.04083079 0.0031918536
0.009156524 0.0060354364 0.020348333 -0.010681377 0.0075591085 0.023944497 0.017872151 -0.013455659
0.025892071 -0.00040713383 0.00801225 -0.0074558966 -0.010951329 -0.03574906 -0.011580037 -0.024049215
0.016726688 0.008269431 0.040960893 -0.0081793815 -0.024352182 0.033013646 -0.02651873 0.008083146
0.027535303 0.0043934714 -0.016941004 0.03366148 -0.023521256 -0.018715112 -0.009324231 -0.013008858
0.041027684 0.010005202 -0.029405322 0.019899983 0.021593932 0.020529337 -0.0019638024 0.0014153161
-0.025226474 0.028932044 -0.0046556173 -0.02497661 -0.042593483 0.008983442 0.018304622 0.012092355
-0.027649965 0.029352788 0.046171393 -0.008062588 0.029200973 -0.040543772 0.018562255 0.033199586
-0.021890389 -0.011913716 0.008957998 0.008148367 0.02626637 0.016123388 -0.031855732 0.00083118887
-0.0034012832 -0.009441907 0.03647215 -0.023889136 -0.011986073 0.005808508 0.056249347 -0.008212629
-0.0029245475 0.069929816 0.0177116 0.021174807 -0.0040671155 -0.008390123 -0.023835639 -0.02067289
0.019198878 0.01444609 -0.021571873 0.0065648006 -0.0064323014 -0.01582039 0.012648782 -0.00728512
-0.018653426 -0.011372483 -0.01667922 -0.012132701 0.003875066 0.030259697 -0.025538832 -0.0696695
-0.032238416 -0.023028197 -0.0065385485 0.009907064 0.015081997 -0.019928863 0.053784255 0.016874827
00000000: 060f d43b 5d81 543c 1146 12bc 564d f43b
00000010: 9e90 843c c2cb 5ebc 8a3d f1ba c7f0 6b3c
00000020: 061d 1bbc bfd3 3b3c b2da 713c b755 743b
00000030: 2b0d a5bc 8300 a03c 3b7d a73a b7b8 2c3d
00000040: f0e6 1ebd dd7c bb3c b7c9 3a3d 4eee 34bc
00000050: 4a37 b4bc 9c99 ab3c e3e0 d3bc 72b6 a13c
00000060: 6ec6 1c3c 3e52 a3bc 558b e4bc 7bc0 93bb
00000070: 44e7 34bc eec3 f2bc 0e71 2abc a044 a6bc
00000080: 832b 0c3d 20f2 1cbd 0972 d43c 1275 88bc
00000090: ba4e 17bd a030 7a3c b8ba 45bc caae fdbc
000000a0: 7390 60bd 708e 61bd 0b17 e53c cc6c 463d
000000b0: da8a eeba 40c8 bbbc c891 213c 190b e3bc
000000c0: a1ef fe3c 21b9 0ab9 1d99 18bd eef8 3ebd
000000d0: 766d 31bd 9de1 593c b343 01bd d82b 853c
000000e0: 8368 8f3c b7f3 5ebc 411f 033d a1f2 e8bc
000000f0: aca7 3f3d 77d7 b7bc 5ec2 6fbd 0d9b 193d
00000100: 5108 a23c bfe3 1a3d dca6 433d a67c 0d3d
00000110: 5e29 3ebc 40c5 1abd b077 d83c 3ba3 9ebc
00000120: 36bf 933b 47bc 9bbb 790c 36bd 70b9 753c
00000130: f693 68bc 79bc f3bb 3a0b 80bc 8642 083c
00000140: c375 173d 781d 523c 1353 99bc e815 2fbc
00000150: d480 9fb9 d0b6 273d 2c91 2cbd 9e60 813c
00000160: a144 e5ba 7a38 733b dc76 ca39 a078 f8bc
00000170: bda0 a23c e6a6 3bbc 4fb9 30bd 400b 0ebd
00000180: 7512 083d abbd 08bc 92a6 1db9 d9af db3a
00000190: 63ef 06bd 05af 8ebc a381 a5bb dc61 723c
000001a0: 9d9e 46bc 588d 0f3c 1bc0 2e3b 5ca2 163d
000001b0: e09f b6bc 7476 87bc cc42 d5bc bfce 06bd
000001c0: 5ea6 8f3b 5645 d83c 25af 0dbd 271f aabc
000001d0: be69 443c c4a9 2e3d b0a2 d5bc beaa 29bd
000001e0: 7655 2bbd 1d0d 7cbc b3b0 803c 8156 10bc
000001f0: df30 d33b e360 87ba eadb 9bbb 0449 ef3c
00000200: 0857 043a 88ec b33c 5e09 8e3c 12f0 3a3d
00000210: d89d 99bb 8f80 bcbc c562 2fba b9ac 76bc
00000220: 4d41 15bd aa0b 2a3d 36a2 2b3c 5e85 6c39
00000230: 65f8 46bd 1935 ac3c edff f7bb f543 d3bc
00000240: 3e63 3c3b 1ca5 ee3a 1581 e0bc 7942 30bc
00000250: b9e5 c23c c21b c33c 303e 27bd 6b2e 513b
00000260: 3f05 163c e9c4 c53b 8cb1 a63c f100 2fbc
00000270: 66b2 f73b 4027 c43c 9e68 923c 2075 5cbc
00000280: 9c1b d43c 9474 d5b9 d045 033c 9850 f4bb
00000290: 346d 33bc 9b6d 12bd 32ba 3dbc dc02 c5bc
000002a0: 6806 893c 827c 073c 9cc6 273d d002 06bc
000002b0: 3a7e c7bc 5139 073d cf3d d9bc 2c6f 043c
000002c0: b791 e13c 1cf7 8f3b dcc7 8abc 9fe0 093d
000002d0: a6af c0bc 6f50 99bc a9c4 18bc 1b23 55bc
000002e0: a50c 283d dcec 233c 6ee3 f0bc 4a05 a33c
000002f0: c2e5 b03c 242d a83c 23b3 00bb 2182 b93a
00000300: c0a7 cebc e502 ed3c 268e 98bb bf9b ccbc
00000310: 8176 2ebd 492f 133c 93f3 953c 031f 463c
00000320: 2e82 e2bc 4275 f03c 371e 3d3d f218 04bc
00000330: e136 ef3c 3a11 26bd df0f 983c 4afc 073d
00000340: 7953 b3bc bf31 43bc 91c4 123c ba80 053c
00000350: 922c d73c 3215 843c 287b 02bd 24e4 593a
00000360: 10e8 5ebb 3ab2 1abc d263 153d 26b3 c3bc
00000370: 3c61 44bc 4c55 be3b b765 663d 438e 06bc
00000380: c4a9 3fbb 5d37 8f3d eb17 913c ca76 ad3c
00000390: 7045 85bb ba76 09bc f542 c3bc 315a a9bc
000003a0: f746 9d3c 4baf 6c3c 7fb7 b0bc 8a1d d73b
000003b0: 0ec6 d2bb c399 81bc d63c 4f3c 04b8 eebb
000003c0: 12cf 98bc a753 3abc dca2 88bc 3dc8 46bc
000003d0: d2f4 7d3b 2fe3 f73c d036 d1bc e2ae 8ebd
000003e0: 6e0c 04bd a1a5 bcbc 5241 d6bb 3d51 223c
000003f0: 7b1a 773c db41 a3bc e14c 5c3d 143d 8a3c

transformer.layers.0.linear1.bias f4 [128]
0.011050484 0.018138636 -0.008698704 0.010281762 0.008217998 0.0141304685 0.0047047115 0.010932713
0.0041375966 0.0076549645 -0.009625198 0.006847549 0.007232233 0.0137808155 -0.002285442 -0.009179762
0.00016042794 -0.00946453 0.0074299937 0.011139163 0.009436911 0.00885573 0.00880326 0.008443527
0.006945199 0.009192584 0.010683572 0.005678127 -0.0039271466 0.0038819779 0.010801399 -0.004189537
0.0063587823 0.01109206 0.0002521528 0.01386389 0.009181652 0.0020111888 -0.003576186 0.0065342304
0.009593848 0.009760015 0.0073734005 0.007629279 0.00408646 0.009338868 0.014945497 -0.003986732
0.0023317547 0.0056859637 0.004229369 0.005100373 -0.006540766 0.01926983 0.009560833 0.0097181285
0.00044008036 0.006064051 0.0062176716 0.007684799 0.010357045 0.010261003 0.010289886 0.008241515
0.0075480957 0.021196237 -0.0071927113 -0.0011921679 0.0020113774 0.008755999 0.016790269 0.005584949
0.0072469977 0.012559489 0.0062278598 -0.007877067 0.0064409506 -0.009306495 0.005214041 -0.010236013
0.002700141 0.0025148299 0.0031886029 0.0054405704 0.006845615 -0.0078011 0.014490975 -0.001905359
0.0040755523 0.018445997 0.010691439 0.014157662 0.015717067 0.005238615 0.021933435 0.006869789
0.013464036 0.008944623 -0.007841211 0.01030856 -0.0048565795 0.011411936 0.0111511145 0.0002427896
0.008952089 0.0047510914 0.01825829 0.017293476 0.00870562 0.020606887 0.012988418 -0.010484389
-0.002334933 0.013639461 0.012177942 0.013159983 0.0070611257 0.013212872 0.009644852 0.010831795
0.011036848 0.0043954453 -0.0031560168 0.00888827 0.0016302564 0.0034894824 0.012023505 0.0032616558
00000000: 170d 353c 7a97 943c 0285 0ebc d674 283c
00000010: c8a4 063c 7b83 673c fb29 9a3b 1f1f 333c
00000020: ad94 873b 7fd6 fa3b 02b3 1dbc 6861 e03b
00000030: 5efc ec3b eec8 613c 5bc7 15bb b666 16bc
00000040: 8c38 2839 1e11 1bbc 4e77 f33b 0981 363c
00000050: 469d 1a3c a017 113c 8c3b 103c b856 0a3c
00000060: 8d94 e33b 7e9c 163c 260a 2f3c 950f ba3b
00000070: 4baf 80bb c868 7e3b 5af8 303c 6248 89bb
00000080: 555d d03b 79bb 353c 6033 8439 5f25 633c
00000090: a46e 163c 26ce 033b 725e 6abb 191d d63b
000000a0: 842f 1d3c 78e8 1f3c 919c f13b 08ff f93b
000000b0: b6e7 853b 0d02 193c f5dd 743c 22a3 82bb
000000c0: 5ad0 183b 5251 ba3b 8596 8a3b 0821 a73b
000000d0: ec53 d6bb c3db 9d3c 0aa5 1c3c c938 1f3c
000000e0: 96ba e639 f2b4 c63b 9cbd cb3b c4d0 fb3b
000000f0: 98b0 293c c41d 283c e996 283c 6b07 073c
00000100: 0456 f73b bba3 ad3c d6b0 ebbb 8442 9cba
00000110: 50d1 033b 5275 0f3c bf8b 893c f301 b73b
00000120: 3978 ed3b 51c6 4d3c 1313 cc3b d00e 01bc
00000130: 9c0e d33b 457a 18bc 8cda aa3b f3b4 27bc
00000140: d9f4 303b d8cf 243b e1f7 503b d046 b23b
00000150: 2e51 e03b 5fa0 ffbb 8e6b 6d3c 3dbd f9ba
00000160: 368c 853b 0f1c 973c 252b 2f3c 8af5 673c
00000170: 14c1 803c b0a8 ab3b bfad b33c f81b e13b
00000180: 4398 5c3c 788c 123c 6c78 00bc 3ce5 283c
00000190: f123 9fbb 21f9 3a3c 2ab3 363c 5695 7e39
000001a0: c8ab 123c 0baf 9b3b 6992 953c 0cab 8d3c
000001b0: 04a2 0e3c c6cf a83c 60cd 543c b7c6 2bbc
000001c0: ad05 19bb 0c78 5f3c fe85 473c f89c 573c
000001d0: 0461 e73b cd7a 583c 7105 1e3c d777 313c
000001e0: e5d3 343c ab07 903b 2dd5 4ebb 1ba0 113c
000001f0: 54ae d53a cdaf 643b 3cfe 443c 81c1 553b

transformer.layers.0.linear2.weight f4 [64, 128]
-0.0071580573 -0.039127037 0.00086727645 0.031221176 -0.017170383 -0.0002847429 -0.0008393425 0.031468477
0.05000765 -0.038601156 -0.0052409554 -0.02456429 -0.032185975 0.01651416 -0.008029065 -0.0124013275
0.004318925 -0.010918986 -0.065363206 -0.0035489064 -0.019957684 0.01596197 0.020335123 0.012366999
-0.012365817 -0.059346694 0.010164868 -0.030313525 -0.020564577 -0.008024922 -0.021181988 -0.004554839
0.021598553 -0.035039797 0.0013396963 -0.005280924 -0.017008433 -0.0038909507 0.024048347 -0.013400678
-0.011337166 -0.008742323 0.0037617297 0.019933036 0.0066233603 0.0018246819 -0.024524549 0.010553004
-0.020928126 -0.016760364 -0.032541726 0.01089823 0.006473829 0.03925348 -0.0016620703 -0.017436434
-0.0016524665 -0.032677263 -0.027107067 -0.0039302683 0.03422505 -0.045004018 -0.015464562 0.0022922033
0.024433864 -0.024034174 0.006703707 -0.011251642 -0.019475808 0.0122023625 0.0030861641 -0.019180551
-0.012100702 0.010396973 0.011762914 -0.0032435157 0.023448199 -0.012395908 -0.046495166 0.014864288
-0.012404497 0.028594324 0.015371827 0.041703034 -0.0055088312 0.008056251 0.050489012 0.027740052
-0.02394597 0.017410908 0.019730689 -0.0024503006 0.0077918936 0.0069181095 -0.0341699 -0.023325661
-0.010896128 -0.005887054 0.016242495 -0.0054536746 0.020982966 -0.011144151 -0.009702797 0.031724017
-0.016027391 -0.01156914 -0.0523929 -0.028263262 -0.018484594 -0.011002533 -0.009649316 -0.05374103
0.017783513 0.021287277 -0.023376472 -0.046076294 -0.0028675573 -0.023070848 -0.015755897 -0.04244794
0.024996644 0.049566258 -0.011689962 -0.036270384 0.038380317 0.015319073 -0.01612302 0.043219216
-0.01604794 0.0035211649 -0.018893838 0.039317563 -0.008111118 -0.019050263 0.0020181027 0.032838564
0.012128327 -0.021344647 -0.03280482 -0.0042566014 -0.010583819 0.0023331265 -0.013260146 0.0045539346
0.028806461 0.015539519 -0.012909705 -0.0364661 0.02743078 -0.012965386 0.0054898 -0.002877609
-0.04495373 0.022720838 -0.006391372 0.016048959 0.001914106 0.011827061 0.025303744 0.020750452
-0.011596016 -0.0052116527 0.03606391 -0.007123025 0.023512503 -0.015371534 0.005372423 0.012558479
-0.01608249 0.008156474 -0.0022596153 0.005782442 -0.048113953 -0.044505343 0.052481562 0.0350599
-0.00040448352 -0.019678997 -0.006324116 -0.015847884 0.012717309 0.024081491 0.01174963 0.010511931
0.008450309 0.0226141 0.042178266 -0.0018034591 0.03699488 0.0074192467 0.056225423 -0.00526232
-0.005313492 0.031659838 -0.01776186 0.012656383 0.014986368 -0.021044623 0.005284579 0.0338243
0.022345413 0.015479512 0.014603399 -0.01935126 -0.0118947495 0.04681126 -0.017516037 -0.010634433
-0.013266716 -0.035839267 0.02077888 0.007181319 0.011560832 -0.02767795 0.0028447898 -0.004021055
0.028157432 -0.017812934 0.028221756 -0.0027312974 -0.011636132 -0.031935044 -0.011150879 -0.048738547
0.015107358 0.03833185 -0.0071120095 0.031910375 -0.011828165 0.00082434143 -0.0173525 -0.03653247
-0.0062685953 0.032258593 0.01605955 0.036142595 0.0043313475 0.0126236845 -0.0052086506 -0.0008970851
0.0255019 0.055715818 0.08854873 0.009104324 0.011324244 0.023390448 0.037389144 0.011108233
-0.026868364 0.018668469 0.029950717 -0.0084987655 -0.029437039 0.039651714 0.009237584 0.03837268
00000000: 238e eabb ac43 20bd f059 633a 8dc3 ff3c
00000010: e7a8 8cbc 8c49 95b9 5207 5cba 17e5 003d
00000020: d2d4 4c3d 3f1c 1ebd 52bc abbb 0d3b c9bc
00000030: 71d5 03bd b448 873c 578c 03bc f02e 4bbc
00000040: c585 8d3b 8ce5 32bc 25dd 85bd c594 68bb
00000050: 4c7e a3bc adc2 823c d895 a63c f49e 4a3c
00000060: ff99 4abc 8515 73bd 8c8a 263c 1254 f8bc
00000070: 0b77 a8bc f67a 03bc d985 adbc c240 95bb
00000080: 73ef b03c e485 0fbd c098 af3a 9a0b adbb
00000090: 4555 8bbc 52ff 7ebb 0a01 c53c 848e 5bbc
000000a0: 85bf 39bc f63b 0fbc 5a87 763b 9b4a a33c
000000b0: c608 d93b 2a2a ef3a b5e7 c8bc 82e6 2c3c
000000c0: 7671 abbc 084d 89bc 794a 05bd 7d8e 323c
000000d0: 6a22 d43b 42c8 203d d3d9 d9ba dad6 8ebc
000000e0: 9397 d8ba 98d8 05bd a40f debc 7bc9 80bb
000000f0: 912f 0c3d 2256 38bd 135f 7dbc ca38 163b
00000100: 8729 c83c 51e3 c4bc c5aa db3b cf58 38bc
00000110: bb8b 9fbc 6bec 473c 3e41 4a3b 8820 9dbc
00000120: 0642 46bc 1158 2a3c 3db9 403c 2a91 54bb
00000130: 7016 c03c 3518 4bbc b771 3ebd 5889 733c
00000140: 3b3c 4bbc a53e ea3c 1eda 7b3c cdd0 2a3d
00000150: 6d83 b4bb 5efe 033c 91cd 4e3d 1b3f e33c
00000160: 572a c4bc 52a1 8e3c 41a2 a13c 3995 20bb
00000170: 2453 ff3b 4fb1 e23b bdf5 0bbd 7515 bfbc
00000180: ac85 32bc 30e8 c0bb fb0e 853c bdb4 b2bb
00000190: 78e4 ab3c f595 36bc 7bf8 1ebc 0bf1 013d
000001a0: e04b 83bc 7d8c 3dbc f099 56bd 5b88 e7bc
000001b0: 016d 97bc f843 34bc 2a18 1ebc 8e1f 5cbd
000001c0: bbae 913c a862 ae3c 0480 bfbc 7fba 3cbd
000001d0: a1ed 3bbb 13ff bcbc 8312 81bc e4dd 2dbd
000001e0: c3c5 cc3c fd05 4b3d 4187 3fbc 4190 14bd
000001f0: ae34 1d3d d9fc 7a3c 6c14 84bc a206 313d
00000200: f876 83bc 58c3 663b 40c7 9abc 740b 213d
00000210: 7fe4 04bc 4c0f 9cbc 2542 043b bb81 063d
00000220: e4b5 463c f8da aebc 595e 06bd f67a 8bbb
00000230: c167 2dbc 5ee7 183b 1541 59bc 2c39 953b
00000240: 87fb eb3c 7799 7e3c 3a83 53bc 7a5d 15bd
00000250: 84b6 e03c c56c 54bc c8e3 b33b 4596 3cbb
00000260: 6721 38bd 0d21 ba3c b76e d1bb 1b79 833c
00000270: bde2 fa3a 4ac6 413c cc49 cf3c dafc a93c
00000280: 37fd 3dbc 83c6 aabb c0b7 133d 4468 e9bb
00000290: 4b9d c03c e3d8 7bbc 270b b03b 14c2 4d3c
000002a0: 6dbf 83bc bba2 053c 0e16 14bb a47a bd3b
000002b0: 2313 45bd 3c4b 36bd e8f6 563d f89a 0f3d
000002c0: dc10 d4b9 d935 a1bc 883a cfbb 6cd3 81bc
000002d0: 435c 503c 8c46 c53c 8581 403c 3c3a 2c3c
000002e0: 2a73 0a3c 3441 b93c 1ec3 2c3d 0c62 ecba
000002f0: f187 173d 271d f33b a14c 663d 8a6f acbb
00000300: cd1c aebb bfad 013d 5281 91bc b85c 4f3c
00000310: 6289 753c c665 acbc 432a ad3b 598b 0a3d
00000320: ba0d b73c c79d 7d3c 1843 6f3c 8986 9ebc
00000330: 32e2 42bc 2abd 3f3d cb7d 8fbc 0b3c 2ebc
00000340: a45c 59bc 32cc 12bd 7838 aa3c 4551 eb3b
00000350: a569 3d3c debc e2bc a76f 3a3b 0ec3 83bb
00000360: 6aaa e63c 6eec 91bc 5031 e73c 91ff 32bb
00000370: 7aa5 3ebc 52ce 02bd 2db2 36bc 12a2 47bd
00000380: da84 773c dc01 1d3d dc0b e9bb 74b4 023d
00000390: ebca 41bc 9e18 583a d526 8ebc 12a3 15bd
000003a0: ca68 cdbb 9621 043d 518f 833c 420a 143d
000003b0: faed 8d3b 92d3 4e3c 54ad aabb 5d2a 6bba
000003c0: 5ce9 d03c 4536 643d 0959 b53d 4d2a 153c
000003d0: 5289 393c 539d bf3c 5c25 193d 4eff 353c
000003e0: 0b1b dcbc 9eee 983c 355b f53c 683e 0bbc
000003f0: f225 f1bc d669 223d 3c59 173c ac2c 1d3d

transformer.layers.0.linear2.bias f4 [64]
-0.006261243 0.006928626 0.010120402 0.015646037 0.013101037 -0.0032083755 0.011512819 0.013767176
0.0070373523 0.009762891 -0.009333949 -0.0052412036 -0.015765453 -0.008909444 -0.0024812988 0.008528683
-0.008759311 0.01236433 0.010323823 0.011059001 -0.0013959873 0.009530444 -0.011469482 -0.007242371
0.011279253 -0.009464577 0.009161875 -0.011794851 0.0075703724 -0.004918483 -0.008180825 0.004042105
0.0111528 0.0058653844 0.010490128 -0.009011941 -0.0100899385 0.010361439 0.0019823404 -0.0019686816
-0.008347738 -0.00818764 0.01079265 0.007333639 -0.005856234 0.005833694 -0.00862803 -0.009048763
-0.007886933 0.006588565 -0.012152811 -0.0121905925 -0.012085732 0.009847536 -0.009901632 -0.0056321104
-0.0033823405 -0.010680426 -0.006400181 0.0057307873 0.009301033 0.012755659 -0.0051625017 0.0077161924
00000000: 1d2b cdbb 8709 e33b 0bd0 253c 1e2c 803c
00000010: bba5 563c 9c43 52bb 43a0 3c3c b98f 613c
00000020: 9799 e63b 88f4 1f3c 6bed 18bc 67be abbb
00000030: 8d26 81bc ebf8 11bc 499d 22bb e4bb 0b3c
00000040: 3783 0fbc c293 4a3c 4125 293c d030 353c
00000050: 90f9 b6ba 9425 1c3c 7fea 3bbc 6951 edbb
00000060: 9ecc 383c 5011 1bbc b01b 163c 313f 41bc
00000070: e310 f83b 3a2b a1bb de08 06bc a273 843b
00000080: 3cba 363c 6932 c03b c9de 2b3c d2a6 13bc
00000090: 4550 25bc 06c3 293c 27ea 013b ff04 01bb
000000a0: f3c4 08bc 7425 06bc a8d3 303c 064f f03b
000000b0: a7e5 bfbb 9228 bf3b 955c 0dbc 4341 14bc
000000c0: 3238 01bc e4e4 d73b 951c 47bc 0dbb 47bc
000000d0: 3c03 46bc 8f57 213c 743a 22bc 918d b8bb
000000e0: 42aa 5dbb f4fc 2ebc 9cb8 d1bb 54c9 bb3b
000000f0: 5c63 183c 1dfd 503c 342a a9bb 1dd8 fc3b
