marble_model/best_model_v3.0_20250530_231349.pt (torch, 295593 bytes, 30 tensors)

token_embedding.weight f4 [13, 64]
0	0x3d368238	0.04455778
1	0x3c7bfca9	0.015380063
2	0x3d0986d5	0.03357585
3	0xbb376a6f	-0.0027987023
4	0xbd07006a	-0.03295938
5	0xbc36fe3c	-0.011169013
6	0xbc49aff8	-0.012310021
7	0xbd3a56a0	-0.04549277
8	0xbccf53d5	-0.025308529
9	0x3ca7a365	0.020463655
10	0x3a4292a4	0.0007422364
11	0x3c38b785	0.011274223
12	0x3c1c12ab	0.009525935
13	0x3caee83c	0.021350972
14	0x3c9f2b2b	0.019429764
15	0x3bf8147b	0.007570801
16	0x3c859999	0.016308593
17	0x3ae789d7	0.0017664981
18	0xbc2e43d8	-0.010636292
19	0x3c0b09a6	0.008486187
20	0x3cc410db	0.023933819
21	0xbc4e1744	-0.012578789
22	0xbb78f046	-0.003798501
23	0x3cf330db	0.029686382
24	0x3d0e7fe4	0.034789935
25	0xbb8d800d	-0.0043182434
26	0x3c915442	0.017740373
27	0xbd23e6ce	-0.040015034
28	0x3cb7ef2b	0.022452911
29	0xbc9002d5	-0.017579475
30	0xbc1b7aa2	-0.009489687
31	0x3b4727c7	0.00303887
32	0xbc667326	-0.014065539
33	0x3b8c602b	0.004283925
34	0xbcf51c90	-0.029920846
35	0xbc90eaed	-0.017690146
36	0x3b5b5093	0.0033464774
37	0xbce644de	-0.02810901
38	0xbc226c67	-0.00991354
39	0xbb99d75b	-0.004694862
40	0xbc8fbd07	-0.01754619
41	0x3ca9832f	0.020692436
42	0xbc85a604	-0.016314514
43	0x3d1fe400	0.039035797
44	0xbc94b897	-0.018154426
45	0x3be09030	0.006853126
46	0x3bb8d36d	0.0056404383
47	0x3c697f32	0.014251517
48	0xbd52bdb0	-0.05145043
49	0xbb110d44	-0.002213315
50	0x3c82cf05	0.015967855
51	0x3a9a1942	0.0011756795
52	0x3b60faef	0.0034329256
53	0xbc0bdc11	-0.008536355
54	0x3a36106d	0.00069451967
55	0x3c3c5b80	0.011496425
56	0x3ccfbd2b	0.025358757
57	0x3ca10ce9	0.019659476
58	0xbc480697	-0.012208602
59	0xbb8adc48	-0.0042376854
60	0xbb2f2190	-0.0026722886
61	0xbc92af06	-0.017905723
62	0xbd32b75c	-0.043631896
63	0x3c3772fd	0.011196849
64	0x3ca820e5	0.020523498
65	0xbd1124de	-0.03543555
66	0xbcd39785	-0.025829086
67	0x3ac76f26	0.001521562
68	0xbd0c7d25	-0.034299035
69	0x3d52fdf1	0.05151171
70	0x3cb20b27	0.021733833
71	0x3bb030f0	0.0053769276
72	0xbcc2b3a4	-0.0237673
73	0x3d5908d1	0.052986924
74	0x3c330e0e	0.010928644
75	0xbb30549d	-0.0026905902
76	0xbc63f408	-0.013913162
77	0x3c9164ee	0.017748322
78	0x3bd44ef8	0.0064791404
79	0xbc8d290a	-0.017231483
80	0xbd0e2be3	-0.034709822
81	0xbccfd36c	-0.025369368
82	0xbd5ab463	-0.053394686
83	0xbc408d38	-0.011752419
84	0x3ce1af73	0.027549481
85	0xbc3bca46	-0.0114618
86	0x3d100095	0.035156805
87	0xbc40ccc3	-0.011767569
88	0xbc6f47c1	-0.01460451
89	0x3d403a4e	0.046930604
90	0xbbb928e5	-0.005650627
91	0xbc8b1066	-0.016975593
92	0x3c3dd41d	0.011586216
93	0x3d0862e4	0.033297434
94	0xbd14a00b	-0.03628544
95	0xbb0cab6d	-0.0021464482
96	0xbbf038c6	-0.0073309867
97	0x3d2f43a0	0.0427891
98	0x3d052fcb	0.032516282
99	0xbcdf36d5	-0.027247826
100	0x3d469b0d	0.04848771
101	0xbc9d7fdf	-0.019226013
102	0x3c53341e	0.012890844
103	0x3ce89604	0.028391846
104	0xbd03283b	-0.03202079
105	0x3c975039	0.01847087
106	0x3b902688	0.0043991245
107	0x3d1cc31e	0.038272016
108	0x3d19a637	0.03751203
109	0xbd26e490	-0.040745318
110	0xbce54792	-0.027988229
111	0xbb4d5e75	-0.0031336818
112	0x3c5909c6	0.013246959
113	0xbbf5f2ef	-0.0075057666
114	0x392fb67c	0.00016757281
115	0xbbf525c3	-0.007481308
116	0xbc4182f3	-0.011811006
117	0xbcc8396f	-0.024441449
118	0xbcc3e195	-0.023911277
119	0xbcf394be	-0.029734012
120	0x3d2eb696	0.042654596
121	0x3cdb5f29	0.026778774
122	0xbc92e2a0	-0.017930329
123	0xbd05b224	-0.03264059
124	0xbac6fdfa	-0.0015181892
125	0x3d3ce084	0.046112552
126	0xbd2e767f	-0.042593475
127	0xbd0a6ce6	-0.03379526
128	0x3bfceca0	0.0077186376
129	0x3cc049d8	0.023472711
130	0xbc941ec2	-0.018081073
131	0x3c835474	0.016031481
132	0xbb8c604e	-0.0042839414
133	0x3d29ce87	0.041456725
134	0xbc9733d3	-0.018457329
135	0x3b835eef	0.0040091197
136	0xbb443f19	-0.0029944836
137	0xbd443497	-0.047901716
138	0xbcc9c9d2	-0.024632368
139	0x3d0fd383	0.035113823
140	0x3d498690	0.049200594
141	0xbc0a1548	-0.008427925
142	0x3bef4149	0.007301484
143	0x3c9cd77d	0.019145722
144	0x3ac68185	0.0015144801
145	0x3ca2501a	0.019813586
146	0xbc8c1a9f	-0.017102538
147	0x3bc90afb	0.006135342
148	0x3a4ff179	0.00079324056
149	0xbc5b059e	-0.013368038
150	0xbd35074d	-0.044196416
151	0x3c3086fe	0.010774372
152	0xbccd3895	-0.025051394
153	0xba0fd7c6	-0.000548717
154	0x3c2e645b	0.010644044
155	0x3c352d4b	0.011058162
156	0xbc81c016	-0.015838664
157	0x3b7361fb	0.0037137258
158	0x3c08a171	0.008339272
159	0xbc8e4c6c	-0.017370425
160	0x3bde8b44	0.006791504
161	0xbab23413	-0.0013595842
162	0xbc84e334	-0.01622162
163	0xbbbff605	-0.0058581852
164	0x3bbf6340	0.005840689
165	0xbd4dc649	-0.050237928
166	0x3b0c5304	0.0021411786
167	0xbca85337	-0.020547492
168	0x3c2e1505	0.010625129
169	0xbbe4b46a	-0.006979515
170	0xbba7c26a	-0.0051196115
171	0x3c272859	0.010202491
172	0x3bf088a2	0.0073405067
173	0xbcd1f46a	-0.025629241
174	0x3c0f4760	0.0087450445
175	0x3c918478	0.017763361
176	0x3c334a75	0.010943045
177	0x3bc85f04	0.0061148424
178	0xbc1fb2f1	-0.009747253
179	0x3cfb5fa6	0.030685257
180	0x3c63b07d	0.013897059
181	0x3c2d4034	0.010574389
182	0x3c6721a2	0.01410714
183	0xbd7c8dd8	-0.06165871
184	0x3c9b6063	0.01896686
185	0xbd73a355	-0.059481937
186	0x3ce40d5c	0.027838401
187	0xbc7931eb	-0.015209655
188	0x3c497fe4	0.012298558
189	0x3c2acc94	0.010424752
190	0x3c1adc29	0.009451904
191	0x3b6a28e0	0.003572993
192	0xbc0cb7b0	-0.008588716
193	0xbc23ca88	-0.009997018
194	0x3d0fba76	0.035089932
195	0x3bdabf13	0.00667561
196	0xbc4e93ba	-0.012608463
197	0xbcbbb35a	-0.02291267
198	0xbca57644	-0.020197995
199	0x3c81a2bc	0.015824668
200	0x3c4061d8	0.011742078
201	0x3bf4dfee	0.0074729836
202	0x3c31adc6	0.0108446535
203	0xbccee541	-0.025255801
204	0x3d06f9d5	0.032953102
205	0xbca5149a	-0.020151425
206	0xbc30a2e2	-0.010781022
207	0x3cce6dfb	0.025198927
208	0x3cf79957	0.030224485
209	0xbb95c19b	-0.0045701987
210	0xbd007687	-0.031363036
211	0x3d359da6	0.0443398
212	0x3d5f95df	0.054586288
213	0xbb8fd601	-0.004389525
214	0x3cb5e6ce	0.022204783
215	0xbd15c127	-0.036561158
216	0xbcb0096e	-0.021488871
217	0xbc7f33de	-0.015576331
218	0x3c3fdc27	0.011710203
219	0xbd079ab0	-0.033106506
220	0x3c6c2f8d	0.014415634
221	0x3d2a48b7	0.041573253
222	0xbce19a81	-0.027539494
223	0xbcb2c6ba	-0.021823276
224	0x3c9d935e	0.01923531
225	0xbc23841f	-0.009980231
226	0x3d097561	0.033559207
227	0x3cb1765e	0.021662887
228	0xbcb66f43	-0.02226985
229	0xbb0b3e87	-0.0021246986
230	0x3c954f97	0.018226428
231	0x3ce260ee	0.02763411
232	0xbcd7ef7f	-0.026359318
233	0x3cd635ca	0.026148695
234	0xba7458af	-0.0009321076
235	0xbcc41087	-0.023933662
236	0x3cc8fcc7	0.024534596
237	0x3c117187	0.008877165
238	0xbc87604f	-0.016525416
239	0x3bb014a8	0.005373556
240	0xbd396ee5	-0.045271773
241	0x3aec6d5e	0.0018037965
242	0x3d011df2	0.0315227
243	0xbc9c2090	-0.019058496
244	0x3d139ea9	0.036039982
245	0xbba7f878	-0.0051260553
246	0x3bcc970a	0.006243591
247	0xbd61d592	-0.055135317
248	0x3ceb6431	0.028734298
249	0xbc6bee9d	-0.014400152
250	0xbd0bfecc	-0.03417854
251	0xbd030e4e	-0.031996064
252	0xbd03954a	-0.032124795
253	0x3ccc602c	0.024948202
254	0xbcec16f4	-0.028819539
255	0x3c4c2ba8	0.01246158

position_embedding.weight f4 [30, 64]
0	0x3cba02d5	0.022706429
1	0xbc564d85	-0.0130800055
2	0xbc16747d	-0.009183046
3	0xbd0afe35	-0.033933837
4	0xbd334225	-0.043764252
5	0x3cb7f81a	0.022457171
6	0x3c8e70ab	0.017387709
7	0x3c72a5e8	0.014810063
8	0x3c93c7be	0.01803958
9	0x3b325cc3	0.0027215935
10	0xbd2ec474	-0.04266782
11	0xbb2f03ad	-0.0026705072
12	0xbce9b105	-0.028526792
13	0x3d4a49b2	0.049386688
14	0x3d6c6f95	0.0577236
15	0xbc03987a	-0.008031959
16	0xbcb723f9	-0.02235602
17	0xb9bd9da5	-0.00036166343
18	0x3b3d1d59	0.0028856604
19	0x3bd6a65e	0.0065505942
20	0x3c90c7ef	0.01767346
21	0xbcce4821	-0.025180878
22	0x3cfd9511	0.03095487
23	0xbd3222e6	-0.043490313
24	0xbd07aee0	-0.03312576
25	0xbbb596e1	-0.005541668
26	0xbc4d1521	-0.012517245
27	0x3ac055ee	0.0014674047
28	0x3c82ba3f	0.01595795
29	0x3cad306b	0.021141252
30	0xbc7bdbd3	-0.015372234
31	0x3c55adad	0.013041896
32	0xbd09b2e8	-0.033617884
33	0x3c848c11	0.01618007
34	0x3bc8b912	0.0061255777
35	0x3933cd4c	0.0001714725
36	0x3c5bb274	0.013409246
37	0xbcef45e6	-0.029208135
38	0xbca0c4c3	-0.019625073
39	0xbc1267ee	-0.008935912
40	0xbcdfb285	-0.027306804
41	0x3a08e0bb	0.0005221476
42	0x3d033768	0.03203526
43	0x3d0b7f62	0.03405703
44	0x3a98ce52	0.0011658168
45	0xbad9560f	-0.0016581434
46	0xbc8c8434	-0.017152883
47	0x3cb83b7a	0.022489298
48	0x3d0830ce	0.03324967
49	0x3cd036a2	0.025416676
50	0xbccfddbc	-0.025374286
51	0xbb0db81a	-0.0021624626
52	0xbd34aa0e	-0.04410749
53	0xbd05654a	-0.0325673
54	0xbc942460	-0.018083751
55	0xbc6a60aa	-0.014305273
56	0xbba41883	-0.005007805
57	0xbc1293f1	-0.008946405
58	0xbb248b78	-0.0025107544
59	0xbc96e01c	-0.01841741
60	0x3c5fbe0e	0.013656152
61	0xbafb7052	-0.0019183254
62	0xbc0d2cde	-0.008616654
63	0x3bea60fd	0.007152675
64	0xbb503421	-0.0031769352
65	0xbb936607	-0.0044982466
66	0x3b98d85c	0.004664464
67	0x3cb815e0	0.022471368
68	0x3d2e589a	0.042564966
69	0x3d0c5ffd	0.03427123
70	0xbbdf4a38	-0.0068142675
71	0xbc20a9cf	-0.0098061105
72	0x3b974cf4	0.004617328
73	0x3c8cccca	0.017187495
74	0xbc9414e5	-0.01807637
75	0x3cacd915	0.021099607
76	0xbbd30a69	-0.00644045
77	0xbc85582f	-0.0162774
78	0xbce006e6	-0.02734704
79	0xbc32664e	-0.010888649
80	0x370d54d8	8.424009e-06
81	0xbb274750	-0.0025524683
82	0x3ca4a243	0.020096904
83	0xbd47fd3d	-0.04882549
84	0x3bec4010	0.0072097853
85	0xbc4b2e33	-0.0124011515
86	0x3c0e21f1	0.008675084
87	0x3d1aa708	0.03775695
88	0x3b9f4208	0.0048601665
89	0x3af709c7	0.0018847518
90	0x3ce007a0	0.027347386
91	0x3cd06d52	0.025442753
92	0xbcb3a7b3	-0.021930551
93	0xbca6d719	-0.020366238
94	0x3cff343e	0.03115284
95	0xbc8894bf	-0.01667249
96	0x3d58374b	0.052787106
97	0x3d08fa1c	0.033441648
98	0x3adcbafa	0.0016840391
99	0xbc816acd	-0.015797997
100	0x3cce1101	0.025154592
101	0x3d0bdaa9	0.034144077
102	0xbd27ee23	-0.04099859
103	0xbcb78aa8	-0.022404984
104	0x3d25730b	0.040392917
105	0xbb20d3ea	-0.0024540373
106	0x3c89d15c	0.016823463
107	0x3cc82525	0.024431774
108	0x3c9a0092	0.0187991
109	0x3d2cb374	0.042163327
110	0x3ccec436	0.025240045
111	0xb99d935f	-0.00030055174
112	0xbcdb7eb8	-0.026793823
113	0xbc6ff131	-0.014644907
114	0xbc89254b	-0.016741415
115	0x3d10308e	0.035202555
116	0xbc4ad8bb	-0.012380774
117	0x3c4c3564	0.012463901
118	0x3cae329f	0.021264372
119	0x3c44c95f	0.012010901
120	0x3bc6cc81	0.0060668592
121	0xbc208696	-0.009797713
122	0x3c615740	0.013753712
123	0x3d009438	0.031391352
124	0xbae0910e	-0.0017133073
125	0xbcdb97ce	-0.026805785
126	0x3c7d32ed	0.015454036
127	0xbc11fd85	-0.008910541
128	0xbcdd4533	-0.027010536
129	0x3c467560	0.012112945
130	0x3cb9088a	0.02258708
131	0xbaf9eb41	-0.0019067304
132	0x3c80787b	0.01568245
133	0xbcd1bc30	-0.02560243
134	0xbd208376	-0.03918787
135	0x3c9270e3	0.017876094
136	0xbcca6154	-0.024704613
137	0xbd20bc67	-0.039242174
138	0xbbd27f1e	-0.006423845
139	0x3c71dbc4	0.014761869
140	0xbc36863e	-0.011140404
141	0x3af11693	0.0018393568
142	0xbcb80c84	-0.022466905
143	0x3bfcf957	0.0077201533
144	0x3c53b312	0.012921112
145	0xbc83d193	-0.016091144
146	0xbcb700ac	-0.022339188
147	0xbc1b8606	-0.009492403
148	0xbd4dd89d	-0.050255407
149	0x3b057677	0.00203648
150	0xbb2a588b	-0.0025992717
151	0xbd0c341a	-0.034229375
152	0xbbcc4181	-0.0062333946
153	0xbd0ba11f	-0.034089204
154	0x3cfa74ed	0.030573333
155	0x3d66eacb	0.05637626
156	0x3caebe91	0.021331104
157	0xbc7934fe	-0.015210388
158	0x3ca30c2f	0.01990327
159	0x3c50c42f	0.012742086
160	0x3cbea6b7	0.023272855
161	0xbc38f619	-0.011289143
162	0xbccda0d2	-0.0251011
163	0xbd57c293	-0.052675795
164	0xbcb488ad	-0.022037828
165	0x3d1abe62	0.03777922
166	0xbb91bdf1	-0.0044476916
167	0xbb874062	-0.004127548
168	0x3c9f2e0f	0.019431142
169	0xbc97f03a	-0.018547166
170	0x3d06a7a7	0.03287473
171	0x3b874a2b	0.0041287146
172	0x3c7b2145	0.015327756
173	0x3c9d4c39	0.019201385
174	0xbcefa274	-0.029252268
175	0xbd86cf9c	-0.06582567
176	0xbcbf2ef4	-0.023337819
177	0xbd139fd0	-0.03604108
178	0x3ce1c184	0.027558096
179	0x3c7490bf	0.014927088
180	0x3b4151ad	0.0029498145
181	0xbcad9b41	-0.021192195
182	0xbaa9c2ad	-0.0012951695
183	0x3c9041a5	0.017609427
184	0xbaa5c5c2	-0.0012647437
185	0xbd09a22d	-0.03360193
186	0xbc1365ff	-0.008996486
187	0xbccc162e	-0.02491292
188	0x3ca4307f	0.020042656
189	0x3d0c139f	0.0341984
190	0x3d7c9b0e	0.06167131
191	0x3cbe1fa9	0.023208456
192	0xbc4b90d8	-0.01242467
193	0xbbf9a141	-0.0076181
194	0x3cfd969c	0.030955605
195	0xbbcc4d27	-0.006234783
196	0x3d02da19	0.031946275
197	0x3c717dd8	0.014739476
198	0x3ad19870	0.0015990864
199	0xbcb33fb8	-0.02188097
200	0xbb9bac39	-0.004750755
201	0x3bc9a6ce	0.006153918
202	0x3b17b130	0.0023146383
203	0x39d17af6	0.000399552
204	0x3cec0001	0.028808596
205	0x3c77e66e	0.015130622
206	0xbc98d5c0	-0.018656611
207	0xbb62617c	-0.0034542968
208	0x3c775c46	0.015097683
209	0xbc8b4278	-0.016999468
210	0x3ce8fc8c	0.028440736
211	0xbce23306	-0.02761222
212	0xbb549d63	-0.0032442443
213	0x3cecf476	0.028925162
214	0xbbcaece0	-0.0061927885
215	0x3cad8e4e	0.02118602
216	0x3cb4d42f	0.022073833
217	0x3c9ec81b	0.019382527
218	0x3a929d2c	0.0011185757
219	0x3bf0eda2	0.007352547
220	0xbd1e1282	-0.03859187
221	0xbc3932fd	-0.01130366
222	0x3aae8946	0.0013316057
223	0xbbc7a964	-0.006093191
224	0xbab51d9d	-0.001381803
225	0xbb391416	-0.0028240732
226	0xbb3c1fce	-0.002870548
227	0x3cf09d88	0.029371992
228	0x3cc8f335	0.024530033
229	0x3cee4700	0.02908659
230	0xbcceed3a	-0.025259603
231	0x3d07e42a	0.03317658
232	0xbad18a3d	-0.0015986633
233	0x3c5d7d2b	0.013518612
234	0xbca8479a	-0.020541955
235	0x3c634b35	0.013872911
236	0x3bffd56a	0.0078074234
237	0x3a89ec78	0.0010522744
238	0x3c46b784	0.0121287145
239	0x3cae7839	0.021297561
240	0x3be6d1d3	0.007044056
241	0x3c91b411	0.017786058
242	0x3c68468d	0.014176977
243	0xbbc425ab	-0.0059859357
244	0xbca972ca	-0.020684619
245	0x3cb97205	0.022637377
246	0x3c372013	0.011177081
247	0x3c94dcec	0.01817175
248	0xbce7e96e	-0.02830955
249	0x3c0e9afd	0.008703944
250	0x3c43b427	0.011944807
251	0x3c57d451	0.013173179
252	0xbcc8bdce	-0.024504568
253	0xbcd5951a	-0.026072074
254	0x3c8db5f2	0.017298672
255	0xbcf3c1ed	-0.029755557

transformer.layers.0.self_attn.in_proj_weight f4 [192, 64]
0	0xbdf4c74a	-0.11952074
1	0x3c42c118	0.011886857
2	0xbd8dd4ab	-0.06925329
3	0x3d3b7a89	0.045771156
4	0xbdd5f904	-0.104478866
5	0xbdc0dc06	-0.09416966
6	0x3e273d64	0.16332012
7	0x3d996514	0.07489982
8	0x3d42e436	0.04758092
9	0xbe05744b	-0.13032643
10	0xbd9bb25a	-0.07602377
11	0x3d9462cb	0.07245406
12	0xbc694e81	-0.014239908
13	0xbca06a64	-0.019581981
14	0xbdc8f35f	-0.09812044
15	0xbe0b0e34	-0.13579637
16	0x3ddbc9f4	0.10731879
17	0xbdfa8ba7	-0.12233668
18	0x3d826618	0.06367129
19	0x3de0dafb	0.10979267
20	0x3d5d72a7	0.05406442
21	0xbdbd4876	-0.092423365
22	0xbde7d384	-0.1131964
23	0xbd9b3d4a	-0.07580049
24	0x3d63715c	0.05552803
25	0xbdaee9f4	-0.08540717
26	0xbbd34e45	-0.0064485394
27	0x3dcb39f4	0.09923163
28	0x3d8d8368	0.069098294
29	0x3d868430	0.065681815
30	0x3c480047	0.012207097
31	0x3e281957	0.16415916
32	0x3db31783	0.08744719
33	0xbd82b373	-0.063818835
34	0x3d879f24	0.066221505
35	0xbc9eda76	-0.01939128
36	0xbde058b3	-0.10954418
37	0xbd4270e1	-0.04747093
38	0xbddf14c0	-0.108926296
39	0xbd9046ba	-0.0704474
40	0xbc2f0275	-0.010681738
41	0xbd1eaa16	-0.038736425
42	0xbdf6fa0f	-0.12059414
43	0x3d50e04d	0.05099516
44	0x3e11bbc8	0.14231789
45	0xbddb1782	-0.10697843
46	0x3e342476	0.17592034
47	0x3d577646	0.05260303
48	0x3aec188d	0.0018012688
49	0xbdf6274d	-0.12019215
50	0xbc91f132	-0.017815206
51	0x3e00f274	0.12592489
52	0x3d3ccce0	0.04609382
53	0x3db1bd1a	0.086786464
54	0xbd999111	-0.07498372
55	0xbda11825	-0.07865933
56	0x3c0ca671	0.008584605
57	0x3d061c4d	0.032741833
58	0x3dd05616	0.101726696
59	0xbaf9f671	-0.0019070638
60	0x3ddee6e1	0.108838804
61	0xbd45ca8c	-0.048288867
62	0x3d47137b	0.048602562
63	0xbcb1c3de	-0.021699842
64	0xbe09215a	-0.13391629
65	0xbc8ad49b	-0.016947081
66	0x3c25191d	0.010076788
67	0xbd10fb58	-0.03539595
68	0x3e0df5d4	0.13863307
69	0xbda91ae4	-0.08257082
70	0xbc171e51	-0.009223537
71	0xbd51499a	-0.051095583
72	0xbd0c7bba	-0.034297682
73	0x3e06a42a	0.13148561
74	0x3e4de347	0.2010623
75	0xbc5ca99c	-0.013468172
76	0x3dc32c17	0.09529894
77	0xbe75bb1b	-0.23997156
78	0xbe1ff769	-0.15621723
79	0x3e61e025	0.2205816
80	0x3d240df9	0.040052388
81	0xbdd7f4ec	-0.10544762
82	0x3da191bb	0.07889124
83	0xbc3a29b7	-0.011362485
84	0x3cbf34d9	0.02334063
85	0x3dd63ecc	0.10461196
86	0x3e003a9e	0.1252236
87	0xbdc55c91	-0.09636796
88	0xbe50e14b	-0.20398442
89	0x3cfd057f	0.03088641
90	0x3d51e6bb	0.051245432
91	0xbd3d2d8a	-0.046186008
92	0xbd1d8db0	-0.0384652
93	0xbd268ab2	-0.040659614
94	0x3d9d2bf1	0.07674397
95	0xbd49809d	-0.04919492
96	0x3e720fb3	0.23638801
97	0xbe5f2b59	-0.2179388
98	0xbceb647a	-0.028734434
99	0xbd9f7841	-0.077866085
100	0x3a00d1cd	0.0004914075
101	0x3e4d0b36	0.20023808
102	0x3e54ff6f	0.20800565
103	0xbc7cf272	-0.015438663
104	0xbdb9b0e0	-0.09066939
105	0x3e37ba1a	0.17942086
106	0x3d025770	0.03182167
107	0xbe3aa777	-0.18227945
108	0xbd1a9159	-0.03773627
109	0xbc1a4985	-0.0094169425
110	0xbe2e3c4d	-0.1701519
111	0xbde18635	-0.11011926
112	0xbe318fd5	-0.17340024
113	0x3daa73ba	0.08322854
114	0x3d913cd8	0.07091683
115	0xbdc5acf2	-0.09652127
116	0x3da287bd	0.07936046
117	0x3e3e1539	0.18562783
118	0x3e5c16a8	0.21493018
119	0xbe0163b6	-0.12635693
120	0x3e1ec03c	0.15503019
121	0xbdf477ab	-0.11936887
122	0x3d4ed6e6	0.050497912
123	0xbd3fec69	-0.046856318
124	0xbdb4b5ab	-0.08823713
125	0x3e31a2b7	0.17347227
126	0x3c8356e6	0.016032647
127	0xbda96885	-0.08271889
128	0x3e249b9c	0.16074985
129	0xbdd04b6c	-0.101706356
130	0xbddb4a29	-0.10707504
131	0x3e227d17	0.1586803
132	0x3cd91941	0.0265013
133	0xbdc3611a	-0.09540005
134	0xbd47226c	-0.04861681
135	0xbda192b3	-0.07889309
136	0xbdb13068	-0.08651811
137	0xbe26e7fd	-0.16299434
138	0x3c298cbf	0.010348498
139	0x3e3cafe2	0.18426469
140	0x3bbdb04d	0.005788839
141	0xbd83b89e	-0.06431697
142	0x3dd1674c	0.102247804
143	0xbe4dd72c	-0.20101613
144	0x3d21b3f8	0.039478272
145	0x3e3956e8	0.18099558
146	0x3dcf7152	0.10129036
147	0xbe15b038	-0.14618003
148	0x3d69d8ce	0.057091527
149	0x3d66a567	0.056310084
150	0xbc7ba962	-0.015360208
151	0xbd88cb97	-0.06679457
152	0xbdbe7fe1	-0.09301735
153	0x3da137ca	0.07871969
154	0xbdc585a8	-0.096446335
155	0xbdbd3213	-0.092380665
156	0xbc01c217	-0.00791981
157	0x3d3fec3c	0.04685615
158	0x3e2bed00	0.16789627
159	0x3de695d6	0.11259048
160	0x3d4c5fe2	0.04989613
161	0x3d1bcf72	0.038039632
162	0x3e05da86	0.13071641
163	0x3d1b359c	0.037892923
164	0xbb668a24	-0.0035177553
165	0x3cd321cf	0.025772957
166	0x3d2335a6	0.039846085
167	0xbe4321ba	-0.19055834
168	0x3de5503c	0.11196944
169	0xbc678c2c	-0.014132541
170	0x3c822268	0.015885547
171	0xbd8cbbab	-0.06871732
172	0xbcee6ea6	-0.029105496
173	0xbddff11f	-0.10934662
174	0x3e03388f	0.12814544
175	0x3de57578	0.11204046
176	0x3cd19437	0.02558337
177	0xbd3b2833	-0.045692634
178	0x3dd4f824	0.103988916
179	0x3e16b5b1	0.14717747
180	0xbd7231b4	-0.05912943
181	0x3d97b9c2	0.07408477
182	0xbdfacab3	-0.12245693
183	0x3dab03ea	0.08350356
184	0xbe14a46e	-0.1451585
185	0x3e13569f	0.14388512
186	0xbd258d20	-0.04041779
187	0xbd4db7d1	-0.05022413
188	0x3d577956	0.05260595
189	0x39f8fd15	0.00047490807
190	0x3e20725d	0.15668626
191	0xbdb34f9f	-0.08755421
192	0x3dd506a8	0.1040166
193	0x3df3ad64	0.11898306
194	0xbe14531a	-0.14484826
195	0xbdde95f5	-0.10868446
196	0xbdb2a906	-0.08723645
197	0x3e185a51	0.14878203
198	0x3e55f60f	0.20894645
199	0xbcf6597a	-0.030071963
200	0xbd7227d8	-0.05912003
201	0xbd39b40f	-0.045337733
202	0x3d6a494a	0.0571988
203	0x3dd9f486	0.10642342
204	0x3ddc9abf	0.10771703
205	0x3e10ca8c	0.14139766
206	0x3dd16be1	0.102256544
207	0xbdf224ea	-0.11823447
208	0x3d5bf1db	0.05369745
209	0x3e320753	0.17385606
210	0x3e28fa3a	0.16501704
211	0xbdccc931	-0.09999312
212	0xbe0fa112	-0.14026287
213	0x3ba7710a	0.005109911
214	0xbd601e92	-0.054716654
215	0xba656ab5	-0.00087515573
216	0xbcb68ec7	-0.022284878
217	0x3e23cdff	0.1599655
218	0xbd52f210	-0.05150038
219	0xbdb8cb5e	-0.09023164
220	0x3dc22d33	0.09481277
221	0xbe1a2dcb	-0.15056531
222	0x3df7f9d9	0.121082015
223	0x3d55db48	0.052211076
224	0xbdba5276	-0.090977594
225	0x3dac2a94	0.08406559
226	0x3d73cefc	0.059523568
227	0xbe04ed16	-0.12981066
228	0xbdb01c2f	-0.085991256
229	0xbdd41a2f	-0.103565566
230	0x3d997014	0.0749208
231	0xbe268ed8	-0.16265428
232	0xbdac1107	-0.08401685
233	0xbcc89275	-0.024483899
234	0x3dbf5f23	0.09344318
235	0x3e05bbd4	0.13059932
236	0x3b64dd87	0.003492208
237	0xbe2ec58f	-0.1706755
238	0xbd776507	-0.06039908
239	0xbd87c5d5	-0.0662953
240	0xbd5eaa95	-0.0543619
241	0x3d8f92f9	0.07010455
242	0x3ddab8da	0.10679789
243	0x3e2c34e8	0.16817057
244	0x3be25e92	0.0069082463
245	0x3df519a1	0.11967779
246	0xbe3afb29	-0.18259872
247	0x3e21c641	0.15798284
248	0xbde11d1f	-0.109918825
249	0x3d9312c6	0.07181315
250	0xbdab9dcf	-0.08379709
251	0x3da6bbc6	0.08141284
252	0x3e2a814f	0.1665089
253	0x3c0ca3a0	0.008583933
254	0xbbac8141	-0.0052644317
255	0xbd88de92	-0.06683077

transformer.layers.0.self_attn.in_proj_bias f4 [192]
0	0xbcbcca2e	-0.023045626
1	0x3d90cead	0.0707067
2	0xbd58c049	-0.052917752
3	0xbd02a152	-0.03189213
4	0x3d89f200	0.06735611
5	0xbd86cf55	-0.06582514
6	0xbd29ab07	-0.04142287
7	0xbd8aefcf	-0.06784021
8	0x3d35c602	0.044378288
9	0xbd1c730e	-0.038195662
10	0xbd60fa3e	-0.05492615
11	0xbd2eafa6	-0.04264798
12	0xbcf99786	-0.03046776
13	0x3d21f1d1	0.039537255
14	0x3d76b85f	0.060234424
15	0x3d20ed3a	0.039288737
16	0x3cbdc3da	0.023164678
17	0xbd8f7752	-0.070051804
18	0x3d81244b	0.063057505
19	0xbd2913b5	-0.04127856
20	0x3d62b99d	0.055352796
21	0x3d31429c	0.043276414
22	0x3d55875f	0.052131053
23	0xbd5063e7	-0.050876524
24	0x3da84aef	0.082174174
25	0x3da2fd81	0.07958508
26	0xbc699c9d	-0.014258531
27	0xbd375ac2	-0.044764288
28	0xbd0649f6	-0.03278538
29	0x3da30a71	0.07960976
30	0xbd371f98	-0.044707865
31	0xbbd3c66e	-0.0064628636
32	0x3d35a11b	0.044343095
33	0xbd8291cd	-0.063754655
34	0x3d414463	0.04718436
35	0x3c95728e	0.0182431
36	0xbc4f4743	-0.012651267
37	0xbd781031	-0.060562316
38	0x3c169e0c	0.009192955
39	0xbd39bdd3	-0.045347046
40	0xbd86a02d	-0.0657352
41	0x3d3862bd	0.04501604
42	0xbd5cd0b6	-0.05390998
43	0x3d5cf6f9	0.05394647
44	0x3d966579	0.07343573
45	0x3d704b51	0.058665577
46	0x3d3597ac	0.0443341
47	0xbd0c0189	-0.03418115
48	0xbd5cb5e9	-0.05388442
49	0x3c48552f	0.012227341
50	0x3d8afd2c	0.0678657
51	0xbbca2ace	-0.0061696535
52	0xbd1b10e3	-0.0378579
53	0xbd372208	-0.04471019
54	0xbd8f2ff7	-0.069915704
55	0xbd16638d	-0.036716033
56	0xbd698fd9	-0.05702195
57	0x3d05164f	0.03249198
58	0x3d86a572	0.06574525
59	0xbd13f739	-0.03612444
60	0x3cdb2ccf	0.026754765
61	0xbd23cfc4	-0.039993063
62	0x3d96c166	0.073611066
63	0xbd646818	-0.055763334
64	0xb68c6f5e	-4.18529e-06
65	0xb6b4f8e8	-5.3933945e-06
66	0x35079a34	5.0515814e-07
67	0x354dc751	7.6658495e-07
68	0x371705ee	9.001682e-06
69	0x35ff5e3c	1.9026406e-06
70	0x3635dde2	2.7100255e-06
71	0x372dc9e0	1.0358606e-05
72	0xb669ca51	-3.483747e-06
73	0x361a0da0	2.295572e-06
74	0xb67c937d	-3.7636776e-06
75	0x36678f42	3.450507e-06
76	0x364751c8	2.9700914e-06
77	0xb75ca304	-1.3150977e-05
78	0xb725eb44	-9.889543e-06
79	0xb62c7da1	-2.5703123e-06
80	0xb7241a2c	-9.781255e-06
81	0x35ac8755	1.2854385e-06
82	0xb7382a62	-1.0977123e-05
83	0x37461368	1.1806238e-05
84	0x363d2f9e	2.8190912e-06
85	0xb6a6969b	-4.9647183e-06
86	0xb7625a06	-1.349161e-05
87	0xb6ce676f	-6.1513197e-06
88	0xb7a54e0c	-1.9705876e-05
89	0x365dc3b2	3.3045476e-06
90	0xb6a8f79c	-5.0356157e-06
91	0x34a0983b	2.9913085e-07
92	0x36742389	3.6379517e-06
93	0x3721d6c4	9.646352e-06
94	0x378ea25d	1.7003325e-05
95	0x360236f0	1.9403487e-06
96	0x3600dfca	1.9203749e-06
97	0x36655d5b	3.4178e-06
98	0xb5aa934d	-1.2708857e-06
99	0x36394d9d	2.7612325e-06
100	0x356fd4d6	8.9344155e-07
101	0x3620322c	2.3871062e-06
102	0x36873e1d	4.0305445e-06
103	0xb681ab28	-3.864425e-06
104	0xb6694d5a	-3.476473e-06
105	0xb568f368	-8.678094e-07
106	0xb7068172	-8.017161e-06
107	0x37735453	1.4503562e-05
108	0x36b0811a	5.260238e-06
109	0xb57c3cbe	-9.3965707e-07
110	0x3691e9be	4.348548e-06
111	0x36510b44	3.1149984e-06
112	0x36313724	2.6407151e-06
113	0x358abc78	1.0336653e-06
114	0x36fd4a39	7.548628e-06
115	0xb591f0fb	-1.0873476e-06
116	0xb58f5ed6	-1.0681931e-06
117	0x358375cf	9.794547e-07
118	0x3618c592	2.2764766e-06
119	0xb5c04195	-1.4324202e-06
120	0x3608c88a	2.0382308e-06
121	0xb555052c	-7.935621e-07
122	0x36987a93	4.5442225e-06
123	0xb69bbfa3	-4.6416694e-06
124	0xb4aa45aa	-3.1715655e-07
125	0x36e89d7f	6.9324738e-06
126	0xb5f22400	-1.8040882e-06
127	0xb6a03d9e	-4.7755448e-06
128	0x39a63b77	0.00031706292
129	0xbb878054	-0.004135171
130	0x3b89939f	0.004198506
131	0xbba1a8c7	-0.00493345
132	0xbb8e87b3	-0.0043496727
133	0x3c809a69	0.015698629
134	0x3c9504b2	0.018190715
135	0x3bf0a94a	0.0073443996
136	0xbc2ef47a	-0.010678405
137	0xbc9efb72	-0.019407008
138	0xbbd0476b	-0.00635617
139	0x3b130621	0.0022434073
140	0x395aaa16	0.00020853462
141	0xbc1ee72b	-0.009698669
142	0xbb3b2a0b	-0.0028558995
143	0xbc09c4df	-0.008408754
144	0xbbd47eb2	-0.00648483
145	0xbaadbdbb	-0.0013255397
146	0x3ac7c202	0.0015240314
147	0x3b154558	0.0022776928
148	0xbb5398b5	-0.0032287065
149	0xbb86a385	-0.0041088485
150	0xbb64a538	-0.0034888517
151	0xbb28c8d7	-0.0025754476
152	0x3bf323ac	0.007420024
153	0x3ad090e7	0.0015912325
154	0xbc37970c	-0.011205446
155	0xba1ec55b	-0.000605663
156	0x3c9f6cdd	0.01946109
157	0x3c26e51a	0.010186458
158	0xbc12ce8f	-0.00896038
159	0x3b674e3d	0.0035294436
160	0x3aacff39	0.0013198621
161	0xbbbfc6bf	-0.00585255
162	0x3c1a0cc3	0.009402457
163	0x3c482e4d	0.01221807
164	0xbbe5b165	-0.0070096725
165	0x3b099ddc	0.0020998633
166	0x3b6ef3a7	0.0036461146
167	0xbbe483dc	-0.0069737267
168	0xba84fad0	-0.0010145549
169	0xbb875ddb	-0.0041310615
170	0x3b4ac9f5	0.003094313
171	0xbc43d39e	-0.011952309
172	0x3c55e780	0.013055682
173	0xba28e214	-0.00064423797
174	0x393062e4	0.00016821508
175	0xbbb118a7	-0.00540455
176	0xbbae0d39	-0.005311635
177	0x3c0caa3c	0.008585509
178	0xba754cb0	-0.00093574356
179	0xba3c5371	-0.00071840646
180	0x3c056a74	0.008143056
181	0xbc524303	-0.01283336
182	0x3b5614d2	0.0032666218
183	0xbb892785	-0.0041856193
184	0xbbebe0e0	-0.007198438
185	0x3b165fd1	0.0022945295
186	0x3a6a7b20	0.00089447387
187	0x3be8001e	0.007080092
188	0x3a818f4d	0.0009884626
189	0xbac71826	-0.0015189692
190	0xbb94e1bb	-0.0045435107
191	0xbaef4986	-0.0018256165

transformer.layers.0.self_attn.out_proj.weight f4 [64, 64]
0	0xbcaef4ae	-0.021356907
1	0x3ce7e7b6	0.02830873
2	0x3d00c56d	0.03143828
3	0x3dad6e23	0.084682725
4	0xbb1026ee	-0.002199586
5	0xbc8589fb	-0.016301146
6	0x3bed89bd	0.0072490857
7	0x3c405a89	0.011740335
8	0x3c0c8a00	0.008577824
9	0xbb3bfa0b	-0.0028682973
10	0x3cce67a3	0.025195902
11	0xbbd5d8f6	-0.006526108
12	0x3d0691bb	0.032853823
13	0xbd89f552	-0.06736244
14	0xbcf8d1b0	-0.030373424
15	0x3bd1728c	0.006391829
16	0x3bbe9ab8	0.0058167838
17	0xbca3c049	-0.01998915
18	0xbc6e64c9	-0.014550396
19	0x3c4b91b9	0.01242488
20	0x3b7f0f2b	0.0038918953
21	0xbc348697	-0.011018417
22	0x3cca0227	0.02465923
23	0xbc4acc5b	-0.012377824
24	0xb93bc651	-0.00017907588
25	0xbc88292e	-0.016621199
26	0x3cbdfe92	0.023192678
27	0x3cac3161	0.02101964
28	0xbbe4b73d	-0.0069798515
29	0x3c2a3e74	0.010390867
30	0x3b94051e	0.0045172116
31	0x3cb3b17b	0.021935215
32	0xbc9804bf	-0.01855695
33	0x3b9cfd07	0.0047909054
34	0x3ba9931a	0.0051750066
35	0x3a8b076e	0.0010607073
36	0xbb937847	-0.004500422
37	0xbbe51d5e	-0.006992026
38	0x3a742166	0.0009312838
39	0x3cde5828	0.027141646
40	0x3c382649	0.011239597
41	0xbc9ed606	-0.019389164
42	0xbc860b7e	-0.016362902
43	0x3d151355	0.03639539
44	0x3d0e1454	0.034687355
45	0x3d5dcf1a	0.054152586
46	0xbc0941e4	-0.008377526
47	0x3c894305	0.01675559
48	0xbc8bed86	-0.017081033
49	0x3c2ef652	0.0106788445
50	0xbb7968f6	-0.0038056946
51	0x3d0d2c40	0.03446603
52	0xbcabc42f	-0.020967571
53	0xbd486e7a	-0.048933484
54	0x3d03ad39	0.03214762
55	0x3ce6bd42	0.028166417
56	0xbb23028a	-0.002487334
57	0x3c8eb36c	0.01741954
58	0xbce655a1	-0.028117003
59	0x3c8c5bb0	0.017133564
60	0x3bc988fb	0.0061503625
61	0xbcbd7b60	-0.023130119
62	0x3c011084	0.007877473
63	0x3c8548cc	0.016270064
64	0x3db0dd47	0.08635955
65	0x3b1df94a	0.0024104887
66	0x3ad60458	0.0016328199
67	0xbdd17d81	-0.10229016
68	0xbd87b84d	-0.066269495
69	0x3dc33025	0.09530667
70	0x3d8816b1	0.06644953
71	0xbccee479	-0.025255429
72	0xbd473eff	-0.048644062
73	0xbc631524	-0.013860021
74	0xbc9ab72b	-0.01888617
75	0x3c8542cf	0.016267208
76	0x3a97c39a	0.001157868
77	0x3c129fd5	0.00894924
78	0x3d3b64d0	0.04575044
79	0x3c8e283c	0.01735317
80	0xbc259341	-0.010105909
81	0x3cb0e7e7	0.021594955
82	0x3c895d3b	0.016768089
83	0xbba931ac	-0.005163392
84	0xbd0af88a	-0.03392843
85	0xbd0b48a3	-0.03400482
86	0x3ca1a5b2	0.01973233
87	0x3748f9a0	1.1979049e-05
88	0x3cba97a9	0.022777395
89	0x3c40289c	0.011728432
90	0xbcb4961b	-0.022044232
91	0xbd30c6dd	-0.0431584
92	0xbbc0e2af	-0.005886398
93	0xbc6077fe	-0.013700483
94	0xbc289ef2	-0.010291802
95	0xbbbcacd4	-0.0057579074
96	0x3d00bd74	0.031430677
97	0x3cc2e151	0.02378908
98	0xbcc4b79d	-0.024013335
99	0x3d06de6c	0.03292696
100	0xbd8e8917	-0.069597416
101	0xbc99437f	-0.018708942
102	0x3d3803b7	0.044925418
103	0xbdb30469	-0.087410755
104	0xbc5d2457	-0.013497434
105	0xbc1eaa66	-0.009684181
106	0xbd977cd0	-0.07396853
107	0xbd6ac928	-0.057320744
108	0xbd34d677	-0.044149842
109	0x3b3c1ca3	0.0028703592
110	0xbcb6264a	-0.022235055
111	0x3be7e523	0.007076876
112	0x3a8e8934	0.001087463
113	0xbcb49d10	-0.02204755
114	0x3cae880c	0.021305107
115	0xbd001566	-0.031270407
116	0x3c81d270	0.015847415
117	0x3d04daf0	0.032435358
118	0xbcd87625	-0.026423523
119	0x3aac8c66	0.0013164401
120	0x3c9f0747	0.01941265
121	0xbce4bdbd	-0.027922506
122	0x3c3b7853	0.011442262
123	0x3c9ca12d	0.019119823
124	0x3d64bfa5	0.05584683
125	0x3d7ac770	0.061225355
126	0xbd5e4223	-0.05426229
127	0xbcd5bbc8	-0.026090518
128	0x3cb567f4	0.022144295
129	0x3d05abaa	0.032634415
130	0x3c82023a	0.015870202
131	0xbd4bfe9e	-0.04980337
132	0x3cd5ad66	0.02608366
133	0x3c904794	0.017612256
134	0x3c077b8e	0.008269204
135	0x3c39fafc	0.011351343
136	0x3cd19ac5	0.025586495
137	0xbceaff8c	-0.028686307
138	0xbcf679d2	-0.030087385
139	0x3cbbe8b8	0.022938117
140	0xbd1b3e1d	-0.037901033
141	0x3bb2fbea	0.0054621594
142	0x3c323a2b	0.010878126
143	0x3cb65761	0.022258462
144	0x3c59dbdb	0.013297047
145	0xbbc703ce	-0.0060734516
146	0x3ca09c9f	0.019605933
147	0xbcc99eb0	-0.0246118
148	0xbc7786dc	-0.015107837
149	0x3c0ad850	0.0084744245
150	0xbbd4989f	-0.0064879204
151	0xbce4e04e	-0.027938988
152	0x3d54a9f7	0.051919904
153	0xbcf5c075	-0.029998997
154	0xbbc7a2d1	-0.0060924073
155	0x3d012714	0.03153141
156	0xbc7c27b6	-0.015390327
157	0x3cbae557	0.022814436
158	0x3bd85005	0.006601336
159	0xbbfbb104	-0.007681014
160	0xbc487303	-0.012234452
161	0x3c761fe8	0.0150222555
162	0xbc9422db	-0.018083027
163	0x3bbb8072	0.005722099
164	0x3c996a05	0.018727312
165	0xbc1cd160	-0.009571403
166	0xbcac6b61	-0.021047296
167	0xbcb85d57	-0.022505445
168	0xbc2f677d	-0.010705826
169	0xbc96bfbf	-0.018401979
170	0xbbd5331e	-0.006506338
171	0x3c281631	0.010259197
172	0xbc33b9a6	-0.010969555
173	0xbad16998	-0.0015976904
174	0xbbee2adb	-0.0072682924
175	0x3cffba33	0.031216716
176	0xbc052661	-0.008126826
177	0xbd0f9c5b	-0.03506122
178	0xba984bee	-0.0011619308
179	0xbd43211e	-0.047639005
180	0xbc45ba73	-0.012068379
181	0x3d1bfafa	0.038081147
182	0xbc01999d	-0.007910159
183	0x3c51f7a0	0.012815386
184	0x3c8d391e	0.01723915
185	0x3b0c73ad	0.0021431253
186	0x3c6b963b	0.014379079
187	0xbd294069	-0.041321192
188	0xbbcb7e54	-0.006210128
189	0xbc781ee8	-0.015144087
190	0xbc0575cf	-0.008145764
191	0xba629fda	-0.00086450356
192	0x3d48cf4b	0.049025815
193	0x3c0c6474	0.008568872
194	0xbd07ad41	-0.033124212
195	0xbd52ef8a	-0.051497974
196	0xbc99a94a	-0.018757481
197	0xbd0f030c	-0.034915015
198	0xbae44ddc	-0.0017418223
199	0xbcc36956	-0.023853939
200	0x3aba03c6	0.0014191798
201	0xbb95de0c	-0.004573589
202	0xbc876d49	-0.016531603
203	0x3c02edf4	0.007991303
204	0xbd04dff6	-0.03244015
205	0x3d66af27	0.056319382
206	0xbc15dd56	-0.009147009
207	0x3cfdd48a	0.030985136
208	0xbd096092	-0.033539362
209	0xbb9e2c68	-0.004827071
210	0xbbe87dea	-0.0070950883
211	0xbc8ebdbe	-0.01742446
212	0x3baed4c0	0.0053354204
213	0xbc5a35fd	-0.013318536
214	0x3d1b505b	0.03791843
215	0x3c9daec3	0.019248372
216	0x3d098cd0	0.033581555
217	0xbb34ee51	-0.0027607868
218	0x3c661e28	0.014045276
219	0x3c80f365	0.01574106
220	0xbc754441	-0.014969886
221	0xbc75722d	-0.014980835
222	0xbcee247a	-0.029070128
223	0xbc869009	-0.016426103
224	0x3cb10da2	0.021612946
225	0x3bb8fda3	0.00564547
226	0xbc0091bb	-0.007847245
227	0x3d011545	0.031514425
228	0xbc8b58b1	-0.017010065
229	0xbd017415	-0.031604845
230	0x3cf1c2f1	0.0295119
231	0xbd14409e	-0.036194436
232	0xbd1f8ef8	-0.038954705
233	0xbcdd8b2a	-0.027043898
234	0x3b318faa	0.0027093687
235	0xbd4328cb	-0.047646325
236	0xbc9d09ce	-0.019169714
237	0xbbd72cca	-0.0065666186
238	0x3becd8bf	0.0072279866
239	0xbc811b19	-0.015759991
240	0x3c9ba458	0.018999264
241	0x3c884cb2	0.016638134
242	0x3d1c1f39	0.038115714
243	0xbb8d9d5c	-0.004321737
244	0x3c61a81b	0.01377299
245	0x3d3c6be7	0.04600134
246	0xbcc6b88f	-0.024257926
247	0xbb35fc3f	-0.0027768759
248	0x3d6068d2	0.054787464
249	0xbd12a0cc	-0.03579788
250	0x3caeea65	0.021352002
251	0xbc01ed39	-0.007930093
252	0x3cc5983e	0.024120446
253	0x3ccb48f1	0.024815055
254	0xbd91882b	-0.0710605
255	0xbc8260d2	-0.015915308

transformer.layers.0.self_attn.out_proj.bias f4 [64]
0	0xba98137a	-0.0011602484
1	0x3bd3cb7b	0.0064634657
2	0xb8981f62	-7.25377e-05
3	0x3a5d78a3	0.0008448457
4	0x3a5836c3	0.0008247906
5	0xbb7e20df	-0.0038776917
6	0x3aa15f1b	0.0012311669
7	0xbb586513	-0.003301923
8	0xbbfb53d4	-0.007669905
9	0x3a822fab	0.0009932419
10	0xbbf2ca11	-0.007409342
11	0x3bc7cc03	0.006097318
12	0xbba8e746	-0.005154523
13	0xbb4930bd	-0.0030699216
14	0xbb718e7b	-0.0036858607
15	0xbc1415a9	-0.009038367
16	0x3aa144ea	0.0012303863
17	0xbb7b6b36	-0.0038363463
18	0x3c10f2b7	0.00884693
19	0x3af14336	0.0018406871
20	0x398c7619	0.0002679087
21	0x3c105a43	0.008810583
22	0x3bfc0a44	0.0076916534
23	0x3ab5c2d1	0.0013867264
24	0xbba05352	-0.004892745
25	0xbbdad198	-0.0066778176
26	0xbb43e649	-0.00298919
27	0x3bd2e8be	0.0064364364
28	0xbbaa5cec	-0.0051990654
29	0x3b03c200	0.0020104647
30	0x3b8878c5	0.0041647875
31	0xbba294e1	-0.0049615954
32	0x391b9ff2	0.00014841536
33	0x3a3e2580	0.0007253513
34	0xbbaf05a7	-0.00534125
35	0x3b082fa1	0.0020780342
36	0x3b266b86	0.0025393679
37	0x3bafdd85	0.0053669834
38	0xbba129c7	-0.0049183103
39	0xbc0bf1d6	-0.008541545
40	0xbbbfecdd	-0.0058570937
41	0x3bb0baa4	0.005393343
42	0x3b1f277d	0.0024285011
43	0xbb965b07	-0.004588488
44	0x3b782cb1	0.0037868435
45	0x3a6db1f7	0.00090673513
46	0x3b88f92b	0.0041800938
47	0x3bbd2fe5	0.0057735317
48	0x3beba286	0.007191005
49	0xbb3ce97e	-0.0028825696
50	0xbc504d89	-0.012713798
51	0x3c2dfc03	0.010619166
52	0xbbf18aaa	-0.0073712664
53	0x3c06a673	0.0082183955
54	0x3bb4405c	0.0055008363
55	0x3c19271f	0.009347706
56	0x3b0fcd5e	0.0021942477
57	0xbaf9757c	-0.0019032205
58	0x3b3ce7df	0.002882473
59	0x3ab18cbc	0.001354597
60	0x3ba44e22	0.005014197
61	0xbc15b800	-0.009138107
62	0x3c0f4ef3	0.00874685
63	0xbb854fe2	-0.0040683607

transformer.layers.0.linear1.weight f4 [128, 64]
0	0xbc7ee4a8	-0.015557446
1	0x3c359dd2	0.011084991
2	0xbc035fac	-0.008018415
3	0x3d4243eb	0.047428053
4	0xbb5ceb96	-0.0033709756
5	0xbd0573ed	-0.03258126
6	0xbd0f0a14	-0.03492172
7	0xbd133c27	-0.035946038
8	0x3d2506ca	0.040289678
9	0xbb9f80c6	-0.004867646
10	0xbbe6bf73	-0.0070418655
11	0xbcb0f5ed	-0.021601642
12	0xbd14e712	-0.03635318
13	0x3cb7dbd5	0.022443691
14	0xbc35d93d	-0.011099157
15	0xbd26a4df	-0.040684577
16	0x3d05111f	0.03248703
17	0x3b9e8655	0.004837791
18	0xbbd144f3	-0.006386393
19	0xbbdaea9c	-0.0066807996
20	0x3d1a4f60	0.037673354
21	0xb9898e44	-0.00026236672
22	0x3ca79e2b	0.020461163
23	0xbad6544a	-0.0016352024
24	0xbca2f78e	-0.019893434
25	0xbc91a3e3	-0.017778343
26	0x3cdc3fd9	0.026885914
27	0x3d3b4cbe	0.045727484
28	0x3b84dce2	0.0040546516
29	0xbba5d1d7	-0.0050604152
30	0xbc977729	-0.018489437
31	0x3c025fb5	0.007957389
32	0xbc3e57de	-0.011617629
33	0xbc3baedd	-0.011455265
34	0xbb200f4d	-0.0024423182
35	0x3cacf03b	0.021110645
36	0x3ba478d2	0.0050192857
37	0xbb527dc8	-0.0032118428
38	0xbb227ad6	-0.0024792454
39	0xbd030aef	-0.03199285
40	0x3ca26d1e	0.019827422
41	0xbc9f5876	-0.019451361
42	0xbc71253e	-0.014718352
43	0xbb615d01	-0.003438771
44	0x3c9b28fb	0.01894044
45	0x3d1e63e5	0.038669486
46	0x3ca61e6c	0.020278178
47	0x3c9b8354	0.01898352
48	0xbd1e0709	-0.038580928
49	0xbd5f5dfb	-0.054532986
50	0xbb510b49	-0.0031897596
51	0x3b287985	0.0025707197
52	0x3cfd11d8	0.030892298
53	0xbd1a8b36	-0.03773042
54	0xbd46e78c	-0.048560664
55	0x3ba3c4da	0.004997832
56	0x3cd77f74	0.026305892
57	0x3cb001c7	0.021485223
58	0xbca6823e	-0.020325776
59	0xbb5d4d97	-0.003376817
60	0x3a820c0c	0.0009921803
61	0x3cb7812c	0.022400461
62	0x3d3acff9	0.045608494
63	0x3ca22a40	0.019795537
64	0xbd0697c6	-0.032859586
65	0x3d1eb47f	0.038746353
66	0xbd038903	-0.032113086
67	0xbc63345c	-0.013867464
68	0xbd0b1d3d	-0.03396343
69	0xbbcc57a4	-0.0062360335
70	0x3ca2a42b	0.019853672
71	0xbc2f7d50	-0.010711029
72	0xbcfcff42	-0.030883435
73	0xbc82210c	-0.015884899
74	0x3c4ab240	0.0123716
75	0x3cc7c41e	0.024385508
76	0x3d1f3482	0.038868435
77	0x3cc00763	0.023441022
78	0xbc59be88	-0.013290055
79	0xbc8ae21c	-0.01695352
80	0x3d083d43	0.03326155
81	0x3d5e9090	0.054337084
82	0xbd25995e	-0.040429465
83	0x3ca9f382	0.020745996
84	0x3a42b624	0.0007427654
85	0xbbb320bb	-0.0054665483
86	0xbc85e5fd	-0.016345019
87	0xbba43896	-0.0050116284
88	0xbc180021	-0.0092773745
89	0xbd517247	-0.051134374
90	0x3d2eab97	0.04264411
91	0xbc02e1bd	-0.0079883905
92	0x3d1c0875	0.038094003
93	0x3d29931b	0.041400056
94	0xbca0546d	-0.019571507
95	0xbc363433	-0.011120844
96	0xbc0209c4	-0.007936899
97	0xbc96ebec	-0.018423043
98	0xbc6907a0	-0.014223009
99	0xbd55e324	-0.05221857
100	0xbc950074	-0.018188693
101	0x3c9be77a	0.019031275
102	0x3c565f5b	0.013084258
103	0x3cf81778	0.030284628
104	0xbc1746e7	-0.009233213
105	0x3c04e61c	0.008111503
106	0x3bf6307a	0.007513103
107	0xbc8b5628	-0.017008856
108	0xbd0dd6db	-0.03462873
109	0xbc75bbc1	-0.014998377
110	0xbcd83598	-0.026392743
111	0x3b091dd3	0.0020922318
112	0xbd3d4a9d	-0.046213735
113	0xbc1a55fa	-0.0094199125
114	0x3d2a00e0	0.04150474
115	0x3d582c05	0.052776355
116	0x3c591d51	0.0132516185
117	0x3d01275c	0.031531677
118	0xbca51d1f	-0.020155488
119	0xbc8aacf6	-0.016928177
120	0x3c696db6	0.0142473485
121	0xbcce0320	-0.025147974
122	0x3b3e6754	0.0029053288
123	0xba4dd356	-0.0007851621
124	0xbcfe6ce2	-0.031057779
125	0xbc1647ee	-0.009172423
126	0xb9fe60a2	-0.00048518652
127	0xbc527e62	-0.012847515
128	0x3c920199	0.017823027
129	0x3b2163ac	0.002462606
130	0xbb0e3832	-0.0021700975
131	0xbbdfa105	-0.006824615
132	0x3cac73b8	0.021051273
133	0xbc3305c0	-0.010926664
134	0x3a8a49ee	0.0010550597
135	0xbd390c5c	-0.045177802
136	0x3bc434d8	0.005987745
137	0x3c7f41e9	0.015579679
138	0xbcd37040	-0.02581036
139	0x3d7ed6f2	0.062216707
140	0xbcf3cf10	-0.029761821
141	0xbd17f148	-0.037095338
142	0xbbbaf6e7	-0.0057057026
143	0x3d0dd9ff	0.034631725
144	0xbc903537	-0.0176035
145	0xbd1da996	-0.038491808
146	0x3c39ed49	0.011348077
147	0xbcd3e654	-0.025866665
148	0xbcc85e28	-0.02445896
149	0x3b5f3b5c	0.003406248
150	0x3c720201	0.014770986
151	0x3cbc5d43	0.02299369
152	0xbbc9a10d	-0.006153232
153	0x3d19d7c9	0.037559304
154	0xbcc7c68b	-0.024386665
155	0xbc70d109	-0.014698275
156	0xbc4678e1	-0.012113781
157	0xbd29564a	-0.041342057
158	0xbd03eb9d	-0.03220712
159	0xbbca8311	-0.006180175
160	0x3d64d99e	0.0558716
161	0x3c872af8	0.016499981
162	0xbcc5920a	-0.024117488
163	0x3cd5b503	0.02608729
164	0x3d397338	0.045275897
165	0x3cd92780	0.026508093
166	0xbc0fe39b	-0.008782293
167	0xbd4daa3b	-0.050211173
168	0x3d3d3820	0.046196103
169	0x3c1a7017	0.009426138
170	0x3993c407	0.00028184077
171	0x3c5f7513	0.0136387525
172	0xba08a100	-0.0005211979
173	0x3c5c5f91	0.013450519
174	0x3c99af93	0.018760478
175	0x3c4339e6	0.0119156595
176	0x3c1a725a	0.009426678
177	0x3d19bbf8	0.037532777
178	0x3bf7e5b9	0.007565227
179	0x3d206a73	0.039164018
180	0x3c101655	0.008794387
181	0x3bf40cd7	0.0074478197
182	0x3d287a8c	0.041132495
183	0x3b292737	0.0025810727
184	0xbc3e0777	-0.011598459
185	0x3b6428cb	0.0034814354
186	0x3d2ab646	0.041677736
187	0x3d459636	0.048238955
188	0x3c8d414d	0.017243052
189	0xbc2f527c	-0.010700818
190	0x3d06f73f	0.032950636
191	0xbd3f561e	-0.046712987
192	0xbcde3e51	-0.027129324
193	0xba1f53dc	-0.00060778647
194	0x3cfd7d98	0.030943677
195	0x3cdd0c82	0.026983503
196	0x3ac6bf1e	0.0015163159
197	0xbccfe819	-0.025379227
198	0x3c90cdbf	0.017676232
199	0x3c9a2677	0.01881717
200	0x3bbff535	0.0058580884
201	0xbc68f350	-0.0142181665
202	0x3d01f8b6	0.03173133
203	0x3c954921	0.018223347
204	0x3d1b49f3	0.03791232
205	0x3d59b127	0.05314746
206	0x3cb38be0	0.021917284
207	0xbd251a55	-0.040308315
208	0x3c106119	0.008812212
209	0xbc77eb31	-0.015131758
210	0x3cd819b1	0.026379438
211	0x3c735046	0.014850682
212	0xbd7f3e8b	-0.062315505
213	0xbcac544f	-0.021036295
214	0xbd012a08	-0.031534225
215	0xbc99b70a	-0.018764038
216	0xb9a92c20	-0.00032267068
217	0xbcb3ee1a	-0.021964122
218	0x3c6fd1e6	0.014637446
219	0xb9495444	-0.00019200245
220	0x3bb34b91	0.0054716547
221	0xbcb7351f	-0.022364197
222	0xbcf4e97d	-0.029896492
223	0xbbb1e8cd	-0.0054293633
224	0x3c12cac6	0.008959478
225	0xbcf19479	-0.029489743
226	0x3cc36ad5	0.023854652
227	0xbd29ff24	-0.041503087
228	0x3cf39c04	0.02973748
229	0x3d67fc55	0.056637127
230	0xbd2860e5	-0.04110803
231	0x3c894fba	0.01676165
232	0xbbfa3ace	-0.0076364046
233	0xbd3fd166	-0.046830557
234	0x3b84cfd0	0.0040530935
235	0x3a9a780c	0.0011785044
236	0x3c96c543	0.018404609
237	0xbb127145	-0.0022345346
238	0xbbebe9f5	-0.0071995207
239	0xbd443460	-0.04790151
240	0xbd2d05d9	-0.042241905
241	0xbca3c682	-0.019992117
242	0x3b1d53ab	0.0024006169
243	0xbc0398c9	-0.008032032
244	0x3cba938f	0.02277544
245	0xbd078052	-0.03308136
246	0xbc14023c	-0.009033736
247	0x3cd0162d	0.0254012
248	0x3c659743	0.014013114
249	0xbbe576a6	-0.0070026694
250	0x3c84a509	0.016191976
251	0x3cc2f1e0	0.023796976
252	0x3d2b7ee0	0.041869044
253	0x3bfd2ced	0.007726303
254	0x3d25b60e	0.040456824
255	0x3b48440a	0.0030558133

transformer.layers.0.linear1.bias f4 [128]
0	0xbba91850	-0.005160369
1	0x3c245706	0.010030514
2	0x3bedbe29	0.007255335
3	0xbbe199d7	-0.006884794
4	0x3c8d60c8	0.017258063
5	0xbc0411e5	-0.008060907
6	0xbc04fab1	-0.00811641
7	0x3cb438ad	0.021999681
8	0xbbbba7a9	-0.0057267738
9	0xba757827	-0.00093639124
10	0x3bfbd4b9	0.0076852706
11	0x3c3fd9a4	0.011709604
12	0x3b9c30f5	0.0047665783
13	0xbc7898f3	-0.015173185
14	0x3c85a2d3	0.016312992
15	0x3b772795	0.0037712802
16	0x3b2cda0a	0.0026375079
17	0x3b873aa6	0.0041268645
18	0x3b190ad1	0.0023352394
19	0xbbff6e82	-0.007795156
20	0x3babc0ac	0.005241474
21	0x3c369d95	0.011145969
22	0xbbb02c72	-0.005376392
23	0x3c073a11	0.00825359
24	0xbbeca561	-0.007221863
25	0xb900ef82	-0.00012296255
26	0x3c7f6dd0	0.015590146
27	0xbbc68da9	-0.0060593677
28	0xbb67e516	-0.0035384349
29	0x3bd60398	0.00653119
30	0x3c715b1f	0.014731198
31	0xbc648d15	-0.013949652
32	0x3c76cfd7	0.015064201
33	0xbbc14d01	-0.005899072
34	0x3c17acc7	0.009257502
35	0x3c948aca	0.018132586
36	0x3bf67302	0.007521034
37	0x3be4c1ab	0.006981095
38	0x3bb0d030	0.0053959116
39	0x3c668481	0.014069677
40	0x3b2f95d6	0.002679219
41	0x3adb70ff	0.001674205
42	0xbc3f4f78	-0.011676662
43	0x3c69e9be	0.01427692
44	0x3c616715	0.013757487
45	0x3c704cbe	0.014666734
46	0x3bf55040	0.007486373
47	0x3c50616e	0.012718542
48	0xba32d7a5	-0.00068222947
49	0x3c41e68c	0.011834752
50	0x3c884969	0.016636567
51	0xbbd1d5c2	-0.0064036557
52	0x3c85934b	0.016305586
53	0xbab45258	-0.001375745
54	0xbc372b5b	-0.01117977
55	0x3c740eef	0.014896139
56	0x3c3a0a3b	0.011354978
57	0x3c5690cb	0.013096045
58	0x3c68fa0f	0.014219775
59	0xbc352170	-0.011055335
60	0xbc30befe	-0.010787724
61	0xb9d278b4	-0.00040144252
62	0xbb8f0b3a	-0.004365352
63	0x3c8715b4	0.016489841
64	0x3960d84d	0.00021442883
65	0x3c9ed420	0.019388258
66	0xbc7fbe3c	-0.01560932
67	0xbb08dfec	-0.002088542
68	0x3a872a01	0.0010312201
69	0x3b1fcb63	0.0024382703
70	0x3c4d17b9	0.012517863
71	0x3b9299fe	0.0044739237
72	0x3c309e7f	0.010779976
73	0x3bf3a8cb	0.007435893
74	0x3ad3c624	0.0016157073
75	0x3c3e69be	0.011621891
76	0xbafbc17a	-0.0019207441
77	0x3cd6c292	0.026215825
78	0x3c9718c1	0.01844442
79	0x3c09958e	0.008397473
80	0x3c2bd549	0.010487863
81	0x3c89c4ae	0.016817417
82	0x3c529f7a	0.012855405
83	0x3c6d7b21	0.014494688
84	0xbc43540f	-0.011921897
85	0x3b650606	0.0034946217
86	0x3c5219b3	0.01282351
87	0x3b27a5db	0.0025581035
88	0xbb7e5b70	-0.0038811825
89	0xbbfb8c87	-0.0076766643
90	0x3c656b49	0.01400263
91	0x3c884a50	0.016636997
92	0x3c6008a9	0.01367394
93	0x3c18c9b9	0.009325438
94	0xbb6c8bff	-0.0036094186
95	0x3c884e26	0.016638827
96	0x3c0144a5	0.007889901
97	0x3c58ed7e	0.013240216
98	0x3b3716d0	0.0027937181
99	0x3c5509c9	0.013002821
100	0x3c9beda8	0.019034222
101	0x3cbc0619	0.022952126
102	0x3cff0c16	0.031133693
103	0xbb271a83	-0.002549798
104	0x3cd7ae14	0.026328124
105	0xbc2974fe	-0.0103428345
106	0x3b262f21	0.002535768
107	0x3c851bd9	0.01624863
108	0x3ac29cea	0.001484779
109	0x3c940d72	0.018072817
110	0x3c4eb2e8	0.012615897
111	0x3c4cc5f2	0.012498366
112	0x3c09f704	0.0084207095
113	0x3be40b8b	0.006959384
114	0xbc4ae569	-0.012383797
115	0x3c3b238f	0.011422052
116	0xbb40b96e	-0.00294074
117	0x3c8cac32	0.017171953
118	0x3c6215dc	0.013799157
119	0x3c659483	0.014012459
120	0x3b5ed077	0.0033998766
121	0x3bdcfaf6	0.006743784
122	0xbb2a0f07	-0.0025948898
123	0x3c507f7a	0.012725705
124	0x3c6a8d35	0.014315893
125	0x3c00f1b0	0.007870123
126	0x3c3b6fc2	0.011440219
127	0x3c12d974	0.008962978
