marble_model/best_model_v3.0_20250531_010434.pt (torch, 295593 bytes, 30 tensors)

token_embedding.weight f4 [13, 64]
0	0x3b8b4eb0	0.0042513236
1	0xbc91a554	-0.01777903
2	0x3cb932f7	0.02260731
3	0xbcfe232e	-0.031022634
4	0xbc876fed	-0.016532863
5	0xbd4ecfec	-0.05049126
6	0xbcc7fb34	-0.024411775
7	0xb7cf5ef5	-2.472054e-05
8	0xbb79cf30	-0.0038117878
9	0xbbae37d6	-0.0053167148
10	0xbb65e6ab	-0.0035080116
11	0x3cf1514b	0.029457709
12	0x3d2b0929	0.041756783
13	0x3c615982	0.0137542505
14	0x3b558a2e	0.0032583582
15	0xbca66b19	-0.02031474
16	0xbbd62357	-0.0065349746
17	0x3be76e61	0.0070627187
18	0x3b281d9e	0.002565242
19	0x3c9460ca	0.018112559
20	0xbc6eb893	-0.014570373
21	0xbb721e06	-0.0036944165
22	0x3ceb21c5	0.028702626
23	0x3ce1aedd	0.027549202
24	0x3ca98717	0.020694299
25	0xbca7ca92	-0.020482335
26	0x3c8d07f5	0.017215708
27	0x3c126e8f	0.008937492
28	0x3b9be799	0.004757833
29	0x3befb5e6	0.007315385
30	0xbaec1613	-0.001801195
31	0x3aec4dc7	0.001802855
32	0xbd70d5e1	-0.05879772
33	0xbc8a92ee	-0.016915765
34	0x3cbd851e	0.023134764
35	0x3a788b12	0.00094811723
36	0x3b904ab4	0.0044034366
37	0xb9ebf3ee	-0.00045004435
38	0xbb3183fc	-0.0027086725
39	0x3b4eaac0	0.003153488
40	0x3b8d58ed	0.0043135793
41	0x3d00eec3	0.0314777
42	0x3cc84b0a	0.024449844
43	0x3b313d84	0.0027044723
44	0x3b7a1263	0.0038157932
45	0x3bd66869	0.0065432084
46	0x3bc33f50	0.005958475
47	0x3ccec050	0.025238186
48	0x3cb13133	0.021629905
49	0x3c91ced7	0.017798824
50	0xbc5a8f27	-0.013339794
51	0xbc8e7b00	-0.017392635
52	0xbc3ffb4e	-0.011717631
53	0x3d22f35e	0.039782874
54	0xbca013c9	-0.019540684
55	0xbcff99ab	-0.031201204
56	0xbbc62d5b	-0.0060478873
57	0x3b08a044	0.002084748
58	0xbb1298a7	-0.002236882
59	0xbc923bc0	-0.017850757
60	0x3c89229a	0.016740132
61	0xbbd5764e	-0.006514347
62	0xbc153f87	-0.009109384
63	0x3cfaa7fc	0.03059768
64	0x3c9a56b8	0.018840179
65	0xbce83dc4	-0.028349765
66	0xbd1431e1	-0.03618038
67	0x3ca801ac	0.02050861
68	0xbc3c62ab	-0.011498134
69	0xbcd651b6	-0.02616201
70	0xbce5a454	-0.02803246
71	0x3bfb3eb2	0.007667386
72	0x3c82dfc6	0.015975844
73	0x3d66974a	0.056296624
74	0xbd013804	-0.03154756
75	0xbc8cad02	-0.01717234
76	0x3d4bfc72	0.049801297
77	0x3bed507b	0.00724226
78	0xbb0e9edd	-0.002176217
79	0x3c59be35	0.013289978
80	0xbc8b9dfa	-0.017043103
81	0xbbf9ca26	-0.007622975
82	0xbcce53f2	-0.025186513
83	0x3c7ff4a9	0.015622296
84	0xbc77bb73	-0.015120375
85	0xbc84b550	-0.016199738
86	0x3cab1b15	0.020886937
87	0xbca4b58d	-0.020106101
88	0x3cb95b13	0.022626435
89	0xbd41f640	-0.047353983
90	0x3c9d1ab8	0.01917778
91	0xbc9d0368	-0.019166663
92	0x3c7b72f7	0.015347234
93	0x3d32dd38	0.043668002
94	0xbc6ad334	-0.014332581
95	0xbd1c3ee9	-0.038145933
96	0xbc783253	-0.015148717
97	0x3be41970	0.00696104
98	0x3d15559d	0.0364586
99	0xbc86be33	-0.016448116
100	0xb928cafa	-0.00016097343
101	0x3cca1f20	0.024673045
102	0xbbe8e4b4	-0.0071073417
103	0x3c2bc24e	0.010483338
104	0xbd3309cc	-0.043710515
105	0x3bd8ad87	0.006612483
106	0x3d1e9104	0.038712516
107	0x3cce1561	0.025156679
108	0x3cdd14c4	0.02698744
109	0x3d0a578e	0.033774905
110	0x3c41e221	0.0118336985
111	0x3c0965b3	0.008386063
112	0x3c98fc25	0.01867492
113	0xbd126db2	-0.035749145
114	0xbbc92391	-0.006138273
115	0xbd1571d8	-0.036485523
116	0x3c8c695a	0.01714008
117	0x3d11f6a6	0.035635613
118	0xbcd3e2d2	-0.025864992
119	0x3d7d5563	0.06184901
120	0x3d0c0a1b	0.034189325
121	0xbd01d72c	-0.031699345
122	0x3cff8d92	0.031195436
123	0xbcd548f4	-0.026035763
124	0xbd005579	-0.031331513
125	0xbca925eb	-0.020647964
126	0xbc643bf5	-0.0139303105
127	0xbca7d2f0	-0.020486325
128	0xbc95a9fb	-0.01826953
129	0xbc2c0c7b	-0.010501022
130	0xbc709cac	-0.014685791
131	0xbc0092f6	-0.007847538
132	0xbc08b5d0	-0.008344129
133	0xbc132efa	-0.008983368
134	0xbbe8cfcc	-0.0071048494
135	0xbc00f3a6	-0.00787059
136	0xbcbc1394	-0.022958554
137	0x3cad1525	0.021128247
138	0x39a6e1b9	0.00031830164
139	0xbc115c8b	-0.008872162
140	0x3c127a2f	0.008940264
141	0x3c24bdce	0.010055019
142	0xb9f8af9b	-0.00047433082
143	0xbc47c325	-0.012192522
144	0xbc89316d	-0.0167472
145	0x3ce54634	0.027987577
146	0x3ccb6cc1	0.024832131
147	0x3b349bcd	0.0027558685
148	0xbbcd2e2e	-0.0062616086
149	0x3c8eac0c	0.017416023
150	0x3c28b43d	0.010296878
151	0x3bad6b36	0.0052923216
152	0x3bac284d	0.0052538277
153	0xbba5f6d2	-0.0050648237
154	0xbb503fd8	-0.0031776335
155	0x3cf0ddc6	0.029402625
156	0x3bbf6613	0.0058410256
157	0x3c3900eb	0.011291723
158	0x3c2bb1af	0.010479375
159	0xbcd67906	-0.026180755
160	0xbcbc338e	-0.022973802
161	0x3c69d2f9	0.014271491
162	0xbc70f5a5	-0.014707004
163	0x3d03ebb7	0.032207217
164	0xbbe2be97	-0.0069196927
165	0x3d0b361c	0.03398715
166	0xbd53c1ef	-0.05169862
167	0xbca7e797	-0.020496173
168	0xbc842a0f	-0.016133336
169	0xbb99eafb	-0.0046972013
170	0xbc6c4ac7	-0.014422125
171	0x3c4a8f77	0.012363306
172	0xbcce3ea6	-0.025176357
173	0xbc409a9d	-0.011755613
174	0x3c126639	0.008935505
175	0xbc1c46b0	-0.009538338
176	0x3caedbaf	0.021344988
177	0x3b862293	0.004093477
178	0x3b85006a	0.0040588873
179	0x3b8c33ef	0.004278652
180	0xbc146a8d	-0.009058607
181	0x3c1285f6	0.008943072
182	0x3cbd35fd	0.023097033
183	0x3b8824a4	0.0041547585
184	0xbc9c611f	-0.01908928
185	0xbcd614ef	-0.026133029
186	0x3c7320b5	0.014839341
187	0xbc60c193	-0.013718027
188	0x3c0783f5	0.008271207
189	0xbc899bc8	-0.016797915
190	0xbcb77149	-0.022392886
191	0x3cb34ea7	0.02188809
192	0x3c7121df	0.014717548
193	0x3c46849b	0.012116577
194	0x3c2b3248	0.010449
195	0x3c8522c1	0.016251924
196	0x3c7a520d	0.0152783515
197	0x3d053330	0.03251952
198	0x3bd5cc99	0.006524634
199	0xbb95e3be	-0.004574268
200	0xbc48a7d1	-0.012247042
201	0xb8d8c232	-0.00010335854
202	0x3b60e856	0.003431817
203	0x3cc6195d	0.024182016
204	0xbc890366	-0.016725253
205	0xbb8c46ec	-0.0042809155
206	0xb92911f0	-0.00016123778
207	0x3be1cc38	0.0068908
208	0xbc93beba	-0.018035281
209	0x3b86d676	0.004114921
210	0x3c86c3c7	0.016450776
211	0xbc3c1a3b	-0.011480863
212	0xba09d34a	-0.000525762
213	0x3b020ba0	0.0019843355
214	0xbb88603b	-0.004161862
215	0x3b61f0bb	0.0034475762
216	0xbcdb49b1	-0.026768537
217	0xbb8b1358	-0.0042442493
218	0xb9f85fe3	-0.00047373687
219	0x3be929e4	0.0071155895
220	0xbc592b24	-0.013254914
221	0xbc9206fd	-0.017825598
222	0xbb92e835	-0.0044832476
223	0xbbda296c	-0.00665777
224	0xbb1b11e6	-0.0023661791
225	0xbc12dea3	-0.008964214
226	0x3c1f84e5	0.009736274
227	0x3b8c58e0	0.0042830557
228	0xbbe4bc05	-0.0069804215
229	0xbcd5675a	-0.026050258
230	0xbc89823e	-0.016785737
231	0xbbc11dda	-0.005893451
232	0x3be7f1eb	0.0070783994
233	0xbcaf5037	-0.021400554
234	0xbb7d9f0c	-0.0038699536
235	0xbb533541	-0.0032227787
236	0x3c291195	0.010319133
237	0x3c0bcd32	0.008532809
238	0xbc55016d	-0.013000828
239	0x3c475383	0.012165907
240	0x3acaca63	0.0015471693
241	0x3c178f0e	0.0092504155
242	0x3b2cc524	0.0026362622
243	0x3c744fa1	0.014911563
244	0xbc1380dd	-0.009002891
245	0xbc20b3d8	-0.009808503
246	0x3cacf492	0.021112714
247	0x3bbce9c4	0.0057651717
248	0xbc2566cb	-0.010095309
249	0x3c42bd4d	0.011885953
250	0x3c7835af	0.015149518
251	0xbba33d27	-0.004981655
252	0x3d37ff87	0.044921424
253	0x3c0e5820	0.008688003
254	0xbc90236b	-0.017595014
255	0xb95e175a	-0.00021180269

position_embedding.weight f4 [30, 64]
0	0xbd0c8ed0	-0.034315884
1	0xbd436681	-0.047705177
2	0xbc46e10d	-0.012138617
3	0x3d15c12f	0.036561187
4	0xbd00e3a7	-0.031467106
5	0xbbe7aafe	-0.0070699444
6	0xbc7ce9c9	-0.015436598
7	0x3c2e6d6d	0.010646206
8	0x3c12b680	0.008954644
9	0x3c55bade	0.013045041
10	0xbd40e154	-0.04708989
11	0xbd4f53ed	-0.050617147
12	0x3b13d79a	0.0022558928
13	0xbd3fd48a	-0.046833552
14	0xbc5d79f5	-0.013517846
15	0x3d0ea32e	0.03482359
16	0xbd4589d5	-0.04822715
17	0xbcdf4e00	-0.027258873
18	0xbd3939ab	-0.045221012
19	0x3ca36e64	0.0199501
20	0xbcddbc8d	-0.027067447
21	0xbd4108c7	-0.04712751
22	0x3d20c9d2	0.03925497
23	0x3cda5f73	0.026656842
24	0x3cfde084	0.030990846
25	0xbd24335e	-0.04008805
26	0xbd8db421	-0.069191225
27	0xbd463469	-0.048389826
28	0x3c00ce7f	0.0078617325
29	0xbc9ad681	-0.018901112
30	0x3d410d06	0.04713156
31	0xbc7494c1	-0.014928044
32	0xbd261679	-0.040548775
33	0xbd4e98d8	-0.050438732
34	0xbc428187	-0.011871702
35	0xbc53f171	-0.012935982
36	0x3cfe211b	0.031021645
37	0xbbdd19b4	-0.006747449
38	0x3cbcc807	0.0230446
39	0x3d0fef0d	0.035140086
40	0xbd13220e	-0.03592115
41	0x3d31fb40	0.0434525
42	0x3cb0c61f	0.021578846
43	0x3c8b57c9	0.017009633
44	0xbc12295c	-0.008920994
45	0x3b921e99	0.004459214
46	0x3c38d887	0.011282093
47	0x3c4d39f5	0.012526025
48	0xb94f13e8	-0.00019748474
49	0xbd148a04	-0.036264434
50	0xbce56ad0	-0.028005034
51	0xbc9e302b	-0.019310078
52	0x3c4b5d65	0.012412404
53	0x3c0ea6ca	0.008706758
54	0xbc2aafe0	-0.010417908
55	0xbcfbb954	-0.03072802
56	0x39a1e466	0.00030878483
57	0xbd09d103	-0.033646595
58	0x3b92bd57	0.0044781375
59	0xbd7d792c	-0.061883137
60	0xbc35f8f1	-0.011106716
61	0xbd565526	-0.052327298
62	0xbd6a6781	-0.057227615
63	0x3d2eff44	0.04272391
64	0x3c9cf848	0.019161358
65	0xbd27216c	-0.040803358
66	0x3c5e81a5	0.013580714
67	0x3d01533e	0.031573527
68	0x3c87cd2f	0.016577331
69	0xbbac5fb2	-0.005260431
70	0x3caae8c0	0.020862937
71	0xbd2a1a0f	-0.041528758
72	0xbc1fe677	-0.009759537
73	0xbd350362	-0.04419268
74	0xbad410e0	-0.0016179346
75	0x3c6fcde4	0.0146364905
76	0xbc0dd1cd	-0.008655977
77	0x3c1c9614	0.009557266
78	0x3ca17a95	0.019711772
79	0x3cbdb908	0.023159519
80	0xbbf4efe4	-0.0074748863
81	0x3cc729a4	0.024311848
82	0x3cd666bd	0.026172036
83	0xbcf97c88	-0.030454889
84	0xbc377ed6	-0.011199674
85	0xbd242956	-0.040078484
86	0x3be2dee6	0.006923544
87	0xbd0f1b30	-0.034938037
88	0xbd0a1fbb	-0.033721667
89	0x3aa7a557	0.0012790364
90	0x3c17a4e1	0.009255619
91	0xbc230913	-0.009950894
92	0xbce31683	-0.027720695
93	0xbd08eda7	-0.033429768
94	0xbc22224f	-0.009895875
95	0x3c703187	0.014660246
96	0xbcbd93c9	-0.023141759
97	0x3c9bb0fd	0.019005293
98	0xbcae63c3	-0.021287804
99	0x3d07b1ad	0.03312843
100	0x3cae91d7	0.021309776
101	0xbc129c10	-0.008948341
102	0x3c45246b	0.0120326085
103	0xbc56a1fa	-0.013100142
104	0x3c7be0ae	0.015373392
105	0xbc9a6941	-0.018849017
106	0x3d488213	0.048952173
107	0xbc3cfaef	-0.011534437
108	0xbc68fb40	-0.014220059
109	0xbd000b40	-0.03126073
110	0xbce3ddb5	-0.02781568
111	0xbcd3c017	-0.025848432
112	0xbd1446f8	-0.036200494
113	0xbd0941f7	-0.033510175
114	0x3d0d91dc	0.03456293
115	0x3b7a8a47	0.0038229392
116	0xbc17ed17	-0.009272835
117	0xbc84d6d2	-0.016215716
118	0x3cb951b0	0.02262196
119	0xbc78e28c	-0.015190732
120	0xbc3d1b0c	-0.011542093
121	0xbb379ef3	-0.0028018325
122	0xbb6d6994	-0.003622626
123	0x3ac14235	0.0014744463
124	0xbc1ebe13	-0.009688872
125	0x3ba48809	0.0050210995
126	0xbbcf3a53	-0.0063240915
127	0x3c1652d7	0.009175024
128	0x3c22d797	0.009939096
129	0xbd3031c5	-0.043016214
130	0x3cc0bf2d	0.02352866
131	0x3b8d8bdb	0.0043196506
132	0x3c3afe1c	0.011413123
133	0xbd4d6c32	-0.05015201
134	0x3c25e1dd	0.010124651
135	0xbcb7fd8b	-0.022459766
136	0xbc2f0426	-0.010682141
137	0xbce6c9ca	-0.028172392
138	0x3b0fdbf8	0.002195118
139	0xbb9ca9cf	-0.004780985
140	0xbc72ae8b	-0.014812122
141	0x3d40d990	0.047082484
142	0x3c6c33f4	0.014416683
143	0xbc1fbac7	-0.009749121
144	0x3ca8cca9	0.020605402
145	0x3c74b3f7	0.014935485
146	0xbc072883	-0.008249405
147	0xbc92103f	-0.017830012
148	0x3caefd1a	0.021360923
149	0xbcc0a814	-0.023517646
150	0x3d16ef17	0.036849108
151	0xbd634e2d	-0.055494476
152	0xbb88e9a3	-0.0041782423
153	0xbcb10beb	-0.021612128
154	0x3cd36a71	0.025807591
155	0xbc87ec8d	-0.016592288
156	0xbbc9de97	-0.006160568
157	0xbc3ff06b	-0.011715035
158	0x3c9f23b5	0.019426206
159	0x3c903352	0.017602596
160	0xbcb8fe1c	-0.022582106
161	0x3cc830f5	0.024437407
162	0xbd0ea38a	-0.03482393
163	0x3c833998	0.016018674
164	0x3d19956c	0.037496015
165	0x3c5a00b9	0.013305836
166	0xbc746a17	-0.014917872
167	0xbcb5e13d	-0.022202129
168	0x3c9064b3	0.017626142
169	0x3c3e9401	0.011631967
170	0x3c218a56	0.009859642
171	0x3c110481	0.0088511715
172	0xbd63f39c	-0.055652246
173	0xbce787bf	-0.028262971
174	0xbcec9f04	-0.028884418
175	0xbd647e4c	-0.05578451
176	0xbd0e85f0	-0.0347957
177	0xbd1c411d	-0.038148034
178	0x3cc0647f	0.02348542
179	0xb9db677d	-0.0004184804
180	0xbcc25ce0	-0.023725927
181	0xbc7f0de7	-0.015567279
182	0x3b21f00a	0.0024709725
183	0xbd28477f	-0.04108381
184	0xbc4ab585	-0.012372379
185	0x3c00a091	0.007850782
186	0xbb3bc092	-0.0028648716
187	0xb99f62e2	-0.00030400517
188	0xbd6b3c94	-0.05743082
189	0xbbf87c89	-0.007583205
190	0x3d012cb1	0.03153676
191	0x3c69ef10	0.014278188
192	0x3d19f1b3	0.037584018
193	0x3cb9054d	0.022585535
194	0x3d03db37	0.03219148
195	0x3cb43646	0.021998536
196	0x3cd403be	0.02588069
197	0x3cfbb058	0.030723736
198	0xbcddad03	-0.027060037
199	0x3d3d9479	0.046284173
200	0x3d441f63	0.047881495
201	0xbcbd9355	-0.023141542
202	0x3d3c99a0	0.046044946
203	0xbcb9ae4c	-0.022666119
204	0xbc2fa8eb	-0.0107214255
205	0xbcd10c36	-0.025518518
206	0xbd2a3d61	-0.04156244
207	0x3d4d00ec	0.050049707
208	0xbc9b07f5	-0.018924693
209	0xbcc93dd1	-0.02456561
210	0x3cd3334e	0.0257813
211	0xbbe9b8fa	-0.0071326466
212	0xbd411744	-0.04714133
213	0x3d536059	0.051605556
214	0xbca9edd8	-0.020743296
215	0x3cfc8868	0.030826762
216	0xbc185dd7	-0.009299717
217	0x3ced98d7	0.029003544
218	0xbd1e380e	-0.038627677
219	0x3d51a58d	0.051183272
220	0x3c032996	0.00800552
221	0xbc965c1f	-0.018354474
222	0xbd2b1348	-0.041766435
223	0x3d6454d6	0.05574497
224	0xbd38f126	-0.045151852
225	0x3bff3f03	0.007789494
226	0x3d3e7a9f	0.04650366
227	0xbc22d352	-0.009938078
228	0xbd1fcf05	-0.03901579
229	0x3d624058	0.055237144
230	0x3d19a12d	0.037507225
231	0xbc17345d	-0.009228793
232	0x3cfd853e	0.030947324
233	0xbcd6f13b	-0.026238075
234	0xbce10941	-0.027470233
235	0xbd049325	-0.03236689
236	0x3cbf8815	0.023380319
237	0x3d2271c6	0.039659284
238	0xbca9ca3a	-0.020726312
239	0x3ce17f92	0.02752665
240	0x3cce9ec3	0.025222188
241	0x3d07d402	0.03316117
242	0xbcafc63d	-0.021456832
243	0x3d0ed62c	0.03487222
244	0x3d311483	0.043232452
245	0xbcbb374c	-0.022853516
246	0x3ccb3af6	0.024808388
247	0x3d3b1fe9	0.04568473
248	0xbccff9d5	-0.025387684
249	0x3cf39404	0.029733665
250	0x3d163011	0.036666933
251	0x3d38f457	0.045154896
252	0x3cc5dcc8	0.024153128
253	0xbd0ebff4	-0.03485103
254	0xbcaa5d9f	-0.020796595
255	0x3c844f1d	0.016151005

transformer.layers.0.self_attn.in_proj_weight f4 [192, 64]
0	0x3dc9b5df	0.09849142
1	0x3be5c89d	0.0070124404
2	0x3da5b339	0.08090825
3	0xbc8220a0	-0.015884697
4	0x3dca425e	0.0987594
5	0xbe157539	-0.14595498
6	0xbdda3a7d	-0.10655687
7	0x3e0f00b8	0.13965118
8	0xbe24bc73	-0.16087513
9	0x3debde8f	0.11517059
10	0x3da2a6ca	0.07941969
11	0xbdf7570e	-0.12077151
12	0x3d6810bf	0.056656595
13	0x3d491309	0.04909042
14	0x3dde6b5b	0.1086032
15	0x3cab36f1	0.020900222
16	0x3d927c42	0.071526065
17	0xbd8090bf	-0.06277608
18	0xbd2f1c8a	-0.042751826
19	0x3d41bfa7	0.047301915
20	0xbdc0ee1f	-0.09420418
21	0xbcda3617	-0.02663712
22	0xbdad04f1	-0.08448208
23	0x3d8e6619	0.06953067
24	0xbd8f5774	-0.06999102
25	0xbd33bc16	-0.043880545
26	0xbe060be0	-0.13090467
27	0xbbbe66f2	-0.005810612
28	0x3e0285da	0.12746373
29	0xbbd677a8	-0.006545026
30	0xbc0ad1d2	-0.008472877
31	0x3d3fb68d	0.046804953
32	0xbdfc9e35	-0.12334863
33	0xbdfbd99f	-0.12297367
34	0xbd28c0d6	-0.041199528
35	0xbdfe472c	-0.12415919
36	0x3e162b4c	0.14664954
37	0xbe1d43f3	-0.15357952
38	0xbda68ac6	-0.08131938
39	0x3c843cf9	0.016142355
40	0xbd61beb5	-0.055113513
41	0xbdffa91f	-0.12483429
42	0x3d8230a0	0.06356931
43	0xbd8d1704	-0.068891555
44	0xbe1500ff	-0.14551161
45	0xbdefec78	-0.11715025
46	0xbe0fbbd1	-0.1403649
47	0xbd27bf20	-0.040953755
48	0xbe05b205	-0.1305619
49	0x3da90c0f	0.08254253
50	0xbd869b86	-0.065726325
51	0x3e02e927	0.12784253
52	0xbd0f7a42	-0.035028704
53	0xbdb20434	-0.08692208
54	0xbe062ce2	-0.13103059
55	0xbdfbf119	-0.12301845
56	0xbe143dd8	-0.14476717
57	0x3d40c0a6	0.047058724
58	0xbd60a4d0	-0.054844677
59	0xbe10f4ee	-0.14155933
60	0xbd0c1b9f	-0.03420603
61	0xbce569b6	-0.028004508
62	0x3e040392	0.12891987
63	0x3d3f1935	0.0466549
64	0x3db64ce7	0.08901387
65	0x3dba4189	0.09094531
66	0xbe045286	-0.12922105
67	0xbb0d0ab2	-0.0021521267
68	0xbe0aba48	-0.13547623
69	0xbd7ead46	-0.062176965
70	0x3e12fa9b	0.14353411
71	0x3d600861	0.05469549
72	0x3dd227e6	0.10261516
73	0x3c65bdb0	0.014022276
74	0xbde9ce81	-0.114163406
75	0x3c19f9c2	0.009397926
76	0x3d04ca66	0.032419585
77	0xbd047dfd	-0.032346714
78	0x3d9a4d6d	0.07534299
79	0x3ceaaf23	0.028647965
80	0x3e141109	0.14459623
81	0x3cb55a15	0.022137681
82	0x3d6b246d	0.057407785
83	0x3c904184	0.017609365
84	0x3de240f5	0.11047546
85	0xbe3bc830	-0.18338084
86	0xbdb632c6	-0.08896403
87	0xbdd97c52	-0.10619415
88	0xbd21af93	-0.03947408
89	0xbdfc8422	-0.1232989
90	0xbce2ce4b	-0.027686259
91	0x3cba97b4	0.022777416
92	0xbd79b70c	-0.060965583
93	0xbe0056f0	-0.12533164
94	0x3db9dcd0	0.0907532
95	0xbc8a1cf9	-0.016859518
96	0x3dc5875e	0.0964496
97	0x3ba2cbd2	0.004968145
98	0xbe0bc3f4	-0.13648969
99	0x3d2bc9d6	0.041940533
100	0x3de5df73	0.1122426
101	0xbe1400fa	-0.14453498
102	0x3d9f0f05	0.077665366
103	0xbdc0527b	-0.09390732
104	0xbdbfe570	-0.093699336
105	0x3dba85f3	0.0910758
106	0x3e26cffb	0.16290276
107	0xbbe3663b	-0.006939677
108	0x3d8b6f48	0.068083346
109	0x38f40fe6	0.00011637788
110	0xbd8d5c85	-0.06902412
111	0x3d71e3a2	0.05905498
112	0xbdaee370	-0.08539474
113	0xbd2b68ff	-0.04184818
114	0x3e044acb	0.12919156
115	0x3ddac03c	0.10681197
116	0xbd6b6a77	-0.05747458
117	0x3e117544	0.1420489
118	0x3bdcc3a8	0.006737191
119	0x3c1e4d1f	0.009661942
120	0x3dac91af	0.084262244
121	0xbd7bb8d7	-0.061455574
122	0x3dba113f	0.09085321
123	0x3e0dde61	0.13854362
124	0xbd8cbaa2	-0.06871535
125	0x3de654f0	0.11246669
126	0x3e1623b6	0.1466206
127	0xbe04eeb9	-0.1298169
128	0xbd6a555e	-0.05721032
129	0xbc68d740	-0.014211476
130	0x3e275055	0.16339238
131	0xbdb21023	-0.08694484
132	0xbd9993b3	-0.074988745
133	0xbd119130	-0.035538852
134	0x3d9ed583	0.07755568
135	0xbb9e5ffa	-0.0048332186
136	0xbd4409ad	-0.04786079
137	0x3c4408fc	0.011965033
138	0x3b8637b7	0.004095997
139	0xbe0be407	-0.13661204
140	0x388ead3c	6.803355e-05
141	0xbd939872	-0.07206811
142	0xbe07938f	-0.13239883
143	0x3d47f9a5	0.048822064
144	0xbe34c3ca	-0.17652813
145	0x3dcb6cbc	0.09932849
146	0xbe0a64ba	-0.13514987
147	0xbe0a0f6b	-0.13482444
148	0x3d9e9748	0.07743698
149	0xbbb2ae7b	-0.0054529286
150	0xbd2567ff	-0.04038238
151	0x3e0e11b7	0.13873945
152	0xbe1c918d	-0.15289898
153	0xbd50b34f	-0.050952252
154	0xbcef8723	-0.029239243
155	0x3c5a1ca6	0.013312494
156	0x3e024b1e	0.12723967
157	0xbdb8570d	-0.090009786
158	0xbd36fe02	-0.044675834
159	0x3decdfc3	0.11566117
160	0x3dd7596e	0.10515104
161	0xbcac3f67	-0.021026326
162	0x3d894368	0.0670231
163	0xbc6e5365	-0.01454625
164	0x3d8c67ff	0.06855773
165	0xbc9cc733	-0.019137954
166	0x3d1ce1dd	0.038301338
167	0x3ce91851	0.028453978
168	0x3e153dd5	0.14574368
169	0x3d49a2f3	0.049227666
170	0x3e0eeaba	0.13956729
171	0x3dd58baa	0.104270294
172	0x3dc4afc4	0.09603837
173	0xbd0d679c	-0.034522638
174	0xbd687f10	-0.0567618
175	0x3db9a60d	0.09064875
176	0x3de2dca7	0.11077242
177	0xbd3a63d2	-0.045505352
178	0x3cb85704	0.02250243
179	0x3e1285e0	0.14308882
180	0x3de585f8	0.11207193
181	0xbd23a8e5	-0.039955992
182	0xbdcf9b49	-0.1013704
183	0x3dbc44a5	0.091927804
184	0x3c309b5a	0.010779226
185	0x3d97af4e	0.074064836
186	0x3d13c944	0.036080614
187	0xbe1444b2	-0.1447933
188	0x3e271ce4	0.16319615
189	0x3c8d969e	0.017283734
190	0xbc38539b	-0.011250402
191	0x3e01e612	0.12685421
192	0x3d1ff5d3	0.039052796
193	0x3d89fe57	0.067379646
194	0x3dc91396	0.09818189
195	0x3e0bda34	0.13657457
196	0xbc617239	-0.013760143
197	0x3d418d83	0.047254097
198	0x3dd34714	0.103162915
199	0xbdb31e62	-0.087460294
200	0xbcfa704b	-0.030571124
201	0xbdd65619	-0.104656406
202	0x3e107c25	0.14109857
203	0x3dfcdcbf	0.123467915
204	0xbc8ef5d3	-0.017451202
205	0xbdd73a67	-0.10509186
206	0x3d110b08	0.03541091
207	0xbd47b413	-0.048755717
208	0x3dbef442	0.09323932
209	0xbd9106bd	-0.07081363
210	0xbde0b8cc	-0.10972747
211	0x3da4d638	0.080486715
212	0xbd52d533	-0.051472854
213	0xbd810b11	-0.06300939
214	0x3e07130e	0.13190863
215	0xbdaf1fe1	-0.08551002
216	0xbe0558ac	-0.13022107
217	0x3cbb737f	0.022882221
218	0xbe2127d3	-0.15737848
219	0xbd895aac	-0.067067474
220	0xbdacb80b	-0.08433541
221	0x3d5be276	0.053682767
222	0x3df7d2dc	0.12100765
223	0xbd1e3e59	-0.038633678
224	0xbd873b60	-0.06603122
225	0x3dd18455	0.102303185
226	0xbe2596a0	-0.1617074
227	0xbddf2826	-0.108963296
228	0xbce21629	-0.027598457
229	0xbe116150	-0.14197278
230	0x3df6f9ad	0.120593406
231	0x3d569130	0.052384555
232	0xbdf62413	-0.12018599
233	0xbdcaded4	-0.09905782
234	0x3dfb3ea0	0.12267804
235	0x3d416059	0.047211025
236	0x3d281957	0.04103979
237	0xbda27341	-0.07932139
238	0x3db61e73	0.088925265
239	0xbdd2e4cc	-0.10297546
240	0xbe103572	-0.14082888
241	0x3d1b14df	0.0378617
242	0xbdbebcea	-0.09313376
243	0xbcf028c4	-0.029316314
244	0x3de5d90e	0.112230405
245	0x3db83f27	0.0899642
246	0x3dccdc9d	0.10003016
247	0xbc9525c5	-0.018206486
248	0xbd54b966	-0.051934622
249	0xbdef34eb	-0.11680015
250	0x3da45940	0.080248356
251	0xbe0703be	-0.13185021
252	0x3d9cf31c	0.07663557
253	0x3d2d6e04	0.042341247
254	0x3e07a664	0.13247067
255	0xbd414d99	-0.047193144

transformer.layers.0.self_attn.in_proj_bias f4 [192]
0	0x3bf4ef1f	0.0074747945
1	0x3b0fe6b9	0.002195759
2	0xbaeae7b6	-0.0017921838
3	0xbad4726d	-0.0016208418
4	0x3b2fcdf8	0.0026825648
5	0xbc278c8a	-0.010226378
6	0xbbd6e2c0	-0.0065577924
7	0xba893511	-0.0010468086
8	0xbb8ee144	-0.00436035
9	0x37734119	1.4499085e-05
10	0x3b90a8e9	0.004414667
11	0x3bdee8c7	0.0068026516
12	0x3b21e229	0.0024701452
13	0xbc0ba934	-0.008524228
14	0xbb2cb708	-0.0026354212
15	0xba85e2a4	-0.0010214639
16	0xbc7ac2fe	-0.015305279
17	0xbb9aa8e1	-0.004719839
18	0x3919cf3c	0.00014668418
19	0x3beea36f	0.0072826664
20	0x3b212d83	0.0024593777
21	0x3b989fd2	0.004657724
22	0x3b948b32	0.004533195
23	0xbafb9e61	-0.0019196981
24	0x3caa3bec	0.020780526
25	0xbb668a51	-0.0035177658
26	0x3c0457bd	0.008077559
27	0xbc3bf727	-0.0114725
28	0xbc767705	-0.015043025
29	0xbbef9b1c	-0.0073121917
30	0xbbddafc8	-0.0067653395
31	0x3c3c5f71	0.011497364
32	0xbccae375	-0.024766663
33	0x3cb9eeea	0.02269693
34	0x3b29197c	0.0025802543
35	0xbca2d17c	-0.01987528
36	0xbcd8b043	-0.026451236
37	0x3cb73321	0.022363247
38	0xbc783f5b	-0.015151824
39	0x3bf9ca69	0.007623006
40	0xbcd26a60	-0.02568549
41	0xbcc3360a	-0.023829479
42	0xbcd24cab	-0.025671324
43	0xbc042a33	-0.008066702
44	0x3ccb81b9	0.02484213
45	0xbcb04800	-0.021518707
46	0x3cd1e6d6	0.025622766
47	0xbcdf4486	-0.027254354
48	0xb915d7e6	-0.00014290176
49	0xbbac704e	-0.005262411
50	0x3c86ce34	0.016455747
51	0xbbdbcfac	-0.006708106
52	0x3c968a53	0.018376505
53	0xba7851a8	-0.0009472617
54	0xbcff294a	-0.031147618
55	0xbd0cb642	-0.034353502
56	0xb96b22b7	-0.00022424279
57	0x3c856d06	0.016287338
58	0x3c359ed0	0.011085227
59	0xbd0cb780	-0.034354687
60	0xbc97ef0d	-0.018546605
61	0xba540da5	-0.00080891914
62	0x3bfadecb	0.0076559535
63	0x3cf6eca2	0.030142132
64	0x341d136a	1.4628827e-07
65	0x319200dd	4.2492574e-09
66	0x3396dfb8	7.0256135e-08
67	0x34192f74	1.4266499e-07
68	0xb3cca54c	-9.5295576e-08
69	0x3440bb71	1.7949584e-07
70	0xb5152e21	-5.557395e-07
71	0xb491e69a	-2.717614e-07
72	0xb4e99b21	-4.3512503e-07
73	0x34af9d22	3.271062e-07
74	0x34b7956b	3.4195122e-07
75	0x33122eed	3.4035953e-08
76	0x34c5b772	3.6827583e-07
77	0x33ff7d68	1.1897174e-07
78	0x331d33f8	3.6601676e-08
79	0xb41ea06d	-1.4773259e-07
80	0xb3905945	-6.7217606e-08
81	0x33c8060b	9.314325e-08
82	0xb4a81a12	-3.1311407e-07
83	0x342a67cb	1.5870243e-07
84	0x350a0412	5.141493e-07
85	0xb3f240dd	-1.1280802e-07
86	0xb5039386	-4.901598e-07
87	0xb4e77d51	-4.3118283e-07
88	0xb28faaac	-1.6725004e-08
89	0xb36fe3fb	-5.585387e-08
90	0x337c1628	5.8693473e-08
91	0x34a6dde4	3.1081356e-07
92	0x33e50ff4	1.0666545e-07
93	0xb46bd1b9	-2.1962377e-07
94	0xb4a9a1d6	-3.1596454e-07
95	0x32c09d15	2.2423174e-08
96	0x34da41b6	4.0653475e-07
97	0xb3f7a1c2	-1.15312574e-07
98	0xb4602e23	-2.087841e-07
99	0xb49b82ed	-2.896626e-07
100	0x33095e0b	3.198333e-08
101	0x342783ab	1.5600988e-07
102	0xb1fc4e04	-7.3430346e-09
103	0x3435b9f0	1.6924582e-07
104	0xb50fa315	-5.3508967e-07
105	0xb4750b59	-2.2821531e-07
106	0xb100c16b	-1.8736397e-09
107	0xb40e56ab	-1.325631e-07
108	0xb42bb7b2	-1.5992444e-07
109	0xb2442848	-1.141786e-08
110	0xb53d4c5d	-7.051911e-07
111	0x343c4afe	1.7536146e-07
112	0x32a97515	1.9727432e-08
113	0x34ed6a56	4.422206e-07
114	0xb4b63748	-3.3940364e-07
115	0x34a8c38b	3.1434715e-07
116	0xb4630177	-2.1141555e-07
117	0x3422782c	1.5131144e-07
118	0x3483f459	2.4578438e-07
119	0x3494aba0	2.7692022e-07
120	0xb4c14639	-3.6000145e-07
121	0x34e0eff5	4.1897843e-07
122	0xb436c679	-1.7022275e-07
123	0x33ceaaa9	9.6236654e-08
124	0x34db3a0c	4.0834163e-07
125	0xb44f004c	-1.9278485e-07
126	0x350af384	5.176337e-07
127	0xb531d043	-6.62407e-07
128	0xbac96820	-0.0015366115
129	0x3af00b13	0.0018313847
130	0xbae25786	-0.0017268516
131	0xbb9eb438	-0.004843261
132	0x384236b0	4.6304136e-05
133	0xbb7da6aa	-0.0038704076
134	0xbbd231e5	-0.0064146393
135	0x3c7bd661	0.015370936
136	0xbc90694d	-0.017628336
137	0xbbddc870	-0.006768279
138	0x3c3166af	0.010827704
139	0xbc18589a	-0.009298468
140	0xbb8730a1	-0.00412567
141	0xbcbe2513	-0.023211038
142	0xbc7c41ce	-0.015396548
143	0x3b9a9167	0.0047170403
144	0x3c91a429	0.017778473
145	0x3c0765c0	0.008264005
146	0xbc8a68b2	-0.016895626
147	0x3b0bcf70	0.002133336
148	0x3a068452	0.00051314116
149	0xbb1d01a1	-0.002395727
150	0xbac91331	-0.0015340802
151	0xbbc94166	-0.0061418293
152	0xbb19904f	-0.0023431962
153	0x3b92a1dd	0.004474862
154	0xbc2cdfec	-0.010551434
155	0x3a562cf9	0.00081701536
156	0x3ae20f2b	0.0017246952
157	0xbb98db3e	-0.0046648076
158	0xba4a7f17	-0.00077246263
159	0xbc80b0f7	-0.015709383
160	0x3b675177	0.003529636
161	0x39bb802c	0.00035762915
162	0xbb0ed119	-0.0021792112
163	0x3c44ebbf	0.012019097
164	0x3c1a5807	0.009420401
165	0xbb1ab6c3	-0.002360747
166	0xbb418a83	-0.0029532022
167	0x3c460f9c	0.0120886825
168	0x3b21bf32	0.0024680612
169	0x3c0451b2	0.008076118
170	0x3b8ac9bb	0.004235474
171	0xbc1570cc	-0.009121131
172	0x3c8bef75	0.017081955
173	0x3a668890	0.0008794153
174	0xbc4c9fa1	-0.01248923
175	0xbb25f535	-0.0025323157
176	0x3c3272ea	0.010891655
177	0x3bf3a5f3	0.007435554
178	0xbb1ed6b8	-0.002423687
179	0xbc8213cc	-0.01587858
180	0x38926e0f	6.9823225e-05
181	0xbbb7d07d	-0.0056095705
182	0x3c192116	0.009346267
183	0x397e8390	0.00024272338
184	0x39b1437c	0.0003381035
185	0xbb107c59	-0.0022046773
186	0xb6242383	-2.4458575e-06
187	0x3cc2b14c	0.023766182
188	0x3a47455a	0.0007601582
189	0xbc9b577a	-0.01896261
190	0xbc390749	-0.011293241
191	0x3bd3375b	0.006445808

transformer.layers.0.self_attn.out_proj.weight f4 [64, 64]
0	0xbcadb19f	-0.02120286
1	0xbb0d3c1a	-0.0021550716
2	0xbc85c980	-0.016331434
3	0x3a93d37a	0.0011278235
4	0xbc806edb	-0.01567786
5	0x3d1df43e	0.038563006
6	0x3d231619	0.039815996
7	0x3c2e8c1c	0.010653522
8	0xbd2a5bf0	-0.041591585
9	0x3c6c116b	0.01440845
10	0xbb326615	-0.002722149
11	0xbc7b1fa8	-0.015327372
12	0x3c17361a	0.009229207
13	0x3b512b7c	0.0031916788
14	0x3d1875f4	0.037221864
15	0x3c8198bc	0.0158199
16	0xbd2a792b	-0.04161946
17	0xbd58588f	-0.05281883
18	0x3c8f3f48	0.01748623
19	0x3c49530e	0.012287868
20	0xbcd47af7	-0.02593754
21	0x3d696a0e	0.056985907
22	0xbc70ca49	-0.014696666
23	0x384b5745	4.8480248e-05
24	0xbcfc592f	-0.030804245
25	0xbb75db6d	-0.003751482
26	0x3ab1194f	0.0013511571
27	0xbcaaf012	-0.020866428
28	0x3c700727	0.014650143
29	0x3c116a1f	0.008875399
30	0x3c9d5a94	0.01920823
31	0x3c754e16	0.01497223
32	0x3bc83b38	0.006110575
33	0x3c61ee9d	0.0137898
34	0xbc4c3a05	-0.012465005
35	0xbb280b92	-0.0025641662
36	0x3bda1f58	0.0066565685
37	0xbce15d98	-0.02751045
38	0xbcbd80b1	-0.023132654
39	0xbcbb64a4	-0.022875138
40	0x3c40f3ab	0.011776845
41	0x3d1097c1	0.035300974
42	0x3c42c92d	0.011888784
43	0xbbc9447b	-0.0061421967
44	0xbc2193b6	-0.009861877
45	0xbccb7a84	-0.024838693
46	0xbcecd413	-0.028909719
47	0xbc8f55a5	-0.017496893
48	0x3c8c98f5	0.01716278
49	0xb6ec4573	-7.041433e-06
50	0xbb93626d	-0.0044978173
51	0x3cd17f13	0.025573289
52	0xba9dc094	-0.0012035542
53	0xbbd54cd0	-0.006509401
54	0xbd0c408b	-0.03424124
55	0x3b867d9e	0.00410433
56	0x3c15e0b0	0.009147808
57	0x3c112b8c	0.00886048
58	0x3d0f6b68	0.03501454
59	0xbbf4d4d9	-0.0074716625
60	0xbc4bcb64	-0.012438629
61	0x3bfa7559	0.0076433835
62	0xba22cdb4	-0.0006210462
63	0xbb868692	-0.0041053975
64	0xbba18440	-0.0049290955
65	0x3ca1df6b	0.019759854
66	0xbb4cb715	-0.0031237055
67	0x3d24bf6d	0.04022162
68	0xbcb673be	-0.022271987
69	0xbca0835a	-0.019593883
70	0x3c8f7361	0.017511072
71	0xbaf5913a	-0.0018735297
72	0x3c038fa1	0.008029849
73	0xbce911ea	-0.028450925
74	0xbd2cb8e8	-0.042168528
75	0xbcf6e41e	-0.030138072
76	0xbb241c8e	-0.0025041434
77	0xbc19a0da	-0.009376729
78	0x3ca1ad80	0.019736052
79	0xbd272699	-0.040808294
80	0xbd4fe5a2	-0.050756104
81	0x3c5d8b9e	0.013522057
82	0x3bc080cd	0.0058747292
83	0xbcb2eb4e	-0.021840718
84	0xbd996654	-0.07490221
85	0x3bc78035	0.0060882815
86	0x3bf5c225	0.0074999505
87	0xbd024d06	-0.031811737
88	0x3bfe03da	0.007751924
89	0xbd228d57	-0.039685573
90	0x3c4ba035	0.012428333
91	0xbc824956	-0.01590411
92	0x3b9694e7	0.0045953873
93	0x3cb8bee2	0.022551958
94	0xbc9f08a1	-0.019413294
95	0xbc2937f4	-0.010328282
96	0x3b656a2b	0.0035005908
97	0x3c850b7f	0.016240833
98	0xbc20e085	-0.009819155
99	0xbcfbc671	-0.030734273
100	0x3ae64abf	0.0017569883
101	0xbd174b1f	-0.036936875
102	0xbccfa251	-0.025345953
103	0x3b98bc62	0.004661129
104	0xbc14b337	-0.009075931
105	0x3c5729b4	0.013132501
106	0x3cd39139	0.025826083
107	0xbbaaf9ff	-0.00521779
108	0x3d076c4c	0.033062264
109	0xbcc6d56f	-0.024271695
110	0x3d2574fa	0.04039476
111	0x3bdd0b23	0.0067457124
112	0x3c2f2dab	0.01069204
113	0xbba77c80	-0.005111277
114	0xbc6d924c	-0.014500212
115	0x3d06dddf	0.032926437
116	0xbc91cfb2	-0.017799232
117	0x3c5d8cf4	0.013522375
118	0x3cb8cda2	0.02255899
119	0x3c00eebc	0.007869419
120	0x3d174df9	0.036939595
121	0xbc7d0205	-0.015442376
122	0x3b675240	0.0035296828
123	0x3b364cd6	0.0027816794
124	0x3b50aff0	0.0031843148
125	0xbcfedc45	-0.031110892
126	0xbce297b2	-0.027660225
127	0x3c6463c5	0.013939803
128	0xbc65a1ad	-0.014015597
129	0xbc3749fa	-0.011187071
130	0x3ccbc3c7	0.024873627
131	0xbc8874dc	-0.016657285
132	0xb9a988ec	-0.00032336207
133	0x3c03d654	0.008046705
134	0x3c0d6698	0.008630417
135	0xbd47e135	-0.04879876
136	0x3d12cf76	0.03584238
137	0x3cc9a928	0.024616793
138	0xbcc195fd	-0.02363109
139	0x3b20a6e8	0.0024513546
140	0xbaeeea07	-0.0018227705
141	0x3c80a24c	0.01570239
142	0x3c4623fb	0.012093539
143	0xbbf50f61	-0.00747864
144	0xbb5604a2	-0.003265657
145	0xbcaedb69	-0.021344857
146	0x3a851e7b	0.0010156179
147	0x3c4ff0a9	0.012691655
148	0x3c2fc987	0.0107292
149	0x3c638122	0.013885768
150	0x3cd979c9	0.02654733
151	0x3c470389	0.012146839
152	0xbcb24192	-0.021759782
153	0xbd5aa722	-0.053382047
154	0x39118f1e	0.00013881593
155	0xb912cbca	-0.00013999562
156	0xbc8e537c	-0.017373793
157	0x3c3de15e	0.011589376
158	0x3c354bcf	0.011065437
159	0x3bdcc93d	0.0067378567
160	0xbc504ad3	-0.012713152
161	0xbb8acd22	-0.0042358795
162	0x3bf2f8c4	0.007414909
163	0xbce7eb62	-0.028310481
164	0xbb812de7	-0.0039422396
165	0xbbbb7c49	-0.005721603
166	0x3d5d130c	0.053973243
167	0xb7a0651c	-1.9120569e-05
168	0x3c358116	0.01107814
169	0x3d1e2bf9	0.038616154
170	0xbc1f2496	-0.009713313
171	0x3c6d49c5	0.01448292
172	0x3c217f42	0.009857001
173	0xbca027d4	-0.019550242
174	0x38a23f38	7.7365374e-05
175	0xbd43ef38	-0.04783556
176	0x3c0d97eb	0.008642177
177	0x3b97e2dc	0.004635198
178	0xbb7b5840	-0.0038352162
179	0xbcb8fe9a	-0.022582341
180	0xbd1d0892	-0.03833825
181	0x399b780c	0.00029653346
182	0xbca7dac0	-0.02049005
183	0x3b205553	0.002446492
184	0x3c8722fa	0.01649617
185	0xbc4b25a2	-0.012399109
186	0xbcfc5e17	-0.030806584
187	0xbcaaca5f	-0.020848451
188	0xbca95bba	-0.020673621
189	0x3d312d82	0.04325629
190	0x3cd26aed	0.025685752
191	0xbc059623	-0.008153471
192	0xbc6bc811	-0.014390961
193	0x3b95585a	0.0045576515
194	0x3bd92877	0.0066271382
195	0xbb52f5a9	-0.0032189882
196	0xbc43ed31	-0.011958406
197	0xb9de8d6d	-0.0004244851
198	0xbcc453f5	-0.023965815
199	0x3ba03639	0.0048892763
200	0x3cea7d00	0.028624058
201	0xbcf9f95f	-0.030514417
202	0xbc60377a	-0.013685102
203	0x3a8326c1	0.0010006056
204	0xbd07d6c4	-0.0331638
205	0x3cb1234b	0.021623274
206	0x3c91b0cc	0.017784499
207	0xbc6705c1	-0.014100493
208	0xbce6192c	-0.028088175
209	0xbc955873	-0.018230652
210	0x3cb151b9	0.021645414
211	0xbc4df81d	-0.012571362
212	0xbbacf29e	-0.0052779457
213	0x3d4762ef	0.048678335
214	0xbb825cd5	-0.0039783516
215	0xbcbf91fd	-0.023385042
216	0x3c48dc46	0.0122595485
217	0xbc415310	-0.011799589
218	0x3d0c875e	0.034308784
219	0x3b93e285	0.004513087
220	0xbb3b31cd	-0.002856362
221	0x3acfcb99	0.0015853524
222	0x3c6513f5	0.013981809
223	0x3c581a11	0.013189808
224	0x3cd39263	0.025826639
225	0x3cbe78c3	0.023250943
226	0xbc9be027	-0.019027783
227	0xbc126079	-0.008934134
228	0x3c954ca0	0.018225014
229	0x3c43672f	0.011926456
230	0xbc7a27c0	-0.015268266
231	0x3cbdd398	0.023172185
232	0x3c0cdacf	0.00859709
233	0x3ad9f0b1	0.0016627518
234	0xbca41405	-0.020029077
235	0x3b57d864	0.0032935375
236	0xbcebefed	-0.028800929
237	0x3b652375	0.003496376
238	0x3b78025f	0.003784321
239	0x3c4280ba	0.011871511
240	0x3c074e93	0.00825848
241	0x3bca009a	0.0061646225
242	0x3c481adc	0.012213435
243	0xbc904905	-0.017612943
244	0x3ca65b29	0.02030714
245	0x3bb48a8f	0.0055096815
246	0xbc065bb0	-0.008200571
247	0xbcc557e3	-0.02408976
248	0xb9e4d871	-0.0004364881
249	0x3cd2ee2c	0.025748335
250	0x3c536a9b	0.012903835
251	0x3c554b09	0.013018378
252	0xbcdd6815	-0.02702717
253	0x3d1993d0	0.03749448
254	0x3a88881d	0.0010416541
255	0x3bac5e81	0.005260289

transformer.layers.0.self_attn.out_proj.bias f4 [64]
0	0x3b287a1c	0.0025707548
1	0xb9d0280d	-0.00039702692
2	0x3bc0a52e	0.005879066
3	0x3b7cf4e3	0.0038598112
4	0x3bf8fbe6	0.007598388
5	0xbbed2dff	-0.007238149
6	0x3af3faa0	0.0018614121
7	0xbbaba797	-0.005238484
8	0xbbb4d1c6	-0.005518171
9	0xbbb1cf15	-0.0054262974
10	0xbb67a72d	-0.0035347447
11	0x3b835d8b	0.004008954
12	0xbc048367	-0.008087969
13	0x3bda659b	0.0066649443
14	0x3c026127	0.007957733
15	0xbc09fe8d	-0.008422506
16	0x3b894ebf	0.0041902955
17	0x3c03a28f	0.008034362
18	0x3b9835e8	0.004645098
19	0xbb8fbc19	-0.0043864367
20	0x3b6186b2	0.003441256
21	0xbb2fe388	-0.00268385
22	0x3bf5e6f4	0.0075043384
23	0xbc088736	-0.008333018
24	0xbbb55e4b	-0.0055349222
25	0xba6ffda8	-0.0009154924
26	0x3b9418fd	0.0045195804
27	0xbbc78177	-0.0060884315
28	0x3b917c49	0.004439865
29	0xbbabd0a9	-0.00524338
30	0x3c0c337e	0.008557199
31	0x3bec914a	0.0072194682
32	0xbb6268a0	-0.0034547225
33	0x3c038992	0.008028405
34	0xbc22f708	-0.009946592
35	0x3b88a225	0.0041697198
36	0x3bb25a47	0.005442891
37	0x3ac207d9	0.0014803364
38	0xbb446ebf	-0.0029973236
39	0xbbfee1c6	-0.007778379
40	0x3bcc26e1	0.0062302207
41	0xbc01fc73	-0.007933724
42	0x3b671963	0.0035262934
43	0xbbb18634	-0.0054176096
44	0xbb9b985a	-0.0047483863
45	0xbc04135c	-0.008061256
46	0xbb0d290c	-0.0021539358
47	0xbb7d6177	-0.003866283
48	0xb98a4959	-0.0002637606
49	0x3b7c55b4	0.0038503231
50	0xba6d112f	-0.0009043393
51	0x3c152bda	0.009104693
52	0xbb3b0087	-0.002853425
53	0xbb9fb0a1	-0.0048733507
54	0x38b9d57b	8.861251e-05
55	0xbbad7b50	-0.005294241
56	0xbbc8425b	-0.006111426
57	0x3bcd1294	0.006258318
58	0x3a5c77c3	0.000841018
59	0xbbba59bb	-0.0056869662
60	0xbb631398	-0.003464913
61	0xbc0ed9dd	-0.008718935
62	0xbafd9f77	-0.0019349892
63	0x3c174982	0.009233834

transformer.layers.0.linear1.weight f4 [128, 64]
0	0x3d587217	0.05284318
1	0xbce0c033	-0.027435398
2	0x3d52add8	0.05143532
3	0xbabee1b8	-0.0014563119
4	0xbc8d00b0	-0.017212242
5	0xbc0a7b00	-0.008452177
6	0xbbc5f233	-0.0060408353
7	0x3c5478c2	0.012968244
8	0xbbe77830	-0.007063888
9	0xbc8f212e	-0.017471876
10	0x3c92a72b	0.017901978
11	0x3cd1e056	0.025619667
12	0xbd69f371	-0.05711693
13	0x3d194bf9	0.03742597
14	0x3d448b37	0.047984328
15	0x3d33ac52	0.04386551
16	0x3cfe5c89	0.031049984
17	0xbc675a87	-0.0141207045
18	0xbcfafab8	-0.03063713
19	0xbcc2f46e	-0.023798194
20	0x3d495607	0.049154308
21	0xbb5436cd	-0.0032381297
22	0x3d1932d4	0.03740199
23	0xbc89f544	-0.016840585
24	0xbd4bd429	-0.04976288
25	0x3c4ba024	0.012428317
26	0xbc2bf111	-0.010494486
27	0xbd1f09b2	-0.038827606
28	0xbd82823a	-0.06372495
29	0xbba4f8ac	-0.005034527
30	0x3c37cd91	0.011218444
31	0xbcd3e908	-0.025867954
32	0xbc84e35f	-0.0162217
33	0x3d2945a5	0.041326184
34	0xbcd45db3	-0.025923586
35	0x3d1803f3	0.03711314
36	0x3ca32ccf	0.019918827
37	0xbccea859	-0.025226759
38	0xbb3fad70	-0.0029247664
39	0x3ba313e3	0.004976736
40	0x3c5430cf	0.01295109
41	0x3b3f674b	0.0029205855
42	0x3d0d043e	0.034427874
43	0x3b776050	0.0037746616
44	0xbd000e84	-0.031263843
45	0x3bbb189f	0.005709722
46	0xbd150b54	-0.036387756
47	0xbb19c2e6	-0.0023462116
48	0x3d38b2e8	0.045092493
49	0x3c039573	0.008031237
50	0x3cfd4cac	0.030920349
51	0x3cc800aa	0.02441438
52	0xbd2be5f5	-0.04196735
53	0x3c372a1f	0.011179476
54	0x3c26310b	0.010143529
55	0xbccbb9d1	-0.024868878
56	0xbb846422	-0.004040257
57	0xbc49efbc	-0.012325224
58	0xbbcfaa9f	-0.0063374783
59	0xbc88d69b	-0.016703894
60	0xbcf0c234	-0.029389478
61	0xbd2e52c9	-0.04255942
62	0x3cf85145	0.03031219
63	0xbc14459f	-0.009049802
64	0x3c2de6a6	0.010614073
65	0xbb04a4c8	-0.002023982
66	0x3c0d9c25	0.008643185
67	0x3d221d15	0.039578516
68	0x3c1910de	0.0093424
69	0xbd1cd17d	-0.03828572
70	0x3d1a9ec5	0.03774907
71	0xbd2cc603	-0.042181026
72	0xbcdd2226	-0.026993822
73	0xbc938061	-0.018005552
74	0x3cdf6d96	0.027273934
75	0x3c271d88	0.010199912
76	0xbd6f7c34	-0.05846806
77	0x3d28b318	0.041186422
78	0xbc32c026	-0.01091007
79	0x3b87047f	0.004120409
80	0x3d04cf29	0.032424126
81	0x3c3d0ad4	0.011538226
82	0xbd0c940d	-0.03432088
83	0xbcdd9797	-0.027049823
84	0x3c2f9079	0.010715597
85	0xbcab79de	-0.020932134
86	0x3d508ba1	0.05091441
87	0xbd44ee10	-0.048078597
88	0xbca11d79	-0.019667374
89	0xbc6190df	-0.01376745
90	0x3cb9caa9	0.022679644
91	0x3c596dc1	0.013270796
92	0xbd1e5177	-0.03865191
93	0xbc62b7f9	-0.013837808
94	0xbc8dc282	-0.017304663
95	0xbb25f066	-0.002532029
96	0xbc85def6	-0.016341668
97	0x3cca7341	0.02471316
98	0xbd8b8090	-0.06811631
99	0x3ce86368	0.028367713
100	0x3cafa7d3	0.02144233
101	0xbd0351f1	-0.032060567
102	0xbc107cf0	-0.00881885
103	0x3b937e2b	0.0045011244
104	0x3b10a6bf	0.0022072045
105	0x3b465680	0.003026396
106	0xbc07fe3c	-0.00830036
107	0x3d1c3d22	0.03814424
108	0xbcc56149	-0.02409424
109	0xbcdc210f	-0.026871232
110	0xbd174dba	-0.03693936
111	0x3b08984f	0.0020842736
112	0xbd122d24	-0.03568758
113	0xbd058b07	-0.03260329
114	0x3d4e4cc7	0.05036619
115	0xbc4a2ed1	-0.012340263
116	0x38a80fa7	8.01378e-05
117	0x3c9d7da1	0.019224944
118	0xbce25e10	-0.027632743
119	0xbd8f12f7	-0.06986039
120	0xbd5362bf	-0.051607843
121	0xbc4a81e0	-0.012360066
122	0x3c764bd6	0.015032729
123	0x3d6c6f5a	0.05772338
124	0x3c480460	0.012208074
125	0x3cac1f37	0.021010978
126	0x3cf732d5	0.030175606
127	0xbd1a54d9	-0.037678573
128	0x3c192ba9	0.009348788
129	0x3c690693	0.014222759
130	0x3c870cba	0.01648556
131	0xbd0127bd	-0.031532038
132	0xbcb1aaf9	-0.021687971
133	0xbce2d8d0	-0.027691275
134	0x3c844ad3	0.01614896
135	0x3c703da2	0.014663132
136	0xbb2904a4	-0.002579012
137	0x387285dc	5.7821962e-05
138	0x3d55af4b	0.052169126
139	0xbb3d3382	-0.0028869812
140	0x3ac3ae32	0.0014929234
141	0x3c29640b	0.0103387935
142	0xbcf316cb	-0.029673954
143	0xbc1892f8	-0.009312384
144	0x3ca4c67b	0.020114174
145	0xbc5bd4ac	-0.013417404
146	0xbd58b363	-0.05290545
147	0x3caf5b74	0.021405913
148	0xbd0d0f7b	-0.03443859
149	0x3d5fc85c	0.054634437
150	0xba15d64c	-0.00057158316
151	0xbc9e7db0	-0.019347042
152	0xbcacea48	-0.021107808
153	0x3c6df546	0.01452381
154	0xbce2c0a9	-0.027679758
155	0x3ce225aa	0.02760585
156	0xbb6b7c41	-0.0035932215
157	0x3a8635f8	0.0010239473
158	0xbd247fd1	-0.040160958
159	0x3da664a9	0.08124668
160	0xbbd73dd6	-0.0065686507
161	0xbd6ddee2	-0.058073886
162	0xbcc321d0	-0.023819834
163	0x3b9f302f	0.004858039
164	0xbd0ff891	-0.03514916
165	0x3bca688c	0.0061770137
166	0xbb969697	-0.0045955884
167	0xbc81c57b	-0.015841236
168	0xbc26fbd8	-0.01019188
169	0x3c11f7ed	0.008909208
170	0xbd164adb	-0.03669248
171	0xbc9222de	-0.017838892
172	0x3c07f08f	0.0082971
173	0x3be2817e	0.0069124093
174	0xbc1550af	-0.009113475
175	0x3cd98685	0.026553402
176	0x3c4bc9ab	0.012438218
177	0xbbb2ec05	-0.0054602646
178	0xbc4a5bf3	-0.012351024
179	0x3c5bd42c	0.013417285
180	0x3cf7b5c4	0.03023804
181	0xba46fbed	-0.00075906405
182	0x3cf91844	0.030407079
183	0x3c8d8eb7	0.017279966
184	0xbc2abb1b	-0.010420586
185	0xba1ba051	-0.000593667
186	0xbceaf8e6	-0.028683137
187	0xbb8f45e1	-0.004372344
188	0xbcdfcb91	-0.027318748
189	0x3d0f7705	0.035025615
190	0xbd1bded0	-0.038054287
191	0x3c02280c	0.007944118
192	0x3d1097f9	0.035301182
193	0x3c6afcfd	0.014342544
194	0x3d572ec2	0.052534826
195	0xbc01a8d0	-0.007913783
196	0x3c2c80e3	0.010528776
197	0xbc979da0	-0.018507779
198	0x3d61f2a5	0.055163044
199	0xbcf4cd35	-0.029883007
200	0xbd5167d4	-0.05112441
201	0xbd3a3f42	-0.045470484
202	0xbca837bb	-0.020534387
203	0x3d359a52	0.044336624
204	0xbcd8b684	-0.026454218
205	0x3bd00283	0.0063479557
206	0x3bb17951	0.0054160734
207	0xbce06949	-0.027393954
208	0xbcc2d0cc	-0.023781203
209	0xba3c23c8	-0.00071769627
210	0x3d57d166	0.052689932
211	0x3aee1ffe	0.0018167493
212	0xbc3e83fd	-0.011628148
213	0xba0e60ad	-0.0005431276
214	0x3ccd8b10	0.025090724
215	0xbd65dc67	-0.056118395
216	0xbd52b8d3	-0.051445793
217	0xbc831549	-0.01600136
218	0x3cf58eb1	0.029975267
219	0x3ce33ea6	0.027739834
220	0xbc97b791	-0.018520148
221	0xbc229af4	-0.009924639
222	0x3c7d8e81	0.01547587
223	0xbd2c111d	-0.042008508
224	0xbbbd26e9	-0.0057724607
225	0xbcbfefab	-0.023429712
226	0xbcbdf1d6	-0.023186605
227	0x3d0f7559	0.03502402
228	0x3d3290b1	0.04359502
229	0xbcb9397c	-0.022610418
230	0xbb9da930	-0.0048114285
231	0x3bd77db3	0.006576264
232	0xbc8c6409	-0.017137544
233	0xbcd53f5e	-0.026031192
234	0x3c4c3023	0.012462649
235	0x3d4438c2	0.04790569
236	0xbc06b264	-0.008221243
237	0x3a7777b0	0.0009440137
238	0xbd22ea70	-0.03977436
239	0xbd63706b	-0.055527132
240	0xbd4d13e0	-0.050067782
241	0xbcb3aca0	-0.0219329
242	0x3d22e21b	0.039766412
243	0x3cb219e2	0.021740858
244	0xbd0a7881	-0.033806328
245	0x3d1c99bb	0.038232546
246	0xbc4fcff5	-0.012683858
247	0x3cae14bd	0.021250123
248	0xbc593d83	-0.013259294
249	0xbc91e5cf	-0.017809777
250	0x3cf4eadc	0.029897146
251	0xbce01a39	-0.027356254
252	0x3d128858	0.03577456
253	0xbbc7b428	-0.0060944743
254	0x3d27399f	0.040826436
255	0x3baad619	0.0052135107

transformer.layers.0.linear1.bias f4 [128]
0	0xbb0ff709	-0.0021967313
1	0x3bba4e9d	0.005685641
2	0xbc309546	-0.010777777
3	0x3cff18f0	0.03113982
4	0x3b47a556	0.0030463538
5	0x3ba5254a	0.0050398456
6	0x3bd4fd6c	0.006499937
7	0x3baeb580	0.005331695
8	0x3c458b25	0.0120571
9	0x3b4f5a42	0.0031639491
10	0x3c91f682	0.01781774
11	0xbc46d3b5	-0.012135436
12	0x3b8cf82e	0.0043020463
13	0xba3ddc0b	-0.0007242567
14	0x3c2d9d1a	0.010596538
15	0x3c33fe41	0.010985912
16	0x3bd42ebb	0.0064752973
17	0x3bef22ef	0.0072978656
18	0x3bba321b	0.0056822426
19	0x3ca034a8	0.019556358
20	0x3b705081	0.0036669078
21	0x3c836008	0.016037002
22	0x3bd8b620	0.006613508
23	0x3baba11b	0.005237711
24	0x3c3f3d95	0.011672397
25	0xba2956fe	-0.0006459801
26	0xbb646604	-0.0034850845
27	0xbc491b1b	-0.012274529
28	0x3b88eb9a	0.0041784765
29	0x3b324895	0.0027203907
30	0xbc2a8806	-0.010408407
31	0x3bcc66fb	0.006237862
32	0xbae02399	-0.0017100453
33	0xbcefab99	-0.029256629
34	0xbbdfbb6b	-0.006827762
35	0x3ba81827	0.0051298323
36	0xbc3c233b	-0.011483009
37	0x3bd6c6e5	0.006554472
38	0xbc2b7c20	-0.010466605
39	0xbbb118be	-0.005404561
40	0x3ab3a3ae	0.0013705397
41	0xbaf80325	-0.0018921836
42	0x3c452b9a	0.012034321
43	0x3c363d32	0.011122989
44	0x3c44c56e	0.0120099615
45	0x3b3fb0f6	0.0029249764
46	0xbc9e1fa1	-0.019302191
47	0x3b79924a	0.003808158
48	0x3c4549b8	0.012041502
49	0x3c1449c2	0.009050788
50	0x3b68c383	0.0035516925
51	0xb98d3cdd	-0.00026938962
52	0x3c8e1a2c	0.017346464
53	0x3c9528ef	0.018207995
54	0x3bb001b7	0.005371298
55	0x3c0ab732	0.008466529
56	0x3bf547bb	0.0074853576
57	0x3b78cb3f	0.003796294
58	0xbb13870d	-0.0022510916
59	0x3bc1e96c	0.0059177186
60	0x3b1fcbe3	0.0024383
61	0x3c1d8d9e	0.009616284
62	0x3b2b6811	0.0026154558
63	0xbbf45d43	-0.0074574067
64	0x3c03fa7b	0.008055325
65	0xbbf83c12	-0.0075755203
66	0x3b746cf5	0.0037296389
67	0xbbec3151	-0.0072080274
68	0x3c93e7aa	0.018054802
69	0x3bc55581	0.0060221558
70	0x3baa9532	0.0052057737
71	0xbc13928a	-0.009007106
72	0x3bbbb8f9	0.0057288376
73	0xbb087e3f	-0.0020827202
74	0xbb2db1c8	-0.002650367
75	0x3c40f98d	0.011778248
76	0x3ba62073	0.005069786
77	0x3c4bfe4d	0.012450767
78	0x3b53f8b6	0.0032344288
79	0x3b5dbddc	0.0033835089
80	0xbcbab864	-0.022793002
81	0xb9f138ea	-0.00046009506
82	0x3b75488f	0.0037427281
83	0x3c6becb3	0.014399695
84	0x3c20a701	0.009805442
85	0x3bd759d1	0.0065719862
86	0xbc645708	-0.0139367655
87	0x3bbd0c2c	0.0057692733
88	0x3c0679d8	0.008207761
89	0x3b08f176	0.0020895875
90	0x3b9c996a	0.0047790306
91	0x3b67816d	0.0035324947
92	0xbc8a1d8c	-0.016859792
93	0x3c63494f	0.013872459
94	0x3c22a3f5	0.009926786
95	0x3bfc31f3	0.007696384
96	0xb9032c47	-0.00012509628
97	0x3c0f4761	0.008745045
98	0x3b509bea	0.0031831213
99	0xbc1d7ee6	-0.0096127745
100	0xbc80677d	-0.015674347
101	0x3c18d7fc	0.009328838
102	0xbca9be31	-0.020720573
103	0x3a0a04a9	0.00052649766
104	0x3b605c30	0.0034234636
105	0x3c894277	0.016755326
106	0xbc9d7263	-0.019219583
107	0x3bb3251a	0.0054670693
108	0x3a2ea283	0.00066617894
109	0xbc693be9	-0.014235475
110	0xbbf8726c	-0.0075819995
111	0xbb8fef8b	-0.0043925694
112	0xba105af8	-0.00055067195
113	0x3c9af9e3	0.018917983
114	0xbb12733d	-0.002234652
115	0x3c30afc0	0.01078409
116	0x392280a1	0.00015497442
117	0x3be488ba	0.006974307
118	0x3bacabd8	0.005269509
119	0x3909ae76	0.0001313033
120	0x3c4f3d17	0.012648842
121	0x3b87fc6e	0.004149965
122	0xb9d63106	-0.00040853786
123	0x3c487a2e	0.012236161
124	0x3c223510	0.009900346
125	0x3c5e5d12	0.013571994
126	0xbb1e48d4	-0.0024152296
127	0x3c59dd18	0.013297342
