marble_model/best_model_v3.0_20250531_005831.pt (torch, 295593 bytes, 30 tensors)

token_embedding.weight f4 [13, 64]
0	0xbc96062f	-0.018313495
1	0x3d0a2ccc	0.033734128
2	0xbd2a42fb	-0.041567784
3	0x3cf720ca	0.030167002
4	0xbcc49ab4	-0.02399955
5	0xbb336972	-0.0027376083
6	0xbd18ff7c	-0.037353024
7	0x3c8710e2	0.016487543
8	0xbc782679	-0.015145891
9	0xbca5597c	-0.020184271
10	0xbc31e821	-0.0108585665
11	0xbb9a535b	-0.004709644
12	0xbc7a62aa	-0.015282312
13	0x3cf9ac29	0.0304776
14	0x3d0d2260	0.03445661
15	0x3abe32c5	0.001451098
16	0x3c352977	0.011057249
17	0xbc2a930a	-0.010411033
18	0x3d4957cd	0.049156
19	0xba870a52	-0.0010302758
20	0x3befe8ce	0.0073214537
21	0x3d1caada	0.038248874
22	0xbb8fc7c7	-0.004387829
23	0x3c94e78c	0.018176816
24	0x3b46ef19	0.0030354916
25	0xbc9985b0	-0.018740505
26	0x3cc2cb10	0.023778468
27	0xbca1e9cb	-0.019764801
28	0x3aea1fd3	0.0017862268
29	0xbb669e98	-0.0035189744
30	0xbc6a3312	-0.014294403
31	0x3d9193da	0.071082786
32	0x3cbd9d7e	0.023146387
33	0xbcf6b030	-0.03011331
34	0xbba89cf6	-0.0051456643
35	0xbb9afe68	-0.0047300346
36	0xbc4d1280	-0.012516618
37	0x3c498435	0.012299587
38	0xbc9a308d	-0.018821979
39	0xbac0595c	-0.0014675069
40	0x3cd6ce39	0.026221382
41	0xbc19b797	-0.00938215
42	0x3bb18e5c	0.005418582
43	0x3bf7d158	0.0075627975
44	0x3cd45573	0.025919652
45	0x3ba8c6a5	0.0051506334
46	0xbcb89864	-0.022533603
47	0xbd00c974	-0.03144212
48	0x3cbd27e0	0.023090303
49	0x3cc13e6f	0.023589341
50	0xbc9f893b	-0.019474616
51	0xbd041442	-0.03224588
52	0xbb847b09	-0.0040429872
53	0x3c5442ee	0.01295541
54	0xbc832129	-0.016007023
55	0xbb68644e	-0.0035460177
56	0x3d24f5ef	0.040273603
57	0x3ced425d	0.028962309
58	0xbbb44d45	-0.0055023753
59	0x3c575b22	0.013144286
60	0xbcfe3a34	-0.031033613
61	0x39abbc16	0.00032755797
62	0xbbbbdd53	-0.005733171
63	0x3b0344cd	0.0020030022
64	0x3b98f546	0.0046679107
65	0xbcb3b7e2	-0.021938268
66	0xbb8a33a8	-0.0042175837
67	0x3cdb09da	0.026738096
68	0xbd27e0f4	-0.040986016
69	0xbd5f465b	-0.054510456
70	0x3c0b9762	0.008519979
71	0xbd3595b2	-0.044332214
72	0x3b16e871	0.002302673
73	0xbb8b9b3b	-0.0042604483
74	0x3cf2a73d	0.029620761
75	0x3ce0b9c6	0.027432334
76	0x3ca8f915	0.020626584
77	0x3c0c2f5c	0.008556213
78	0xbafcfdd6	-0.0019301723
79	0xbca20539	-0.019777881
80	0xbd4fe013	-0.050750803
81	0xbcdf7cf7	-0.027281268
82	0x3cbbe12c	0.022934519
83	0x3cc56928	0.024097994
84	0xbcdd0d9d	-0.02698403
85	0x3d3de825	0.04636397
86	0x3b9f76f9	0.0048664776
87	0xbd5a93a3	-0.053363454
88	0x3d132d47	0.03593185
89	0xbd01a493	-0.03165109
90	0x3d749577	0.059712853
91	0x3c37635d	0.011193124
92	0x3ca3cc9a	0.019995023
93	0x3d67d34f	0.056598004
94	0xbc9d3913	-0.019192254
95	0x3d20c73c	0.039252505
96	0x3c1a0564	0.009400699
97	0x3d1d0431	0.038334075
98	0x3d001432	0.03126926
99	0xbaeb92dd	-0.0017972846
100	0xbd83e4df	-0.06440138
101	0x3c8000a5	0.015625307
102	0x3cde5841	0.027141692
103	0x3d38f212	0.04515273
104	0xbba8295d	-0.005131884
105	0xbcefecb2	-0.02928767
106	0xbd0c101b	-0.034195047
107	0xbcd31859	-0.025768446
108	0x3d16ed3a	0.03684733
109	0x3d1e0519	0.03857908
110	0xbc93e9cf	-0.018055825
111	0xbcb124bc	-0.021623962
112	0x3cfb3dd9	0.03066914
113	0x3b8c9bf3	0.0042910515
114	0xbc690059	-0.014221274
115	0xbd5859cf	-0.052820023
116	0xbd0885cb	-0.03333072
117	0xbba5e348	-0.0050624944
118	0x3c5e4578	0.013566367
119	0x3c51c528	0.012803353
120	0xbce4e945	-0.027943263
121	0x3c80dfd7	0.015731735
122	0xbc7fab86	-0.015604859
123	0xbcc613ae	-0.024179306
124	0xbc039c9a	-0.008032942
125	0x3bab544f	0.005228556
126	0xbcebe490	-0.02879551
127	0x3ca0c05e	0.019622978
128	0xbc675c72	-0.014121162
129	0xbbdea650	-0.0067947283
130	0xbcf43faf	-0.029815523
131	0x3cd7c121	0.026337208
132	0x38f7fd65	0.00011825076
133	0x3bedaed7	0.0072535085
134	0xbb9b8284	-0.0047457833
135	0xbcfd15f8	-0.030894265
136	0x3d020c8b	0.031750243
137	0x3a8907aa	0.0010454555
138	0xbc4dbee6	-0.012557721
139	0xbcb85222	-0.022500101
140	0x3b48c1ab	0.0030633013
141	0xbb1a7590	-0.0023568608
142	0x3c80d8e6	0.015728425
143	0x3c814934	0.015781976
144	0x3c569c1e	0.013098745
145	0x3cbb26a2	0.02284557
146	0x3c9ac32c	0.018891893
147	0x3d0bb9cc	0.034112737
148	0xbc8eda1c	-0.017437987
149	0xbbfe80ca	-0.0077668177
150	0xbc10ea57	-0.0088449335
151	0xbd3eaa6d	-0.04654925
152	0x3aa248ee	0.0012381354
153	0xbbe1488b	-0.006875103
154	0xbbe72082	-0.007053436
155	0xbc7f17e3	-0.01556966
156	0x3c9e4076	0.019317847
157	0xbc856630	-0.016284078
158	0xbc8796d2	-0.016551409
159	0xbb0da13a	-0.002161099
160	0x3cb1e373	0.021714902
161	0xbc94fe14	-0.01818756
162	0xbc334861	-0.010942549
163	0xbd20dcdd	-0.03927313
164	0xbb62163c	-0.0034498116
165	0x3d058315	0.032595713
166	0x3c5ffef0	0.013671622
167	0x3ce03c07	0.027372373
168	0xbc01478c	-0.007890593
169	0x3a805015	0.0009789491
170	0xbc001f8c	-0.007820021
171	0xbb734210	-0.0037118234
172	0x3b144c2c	0.002262841
173	0x3c15bb76	0.009138932
174	0xbcabef9c	-0.020988278
175	0x3d0dc9b6	0.034616195
176	0xba8c70b6	-0.0010714743
177	0xbca54b12	-0.020177398
178	0x3a298ef2	0.0006468139
179	0x3cfbdd1b	0.03074508
180	0xbc0a1851	-0.008428649
181	0xba03fa9e	-0.0005034598
182	0x3c198651	0.009370402
183	0xbc08cdb6	-0.008349827
184	0x3c0c63e6	0.0085687395
185	0xbba39faf	-0.004993401
186	0x3ce2ed09	0.027700918
187	0x3ca98300	0.020692348
188	0x3c7678dd	0.0150434645
189	0x3c059ab3	0.008154559
190	0x3b23d071	0.0024996067
191	0x3ca8fed7	0.02062933
192	0xbc5babd1	-0.013407663
193	0x3ce90348	0.028443947
194	0xbb893dd1	-0.0041882773
195	0xbad2e3b9	-0.0016089595
196	0x3ba8fb9a	0.0051569464
197	0x3bf25145	0.007394942
198	0x3c0d0c1f	0.008608847
199	0x3b93cc46	0.0045104353
200	0x3c6fdf32	0.014640616
201	0x3c3495f2	0.011022078
202	0xbc558b05	-0.013033633
203	0xbca8c6b3	-0.02060256
204	0x39dee99c	0.00042517192
205	0xbc994035	-0.018707374
206	0xbcf810e3	-0.03028149
207	0x3b645f15	0.0034846712
208	0x3c92ed19	0.017935323
209	0x3c89f4b0	0.016840309
210	0xbc2e6a7b	-0.010645504
211	0xbb4e8c13	-0.0031516596
212	0x3cdaf2ef	0.026727168
213	0xbcd49204	-0.025948532
214	0xbd006231	-0.031343643
215	0x3b1d91e9	0.0024043268
216	0xbcccef88	-0.025016561
217	0x3cfd1ff8	0.030899033
218	0xbc0f48c0	-0.008745372
219	0xbc81c8e8	-0.01584287
220	0xba104811	-0.0005503903
221	0x3d191ee1	0.037382964
222	0x3cd9ae10	0.026572257
223	0xbb1262c5	-0.0022336703
224	0x3b22fb51	0.0024869035
225	0x3c8d752e	0.01726779
226	0x3c1f0c52	0.009707527
227	0xbca9590f	-0.02067235
228	0x3c54a538	0.012978844
229	0x3c918d30	0.017767519
230	0x3cf0c061	0.029388608
231	0xbbe95c5a	-0.007121605
232	0x3a8d50af	0.0010781492
233	0xbb982214	-0.0046427343
234	0x3c3aac68	0.011393644
235	0x3b96086e	0.0045786416
236	0x3c717b27	0.014738834
237	0x3c14dbf0	0.00908564
238	0x3c937c81	0.018003704
239	0xbb6a95c2	-0.003579483
240	0xbcca962a	-0.024729807
241	0xbc225d9a	-0.009910012
242	0x3c0f9212	0.008762853
243	0x3ca54fd3	0.020179665
244	0x3c8b6637	0.017016513
245	0x3c2de984	0.0106147565
246	0x3b024bd8	0.0019881632
247	0xbc0518a4	-0.008123551
248	0x3bd89c11	0.0066104014
249	0xbca4b269	-0.020104604
250	0x3d24b7cd	0.04021435
251	0x3b239b86	0.0024964525
252	0x3cd63329	0.026147442
253	0xbc53c3a2	-0.0129250605
254	0xba96b421	-0.0011497774
255	0x3b3307db	0.0027317915

position_embedding.weight f4 [30, 64]
0	0x3d146cec	0.03623669
1	0xbd0ba99d	-0.034097303
2	0x3d279640	0.040914774
3	0x3d03b585	0.032155532
4	0xbba4ef78	-0.0050334297
5	0xbc1ae09b	-0.009452964
6	0xbbeed388	-0.0072884
7	0xbc5bf05d	-0.013424006
8	0xbd3af811	-0.04564673
9	0xbd334a4f	-0.043772038
10	0xbb8406a4	-0.004029112
11	0x3c5c1e14	0.013434906
12	0x3d1cea6b	0.038309496
13	0x3c579b6b	0.013159613
14	0x3d59cbb6	0.05317279
15	0xbb5c39fe	-0.0033603902
16	0xbc7689e6	-0.015047526
17	0xbc49f4e0	-0.012326449
18	0x3d092f6f	0.0334925
19	0x3b0d0c80	0.0021522343
20	0xbc98ac98	-0.018636987
21	0xbb791992	-0.0038009626
22	0x3c88ff29	0.016723232
23	0xbc337978	-0.010954253
24	0xbc5bba70	-0.013411149
25	0xbd16f29e	-0.03685247
26	0x3c3f428f	0.011673584
27	0x3ce381b6	0.027771812
28	0x3cc1dcb0	0.023664802
29	0x3c80b32b	0.015710434
30	0xbc888563	-0.016665166
31	0x3c27fcd8	0.010253154
32	0x3d2211f9	0.03956792
33	0x3d1766bf	0.03696322
34	0x3cf50675	0.029910306
35	0x3ce413c7	0.027841462
36	0x3c771941	0.015081705
37	0x3cd5e5f7	0.026110632
38	0x3d0f2ad8	0.03495297
39	0x3ca45ddb	0.020064285
40	0xbd2ebed3	-0.042662453
41	0xbcd1506e	-0.025551047
42	0x3c180baf	0.009280129
43	0xbcbc9337	-0.023019416
44	0xb9325045	-0.00017005306
45	0xbacfeb4e	-0.0015862973
46	0xbd0316eb	-0.03200428
47	0xba43fa7e	-0.0007475986
48	0x3bad564c	0.0052898284
49	0xbb3878a7	-0.0028148086
50	0x3cdeafc5	0.027183423
51	0xbd13a428	-0.036045223
52	0xbcf0d1cc	-0.029396914
53	0xbd606d77	-0.054791894
54	0x3b9e8b96	0.0048384173
55	0x3cea6548	0.028612748
56	0xbd230311	-0.039797846
57	0x3ce6adc8	0.028159037
58	0x3cccc9b4	0.024998523
59	0xbd10dc4e	-0.03536635
60	0xbd0b8c52	-0.034069367
61	0xbb805190	-0.003915973
62	0xbd03b586	-0.032155536
63	0xbc55b66c	-0.013043981
64	0xbcdf6839	-0.027271377
65	0x3cc3096d	0.023808206
66	0xbd53bd86	-0.051694416
67	0x3cf503ab	0.029908976
68	0xbd31dbf4	-0.043422654
69	0x3cdc8e4a	0.026923317
70	0xbc4d84d3	-0.012543875
71	0x3c7d2eb9	0.015453034
72	0x3d041a01	0.03225136
73	0x3cce241f	0.025163708
74	0x3bbf9b25	0.005847352
75	0xbc4ca54d	-0.012490583
76	0x3d22e0c6	0.039765142
77	0xbcb5e0ed	-0.02220198
78	0x3bbe1fee	0.005802146
79	0x3cb639b2	0.022244308
80	0x3c38c912	0.011278408
81	0x3ba07ef1	0.004897945
82	0x3bd4a9cf	0.0064899693
83	0xbcac0e55	-0.021002928
84	0x3b84c47c	0.004051743
85	0xbd355fc3	-0.04428078
86	0xbc83e7af	-0.016101686
87	0x3d145792	0.036216326
88	0xbc302168	-0.010750152
89	0x3c3ece50	0.011645868
90	0xbb58ec49	-0.0033099821
91	0xbce64c6a	-0.028112609
92	0xbc3a57f4	-0.011373509
93	0xbc98ce35	-0.018653015
94	0x3b958e7f	0.004564106
95	0x3cfcc5ef	0.0308561
96	0xbb049c9a	-0.0020234943
97	0xbd346b16	-0.044047438
98	0x3c8bb5d1	0.01705447
99	0xbc1b6e68	-0.009486772
100	0x3c9bb82f	0.019008724
101	0xbc732184	-0.014839534
102	0x3cf89abd	0.030347222
103	0x3b98364d	0.004645145
104	0xbcc55e44	-0.0240928
105	0xbbd86ba2	-0.0066046277
106	0x3cc4d4aa	0.024027187
107	0x3b07912b	0.0020685892
108	0xbc8eba6c	-0.017422877
109	0x39aa54d9	0.00032488143
110	0x3d3f2d0f	0.04667383
111	0xbb140d71	-0.002259102
112	0xbb9289a8	-0.0044719763
113	0x3cc55ef8	0.024093136
114	0xbd12dcba	-0.035855033
115	0xbc2c4c57	-0.010516248
116	0x3a152fa4	0.0005690998
117	0x3c39188a	0.0112973545
118	0x3c5dee11	0.013545529
119	0xbbab333c	-0.0052246135
120	0xbc3d9fd4	-0.0115737505
121	0x3d14a978	0.03629443
122	0xbd225bf2	-0.039638467
123	0xbc2d7e6e	-0.010589225
124	0x3bebd0cc	0.0071965214
125	0xbd2583a8	-0.04040876
126	0xbc8955fa	-0.01676463
127	0x3afcaad0	0.001927698
128	0xbc7efba9	-0.01556293
129	0xba519751	-0.0007995265
130	0xbca1c142	-0.019745473
131	0x3d393dcf	0.04522496
132	0xbca7c7da	-0.020481039
133	0x3c8fadd1	0.017538937
134	0xbd0bb187	-0.03410485
135	0xbc1fde5f	-0.009757607
136	0x3c894b92	0.016759668
137	0x3ce4ec45	0.027944693
138	0xbb719bf3	-0.0036866635
139	0xbaa0dc55	-0.0012272695
140	0x3c91c306	0.01779319
141	0x3c640fad	0.013919753
142	0x3c99b65d	0.018763715
143	0x3cd21c16	0.025648158
144	0x3b378ee4	0.0028008753
145	0xbb193f0f	-0.0023383533
146	0x3c6a4ccc	0.014300536
147	0xbcf3e2fe	-0.029771324
148	0x3bf2a2f7	0.007404681
149	0x39b94137	0.0003533454
150	0x3cad75c3	0.021174317
151	0x3d1273e4	0.035755053
152	0x3d18fb5d	0.037349094
153	0xbd0cd80d	-0.03438573
154	0xbba88881	-0.0051432257
155	0xbc438490	-0.011933461
156	0xbd0f90ab	-0.035050076
157	0xbd570298	-0.052492708
158	0xbc8d1df4	-0.017226197
159	0x3d19cc9a	0.03754864
160	0xbccb6a92	-0.02483109
161	0xbd1546f7	-0.03644463
162	0x3c9905a5	0.01867945
163	0x3cbf15e5	0.02332587
164	0x3c9a5069	0.01883717
165	0xbc38d872	-0.011282073
166	0xbd301727	-0.04299083
167	0x3bd475ed	0.0064837844
168	0xbd10ea6e	-0.03537982
169	0x3cbcc5a3	0.02304346
170	0x3cdb718d	0.026787544
171	0x3c537536	0.012906363
172	0xbd0bbd3d	-0.03411602
173	0xbcf74579	-0.030184494
174	0x3cd3b987	0.025845302
175	0xbb6d4493	-0.0036204203
176	0x3c256cf4	0.010096777
177	0x3ce603de	0.028078016
178	0xbd20c58c	-0.039250895
179	0xbd07e2a3	-0.033175122
180	0xbbe629cb	-0.007024025
181	0x3b8fe75a	0.004391593
182	0x3cc10470	0.023561686
183	0xbc2265ea	-0.0099119935
184	0xbc6e6e3a	-0.014552647
185	0x3c395f9c	0.011314299
186	0xbcfe7cea	-0.031065423
187	0xbc574d65	-0.013141011
188	0xbc1b96cc	-0.009496402
189	0xbd1d71d9	-0.03843865
190	0x3ca4bb68	0.020108894
191	0xbcc1b8fa	-0.023647774
192	0xbd095263	-0.033525836
193	0x3d26eb70	0.040751874
194	0xbd47538e	-0.04866367
195	0xbc2b39b1	-0.010450766
196	0x3d41fe72	0.0473618
197	0xbcdedeba	-0.027205814
198	0x3c98d7ba	0.018657554
199	0xbb079e78	-0.002069382
200	0xbce22384	-0.027604826
201	0xbd1b7732	-0.03795547
202	0x3ce50d4d	0.027960444
203	0xbd0ac168	-0.033875853
204	0x3cea147c	0.02857422
205	0x3c19adb5	0.009379794
206	0x3ba2e030	0.004970573
207	0xbb9a638d	-0.0047115744
208	0x3d51987c	0.05117081
209	0xbb950d80	-0.0045487285
210	0x3d801c88	0.06255442
211	0x3d2be022	0.041961797
212	0xbcef45b6	-0.029208045
213	0x3cc22938	0.023701295
214	0x3d1922fe	0.037386887
215	0xbd0cdfcc	-0.034393117
216	0xbccbbbc7	-0.024869813
217	0x3cf3fb86	0.029783022
218	0x3b5ea029	0.0033969975
219	0xbcbf062d	-0.023318375
220	0x3c5158fb	0.012777562
221	0x3cbe3642	0.023219232
222	0x3c557dd2	0.013030486
223	0x3d2e22a1	0.042513493
224	0xbc49f7d5	-0.012327154
225	0x3cf6e4ea	0.030138452
226	0xbcceeacf	-0.02525845
227	0xbd1e5cc1	-0.038662676
228	0x3cc091ea	0.023507077
229	0x3b5f13b3	0.0034038841
230	0x3d28e88a	0.04123739
231	0xbc9548bc	-0.018223159
232	0x3d340bc1	0.043956522
233	0x3d3f9e49	0.046781812
234	0x3d33bce6	0.04388132
235	0xbce190cb	-0.027534863
236	0x3d222135	0.03958245
237	0x3c73691b	0.014856602
238	0xbd61c92d	-0.055123497
239	0xbcbb0712	-0.02283052
240	0xbc653625	-0.01398996
241	0xbd11b622	-0.035574086
242	0x3bb48df2	0.0055100853
243	0x3ca390a9	0.01996644
244	0x3d187364	0.03721942
245	0xbccbdb43	-0.024884826
246	0xbd5a0b01	-0.05323315
247	0xbcb596ce	-0.022166636
248	0xbd203324	-0.03911127
249	0xbcd65fa1	-0.026168646
250	0x3b71da49	0.003690379
251	0x3caa64e8	0.020800069
252	0x3ccd49cf	0.025059609
253	0x3d442118	0.047883123
254	0x3ac33d8e	0.0014895664
255	0x3ce573d9	0.028009342

transformer.layers.0.self_attn.in_proj_weight f4 [192, 64]
0	0xbdac09a0	-0.08400273
1	0x3e14fa23	0.14548545
2	0x3dc1aa3a	0.09456296
3	0xbdba47dc	-0.09095737
4	0xbdb228f5	-0.08699218
5	0xbd124857	-0.03571352
6	0xbdb15ac2	-0.08659889
7	0x3bd8d329	0.006616969
8	0xbceefa21	-0.029172005
9	0xbe0cc3be	-0.13746545
10	0x3d742257	0.05960306
11	0xbda13923	-0.07872226
12	0xbd9befcf	-0.07614099
13	0xba94b759	-0.0011346146
14	0x3d87d9fe	0.066333756
15	0xbde0c788	-0.109755576
16	0xbdf806f2	-0.121107
17	0xbddb36d0	-0.10703814
18	0x3dd9b6a4	0.10630539
19	0xbbf0939e	-0.007341816
20	0xbe0ec46e	-0.1394212
21	0x3d27f5bb	0.04100583
22	0x3e0c8b14	0.13724929
23	0x3df06ef3	0.11739912
24	0xbcbd13d9	-0.023080753
25	0x3de34a54	0.11098161
26	0xbdc099dc	-0.09404346
27	0xbd12a002	-0.035797127
28	0x3d8892b1	0.06668604
29	0x3daa8a8f	0.08327209
30	0x3d54f9a8	0.051995903
31	0x3d13be8e	0.0360704
32	0xbe029b77	-0.12754618
33	0xbd955854	-0.07292238
34	0xbd555740	-0.05208516
35	0x3d8116b1	0.06303156
36	0x3ddd4a35	0.108051695
37	0x3e0575d8	0.13033235
38	0xbdd13c30	-0.10216558
39	0x3b8dc281	0.004326165
40	0xbdfec0a5	-0.12439088
41	0x3e0a538e	0.13508436
42	0x3dc60042	0.09668018
43	0xbaba398d	-0.0014207825
44	0xbcfae6a0	-0.030627549
45	0xbd4db704	-0.050223365
46	0xbdf4970a	-0.11942871
47	0xbdb15d8a	-0.08660419
48	0xbd465339	-0.04841921
49	0xbd9b1803	-0.07572939
50	0x3c8ab988	0.016934171
51	0xbcbc4953	-0.022984182
52	0xbc6206a2	-0.013795527
53	0x3cbf2aa0	0.023335755
54	0x3a5e0800	0.000846982
55	0xbcd574d4	-0.026056685
56	0x3e0a1650	0.13485074
57	0xbda90fa5	-0.08254937
58	0xbd8c2da6	-0.06844644
59	0xbc4744ad	-0.01216237
60	0x3dad0a1f	0.08449196
61	0xbdb7d7f4	-0.08976737
62	0x3da799eb	0.081836544
63	0xbe0246d8	-0.12722337
64	0xbe04682a	-0.1293036
65	0xbe04596e	-0.1292474
66	0x3bcb23e3	0.0061993464
67	0x3d3abb6a	0.04558889
68	0x3ddf0d15	0.10891167
69	0x3dc4a842	0.09602405
70	0xbe006275	-0.12537558
71	0xbd3b9a8d	-0.045801688
72	0x3ddd06fe	0.10792349
73	0x3df2d980	0.11857891
74	0xbe0487a7	-0.12942372
75	0xbd70839d	-0.058719266
76	0xbda0a186	-0.07843308
77	0xbe0f2807	-0.13980113
78	0xbd8f0201	-0.06982804
79	0xbca98ae3	-0.02069611
80	0xbe1aa0f1	-0.15100457
81	0xbdb80093	-0.089844845
82	0x3d8ac1df	0.06775259
83	0xbe38d799	-0.18050994
84	0x3da3a4ef	0.07990443
85	0xbc4fab20	-0.012675077
86	0xbd47bfa6	-0.048766755
87	0x3cae4d70	0.02127716
88	0xbd7de534	-0.061986163
89	0x3d24a40b	0.040195506
90	0xbcae734a	-0.021295208
91	0xbdc9efca	-0.09860189
92	0x3dc33c97	0.09533041
93	0xbd148795	-0.036262114
94	0xbdb90325	-0.09033803
95	0xbdea697d	-0.114459015
96	0xbd777aa1	-0.060419682
97	0x3ce5b5fb	0.028040877
98	0x3cdfdc0d	0.027326608
99	0xbd8f46fa	-0.069959596
100	0x3e24bd66	0.16087875
101	0xbe1fa224	-0.15589195
102	0x3dc482f6	0.09595291
103	0xbdd7b197	-0.105319194
104	0xbd9bcfe9	-0.07608015
105	0x3dc9a016	0.09844987
106	0x3e1cb1d4	0.15302211
107	0xbdd956f9	-0.10612292
108	0xbde829c5	-0.11336092
109	0xbe08cee6	-0.13360175
110	0xbdae37ea	-0.085067585
111	0xbe0fb1f4	-0.14032727
112	0xbdb16135	-0.08661119
113	0x3e1e8de3	0.15483813
114	0x3dd5545b	0.1041648
115	0x3d8c664f	0.06855451
116	0xbdeae8e2	-0.114702
117	0x3d864890	0.06556809
118	0x3dc2b5b6	0.09507315
119	0xbdfeed1e	-0.1244757
120	0xbdaccf3b	-0.084379636
121	0xbd1a7af8	-0.03771493
122	0xbd3150f0	-0.04329008
123	0x3dfcffa8	0.1235345
124	0xbdd89b17	-0.10576456
125	0xbda694c3	-0.08133843
126	0x3e0366c6	0.12832174
127	0xbe1baa31	-0.15201642
128	0x3d07f9fc	0.033197388
129	0xbe17dd41	-0.14830495
130	0xbbc2a5a3	-0.0059401556
131	0x3d9c9d69	0.07647211
132	0xbe091738	-0.13387764
133	0xbbea8444	-0.0071568806
134	0xbdda5eac	-0.106625885
135	0xbdfde30a	-0.1239682
136	0xbdfb9397	-0.1228401
137	0xbcd5973f	-0.026073096
138	0xbe0718d1	-0.1319306
139	0xbb0154a4	-0.0019734288
140	0x3df26368	0.118353665
141	0x3d6eb95c	0.05828224
142	0xbdb179e5	-0.08665828
143	0xbde9643e	-0.11396073
144	0x3e1b2a20	0.15152788
145	0xbd241d81	-0.0400672
146	0x3c0a3633	0.008435774
147	0x3d5dc3bf	0.054141756
148	0xbd7f7b7b	-0.06237362
149	0xbd7018c7	-0.05861738
150	0x3c377d29	0.011199274
151	0xbcc00e75	-0.023444394
152	0xbda94dea	-0.08266814
153	0xbdab3e57	-0.083615
154	0xbdeb4ce8	-0.11489278
155	0x3dfa6e3d	0.122280575
156	0x3d024b35	0.031810004
157	0x3d20c947	0.039254453
158	0x3df47c47	0.119377665
159	0xbdd718b1	-0.105027564
160	0x3dcd73e8	0.10031873
161	0xbbcc1641	-0.006228239
162	0x3d0e1a18	0.034692854
163	0x3e14acc9	0.14519037
164	0xbcbb9e10	-0.022902519
165	0xbd9fe653	-0.07807603
166	0xbce3ccf1	-0.027807685
167	0x3ce0a11b	0.027420571
168	0xbe19b484	-0.15010267
169	0x3de50af4	0.1118373
170	0x3cfaa915	0.030598203
171	0x3e21d85a	0.15805188
172	0x3dae5e25	0.085140504
173	0xbe011bcb	-0.12608258
174	0xbce55e58	-0.027999088
175	0xbcecb73b	-0.028895965
176	0xbd1a2047	-0.03762844
177	0x3dd4635c	0.10370514
178	0x3df7fa3c	0.12108275
179	0x3cb88555	0.022524515
180	0x39661836	0.00021943529
181	0xbd81666e	-0.06318365
182	0xbdc0f982	-0.0942259
183	0x3cb7e2b4	0.022446968
184	0xbdc6eef3	-0.09713545
185	0x3c41f903	0.011839154
186	0xbe2085d4	-0.15676051
187	0xbd7d93a3	-0.061908375
188	0xbd9686d9	-0.07349939
189	0xbd9ffe00	-0.078121185
190	0x3dfdd5cb	0.123942934
191	0xbe2fff3c	-0.17187208
192	0x3c41fd05	0.01184011
193	0xbe0afba0	-0.1357255
194	0xbd46887b	-0.04847
195	0x3dbb64de	0.09150098
196	0x3d4eb46f	0.050465044
197	0xbe04840f	-0.12941001
198	0x3d94971b	0.072553836
199	0x3dc41cf6	0.09575836
200	0x3d974ca8	0.07387668
201	0xbc7cca30	-0.015429065
202	0xbe12e40f	-0.1434481
203	0xbdbad9e4	-0.091235906
204	0x3c8c3dbf	0.017119287
205	0x3df4265c	0.11921379
206	0x3dac1ae0	0.084035635
207	0xbdbbb2bf	-0.091649525
208	0x3dce2d8a	0.1006728
209	0xbd92bab3	-0.07164516
210	0xbdbcfea2	-0.09228255
211	0x3cefb17f	0.029259441
212	0xbd00a835	-0.031410415
213	0x3db69c8a	0.08916576
214	0x3bfa3658	0.007635873
215	0xbe20da7b	-0.15708344
216	0xbc77649e	-0.015099673
217	0x3d8df598	0.06931609
218	0x3de6e21c	0.11273596
219	0xbbac57f5	-0.0052595087
220	0xbd8de9e1	-0.069293745
221	0xbd37ccb0	-0.04487294
222	0xbdbab034	-0.09115639
223	0x3d2226e8	0.039587885
224	0xbdc02214	-0.093815
225	0x3e1ed23b	0.15509884
226	0xbce0d011	-0.027442964
227	0x3d957239	0.07297177
228	0x3dd2eff9	0.102996774
229	0x3dc3b347	0.09555679
230	0xbd780cfb	-0.060559254
231	0xbd994fe9	-0.07485945
232	0x3d5281da	0.051393367
233	0x3d2f9891	0.042870108
234	0xbd440d3a	-0.047864176
235	0x3e0e663f	0.13906191
236	0x3d24839b	0.04016457
237	0xbcbbbfb1	-0.022918554
238	0xbdadbacc	-0.08482894
239	0xbd08e8c2	-0.0334251
240	0xbe21ae44	-0.15789133
241	0xbd1ae76a	-0.03781835
242	0x3e34c6ca	0.17653957
243	0x3d354f93	0.04426534
244	0x3bbe2c3f	0.0058036144
245	0xbe169341	-0.1470461
246	0xbd086dc7	-0.033307817
247	0x3da7668a	0.08173855
248	0x3d7d5892	0.061852045
249	0xbd9941c8	-0.0748325
250	0x3e04582c	0.1292426
251	0x3c9f2ae4	0.019429632
252	0xbd9320bd	-0.07183979
253	0xbdd59e78	-0.10430616
254	0xbdba2564	-0.09089163
255	0xbd64f4c1	-0.055897478

transformer.layers.0.self_attn.in_proj_bias f4 [192]
0	0x3b44298b	0.0029931988
1	0x3bd4e4ad	0.006496987
2	0xbbbc22bd	-0.005741446
3	0xbbb007e0	-0.0053720325
4	0x3b5dc62a	0.0033840039
5	0x3b4327e3	0.0029778413
6	0xbc79357f	-0.015210508
7	0x3bcc1224	0.0062277485
8	0xbad27b3a	-0.0016058453
9	0x3a9a779d	0.0011784915
10	0xbc34aa02	-0.011026861
11	0xbb2ce80f	-0.0026383435
12	0x3b463174	0.0030241879
13	0xbb45e3f9	-0.0030195697
14	0xbb8dec5e	-0.0043311557
15	0xbb6a18ed	-0.0035720423
16	0xbab22386	-0.0013590909
17	0x3b730bed	0.0037085966
18	0x3b479370	0.003045287
19	0xbc559ece	-0.01303835
20	0xbd06ed85	-0.03294136
21	0x3b14dd81	0.0022715034
22	0xbc5a0428	-0.013306655
23	0xbaf7c3b0	-0.0018902924
24	0xbb430da0	-0.002976276
25	0xbba5b27d	-0.005056678
26	0x3accc196	0.0015621658
27	0x392339c7	0.00015566415
28	0xbbc5247b	-0.0060163117
29	0x3c4b31ee	0.012402041
30	0xbb88596a	-0.0041610496
31	0x39edd7dd	0.00045364993
32	0x3d4b222f	0.049593147
33	0x3bca3b10	0.0061715916
34	0xbc585062	-0.0132027585
35	0x3d4f7427	0.05064788
36	0xbccd1f9e	-0.02503949
37	0xbd3f7a12	-0.046747275
38	0xbd0a8229	-0.033815537
39	0x3c9da4a9	0.019243555
40	0x3c2a5fbd	0.010398802
41	0x3cda13c6	0.026620757
42	0xbc3800d4	-0.011230666
43	0xbc66fefd	-0.01409888
44	0xbd14e112	-0.036347456
45	0x3d012211	0.03152663
46	0xbc3b3686	-0.011426574
47	0x3c1ff4a7	0.0097629195
48	0x3c05283b	0.0081272675
49	0xbcd015e1	-0.025401058
50	0xbd44b470	-0.04802364
51	0x3c26748e	0.010159625
52	0xbb3a2cd0	-0.0028408058
53	0xbb19ad4d	-0.0023449243
54	0x3c7bf82c	0.015378993
55	0x3b42d4d9	0.0029728918
56	0xbc396b2a	-0.011317054
57	0x3cb56e9e	0.022147473
58	0x3caae96e	0.020863261
59	0xbce893be	-0.028390761
60	0xbc57c42c	-0.01316933
61	0x3d018582	0.031621464
62	0x3c8ffae5	0.01757569
63	0x3c9ac3aa	0.018892128
64	0x34a01cff	2.982342e-07
65	0x34c092e5	3.5869667e-07
66	0xb4c0d46d	-3.5917347e-07
67	0xb4a7d27f	-3.125933e-07
68	0x3415b1ea	1.3941431e-07
69	0x349135cd	2.70475e-07
70	0xb5046338	-4.9318214e-07
71	0x34c38efe	3.642562e-07
72	0x340d999b	1.318753e-07
73	0x3498f589	2.8490857e-07
74	0xb42457ee	-1.5305679e-07
75	0xb548c345	-7.478996e-07
76	0x340032e1	1.1939439e-07
77	0xb49d325c	-2.928017e-07
78	0xb430258b	-1.6404935e-07
79	0xb519bc48	-5.7270927e-07
80	0x3151db72	3.0538243e-09
81	0x348dc254	2.640469e-07
82	0x336229ef	5.2657864e-08
83	0x33035d20	3.058551e-08
84	0xb421343e	-1.5013299e-07
85	0x346e6377	2.2201662e-07
86	0xb42f70be	-1.633916e-07
87	0x349d9c62	2.9357312e-07
88	0x321938bf	8.918675e-09
89	0xb41fe815	-1.489246e-07
90	0xb3420a4b	-4.5178506e-08
91	0x343c13e6	1.7516103e-07
92	0xb3e8afce	-1.08353206e-07
93	0x338d3d49	6.576972e-08
94	0xb4692708	-2.1714015e-07
95	0xb412f7ce	-1.368746e-07
96	0xb44e86c6	-1.9234275e-07
97	0x34f95d65	4.6447818e-07
98	0xb30643af	-3.1260864e-08
99	0xb4aa6f2a	-3.174585e-07
100	0x34fc29f9	4.6969197e-07
101	0x34516e62	1.9504799e-07
102	0x352f8f4c	6.5401105e-07
103	0x347fbc88	2.3817313e-07
104	0x34c52dc8	3.672742e-07
105	0x347dedce	2.3648974e-07
106	0xb4569e38	-1.9987863e-07
107	0xb4124610	-1.3622798e-07
108	0x350eb59b	5.3163393e-07
109	0xb572fd98	-9.052105e-07
110	0xb4b5fbaf	-3.3897e-07
111	0xb433966e	-1.67254e-07
112	0x3434b39a	1.6829145e-07
113	0xb3e5f69d	-1.0708502e-07
114	0x359b7651	1.1582835e-06
115	0xb320b248	-3.741505e-08
116	0x34e037b1	4.1763772e-07
117	0xb2833645	-1.5275086e-08
118	0x33964ba5	6.998679e-08
119	0x350e4f2f	5.301435e-07
120	0xb32198bd	-3.762465e-08
121	0xb4faf7dd	-4.6746473e-07
122	0xb429cc7c	-1.5813742e-07
123	0xb401dc82	-1.2094281e-07
124	0xb51a4f22	-5.7484624e-07
125	0xb48ca713	-2.6198595e-07
126	0x3396eb58	7.027728e-08
127	0xb4847583	-2.4672417e-07
128	0x3c11a09a	0.008888388
129	0xbbafae2e	-0.00536134
130	0xbb2f0011	-0.002670292
131	0xbb6d6f68	-0.0036229733
132	0xbb128480	-0.0022356808
133	0xba2275ff	-0.00061973924
134	0xbaed8820	-0.0018122233
135	0xb93e5e19	-0.00018154866
136	0x3c8c105b	0.017097643
137	0x3bad06b9	0.0052803424
138	0xbaaaf527	-0.0013043032
139	0x3b6f6b5c	0.0036532497
140	0xbb0f515d	-0.0021868565
141	0xbbd4426c	-0.0064776447
142	0x3c774d46	0.015094107
143	0x3c89e0eb	0.016830882
144	0x3c4fe06e	0.012687786
145	0x3ba7b9aa	0.0051185684
146	0xbb8c383e	-0.0042791655
147	0x3c6890b8	0.01419466
148	0x3c80534b	0.015664717
149	0xbaeedfa5	-0.001822461
150	0x3b87a32c	0.0041393247
151	0x3b0aaf05	0.0021161449
152	0xbc3f7c45	-0.011687343
153	0xba835a1e	-0.0010021364
154	0x3c1254f5	0.008931388
155	0xbc0ba8d7	-0.008524141
156	0xbbae8a54	-0.0053265486
157	0x3bce5491	0.006296702
158	0x3a1eb93c	0.0006054824
159	0xbc8764a1	-0.016527476
160	0x3aa578ea	0.0012624536
161	0x3bce8c30	0.0063033327
162	0x3afbea5a	0.0019219622
163	0x3a992323	0.0011683445
164	0xba0d990a	-0.0005401528
165	0x3c1a1ca4	0.0094062425
166	0xbb4b2f20	-0.003100343
167	0x3c781006	0.015140539
168	0x3c83df42	0.016097669
169	0xbbf17899	-0.0073691127
170	0xb9966513	-0.00028685536
171	0xbb10832d	-0.0022050843
172	0x3b99450b	0.00467742
173	0x3c6eea2b	0.014582197
174	0xb97e5a4b	-0.00024256964
175	0x3c5776a2	0.013150843
176	0xbb8d86e4	-0.0043190587
177	0x3a5fc001	0.0008535386
178	0x3cad71c4	0.021172412
179	0xbc7133bb	-0.014721806
180	0x3b41fd4b	0.0029600437
181	0xbb0f4e0f	-0.0021866595
182	0xb8dfea21	-0.000106770785
183	0xbc5359c3	-0.012899819
184	0xb9d56156	-0.00040699047
185	0x3c6669fe	0.014063356
186	0xbb847d3a	-0.0040432485
187	0x3c8cb226	0.017174792
188	0xbbb2ec12	-0.0054602707
189	0xbaec17f9	-0.0018012516
190	0x3b619c95	0.0034425606
191	0x3ba061f5	0.00489449

transformer.layers.0.self_attn.out_proj.weight f4 [64, 64]
0	0xbd1eee72	-0.038801618
1	0xba51736e	-0.00079899176
2	0xbc21fbac	-0.009886663
3	0xbc280986	-0.010256177
4	0x3c2cf2a8	0.010555901
5	0x3c2428e5	0.010019516
6	0x3b3554e9	0.0027669019
7	0x3cf050f4	0.029335476
8	0x3cc08864	0.023502536
9	0xbcb2fda5	-0.021849463
10	0xbbbc46ec	-0.0057457592
11	0x3c4dd0c6	0.0125619825
12	0x3c33d34a	0.010975668
13	0xba01914c	-0.00049426104
14	0x3c864a45	0.016392836
15	0x3ce982f8	0.028504834
16	0x3c1334ec	0.0089847855
17	0xbd0612e3	-0.032732856
18	0xbcaf1a32	-0.021374796
19	0x3d5d3af4	0.0540113
20	0x3c314560	0.010819763
21	0xbaace58c	-0.0013190969
22	0xbb6f3faa	-0.0036506453
23	0x3d4ef18b	0.050523322
24	0x3c289e5a	0.01029166
25	0xbc4b80eb	-0.012420873
26	0x3a1ae464	0.00059086666
27	0xbd251a8f	-0.04030853
28	0x3bf74f01	0.00754726
29	0x3cd1295c	0.025532417
30	0xbbb507a2	-0.0055245915
31	0xbc77cd4f	-0.015124633
32	0xbca677e8	-0.020320848
33	0xbaffea03	-0.0019524697
34	0xbc072eea	-0.008250931
35	0x3be7c967	0.0070735696
36	0x3c0bb40f	0.008526816
37	0x3d38575d	0.04500519
38	0xbd03263e	-0.032018892
39	0xbc1ef0d9	-0.009700977
40	0x3d36203c	0.044464335
41	0xbd03dd7b	-0.032193642
42	0xbbb7061f	-0.0055854465
43	0x3a4e0bfc	0.0007860062
44	0x3a8c6b59	0.0010713144
45	0xbbd49f0f	-0.006488688
46	0x3c3fcdd4	0.011706788
47	0x3b742c64	0.0037257904
48	0x3c565e60	0.013084024
49	0xbc235253	-0.009968358
50	0x3cfff17e	0.031243082
51	0xbd354946	-0.044259332
52	0xbccf17ff	-0.025279997
53	0x3bc8b3bd	0.006124942
54	0x3bddaccc	0.0067649838
55	0xbc24134c	-0.010014366
56	0x3cb523b3	0.02211175
57	0xbba26bfb	-0.00495672
58	0xbc47a25e	-0.012184707
59	0xbb4cdf74	-0.0031261118
60	0xbbe15230	-0.0068762526
61	0x3c841e1b	0.016127637
62	0x3d354189	0.044251952
63	0xbc88eab7	-0.016713483
64	0xbd233987	-0.039849784
65	0x3ce3da41	0.027814033
66	0xbbbb8a63	-0.005723284
67	0x3b80f5d7	0.0039355564
68	0x3c8a40b1	0.01687655
69	0xbd157339	-0.036486838
70	0x3c862d2b	0.01637896
71	0xbcf372d6	-0.029717844
72	0xbc3dae38	-0.0115771815
73	0xbd0887f0	-0.033332765
74	0xbccded14	-0.025137462
75	0x3ccd58bc	0.025066726
76	0x3c2e255b	0.010629023
77	0xbb86f0e4	-0.004118072
78	0xbc30e734	-0.010797311
79	0x3c01aec1	0.0079152
80	0xbcda35ab	-0.026636919
81	0x3cbbf771	0.022945138
82	0x3cb2079c	0.021732144
83	0x3ba4d02b	0.0050296984
84	0xbc559fe1	-0.013038606
85	0x3cc46a39	0.023976432
86	0xbcb05128	-0.021523073
87	0x3b5a5fc5	0.0033321243
88	0x3bfc1c8c	0.0076938327
89	0x3c04a2c4	0.008095447
90	0xbd3eb321	-0.04655755
91	0xbd1d70c1	-0.03843761
92	0x3c6d9cf8	0.014502756
93	0x3cbbd7d9	0.022930073
94	0xba58994e	-0.000826259
95	0xbbd738bc	-0.0065680426
96	0x3c10bfb1	0.008834765
97	0xbb870e29	-0.004121561
98	0x3acc60be	0.0015592796
99	0x3d1b323c	0.037889704
100	0xbd2671ff	-0.04063606
101	0xbcc03302	-0.023461822
102	0x3b14fc62	0.002273344
103	0x3d2f7892	0.042839594
104	0xbc9b33ad	-0.01894554
105	0xb9b64faf	-0.00034773114
106	0x3c0af2ab	0.008480708
107	0xbb3a71a3	-0.002844908
108	0xbafd808f	-0.0019340682
109	0xbceb3053	-0.028709566
110	0xbbcc02ab	-0.006225904
111	0x3ccc928a	0.024972219
112	0xbcfc837c	-0.030824415
113	0x3b9bc9db	0.0047542877
114	0xbaaf1575	-0.0013357835
115	0x3c1d1ad7	0.009588919
116	0xbc2235a7	-0.009900487
117	0xbb329c7d	-0.0027253919
118	0xbd0a2b60	-0.033732772
119	0xbc17f2f0	-0.009274229
120	0x3ca5c86d	0.020237172
121	0xbbde81e7	-0.006790388
122	0xbc453977	-0.0120376265
123	0xb9904711	-0.0002751877
124	0xbc0dd481	-0.008656622
125	0x3ba7024c	0.0050967094
126	0xbc4005b6	-0.011720112
127	0xbd00ea9d	-0.031473745
128	0x3cdbd3c4	0.026834376
129	0x3c32d5bc	0.010915216
130	0x3c756aaa	0.014979044
131	0x3cd65561	0.026163759
132	0xbb32fd80	-0.0027311742
133	0xb9f4662d	-0.00046615434
134	0x3cb69af0	0.022290677
135	0x3c192c17	0.009348891
136	0xbd134705	-0.0359564
137	0x3cbae0c1	0.02281225
138	0xbbfc48d5	-0.007699112
139	0x3d0bdf64	0.03414859
140	0x3d27e97a	0.040994145
141	0xbd0d5a89	-0.03451017
142	0x3d00915e	0.031388633
143	0xbbaaa058	-0.0052071027
144	0xbc905a1e	-0.017621096
145	0xbc40a782	-0.011758687
146	0xbb0f6433	-0.0021879792
147	0x3cb863c7	0.022508515
148	0xbb666247	-0.0035153793
149	0x3c0001e2	0.007812949
150	0xbb9d1406	-0.0047936467
151	0x3b6d72f8	0.0036231857
152	0xbbea0d62	-0.0071427086
153	0x3ce94540	0.028475404
154	0x3d279373	0.040912103
155	0xbca254d4	-0.01981584
156	0x3ca53089	0.020164745
157	0x3c5f94d4	0.013646323
158	0x3d0ae994	0.033914164
159	0xbd2227e6	-0.03958883
160	0xbcd7e76e	-0.026355471
161	0x3c04bf35	0.008102228
162	0xbc44da57	-0.012014947
163	0xbc364b7f	-0.011126398
164	0xbb995600	-0.0046794415
165	0x3a25b088	0.00063205557
166	0x394534d0	0.00018807058
167	0xbc30ec08	-0.010798462
168	0x3c83a4f8	0.016069874
169	0xbcf8a40a	-0.030351657
170	0x3c1a1a05	0.009405618
171	0xbc14fcf1	-0.009093509
172	0x3b072769	0.0020622856
173	0x3ce4a480	0.027910471
174	0xba3dde0f	-0.0007242867
175	0x3c340fdc	0.010990109
176	0x3a8ec92c	0.0010893694
177	0xbc0ae178	-0.0084766075
178	0xbc8c6293	-0.017136848
179	0x3b25db13	0.002530758
180	0xbb36f780	-0.0027918518
181	0x3cbcf039	0.023063766
182	0x3d4213cd	0.047382165
183	0xbc17281e	-0.009225873
184	0x3d04641b	0.03232203
185	0x3c8790af	0.016548483
186	0x3d17c10e	0.037049346
187	0x3d05a7b0	0.032630622
188	0xbccb334c	-0.024804734
189	0xbcb9ee6c	-0.022696696
190	0xbc3821bc	-0.011238512
191	0xbc4f9f3e	-0.012672244
192	0x3c91181d	0.017711693
193	0x3bac7f86	0.0052642254
194	0x3c8df61f	0.017329274
195	0xbc977bc6	-0.018491637
196	0xbd23da4b	-0.040003102
197	0x3bd020b7	0.006351556
198	0xbb1bc34e	-0.0023767534
199	0x3ce5e0a0	0.028061211
200	0x3ca3c70a	0.01999237
201	0x3b2f8405	0.002678157
202	0x3c015752	0.007894354
203	0xbabb9c1a	-0.001431349
204	0x3bc82d39	0.0061089066
205	0xbc11f620	-0.008908778
206	0x3b98f398	0.0046677105
207	0xbccc70a6	-0.024956059
208	0xbd5cffbc	-0.053954825
209	0x3a40a73f	0.00073491404
210	0x3c4aebcc	0.01238532
211	0xbd1371c1	-0.035997156
212	0x3c92992f	0.01789531
213	0xbd056f32	-0.032576747
214	0xbc2d574e	-0.010579897
215	0xbbba012a	-0.0056764083
216	0x3c3da4ab	0.011574904
217	0x3cca79ed	0.024716342
218	0xbd76ed33	-0.060284805
219	0x3cab8941	0.020939471
220	0x3ce39c8e	0.027784612
221	0xbc5fc14f	-0.013656928
222	0xbd156319	-0.03647146
223	0x3ca504fb	0.020143976
224	0x3bad259f	0.005284026
225	0xbcad5b61	-0.021161737
226	0xbd33cddd	-0.0438975
227	0x3b0c11f5	0.0021373008
228	0xbbd3dcae	-0.006465516
229	0xbd50344a	-0.050831117
230	0xbbb7fbd5	-0.0056147375
231	0x3bdb2c25	0.006688612
232	0xbcada2e4	-0.021195836
233	0x3c6d2c2d	0.014475864
234	0xbc7ed23f	-0.015553056
235	0xbd5f4b5b	-0.054515224
236	0x3c3a2235	0.011360695
237	0xbb0141b6	-0.0019723005
238	0x3c38666e	0.01125489
239	0xbcaa5829	-0.020793991
240	0x3c05fd95	0.008178134
241	0x3b677e65	0.003532314
242	0xbcc4384b	-0.023952624
243	0xbb3d8a27	-0.0028921457
244	0xbd148ec3	-0.03626896
245	0xbcbe8f40	-0.023261666
246	0xbc866f86	-0.0164106
247	0xbb721c2a	-0.0036943057
248	0xbc656e14	-0.014003295
249	0xbc6bca7c	-0.014391538
250	0x3c9d25b3	0.019183015
251	0xbd10b39f	-0.03532755
252	0xbc1b08a4	-0.009462509
253	0x3d108a52	0.035288163
254	0x3cbb7a4d	0.022885466
255	0x3d7f9b2c	0.062403843

transformer.layers.0.self_attn.out_proj.bias f4 [64]
0	0xbc014829	-0.0078907395
1	0x3bb6335c	0.0055603217
2	0xbbc8c432	-0.006126904
3	0x3beef5bb	0.007292477
4	0xbc0c52bf	-0.00856465
5	0x3ba96703	0.0051697507
6	0xbb309bc8	-0.0026948322
7	0x3bdbcd21	0.006707803
8	0x3ba048a4	0.004891472
9	0x3c1dcd54	0.009631474
10	0xbad4f093	-0.0016246013
11	0xbb555a27	-0.0032554956
12	0x3b3a409d	0.002841986
13	0x3b28e295	0.002576982
14	0xbb954a7a	-0.0045559974
15	0x3b47f223	0.0030509315
16	0x3be95804	0.007121088
17	0x3bbb19ff	0.005709886
18	0x3bdcd0a1	0.0067387377
19	0xbbbd6435	-0.005779768
20	0x3b67d86c	0.00353768
21	0xbb75838d	-0.0037462444
22	0x3a278816	0.0006390823
23	0x3c0530cf	0.008129313
24	0xbb2f4a11	-0.0026747028
25	0x3bb76853	0.005597153
26	0xbbd9ef74	-0.0066508595
27	0xbb58f9f9	-0.003310798
28	0xbc126177	-0.00893437
29	0xbb9dca7f	-0.004815399
30	0xbbd24ce0	-0.0064178556
31	0x3a6e77db	0.00090968393
32	0xbc18ddd7	-0.0093302345
33	0x3b16c23c	0.0023003956
34	0x3b58658c	0.003301951
35	0xbb8defce	-0.0043315655
36	0x3bf9774c	0.0076130982
37	0x3b96ccde	0.004602059
38	0xba5549c2	-0.0008136296
39	0x3be6b69a	0.007040811
40	0xbbd2c3c0	-0.0064320266
41	0xbc087545	-0.0083287405
42	0xbb5fb8c2	-0.0034137224
43	0x3beef306	0.0072921542
44	0xbbaad9b7	-0.005213942
45	0xbbbdb42f	-0.005789302
46	0x3c12d0a3	0.008960876
47	0xbc0a480c	-0.008440029
48	0xbba00326	-0.004883188
49	0x3a9348b2	0.0011236875
50	0xbbe52aa2	-0.0069936076
51	0xbae35142	-0.0017342942
52	0x3c1cf391	0.009579555
53	0x3b8b9ca6	0.0042606173
54	0x3c0103fe	0.007874487
55	0xbbf04e41	-0.0073335473
56	0xbbc3c98e	-0.005974955
57	0x3beb3c74	0.0071788374
58	0xbc4545ce	-0.0120405685
59	0xbbad7908	-0.005293969
60	0x3b1fe1ef	0.0024396142
61	0xbbb25b54	-0.005443016
62	0x3c27a214	0.0102315135
63	0xbc1991d8	-0.009373151

transformer.layers.0.linear1.weight f4 [128, 64]
0	0xbd00e0e5	-0.031464476
1	0x3c9555e7	0.018229438
2	0xbcdc6b63	-0.026906675
3	0xbd5a7f6e	-0.053344183
4	0xbccc0e4f	-0.024909167
5	0x3d447a70	0.047968328
6	0x3bc0802f	0.0058746557
7	0x3cb0c1ea	0.02157684
8	0xbc42080f	-0.011842742
9	0xbd84045c	-0.06446144
10	0xbc26ee88	-0.010188706
11	0xbd11712f	-0.03550833
12	0xbba0c6ec	-0.004906526
13	0x3d1688b3	0.03675146
14	0xbd2bb161	-0.04191721
15	0xbcba550f	-0.022745637
16	0x3d8e54f4	0.06949797
17	0x3c41cc78	0.011828534
18	0x3d76a571	0.06021637
19	0x3cacf26b	0.021111688
20	0xbc356587	-0.011071569
21	0xbb293352	-0.0025817943
22	0x3ca75c6f	0.020429818
23	0x3bd677bb	0.0065450347
24	0xbc38ad0a	-0.0112717245
25	0x3c41e5b5	0.011834552
26	0xbc8f01da	-0.017456938
27	0x3ca7ac4c	0.0204679
28	0xbc82de84	-0.015975244
29	0x3c3c0f75	0.011478295
30	0xbceab6e1	-0.028651657
31	0x3b33a867	0.0027413608
32	0x3c049dba	0.008094246
33	0x3cf0cc24	0.029394217
34	0xbd0fd57f	-0.035115715
35	0xbb4dfdb9	-0.0031431748
36	0x3c32a08a	0.010902533
37	0x3c5a0d61	0.013308854
38	0x3d15bbda	0.036556102
39	0x3d089fc6	0.033355497
40	0xbcdaaee1	-0.026694717
41	0xbcd350c9	-0.025795357
42	0xbcb8b2fb	-0.022546282
43	0xbd1dbde6	-0.03851118
44	0x3aaba45c	0.0013095248
45	0xbc90b152	-0.017662678
46	0xbc7e65c4	-0.0155271925
47	0xbcdd4254	-0.027009167
48	0xbc074327	-0.008255756
49	0xbc275761	-0.010213704
50	0xbce2e45c	-0.02769678
51	0x3d154aa1	0.036448125
52	0x3c863411	0.01638225
53	0x3c55a293	0.013039249
54	0xbcff4b36	-0.031163793
55	0xbd19401c	-0.037414655
56	0xbd9aa23c	-0.07550475
57	0xbccfaa97	-0.025349898
58	0x3ca7e198	0.020493314
59	0xbc539077	-0.012912861
60	0x3cc17a9a	0.023618031
61	0x3d61ed34	0.055157855
62	0x3d0c9970	0.034326017
63	0xbd2ae641	-0.041723493
64	0xbcd4e0cc	-0.025986098
65	0xbc3c5801	-0.011495591
66	0xbcc17234	-0.023614027
67	0xbc487e42	-0.012237133
68	0xbd59b59c	-0.05315171
69	0x3d1b55e4	0.03792371
70	0xbcc7329e	-0.024316128
71	0x3ae08e1c	0.0017132196
72	0x3cf3eca9	0.029775934
73	0xbcf4f680	-0.029902697
74	0x3cf8e059	0.030380415
75	0xbcb3c145	-0.021942744
76	0xbc0dda7e	-0.00865805
77	0x3d3cf823	0.04613508
78	0x3d1a0d47	0.03761032
79	0x3c79e0ed	0.01525138
80	0x3d162bf5	0.036663014
81	0xbc0c54e7	-0.008565164
82	0x3c1fd9a7	0.009756482
83	0xbc9d5a03	-0.01920796
84	0x3c6b88f2	0.014375912
85	0xbd30bc96	-0.0431486
86	0x3c02c42f	0.007981344
87	0xbc8764f9	-0.01652764
88	0x3d1c1f72	0.038115926
89	0xbcb55837	-0.02213679
90	0xbd1434f0	-0.036183298
91	0xbd316584	-0.043309703
92	0xbd029188	-0.03187707
93	0x3c1f79ab	0.009733598
94	0xbcce2cd9	-0.02516787
95	0x3c3e15e1	0.011601896
96	0xbd1e0488	-0.03857854
97	0x3b41e6fb	0.0029587138
98	0xbcb3ccd0	-0.021948248
99	0xbc64a6f1	-0.013955818
100	0x3ab53b9b	0.0013826968
101	0x3d135760	0.035972
102	0x3af76a04	0.00188762
103	0x3c4055c2	0.011739196
104	0xbce83e7c	-0.028350107
105	0xbcfc4647	-0.03079523
106	0x3c2fe2e2	0.010735245
107	0x3c27e4c6	0.010247415
108	0xbd24fb94	-0.040278986
109	0xbd567430	-0.0523569
110	0x3cfac7ed	0.03061291
111	0xbb0b417f	-0.0021248756
112	0x3c27485c	0.010210123
113	0x3cdfaa53	0.027302897
114	0xbd5e9cbf	-0.054348703
115	0xbcbf6d8f	-0.023367671
116	0x3cdb9545	0.026804576
117	0x3bc50a29	0.006013174
118	0x3c2690fa	0.010166401
119	0xbd007435	-0.031360824
120	0xbce8f8dd	-0.02843898
121	0x3d13b789	0.036063705
122	0xbbb74623	-0.0055930777
123	0xbd0ec33b	-0.034854155
124	0x3d08860f	0.033330973
125	0xbca3cd48	-0.019995347
126	0x3cfa9bb4	0.030591823
127	0xbd858e2e	-0.06521259
128	0xbd3f9fcb	-0.04678325
129	0xbbdec617	-0.0067985165
130	0xbcd98a4f	-0.026555208
131	0x3bca309d	0.006170346
132	0xbc9abe3b	-0.018889537
133	0x3d1fbf3e	0.039000742
134	0xbd050416	-0.0324746
135	0x3c9c393c	0.01907026
136	0x3d3b11d6	0.045671307
137	0x3d3ffe29	0.046873245
138	0xbd09d343	-0.03364874
139	0xbcee3071	-0.029075833
140	0xbcc71359	-0.024301218
141	0x3cf7dc94	0.030256547
142	0x3cd055f6	0.025431614
143	0x3d0496c5	0.032370348
144	0x3c57e46c	0.013177019
145	0x3cfe43b0	0.031038135
146	0x39dbb336	0.00041904458
147	0xbd2986c0	-0.041388273
148	0x3d0e961e	0.03481113
149	0x3c6d928e	0.014500273
150	0x3c43fa52	0.0119615365
151	0x3d4486ab	0.047979992
152	0x3d704db4	0.058667853
153	0xbc64942d	-0.0139513435
154	0x3cc90f23	0.02454335
155	0x3ca609f2	0.020268414
156	0xbc3691c6	-0.0111431535
157	0x3c9d1341	0.01917422
158	0x3d23cfe4	0.03999318
159	0x3cc4e340	0.024034142
160	0xbc8920e0	-0.016739309
161	0xbd090106	-0.03344824
162	0x3d0c5471	0.034260217
163	0x3c88e203	0.016709333
164	0x3d4ed2b3	0.050493907
165	0xbc139c93	-0.009009498
166	0xbcdc123c	-0.026864164
167	0xbc23dcb8	-0.010001354
168	0xbd1cf099	-0.03831539
169	0x3c658d42	0.014010729
170	0x3d7a49ec	0.061105654
171	0xba0b4052	-0.00053120137
172	0x3c2941d2	0.010330634
173	0x3af65092	0.0018792322
174	0x3d1c68f3	0.038186025
175	0xbcb9030d	-0.022584463
176	0x3b54bd4d	0.0032461465
177	0x3d634ca6	0.05549302
178	0xbc81550b	-0.015787622
179	0xbc8deccb	-0.017324826
180	0x3be77b5b	0.0070642657
181	0x3d15b73e	0.036551706
182	0x3d24b4a3	0.04021133
183	0xbcf134c5	-0.029444108
184	0xbc841891	-0.016124995
185	0x3cc3c025	0.023895333
186	0xbbd1fc03	-0.006408216
187	0xba9be19d	-0.00118928
188	0x3c12e41c	0.008965518
189	0xbcea2e34	-0.028586484
190	0xbb0de1fd	-0.0021649592
191	0xbc2df6d4	-0.01061793
192	0x3ca812f2	0.020516846
193	0x3ca2b858	0.019863293
194	0x3d59f1dd	0.053209174
195	0xbd842984	-0.06453231
196	0xbcfbadbc	-0.030722491
197	0xbc3ed197	-0.01164665
198	0x3c33ebf5	0.0109815495
199	0x3c8b2a17	0.016987843
200	0xbc3e19e2	-0.011602851
201	0x3d632fcf	0.055465516
202	0xbd01e8f6	-0.03171631
203	0x3c80b95a	0.015713383
204	0xbc94c6bb	-0.018161168
205	0xbc817e88	-0.015807405
206	0xbc9b80ad	-0.018982256
207	0xbbee71b7	-0.0072767395
208	0xbd78fce4	-0.06078805
209	0x3c0464c2	0.008080663
210	0xbc79a0f0	-0.015236124
211	0x3c0a258b	0.0084318025
212	0xbacb7313	-0.0015521966
213	0xbcccb00e	-0.024986293
214	0x3c680057	0.014160237
215	0xbcb1adc0	-0.021689296
216	0xbc8371f3	-0.016045546
217	0xbd7b11a2	-0.061296113
218	0x3b4dc1a5	0.0031395939
219	0x3d06818f	0.0328384
220	0x3d40b47a	0.047047116
221	0x3cc52830	0.024067014
222	0x3cbf57f9	0.023357378
223	0xbc94d6aa	-0.018168766
224	0x3c7faacc	0.015604686
225	0xbd3cf41d	-0.046131242
226	0x3c87e532	0.016588781
227	0x3d6d6162	0.0579542
228	0x3d9dd2db	0.07706233
229	0x3c3a0ce8	0.011355616
230	0x3cfd2423	0.03090102
231	0xbd149e8e	-0.036284022
232	0x3c445189	0.01198233
233	0xbbf60204	-0.0075075645
234	0xbc6af20f	-0.014339938
235	0x3d5d071f	0.05396187
236	0xbc9ae255	-0.018906752
237	0xbd11a599	-0.035558317
238	0x3b1d0346	0.002395825
239	0xbcbd7668	-0.02312775
240	0xbbfa0ae9	-0.007630695
241	0xbd3890ef	-0.045060094
242	0x3d0f5e70	0.035002172
243	0x3b806a2f	0.003918908
244	0x3c99c45b	0.018770387
245	0x3b65d21a	0.0035067857
246	0x3d4f9465	0.05067863
247	0xbd1f00b9	-0.03881905
248	0x3c33011a	0.010925556
249	0x3c30ad21	0.010783465
250	0x3d1ccfa5	0.038283963
251	0x3bbaec70	0.005704455
252	0x3c005665	0.007833098
253	0x3cc5d17d	0.024147743
254	0x3cf3e8e1	0.029774131
255	0xbc7a392c	-0.01527242

transformer.layers.0.linear1.bias f4 [128]
0	0xbc0b1174	-0.008488048
1	0x3b4709fc	0.0030370941
2	0x3ce76cb5	0.028250078
3	0x3ca57004	0.020195015
4	0x3b520688	0.003204735
5	0x3c873b0e	0.016507652
6	0x3c7669c0	0.015039861
7	0x3c0b903d	0.008518276
8	0x3ae5b929	0.0017526496
9	0x3c0535bf	0.00813049
10	0x3c2aa231	0.010414646
11	0x3bc88204	0.0061190147
12	0x3c384542	0.011246981
13	0x3b8f5a63	0.0043747886
14	0x3c804dab	0.015662035
15	0x3b081ee8	0.0020770375
16	0x3cb3945f	0.021921335
17	0xbc5e27fa	-0.013559336
18	0xbad98e19	-0.0016598135
19	0xbaf210ff	-0.00184682
20	0x3c2283ef	0.009919151
21	0x3b03434c	0.0020029126
22	0xb9843c85	-0.00025222093
23	0x3ce587fa	0.02801894
24	0x3b763e6a	0.0037573823
25	0x3c142ecd	0.009044361
26	0xbaffe5da	-0.0019523457
27	0x3c56812c	0.01309232
28	0x3b941c1b	0.004519952
29	0x3c124bf5	0.008929242
30	0x3ba9e113	0.0051843016
31	0x3c81b1bb	0.015831819
32	0xbb34465a	-0.0027507753
33	0x3a5a7df2	0.00083348074
34	0x3c90b068	0.017662242
35	0xbb3d8a2a	-0.0028921464
36	0x3c696623	0.014245543
37	0x3a97b348	0.0011573816
38	0xbc499eb8	-0.012305908
39	0xbc0ff64a	-0.008786747
40	0x3c5e3efe	0.013564823
41	0xbae220ff	-0.0017252265
42	0x3c5eb733	0.013593483
43	0xbb944055	-0.0045242705
44	0xbc5781eb	-0.013153533
45	0x3b03ebaf	0.0020129492
46	0x3cca1bf5	0.024671534
47	0xbac78072	-0.0015220775
48	0x3998b58d	0.00029126965
49	0xbc22117a	-0.009891862
50	0x3c6df840	0.014524519
51	0xbcd9f432	-0.0266057
52	0x3cc6dfa1	0.024276556
53	0x3c490150	0.012268379
54	0x3bbb7a18	0.005721342
55	0x3a61a702	0.0008607955
56	0xbab83a03	-0.0014055375
57	0x3bd6537f	0.006540715
58	0x3cf30441	0.029665114
59	0xbbab8814	-0.0052347276
60	0x3c92d391	0.017923148
61	0x3c389d17	0.011267922
62	0x3c53830b	0.012909661
63	0x3b345528	0.0027516577
64	0x3c0277fb	0.007963176
65	0x3cbf60a0	0.023361504
66	0xba98b0ee	-0.0011649409
67	0x3ba48d39	0.005021718
68	0x3c6ce04f	0.014457776
69	0x3b31a0aa	0.002710382
70	0xbb0e8137	-0.0021744499
71	0x3c1610e7	0.009159303
72	0x3ca738ea	0.02041288
73	0xbbd19cb7	-0.0063968557
74	0x3b9dd22c	0.004816314
75	0x3cd371f0	0.025811166
76	0xbc107064	-0.0088158585
77	0x3c6b0187	0.014343626
78	0x3ca07a55	0.019589582
79	0xbbc775d3	-0.006087044
80	0x3bbb3bc6	0.0057139127
81	0x3ba15558	0.004923504
82	0x3c15fb6d	0.009154183
83	0x3b88b7a0	0.0041722804
84	0xbac9b28e	-0.0015388296
85	0x3c9673da	0.01836579
86	0xbc168f74	-0.009189475
87	0x3bed11c4	0.007234784
88	0x3b662c70	0.0035121702
89	0x3b89649e	0.0041929027
90	0x3c825d54	0.015913643
91	0xba0142f7	-0.0004930938
92	0xbb50117a	-0.0031748698
93	0xb94cabac	-0.00019518909
94	0x3c6114cb	0.013737868
95	0x3b097ccd	0.0020978928
96	0x3c3bd1ba	0.011463577
97	0x3cb4ff98	0.022094533
98	0x3b671a31	0.0035263414
99	0xbbccc042	-0.006248505
100	0xbc401994	-0.011724848
101	0x3cc8d6e6	0.024516534
102	0x3ba0d82a	0.0049085813
103	0x39edcb76	0.00045355753
104	0x3a3a84c5	0.0007115121
105	0xbc1c61a1	-0.009544761
106	0x3cb59639	0.022166358
107	0x3c6cda5c	0.014456358
108	0xbb66fec5	-0.003524707
109	0x3c2da6ef	0.010598882
110	0x3b8d6147	0.004314575
111	0x3b8b52a5	0.0042517954
112	0x3c755e3c	0.0149760805
113	0x3bb6e717	0.0055817473
114	0x3c6f0ca0	0.014590412
115	0xbc1b793d	-0.009489355
116	0xbc600c82	-0.013674857
117	0x3bc8bf7b	0.006126342
118	0x3ba8b271	0.005148225
119	0x3c708198	0.014679335
120	0x3c02ecb5	0.007991006
121	0x3c812d3a	0.015768636
122	0x3cb71ab9	0.02235161
123	0x3bc7a93b	0.006093172
124	0xbbbc615d	-0.0057489113
125	0x3c2b9f22	0.010474952
126	0x3c4f7697	0.012662551
127	0x3c1c6806	0.0095462855
