marble_model/best_model_v3.0_20250531_005434.pt (torch, 295593 bytes, 30 tensors)

token_embedding.weight f4 [13, 64]
0	0xbbce4d1c	-0.0062958132
1	0x3c484d5c	0.012225475
2	0x3d1191fc	0.035539612
3	0xbba1936c	-0.004930904
4	0x3cda5d4c	0.026655816
5	0xbc869beb	-0.01643177
6	0xbd0f1228	-0.034929425
7	0x3bfca79d	0.0077104107
8	0x3d42c179	0.04754779
9	0xbc992056	-0.018692177
10	0x3d2f775d	0.042838443
11	0x3d3cf1b2	0.046128936
12	0xbca06322	-0.01957852
13	0x3c58a8f9	0.01322388
14	0x3cd1cbef	0.025609938
15	0xbc1ff720	-0.009763509
16	0x3c50dde4	0.012748215
17	0xbd1f8c51	-0.038952176
18	0xbcb439c5	-0.022000203
19	0x3c3f759b	0.011685754
20	0x3c36d057	0.0111580705
21	0x3c92f7a8	0.017940357
22	0xbcc03ecd	-0.023467446
23	0x3d1431f1	0.03618044
24	0xbc65cc55	-0.014025767
25	0x3c50863b	0.012727316
26	0xbcaea4b9	-0.02131878
27	0x3caa0fce	0.02075949
28	0xbafe98d9	-0.0019424214
29	0x3b9d0f38	0.004793074
30	0x3b4a5a5b	0.003087661
31	0x3c5b6dde	0.013392894
32	0x3d1c0811	0.03809363
33	0x3d1bc0a0	0.0380255
34	0x3d3ec2c5	0.046572465
35	0x3c9d5dd1	0.019209774
36	0x3aec0b7d	0.0018008795
37	0x3bb3abaa	0.0054831104
38	0xba96196b	-0.0011451667
39	0x3cb84f64	0.022498794
40	0x3d31163c	0.043234095
41	0x3d24c624	0.040228024
42	0x3ce74274	0.02822993
43	0xbc039fca	-0.008033702
44	0xbc76b500	-0.015057802
45	0xbb9a3e4a	-0.0047071325
46	0x3bbc0d01	0.005738855
47	0x3bf7e155	0.0075647035
48	0x3c16d173	0.00920521
49	0x3c8d03e7	0.017213775
50	0xbbf7c1be	-0.0075609377
51	0x39fe6f66	0.00048529654
52	0x3d5453c4	0.051837698
53	0x3c315002	0.010822298
54	0xbc40cb3e	-0.011767207
55	0xbba99525	-0.00517525
56	0xbcbe0a47	-0.02319826
57	0xbcc80ce7	-0.024420215
58	0x3d162d43	0.03666426
59	0xbd26faa1	-0.040766362
60	0xbc046f6b	-0.008083205
61	0xbc29cbcb	-0.010363529
62	0xbd11c2df	-0.035586234
63	0xbcfcd9a1	-0.030865492
64	0x3d019641	0.031637434
65	0xbc9038fd	-0.0176053
66	0x3c9237e8	0.017848924
67	0x3d1e4c51	0.038647
68	0xbcb805b8	-0.022463664
69	0x3cfb0ede	0.030646738
70	0x3c7c6124	0.0154040195
71	0x3cd1dffe	0.025619503
72	0xbd0efb7f	-0.034907814
73	0xbd09b409	-0.03361896
74	0x3b9d5a96	0.0048020585
75	0x3c9f7574	0.019465186
76	0xbd81bb2d	-0.06334529
77	0x3c6bde06	0.014396196
78	0xbcd106f1	-0.025516005
79	0xbb411f01	-0.0029467943
80	0x3cda6eab	0.026664099
81	0xbcbf464b	-0.023348948
82	0x3d153555	0.036427815
83	0x3cd3b159	0.025841402
84	0xbc746751	-0.014917211
85	0xbd314164	-0.043275252
86	0x3d1c70f5	0.03819366
87	0xbcbd6495	-0.02311925
88	0x3c90d14a	0.017677922
89	0xbd0605cb	-0.03272037
90	0xbd3b0983	-0.045663368
91	0xb9f82366	-0.0004732862
92	0xbd2e73a8	-0.042590767
93	0x3d2c32fe	0.042040817
94	0xbc9b14a7	-0.018930746
95	0x3d37c5c6	0.044866346
96	0xbcd7e971	-0.02635643
97	0x3cba5a3e	0.022748109
98	0x3cf4f535	0.02990208
99	0xbc891b24	-0.016736574
100	0xbca9775a	-0.020686794
101	0xbcab69d2	-0.020924482
102	0x3d22d661	0.03975523
103	0xbd2b5c02	-0.041835792
104	0xbd17b7ba	-0.03704045
105	0xbb94e0ed	-0.004543415
106	0x3d23b565	0.039967913
107	0xbba59d0e	-0.005054123
108	0x3ce00e0a	0.027350444
109	0xbd0b9466	-0.03407707
110	0xbc51b910	-0.01280047
111	0xbd54484e	-0.051826768
112	0xbb1039fe	-0.0022007222
113	0x3d030e14	0.031995848
114	0x3bc087ff	0.005875587
115	0xbc43bed7	-0.011947355
116	0x3c987cf0	0.018614262
117	0xbbb331ed	-0.005468598
118	0xbc90fa27	-0.017697407
119	0xbccf2d03	-0.025290018
120	0xbc2c9f79	-0.010536068
121	0x3cfe3ee5	0.03103585
122	0x3d336927	0.043801453
123	0x3c0b8974	0.008516658
124	0xbcfe8481	-0.031069042
125	0x3ba5d82f	0.0050611715
126	0xbd24f369	-0.040271197
127	0x3c96d3ab	0.018411478
128	0x3c60b3fd	0.013714788
129	0xbc905998	-0.017620847
130	0xbb062ba9	-0.00204728
131	0x3cf1a1b2	0.029496048
132	0xbbf62199	-0.0075113294
133	0x3ba39851	0.0049925228
134	0xbcda02a6	-0.026612591
135	0xbd15c06d	-0.036560465
136	0x3c87c817	0.016574902
137	0xbcef6ae6	-0.029225778
138	0x3c9f7493	0.019464767
139	0x3c81aea5	0.015830347
140	0x3c16092d	0.009157461
141	0x3cf282b7	0.029603345
142	0x3bec73c0	0.007215947
143	0xbd03d647	-0.032186773
144	0xbc1be226	-0.009514367
145	0x3c34bd10	0.011031404
146	0x3ccb382e	0.024807062
147	0xbd279945	-0.040917654
148	0xbce601ac	-0.02807697
149	0x3b985cc9	0.0046497327
150	0xbc9b852e	-0.018984403
151	0x3c4c9453	0.012486535
152	0xbbff0ff5	-0.0077838846
153	0x3b5400ec	0.0032349182
154	0x3d333821	0.0437547
155	0xbc05ca06	-0.008165842
156	0x3c1ffeba	0.009765321
157	0xbc1c7f41	-0.009551824
158	0xbc43d438	-0.011952452
159	0x3a8a45cf	0.0010549369
160	0x3c57ae0f	0.013164057
161	0xbc28f581	-0.010312439
162	0x3d0a8c0b	0.03382496
163	0x3be2b63c	0.0069186967
164	0x3aae41aa	0.0013294716
165	0x3d29a9f9	0.041421864
166	0x3c47555e	0.012166349
167	0x3bdc372b	0.0067204437
168	0xbd23e2eb	-0.040011328
169	0x3c14bd0b	0.0090782745
170	0xbc8493d2	-0.016183767
171	0x3c894f76	0.016761523
172	0x3a0f3897	0.00054634496
173	0x3c452f66	0.012035226
174	0x3c962034	0.018325903
175	0xba09f99f	-0.00052633317
176	0x3b98398b	0.0046455315
177	0x3cc10d12	0.023565803
178	0xbd089cdc	-0.033352718
179	0xbcb35b7e	-0.021894213
180	0x3a497235	0.00076845597
181	0x3bb3fe57	0.005492966
182	0x3c645bc2	0.013937892
183	0xbb2171a6	-0.002463439
184	0xbc856b99	-0.016286658
185	0xbbfa85c3	-0.00764534
186	0xbd1de0a9	-0.03854433
187	0x3ca29152	0.019844685
188	0x3a09611b	0.0005240605
189	0x3a7abdef	0.00095650455
190	0x3b8f649d	0.0043760077
191	0xbc0999c2	-0.008398475
192	0xbb54e3ec	-0.0032484485
193	0x3d28fffc	0.04125975
194	0xbbc3c78b	-0.005974715
195	0x3c771b47	0.015082187
196	0x3cd6f39e	0.026239213
197	0xbc99899a	-0.018742371
198	0x3c39cfea	0.0113410745
199	0x3c023d1c	0.00794914
200	0x3c84ee9e	0.016227063
201	0xbb793039	-0.0038023128
202	0xbc1c93bf	-0.00955671
203	0x3c3eb801	0.01164055
204	0xbbdd7284	-0.006758036
205	0x3b97c1bc	0.0046312492
206	0xbc336fa5	-0.010951911
207	0x3c47a874	0.012186158
208	0xbcb90dbb	-0.022589555
209	0x3d0aef71	0.033919755
210	0x3cac7357	0.021051092
211	0xbc2195f7	-0.009862415
212	0xbadd301e	-0.0016875302
213	0x3d07b162	0.03312815
214	0x3ad2b324	0.0016075117
215	0x3bcd469d	0.0062645213
216	0xbb33c3d5	-0.0027429957
217	0x3cc89a21	0.024487557
218	0x3bcdcd13	0.0062805503
219	0x3cba6000	0.022750854
220	0x3c8c89b7	0.017155511
221	0x3c7b392a	0.015333453
222	0x39edddca	0.00045369408
223	0xbab39c54	-0.0013703206
224	0x3cb46317	0.022019906
225	0xb7422ff0	-1.1574462e-05
226	0xbc5c4484	-0.01344407
227	0xbc3c10ea	-0.011478642
228	0x3c8d48bc	0.017246597
229	0x3b3baff8	0.002863882
230	0xbbdfdcf5	-0.00683176
231	0xbbd72318	-0.006565463
232	0x3c966072	0.018356536
233	0xbc9d96a0	-0.019236863
234	0xbc2784f7	-0.010224572
235	0xbbd110a5	-0.006380158
236	0xbca422dc	-0.020036153
237	0xba10d7e1	-0.00055253325
238	0xbb21487d	-0.0024609857
239	0xbc50b5f9	-0.012738698
240	0x3d037dfa	0.032102562
241	0xbb9ecb2d	-0.004845998
242	0xbcbd3ba2	-0.023099724
243	0x3ac9cd6d	0.0015396305
244	0xbbfa30a3	-0.0076351925
245	0x3bb2bc4b	0.005454575
246	0x3c0ab793	0.008466619
247	0x3cd0bc98	0.025480554
248	0x3d0c6cfd	0.034283627
249	0xbbf94fb0	-0.0076083764
250	0x3b8caf55	0.004293362
251	0xbca3b66d	-0.019984448
252	0x3c0b86a0	0.008515984
253	0xbc346979	-0.011011475
254	0xbc8f8d74	-0.017523505
255	0xbc5b66ee	-0.01339124

position_embedding.weight f4 [30, 64]
0	0x3d0fe68f	0.035131987
1	0xbd2d30fc	-0.042283043
2	0xbb3f55c4	-0.0029195407
3	0xba099c10	-0.00052493904
4	0xbcbe3446	-0.023218285
5	0x3c31b47b	0.010846253
6	0x3d32540f	0.043537196
7	0xbadcc40c	-0.0016843094
8	0xbca04f57	-0.019569082
9	0xbccfb98e	-0.025357034
10	0x3d1ce01f	0.038299676
11	0x3cba3b1c	0.022733264
12	0xbd1b5110	-0.037919104
13	0xbd7c6995	-0.06162413
14	0x3bdc2953	0.0067187934
15	0x3cb85ab6	0.022504192
16	0x3d0de978	0.03464648
17	0xbcaa628d	-0.020798946
18	0x3d0b3c75	0.033993203
19	0x3c966b73	0.018361783
20	0x3c8b2984	0.01698757
21	0x3b828367	0.0039829495
22	0xbc70eac9	-0.014704415
23	0x3c4abc4a	0.012373993
24	0x3bca77d7	0.006178837
25	0xbcf403ae	-0.02978691
26	0xbd29648d	-0.04135566
27	0x3d529971	0.051415864
28	0xbbbe1f07	-0.0058020386
29	0x3bff4231	0.007789873
30	0xbccde0ef	-0.02513167
31	0x3d107450	0.035267174
32	0xbcb306df	-0.021853862
33	0x3d799955	0.060937244
34	0x3bef510f	0.007303364
35	0x3b950db8	0.0045487545
36	0xbcf4e1fb	-0.029892912
37	0xbd093057	-0.033493366
38	0x3c1d3dc7	0.009597248
39	0xbcb5d019	-0.022193955
40	0xbcf23c4b	-0.029569766
41	0x3d377325	0.044787545
42	0x3c808adb	0.015691211
43	0x3c3a6b75	0.011378159
44	0x3a887948	0.0010412121
45	0xbd74cb14	-0.059763983
46	0x3d3333fe	0.043750755
47	0xbb616bbb	-0.0034396488
48	0xbd30b869	-0.043144617
49	0x3c17937d	0.009251473
50	0xbd90b5b5	-0.07065908
51	0xbcb4e9fa	-0.022084225
52	0xbd91ebcc	-0.07125053
53	0xbd243e3e	-0.04009842
54	0xbd27dab7	-0.040980067
55	0xbc233e5f	-0.009963601
56	0x3d086a56	0.033304535
57	0x3c5a3428	0.013318099
58	0xba74b1ac	-0.00093343365
59	0x3d3feb0e	0.046855025
60	0xbc6ac786	-0.014329797
61	0x3bf2e357	0.007412355
62	0xbd0f854c	-0.03503923
63	0x3c6c7cc0	0.01443404
64	0x3c99fde8	0.01879783
65	0x3c96ee42	0.018424157
66	0xbd0b9932	-0.034081645
67	0x3c117e11	0.008880154
68	0x3c80d29a	0.015725423
69	0x3ce0497d	0.027378792
70	0xbcb7f87f	-0.02245736
71	0x3cde65b4	0.027148105
72	0x3ca01ca2	0.019544903
73	0x3cf18455	0.029482046
74	0xbba54b3e	-0.00504437
75	0xbbd0b40b	-0.006369119
76	0xbc5c3d19	-0.013442301
77	0xbd3c93b7	-0.04603931
78	0x3c9b0895	0.01892499
79	0xbd307ae7	-0.04308596
80	0xbc9d326f	-0.019189088
81	0x3bf48f20	0.007463351
82	0xbc63ee6a	-0.013911823
83	0x3c56a499	0.013100767
84	0x3c44db89	0.012015232
85	0xbc64e9f8	-0.013971798
86	0x3ab85405	0.0014063126
87	0x3c6425c9	0.013925024
88	0xbca37460	-0.019952953
89	0xbc6ca867	-0.014444447
90	0xbc9d1e36	-0.019179445
91	0xbc8c2915	-0.017109433
92	0x3cb7e469	0.022447782
93	0xbc291636	-0.010320237
94	0x3a906fcc	0.0011019646
95	0x3cacd339	0.021096813
96	0xbcb0e7a6	-0.021594834
97	0x3bf2fe57	0.0074155736
98	0xbce96730	-0.028491586
99	0xbce914d5	-0.028452316
100	0x3d31ad25	0.043378014
101	0x3bc6d004	0.006067278
102	0x3b962034	0.0045814756
103	0x3cfa5b50	0.03056112
104	0x3ca6f12e	0.020378675
105	0x3b675a38	0.0035301577
106	0xbc0e322e	-0.008678956
107	0xbd03ff92	-0.032226153
108	0xbcf9e0fb	-0.030502787
109	0xbc2814d6	-0.010258874
110	0xbd03c357	-0.032168712
111	0x3c1ba0dd	0.009498802
112	0xbc0fc72f	-0.008775516
113	0xbccf8b39	-0.025334941
114	0xbb2da42b	-0.0026495557
115	0x3c8fd74e	0.01755872
116	0xbacebd06	-0.0015772886
117	0x3ca41fff	0.020034788
118	0x3b31daa0	0.0027138367
119	0x3bbe3b0e	0.0058053797
120	0xbcdfbe67	-0.02731247
121	0xbd08c1c5	-0.033387918
122	0xbcf77369	-0.030206399
123	0xbcd3ac70	-0.02583906
124	0x3cbd6d60	0.023123443
125	0xbcf1874c	-0.02948346
126	0x3c57ff84	0.013183478
127	0xbc10ccf9	-0.008837932
128	0x3cbc532d	0.02298888
129	0x3c81d5f7	0.015849097
130	0xbd336478	-0.043796986
131	0xbbed34aa	-0.007238944
132	0x3c0d3e0a	0.008620748
133	0xbb810278	-0.003937062
134	0xbd154998	-0.036447138
135	0x3c2dd9d2	0.010611014
136	0x3bcd82d6	0.0062717004
137	0x3cf86c02	0.03032494
138	0x3bbc223c	0.0057413857
139	0xbc87d357	-0.016580267
140	0x3bd718fd	0.006564258
141	0xbcfaa3af	-0.030595629
142	0x3d2a4407	0.041568782
143	0xbcc132f1	-0.023583861
144	0x3b5fd8c0	0.0034156293
145	0xbb1392cb	-0.0022517915
146	0xbd00b402	-0.03142167
147	0xbb943cdf	-0.004523858
148	0xbb8ec981	-0.004357517
149	0xbc82625d	-0.015916044
150	0xbccc45d2	-0.024935637
151	0x3c5e4776	0.013566842
152	0xbcd13b46	-0.02554096
153	0xbc00f576	-0.007871022
154	0xbca259d5	-0.019818226
155	0xbd637f04	-0.055541053
156	0x3d232137	0.039826598
157	0xbcc1d33f	-0.0236603
158	0xbb9ee869	-0.004849483
159	0x3cb845af	0.022494165
160	0xbcec7747	-0.02886547
161	0x3cdbd8d7	0.026836796
162	0x3a1c2349	0.00059561856
163	0xbcdb0f73	-0.026740765
164	0x3c91632c	0.017747484
165	0xbcb99a4a	-0.022656579
166	0xbbed868d	-0.0072487057
167	0x3d19ace7	0.03751841
168	0xbc821c73	-0.015882706
169	0x3d0b0e44	0.03394915
170	0xbb45b02a	-0.0030164816
171	0xbc96c927	-0.018406464
172	0x3c25c9b3	0.01011889
173	0xbb4e4722	-0.0031475504
174	0xbc387468	-0.011258222
175	0x3d38d038	0.045120448
176	0xbd0efa10	-0.034906447
177	0xbb3710c8	-0.0027933586
178	0x3d0baee5	0.03410234
179	0x3d2ccf2a	0.042189755
180	0xbc14143a	-0.0090380255
181	0x3c9998d7	0.018749638
182	0x3cbdaac5	0.023152718
183	0xbc49d269	-0.012318232
184	0xbd459c83	-0.048244964
185	0xbc97cec8	-0.018531218
186	0xbcf6a78e	-0.030109193
187	0x3ba68781	0.0050820713
188	0x3d29df4f	0.04147273
189	0xbd033df5	-0.03204151
190	0x3d056ac7	0.032572534
191	0xbc18bfdd	-0.0093230875
192	0xbd544afb	-0.05182932
193	0xbce52ebf	-0.027976392
194	0x3d5142da	0.051089145
195	0xbd305272	-0.043047376
196	0xbcb23f58	-0.02175872
197	0xbcca3448	-0.024683133
198	0x3ce071d8	0.027398035
199	0xba138914	-0.0005628031
200	0x3c360452	0.0111094285
201	0xbb8a808e	-0.0042267507
202	0xbcef4957	-0.029209776
203	0x3c7d64eb	0.015465955
204	0xbcc7dbe4	-0.024396844
205	0x3d3c90f6	0.046036683
206	0xbd4edab1	-0.05050153
207	0x3c90f7a8	0.017696217
208	0x3c4b5236	0.012409737
209	0xbccfd3ca	-0.025369544
210	0x3ccb0a97	0.024785323
211	0xbd45a03e	-0.048248522
212	0x3d3dd00f	0.046341
213	0x3cae1332	0.021249387
214	0x3d28322e	0.04106348
215	0x3cfda28a	0.030961294
216	0xbd0fb24b	-0.035082143
217	0x3cdbbd6b	0.02682372
218	0xbca261bf	-0.019822
219	0x3c1ede66	0.009696579
220	0xbd0fe658	-0.035131782
221	0x3d25f532	0.04051704
222	0x3d3a5505	0.045491237
223	0x3cded01a	0.02719884
224	0x3d3105b7	0.04321834
225	0xbd1dab71	-0.038493577
226	0xbd091701	-0.033469204
227	0x3d51a45f	0.051182147
228	0xbd2fc392	-0.04291112
229	0x3d13a96d	0.03605025
230	0xbc806f0a	-0.015677948
231	0x3b193500	0.0023377538
232	0x3d4e89a5	0.050424237
233	0xbce3424e	-0.027741577
234	0xbd53c329	-0.05169979
235	0xbc6b337a	-0.014355535
236	0xbd6b048b	-0.05737738
237	0x3cead675	0.028666714
238	0x3cb5428e	0.022126462
239	0xbd46eadb	-0.04856382
240	0x3d0ac681	0.033880714
241	0xbd48fadc	-0.049067363
242	0x3c82d025	0.015968392
243	0xbccfdad6	-0.025372904
244	0x3bfe228d	0.0077555836
245	0xbc363cc3	-0.011122885
246	0xbd6885a1	-0.056768063
247	0x3ce7b020	0.028282225
248	0x3bf32a84	0.0074208397
249	0xbd325548	-0.04353836
250	0xbcb84a34	-0.02249632
251	0xbd2deca1	-0.042461995
252	0x3cbb5190	0.02286604
253	0xbc6b1f3d	-0.0143507095
254	0xbd16c035	-0.036804397
255	0xbc4953bb	-0.012288029

transformer.layers.0.self_attn.in_proj_weight f4 [192, 64]
0	0xbdcff5ca	-0.101543024
1	0xbd6dd2f4	-0.05806251
2	0x3e2b5bb2	0.16734198
3	0x3dd0849c	0.10181543
4	0xbd8c087c	-0.06837556
5	0x3e19a47a	0.15004149
6	0xbdcecab4	-0.10097256
7	0xbe1ebfe7	-0.15502892
8	0x3e17b146	0.14813718
9	0xbda8959b	-0.0823166
10	0xbd949f3d	-0.07256935
11	0xbd8b78fa	-0.06810184
12	0x3d4005c6	0.046880506
13	0x3d453555	0.048146565
14	0xbc97cd63	-0.018530553
15	0x3ca30003	0.019897467
16	0x3e2a74d4	0.16646129
17	0x3d58c69f	0.052923795
18	0xbd1fe3b7	-0.039035525
19	0xbe0d10cb	-0.13775937
20	0x3de629db	0.11238452
21	0xbdf7a6c9	-0.120923586
22	0xbd1b76c9	-0.03795508
23	0xbd9ace50	-0.07558882
24	0xbd119048	-0.035537988
25	0xbdbc0a9b	-0.0918171
26	0xbd9a7fd2	-0.07543911
27	0x3e42e310	0.1903193
28	0x3dd333d5	0.103126206
29	0xbd1a7c62	-0.037716277
30	0xbd808786	-0.06275849
31	0x3dd9be7d	0.10632036
32	0x3e16d75c	0.1473059
33	0xbe1b090b	-0.15140168
34	0x3d4c62e2	0.04989899
35	0x3df23d31	0.118280776
36	0xbdc47c95	-0.09594075
37	0xbd90e4df	-0.07074904
38	0xbbefb225	-0.0073149377
39	0xbdf83007	-0.121185355
40	0xbd694457	-0.05694994
41	0x3ce7af64	0.028281875
42	0x3d092004	0.033477798
43	0x3df0fb82	0.11766721
44	0xbd78f3d4	-0.060779408
45	0x3d9b90f9	0.07596011
46	0x3e0bfcec	0.13670701
47	0xbd845ecd	-0.06463394
48	0xbd1eca72	-0.038767286
49	0x3da37aa6	0.07982378
50	0x3d8a3f99	0.067504115
51	0xbd1b0f3d	-0.03785633
52	0x3c9fb191	0.01949385
53	0xbd92bd54	-0.07165018
54	0x3d8f0a38	0.06984371
55	0x3e1c7651	0.15279509
56	0x3e079f04	0.13244253
57	0x3dcbcc45	0.09951071
58	0x3d9b4b4d	0.07582722
59	0xbd73608f	-0.059418257
60	0x3dafca26	0.08583479
61	0xbd95f105	-0.073213615
62	0x3dc2aa33	0.09505119
63	0xbdc82223	-0.09772136
64	0x3da737d4	0.08164945
65	0xbdcbe08c	-0.09954938
66	0xbdbb57b7	-0.0914759
67	0xbe1d2284	-0.15345198
68	0x3e074f67	0.13213883
69	0x3c818d12	0.015814338
70	0x3d6488cd	0.055794526
71	0xbe168c3e	-0.14701936
72	0x3d6b1d7e	0.057401173
73	0xbcfe7688	-0.03106238
74	0x3dcb0a51	0.09914077
75	0xbd918b35	-0.0710663
76	0x3b8cb7fe	0.0042943945
77	0xbc17062b	-0.009217779
78	0xbd2b08b0	-0.041756332
79	0x3dba7fd5	0.09106413
80	0x3d1055c5	0.035238046
81	0x3df7438a	0.12073429
82	0x3e02efd5	0.12786801
83	0xbe0a5650	-0.13509488
84	0xbddff040	-0.10934496
85	0x3db6e7e3	0.08930948
86	0x3d9670d0	0.07345736
87	0x3d06ec17	0.032939997
88	0xbdc5b5fa	-0.0965385
89	0x3d61c855	0.055122692
90	0xbdd5178d	-0.104048826
91	0x3dd722cd	0.105046846
92	0x3cb54eb5	0.022132257
93	0xbda077d2	-0.07835354
94	0x3d72b6e1	0.05925644
95	0xbdd4c8ef	-0.103898875
96	0xbda3cfd3	-0.07998624
97	0xbdeea6ea	-0.1165293
98	0x3dd97888	0.10618693
99	0x3bb5cc31	0.005548023
100	0x3da0eb9c	0.07857439
101	0x3e0dc1ce	0.13843462
102	0xbd94c74a	-0.07264574
103	0xbcafa4e7	-0.021440936
104	0x3e21b2a6	0.15790805
105	0x3d26104b	0.040542882
106	0xbd129518	-0.035786718
107	0xbdba4f39	-0.09097142
108	0x3db79c76	0.089653894
109	0xbdbd0ae4	-0.09230593
110	0x3e465d1d	0.19371457
111	0x3d8d7828	0.069076836
112	0xbd43269c	-0.047644243
113	0x3d86fa12	0.06590666
114	0xbd6ac112	-0.057313032
115	0xbe37cb21	-0.17948581
116	0x3be9e769	0.007138182
117	0xbd670e7e	-0.056410305
118	0xbe1c28cd	-0.1524994
119	0x3d422521	0.04739869
120	0x3e037a36	0.12839589
121	0x3bf037f2	0.007330888
122	0xbd8689f1	-0.06569279
123	0x3da09591	0.078410275
124	0xbde09ad1	-0.10967029
125	0x3d7d47c5	0.061836023
126	0x3ba78683	0.0051124706
127	0xbc3742c7	-0.011185355
128	0x3d5bbfbc	0.05364965
129	0x3daf2a51	0.08552993
130	0x3d950bad	0.072776176
131	0xbe331d26	-0.17491588
132	0xbdcdc3ed	-0.100471355
133	0xbc6b38a0	-0.014356762
134	0x3d73e904	0.059548393
135	0xbd85995e	-0.06523393
136	0x3dc7aa9b	0.09749337
137	0xbd8f0fc9	-0.06985433
138	0x3dda5be2	0.106620565
139	0x3d133bee	0.035945825
140	0xbde47dee	-0.11156832
141	0x3d47f1ef	0.04881471
142	0xbe0da638	-0.13832939
143	0x3e0df38a	0.13862434
144	0x3d91927b	0.07108017
145	0xbd98222f	-0.07428395
146	0x3d3707fa	0.04468534
147	0xbd94d9bf	-0.07268094
148	0xbdf80e70	-0.12112129
149	0x3d99d19f	0.07510685
150	0x3e27aafe	0.16373822
151	0x3df10dad	0.117701866
152	0xbddd7786	-0.10813813
153	0x3dd22abd	0.10262058
154	0xbda8739b	-0.08225175
155	0x3e2b6147	0.16736327
156	0xbad4c38a	-0.0016232592
157	0x3e344aff	0.17606734
158	0xbcc83bbc	-0.024442546
159	0xbb321951	-0.0027175734
160	0x3e3cd78a	0.18441597
161	0xbdc15889	-0.09440715
162	0xbdf9f6ab	-0.12205251
163	0x3e59126c	0.21198434
164	0x3c599281	0.013279558
165	0xbd4770ee	-0.048691683
166	0x3da317bf	0.079635136
167	0xbe0cd439	-0.13752832
168	0xbdf489e8	-0.11940366
169	0xbdb36e5b	-0.08761283
170	0x3d234758	0.03986296
171	0x3d9bdf28	0.07610923
172	0xbe00a433	-0.12562637
173	0x3e35f142	0.17767814
174	0x3c82fd37	0.015989883
175	0xbd08344c	-0.033253
176	0xbd703549	-0.058644567
177	0xbd1c85d0	-0.03821355
178	0x3de49b06	0.11162381
179	0x3ab52d93	0.0013822786
180	0x3d5f5c9b	0.054531675
181	0xbdb7afae	-0.08969055
182	0x3ccc1044	0.0249101
183	0xbbabe0d6	-0.0052453084
184	0x3e370651	0.17873503
185	0xbd3e028b	-0.046389144
186	0x3e21173e	0.15731522
187	0x3d97ff25	0.07421712
188	0xbcb0e986	-0.021595728
189	0x3d3ac6f3	0.04559989
190	0xbdcd5c20	-0.10027337
191	0x3dee6451	0.116402276
192	0xbe042369	-0.12904133
193	0x3dd7ff48	0.10546738
194	0x3dc4cefc	0.09609792
195	0xba8eb545	-0.0010887763
196	0xbd1774db	-0.036976676
197	0x3d845aab	0.06462606
198	0x3d15717d	0.036485184
199	0x3de9144c	0.113808244
200	0xbdcf904f	-0.101349466
201	0x3db98238	0.090580404
202	0xbd50b8b5	-0.0509574
203	0x3c20b0a2	0.009807738
204	0x3c129161	0.008945794
205	0x3de9a125	0.11407689
206	0x3dd53d8d	0.104121305
207	0x3d5ce82f	0.053932365
208	0xbd6f8a73	-0.058481645
209	0x3d9846cb	0.07435378
210	0x3e1f1f14	0.15539199
211	0x3d59dfc1	0.053191904
212	0xbdd5421f	-0.10413002
213	0x3e144a08	0.14481366
214	0x3e3d549c	0.18489307
215	0xbdad51cb	-0.084628664
216	0x3da3f9b2	0.0800661
217	0xbdabec0f	-0.08394634
218	0x3e0360dc	0.12829918
219	0x3e17186a	0.14755407
220	0xbdf4f327	-0.1196044
221	0x3dd27be7	0.10277539
222	0x3e17d0bb	0.14825718
223	0x3d97b130	0.07406843
224	0x3c2b73e9	0.010464647
225	0xbda0fe3d	-0.07860992
226	0xbdc7af0a	-0.09750183
227	0x3e41c0f6	0.18921265
228	0x3dbfdbe2	0.09368111
229	0x3d992c5a	0.074791625
230	0xbd3e7875	-0.046501596
231	0xbd26f644	-0.0407622
232	0x3e0f599d	0.13999029
233	0xbe23c5cc	-0.15993422
234	0xbdcb3e2d	-0.099239685
235	0xbd3e6d95	-0.046491224
236	0x3e00d686	0.12581834
237	0x3e01740b	0.12641923
238	0xbd5f15b5	-0.05446406
239	0xbd890e00	-0.066921234
240	0xbd816c53	-0.06319489
241	0xbe350b5f	-0.17680119
242	0xbb7721c4	-0.0037709335
243	0xbe4b2a0c	-0.19840258
244	0x3de39b54	0.11113611
245	0x3de7015b	0.112795554
246	0x3d5f3b72	0.05450005
247	0xbd449bd4	-0.04800017
248	0xbd11ba0c	-0.03557782
249	0xbd567af1	-0.05236334
250	0xbc951680	-0.018199205
251	0xbd5c2c9e	-0.053753488
252	0x3ddbb17c	0.10727212
253	0x3d81a368	0.063299954
254	0x3bfbe3e5	0.0076870793
255	0x3da24c60	0.079247236

transformer.layers.0.self_attn.in_proj_bias f4 [192]
0	0x3c980b57	0.018560095
1	0x3c30df64	0.010795448
2	0x3be4ab52	0.006978431
3	0x3b09729a	0.002097285
4	0x3b52887d	0.003212481
5	0x3be56d04	0.007001521
6	0x3ca6f17c	0.02037882
7	0x3b3c4f22	0.002873369
8	0xbc16f970	-0.009214744
9	0xbcd73763	-0.026271528
10	0xbc025927	-0.007955826
11	0x3c2429c3	0.010019722
12	0x3b3c9214	0.0028773593
13	0x3ac428a4	0.0014965725
14	0xbae7d2b6	-0.0017686698
15	0x38e35206	0.000108394815
16	0xbb164125	-0.0022927013
17	0x3c471d1c	0.012152936
18	0xbbc090d2	-0.005876639
19	0x3cff002f	0.031128017
20	0xbc846fe0	-0.016166627
21	0x3c7070a4	0.014675293
22	0x39310acc	0.00016884058
23	0xbb3c5c0b	-0.0028741385
24	0xbb2c03ef	-0.0026247462
25	0x3b28d77d	0.0025763207
26	0xbadb4425	-0.0016728683
27	0x3b8793dc	0.0041374993
28	0xba2508dc	-0.00062955706
29	0x3bfa3eb2	0.0076368684
30	0x3bda0f80	0.00665468
31	0x3c9184b5	0.017763475
32	0xbb2b5fd1	-0.002614964
33	0x3bf8b677	0.007590111
34	0x3c9895f4	0.01862619
35	0xbcb44868	-0.022007182
36	0x3c0d25b7	0.008614949
37	0x3cb38eed	0.021918738
38	0xbc06a4fd	-0.008218047
39	0xbcd1fa46	-0.025632035
40	0xbbf29fac	-0.0074042883
41	0xbc668533	-0.014069843
42	0xbc196349	-0.00936205
43	0x3a361c84	0.0006946998
44	0xbcbc56a6	-0.022990536
45	0xbcd732a7	-0.02626927
46	0xbc31cee3	-0.010852548
47	0x3ce8026b	0.028321465
48	0x3c0cfc1a	0.008605028
49	0x3cc519c0	0.02406013
50	0x3ca171f2	0.019707654
51	0xbc598d75	-0.013278355
52	0x3baf1d7e	0.005344092
53	0xbc9398fd	-0.018017286
54	0x3c11668c	0.008874547
55	0xbcc40ffe	-0.023933407
56	0xbbf4ce15	-0.007470856
57	0xbc8a660b	-0.016894361
58	0x3c31ed85	0.010859852
59	0xbba5cfac	-0.005060157
60	0x3be94cd2	0.0071197534
61	0xbca9feec	-0.020751439
62	0xbc12b945	-0.0089553045
63	0x3ad00f40	0.0015873685
64	0xb43a9b6d	-1.7379143e-07
65	0xb4d59751	-3.978444e-07
66	0x348e0428	2.6452585e-07
67	0x34a3527a	3.0421126e-07
68	0xb449d9ea	-1.879886e-07
69	0xb324f0a7	-3.8403098e-08
70	0x3226cbe0	9.7088275e-09
71	0x330b1a67	3.2387472e-08
72	0x34d4ad8e	3.9614355e-07
73	0x34b81e58	3.429475e-07
74	0x345a6ab5	2.0341652e-07
75	0xb4141bed	-1.3793733e-07
76	0xb489bbe1	-2.5654938e-07
77	0x3462f880	2.1138294e-07
78	0x341c8a73	1.4579e-07
79	0xb2c864cf	-2.3328907e-08
80	0xb3345d5a	-4.199442e-08
81	0xb380f6c3	-6.00535e-08
82	0x34681259	2.1613359e-07
83	0xb43ce133	-1.7590791e-07
84	0xb42a5437	-1.5863121e-07
85	0x33078cef	3.1560315e-08
86	0xb493f134	-2.7556382e-07
87	0x338033c4	5.9698806e-08
88	0xb4621b05	-2.105772e-07
89	0xb4412042	-1.7986261e-07
90	0xb48e76fc	-2.6536134e-07
91	0x34b8ddb6	3.4433987e-07
92	0x33fb556b	1.1703636e-07
93	0x310076c4	1.8693962e-09
94	0xb3ade3b3	-8.0973585e-08
95	0xb254662f	-1.2363258e-08
96	0xb3144080	-3.4517598e-08
97	0xb4847f98	-2.4679753e-07
98	0x335f2caa	5.1961855e-08
99	0xb471e737	-2.252899e-07
100	0xb433f24b	-1.675882e-07
101	0x34240d5c	1.527855e-07
102	0x32f33550	2.8313167e-08
103	0xb344de77	-4.5837137e-08
104	0xb409a971	-1.2820762e-07
105	0xb43c818a	-1.755599e-07
106	0xb3925d77	-6.815656e-08
107	0x33b279d2	8.31093e-08
108	0x33b9d72f	8.6538755e-08
109	0xb4706d5d	-2.2391528e-07
110	0xb43ce577	-1.7592343e-07
111	0xb410239c	-1.3424e-07
112	0x3422241f	1.5100566e-07
113	0x341ce79c	1.4612891e-07
114	0x340c1d94	1.3049277e-07
115	0xb40e66dd	-1.3262202e-07
116	0xb40023e5	-1.1933987e-07
117	0x33457059	4.5969816e-08
118	0xb2df9806	-2.6029749e-08
119	0xb35df290	-5.167618e-08
120	0x33098462	3.20182e-08
121	0xb3be5dcd	-8.864627e-08
122	0xb3e39738	-1.0598018e-07
123	0xb44e911d	-1.9238037e-07
124	0xb3c4cbbf	-9.1640224e-08
125	0xb3c90f10	-9.362532e-08
126	0xb3831bfb	-6.1052525e-08
127	0xb41fae4d	-1.4871439e-07
128	0x3a3d0f38	0.00072120456
129	0x3bfde779	0.007748541
130	0x3c236d6d	0.00997482
131	0xbc8a29b2	-0.016865585
132	0xbc8c1f8d	-0.017104888
133	0x3c047dac	0.008086603
134	0x3be850d0	0.0070897117
135	0xbb81956b	-0.0039545796
136	0x3a81de8c	0.0009908243
137	0xbb47e165	-0.0030499336
138	0xbc9a9655	-0.018870512
139	0x3bbe159a	0.005800915
140	0x3a0e0c3e	0.00054186943
141	0x3b4e6f40	0.0031499416
142	0x3b5ccb71	0.0033690596
143	0xbc92bf3d	-0.017913455
144	0x3a8eb919	0.0010888904
145	0xbca7f287	-0.020501388
146	0xbc30ba24	-0.010786567
147	0x3b846f51	0.0040415903
148	0xbc80d138	-0.015724763
149	0xbc5c93d2	-0.0134629775
150	0x3b9b938b	0.004747813
151	0xba9975b3	-0.0011708051
152	0xbc3821c5	-0.01123852
153	0x3bfe202a	0.007755299
154	0x3c0954a2	0.008381994
155	0xbb2518cc	-0.0025191782
156	0xbc75e31d	-0.015007761
157	0xbca1d1f0	-0.019753426
158	0xbc51576f	-0.012777193
159	0xbb6ac10f	-0.0035820638
160	0x3c910809	0.017704027
161	0x3c2ddd78	0.010611884
162	0x3ba671b1	0.005079471
163	0x3a78e643	0.0009494761
164	0x3cad2160	0.021134079
165	0xbc4752d8	-0.012165748
166	0xba05be88	-0.0005101939
167	0xbc66e96a	-0.014093736
168	0xbca0914c	-0.019600533
169	0xbb0021e7	-0.0019551457
170	0xbaacd3f7	-0.0013185729
171	0xbca20d58	-0.019781753
172	0x3c14fe7d	0.009093878
173	0xbb39f21f	-0.0028373075
174	0x3b99a4a1	0.0046888147
175	0xbc2aa234	-0.010414649
176	0xbc1ee0f3	-0.009697187
177	0x3c8baee7	0.017051173
178	0xbaa62f0a	-0.0012678814
179	0xbbb4ac03	-0.0055136695
180	0xba919a97	-0.0011108693
181	0xba4686ec	-0.00075732055
182	0xba3da094	-0.0007233706
183	0x3bc301ab	0.0059511266
184	0xbb10c9e2	-0.0022092988
185	0x3b146671	0.0022644068
186	0xbb25f7d5	-0.0025324721
187	0xbc039809	-0.0080318535
188	0x3b0030df	0.001956038
189	0x3c6fbbd6	0.014632186
190	0xbb5ae91d	-0.0033403106
191	0x3b256259	0.0025235622

transformer.layers.0.self_attn.out_proj.weight f4 [64, 64]
0	0x3bef82fa	0.007309315
1	0xbc03504d	-0.008014751
2	0x3c0a16fb	0.0084283305
3	0xbc7e9809	-0.015539178
4	0x3b2ad062	0.0026064147
5	0xba66937e	-0.0008795782
6	0xb440652e	-1.7918202e-07
7	0x3d3e54f8	0.04646775
8	0xbce460db	-0.027878216
9	0x3c1aa80d	0.0094394805
10	0xbb048beb	-0.0020225
11	0xbd81f89b	-0.06346246
12	0x3cbc4cf4	0.022985913
13	0x3a0aec60	0.0005299505
14	0x3cefd7dc	0.029277734
15	0x3bd79efa	0.006580231
16	0xbc7633ae	-0.01502697
17	0x3d2bdc58	0.041958183
18	0x3ce12531	0.027483555
19	0xbc038735	-0.008027841
20	0x3c74ff88	0.0149535015
21	0x3c8bf5fa	0.017085064
22	0xbca635bb	-0.020289293
23	0x3c9b9336	0.018991094
24	0x3b63a630	0.0034736507
25	0xbcf0d890	-0.02940014
26	0x3d057426	0.03258147
27	0xbce573dc	-0.028009348
28	0x3c138ca9	0.009005704
29	0xbce7862f	-0.028262226
30	0xbc8291f7	-0.015938742
31	0x3c25ec96	0.010127207
32	0x3d10e511	0.035374705
33	0xbd1a8168	-0.037721068
34	0xbc69dbc4	-0.014273588
35	0xbbd56c24	-0.0065131355
36	0x3d0ad681	0.033895973
37	0x3cc81be9	0.024427371
38	0xbc2c7f21	-0.010528357
39	0xbc8b1392	-0.016977105
40	0x3c747482	0.014920356
41	0x3c21e991	0.009882347
42	0x39d8e098	0.00041366066
43	0xbbf16262	-0.0073664645
44	0xbd48edd4	-0.049054936
45	0x3cc1abd2	0.0236415
46	0x3d26127e	0.04054498
47	0xbbd151fd	-0.0063879476
48	0xbbd92b49	-0.0066274744
49	0xbd26b955	-0.04070409
50	0xbc046979	-0.008081787
51	0x3cac918d	0.021065498
52	0x3c2f0418	0.010682128
53	0x3beaf77d	0.007170616
54	0xbbb873ca	-0.0056290375
55	0xbd46d81b	-0.048545938
56	0x3ca5c825	0.020237038
57	0xbbed98ca	-0.00725088
58	0xbd52466a	-0.051336683
59	0x3d0da8c3	0.03458477
60	0x3cacdbdc	0.02110093
61	0x3ce215ca	0.02759828
62	0xbbebb73f	-0.0071934755
63	0x3c2b6d88	0.010463126
64	0x3b4e9052	0.0031519127
65	0xbcb3f636	-0.021967988
66	0xbcb274ce	-0.021784212
67	0x3cb5accd	0.022177124
68	0x3d0971f3	0.033555936
69	0xbbb67922	-0.0055686394
70	0x3a912ec6	0.0011076562
71	0xbc971f06	-0.01844741
72	0xbcdf4f62	-0.027259532
73	0xbc498c30	-0.01230149
74	0xbca5fe03	-0.020262724
75	0xbd16966e	-0.036764555
76	0x3cdac2f6	0.026704293
77	0xbad10408	-0.0015946636
78	0x3ba1ca1c	0.0049374234
79	0x3d075910	0.03304392
80	0x3bd6030b	0.0065311245
81	0x3c668d57	0.014071784
82	0x3a41c8e8	0.0007392303
83	0xbc374b3e	-0.011187373
84	0x3c928fa6	0.017890763
85	0x3d10cca6	0.035351418
86	0x3d1ace86	0.037794612
87	0x3d173433	0.036915015
88	0xbcb92c98	-0.022604272
89	0xbbce043d	-0.0062871263
90	0xbcd2234d	-0.025651598
91	0xbc82c6ed	-0.015963996
92	0xbd13b986	-0.0360656
93	0xbd06a50e	-0.032872252
94	0x3c43430d	0.011917842
95	0x3ca33953	0.019924795
96	0x3bd9f057	0.006650965
97	0x3ccbc71c	0.024875216
98	0x3cdc71c5	0.026909718
99	0x3c8f5542	0.017496709
100	0xba3aec2d	-0.000713053
101	0x3cc06068	0.02348347
102	0x3ba5dada	0.0050614895
103	0xbc70b92f	-0.014692589
104	0x3791719e	1.7338254e-05
105	0x3c84d465	0.016214559
106	0xbd57c1ae	-0.05267494
107	0x3d3f67fd	0.04673003
108	0xbc834c2d	-0.016027534
109	0xbd2a00cd	-0.04150467
110	0xbbc855c3	-0.006113739
111	0x3bd57e3d	0.006515293
112	0xbd1f0ecd	-0.038832474
113	0xbbd62adf	-0.0065358724
114	0xbca72fd5	-0.02040855
115	0x3bd50788	0.006501142
116	0xbbb62ce1	-0.005559549
117	0x3d12e6d9	0.035864685
118	0xbca8a02c	-0.020584188
119	0xbc5a4d9c	-0.013324168
120	0xbd467e57	-0.04846033
121	0xbbac73bf	-0.0052628214
122	0x3cd34db2	0.025793884
123	0x3c254d7d	0.010089275
124	0xbcfed0b1	-0.031105371
125	0x3bf26c18	0.0073981397
126	0x3c215aab	0.009848277
127	0x3af7fee5	0.0018920569
128	0xbbfa252c	-0.0076338258
129	0x3cb94929	0.022617893
130	0xbc6016b4	-0.013677288
131	0x3c213f01	0.009841681
132	0xbc4e7d8b	-0.012603174
133	0x3bd458c6	0.006480309
134	0x3c18a820	0.009317428
135	0x3cb5be9e	0.02218562
136	0x3ca409d3	0.020024216
137	0x3cbfca99	0.023412036
138	0xbbb3ca07	-0.00548673
139	0xbc48d3b9	-0.01225751
140	0x3c08e74e	0.008355929
141	0xbba4a8aa	-0.005024989
142	0x3d1338e3	0.035942923
143	0xbc11cbc2	-0.008898677
144	0xbc2afa62	-0.0104356725
145	0xbc41f3f7	-0.011837951
146	0xbcf13c82	-0.029447798
147	0xbd30f965	-0.04320659
148	0xbc8cdc46	-0.017194878
149	0x3c26b589	0.010175117
150	0xbb823029	-0.0039730263
151	0x3c181d3b	0.009284313
152	0xbba8d4cb	-0.00515232
153	0xbb35d9d6	-0.0027748249
154	0xbc8d4779	-0.017245995
155	0x3c9891ba	0.018624175
156	0xbd2d1ca3	-0.04226364
157	0xbc3259f8	-0.010885708
158	0xbc8c6320	-0.01713711
159	0xbc8e053d	-0.017336482
160	0xbc1f76e0	-0.009732932
161	0x3c2aa3f5	0.010415067
162	0xbc0e8520	-0.008698732
163	0x3cdacf5f	0.02671021
164	0x3b75abce	0.0037486437
165	0xbc2fe71a	-0.010736251
166	0x3ccb2974	0.02480004
167	0x3c677df9	0.014129155
168	0x3c8c55e0	0.017130792
169	0xbbc01135	-0.0058614262
170	0xbc3cf9da	-0.011534179
171	0x3ce25271	0.027627202
172	0x3bf709f0	0.0075390264
173	0xbc0a093f	-0.008425056
174	0x3d2e86ef	0.04260915
175	0xbd1e79ca	-0.038690366
176	0x3b202b7c	0.0024439981
177	0x3b81b8e3	0.003958808
178	0xbbddc2f7	-0.0067676264
179	0xbca8c28f	-0.020600585
180	0xbc503c07	-0.012709624
181	0x3cc828b6	0.024433475
182	0x3d265a4b	0.040613454
183	0x3c27fa3a	0.01025253
184	0xbd1798a1	-0.037010793
185	0x3c6a0d3e	0.014285384
186	0xbc6c228c	-0.0144125335
187	0xbc03578c	-0.008016478
188	0x3c8a73b4	0.016900875
189	0xbbfc062f	-0.007691167
190	0xbbb585b1	-0.005539619
191	0xbc3a5c79	-0.011374586
192	0xbd0350bd	-0.03205942
193	0xb982f7f9	-0.00024980286
194	0x3c2c5693	0.010518688
195	0xbca70e10	-0.020392448
196	0x3b89ccf2	0.0042053396
197	0xbcbfe0ea	-0.023422677
198	0x3cf1d206	0.029519092
199	0x3c789aee	0.015173657
200	0xbb501619	-0.0031751452
201	0x3cb9f676	0.02270053
202	0x3c6735f1	0.014111982
203	0x3b2664c5	0.0025389653
204	0x3c0e721d	0.008694199
205	0x3b10ee28	0.0022114608
206	0x3c300c9a	0.010745192
207	0xba47d4d5	-0.0007622962
208	0x3bd032a7	0.0063536945
209	0xbbac1591	-0.0052515944
210	0x3cd04803	0.025424963
211	0xbc590bfe	-0.013247488
212	0x3cf15cf5	0.02946327
213	0x3d151271	0.03639454
214	0x3c695166	0.014240598
215	0xbcbb66f4	-0.02287624
216	0x3bc5d74d	0.0060376287
217	0xbc00444d	-0.007828784
218	0x3d1987f5	0.037483174
219	0xbca7e263	-0.020493692
220	0xbb49f366	-0.0030815243
221	0x3d39cda0	0.045362115
222	0x3b31f450	0.0027153678
223	0xb8e75ada	-0.00011031861
224	0x3beee899	0.0072909114
225	0xbd368fde	-0.044570796
226	0x3c1a86be	0.009431539
227	0x3a872ed1	0.0010313635
228	0xbd07cf96	-0.033156954
229	0x3c586580	0.013207793
230	0xbc7f7130	-0.015590951
231	0xbc4fe892	-0.012689726
232	0x3be63466	0.0070252893
233	0xbcb1cd11	-0.021704229
234	0xbcc57cc1	-0.024107339
235	0x3a357c3e	0.00069231156
236	0xbb94f767	-0.004546094
237	0x3d355142	0.044266947
238	0x3c1b85b5	0.009492327
239	0x3d2872d5	0.041125137
240	0xbd03d326	-0.03218379
241	0x3b06fead	0.0020598576
242	0xbc1d00e6	-0.009582734
243	0x3cb45227	0.02201183
244	0x3d07c422	0.03314603
245	0x3be08542	0.006851823
246	0x3c4d77e2	0.012540789
247	0x3d24739f	0.040149327
248	0xbc16f0cd	-0.009212685
249	0xbd1d9a25	-0.03847708
250	0xbc95472f	-0.01822242
251	0x3ba55519	0.005045545
252	0xbb0eb6f2	-0.0021776524
253	0xbd3d5241	-0.04622102
254	0x3d23d9d8	0.040002674
255	0x3c7e9af9	0.015539878

transformer.layers.0.self_attn.out_proj.bias f4 [64]
0	0x3c1174a9	0.008877912
1	0x3b8dc157	0.0043260264
2	0xbbc081d1	-0.0058748503
3	0x3bdc005b	0.0067139096
4	0x3b8b5693	0.004252264
5	0x3ab50d29	0.0013813126
6	0xbc004290	-0.00782837
7	0x3c0fa74b	0.008767913
8	0x3bc61849	0.0060453755
9	0x3c2d1ea5	0.010566388
10	0xbbff0e9b	-0.0077837235
11	0x3b78437c	0.003788202
12	0xb9a6ac3a	-0.00031790306
13	0xbbac4b77	-0.0052580195
14	0x3c28bbd2	0.010298686
15	0xbc1a5a84	-0.009420995
16	0xbbf53ce9	-0.0074840677
17	0x3aec5f7e	0.001803383
18	0x3b2e4ec8	0.002659725
19	0x3be4f11e	0.006986751
20	0xbb200221	-0.0024415331
21	0x3bb475ac	0.0055071916
22	0xbbca8d9f	-0.0061814333
23	0x3bc8c079	0.00612646
24	0xbc04578c	-0.008077513
25	0x3a56bc15	0.00081914786
26	0xbbfeee11	-0.0077798446
27	0x3bb3842a	0.0054784017
28	0x3bb04278	0.0053790174
29	0xbb5e298c	-0.0033899276
30	0x3c014295	0.00788941
31	0x3bebba2c	0.0071938243
32	0x3bc8ed8b	0.006131833
33	0x3bcbfddd	0.006225331
34	0xba706234	-0.0009169907
35	0xbabcbecd	-0.0014400125
36	0x3b66032e	0.003509711
37	0xbc1033c8	-0.008801408
38	0xb9e43e8d	-0.00043534153
39	0x3c1abe58	0.009444796
40	0xbc3894da	-0.011265958
41	0x3b00e25b	0.0019666168
42	0xbbd563eb	-0.0065121553
43	0xbc1eec1c	-0.009699848
44	0xbbbc9a1d	-0.0057556764
45	0xbb24d382	-0.0025150483
46	0xbbbc49e3	-0.0057461127
47	0x3bf1d052	0.00737957
48	0xbb9cb497	-0.00478227
49	0xba7beb40	-0.0009609945
50	0x3c3eab15	0.011637469
51	0xbb777526	-0.0037759035
52	0xbc0955a5	-0.008382236
53	0x3be3da77	0.0069535333
54	0x3c110115	0.008850356
55	0xbb89289e	-0.00418575
56	0xbc22fd04	-0.009948019
57	0xbbccf78e	-0.0062550968
58	0xbc1486d1	-0.009065346
59	0xbad4f214	-0.0016246461
60	0x3bdbf0d3	0.006712058
61	0xbba475a6	-0.0050189076
62	0x3b88f606	0.004179719
63	0xbc1ba240	-0.009499133

transformer.layers.0.linear1.weight f4 [128, 64]
0	0xbd6ff725	-0.058585305
1	0xbcc6be1d	-0.024260575
2	0x3d160610	0.036626875
3	0xbd0f1cde	-0.03493964
4	0x3cd587b6	0.026065689
5	0xbc66d019	-0.0140877
6	0xbc3e1d4f	-0.011603667
7	0x3d621356	0.05519422
8	0x3cfb2ec5	0.03066195
9	0xbc2f8d95	-0.010714908
10	0xbd3b6c20	-0.045757413
11	0x3d1a9123	0.03773607
12	0x3ca7cb6d	0.020482743
13	0x3ceaec5a	0.028677154
14	0xbcb219f8	-0.021740898
15	0x3c805928	0.015667513
16	0xbca48910	-0.020084888
17	0x3c826ae8	0.015920117
18	0x3d5323e3	0.051547896
19	0xbd6d48b9	-0.05793068
20	0x3d5f1527	0.05446353
21	0x3c01272c	0.007882874
22	0x3da32277	0.07965558
23	0xbb70515a	-0.0036669583
24	0x3c544706	0.012956386
25	0xbbc783bb	-0.0060887015
26	0x3c1c1b41	0.009527982
27	0x3c2fdf39	0.010734373
28	0xbd9931d0	-0.07480204
29	0xba2470bb	-0.00062729017
30	0x3d4b03ff	0.049564358
31	0x3c7ed4ec	0.015553694
32	0x3d20ba32	0.03924007
33	0xbd7b1bd1	-0.061305825
34	0xbc8c4218	-0.01712136
35	0x3ccadc37	0.02476321
36	0xbc8ce154	-0.017197289
37	0x3be7521b	0.0070593483
38	0x3ce12a4c	0.027485989
39	0xbc8c2ca9	-0.01711114
40	0x3c3e5878	0.011617772
41	0xbcaa23c1	-0.020769002
42	0xbd661998	-0.05617675
43	0xbbb851e4	-0.0056249965
44	0xbd01477f	-0.031562325
45	0xbd06cc60	-0.03290975
46	0x3c00c77f	0.007860064
47	0xbd100e65	-0.035169978
48	0x3c81224c	0.015763424
49	0xbc8aafe1	-0.016929569
50	0xbc80028f	-0.01562622
51	0xbd0c338a	-0.03422884
52	0x3da83758	0.08213681
53	0x3cd0cb04	0.02548743
54	0xbd839d52	-0.06426491
55	0xbbbc5935	-0.005747939
56	0xbcb75ba1	-0.02238256
57	0xbcf1269f	-0.029437361
58	0xbb957563	-0.0045611127
59	0xbd9eee9c	-0.07760355
60	0x3b939871	0.0045042564
61	0xbca6711c	-0.020317607
62	0xbbfe857d	-0.007767378
63	0xbcc21f17	-0.023696465
64	0xbcbfe443	-0.023424273
65	0x3c0e2941	0.008676828
66	0x3ca3e3a6	0.020006012
67	0xbc957d1a	-0.01824813
68	0x3c560a57	0.013063989
69	0x3c29b045	0.010356967
70	0xbce4e85b	-0.027942827
71	0x3cca82fb	0.02472066
72	0x3b61cbf1	0.0034453834
73	0x3ceb7f9a	0.028747369
74	0xbcd5b1ca	-0.026085753
75	0xbd48920b	-0.048967402
76	0xbd2e0e00	-0.04249382
77	0xbc72d45c	-0.014821138
78	0x3cbfd898	0.02341871
79	0x3c956bcf	0.018239884
80	0xbca74f70	-0.020423621
81	0xbc9a35f9	-0.018824564
82	0xbd0f1b8c	-0.03493838
83	0x3c86fa54	0.016476788
84	0x3ba1d9ef	0.00493931
85	0xbc60264a	-0.013681004
86	0xbccadcaf	-0.024763433
87	0xbbdfb439	-0.006826904
88	0x3c58fab7	0.013243369
89	0x3ad0e695	0.001593786
90	0xbc29be9f	-0.010360389
91	0xbd3d39ec	-0.046197817
92	0x3c4e971f	0.012609272
93	0xbc153d13	-0.0091087995
94	0xbd4c6595	-0.049901564
95	0xbc83548c	-0.016031526
96	0x3d18f23a	0.03734038
97	0xbacea675	-0.0015766161
98	0xbb24b4b4	-0.0025132122
99	0xbc2ffe09	-0.010741719
100	0x3c024e29	0.007953205
101	0x3bd4331e	0.00647582
102	0xbd0295af	-0.03188103
103	0x3c39afdb	0.011333431
104	0x3ba445fe	0.0050132265
105	0x3b98e249	0.004665647
106	0xbcd7f1e5	-0.026360461
107	0x3b136e26	0.0022496074
108	0xbc7724f0	-0.01508449
109	0x3c859686	0.016307127
110	0xbc845945	-0.016155848
111	0xbd2a7693	-0.041616987
112	0x3ca4b2ff	0.020104883
113	0x3cc6fe61	0.02429122
114	0xbc4923cc	-0.012276601
115	0x3c4e8b3b	0.012606437
116	0x3d0b6fa4	0.034042016
117	0x3c84b132	0.016197775
118	0x3cd095bd	0.025462026
119	0x3cfaf56f	0.03063461
120	0xbd50a718	-0.050940603
121	0xbb7db44f	-0.0038712209
122	0x3d049b5a	0.032374717
123	0xbcff31ba	-0.031151641
124	0x3c1a624e	0.009422852
125	0x3c157373	0.0091217635
126	0x3d28a35b	0.041171413
127	0x3c152572	0.009103166
128	0x3d7957ab	0.060874622
129	0x3cd784c3	0.026308423
130	0xbc3c7004	-0.011501316
131	0x3cee6cf6	0.029104691
132	0x3bb0d107	0.0053960118
133	0xbc9739a2	-0.018460099
134	0xbc5da49a	-0.013528014
135	0xbc6bc90e	-0.014391197
136	0x3cd0d696	0.025492948
137	0x3c86b381	0.016443016
138	0x3bede76c	0.0072602537
139	0xbc9b8b4a	-0.018987317
140	0xbd07ddf5	-0.03317066
141	0xbd33339c	-0.04375039
142	0x3c022b89	0.00794495
143	0xbc220d59	-0.009890878
144	0x3b930d54	0.004487673
145	0xbc8ecf87	-0.017432941
146	0xbd208018	-0.03918466
147	0xbc3e884b	-0.011629174
148	0x3d9d882a	0.07691987
149	0x3ca99ce3	0.020704692
150	0x3b768b44	0.003761963
151	0x3d248853	0.04016907
152	0xb935cfe5	-0.00017338952
153	0x3a965bee	0.0011471489
154	0x3b724ffc	0.0036973944
155	0xbd282350	-0.0410493
156	0x3d6305b0	0.055425346
157	0x3bf33369	0.0074219
158	0x3c3cb2e0	0.0115172565
159	0x3c61436b	0.013748984
160	0x3c883a08	0.016629234
161	0x3bf1f970	0.0073844716
162	0xbca3e2f7	-0.020005686
163	0xbc96ce3a	-0.018408883
164	0x3d26d993	0.04073484
165	0xbc5d4cd4	-0.013507087
166	0xbc86879f	-0.016422091
167	0x3cf78d91	0.030218871
168	0xbd8c9395	-0.068640865
169	0x3cc45969	0.023968415
170	0xbb6de0ae	-0.003629725
171	0x3892bab0	6.996596e-05
172	0x3b25f6f8	0.0025324207
173	0xbc786091	-0.015159742
174	0x3b3876b3	0.0028146922
175	0xbc734a60	-0.014849275
176	0x3b28ae69	0.0025738722
177	0x3d85925f	0.06522059
178	0x3d1b01cc	0.03784351
179	0x3d1b3e74	0.037901357
180	0x3c07e881	0.008295179
181	0x3cf6a122	0.030106131
182	0xbd22e746	-0.03977134
183	0xbbfad38e	-0.007654614
184	0xbc91740a	-0.017755527
185	0x3b052129	0.0020313954
186	0xbc84936b	-0.016183576
187	0xbc8236fe	-0.015895363
188	0x3d1b7317	0.037951555
189	0xbcbee2a2	-0.023301426
190	0x3afba0f5	0.0019197749
191	0xbc82f5b2	-0.015986297
192	0x3d35d483	0.04439212
193	0xbc9b1b24	-0.01893384
194	0x3d0ac033	0.0338747
195	0x3c6bc528	0.014390267
196	0x3bea6407	0.0071530375
197	0x3ca56619	0.020190286
198	0xbcecdff5	-0.028915385
199	0x3ccde313	0.025132691
200	0xbb216057	-0.0024624073
201	0x3d89c143	0.06726315
202	0x3d40c57d	0.04706334
203	0xbbc14f8e	-0.0058993762
204	0x3cc09f89	0.023513572
205	0x385615a9	5.104175e-05
206	0x3d08f3f7	0.033435788
207	0xbb8717ca	-0.004122709
208	0x3cc608d7	0.024174137
209	0x3cc9574c	0.02457776
210	0xbc878a4a	-0.016545434
211	0x3dadf1a4	0.08493355
212	0xbc098325	-0.008393084
213	0x3cc471ea	0.0239801
214	0xbd38ff02	-0.04516507
215	0x3d2fe9e0	0.04294765
216	0xbc1ea6d1	-0.009683327
217	0x3a6a24ef	0.0008931895
218	0xbb976a79	-0.004620847
219	0x3c1b7184	0.009487513
220	0x3c46ba61	0.012129397
221	0xbd8755e6	-0.06608181
222	0x3ced090e	0.028934982
223	0xbca83359	-0.020532297
224	0xbc816247	-0.015793933
225	0x3d3a3adf	0.0454663
226	0x3b0c56bb	0.0021414
227	0xbca06a24	-0.019581862
228	0x3a856eb1	0.0010180083
229	0xbc254b69	-0.01008878
230	0xbcc76957	-0.024342222
231	0x3c7820c8	0.015144534
232	0x3c5021f9	0.012703412
233	0x3d026018	0.031829923
234	0xbd0f9d09	-0.03506187
235	0xbd650d04	-0.055920616
236	0xbba176c4	-0.004927488
237	0xbd47fe75	-0.048826654
238	0x3c11e9ab	0.008905808
239	0x3d574fcf	0.052566346
240	0x3d529041	0.051407102
241	0x3bdd1dec	0.0067479517
242	0x3db2b78d	0.08726416
243	0x3a93a729	0.0011265028
244	0x38f8ddfc	0.00011866909
245	0x3a42e70c	0.00074349414
246	0x3bc4727b	0.0059950924
247	0x3cdc835f	0.026918111
248	0xbd49be0a	-0.0492535
249	0x3c4137ce	0.01179309
250	0xbcf3b973	-0.029751515
251	0x39927f44	0.0002794211
252	0x3d807c8f	0.06273758
253	0xbc96da58	-0.018414661
254	0x3c9f1358	0.019418404
255	0xbc228dcb	-0.009921501

transformer.layers.0.linear1.bias f4 [128]
0	0xbb8f6ed5	-0.004377226
1	0xbb2238f8	-0.0024753194
2	0x3c1fbfae	0.00975029
3	0x3cba6c0b	0.022756597
4	0x3b42c4c5	0.0029719335
5	0xbc00b6d3	-0.007856089
6	0x3cc3765d	0.023860151
7	0x3c8788bf	0.016544698
8	0x3bb368f5	0.0054751583
9	0x3b8cc244	0.004295619
10	0x3baaf38c	0.0052170213
11	0x3c2069c5	0.009790842
12	0xbb95c0c9	-0.004570101
13	0x3b6a944e	0.0035793963
14	0x3bb51948	0.0055266954
15	0xbc47669e	-0.012170462
16	0x3c8be5e9	0.017077403
17	0x3c955e61	0.01823348
18	0xbbe3059f	-0.0069281603
19	0x3b85c9d9	0.0040829
20	0x3c44488e	0.011980189
21	0xbcd27d76	-0.02569459
22	0x3cc532e7	0.024072124
23	0x3c2bdd45	0.0104897665
24	0x3c378d03	0.011203053
25	0x3bc4eb77	0.006009515
26	0x3c123325	0.008923327
27	0x3ca0541a	0.019571353
28	0x3c437a92	0.0119310785
29	0x3c830435	0.015993217
30	0x3c1fa105	0.00974298
31	0xbbfd1aff	-0.0077241655
32	0xbb46959a	-0.0030301572
33	0x3b9b898a	0.0047466205
34	0x3b50b509	0.0031846187
35	0x3bc5712c	0.006025454
36	0x3bc35b65	0.005961823
37	0x3ca494c1	0.020090463
38	0x3bea4c96	0.007150243
39	0xbc605bb6	-0.013693741
40	0x3bf3f43b	0.007444886
41	0x3baf67ae	0.0053529358
42	0x3c2778f2	0.010221707
43	0x3b1c4784	0.0023846338
44	0x3caf7637	0.021418674
45	0x3be9c1b3	0.0071336864
46	0x3c00fb00	0.007872343
47	0x3b86382a	0.0040960507
48	0xbaf87b45	-0.0018957636
49	0x3b8af382	0.004240454
50	0xbc5c919e	-0.013462452
51	0x39e96bb4	0.00044521468
52	0x3c45f5fe	0.012082575
53	0x3c8386df	0.016055522
54	0x3bc95072	0.006143623
55	0xbbd33e5a	-0.006446642
56	0x3c495694	0.012288708
57	0xbc86ad2f	-0.016440002
58	0x3ba28b14	0.004960427
59	0xbc92baaf	-0.017911283
60	0x3c1795f9	0.009252065
61	0x3c2646ca	0.010148713
62	0x3c3f18cd	0.011663628
63	0x3c608c74	0.013705362
64	0x3a57b19f	0.0008228067
65	0x3c1a7fff	0.009429931
66	0xbc02632f	-0.0079582175
67	0x3c951199	0.018196868
68	0xba1cdc02	-0.00059837115
69	0x3cd1cc80	0.025610209
70	0x3c0f59bf	0.0087494245
71	0xbb2c08eb	-0.0026250433
72	0xbb9d1a70	-0.0047944114
73	0x3afff7e9	0.0019528839
74	0x3c3ea22f	0.011635347
75	0x3ba67fff	0.0050811763
76	0x3c2da94e	0.010599447
77	0x3b499da7	0.0030764134
78	0x3ca9bb55	0.02071921
79	0x3b7481c3	0.003730879
80	0x3ca8516b	0.020546636
81	0xbb045bee	-0.0020196396
82	0x3c126b76	0.0089367535
83	0xbbd9157d	-0.006624876
84	0x3b86ae80	0.0041101575
85	0x3c0ce237	0.008598856
86	0x3ca082f6	0.019593697
87	0x3bc33142	0.0059567997
88	0xbc27e07f	-0.010246395
89	0x3bfd3625	0.007727402
90	0x3bf6eaa9	0.007535298
91	0x3c450ded	0.012027246
92	0xbca0e514	-0.019640483
93	0x3a6c5acd	0.0009016216
94	0x3c9243f5	0.01785467
95	0x3af6b823	0.0018823188
96	0x3c8490d0	0.016182333
97	0xbb986215	-0.004650364
98	0x3b4f8641	0.0031665715
99	0x3c2d7491	0.010586874
100	0x3c487b6a	0.012236455
101	0x3bc98fc3	0.006151171
102	0xba885e17	-0.0010404018
103	0x3cb89514	0.022532023
104	0x3a8a6ceb	0.0010561025
105	0x3bed7bab	0.0072474084
106	0x3b4ff8b5	0.0031733934
107	0x3cbef18a	0.023308534
108	0x3c7f8114	0.0155947395
109	0xbba5fb9a	-0.0050653936
110	0x3c11c598	0.008897208
111	0x3c173311	0.009228484
112	0xbc36d62b	-0.01115946
113	0x3c74aa15	0.014933129
114	0x3bcce175	0.0062524625
115	0x3b9ae9b8	0.0047275685
116	0x3c8250ab	0.015907606
117	0x3a17eddf	0.00057956384
118	0x39e214a8	0.0004312147
119	0xbc9ffadb	-0.019528797
120	0xbbddfc48	-0.006774459
121	0xb91a3857	-0.00014707573
122	0xbb847d01	-0.004043222
123	0x3c423528	0.011853494
124	0x3b9d646d	0.0048032315
125	0xba8c5318	-0.0010705916
126	0x3c1a4d0f	0.009417786
127	0x3c725245	0.014790122
