marble_model/best_model_v3.0_20250531_004321.pt (torch, 295593 bytes, 30 tensors)

token_embedding.weight f4 [13, 64]
0.041739814 0.012400121 0.018518992 0.016729873 -0.009946816 -0.025083799 -0.022774443 -0.017014325
0.04827585 -0.015521857 -0.0361638 -0.0049193567 0.01681519 0.009925576 -0.010869889 -0.0119512845
0.020973755 -0.028563764 0.020302586 0.03642615 -0.012052949 0.009819067 0.006473735 0.01755783
0.0015198258 -0.018549766 0.021382492 0.011904901 0.01502956 -0.013098603 -0.016597373 -0.0028967792
0.0044367993 0.045723923 -0.0031537332 0.056665797 -0.0005705355 0.021284925 0.011072316 -0.00522902
-0.008512799 0.021583868 -0.036878414 0.03663379 0.03519964 0.022017224 -0.0021444026 -0.004099331
-0.008795872 -0.025941147 0.0024723005 0.024136176 -0.019918637 -0.02663207 -0.009469506 0.00046106055
0.031476274 0.011901414 0.02015496 0.03722183 0.018444741 -0.012249972 0.0023568356 -0.0023895223
-0.0055636195 0.015288238 -0.00086881575 -0.0019035046 -0.013922028 -0.0741117 0.0238048 -0.051828563
-0.0045747953 0.021597702 0.02327652 0.046859905 0.037113015 0.013855015 -0.0042606844 0.0045480453
0.017228978 -0.026521863 0.053575136 -0.0012223123 0.033164304 0.010022553 -0.0048207054 0.035111565
0.015980577 -0.013233055 0.02282017 -0.051527854 -0.03415643 0.04272871 -0.027765833 -0.029552247
-0.0325337 0.0030858999 0.038993713 -0.020259365 -0.013304949 -0.00046062394 0.02536535 0.010365488
-0.047951892 -0.026380684 0.010046448 0.01874898 -0.0270713 0.021757288 0.027641412 -0.004232525
0.00053978845 0.023528516 -0.01218517 -0.035830703 0.0015052371 -0.032388326 0.030914603 -0.0237326
0.00020764262 0.010913017 -0.025930578 0.030189784 0.02992082 -0.013711877 0.026812723 0.006219092
0.0017325926 0.0024246601 0.0042992183 0.00048354777 0.02240481 -0.0055986634 -0.027150862 0.030210566
-0.027964508 0.024407888 -0.0037700506 0.00798033 -0.007226001 -4.255914e-06 -0.041270833 0.011798607
-0.0057521793 -0.059088588 -0.01984205 0.0030916482 0.0029388478 0.016164081 0.0074578 0.018680668
-0.03378358 0.0061333594 0.00286735 0.016763771 -0.0054316423 -0.026997112 0.042828653 -0.0018292657
-0.029108992 0.013313262 -0.015486451 0.024048371 -0.0059788125 -0.042119935 0.020709965 -0.030518932
0.051583562 0.007368534 -0.009524829 -0.023570234 -0.013465803 0.033013757 -0.02018673 -0.0015180224
-0.006076961 0.004025698 -0.010689297 -0.00054847373 -0.015820479 0.010898458 0.027097698 -0.004693041
-0.0061616865 -0.018708019 -0.0146769155 -0.0007091599 0.010274921 0.007935839 -0.01475778 0.010943306
0.021765115 -0.014585299 -0.016651655 -0.00210163 0.039099835 0.0024050951 -0.0075837597 0.00010388285
-0.0139504615 0.024927199 0.00018512103 -0.0016629949 0.004159749 -0.018722761 0.0071980623 -0.0011309665
-0.016156737 0.028898079 0.014487239 0.0155180795 -0.021132955 0.008959606 0.0077504357 0.0057559833
0.009957139 0.0001263811 0.029785423 0.024280557 0.008568046 0.0030975118 0.0018911755 0.032211594
-0.0026261106 -0.013555667 -0.014011028 0.010925827 -0.011744209 0.015069291 0.001085667 -0.014773263
-0.0035528527 0.018802114 0.019906491 -0.000392302 0.011496823 -0.011207961 -0.030171232 -0.03241283
-0.002407794 0.021344025 0.0006627837 0.024223331 0.0008891242 -0.0035998414 -0.0016295047 0.0104519045
0.01557415 -0.020441333 -0.0058885873 -3.1076666e-05 -0.04001557 -0.0012824547 -0.0012886071 0.026265176
00000000: 5ef7 2a3d e129 4b3c 24b5 973c 160d 893c
00000010: f8f7 22bc 8a7c cdbc 7891 babc a061 8bbc
00000020: e6bc 453d 634f 7ebc 7e20 14bd 8e32 a1bb
00000030: 02c0 893c e29e 223c 9e17 32bc 52cf 43bc
00000040: 27d1 ab3c 8efe e9bc 9c51 a63c 9633 153d
00000050: bb79 45bc 27e0 203c a021 d43b 70d5 8f3c
00000060: e434 c73a aef5 97bc 562a af3c c60c 433c
00000070: 8b3e 763c 869b 56bc 37f7 87bc e4d7 3dbb
00000080: 9262 913b 0249 3b3d ddae 4ebb 651a 683d
00000090: fd8f 15ba b95d ae3c a968 353c 3358 abbb
000000a0: 4479 0bbc a7d0 b03c d20d 17bd 500d 163d
000000b0: 7f2d 103d 775d b43c 1b89 0cbb ae53 86bb
000000c0: 901c 10bc 8782 d4bc 5206 223b 3bb9 c53c
000000d0: 692c a3bc 802b dabc fd25 1bbc 80ba f139
000000e0: 44ed 003d 26fe 423c 041c a53c eb75 183d
000000f0: 6d19 973c 1bb4 48bc 2475 1a3b 8899 1cbb
00000100: 064f b6bb 857b 7a3c 3dc1 63ba 047f f9ba
00000110: 3819 64bc e0c7 97bd 4902 c33c 304a 54bd
00000120: 2ae8 95bb aaed b03c 67ae be3c 2cf0 3f3d
00000130: d103 183d 2500 633c 369d 8bbb c507 953b
00000140: c923 8d3c 6144 d9bc 9a71 5b3d ff35 a0ba
00000150: 4bd7 073d a235 243c 02f7 9dbb 25d1 0f3d
00000160: b3e9 823c 75cf 58bc 5df1 ba3c df0e 53bd
00000170: 9de7 0bbd 4d04 2f3d 2c75 e3bc 8e17 f2bc
00000180: 0f42 05bd cf3c 4a3b dfb7 1f3d f8f6 a5bc
00000190: 00fd 59bc e67f f1b9 ffca cf3c 02d4 293c
000001a0: 3469 44bd 4e1c d8bc db99 243c 7697 993c
000001b0: a2c4 ddbc 573c b23c 3e70 e23c feb0 8abb
000001c0: 9780 0d3a e0be c03c 4fa4 47bc 37c3 12bd
000001d0: 604b c53a 9fa9 04bd 9f40 fd3c df6a c2bc
000001e0: a4ba 5939 83cc 323c 5d6c d4bc 9150 f73c
000001f0: 821c f53c c8a7 60bc 5ba6 db3c 86c9 cb3b
00000200: 2918 e33a 0ce7 1e3b 75e0 8c3b af84 fd39
00000210: 4b8a b73c fe74 b7bb 7c6b debc 267c f73c
00000220: d315 e5bc 0df3 c73c f412 77bb eebf 023c
00000230: 17c8 ecbb 06ce 8eb6 9b0b 29bd f24e 413c
00000240: c77c bcbb e006 72bd cb8b a2bc 409d 4a3b
00000250: af99 403b 896a 843c 9060 f43b 3308 993c
00000260: a760 0abd 59fa c83b 26ea 3b3b 2d54 893c
00000270: ebfb b1bb 0c29 ddbc 196d 2f3d f9c3 efba
00000280: fb75 eebc de1f 5a3c e2ba 7dbc 1701 c53c
00000290: eae9 c3bb f485 2cbd f2a7 a93c d702 fabc
000002a0: 4949 533d be73 f13b 070e 1cbc 5d16 c1bc
000002b0: ac9f 5cbc 6f39 073d a45e a5bc 61f8 c6ba
000002c0: 3e21 c7bb 01ea 833b 2922 2fbc 73c7 0fba
000002d0: f399 81bc 728f 323c fefb dd3c 15c8 99bb
000002e0: f9e7 c9bb 8f41 99bc 7277 70bc eae6 39ba
000002f0: 2458 283c 5205 023c 9eca 71bc 8d4b 333c
00000300: c14c b23c 2ef7 6ebc 0d69 88bc 80bb 09bb
00000310: 2627 203d cd9e 1d3b 3081 f8bb aedb d938
00000320: 7a90 64bc 2034 cc3c 0c1d 4239 d9f8 d9ba
00000330: 814e 883b 7a60 99bc b9dd eb3b f03c 94ba
00000340: 225b 84bc aabb ec3c e25b 6d3c 8b3f 7e3c
00000350: 051f adbc 50cb 123c 5ef7 fd3b b09c bc3b
00000360: 4523 233c 2b85 0439 8f00 f43c 05e8 c63c
00000370: fd60 0c3c a0ff 4a3b 52e1 f73a 4ef0 033d
00000380: d31a 2cbb 9718 5ebc 838e 65bc 3d02 333c
00000390: c86a 40bc 30e5 763c f14c 8e3a 8e0b 72bc
000003a0: fad6 68bb e406 9a3c f012 a33c e2ad cdb9
000003b0: 2c5d 3c3c 98a1 37bc a929 f7bc 51c3 04bd
000003c0: 14cc 1dbb aad9 ae3c a9be 2d3a 0270 c63c
000003d0: 1d14 693a 51eb 6bbb 1b95 d5ba 773e 2b3c
000003e0: b82a 7f3c 9574 a7bc 0df5 c0bb 5158 02b8
000003f0: 5ee7 23bd 0a18 a8ba 7be6 a8ba 112a d73c

position_embedding.weight f4 [30, 64]
-0.026877254 0.009529722 0.04636048 0.0052309902 -0.030823248 -0.0134773385 0.030984374 -0.011510603
-0.05692508 0.053043526 0.02783168 0.0031041761 -0.0014624579 0.039934974 -0.038102 0.029671501
0.02922213 -0.012786119 0.010040595 -0.036070656 0.012824833 0.024874266 -0.033420637 0.020336466
-0.021080364 -0.038309366 -0.037353575 0.015413232 -0.020131988 0.010297058 -0.035703488 -0.026615208
-0.0025323548 0.019057391 0.019458696 -0.017289702 -0.012957125 0.03740918 0.0029840227 0.033720877
-0.020828033 -0.008674807 0.061110824 0.014045738 -0.022001995 0.039061215 0.0038256114 0.03627349
-0.023829317 0.0058788233 0.026306625 -0.0040721283 -0.045547694 -0.033199273 0.022366872 -0.023641383
-0.007952435 0.056000654 -0.0031022981 0.03423201 0.035625733 -0.0065748487 0.0039573098 -0.037362613
0.019574773 -0.013778528 -0.04456174 0.015563737 -0.011241089 0.030118976 -0.012438816 -0.025357066
-0.00626504 -0.026696675 0.031799175 -0.0015174344 -0.025022306 0.026310045 0.016064057 -0.01941757
-0.035732735 -0.012123506 -0.0036924835 0.019518087 -0.019049015 -0.017333379 0.01428801 -0.014059527
0.025811194 -0.0016886247 0.0063663684 0.026140282 -0.030986702 -0.020217853 -0.010707923 0.01085896
0.001278687 -0.0455563 -0.02749955 0.001119171 0.02766501 0.006780367 -0.02613605 -0.01756201
-0.01192541 0.023142066 -0.011645733 -0.013045033 -0.026568936 -0.013121255 -0.02253108 -0.027758067
0.030338319 0.017258931 0.045292765 -0.00034638267 0.037059423 0.0009412241 -0.010901802 0.043566376
-0.011816202 0.028527142 0.010155881 0.016226422 -0.021580383 0.003917589 0.017075205 0.0073341914
-0.007662665 -0.024156863 0.0018717988 0.043060668 -0.022918569 0.015115928 -0.005841385 -0.013601002
0.04676936 -0.040992383 0.012635225 -0.0228906 -0.02466837 0.007262218 0.03668802 -0.04543095
0.010255145 -0.026249854 0.03329799 0.016242122 -0.01572619 -0.019873379 0.051901717 -0.009081747
0.006374847 -0.022993065 -0.02641237 -0.0053221793 -0.03510181 -0.026531558 -0.020885665 -0.0261263
0.006089203 -0.036760442 0.013610668 0.024426585 0.057256382 -0.008148642 -0.016767254 -0.00020716456
0.002247831 0.016514214 -0.02068146 -0.021922527 -0.048046645 0.00034511765 0.032622304 -0.0045983586
0.024791626 0.0064907363 0.048246436 0.008481621 0.016879201 0.017608376 -0.0112692425 0.030360967
-0.014632225 0.04953728 0.036282737 0.0045327167 0.027314864 0.01936226 0.052267455 0.0128153935
0.036425382 0.038154516 0.04151266 -0.01854772 -0.012982411 -0.053346965 -0.033289205 0.03834396
-0.031260952 0.02453004 0.023792697 0.023959607 0.0025097167 -0.018057793 -0.034529243 0.039318558
-0.036940727 0.0011391245 0.009484439 0.035038054 0.03144381 0.03251847 -0.050305657 0.025742605
-0.030861314 -0.02256986 0.011066995 0.019126626 0.02929304 -0.033883806 0.012748572 0.02528637
-0.03378209 -0.018734107 -0.027355198 0.032582507 -0.022274688 0.039947104 0.038427673 -0.02949455
0.040957432 -0.04283893 0.019767664 0.037995256 0.02835748 0.00018757221 -0.024155015 0.019848404
-0.015776837 -0.03717184 -0.025798352 -0.0067973146 0.010332321 -0.033501875 0.0354194 0.029544
0.043351367 -0.02742747 -0.03436993 0.02715442 -0.0022055695 -0.03675341 -0.040384594 0.013999925
00000000: b02d dcbc 8d22 1c3c 7de4 3d3d ba68 ab3b
00000010: 0981 fcbc 0ed0 5cbc f1d2 fd3c f896 3cbc
00000020: 462a 69bd 2b44 593d 43ff e33c 6f6f 4b3b
00000030: f2af bfba db92 233d d810 1cbd a611 f33c
00000040: 4063 ef3c df7c 51bc 4f81 243c d3be 13bd
00000050: 401f 523c 1ec5 cb3c 14e4 08bd a998 a63c
00000060: bab0 acbc 48ea 1cbd 1000 19bd c887 7c3c
00000070: d7eb a4bc feb4 283c d23d 12bd 2308 dabc
00000080: ddf5 25bb 3f1e 9c3c d867 9f3c 22a3 8dbc
00000090: 1f4a 54bc 5e3a 193d 988f 433b e71e 0a3d
000000a0: 8d9f aabc c720 0ebc 584f 7a3d 1820 663c
000000b0: 873d b4bc a7fe 1f3d 1cb7 7a3b 8393 143d
000000c0: b335 c3bc 25a3 c03b fe80 d73c 7d6f 85bb
000000d0: 3890 3abd f6fb 07bd bb3a b73c 93ab c1bc
000000e0: ee4a 02bc f160 653d ed4f 4bbb dd36 0c3d
000000f0: 4aec 113d d471 d7bb 52ac 813b 8a09 19bd
00000100: 465b a03c 56bf 61bc 5f86 36bd 0bff 7e3c
00000110: 8b2c 38bc 12bc f63c 2dcc 4bbc 9fb9 cfbc
00000120: f74a cdbb fcb2 dabc da3f 023d a6e4 c6ba
00000130: 94fb ccbc 2a88 d73c c598 833c 9911 9fbc
00000140: 7d5c 12bd aba1 46bc 98fd 71bb 65e4 9f3c
00000150: ae0c 9cbc bbfe 8dbc 4218 6a3c ee59 66bc
00000160: ff71 d33c d854 ddba f89c d03b 2524 d63c
00000170: d3d7 fdbc e99f a5bc 4970 2fbc c8e9 313c
00000180: 9e99 a73a 3e99 3abd bc46 e1bc 26b1 923a
00000190: bba1 e23c d72d de3b 451b d6bc 34de 8fbc
000001a0: cb62 43bc 6e94 bd3c bfcd 3ebc d6ba 55bc
000001b0: 19a7 d9bc 88fa 56bc 1993 b8bc e364 e3bc
000001c0: 1188 f83c 9a62 8d3c e884 393d b29a b5b9
000001d0: 9fcb 173d 7bbc 763a 799d 32bc a872 323d
000001e0: be98 41bc c1b1 e93c da64 263c 46ed 843c
000001f0: 58c9 b0bc 1e5f 803b 4de1 8b3c a853 f03b
00000200: 1817 fbbb 9de4 c5bc 2557 f53a 6260 303d
00000210: b9bf bbbc cca8 773c 1769 bfbb bdd6 5ebc
00000220: 3a91 3f3d a1e7 27bd fa03 4f3c 1185 bbbc
00000230: 5215 cabc e6f7 ed3b 2d46 163d ce15 3abd
00000240: 3205 283c ef09 d7bc 7963 083d 330e 853c
00000250: 36d4 80bc 7fcd a2bc e596 543d 9ccb 14bc
00000260: 18e4 d03b f45b bcbc c15e d8bc ad65 aebb
00000270: eac6 0fbd b658 d9bc 6a18 abbc d306 d6bc
00000280: f087 c73b 1e92 16bd 47ff 5e3c 431a c83c
00000290: ab85 6a3d e281 05bc 7b5b 89bc 503a 59b9
000002a0: 5950 133b d148 873c 2a6c a9bc df96 b3bc
000002b0: 8fcc 44bd e8f0 b439 f79e 053d d4ad 96bb
000002c0: cf17 cb3c 3eb0 d43b 0e9e 453d 7ff6 0a3c
000002d0: 4046 8a3c 713f 903c a1a2 38bc 90b7 f83c
000002e0: 00bc 6fbc 9ae7 4a3d 359d 143d 2f87 943b
000002f0: 6cc3 df3c 9a9d 9e3c 6616 563d a8f7 513c
00000300: c832 153d e947 1c3d 2e09 2a3d 63f1 97bc
00000310: 2eb4 54bc 5982 5abd 435a 08bd 8e0e 1d3d
00000320: 7c0b 00bd 39f3 c83c e7e8 c23c f046 c43c
00000330: 0f7a 243b f0ed 93bc 896e 0dbd 7f0c 213d
00000340: 294f 17bd ad4e 953a 9f64 1b3c 1084 0f3d
00000350: 39cb 003d 1632 053d 4e0d 4ebd 28e2 d23c
00000360: ded0 fcbc 6de4 b8bc 5752 353c 71af 9c3c
00000370: f5f7 ef3c bfc9 0abd 63df 503c 5d25 cf3c
00000380: 175f 0abd 4578 99bc 0218 e0bc 3c75 053d
00000390: 6879 b6bc 939f 233d 5666 1d3d 8e9e f1bc
000003a0: fbc2 273d e077 2fbd ccef a13c eaa0 1b3d
000003b0: f24d e83c 08af 4439 bde0 c5bc 1f99 a23c
000003c0: 6d3e 81bc 8041 18bd 1157 d3bc 02bc debb
000003d0: e548 293c 4339 09bd ef13 113d 4206 f23c
000003e0: 3491 313d 93af e0bc 7cc7 0cbd f272 de3c
000003f0: 518b 10bb be8a 16bd 516a 25bd f15f 653c

transformer.layers.0.self_attn.in_proj_weight f4 [192, 64]
-0.04978249 -0.09404904 -0.10896408 -0.042419553 0.02180493 0.095966354 -0.028285734 0.019932697
0.07397542 -0.029007727 0.052608088 0.025864234 0.06605205 -0.0812098 -0.10693425 0.14485487
-0.12355351 0.12590076 0.11761043 0.13337344 -0.13386257 0.1261345 -0.08495024 -0.045540586
0.06443295 -0.008912511 -0.098436914 0.070358574 -0.12464626 0.10786381 0.10581237 -0.008744336
-0.11685186 0.12831809 -0.016022556 -0.13345394 0.11585984 0.031853635 -0.15444772 0.062084835
-0.11900817 -0.081669964 -0.09806141 -0.0064382404 0.05891672 0.12652189 -0.040730774 -0.040445145
-0.036846332 0.10184898 -0.084512465 0.17017183 -0.17850167 -0.019436166 -0.10857625 0.043929193
0.15385832 -0.041168395 -0.12528288 0.14825304 0.11505901 0.01711393 0.036580727 -0.05380774
0.040364083 0.11145966 0.055910513 -0.036019593 -0.017794574 -0.12297496 -0.09941958 -0.15239929
-0.05755998 -0.06670565 -0.120325945 -0.09235496 0.04932554 -0.11633493 -0.16732083 -0.087465495
0.10632943 0.11362835 0.14755598 0.04952673 0.14488406 -0.03539652 -0.17179418 0.18042532
0.027291678 -0.10078389 0.03273065 -0.08186382 -0.06142084 -0.08360289 0.09579458 -0.061348706
0.17280522 0.080437906 -0.1543004 0.110950746 -0.123543486 0.04520033 0.06829151 -0.07100784
0.104974985 0.055555772 0.096830525 0.03430685 0.11662698 -0.01520229 -0.08887438 0.11030356
-0.079431154 0.13035907 -0.06280381 0.12003455 -0.08837561 -0.056542207 0.03381967 0.07908203
0.039376162 -0.029022008 -0.13817632 -0.06945565 -0.071001485 0.09399295 -0.15964347 0.08872772
-0.03955491 -0.044664893 0.119549945 0.0627994 0.11137024 -0.116711915 -0.099065825 -0.06859236
-0.001611369 -0.14439456 -0.05092798 -0.07685115 -0.0010320697 0.10965193 0.023959402 -0.0253737
-0.11599596 -0.11454429 -0.11170074 0.12571488 -0.1271906 -0.01602572 0.15821837 -0.115525685
0.11892623 0.0864532 0.12449091 0.010974282 -0.02592026 0.014515157 0.013532565 -0.13982594
0.15325245 -0.12199405 0.05562078 0.058964416 0.17316382 -0.08516387 0.030013787 -0.13947675
-0.0892011 -0.040286753 -0.1398987 -0.039634258 0.015781974 0.080525935 -0.035749264 -0.09259956
-0.08170609 -0.14576787 0.026967129 -0.0808364 0.14402755 0.11649635 -0.00832804 0.09197502
0.07534878 0.0110163 -0.030792758 -0.0745863 0.1470928 -0.0070492085 0.062168974 -0.0050130226
0.0845202 -0.13418153 -0.09797286 0.02416339 0.020007605 0.10375272 0.0047115325 0.07675302
-0.037105944 0.027475823 0.00824921 0.14530164 -0.012091045 0.059347913 -0.016572068 -0.020668844
0.14313808 0.09174493 -0.14625363 -0.116635054 -0.114116 -0.09825838 -0.14281139 0.028164769
0.12155048 -0.12051067 0.023939595 0.10716582 -0.14844544 0.16659428 -0.09499897 -0.107495174
0.0793993 -0.02014869 -0.032481022 0.1250115 -0.08675416 -0.11394489 -0.12099728 -0.03261313
0.10390844 -0.120950885 0.0833005 0.1485261 0.073931076 -0.118190676 -0.10959234 0.10538904
-0.12893103 0.13443397 -0.025657212 0.13770331 -0.058799468 -0.05239387 0.112405114 0.068450026
-0.051105775 0.1624299 0.09183661 0.07573057 -0.02809962 0.115810625 0.026842725 0.07419682
00000000: b9e8 4bbd c89c c0bd 8f28 dfbd 20c0 2dbd
00000010: 41a0 b23c 028a c43d 7cb7 e7bc e549 a33c
00000020: 6d80 973d 9da1 edbc 947b 573d 3be1 d33c
00000030: 4c46 873d 5351 a6bd 5800 dbbd d654 143e
00000040: 9f09 fdbd 21ec 003e bddd f03d 0c93 083e
00000050: 4513 09be 6729 013e 64fa adbd c488 3abd
00000060: 6cf5 833d c805 12bc 4b99 c9bd 2818 903d
00000070: 8a46 ffbd b4e7 dc3d 28b4 d83d 6744 0fbc
00000080: 0750 efbd d165 033e bc41 83bc 26a8 08be
00000090: ec47 ed3d f578 023d 8b27 1ebe ab4c 7e3d
000000a0: 8eba f3bd 9542 a7bd 6cd4 c8bd e0f7 d2bb
000000b0: a952 713d f48e 013e 50d5 26bd cfa9 25bd
000000c0: 2eec 16bd 3396 d03d df14 adbd 8641 2e3e
000000d0: 24c9 36be 9838 9fbc 3a5d debd 19ef 333d
000000e0: 098d 1d3e 31a0 28bd 284a 00be a5cf 173e
000000f0: 0fa4 eb3d 8332 8c3c acd5 153d 8165 5cbd
00000100: cf54 253d f644 e43d 6c02 653d 4889 13bd
00000110: edc5 91bc 4cda fbbd 7e9c cbbd 8f0e 1cbe
00000120: 03c4 6bbd f99c 88bd 736d f6bd 9924 bdbd
00000130: 9409 4a3d 0241 eebd 2756 2bbe 1c21 b3bd
00000140: 3fc3 d93d fbb5 e83d ea18 173e 8adc 4a3d
00000150: 7d5c 143e f1fb 10bd d0ea 2fbe 6ac1 383e
00000160: cc92 df3c c967 cebd 9310 063d 38a8 a7bd
00000170: 6b94 7bbd fe37 abbd f32f c43d c848 7bbd
00000180: daf3 303e a1bc a43d ed00 1ebe 253a e33d
00000190: 5e04 fdbd fb23 393d 6bdc 8b3d 8f6c 91bd
000001a0: 20fd d63d 738e 633d 154f c63d 5785 0c3d
000001b0: 20da ee3d 0713 79bc c503 b6bd d5e6 e13d
000001c0: cdac a2bd d97c 053e 499f 80bd add4 f53d
000001d0: 46fe b4bd cd98 67bd 7f86 0a3d c2f5 a13d
000001e0: e648 213d 90bf edbc 187e 0dbe c43e 8ebd
000001f0: 3a69 91bd 607f c03d 9479 23be e1b6 b53d
00000200: 5404 22bd 89f2 36bd 9ad6 f43d f99c 803d
00000210: 1516 e43d a806 efbd 06e3 cabd 277a 8cbd
00000220: 9234 d3ba 2bdc 13be dc99 50bd 2364 9dbd
00000230: 8346 87ba 3191 e03d 8246 c43c 81dc cfbc
00000240: 4a8f edbd 3296 eabd 5cc3 e4bd 67bb 003e
00000250: 413e 02be 5f48 83bc ff03 223e bb98 ecbd
00000260: 988f f33d 600e b13d 17f5 fe3d 7acd 333c
00000270: ba56 d4bc fbd0 6d3c b1b7 5d3c 882e 0fbe
00000280: 36ee 1c3e 04d8 f9bd 9dd2 633d ac84 713d
00000290: db51 313e 656a aebd 79df f53c fed2 0ebe
000002a0: 11af b6bd b903 25bd 9b41 0fbe 8857 22bd
000002b0: 3349 813c c8ea a43d d26d 12bd d7a4 bdbd
000002c0: 8655 a7bd 2c44 15be 2bea dc3c 8e8d a5bd
000002d0: f57b 133e a395 ee3d 5572 08bc 665d bc3d
000002e0: 7650 9a3d b67d 343c 1841 fcbc b4c0 98bd
000002f0: 7f9f 163e 0cfd e6bb e5a4 7e3d 4844 a4bb
00000300: ed18 ad3d e266 09be ffa5 c8bd 4df2 c53c
00000310: fde6 a33c 4e7c d43d 3363 9a3b b030 9d3d
00000320: 67fc 17bd fa14 e13c b227 073c f4c9 143e
00000330: 8519 46bc cc16 733d 25c2 87bc b551 a9bc
00000340: ca92 123e c4e4 bb3d 83c3 15be 5cde eebd
00000350: a6b5 e9bd b13b c9bd 263d 12be cdb9 e63c
00000360: 75ef f83d 4cce f6bd f81c c43c c179 db3d
00000370: 1502 18be b197 2a3e d28e c2bd 6e26 dcbd
00000380: 1a9c a23d de0e a5bc d20a 05bd 0403 003e
00000390: 2aac b1bd f05b e9bd 6ccd f7bd 5895 05bd
000003a0: f3cd d43d 19b5 f7bd 7499 aa3d 3a17 183e
000003b0: 2d69 973d f40d f2bd f371 e0bd 36d6 d73d
000003c0: 7f06 04be 0fa9 093e 132f d2bc 1902 0d3e
000003d0: b6d7 70bd f49a 56bd a734 e63d 872f 8c3d
000003e0: 4a54 51bd 0654 263e d514 bc3d a118 9b3d
000003f0: 2d31 e6bc 1f2e ed3d 46e5 db3c 81f4 973d

transformer.layers.0.self_attn.in_proj_bias f4 [192]
0.009227447 0.0015868132 -0.012201326 -0.005645662 0.014185315 -0.0046795723 -0.007523214 0.007879014
0.0047150627 -0.0059376652 0.015951276 0.013403279 0.012206913 0.010415237 -0.0050038593 0.0024970348
0.0040834597 0.0066124527 0.0007511849 0.019536534 0.0071086376 0.0072225346 0.0021193472 0.016865699
0.005579767 -0.019709922 -0.0015131835 0.004513216 0.004314015 -0.0016980778 0.0033985432 0.0071744416
-0.0025417018 -0.004452846 0.0014033342 -0.01146306 0.0047114175 0.0028396016 0.0018541114 0.0029326323
0.003984259 8.506779e-05 0.005594969 -0.005403355 -0.00017756366 0.00012536105 -0.008162304 -0.0047832266
-0.010931126 0.008199679 -0.009388277 0.0058840676 -0.007506595 -0.00333094 0.0005773517 0.002783549
-0.004153723 -0.0025141302 0.0032011196 0.0041701724 0.0025943792 0.006003235 0.0047648875 0.002228048
1.0268073e-07 1.215607e-07 -1.4148685e-07 1.2780826e-07 -3.7101125e-07 1.92935e-07 1.1973964e-07 -4.2272805e-07
8.422311e-08 -2.4943652e-08 1.0530663e-07 -1.10900864e-07 3.515202e-08 2.4970888e-07 1.0637022e-07 1.4575716e-07
2.003627e-07 -8.249955e-08 2.1659584e-07 5.3941034e-07 1.5286314e-07 2.3588849e-07 1.3720638e-07 6.0527856e-07
-2.2924159e-07 -3.658498e-07 1.8841394e-08 2.6299796e-07 4.733722e-08 5.4645664e-08 6.0219163e-09 1.790291e-07
-6.560067e-09 7.466966e-09 1.7594046e-07 -5.2825477e-08 6.280362e-08 7.0259915e-08 1.7146041e-07 1.225693e-08
-7.864657e-08 1.0940613e-07 -3.3897134e-08 1.1208052e-07 -8.375476e-09 5.432485e-07 -2.4380378e-07 -5.80561e-08
-4.5125073e-08 4.9980954e-08 -5.177872e-09 -1.6637397e-07 -1.7243465e-07 -4.9314853e-08 -1.9515495e-08 -8.6768914e-08
-2.1503404e-07 5.6282566e-08 -1.7493149e-07 -7.989428e-08 7.4890664e-08 5.565283e-08 2.227298e-09 2.0472707e-07
0.0020208915 -0.0016678048 0.0030223187 -0.003495282 0.00024892797 -0.00153231 -0.0057921135 0.0057565155
0.0022009197 -0.002971366 -0.005468499 0.01888432 0.0057091294 0.012233793 -0.011873682 0.0048397277
-0.0066414294 -0.008033674 0.0023829385 -0.002083858 -0.016557334 -0.0071968627 0.0012634664 -0.0036476285
-0.002218049 -0.022132907 0.008601005 0.0015307551 -0.00032401553 0.009337722 -0.0070352326 -0.00086781004
0.0035402013 0.010331014 -0.018528016 -0.005804657 0.00368466 0.00467525 0.0011587829 -0.0065066423
0.0015426556 -0.0051952987 -0.015561673 0.007082557 -0.00043158728 0.014736546 -0.0065693324 -0.002487606
-0.00678469 -0.00018349625 -0.021775542 -0.015369558 0.0038564631 -0.0102526825 -0.0020502922 0.0151398
-0.011559133 0.00092584966 -0.005781802 0.01374503 0.017185427 0.01698104 0.013687113 0.0062167393
00000000: b82e 173c 9efc cf3a 12e8 47bc 3fff b8bb
00000010: 8669 683c 1957 99bb 4b85 f6bb fb16 013c
00000020: d080 9a3b bf90 c2bb 40ac 823c 6d99 5b3c
00000030: 81ff 473c aca4 2a3c 6af7 a3bb 4ba5 233b
00000040: 8bce 853b 46ad d83b 2aeb 443a 150b a03c
00000050: 93ef e83b 03ab ec3b bfe4 0a3b ef29 8a3c
00000060: 7ad6 b63b b476 a1bc 0356 c6ba 9ae3 933b
00000070: 955c 8d3b 0992 deba 18ba 5e3b 9417 eb3b
00000080: ae92 26bb 2ee9 91bb 15f0 b73a 8fcf 3bbc
00000090: 3c62 9a3b 9c18 3a3b a805 f33a 6831 403b
000000a0: 638e 823b 6c66 b238 0056 b73b a10e b1bb
000000b0: 6230 3ab9 5a73 0339 2fbb 05bc 9dbc 9cbb
000000c0: 7718 33bc f257 063c 4ad1 19bc 23cf c03b
000000d0: e2f9 f5bb e64b 5abb 6b59 173a 346c 363b
000000e0: f41b 88bb 1bc4 24bb e0c9 513b f1a5 883b
000000f0: 7606 2a3b c9b6 c43b c622 9c3b 7104 123b
00000100: 5481 dc33 5a86 0234 9ceb 17b4 ab3b 0934
00000110: 662f c7b4 9229 4f34 c891 0034 4df3 e2b4
00000120: 25de b433 ac43 d6b2 ef24 e233 6528 eeb3
00000130: 0efa 1633 ba0f 8634 a66d e433 6c81 1c34
00000140: 4823 5734 9b2a b1b3 6991 6834 ffcb 1035
00000150: b322 2434 8948 7d34 0153 1334 6d7a 2235
00000160: 7325 76b4 036a c4b4 aad8 a132 2a32 8d34
00000170: d34f 4b33 8bb3 6a33 56e9 ce31 253b 4034
00000180: f666 e1b1 1048 0032 25ea 3c34 3ae2 62b3
00000190: a8de 8633 cce1 9633 ae1a 3834 8c92 5232
000001a0: 69e4 a8b3 a8f2 ea33 4b96 11b3 ebb0 f033
000001b0: bce3 0fb2 c1d3 1135 23e4 82b4 5b59 79b3
000001c0: 8bcf 41b3 a4aa 5633 0be9 b1b1 87a4 32b4
000001d0: 7a26 39b4 41ce 53b3 07a3 a7b2 b755 bab3
000001e0: 1be4 66b4 56bb 7133 cdd4 3bb4 5892 abb3
000001f0: 94d3 a033 ef06 6f33 0a0f 1931 f3d2 5b34
00000200: ef70 043b 3e9a daba 1812 463b 1a11 65bb
00000210: 8c82 8239 cbd7 c8ba c5cb bdbb 27a1 bc3b
00000220: 4e3d 103b 40bb 42bb 1831 b3bb 4ab3 9a3c
00000230: a613 bb3b 3f70 483c d589 42bc 9496 9e3b
00000240: 59a0 d9bb ac9f 03bc 132b 1c3b 5691 08bb
00000250: 3fa3 87bc a9d3 ebbb e69a a53a 0d0d 6fbb
00000260: b05c 11bb 1250 b5bc 3beb 0c3c 9ea3 c83a
00000270: a1e0 a9b9 3ffd 183c cf87 e6bb bf7d 63ba
00000280: b902 683b 6a43 293c 11c8 97bc fe34 bebb
00000290: 567a 713b d732 993b 4de2 973a ac35 d5bb
000002a0: ef32 ca3a 533d aabb 63f6 7ebc cb14 e83b
000002b0: aa46 e2b9 8e71 713c 8e43 d7bb 1a07 23bb
000002c0: 1b52 debb e668 40b9 9f62 b2bc 99d0 7bbc
000002d0: b7bc 7c3b defa 27bc 325e 06bb ec0c 783c
000002e0: 8562 3dbc b8b4 723a 4575 bdbb d632 613c
000002f0: 74c8 8c3c d21b 8b3c ea3f 603c cab5 cb3b

transformer.layers.0.self_attn.out_proj.weight f4 [64, 64]
0.0050585433 -0.035205994 -0.06286011 -0.019543601 -0.026237063 0.03195027 0.011417522 0.045379423
0.019566642 0.008673565 0.019230742 -0.028845156 -0.02760061 -0.04399743 0.01281817 0.038249172
-0.0053570964 0.0040831347 -0.009243461 -0.0064776605 0.03565383 0.003555287 -0.031029345 0.009727024
0.0039484887 0.018826537 0.016262727 -0.026764927 -0.00081175903 0.00052030134 0.0026756977 -0.002567336
-0.018672755 -0.016085936 0.035301987 -0.004053476 0.011692194 0.025879543 -0.029409274 -0.0120114265
0.016426504 -0.013884492 -0.010872491 -0.028566144 0.0091828285 0.014112537 0.041632034 -0.0060521294
0.030315733 -0.026435748 0.0028488876 0.024160065 -0.041275445 0.0087217735 -0.0037629346 -0.030995311
-0.013229772 0.0033791831 0.005848208 0.013585528 0.012771833 -0.033987682 -0.015605396 -0.021693904
-0.055998817 -0.010592922 -0.02672302 0.020877948 -0.008595156 -0.043457776 0.004570444 0.0044867583
0.02800321 0.013125679 0.037398204 -0.027218573 -0.0034134053 -0.0018074536 0.0029443025 -0.024988363
0.014230906 -0.026297815 -0.034773212 -0.035960604 -0.003558948 0.010566428 -0.031475578 -0.0024688866
0.008932599 0.004534697 -0.02532575 -0.021924695 0.021965561 0.0073245093 0.009044128 -0.016854623
0.0062813703 0.0036441586 -0.013792123 0.02782181 0.013497029 -0.018948736 0.018483985 -0.0071551926
-0.0065359897 0.016266422 -0.014256134 0.00052898686 0.0055254484 -0.01764883 0.031418826 -0.037386667
-0.025877794 -0.019974642 -0.029009696 0.0018098394 0.01994817 0.04837652 -0.00970639 -0.037997626
-0.02792382 0.03341872 -0.043453373 0.010879014 0.0020980616 -0.021476695 -0.011507587 -0.01445972
0.0092688445 0.023796877 -0.021996891 -0.0039682146 0.029039005 0.00915416 0.0024403085 -0.006500543
-0.030111147 0.033288922 -0.012447379 0.020154767 -0.017188901 0.01398569 0.01742804 -0.00651005
-0.017239885 -0.0005284152 -0.0020411708 0.01349219 0.017292172 0.043458674 -0.009330281 0.012511545
-0.0043054535 0.022276301 0.08440296 0.015409936 0.029585518 -0.00641822 -0.02391389 0.02853698
0.04349437 0.0111291 0.0040590074 -0.008955277 -0.0012570737 0.027543971 -0.0015618148 -0.029642338
-0.011809824 0.0075511946 -0.007894251 -0.017460829 0.0030554195 0.0150404 -0.014968532 -0.021698387
-0.01585262 -0.0060192742 0.03536241 -0.016677568 6.447754e-05 -0.016760584 -0.009480159 -0.005428102
0.0032503668 -0.013503556 0.0041683386 -0.004229877 0.01246398 -0.022287004 0.029963408 0.019613532
0.00781419 -0.00070137513 -0.015631123 -0.0024802396 0.004834051 -0.014240228 0.0060168244 0.029253518
-0.010417092 0.0020804342 0.0127461795 0.024279952 0.0076605873 0.008256179 0.0022567604 -0.010347227
0.018609554 0.033351388 -0.026253482 0.04342263 0.022669498 0.0608856 0.00655109 0.010126066
0.015283517 0.022967966 -0.0046397964 0.017087366 -0.020455457 0.002607549 -0.00070541876 0.015690396
-0.003781924 0.00083410385 0.011532348 -0.009695129 -0.009277951 0.014572258 0.039628327 -0.02687588
-0.0077163368 0.02128167 -0.019426148 0.01586703 0.0065794415 -0.007384286 0.03507851 -0.038751587
-0.0032223947 0.0061403695 0.053188644 0.03848758 -0.033086266 0.020599382 -0.039837576 -0.014439142
-0.017214758 -0.013886108 0.030267846 0.015456937 -0.03682026 0.019315846 -0.033611123 0.028494867
00000000: 23c2 a53b 2934 10bd cdbc 80bd e719 a0bc
00000010: 1cef d6bc 49de 023d 8f10 3b3c c6df 393d
00000020: 394a a03c 921b 0e3c ca89 9d3c ad4c ecbc
00000030: ad1a e2bc a636 34bd 4d03 523c 2aab 1c3d
00000040: 958a afbb d1cb 853b e371 17bc 8e42 d4bb
00000050: c009 123d d1ff 683b 4131 febc 185e 1f3c
00000060: 5362 813b 1c3a 9a3c 6939 853c 1f42 dbbc
00000070: 3acc 54ba d564 083a c25a 2f3b c040 28bb
00000080: 9bf7 98bc a7c6 83bc d198 103d 05d3 84bb
00000090: 9e90 3f3c 5601 d43c b8eb f0bc 93cb 44bc
000000a0: e090 863c c87b 63bc 8822 32bc 8c03 eabc
000000b0: 9373 163c 4538 673c 5a86 2a3d f150 c6bb
000000c0: b358 f83c c88f d8bc 67b4 3a3b 54eb c53c
000000d0: 7110 29bd c5e5 0e3c 919b 76bb e1e9 fdbc
000000e0: b0c1 58bc 4975 5d3b 53a2 bf3b d695 5e3c
000000f0: f340 513c ab36 0bbd c6ad 7fbc 6ab7 b1bc
00000100: 045f 65bd ef8d 2dbc 3cea dabc 3b08 ab3c
00000110: b2d2 0cbc c800 32bd aac3 953b a805 933b
00000120: fd66 e53c 170d 573c dc2e 193d 7cf9 debc
00000130: 70b3 5fbb 14e8 ecba 33f5 403b 65b4 ccbc
00000140: bf28 693c 846e d7bc 5b6e 0ebd 6d4b 13bd
00000150: 3d3d 69bb d01e 2d3c 89ec 00bd 0bcd 21bb
00000160: 095a 123c cc97 943b f277 cfbc 6b9b b3bc
00000170: 1ff1 b33c 7002 f03b d22d 143c b512 8abc
00000180: f4d3 cd3b d6d2 6e3b 5bf8 61bc 91ea e33c
00000190: a522 5d3c 613a 9bbc ba6b 973c 1b76 eabb
000001a0: db2b d6bb 2941 853c 8f92 69bc b5ab 0a3a
000001b0: d20e b53b 4794 90bc 07b1 003d c322 19bd
000001c0: abfd d3bc dca1 a3bc bea5 edbc 2238 ed3a
000001d0: 586a a33c 7526 463d 8d07 1fbc 66a3 1bbd
000001e0: 7fc0 e4bc 11e2 083d 2afc 31bd e43d 323c
000001f0: a27f 093b e5ef afbc 518a 3cbc 76e8 6cbc
00000200: 5adc 173c abf1 c23c d332 b4bc cc07 82bb
00000210: 35e3 ed3c 54fb 153c 95ed 1f3b 8202 d5bb
00000220: a7ab f6bc f759 083d 17f0 4bbc 9c1b a53c
00000230: bdcf 8cbc 3c24 653c 40c5 8e3c 4252 d5bb
00000240: a93a 8dbc 5885 0aba 2ac5 05bb 590e 5d3c
00000250: 50a8 8d3c b901 323d 09de 18bc 39fd 4c3c
00000260: c314 8dbb ca7c b63c 76db ac3d f579 7c3c
00000270: 545d f23c ee4f d2bb 10e7 c3bc 62c6 e93c
00000280: 2727 323d d456 363c 6c01 853b 27b9 12bc
00000290: 65c4 a4ba e5a3 e13c cfb5 ccba 7dd4 f2bc
000002a0: fe7d 41bc 0370 f73b e356 01bc 030a 8fbc
000002b0: 6f3d 483b 036c 763c 933e 75bc d1c0 b1bc
000002c0: 5bdd 81bc 553d c5bb 2dd8 103d 659f 88bc
000002d0: 1e38 8738 7e4d 89bc ab52 1bbc 38de b1bb
000002e0: 1b04 553b 053e 5dbc 8f96 883b c89a 8abb
000002f0: b935 4c3c 3c93 b6bc d275 f53c 8fac a03c
00000300: 1707 003c 7ddc 37ba d70c 80bc 848b 22bb
00000310: f566 9e3b d84f 69bc c828 c53b 13a5 ef3c
00000320: 73ac 2abc e557 083b 5ad5 503c c0e6 c63c
00000330: aa05 fb3b ed44 073c 28e6 133b 6a87 29bc
00000340: 1073 983c 779b 083d 8b11 d7bc eddb 313d
00000350: 62b5 b93c 2e63 793d 87aa d63b cde7 253c
00000360: b767 7a3c 5127 bc3c 6f09 98bb cefa 8b3c
00000370: 3492 a7bc 6ae3 2a3b daeb 38ba 2589 803c
00000380: 28da 77bb c3a7 5a3a 2cf2 3c3c 51d8 1ebc
00000390: 8c02 18bc 7bc0 6e3c 5051 223d ce2a dcbc
000003a0: 53d9 fcbb e656 ae3c 9623 9fbc 93fb 813c
000003b0: 5b98 d73b e1f7 f1bb 7cae 0f3d fcb9 1ebd
000003c0: d02e 53bb 2735 c93b 56dc 593d 27a5 1d3d
000003d0: 7785 07bd 09c0 a83c ba2c 23bd 2792 6cbc
000003e0: f705 8dbc 8f82 63bc 46f4 f73c 183f 7d3c
000003f0: d7d0 16bd 443c 9e3c d1ab 09bd 116e e93c

transformer.layers.0.self_attn.out_proj.bias f4 [64]
0.006783963 0.004488622 -0.0019209506 0.008180977 0.0003492329 0.004337844 -0.003569527 -0.001019675
0.0055891345 -0.012017843 0.008191185 -0.0077824937 -0.010119082 -0.008676603 0.0060539953 -0.00798062
-0.002866209 0.0072193737 0.006754943 0.003702231 -0.004929861 -0.007842293 0.0053120814 -0.00628703
0.0035799772 -0.0049791546 -0.009257113 0.0039700386 -0.0030225776 -0.0059557226 -0.0029762632 0.004627689
0.0016029372 -0.005712534 0.003581281 0.0021918064 0.0091614155 0.004633139 -0.007329729 -0.0021382426
-0.0068200706 0.0063094934 0.0018626044 -0.010392441 -0.007374659 -0.0054298067 0.0039438945 -0.0048796167
0.009597407 0.006081636 0.0032399269 0.0072176987 0.01039664 -0.00030199633 -0.010740754 0.007949539
-0.00476971 0.011317738 0.004967056 0.005670667 -0.0046001673 0.008923928 0.00044438065 0.0037948336
00000000: 024c de3b 4a15 933b 68c8 fbba 8109 063c
00000010: 3f19 b739 7924 8e3b baee 69bb 9ea6 85ba
00000020: 0f25 b73b 7de6 44bc 5234 063c 4a04 ffbb
00000030: 82ca 25bc 5028 0ebc 9860 c63b 25c1 02bc
00000040: 02d7 3bbb 7f90 ec3b 9258 dd3b 21a1 723b
00000050: ac8a a1bb f67c 00bc f810 ae3b 6e03 cebb
00000060: 0d9e 6a3b 2d28 a3bb 25ab 17bc 1917 823b
00000070: 7016 46bb 3928 c3bb 690d 43bb dea3 973b
00000080: a619 d23a 3530 bbbb edb3 6a3b 69a4 0f3b
00000090: c319 163c 96d1 973b 392e f0bb c221 0cbb
000000a0: e67a dfbb debf ce3b a222 f43a 0f45 2abc
000000b0: 20a7 f1bb 85ec b1bb c93b 813b 31e5 9fbb
000000c0: 713e 1d3c 7648 c73b f454 543b 7282 ec3b
000000d0: ab56 2a3c 4355 9eb9 fdf9 2fbc c93e 023c
000000e0: 3a4b 9cbb 096e 393c b0c2 a23b 01d1 b93b
000000f0: 00bd 96bb ab35 123c c3fb e839 beb2 783b

transformer.layers.0.linear1.weight f4 [128, 64]
0.0070812525 0.009881723 -0.00361719 -0.019287523 -0.026622662 -0.034256425 0.00049802335 0.029510109
0.028482495 -0.025967693 -0.024823017 -0.012754756 -0.019995803 0.0048977244 0.01269653 0.052091293
-0.01881063 -0.005005111 -0.03298119 -0.019024706 -0.012100875 -0.05305216 0.018780354 -0.058697462
0.015839374 0.0026708066 -0.029621638 -0.004344646 -0.040922772 0.0027588233 -0.029231643 0.025792753
-0.009315907 -0.025456639 0.024246905 0.04146456 0.011608783 0.021368379 -0.016194738 0.0005075979
-0.037511323 0.02720876 0.013467248 -0.04515094 -0.039205693 0.013168262 0.007544955 -0.008171735
0.0011629661 0.016852252 0.030974561 0.028260313 0.010032091 -0.0071804896 -0.013892975 0.049979866
-0.0046840785 0.00025807784 0.0018320836 -0.0031724249 -0.033144295 0.0014403627 -0.020667767 0.051048674
0.011616723 0.011794151 0.0022233026 -0.0681033 0.014478359 0.024266321 -0.01361547 0.0013308206
-0.018396707 0.018701645 -0.036040887 -0.017072627 0.036099713 0.06528778 -0.0055904696 0.0061018183
-0.00031744473 0.023418577 -0.02944348 0.007378905 0.011118746 0.017336104 -0.03157904 0.016375763
-0.0113654155 0.0064528664 0.029630605 -0.021036962 0.03105227 -0.0029851876 0.028547794 -0.0033463582
0.009342446 0.003716608 -0.023738787 0.031858023 -0.00877128 0.08613431 0.015670009 -0.006813849
-0.02469895 0.0039687986 0.015115163 -0.035423186 0.04474679 -0.038378146 -0.027238555 0.022805559
-0.029963307 -0.010397887 0.0157362 0.017765326 -0.0065714894 -0.01740186 -0.00829677 0.014086037
0.01387545 -0.050053384 0.0103739295 -0.012131118 0.028918408 -0.005041678 -0.036281593 0.019948931
0.021132711 0.002545392 -0.028966721 0.049503647 -0.014944162 0.030420661 -0.014318427 0.003271744
-0.009432197 0.0006970829 -0.002584564 0.016288087 -0.060936533 -0.007616996 0.04833984 -0.029704068
0.020113902 -0.003816084 0.015654199 0.015048012 -0.0068048798 0.0039216676 0.031182436 0.00871524
0.020990007 -0.015616572 0.029947065 0.011482427 0.00071409665 -0.031688992 -0.017897163 -0.030699031
-0.05657319 -0.018204998 -0.017918993 0.013214499 0.021043373 0.004117527 0.009662029 0.011971553
0.012422892 -0.007573691 -0.0083862925 0.02809592 -0.04567632 -0.02956914 0.0069947178 -0.004175051
0.01689158 0.017384004 0.05057296 0.01687208 0.009915745 0.028935349 0.028528895 0.03949646
0.023861304 0.0144938445 -0.013180641 -0.04370899 0.018387053 -0.067434944 0.036343396 0.06051706
-0.02062177 -0.0081454385 -0.059559043 0.048776932 0.0091504585 0.020605128 -0.04185149 -0.034436665
0.022196205 0.009855404 0.046249777 -0.035995886 -0.05537322 -0.00048296363 0.0257613 -0.0060105887
-0.007747644 0.004449652 0.0027815762 0.008769732 -0.05268232 0.0065010674 0.011326307 0.019758902
0.016964177 -0.04264385 0.038377892 0.0005795034 0.01210891 -0.010736458 -0.01826495 0.0058785183
0.004652027 -0.009044542 -0.019778049 0.025914438 0.046539057 0.0023909735 -0.018500386 0.021682484
0.033124283 0.007893817 0.0021509673 0.014287619 -0.019695098 0.021112634 -0.012166552 -0.03359418
0.024076859 -0.03181245 0.04597021 0.0104957735 0.026891937 0.02624604 0.016281974 0.017903205
-0.018906618 0.017550202 -0.0029240572 0.004126399 0.00045273325 -0.023116793 0.04463609 -0.0011188261
00000000: da09 e83b f3e6 213c 610e 6dbb de00 9ebc
00000010: c517 dabc 7750 0cbd c88d 023a 2fbf f13c
00000020: 1f54 e93c 33ba d4bc a459 cbbc 53f9 50bc
00000030: 3dce a3bc 177d a03b 1b05 503c ae5d 553d
00000040: c018 9abc ea01 a4bb 4917 07bd b3d9 9bbc
00000050: c042 46bc 394d 59bd 42d9 993c c06c 70bd
00000060: 93c1 813c b308 2f3b 14a9 f2bc 885d 8ebb
00000070: a39e 27bd 60cd 343b 3377 efbc 534b d33c
00000080: bfa1 18bc 718a d0bc 72a1 c63c bed6 293d
00000090: c432 3e3c bd0c af3c d4aa 84bc 5210 053a
000000a0: 79a5 19bd e8e4 de3c bba5 5c3c 31f0 38bd
000000b0: 2696 20bd b2bf 573c ab3b f73b bee2 05bc
000000c0: ab6e 983a bc0d 8a3c 5dbe fd3c 2c82 e73c
000000d0: a45d 243c 504a ebbb 5c9f 63bc b0b7 4c3d
000000e0: e67c 99bb 9f4e 8739 8622 f03a 75e8 4fbb
000000f0: 50c2 07bd 8dca bc3a 734f a9bc 6a18 513d
00000100: 1154 3e3c 413c 413c d4b4 113b be79 8bbd
00000110: a436 6d3c 2aca c63c 6c13 5fbc ee6e ae3a
00000120: b1b4 96bc 3134 993c 9c9f 13bd e5db 8bbc
00000130: 4bdd 133d 99b5 853d 4230 b7bb c3f1 c73b
00000140: b66e a6b9 51d8 bf3c 7433 f1bc beca f13b
00000150: 672b 363c 7204 8e3c 0659 01bd 7726 863c
00000160: 0236 3abc 9172 d33b e2bb f23c b555 acbc
00000170: 5561 fe3c 23a3 43bb 10dd e93c 934e 5bbb
00000180: 0f11 193c 5692 733b d877 c2bc 8f7d 023d
00000190: 6ab5 0fbc 2f67 b03d 645e 803c b546 dfbb
000001a0: 7455 cabc b20c 823b 97a5 773c e717 11bd
000001b0: 6948 373d 6732 1dbd 6423 dfbc b9d2 ba3c
000001c0: 9c75 f5bc e65b 2abc 34e9 803c 9788 913c
000001d0: a655 d7bb 588e 8ebc 2def 07bc 1fc9 663c
000001e0: db55 633c c704 4dbd 6af7 293c 99c1 46bc
000001f0: 4ce6 ec3c a934 a5bb 029c 14bd f16b a33c
00000200: 821e ad3c 97d0 263b 9e4b edbc 56c4 4a3d
00000210: 5cd8 74bc c034 f93c d697 6abc c16a 563b
00000220: 8089 1abc 71bc 363a ca61 29bb 986e 853c
00000230: 9698 79bd fe97 f9bb ffff 453d f255 f3bc
00000240: e9c5 a43c 4417 7abb 3c3d 803c f08b 763c
00000250: 78fb debb 5581 803b 4f72 ff3c 5eca 0e3c
00000260: 3cf3 ab3c a7dc 7fbc 8c53 f53c ca20 3c3c
00000270: 3732 3b3a 51cc 01bd 129d 92bc 897c fbbc
00000280: 4ab9 67bd a622 95bc daca 92bc a081 583c
00000290: 2763 ac3c 52ec 863b 7d4d 1e3c 5524 443c
000002a0: 6389 4b3c ba2c f8bb a966 09bc 6a29 e63c
000002b0: 1817 3bbd fb3a f2bc f233 e53b dece 88bb
000002c0: 3660 8a3c e668 8e3c 9825 4f3d 5137 8a3c
000002d0: a675 223c d309 ed3c 6eb5 e93c 0ac7 213d
000002e0: c878 c33c 9777 6d3c 9ef3 57bc 3308 33bd
000002f0: 72a0 963c 551b 8abd d0dc 143d bde0 773d
00000300: fcee a8bc 7274 05bc 2ff4 73bd 52ca 473d
00000310: ceeb 153c 16cc a83c 786c 2bbd 760d 0dbd
00000320: d1d4 b53c 8f78 213c 6870 3d3d 6c70 13bd
00000330: 08cf 62bd 4836 fdb9 5d09 d33c 79f4 c4bb
00000340: f3df fdbb 63ce 913b 1b4b 363b ecae 0f3c
00000350: 6bc9 57bd e806 d53b fa91 393c 6cdd a13c
00000360: 75f8 8a3c 51ab 2ebd 2332 1d3d d1e9 173a
00000370: 7364 463c f8e7 2fbc 60a0 95bc 96a0 c03b
00000380: 0870 983b 8f2f 14bc 9305 a2bc 844a d43c
00000390: bd9f 3e3d e1b1 1c3b 1f8e 97bc 779f b13c
000003a0: 54ad 073d 1155 013c 3ef7 0c3b 9e16 6a3c
000003b0: 9d57 a1bc 67f4 ac3c 3856 47bc 0d9a 09bd
000003c0: d53c c53c c64d 02bd 424b 3c3d 77f6 2b3c
000003d0: 7b4c dc3c ef01 d73c c661 853c bea9 923c
000003e0: 0de2 9abc 71c5 8f3c 8aa1 3fbb be36 873b
000003f0: d45c ed39 6e5f bdbc 55d4 363d 93a5 92ba

transformer.layers.0.linear1.bias f4 [128]
0.01542435 -0.030392116 -0.0013018743 0.01658573 0.026044665 0.007089761 -0.0058451174 -0.011717022
-0.008494613 0.015097425 -0.009859745 0.012094274 0.004354735 0.017823808 0.018018676 -0.00017580474
0.018267807 0.010919156 0.0129566565 0.008397363 0.002583216 0.01583133 -0.0043950602 0.02520285
0.0051703956 0.013707707 0.003461042 0.022446224 -0.014619556 -0.00488187 -0.009641647 0.015334603
0.009753339 0.0062752757 -0.0122955525 -0.013573008 0.0017652728 -0.010358471 0.025239501 0.013991841
0.016095212 0.00933063 0.0072002513 0.0050396426 -0.0083463 0.027843082 -0.021857351 0.013157867
0.0049028257 -0.007981487 -0.016263131 0.024236633 0.012196026 -0.017675912 0.012957585 0.005766835
-0.0043877475 0.013159165 0.007062017 0.02205584 -0.0028473313 -0.009594308 -0.0036830509 -0.002470327
0.006840521 0.0058258562 0.005856929 0.0056453845 0.023792306 0.0144366035 0.0062315175 0.017668767
0.0027451895 -0.008457504 0.020531842 0.008680367 -0.0047603436 -0.0058736173 0.017054027 -0.0020674288
-0.0033944012 -0.0013923823 -0.005502519 0.016964963 0.015561098 0.009963647 0.010958476 -0.032903884
0.0253334 -0.0097213 -0.013723023 0.019927647 0.017248323 -0.011796064 0.0021376067 -0.0031135178
-0.002754712 0.0075453552 0.026685135 0.013219387 0.0050728456 -5.1910087e-05 0.0014513519 0.015687231
-0.006631578 -0.013196552 0.0004309134 0.016389241 0.013225519 0.014507054 -0.024209995 0.003508593
-0.0011139793 0.014217096 -0.013501894 0.007115327 0.01581624 0.015374249 0.016900139 0.021546047
0.013509035 0.016243352 0.023912383 -0.0017377142 0.029034197 0.0023023754 0.009033614 0.017377175
00000000: 6ab6 7c3c e3f8 f8bc a7a3 aaba ccde 873c
00000010: 9f5b d53c 3a51 e83b 6688 bfbb c1f8 3fbc
00000020: fd2c 0bbc 315b 773c c58a 21bc 1027 463c
00000030: 2ab2 8e3b 3c03 923c e79b 933c 3a58 38b9
00000040: 5ea6 953c 42e6 323c 2848 543c 1895 093c
00000050: 2c4b 293b b5b0 813c 7004 90bb 3576 ce3c
00000060: 6c6c a93b 4a96 603c a6d2 623b 25e1 b73c
00000070: dd86 6fbc 18f8 9fbb 00f8 1dbc fd3d 7b3c
00000080: 78cc 1f3c d4a0 cd3b 4973 49bc 5261 5ebc
00000090: ba60 e73a 94b6 29bc 12c3 ce3c 093e 653c
000000a0: 1bda 833c 80df 183c 16f0 eb3b 9623 a53b
000000b0: ebbe 08bc 2d17 e43c 300e b3bc 1894 573c
000000c0: e2a7 a03b c8c4 02bc 423a 85bc e78b c63c
000000d0: d7d1 473c 13cd 90bc 0d4c 543c b8f7 bc3b
000000e0: 18c7 8fbb 8a99 573c 7e68 e73b 73ae b43c
000000f0: 4b9a 3abb 7231 1dbc 575f 71bb 36e5 21bb
00000100: 7326 e03b d3e6 be3b 7beb bf3b ebfc b83b
00000110: 15e8 c23c 8187 6c3c c231 cc3b 17be 903c
00000120: a3e8 333b 5891 0abc 6532 a83c 1938 0e3c
00000130: a8fc 9bbb 7977 c0bb e3b4 8b3c b37d 07bb
00000140: 9a74 5ebb 9980 b6ba 7a4e b4bb 1bfa 8a3c
00000150: faf3 7e3c 913e 233c 2e8b 333c 39c6 06bd
00000160: fe87 cf3c 1646 1fbc 88d6 60bc 4e3f a33c
00000170: 5b4c 8d3c 4744 41bc 1717 0c3b 290c 4cbb
00000180: 6688 34bb 073f f73b c99a da3c 2196 583c
00000190: 1d3a a63b 08ba 59b8 4a3b be3a 8282 803c
000001a0: b54d d9bb 5a36 58bc 38ec e139 bb42 863c
000001b0: d9af 583c ffae 6d3c 0a54 c6bc 6cf0 653b
000001c0: f102 92ba d3ee 683c 0c37 5dbc b027 e93b
000001d0: 0f91 813c 46e4 7b3c 2972 8a3c 5681 b03c
000001e0: 0055 5d3c c710 853c e7e3 c33c 03c4 e3ba
000001f0: 20d9 ed3c 73e3 163b b901 143c 945a 8e3c

transformer.layers.0.linear2.weight f4 [64, 128]
0.04191108 -0.010333014 0.018901033 0.02219129 0.0060947607 -0.0024997308 -0.012738402 0.046479557
0.028537745 -0.010031237 0.010278785 0.01892319 -0.004839236 -0.029896056 0.011865515 0.014641797
-0.0015369144 0.06536376 -0.011087256 0.008423785 0.00701345 0.017022917 0.0368139 0.012072017
0.017601373 -0.02018525 0.003609943 -0.033356678 0.022331493 0.023938939 0.01417552 -0.04838611
-0.011050684 -0.040205494 0.019598473 0.0372582 0.023418166 0.018018445 -0.027688222 -0.00021001899
-0.041203905 0.029674552 -0.033877533 0.014320568 0.036928505 0.0019040798 -0.03151385 -0.046676043
0.0052873613 -0.026673444 0.023873495 -0.010574908 0.049198046 0.026094269 -0.015074071 -0.034812827
0.041847613 0.016621906 0.013254084 -0.025957188 -0.0019000109 -0.0056997635 -0.036157433 -0.012467377
-0.025395244 0.03202317 -0.04025535 0.028003382 -0.021330358 -0.03964712 0.015610794 -0.017418833
0.0081705805 0.032577164 -0.030809069 -0.0344342 0.047285356 -0.0009598237 -0.03200274 0.010058543
0.022119995 0.018237934 0.024904046 0.010105375 -0.01996418 -0.043206964 0.00961841 0.021115573
-0.03141678 0.006383291 0.0026027705 -0.0036170094 -0.0074877716 0.031920824 0.020317487 -0.004796276
0.035718374 0.041196894 0.0236397 0.008901615 -0.016259152 0.04883447 0.016445242 -0.02249138
0.008963104 -0.055751257 0.020114755 -0.03473045 -0.008448685 0.003379603 0.0015003025 0.029724976
0.014548798 0.019611921 0.050349668 -0.022158746 -0.009105204 -0.0018175604 -0.0045916964 0.008893045
0.030051485 -0.006852057 0.0018203999 0.014419196 -0.021043794 -0.0031044995 0.008983343 -0.001568119
-0.04403518 -0.037809875 0.0035180128 -0.04354957 0.094397806 0.049412582 0.034659676 0.028283784
0.027802022 -0.028700659 0.037436873 -0.021028778 -0.030135885 0.03154193 -0.0575517 -0.05715303
-0.0053755734 0.011807848 -0.020862509 -0.04463059 -0.031180637 -0.011065126 0.05667231 -0.016503677
0.03437321 -0.016155675 0.04965503 -0.06404834 0.036516108 0.012032865 0.025788704 -0.018825503
-0.031260394 0.011952714 -0.0009991255 0.04419535 0.038165115 -0.0049713003 -0.01873252 -0.032880418
-0.025883099 0.003382068 -0.0041877255 0.020132704 0.034445833 -0.026562577 -0.016796563 -0.033355154
-0.012626902 -0.023339557 0.029193223 -0.034471888 0.007555998 0.016863467 -0.02113626 -0.038003072
0.039201327 0.006285576 0.025442466 -0.011367968 -0.021443512 0.04238305 0.050671533 0.0017879684
0.0054212585 0.033359945 -0.0356656 -0.027162084 -0.012274518 -0.0073244437 0.034838814 -0.08458827
0.025981827 0.035775475 -0.03469245 -0.01647066 0.01502079 0.040608685 -0.011221012 0.023497006
0.008249208 0.023569359 0.008322372 -0.067115225 -0.0042915493 -0.00045277856 0.016766232 -0.00095209933
-0.04716997 0.036418002 -0.01463554 -0.02473532 -0.063229606 0.014990034 -0.027943395 -0.040468615
-0.0040692105 -0.011721455 -0.01999554 -0.041533012 0.027325474 0.031252258 0.0010354801 -0.045438416
0.01758047 -0.0013104883 0.024172528 -0.06399847 -0.040193424 -0.0041940846 0.015247998 0.04491078
-0.0078104413 -0.031560794 0.031774566 -0.020921553 -0.018946482 -0.018787736 -0.035304945 -0.008706009
-0.014061799 -0.06323374 -0.016037408 0.011120279 0.003970181 0.0023981936 -0.04724847 -0.019014599
00000000: f4aa 2b3d cd4b 29bc 57d6 9a3c 82ca b53c
00000010: 8fb6 c73b 86d2 23bb bbb4 50bc 5961 3e3d
00000020: fdc7 e93c 0f5a 24bc 5968 283c ce04 9b3c
00000030: 7492 9ebb 93e8 f4bc 9467 423c 26e4 6f3c
00000040: 4a72 c9ba 6fdd 853d 52a7 35bc ea03 0a3c
00000050: 15d1 e53b a573 8b3c 2cca 163d b6c9 453c
00000060: c130 903c 8a5b a5bc cb94 6c3b 03a1 08bd
00000070: 89f0 b63c 981b c43c 7140 683c 8430 46bd
00000080: ee0d 35bc 84ae 24bd fa8c a03c 0e9c 183d
00000090: 74d7 bf3c 6b9b 933c 69d2 e2bc 8b38 5cb9
000000a0: 6dc5 28bd 0c18 f33c 2bc3 0abd d1a0 6a3c
000000b0: 5842 173d 5192 f93a ab14 01bd 612f 3fbd
000000c0: 9a41 ad3b 4482 dabc 5992 c33c 6142 2dbc
000000d0: e483 493d a6c3 d53c 3cf9 76bc e597 0ebd
000000e0: 6768 2b3d aa2a 883c a827 593c 2ba4 d4bc
000000f0: c909 f9ba 15c5 babb d119 14bd f843 4cbc
00000100: b009 d0bc ba2a 033d cbe2 24bd 5967 e53c
00000110: 01bd aebc 0565 22bd 6ac4 7f3c f1b1 8ebc
00000120: e6dd 053c a26f 053d 4d63 fcbc e00a 0dbd
00000130: 4aae 413d ae9c 7bba 4e15 03bd 96cc 243c
00000140: fe34 b53c b867 953c 9203 cc3c 0491 253c
00000150: ec8b a3bc c9f9 30bd 8996 1d3c 91fa ac3c
00000160: e2ae 00bd ed2a d13b 3e93 2a3b 590b 6dbb
00000170: fb5b f5bb 69bf 023d dc70 a63c 142a 9dbb
00000180: 6e4d 123d 13be 283d 0ba8 c13c 14d8 113c
00000190: ea31 85bc a706 483d 2cb8 863c d83f b8bc
000001a0: fcd9 123c 6e5b 64bd b3c7 a43c 8441 0ebd
000001b0: 5a6c 0abc 547c 5d3b cca5 c43a cb81 f33c
000001c0: 155e 6e3c 2ea9 a03c 743b 4e3d 4286 b5bc
000001d0: fe2d 15bc 353b eeba f175 96bb 22b4 113c
000001e0: 882e f63c 3887 e0bb 7c9a ee3a 7e3e 6c3c
000001f0: 0964 acbc dc74 4bbb df2e 133c 5889 cdba
00000200: 3c5e 34bd 87de 1abd 768e 663b 0961 32bd
00000210: a353 c13d d964 4a3d 4ef7 0d3d 65b3 e73c
00000220: 11c1 e33c a51d ebbc 6857 193d 8b44 acbc
00000230: 88df f6bc 1c32 013d 55bb 6bbd 4c19 6abd
00000240: 9425 b0bb b475 413c dae7 aabc 91ce 36bd
00000250: 896e ffbc 814a 35bc 3921 683d b832 87bc
00000260: ecca 0c3d e858 84bc 1363 4b3d c72b 83bd
00000270: ea91 153d 7e25 453c d542 d33c f137 9abc
00000280: e60a 00bd 51d5 433c 17f5 82ba 2f06 353d
00000290: 0653 1c3d 4ae6 a2bb f174 99bc 9ead 06bd
000002a0: cb08 d4bc afa5 5d3b 3039 89bb 57ed a43c
000002b0: 1317 0d3d c399 d9bc f298 89bc 6a9f 08bd
000002c0: 11e1 4ebc 9932 bfbc a026 ef3c 6532 0dbd
000002d0: 4e98 f73b 4125 8a3c f325 adbc 1ca9 1bbd
000002e0: 9291 203d 3cf7 cd3b b86c d03c b740 3abc
000002f0: 4eaa afbc d999 2d3d f48c 4f3d 445a ea3a
00000300: d0a4 b13b 70a4 083d 1816 12bd 0583 debc
00000310: 0f1b 49bc e301 f0bb 25b3 0e3d 9d3c adbd
00000320: d7d7 d43c 4e89 123d ac19 0ebd 7aed 86bc
00000330: c219 763c 4b55 263d 56d8 37bc cb7c c03c
00000340: b027 073c 8714 c13c 8f5a 083c b573 89bd
00000350: 20a0 8cbb e962 edb9 5659 893c 4e96 79ba
00000360: 4c35 41bd 0b2b 153d e7c9 6fbc baa1 cabc
00000370: 867e 81bd c298 753c 8ce9 e4bc 6bc2 25bd
00000380: 0357 85bb 580b 40bc b0cd a3bc 851e 2abd
00000390: acd9 df3c 5e02 003d f2b8 873a a21d 3abd
000003a0: eb04 903c b1c4 abba 7705 c63c a111 83bd
000003b0: dca1 24bd 886e 89bb bdd2 793c 5ef4 373d
000003c0: bbee ffbb e445 01bd 0c26 023d ad63 abbc
000003d0: a735 9bbc bde8 99bc eb9b 10bd a6a3 0ebc
000003e0: 7663 66bc b180 81bd e260 83bc d531 363c
000003f0: 4b18 823b 032b 1d3b 9d87 41bd 81c4 9bbc

transformer.layers.0.linear2.bias f4 [64]
0.0029196444 -0.0017703556 0.0035419322 0.016454455 0.007147232 -0.0024818245 0.0037737936 -0.008425842
0.010424457 -0.017435916 0.009180279 -0.012283179 -0.012426402 -0.0072180405 0.017848637 -0.012790177
-0.00034937903 0.010075737 0.01031935 0.0027385799 -0.006001274 -0.009419358 0.010128411 -0.009260914
0.0031313822 -0.007103786 -0.01126887 0.0014938643 -0.0077561704 -0.011642106 -0.005295422 0.0017728226
0.0024447648 -0.0031645298 0.009156148 -0.0037647658 0.01742867 0.006454807 -0.009127175 0.000121904406
-0.011765692 0.011006424 0.006057935 -0.009819175 -0.011461158 -0.0038514228 0.0077978782 -0.0031296029
0.012346878 0.0037860938 0.0105602285 0.0095537435 0.011508636 0.0042403894 -0.010986865 0.013628175
-0.013479828 0.017736305 0.00589675 0.013091831 -0.0017641314 0.008494385 0.0021921925 -0.0008258851
00000000: 8157 3f3b 470b e8ba c31f 683b 7ecb 863c
00000010: 5433 ea3b 1ba6 22bb c051 773b 8b0c 0abc
00000020: 57cb 2a3c c4d5 8ebc e268 163c 633f 49bc
00000030: 1c98 4bbc 5085 ecbb 4e37 923c e48d 51bc
00000040: dc2c b7b9 b414 253c 7e12 293c bf79 333b
00000050: 56a6 c4bb a753 1abc a3f1 253c 17bb 17bc
00000060: e037 4d3b e0c6 e8bb 11a1 38bc c5cd c33a
00000070: 7927 febb 88be 3ebc 3885 adbb 0e5e e83a
00000080: 5938 203b 0064 4fbb ab03 163c 4aba 76bb
00000090: 92c6 8e3c d882 d33b 268a 15bc eea6 ff38
000000a0: e4c4 40bc 4a54 343c a481 c63b 9be0 20bc
000000b0: 95c7 3bbc 2768 7cbb 5885 ff3b 061a 4dbb
000000c0: 8f4a 4a3c 1d20 783b cf04 2d3c 4e87 1c3c
000000d0: b88e 3c3c f7f2 8a3b 4002 34bc b548 5f3c
000000e0: 7fda 5cbc ba4b 913c 8639 c13b 1e7f 563c
000000f0: 6d3a e7ba 082c 0b3c e3aa 0f3b 3680 58ba
