marble_model/best_model_v3.0_20250531_005828.pt (torch, 295593 bytes, 30 tensors)

token_embedding.weight f4 [13, 64]
00000000: 2f06 96bc cc2c 0a3d fb42 2abd ca20 f73c
00000010: b49a c4bc 7269 33bb 7cff 18bd e210 873c
00000020: 7926 78bc 7c59 a5bc 21e8 31bc 5b53 9abb
00000030: aa62 7abc 29ac f93c 6022 0d3d c532 be3a
00000040: 7729 353c 0a93 2abc cd57 493d 520a 87ba
00000050: cee8 ef3b daaa 1c3d c7c7 8fbb 8ce7 943c
00000060: 19ef 463b b085 99bc 10cb c23c cbe9 a1bc
00000070: d31f ea3a 989e 66bb 1233 6abc da93 913d
00000080: 7e9d bd3c 30b0 f6bc f69c a8bb 68fe 9abb
00000090: 8012 4dbc 3584 493c 8d30 9abc 5c59 c0ba
000000a0: 39ce d63c 97b7 19bc 5c8e b13b 58d1 f73b
000000b0: 7355 d43c a5c6 a83b 6498 b8bc 74c9 00bd
000000c0: e027 bd3c 6f3e c13c 3b89 9fbc 4214 04bd
000000d0: 097b 84bb ee42 543c 2921 83bc 4e64 68bb
000000e0: eff5 243d 5d42 ed3c 454d b4bb 225b 573c
000000f0: 343a febc 16bc ab39 53dd bbbb cd44 033b
00000100: 1f5a 903b 8de0 bdbc 0ae0 bfbb 507b e23c
00000110: 2197 0ebd dcd8 5fbd bffb 3f3c 1e00 38bd
00000120: d6c0 373b cafa 64bb c5d9 e53c e5ac e13c
00000130: 091a 9e3c 35b3 0b3c bfe9 1dbc 694d 6abc
00000140: 5283 5dbd a7fa c5bc 1c94 b43c f31c b63c
00000150: 39ed e1bc af11 403d 2f66 993b ab92 63bd
00000160: 419a 0e3d 1b88 09bd 17fc 7d3d c371 1a3c
00000170: 1239 a83c 5253 5a3d 875b 7abc e365 213d
00000180: 97aa ba3b 2f05 203d 7165 073d 1120 9dba
00000190: 7d07 83bd 8d8c 5a3c 51a8 a63c c5e1 3a3d
000001a0: a05a 32bb 6a9a cfbc 0fc6 f6bc a0ea c8bc
000001b0: 8a53 143d 85ef 153d f51a a2bc 120a 89bc
000001c0: 0fb9 f73c 6a70 cf3b 5627 5bbc aaba 61bd
000001d0: 6842 0cbd 76d8 ccbb 8c4d 533c b4d0 5d3c
000001e0: 9968 e4bc 2f3c d53b cdf4 a1bc 26c7 b6bc
000001f0: ec52 0bbc 8047 953b 1a0c fbbc c97a 9f3c
00000200: 725c 67bc 50a6 debb af3f f4bc 21c1 d73c
00000210: 65fd f738 d7ae ed3b 8482 9bbb f815 fdbc
00000220: 8b0c 023d aa07 893a e6be 4dbc 2252 b8bc
00000230: abc1 483b 9075 1abb e6d8 803c 3449 813c
00000240: 1e9c 563c a226 bb3c 2cc3 9a3c ccb9 0b3d
00000250: 1cda 8ebc ca80 febb 57ea 10bc 6daa 3ebd
00000260: ee48 a23a 8b48 e1bb 8220 e7bb e317 7fbc
00000270: 7640 9e3c 3066 85bc d296 87bc 3aa1 0dbb
00000280: 73e3 b13c 14fe 94bc 6148 33bc dddc 20bd
00000290: 3c16 62bb 1583 053d f0fe 5f3c 073c e03c
000002a0: 8c47 01bc 1550 803a 8c1f 00bc 1042 73bb
000002b0: 2c4c 143b 76bb 153c 9cef abbc b6c9 0d3d
000002c0: b670 8cba 124b a5bc f28e 293a 1bdd fb3c
000002d0: 5118 0abc 9efa 03ba 5186 193c b6cd 08bc
000002e0: e663 0c3c af9f a3bb 09ed e23c 0083 a93c
000002f0: dd78 763c b39a 053c 71d0 233b d7fe a83c
00000300: 4cbb 56bc 7db2 ed3c 7bde 64bb ec5c 20bb
00000310: 2019 b93b a60e fe3b 23fa fb3b 1000 983b
00000320: 0062 723c 3062 1b3c f81e 61bc a660 a1bc
00000330: ec8a 28bb d262 97bc 5030 e1bc 607b 4c3b
00000340: a5f9 8d3c 0cae 853c f24e 47bc 92a3 45bb
00000350: e24a db3c 30b4 d9bc 0b9b 07bd f09d 1c3b
00000360: 9249 c9bc 676d f73c 6bce 1ebc fcab 7ebc
00000370: 7742 f2b9 9fb2 1f3d 40c5 e93c f4b7 29bb
00000380: de63 903b 5ac0 863c 25ec 263c 3585 a1bc
00000390: cdfd 453c df81 993c 315e ef3c 7472 0abc
000003a0: 0242 1b3b 2c80 8abb c96a 2a3c 2f8c 803b
000003b0: 650e 833c 378c 0b3c 0484 8e3c ce1d 35bb
000003c0: c4aa cbbc b0e2 41bc 203e 1d3c ac7a a93c
000003d0: a836 863c 41eb 303c 2187 583a 7161 03bc
000003e0: 2692 013c db04 b9bc f81e 2a3d cf6d 1b3b
000003f0: 2778 da3c b25c 46bc 8981 46ba 1bc7 1b3b
-0.018313495 0.033734128 -0.041567784 0.030167002 -0.02399955 -0.0027376083 -0.037353024 0.016487543
-0.015145891 -0.020184271 -0.0108585665 -0.004709644 -0.015282312 0.0304776 0.03445661 0.001451098
0.011057249 -0.010411033 0.049156 -0.0010302758 0.0073214537 0.038248874 -0.004387829 0.018176816
0.0030354916 -0.018740505 0.023778468 -0.019764801 0.0017862268 -0.0035189744 -0.014294403 0.071082786
0.023146387 -0.03011331 -0.0051456643 -0.0047300346 -0.012516618 0.012299587 -0.018821979 -0.0014675069
0.026221382 -0.00938215 0.005418582 0.0075627975 0.025919652 0.0051506334 -0.022533603 -0.03144212
0.023090303 0.023589341 -0.019474616 -0.03224588 -0.0040429872 0.01295541 -0.016007023 -0.0035460177
0.040273603 0.028962309 -0.0055023753 0.013144286 -0.031033613 0.00032755797 -0.005733171 0.0020030022
0.0044052745 -0.023178363 -0.005855565 0.02764669 -0.034812097 -0.054650173 0.011717736 -0.044921987
0.0028038523 -0.003493952 0.028057942 0.027548263 0.019299524 0.008526613 -0.009638249 -0.014300683
-0.054080315 -0.024167372 0.02204328 0.022230601 -0.027578937 0.046891864 0.0046813707 -0.055559795
0.034815077 -0.033577066 0.06200799 0.009426537 0.020535026 0.053302117 -0.015280611 0.039403807
0.0056966054 0.039067443 0.033055726 -0.0011987706 -0.06397913 0.013339174 0.020343931 0.045625467
-0.0027214661 -0.025342185 -0.030123739 -0.02452594 0.03621248 0.036605377 -0.019788245 -0.016728435
0.03023961 0.0063305395 -0.013376078 -0.055109657 -0.034243017 -0.00625139 0.012896907 0.013538528
-0.027881907 0.0065074186 -0.01977005 -0.022311758 -0.008503657 0.0045556426 -0.030645419 0.019467728
-0.014121162 -0.0067947283 -0.029815523 0.026337208 0.00011825076 0.0072535085 -0.0047457833 -0.030894265
0.031750243 0.0010454555 -0.012557721 -0.022500101 0.0030633013 -0.0023568608 0.015728425 0.015781976
0.013098745 0.02284557 0.018891893 0.034112737 -0.017437987 -0.0077668177 -0.0088449335 -0.04654925
0.0012381354 -0.006875103 -0.007053436 -0.01556966 0.019317847 -0.016284078 -0.016551409 -0.002161099
0.021714902 -0.01818756 -0.010942549 -0.03927313 -0.0034498116 0.032595713 0.013671622 0.027372373
-0.007890593 0.0009789491 -0.007820021 -0.0037118234 0.002262841 0.009138932 -0.020988278 0.034616195
-0.0010714743 -0.020177398 0.0006468139 0.03074508 -0.008428649 -0.0005034598 0.009370402 -0.008349827
0.0085687395 -0.004993401 0.027700918 0.020692348 0.0150434645 0.008154559 0.0024996067 0.02062933
-0.0131061785 0.029015774 -0.0034922648 -0.0024469448 0.005648747 0.007753211 0.0076897307 0.0046386793
0.014793873 0.009483859 -0.013740294 -0.019699406 -0.002571757 -0.018479738 -0.027488858 0.0031201467
0.017330954 0.016318344 -0.012164818 -0.003015731 0.026769105 -0.026575178 -0.033106845 0.002389785
-0.024571214 0.030203534 -0.009692769 -0.015543934 -0.00046207357 0.038988706 0.028536439 -0.0025896998
0.0044064363 0.016449142 0.010188137 -0.019716838 0.012084437 0.018738685 0.029219719 -0.008450139
0.0023690467 -0.004226705 0.010401436 0.003922961 0.015998075 0.008517317 0.017396934 -0.0027636173
-0.0248617 -0.011833832 0.009597331 0.020688377 0.016383484 0.010798276 0.0008259882 -0.008018837
0.00790838 -0.022585323 0.04153344 0.0023716574 0.026668621 -0.012107061 -0.0007572403 0.00237698

position_embedding.weight f4 [30, 64]
00000000: 8659 133d fbbd 10bd b4e0 203d 446e 073d
00000010: 817d 953a b32a 1dbc cf0a 86bb 059a 65bc
00000020: 82ea 38bd 9926 30bd 793c b7bb 4904 5e3c
00000030: e07a 173d 441f 573c 3539 3a3d c9b9 0a3b
00000040: 758b 96bc 3bf0 16bc e488 053d 2d57 9539
00000050: 348c 9dbc 9a80 56bb f67a 873c 9f75 57bc
00000060: 6806 6ebc 26d6 1ebd fedc 643c f008 d53c
00000070: 2849 c63c 8a66 4b3c 2ff4 50bc 7677 2a3c
00000080: efe5 123d bd67 1a3d 78d4 013d f3fa e83c
00000090: 4a04 7e3c 8e2b c33c c7a5 e63c 4b3d a83c
000000a0: 50df 24bd 25fe b0bc 22c0 5a3c 7e65 b2bc
000000b0: 1804 53ba 3a4f 69bb 872f 0abd 5deb 873b
000000c0: 1843 9f3b f43e 4bba 469c e53c 0305 1dbd
000000d0: 074b f8bc 254c 65bd ca9b 883b 0b6b f03c
000000e0: bdc2 22bd f11c 9b3c a9aa aa3c 0c36 09bd
000000f0: e979 0dbd 5f5e 96bb 4a49 0bbd 8b41 58bc
00000100: b35c ddbc a9fa c83c 6ea5 4ebd 8ffb f43c
00000110: adfb 37bd cbc2 e93c 3748 54bc 894c 823c
00000120: 635c 0a3d 8a0b d33c c59c ec3b 089e 4cbc
00000130: 5636 163d 0bc1 cabc 0cfa 053c 9205 af3c
00000140: 6204 4a3c b9f6 873b 7f8a a63b f082 a8bc
00000150: 2893 313b 3bd7 39bd e03e 94bc df45 193d
00000160: 2880 3ebc f9e4 703c f6b3 5ebb ae7b dcbc
00000170: a193 2cbc f3e9 9cbc dd32 ce3b 4a45 ee3c
00000180: 660c 98b9 9c21 38bd 32f4 8d3c d101 1ebc
00000190: 6653 ac3c 73a6 79bc e5bf e73c 02f9 5a3a
000001a0: a5ff c1bc 265f c7bb 7dfb be3c adec 0d3b
000001b0: 1c08 93bc 07be cf3a 978b 413d 2c8a 28ba
000001c0: b449 85bb 3951 ba3c d7f2 11bd dcd4 bcbb
000001d0: 03bd e63a 7b12 253c 7eae 4c3c b197 e0bb
000001e0: dcf6 26bc 45ea 123d 9ef1 24bd 032c 05bc
000001f0: 181e fd3b 6c37 24bd ed03 8ebc 66d5 123b
00000200: e190 7fbc 9870 36bb ab13 90bc 27c8 3b3d
00000210: ace1 9fbc 084d 8d3c 9f43 0dbd f7f8 4abc
00000220: c565 8d3c b8e6 fa3c 436a 53bb 7815 2bba
00000230: d5e9 713c a94f 603c 2ebf b23c ea41 ca3c
00000240: 4ffc 6c3b f8d1 9abb 8dc8 3a3c 1fe0 f1bc
00000250: 627c b53b 80e2 9d3a f7ce a63c 5c8d 183d
00000260: b7e5 173d 9b05 11bd f776 70bb 6ebc 17bc
00000270: 586a 12bd 4c84 5dbd c763 8fbc d709 173d
00000280: ba6b debc 93aa 19bd 1652 8e3c 80d1 b33c
00000290: 56f3 ad3c f14d 42bc fa6e 3abd 12a6 d83a
000002a0: f87d 0ebd 47f9 e33c 89ba e83c 3e21 573c
000002b0: b5b7 05bd 3dde febc a9ba e63c 11ec 2abb
000002c0: 0efa 523c 6485 d63c 99e1 1dbd 8372 edbc
000002d0: 243c 0fbc d482 013b 5086 c13c 3db7 2dbc
000002e0: cc4a 3bbc 8fde 093c 7321 eebc b4b2 4ebc
000002f0: d6db 44bc d099 23bd 36f8 a53c 96d5 c3bc
00000300: 9c64 0fbd 480b 2b3d aaf3 4abd c2be e2bb
00000310: cf28 493d e4ef d9bc 1364 883c 6545 0bbb
00000320: ea37 cabc e912 17bd 702d c93c ba7c 16bd
00000330: a8f1 df3c 4799 283c 1b93 6e3c 6cf7 91ba
00000340: f35e 563d 3912 e639 2fdb 6b3d 3de6 423d
00000350: 22fd dabc f736 ab3c 6665 e73c 955b 0ebd
00000360: 3e2e c9bc 0b5c e63c b781 8c3b f263 c0bc
00000370: 054a f93b 3850 a23c f08a 9d3b a376 243d
00000380: b4c1 24bc 95bf d93c e2ad 9cbc 3dec 23bd
00000390: b951 9c3c 189c 1b3c 109c 293d 00c6 8fbc
000003a0: 3785 343d 3169 3d3d 8530 2b3d 22b4 c1bc
000003b0: 78f3 1b3d f91e 833c 6c9e 64bd c531 babc
000003c0: 9e88 69bc dfb2 13bd 247d c93a dadc 973c
000003d0: 5f61 213d fbfe c7bc b843 65bd 22b8 a7bc
000003e0: 85b1 1abd 5a48 d4bc 8ec8 473b 9154 923c
000003f0: 92ff af3c 301f 433d 50de 133c 1bc1 df3c
0.035974048 -0.03533743 0.039276794 0.033064142 0.0011405201 -0.0095927 -0.004090644 -0.014013772
-0.04514552 -0.04300556 -0.0055919257 0.013550826 0.036982417 0.013130013 0.045464713 0.0021167865
-0.018377045 -0.009212549 0.032601252 0.00028484446 -0.019231893 -0.003273046 0.016538125 -0.013150602
-0.014527895 -0.038778447 0.013968704 0.026005238 0.024204805 0.012414584 -0.01275353 0.010404458
0.035863813 0.03769659 0.031696767 0.028439974 0.015503952 0.02382448 0.02815522 0.02053704
-0.04025203 -0.02160556 0.013351472 -0.02177691 -0.0008049621 -0.0035600201 -0.03373673 0.0041479305
0.004860293 -0.0007753216 0.028028619 -0.038334858 -0.030309213 -0.05598082 0.004168962 0.029347917
-0.0397365 0.018934699 0.02083333 -0.03349881 -0.03454009 -0.0045888866 -0.03400544 -0.01319922
-0.027021741 0.024533587 -0.050450735 0.029905109 -0.04491775 0.028535267 -0.0129566705 0.015905635
0.033779513 0.025762338 0.007220837 -0.012488849 0.036672913 -0.024750253 0.008177292 0.02136496
0.0123301465 0.0041492847 0.005082428 -0.020570248 0.0027095769 -0.045371275 -0.018096387 0.03742015
-0.0116272345 0.014703029 -0.0033981777 -0.026914444 -0.010533244 -0.019154524 0.0062926845 0.029085774
-0.00029000937 -0.044953927 0.017328355 -0.009643988 0.021035861 -0.0152374385 0.028289745 0.0008353145
-0.023681471 -0.0060843406 0.023313278 0.0021655962 -0.017948203 0.0015849479 0.047252264 -0.00064292806
-0.004067624 0.022743808 -0.03563198 -0.0057626795 0.0017603937 0.010075207 0.012492774 -0.0068540205
-0.010190692 0.035867948 -0.040269487 -0.008128169 0.0077245347 -0.040091917 -0.017335856 0.0022405027
-0.015598507 -0.0027838107 -0.017587503 0.045845177 -0.019516788 0.017248645 -0.034488317 -0.012388459
0.017260442 0.030627593 -0.0032259382 -0.00065263314 0.014765223 0.013690867 0.021819677 0.024689633
0.003616113 -0.0047247373 0.011400354 -0.029525815 0.005538509 0.0012045652 0.02036236 0.037244186
0.037084308 -0.035405736 -0.0036692002 -0.009261234 -0.03574595 -0.054081246 -0.017503632 0.03687462
-0.027150977 -0.037516188 0.017373126 0.021950483 0.021234196 -0.011859403 -0.04551599 0.0016528985
-0.034788102 0.027828826 0.02840926 0.013130484 -0.0326459 -0.03111183 0.028165178 -0.0026080648
0.0128770005 0.026186652 -0.038545225 -0.028985268 -0.008742366 0.0019761818 0.023623616 -0.010602769
-0.011431407 0.0084148785 -0.029068684 -0.012615848 -0.012015304 -0.03994161 0.020259958 -0.023905557
-0.035008058 0.041758806 -0.049548782 -0.0069197128 0.049111184 -0.026603647 0.016649282 -0.002125108
-0.024684865 -0.03688327 0.0245578 -0.036740042 0.02733691 0.01029045 0.01456144 -0.001113636
0.052336644 0.00043882595 0.057582077 0.047582854 -0.026732031 0.020900233 0.028246593 -0.03475531
-0.024558183 0.028120061 0.004287924 -0.023485158 0.007607701 0.019813642 0.0048078224 0.040152203
-0.010055948 0.026580611 -0.019125883 -0.040020216 0.019081937 0.009497665 0.0414086 -0.017550468
0.044072356 0.046242896 0.04179432 -0.023645464 0.038073987 0.01600598 -0.055815145 -0.02272881
-0.0142537635 -0.036059257 0.0015372378 0.018537927 0.0393995 -0.024413576 -0.055972785 -0.020473544
-0.037766952 -0.025913406 0.003048453 0.01786259 0.02148417 0.047637165 0.009025171 0.02731376

transformer.layers.0.self_attn.in_proj_weight f4 [192, 64]
00000000: c95d acbd 2bc4 143e 1ae9 c03d a76a b5bd
00000010: 1383 b7bd 2121 0cbd 2910 b6bd 3395 ee3b
00000020: 884b e4bc abde 0abe eeaa 713d dcca a0bd
00000030: 6c03 9bbd 2fa4 11ba 92a7 893d ec7c dfbd
00000040: c4fa f8bd bb47 dcbd 991a d93d 894b 0fbc
00000050: 9eaf 0cbe 6235 273d 85df 0c3e f8bd f63d
00000060: cd46 abbc c539 e03d 066a c2bd 3bf0 14bd
00000070: befc 823d 0591 a73d 0cdf 533d d14c 173d
00000080: 29ed 02be 7f32 9abd 6526 51bd 2add 843d
00000090: e539 dc3d 82d2 043e ade7 d4bd 42ef e23b
000000a0: 7943 02be 1a08 093e 37e3 c63d 4f82 c4b9
000000b0: 8565 08bd 4325 54bd 6f32 eebd c9a9 afbd
000000c0: 9bee 44bd 0986 95bd 19ef 673c 1b8a d6bc
000000d0: 8e7b 6fbc 1603 c93c a2c1 783b b079 cfbc
000000e0: 8cec 093e 4726 a5bd ecec 8dbd 81c1 4cbc
000000f0: becf ab3d 4339 bdbd 9075 a73d 7b9b 04be
00000100: 0719 04be 43ea 03be afc4 e43b c4b4 313d
00000110: 7e69 e33d b2b4 bf3d 35ee fbbd ffff 41bd
00000120: 0a24 d93d 0279 f03d a171 03be 964a 71bd
00000130: 0857 a1bd 77a4 0fbe 2613 92bd 1b2c afbc
00000140: 93b8 19be a490 b5bd c2c7 8c3d f5f7 36be
00000150: 02ba 9d3d 0480 4bbc f68e 48bd 492a 993c
00000160: 2da3 83bd 581a 2d3d 374e a1bc f1c3 c8bd
00000170: f2b8 ca3d 4789 0ebd 5994 b8bd eaec edbd
00000180: c073 77bd 73f1 f73c 14b9 d53c 7b0a 93bd
00000190: aea5 253e 42f0 1ebe 5a06 c93d a5e8 ddbd
000001a0: d89c 96bd fd47 cd3d 3a14 1c3e f41f dcbd
000001b0: 30e1 e1bd 807e 06be 5758 b5bd cca0 11be
000001c0: e590 b1bd fc38 1b3e 930a db3d e698 923d
000001d0: 329f e7bd b57d 823d 4feb b83d 46e4 00be
000001e0: 5f40 acbd cb25 23bd 7cc7 2dbd 75ad fd3d
000001f0: 04c8 d6bd 682d a2bd 49fc 033e edc2 18be
00000200: 4e85 0b3d 2a93 17be 09d4 93bb d34a 963d
00000210: efc0 05be eea0 1ebc 1166 d4bd 05b2 00be
00000220: d2f2 ffbd 4bb5 e4bc dc82 05be 79fb 04bb
00000230: f494 f03d ee3c 6b3d 6327 b5bd 255a ebbd
00000240: a918 1c3e d0e8 1ebd 90bc 113c 9be2 653d
00000250: 734b 86bd 67dc 6ebd 3e38 313c c889 ddbc
00000260: d792 b0bd c4c0 a4bd 7ae7 e7bd c4d2 fc3d
00000270: 5725 113d e5c1 2b3d bd1f f53d 2b57 dbbd
00000280: 6d06 ce3d 34a5 21bb efea 073d b264 113e
00000290: b2b5 b4bc ccb3 9dbd 7444 c0bc 6f5d c23c
000002a0: 7452 16be 608c e93d 6ceb f13c 07dd 1f3e
000002b0: c042 b83d 3c25 fbbd a1d1 02bd 2cf5 fcbc
000002c0: 28fe 1abd e324 cb3d c805 ff3d 9fee db3c
000002d0: 1bf8 163b bc8f 86bd 11e1 cabd 4805 ad3c
000002e0: 4df8 c5bd a23b 063c c4ac 1ebe 6f2d 7cbd
000002f0: 0621 94bd 6ab9 9abd 6299 fe3d 5cc7 2cbe
00000300: 9bb8 333c 1832 0bbe a9f6 4bbd b2c5 be3d
00000310: 66c5 483d 56a4 02be c6dd 903d acdd c63d
00000320: aa57 993d 9256 75bc 4286 13be f2bf bbbd
00000330: ed8d 913c 6315 f53d c68a af3d e58f bbbd
00000340: 7909 ce3d 8bd8 95bd 81c5 bcbd bf0b e83c
00000350: 13a1 f0bc 83dd b63d 9b79 003c 7023 1fbe
00000360: 5104 60bc 5008 8b3d 48aa e43d b4dd bfbb
00000370: 3dc8 94bd eae6 3abd 7c53 babd 7d0b 2a3d
00000380: de4e bfbd 8643 1d3e 3296 ddbc 1e4c 973d
00000390: fa68 d03d 22d4 c23d 9dc5 7cbd 904f 94bd
000003a0: 3886 4b3d a5fc 2b3d 7e18 41bd 53e9 0e3e
000003b0: 3a34 1b3d 7017 cabc 2f08 a8bd 10be 01bd
000003c0: 1f1a 22be e317 11bd 1c79 323e 394b 2c3d
000003d0: 3b51 9d3b bf9c 15be 5e11 f4bc c11a aa3d
000003e0: 052b 7a3d 8047 96bd f704 043e e0d9 a23c
000003f0: bb67 94bd 3798 d8bd 5b99 bcbd 95ec 6cbd
-0.084163256 0.14527957 0.094194606 -0.08858233 -0.08960547 -0.03421128 -0.08889801 0.0072809695
-0.027868047 -0.13561504 0.059000902 -0.07851192 -0.07569012 -0.00055557763 0.067214146 -0.10912499
-0.12157205 -0.10755869 0.10600776 -0.008746036 -0.13738868 0.040822394 0.13757141 0.120479524
-0.020907784 0.10948519 -0.094928786 -0.036361914 0.06395863 0.08181957 0.051726386 0.036938492
-0.12785782 -0.075291626 -0.051062007 0.06487496 0.1075323 0.12970927 -0.10395751 0.0069254944
-0.12721051 0.13381997 0.097113065 -0.0003748112 -0.03329994 -0.051793348 -0.11630713 -0.08577306
-0.048079114 -0.07300956 0.014156126 -0.0261889 -0.01461686 0.024537604 0.003795721 -0.02532658
0.13469142 -0.080639414 -0.06929955 -0.012497307 0.08389233 -0.092394374 0.0817672 -0.12949936
-0.12900172 -0.12882333 0.0069814543 0.043385282 0.111041054 0.09360637 -0.12301294 -0.047363278
0.10602577 0.117418304 -0.12836315 -0.05890902 -0.07877928 -0.14027582 -0.071325585 -0.021383336
-0.15011816 -0.08865479 0.06874038 -0.17868026 0.07701494 -0.012420658 -0.048964463 0.018696921
-0.06427608 0.04226145 -0.019690616 -0.09802998 0.09898557 -0.034798887 -0.0901267 -0.116174534
-0.060413122 0.0302665 0.026089229 -0.07179733 0.16176483 -0.15521339 0.098156646 -0.10835389
-0.07354134 0.10023496 0.15242091 -0.10748282 -0.11029279 -0.13134193 -0.0885474 -0.14221495
-0.086702146 0.15158457 0.10695376 0.07158069 -0.11309661 0.06371633 0.090292566 -0.1258708
-0.08410715 -0.039830964 -0.04242657 0.123866 -0.10487369 -0.07918817 0.12889208 -0.14918108
0.034062676 -0.14802232 -0.0045113605 0.0733849 -0.1306188 -0.009681923 -0.1037103 -0.12567909
-0.12497486 -0.027918478 -0.130382 -0.002029149 0.117471606 0.057431154 -0.08845403 -0.11491803
0.15243782 -0.038796246 0.008895054 0.05612431 -0.065573595 -0.05831566 0.010816632 -0.027043238
-0.086217575 -0.080445796 -0.113234475 0.12344888 0.035436 0.04193296 0.11968944 -0.10709985
0.10059819 -0.002466512 0.033183035 0.14198568 -0.022059295 -0.07700309 -0.023470141 0.023726193
-0.14679891 0.114037275 0.029531203 0.15611659 0.089971066 -0.12262961 -0.0319382 -0.030878626
-0.03784004 0.09919145 0.124522746 0.026847182 0.0023036066 -0.06570384 -0.09906209 0.021120682
-0.096665 0.0081929285 -0.15495592 -0.061566766 -0.07232861 -0.07554896 0.12431599 -0.16872925
0.010969306 -0.13593328 -0.04979578 0.09315051 0.04901638 -0.12758002 0.0707355 0.09710249
0.07487424 -0.014974253 -0.14406684 -0.0916747 0.01776787 0.1196697 0.08571391 -0.09158305
0.100604005 -0.07316693 -0.092173584 0.028325913 -0.029373681 0.08928969 0.007841493 -0.15540862
-0.013672904 0.06788695 0.11165291 -0.0058552865 -0.07264755 -0.045630373 -0.09097955 0.041514862
-0.093412146 0.1535779 -0.027049158 0.07387565 0.10176273 0.095131174 -0.061711896 -0.07241738
0.049688548 0.041988987 -0.0471425 0.13956194 0.037891604 -0.024669379 -0.08204686 -0.0316754
-0.15830277 -0.03542317 0.17429012 0.042063925 0.004800943 -0.14610575 -0.029793438 0.08305884
0.061076183 -0.07337856 0.12892519 0.019879282 -0.072463475 -0.10575908 -0.09208938 -0.05784281

transformer.layers.0.self_attn.in_proj_bias f4 [192]
00000000: 2f60 343b e580 d83b ca36 b9bb c600 b0bb
00000010: 5506 3b3b 4f35 493b d8ec 71bc e2d4 ba3b
00000020: abf6 6cba 5076 923a bf77 2abc c976 0dbb
00000030: 1659 643b 86b9 3cbb 4d90 92bb 2037 69bb
00000040: 7514 a5ba 276d 5e3b 9e23 553b ac0f 53bc
00000050: ebb2 00bd 54b2 353b c4f9 4fbc 9eb3 2fbb
00000060: 249c 52bb d89d c7bb 2f67 cc3a f7a1 4e3a
00000070: d7bf bdbb 81dc 4b3c fdea 8bbb f264 693a
00000080: ddbe 3e3d 49a7 a83b 795b 1ebc 0e28 393d
00000090: 0783 a2bc c959 2bbd 02ee 00bd 8ca8 ad3c
000000a0: 591f 0b3c 321a bd3c 7af6 f7bb ad66 34bc
000000b0: f4b1 f8bc e45b eb3c 6f9b 24bc b02f 333c
000000c0: 5dc4 043c befe b4bc ad53 37bd b236 033c
000000d0: dcde 1e3a 91d8 80bb ef4f 2a3c 89b3 5a3a
000000e0: fe1b e4bb 8393 863c d0b9 893c c28a bcbc
000000f0: 34b2 30bc afe3 ee3c c407 9c3c 2ef4 973c
00000100: 608c 9f34 e340 c034 74e3 c0b4 a5fa a6b4
00000110: 1cef 1534 1aca 9234 0b24 05b5 2763 c334
00000120: 6469 0e34 ac6b 9834 9a0b 25b4 0272 48b5
00000130: bc21 0034 4eda 9db4 6986 30b4 b8e2 19b5
00000140: 50f9 5231 8b4d 8d34 c2f0 5e33 abd0 f432
00000150: 26b3 1fb4 d09c 6d34 55dd 34b4 91e3 9d34
00000160: a83c 0532 a99a 1fb4 f654 46b3 0da5 3b34
00000170: 3894 e9b3 e1d2 8e33 25af 69b4 8937 14b4
00000180: ed64 53b4 72e7 f834 5d29 03b3 14af acb4
00000190: 657a fc34 9a7f 5334 2e7b 2f35 fc96 7f34
000001a0: 3e76 c434 1822 7e34 df79 54b4 1803 12b4
000001b0: a209 0f35 4ec9 72b5 4d89 b4b4 8463 33b4
000001c0: 0b44 3434 59e8 e1b3 3de4 9b35 7111 27b3
000001d0: 1b62 e134 1559 86b2 e62d 9433 aef9 0d35
000001e0: 46f5 19b3 ed77 fcb4 66a7 29b4 4345 f9b3
000001f0: b5d8 1ab5 a79f 8eb4 141e 9733 9d82 84b4
00000200: edef 093c eddc 93bb 23f2 1ebb 2b80 76bb
00000210: 7ca6 1abb b8f2 60ba 1c42 1abb 7d5e 1abb
00000220: fe9f 7c3c be40 9a3b b4e9 a9ba d8d9 553b
00000230: 7e4f bcba 2a01 d2bb 9348 693c 2c15 8d3c
00000240: e192 3a3c 07be ba3b 2fa5 6dbb ef9e 5e3c
00000250: 6340 773c 34a3 cbba 92ee 953b 1ef3 543b
00000260: a250 3ebc 72ad ceba 037e 153c a565 f8bb
00000270: 22ce 84bb 4cb4 b83b 8b31 ac39 df5d 7cbc
00000280: 25ca df3a 93ef cb3b 48fd 0d3b 668c ef3a
00000290: 3d4b bbba 87de 113c 4c65 6bbb eb15 7c3c
000002a0: 421a 763c 6913 e5bb 8680 24ba 2195 40bb
000002b0: 7ab4 8d3b 2086 593c f41c c6b9 71bd 5a3c
000002c0: 958a 9ebb 2317 cc3a cb0a af3c ea8f 66bc
000002d0: 1ba2 153b 74fd 19bb 469a 91ba 0461 49bc
000002e0: 8f5e 99ba 4199 5c3c ae2a 8bbb 8065 8a3c
000002f0: 9040 a4bb 8dca 11bb a5c4 673b eb11 903b
0.002752315 0.0066071623 -0.0056522833 -0.005371186 0.002853771 0.003070194 -0.014765941 0.005701647
-0.0009039442 0.0011174176 -0.010404526 -0.0021585694 0.0034843138 -0.0028797104 -0.0044727684 -0.0035585836
-0.0012594598 0.0033939572 0.003252245 -0.012882154 -0.03142063 0.00277247 -0.012693826 -0.002680994
-0.0032136524 -0.0060918145 0.0015594716 0.0007882411 -0.0057906914 0.012442709 -0.004269956 0.00089032867
0.04656874 0.005146895 -0.0096653635 0.045204215 -0.01983787 -0.041833673 -0.031476982 0.021198533
0.008491361 0.02308378 -0.007567224 -0.011010808 -0.030358292 0.02873034 -0.010046824 0.010936663
0.008103457 -0.022094127 -0.044757534 0.008008646 0.00060604303 -0.0039320667 0.010395034 0.0008342793
-0.0069613447 0.016427761 0.016812235 -0.023015384 -0.010784674 0.029161302 0.019046672 0.018549051
2.9718194e-07 3.5809998e-07 -3.592828e-07 -3.1102277e-07 1.3963694e-07 2.7341667e-07 -4.959881e-07 3.6393723e-07
1.3263121e-07 2.8390548e-07 -1.5371043e-07 -7.467171e-07 1.1933201e-07 -2.9402366e-07 -1.6440175e-07 -5.732686e-07
3.070074e-09 2.6319717e-07 5.190737e-08 2.850023e-08 -1.4873203e-07 2.2129393e-07 -1.6844326e-07 2.9409105e-07
7.7554105e-09 -1.4864294e-07 -4.617774e-08 1.7475777e-07 -1.0876869e-07 6.650749e-08 -2.1763533e-07 -1.3803778e-07
-1.9687623e-07 4.6361998e-07 -3.0538434e-08 -3.2164883e-07 4.7027712e-07 1.9697328e-07 6.537183e-07 2.3803653e-07
3.6593877e-07 2.3667997e-07 -1.9788375e-07 -1.3598435e-07 5.328567e-07 -9.044496e-07 -3.3627512e-07 -1.6706878e-07
1.678856e-07 -1.0519643e-07 1.1614826e-06 -3.889858e-08 4.1980897e-07 -1.5640163e-08 6.900136e-08 5.2889925e-07
-3.5846163e-08 -4.7025915e-07 -1.580025e-07 -1.1607565e-07 -5.768482e-07 -2.6565723e-07 7.0369566e-08 -2.468195e-07
0.008419019 -0.0045124204 -0.0024253211 -0.0037613015 -0.0023597768 -0.000858109 -0.002353794 -0.0023554855
0.0154190045 0.004707425 -0.0012963326 0.0032631066 -0.0014366952 -0.00640883 0.014238494 0.01722201
0.011387558 0.0056989226 -0.0036261787 0.013587697 0.015091035 -0.0015536309 0.004575559 0.0032493542
-0.011615904 -0.0015768243 0.009124282 -0.0075804763 -0.0040528933 0.0056367274 0.0003284331 -0.01540324
0.0017073794 0.006223628 0.002166586 0.0018276095 -0.001428939 0.008903152 -0.0035918532 0.015386085
0.015020909 -0.0069908393 -0.0006275255 -0.0029385763 0.004324493 0.013276607 -0.00037787075 0.01335083
-0.0048382976 0.001557086 0.021367451 -0.014072398 0.0022832218 -0.0023497017 -0.0011108599 -0.012291197
-0.0011701154 0.013464273 -0.004247031 0.016894102 -0.0050125793 -0.0022245974 0.0035365012 0.0043966672

transformer.layers.0.self_attn.out_proj.weight f4 [64, 64]
00000000: 43b7 20bd 6ca3 41ba ee01 28bc b586 1bbc
00000010: defe 2f3c 6cf0 283c 75d7 573b dd3a ef3c
00000020: a40e b53c 32b2 b3bc 9865 abbb 6e10 5e3c
00000030: e689 373c 0aa2 2cb9 6690 793c 9754 e63c
00000040: 8ec0 e93b 57c4 08bd 0d7f a4bc ae00 593d
00000050: 66fb 243c c8f0 8aba 82d9 36bb 9697 4e3d
00000060: 55ab 273c b9d7 49bc fb37 2e3a 2f1c 21bd
00000070: f2f7 1d3c 9ca8 c93c 77fa b6bb c40b 68bc
00000080: b134 aabc 8fbe 79ba 0529 f0bb 3844 de3b
00000090: cf4f 0c3c 47ae 343d 7386 05bd 06b0 2ebc
000000a0: c93d 323d d53b 05bd a33c b2bb 75a1 1e3a
000000b0: 807b 163a f7ee 05bc 13cf 3d3c 0080 773b
000000c0: 1c89 513c 5852 2fbc c8f3 fe3c a6c4 34bd
000000d0: 69b9 cdbc e7cb db3b 2558 db3b 1e04 10bc
000000e0: ee2e b23c 04eb c3bb 27c8 4abc c580 8bbb
000000f0: 26ac f3bb f5b4 843c ac98 353d d39e 88bc
00000100: 0b86 1fbd ca32 e33c c32f a6bb e2f2 163b
00000110: baf9 853c c594 18bd e30c 7c3c ad36 f2bc
00000120: 5fb0 03bc e8fb 07bd 47a1 d7bc 49aa b93c
00000130: c201 233c 311e a9bb dc83 e7bb cb69 103c
00000140: 55f4 b4bc 82f0 c93c 244f 9a3c c656 023c
00000150: 5efb 33bc 7213 be3c 2c8b bdbc ef26 853b
00000160: 2267 fd3b efeb 003c 77ac 3dbd c144 27bd
00000170: 92ac 223c 1ac0 c83c 8668 12b9 1fa4 14bc
00000180: fcd4 1d3c 3d5a 9cbb 68af 3a38 94f1 1d3d
00000190: da3f 25bd 97ed b5bc 605a 2e3b dd18 393d
000001a0: dd07 80bc 4526 deb9 fff9 fc3b 74aa 33bb
000001b0: d778 07b9 2559 d8bc f4e2 e4bb 8bf4 d53c
000001c0: ae63 fcbc 1510 a93b b4f5 6539 cd60 0e3c
000001d0: 0924 11bc 71e4 5bbb cf91 09bd 26b5 46bc
000001e0: c631 ab3c 4d25 96bb 27ba 43bc d762 2f3b
000001f0: 5df4 0fbc 41ae 9f3b 8ea7 3ebc dc96 01bd
00000200: 9790 d73c b457 333c 860d 713c 18e8 df3c
00000210: 7aed 27bb f482 86b9 8789 ba3c 9d3a 1e3c
00000220: df8e 18bd 7b2c ba3c f069 e8bb b06c 0e3d
00000230: 9d5e 283d 5864 0abd dc7b f33c 8d84 adbb
00000240: 6be7 a5bc 56be 4ebc 2491 42ba 15f6 aa3c
00000250: 0b62 a4bb d770 053c 0eb2 8bbb 1538 6c3b
00000260: dee1 f9bb e0a8 e93c edee 293d e1b2 99bc
00000270: 86ab b93c c8b9 563c 1994 093d 6010 1fbd
00000280: 0914 dabc 2102 fd3b 853d 41bc 3421 3bbc
00000290: 3df7 9dbb 7007 9f39 1895 5c39 a676 47bc
000002a0: 80c2 713c e00b f7bc 2348 203c 49c2 13bc
000002b0: 36e6 c83a eacc df3c 01b7 7eb9 ceda 273c
000002c0: e547 9e3a d794 08bc 16e2 93bc 9d7f 483b
000002d0: 39aa 67bb bd1b bd3c 7a9c 423d c6ea 06bc
000002e0: fd37 033d d664 803c d1eb 173d feae 003d
000002f0: 7904 c8bc 2edd b9bc 8c07 3bbc 0cd8 4ebc
00000300: 02a6 883c 6373 ac3b 2535 903c 3039 98bc
00000310: cbee 24bd f29c c23b a4e9 21bb d8f5 e33c
00000320: 6a50 a53c f725 473b 2276 fc3b 8dee b4ba
00000330: 7cce d13b 68a2 12bc 469a b13b aabd c7bc
00000340: 5dde 56bd e425 3e3a 33c9 433c 4ae5 0dbd
00000350: d187 9c3c 8416 05bd 1ee8 33bc 37e2 80bb
00000360: 8694 383c 525e cc3c 457c 72bd 5a61 a43c
00000370: 5922 d73c 8c7a 68bc 3f16 14bd 1fc6 a13c
00000380: 6374 b43b 32a7 abbc fc29 35bd 52c0 0b3b
00000390: d3e7 cebb 8224 4cbd 8819 b4bb 4d95 df3b
000003a0: eb4c a6bc 9493 6b3c 7abd 81bc b937 60bd
000003b0: 977a 353c f7f5 fbba dc35 353c a62d a6bc
000003c0: a26d 0a3c e1f0 6a3b cd96 c4bc 6e93 65bb
000003d0: f84c 15bd 8670 bdbc c25c 86bc 2d0d 85bb
000003e0: 987a 64bc cbac 69bc c292 9c3c 2e52 0dbd
000003f0: 8d89 18bc 07d2 0d3d e296 b63c d29c 7e3d
-0.039237272 -0.00073867175 -0.010254366 -0.009492566 0.010741917 0.010311227 0.003293482 0.029202873
0.022101708 -0.021935556 -0.005230617 0.013553722 0.011202311 -0.00016463562 0.015232181 0.028116507
0.00713355 -0.03339037 -0.020080114 0.052979164 0.010069704 -0.0010600323 -0.002790064 0.050437532
0.01023372 -0.012319499 0.0006645915 -0.03933352 0.009641634 0.024616532 -0.005584057 -0.014162961
-0.020777078 -0.00095269916 -0.0073291087 0.0067830347 0.00856395 0.044111516 -0.032598924 -0.010662084
0.043515954 -0.032527763 -0.0054393574 0.00060512807 0.0005740449 -0.008174649 0.011585015 0.0037765503
0.012789037 -0.010700785 0.031122103 -0.04413285 -0.025112825 0.0067076567 0.0066938573 -0.008790044
0.021750893 -0.005978944 -0.012376822 -0.004257294 -0.007436293 0.016199568 0.044335052 -0.016677296
-0.038946193 0.027734179 -0.0050716116 0.0023032953 0.01635443 -0.037251253 0.015383932 -0.029567087
-0.008037656 -0.03319922 -0.02632202 0.022664206 0.00994915 -0.00516107 -0.0070652794 0.0088142855
-0.022089163 0.024650816 0.018836565 0.007955259 -0.010985224 0.023202632 -0.023137651 0.004063479
0.0077332417 0.007868751 -0.046307053 -0.040837053 0.009928839 0.024505664 -0.00013962583 -0.009072333
0.009633299 -0.0047714994 4.4509216e-05 0.038560465 -0.040344097 -0.022208018 0.002660416 0.045189727
-0.01562875 -0.00042371653 0.0077202315 -0.002741483 -0.0001291962 -0.026409695 -0.0069850627 0.026117584
-0.03080925 0.005159388 0.00021930673 0.008690071 -0.008858689 -0.003355291 -0.03358632 -0.01212815
0.020897757 -0.0045820833 -0.011946238 0.0026761794 -0.008786288 0.0048730676 -0.011636628 -0.03163801
0.026314063 0.010946203 0.014712697 0.02733235 -0.0025623725 -0.0002565604 0.022770656 0.009657529
-0.037245627 0.022726288 -0.007092707 0.03477162 0.041105855 -0.0337871 0.029722147 -0.0052953423
-0.02025195 -0.012618622 -0.00074221403 0.020869294 -0.0050165704 0.008144579 -0.004263169 0.003604417
-0.0076258024 0.028522909 0.041487623 -0.018762054 0.022664797 0.013105817 0.033588503 -0.038833976
-0.026620882 0.007721201 -0.011794453 -0.01142149 -0.004820733 0.00030332385 0.00021036377 -0.012174284
0.014755845 -0.03015703 0.009782824 -0.009018489 0.0015327397 0.02731939 -0.00024291502 0.010245038
0.001207587 -0.008336267 -0.018052142 0.0030593642 -0.0035349263 0.023084516 0.04751251 -0.008234685
0.032035816 0.015673082 0.037090126 0.031416886 -0.024416195 -0.022688475 -0.0114153735 -0.012624752
0.016680721 0.0052627786 0.017603466 -0.018581957 -0.040266793 0.0059391195 -0.002470591 0.027827188
0.020179946 0.003038762 0.007704512 -0.0013804004 0.0064027887 -0.0089498535 0.005420002 -0.024382431
-0.052458156 0.0007253571 0.011949825 -0.034642495 0.019107731 -0.032492176 -0.010980634 -0.003933217
0.0112658795 0.02494732 -0.059200544 0.020065952 0.026261495 -0.014189374 -0.036154028 0.019747792
0.0055070384 -0.020953748 -0.044229493 0.0021324349 -0.0063142567 -0.049839504 -0.0054962076 0.006823218
-0.02030035 0.014378447 -0.01583742 -0.05474064 0.011076591 -0.0019223084 0.011060204 -0.020285439
0.00844899 0.0035849141 -0.023997689 -0.0035030502 -0.036450356 -0.023124944 -0.016401652 -0.0040604086
-0.013945244 -0.014262388 0.019112948 -0.0345022 -0.009310138 0.034624126 0.022288743 0.062161274

transformer.layers.0.self_attn.out_proj.bias f4 [64]
00000000: 9888 0dbc 1e8b dd3b 61bd dfbb f58e 003c
00000010: 00ed 13bc b102 de3b 63c4 7abb 36a1 de3b
00000020: 8d3e b83b 2f1b 293c 4484 69bb ac73 6ebb
00000030: f52b 7b3b 1e9d d13a 1b96 aabb 2b9f 843b
00000040: 70b4 fd3b 3bfa e03b c661 f93b 5be9 cabb
00000050: 46fb 833b 2903 90bb 1190 9f39 b3d0 0c3c
00000060: 7b1f 92bb 10fa e53b ec9a f8bb e71e 2bbb
00000070: d832 22bc 5d3e 87bb fc3d bfbb cbc5 1d3b
00000080: 5d49 23bc 6fe2 563b 95b4 793b 51e1 bbbb
00000090: 968e 063c 55c4 c23b 780c 5fb9 de46 f63b
000000a0: 90fc f4bb 86ec 17bc 9d31 6dbb 4c77 f13b
000000b0: 8a54 acbb dc39 ddbb 16bf 173c d40e 1fbc
000000c0: 6245 c9bb 0217 ab3a fa6f 06bc 84fa 29bb
000000d0: 93b4 293c 38ad b23b 391a 0a3c 45ad 02bc
000000e0: 4687 d9bb b516 ee3b 82cb 46bc 68c9 d9bb
000000f0: df7c 333b 8881 d4bb ba1e 303c eefd 22bc
-0.0086385235 0.006760969 -0.0068279956 0.007846584 -0.009028673 0.006775223 -0.0038264028 0.00679412
0.005622691 0.0103214225 -0.0035631815 -0.0036384864 0.003832576 0.0015992259 -0.0052058822 0.0040472946
0.007742457 0.0068657673 0.0076105325 -0.006192369 0.004027757 -0.004394908 0.0003043418 0.00859468
-0.004459319 0.007018335 -0.0075868275 -0.0026110949 -0.009899817 -0.0041273073 -0.0058362465 0.0024074193
-0.009966222 0.0032788774 0.003810202 -0.005733647 0.008212706 0.0059438148 -0.00021271582 0.0075157722
-0.007476397 -0.0092727 -0.0036192902 0.0073689576 -0.0052591013 -0.006751282 0.009261867 -0.009708125
-0.0061423043 0.0013053122 -0.008205408 -0.0025936672 0.010357994 0.005452778 0.0084291035 -0.007975881
-0.0066384403 0.0072658905 -0.012133481 -0.006646324 0.0027387661 -0.006485168 0.010749513 -0.009948237

transformer.layers.0.linear1.weight f4 [128, 64]
00000000: 04fc 14bd 4dd9 bc3c cc46 0bbd a66d 6abd
00000010: 5c22 6dbc 2edb 2e3d 6324 213c 6cf6 b43c
00000020: d15c 83bc b4cf 8dbd f3bb 0ebc e714 26bd
00000030: 8add 723b bc24 073d 615b 43bd 7320 d5bc
00000040: 2c3f 983d be39 543c eb6f 8d3d 16a3 d33c
00000050: 0b9c 43bc e997 93bb 8c22 a73c 380f 4bbb
00000060: fbd0 95bc 88bf a63c d35f a1bc 44ef 603c
00000070: 6baf 85bc 36fe a23c eb2e cdbc 4ce7 023c
00000080: 1142 673b 7159 073d d107 1ebd b766 36bc
00000090: 2f1a 8a3c 04a2 813c a189 363d a33a e43c
000000a0: 4888 b0bc abc6 45bc c6c6 79bc ece0 36bd
000000b0: 48ac 2e3c 197d 65bc 42c1 bcbc de63 0cbd
000000c0: 6c18 5cbc 2ecf 7bbc 96ba e4bc a763 213d
000000d0: 0452 b73c e96d 243c fc10 23bd fa8b 32bd
000000e0: b870 aabd 8322 eebc 019a ce3c 33b6 49bc
000000f0: 8c00 e73c de71 6c3d d5d0 0b3d 65b8 13bd
00000100: 3d43 ebbc fd37 11bc 914e dabc a288 1dbc
00000110: 91ee 69bd 0a8e 1f3d 5694 d7bc 136a 123b
00000120: 3fa0 003d 9878 e5bc 94df e63c e7b1 cabc
00000130: 088a 70ba fb92 373d 9623 123d 58d4 943c
00000140: ec99 223d 6a29 e0bb 852c 643c 7a6c aebc
00000150: 0092 843c 8bcc 35bd 0be4 e63b fa67 68bc
00000160: 489c 1f3d df65 a8bc eff9 1bbd ac33 3cbd
00000170: 55b9 09bd 73a8 0d3c 8a5f c7bc da14 763c
00000180: c12e 2cbd 363a db3a fc59 99bc dfff 54bc
00000190: 7828 ab3b e845 1a3d de2e 363b 628d 6f3c
000001a0: 7db2 fcbc 29bb 07bd 08b9 793c 7990 443c
000001b0: d675 28bd 77ee 5bbd 02de 013d f3a4 b9bb
000001c0: e813 f13b d49e eb3c b4d6 69bd 3bd9 d8bc
000001d0: cce5 ec3c dfe2 eb3b 38fc 363c 11bf 0abd
000001e0: 9030 08bd b0c0 193d a463 0ebc e326 15bd
000001f0: 01cd 113d 6d79 b6bc 659c 053d 4f08 89bd
00000200: 0f8a 4ebd d2a6 88bb f622 f3bc 95a2 0e3c
00000210: a84f b5bc c4a8 2c3d 0bb1 10bd 387d a93c
00000220: 45a9 463d bfce 4d3d 6b68 15bd 6e2e 08bd
00000230: 3109 92bc 6551 eb3c 3391 ba3c 7896 133d
00000240: b32b 813c 2794 083d 6fa5 6a3b a1c3 33bd
00000250: cf66 1a3d 7730 463c 20bc 303c 93bd 523d
00000260: 3e30 763d 595a 4fbc b180 b63c fb64 8f3c
00000270: cb59 5cbc 8725 8e3c 520d 263d 40b7 e03c
00000280: 8629 a9bc 33ac 19bd e119 173d 48af 9a3c
00000290: 84c8 593d 2963 ecbb 5bb8 e7bc 3e74 cfbb
000002a0: a802 28bd 1102 2f3c 869f 863d 83da 3a3b
000002b0: 0b6d ea3b c602 4cba 222f 243d 8ad3 d6bc
000002c0: 3681 1c3a d646 6f3d de3f 9ebc 8420 afbc
000002d0: 6c2a 283c 313a 243d 8a2c 2d3d 7a01 03bd
000002e0: 838c 98bc f4e8 d43c 3189 03bc 01cc 74bb
000002f0: 9703 453c 6ff4 00bd ff53 c6b9 3c40 46bc
00000300: e6fa c43c c778 bf3c f63f 6a3d fbbc 8cbd
00000310: ce0f ecbc 99ad 0dbc 42ae 883c d490 343c
00000320: 036a 9bbb 4c78 763d cf7f 17bd 234e ca3c
00000330: 85a7 c7bc 4bff abbc 4015 c5bc bcbe 7fba
00000340: 6c0d 87bd cb6f 5b3c 0dc1 a7bc 587d 343b
00000350: 9457 81bb aea1 f8bc 914a 083c 86ba cfbc
00000360: 040c b3bc 4c34 44bd 656d 863b a120 1a3d
00000370: f83b 4d3d 76d8 053d 7a4e 903c 80b3 b2bc
00000380: ba63 c23b 205f 19bd 31e6 bc3c 7b50 573d
00000390: 7e44 a63d 4e8b 873c 475f f93c bf44 25bd
000003a0: 6bc7 773c 4849 64bc ffb2 92bc d27d 6d3d
000003b0: 66f7 6cbc 236e 0dbd 54cc 41ba 51e2 f7bc
000003c0: f892 f2bb f9ab 4dbd 6711 1d3d fc4e 0c3c
000003d0: fd5f c63c 2249 153c 3219 613d 57ae 32bd
000003e0: 5497 913c f1e6 bcbb 18be 253d 7373 96bb
000003f0: 4d16 613c 2278 d33c 91af 093d 65af 4ebc
-0.036373153 0.023052836 -0.034003064 -0.057233475 -0.014473524 0.042689495 0.009835335 0.02209016
-0.01603547 -0.06924382 -0.008711803 -0.040547278 0.0037058317 0.032994017 -0.047694568 -0.02601645
0.07433924 0.01295322 0.06906112 0.025834601 -0.011939059 -0.004504193 0.020402215 -0.0030984413
-0.018288126 0.020355001 -0.019699013 0.01372892 -0.016318997 0.019896608 -0.025046786 0.007989716
0.0035287181 0.033044282 -0.038581673 -0.011132888 0.016858188 0.015824325 0.044564847 0.027859991
-0.021549359 -0.012071292 -0.015245145 -0.044648096 0.010661192 -0.014006876 -0.023041371 -0.03427493
-0.013433557 -0.01536922 -0.027921002 0.039401677 0.022377975 0.01003597 -0.03981112 -0.043590523
-0.08322281 -0.02906919 0.02521992 -0.012311506 0.028198503 0.05772578 0.034134705 -0.036064524
-0.028718585 -0.008863446 -0.026648792 -0.009615095 -0.05711228 0.03895382 -0.02631585 0.0022341057
0.031402823 -0.028011605 0.028182782 -0.024743034 -0.00091758417 0.044817906 0.03567847 0.01816766
0.039697573 -0.0068408744 0.01392663 -0.02129196 0.0161829 -0.04438452 0.007046228 -0.014184946
0.0389674 -0.020556388 -0.038080152 -0.045947716 -0.033624012 0.008646118 -0.024337549 0.01501962
-0.042036775 0.0016725722 -0.018719666 -0.013000458 0.00522333 0.037664324 0.002779893 0.014621111
-0.030846829 -0.033137474 0.015241869 0.011997336 -0.041128002 -0.053694215 0.031705864 -0.0056654154
0.0073571093 0.028762259 -0.057089522 -0.026470771 0.02891817 0.007198676 0.011168532 -0.03387362
-0.033249438 0.037537277 -0.008690748 -0.03641404 0.035595898 -0.022274697 0.032619853 -0.06691038
-0.05042463 -0.004170277 -0.029679757 0.008705755 -0.02213271 0.042153135 -0.03532509 0.020689592
0.04850127 0.050245997 -0.036476534 -0.033247404 -0.017826648 0.028725335 0.022774315 0.03603217
0.015767908 0.033344414 0.0035804173 -0.04388774 0.037695702 0.012096516 0.01078704 0.051450323
0.0601046 -0.012655818 0.022278162 0.017504206 -0.013449143 0.017351879 0.040540047 0.02743113
-0.020649683 -0.037517738 0.036889914 0.018882409 0.053169742 -0.0072139692 -0.02828615 -0.006330996
-0.04101816 0.010681645 0.065733954 0.002851159 0.007154112 -0.00077823957 0.04008401 -0.026223917
0.00059701817 0.058417164 -0.019317564 -0.02137781 0.01026402 0.04009456 0.042278804 -0.03198383
-0.018621689 0.025989987 -0.008028314 -0.003735304 0.012024782 -0.03148311 -0.00037828085 -0.012100276
0.024045419 0.02337302 0.057189904 -0.06871983 -0.02881613 -0.008647346 0.016684655 0.011020858
-0.004742862 0.060173318 -0.036987122 0.024695462 -0.024371872 -0.020995757 -0.024057984 -0.00097558997
-0.06594357 0.013393353 -0.020477796 0.002754053 -0.0039472077 -0.030350532 0.008318559 -0.025357496
-0.021856315 -0.047901437 0.0041023963 0.037628774 0.05010602 0.032677136 0.017615546 -0.021814108
0.0059322985 -0.037444234 0.023058983 0.052566987 0.081185326 0.016545918 0.03044094 -0.040348765
0.015123229 -0.013933487 -0.017907618 0.05798132 -0.014463281 -0.034528863 -0.0007392813 -0.030259283
-0.007402774 -0.050212834 0.038346674 0.008563753 0.024215693 0.0091116745 0.05495567 -0.043623295
0.017772354 -0.005764835 0.04046449 -0.0045913993 0.013738227 0.02581412 0.0336147 -0.0126150595

transformer.layers.0.linear1.bias f4 [128]
00000000: e513 45bb 590d bb3b 7436 fd3c aa8e dc3c
00000010: 3eca 883b 110c 963c 734c 843c 741f 473c
00000020: fe2e 0f3b 6c83 4c3c 13fb 6a3c 2bff 0b3c
00000030: 29ae 4c3c 949a a83b 9e1a 933c f191 e13b
00000040: b7b5 c83c c7a6 5ebc f01f 343b 51a4 a4bb
00000050: 340e 4c3c 8afa 073c d9ba 9b3a ac4c fc3c
00000060: 630d a23b 04cc 243c c799 4e3b be79 6f3c
00000070: d534 eb3b 5201 3f3c 5a2b 163c dbd8 973c
00000080: acdb 0fba 32c2 843b a32f a63c 27f1 923b
00000090: ad39 713c 1e72 b03b 56c9 07bc 4acc 2eb9
000000a0: ea6b 8c3c 318c 683a 8856 833c 3ff3 c4bb
000000b0: f9ae 53bc c997 a03b 8bbf e03c 832d 803b
000000c0: 11d2 113b b709 fdbb 4fc1 8d3c 6bd3 9bbc
000000d0: a822 e03c 136c 653c 8f50 e73b 0d3d 673b
000000e0: 91b4 efb9 81ef 0b3c 678d 083d f4be c5bb
000000f0: 6935 ad3c 8429 4d3c efbd 743c 9154 a03b
00000100: 4f23 353c 88e1 d53c 1947 43bb 69f0 b53b
00000110: b05b 8c3c ab9f 9c3b 7acc d9ba e153 3d3c
00000120: 2a53 d13c 7f2e e0bb 70b1 2b3c feb2 ec3c
00000130: 2434 e3bb 59c9 9b3c 36ef b33c ca92 83bb
00000140: 6e09 d83b ed3e b13b 0b92 363c fe0e ac3b
00000150: 9bc2 073a 18e2 b83c 4069 9fbb f5ae 123c
00000160: 043f a73b cfc6 8e3b 13ed 913c b9f0 6a3b
00000170: a458 4bba 7b65 3a3b 2ff4 9d3c 97a8 1e3b
00000180: a744 6a3c bd8d cd3c 3ee9 903b d6b3 3ebb
00000190: 46fe 40bc 5626 d93c 13ca 7e3b 6be4 823b
000001a0: 6384 2b3b 4d1f 3abc 6049 c53c 3a1c 8d3c
000001b0: 9b61 b23a 42c0 713c 881e d63b 7de5 c13b
000001c0: 2b28 803c 112d 2b3c 7ec2 8d3c b10a b9bb
000001d0: 34f1 1bbc de6c de3b fd45 533c 20fa 853c
000001e0: ed2d 6b3c f580 8f3c 81ad cc3c b329 e53b
000001f0: eaed 14bb 08a4 403c 39a3 953c 0173 273c
-0.0030071673 0.0057083783 0.030909754 0.026923496 0.0041745 0.0183163 0.016149735 0.012153495
0.0021848078 0.012482505 0.014342087 0.0085447235 0.012492695 0.0051453803 0.017957028 0.0068838526
0.02450071 -0.0135895675 0.0027484857 -0.005024471 0.012454558 0.008299479 0.0011881246 0.030798279
0.0049454435 0.010058407 0.0031524764 0.014616428 0.007177929 0.01165803 0.009165609 0.018536022
-0.0005487751 0.00405147 0.020286387 0.004484314 0.014723224 0.0053846976 -0.008287748 -0.00016670037
0.017141301 0.0008870988 0.016032472 -0.0060104425 -0.012920135 0.0049009067 0.027435085 0.0039116754
0.0022250453 -0.0077221054 0.01730409 -0.01902171 0.027360275 0.014002818 0.007059164 0.0035284192
-0.00045720165 0.008540989 0.033337977 -0.0060347263 0.021143632 0.012522105 0.014937862 0.0048928936
0.0110557815 0.026108518 -0.0029797016 0.0055523408 0.017133564 0.004779776 -0.0016616725 0.011555643
0.025552351 -0.0068414803 0.010479316 0.028893944 -0.006933706 0.019016908 0.02196465 -0.0040153014
0.006592921 0.0054091127 0.011143218 0.0052508106 0.000517884 0.022568747 -0.0048648417 0.008952846
0.0051039476 0.004357196 0.017813241 0.0035849048 -0.0007757044 0.0028441835 0.019281475 0.0024209374
0.014298595 0.025092 0.004422336 -0.002909889 -0.0117793735 0.026507538 0.003887777 0.0039945147
0.0026171438 -0.011360002 0.02408284 0.017225374 0.0013609411 0.0147553105 0.0065344013 0.0059172497
0.015644154 0.010447756 0.017304655 -0.0056470265 -0.0095179565 0.0067878803 0.0128951045 0.01635462
0.014354211 0.017517546 0.024985077 0.0069934963 -0.0022724816 0.011757858 0.018266307 0.01022029

transformer.layers.0.linear2.weight f4 [64, 128]
00000000: bb3a 10bd 92d6 efbc e234 45bd 6932 963c
00000010: 6a2c c73c b5e9 f7bc 9276 0ebc 4b2e 73bc
00000020: 0edd 69bc 625d f7bc 0a2a b5bc e241 9dbc
00000030: c489 8cbc 1170 25ba a1ae 69bc 7661 0bbb
00000040: 59c4 733c 95af 2ebc 7a88 46bd a695 8dbc
00000050: 606f 37bd f603 0c3d 92db 863c 4398 95bd
00000060: 6546 283c ab6e c7bc f1cf 913d 3bb3 12bd
00000070: ccb6 2e3c cf5c ecba 3f1e b13b 49a0 dbbb
00000080: 8786 0d3c ec6c 48ba 478e 0ebd 2877 2d3d
00000090: 129c 1b3d 79d0 e9bc 1933 30bd 203b b8bc
000000a0: a8d9 003d 6ab8 b13b 8575 10bd e36b d3bc
000000b0: 1993 003d 90c0 b73c 1d3c c5ba 4925 19bd
000000c0: 8514 2f3c f85a 10bd cc29 a4b9 cabb c93c
000000d0: fadd ce3b e58c b53c c0c8 643b 9cef b93c
000000e0: c115 bc3c 3bfc fdbc 8c9d 05bd 95df a93c
000000f0: 9712 04bb 53f2 2bbd 7e73 143c 45e5 1fbc
00000100: 2a5b 56bc fc0b 3abd 4b88 26bb 8c29 bbbc
00000110: d8e7 27bd 8990 b4bc 9dad 25bd 9593 aebc
00000120: 9f8a 4b3c 2cd7 a43b 3418 b6bc 6aa6 55bc
00000130: e07a f2bc dc3f 0abd 51c2 dc3c 3f9d 163b
00000140: 4a0d 2fbd abfe 2e3c d066 acbc c5d0 0dbd
00000150: 947f 513c 056a d2bc efb8 033d 1498 bb3c
00000160: 759c 723d c8c9 a43c 052d 60bc 65cc 373c
00000170: a428 0abc dedf a6bc 0b46 1dbd 9999 7dbc
00000180: a821 3abd 8673 07bd 5651 483c 5238 d6bc
00000190: 0948 9e3b 4309 92bc b8c0 0a3d f7c7 4f3d
000001a0: 0d89 433c cb63 c03c 194f f6bb 723c eb3b
000001b0: c096 0f3b 3550 363b ffdd 3bbd 6f00 08bd
000001c0: 09e5 6ebd 978d 08bd cabb 37bd 207f 06bd
000001d0: d075 a8b6 5328 c1bc 9c2d 473c d0cc 973c
000001e0: f168 543d f974 ffbc 5391 533c 8ef5 18bc
000001f0: c0ff 5dbc 2914 aeb9 01d9 093d 42e4 b2bc
00000200: 7309 383d abd1 b73b 5f2c f23b 3869 8abc
00000210: 3846 c63b 2790 0e3d 5e85 30bb 0b40 3b3c
00000220: 87af abbc 0b5a 90bb 3997 d53c fa68 493c
00000230: bb17 da3c ae25 80bb ae7c c3bb 5a97 a5bc
00000240: 0fe5 0f3c a8d6 9cbc de8b d33b 1f05 853c
00000250: e008 6bbd 73e1 ddbc ffb8 6bbb 1320 2e3c
00000260: 7992 9e3c 9dfc 74bb a67d 8ebd 8643 a5bc
00000270: b4d4 f7ba 03d5 bd3b eac9 9b3c 63cb 063c
00000280: 40bc 24bd d4b2 6cbc fd19 f83b 3021 8ebc
00000290: e961 a8bc d119 abbc aaf2 823c 342b 433c
000002a0: 1103 d03b 2725 b13b 22d5 ee3b ad82 1c3c
000002b0: 30df 08bd 590c 043d 6c8f 0ebb adff 9e3c
000002c0: 07b8 2b3b 0dca b23b ae42 223d 6f32 37bb
000002d0: 859c 84bc 3836 f53c 710a b5bc e261 dfbc
000002e0: e505 c7bb 5b94 d43a 2846 0c3c 0f23 b0bc
000002f0: a701 dd3c ed9a 953c fa9a 613b a12e 563c
00000300: e9ca 2d3c 60f5 263c 8f91 81ba f78a b53c
00000310: 0a4b efbb 02b9 25bc f436 e83c dbb6 943c
00000320: 55e4 243b 9865 033c 7376 c73c 825a d93b
00000330: f13c 52bc 1fb3 133d cfde c73b e047 833c
00000340: 21b5 d3bb 6aa6 353d ea6b 8e3d e10b b1bc
00000350: c638 383a 21a8 85bc d012 02bc 395c a63c
00000360: aa25 bb3c c623 173d 9011 c3bc 15c2 1cbc
00000370: fe78 043d d09a 173c 18fd fe3c e2ec e43b
00000380: 15c6 e23c 2fac b43c fdce 333c 160d 9f3c
00000390: c605 7e3c bf86 c3bb a4cd 67bc 9b0f c13c
000003a0: a787 d33b 645c 673b aae3 bb3c 4c05 cd3c
000003b0: e4bb 083d 9bb9 853b 65bb a93c 298b abbb
000003c0: df76 383c 7529 c63b ac21 47bc 8e94 5bbb
000003d0: 562c 88bc 8e8c fb3b e3d9 4aba 75ab b0bb
000003e0: 4fc8 633a 1936 90bc 437b bc3c 30ec aa3c
000003f0: 15b6 f33b 2f73 fb3c aca2 97bc 3b81 363d
-0.03521226 -0.02927712 -0.048146136 0.018334584 0.02431317 -0.030262807 -0.008695262 -0.01484258
-0.014273895 -0.030195896 -0.022114772 -0.019196454 -0.017155536 -0.00063109497 -0.014262826 -0.0021267808
0.014878356 -0.010661979 -0.048469998 -0.017283272 -0.04478395 0.034183465 0.016462121 -0.07304432
0.01027069 -0.024344763 0.0711974 -0.03581546 0.010663699 -0.001803303 0.005405217 -0.006702457
0.008638031 -0.0007645625 -0.034803655 0.042349964 0.037990637 -0.02854179 -0.04301748 -0.02248913
0.031457573 0.005423595 -0.035268325 -0.02580828 0.031390283 0.022430688 -0.0015047822 -0.037389074
0.010686045 -0.035243005 -0.0003131166 0.024625678 0.0063130828 0.02216191 0.0034909695 0.022697262
0.022959592 -0.031004062 -0.03262095 0.020736495 -0.0020152682 -0.041979145 0.009060739 -0.009759252
-0.013083259 -0.045421585 -0.0025410827 -0.02284696 -0.040992588 -0.022041576 -0.040448774 -0.021310607
0.012423187 0.0050305333 -0.022228338 -0.0130401645 -0.029599607 -0.033752307 0.026948126 0.002298191
-0.042737283 0.010680835 -0.021045119 -0.034622926 0.012786765 -0.02568532 0.03215879 0.022899665
0.05923124 0.020115748 -0.0136826085 0.011218165 -0.008432541 -0.02037042 -0.038396876 -0.015478515
-0.045442253 -0.033069156 0.012226423 -0.026149902 0.0048303646 -0.017826682 0.033875197 0.05072781
0.011934531 0.023485085 -0.0075167534 0.0071788365 0.0021909922 0.0027818803 -0.04586601 -0.03320354
-0.058323894 -0.033338156 -0.044856824 -0.03283608 -5.0205053e-06 -0.023578798 0.01215687 0.01853028
0.051857892 -0.031183707 0.012913066 -0.009335889 -0.013549745 -0.00033202887 0.033654217 -0.021837357
0.044930886 0.005609711 0.0073905434 -0.016895875 0.006050851 0.034805443 -0.0026934962 0.011428843
-0.020957721 -0.004405265 0.026073085 0.012293095 0.026622644 -0.003910742 -0.0059657907 -0.020213772
0.008782639 -0.019145325 0.0064558825 0.016237793 -0.05738151 -0.027085042 -0.003596842 0.010627764
0.019356953 -0.0037382015 -0.06957559 -0.0201738 -0.0018907995 0.0057932152 0.019017179 0.008227202
-0.04021859 -0.014446933 0.0075714574 -0.01734981 -0.0205545 -0.020886334 0.015984852 0.011912156
0.006348022 0.00540604 0.007288591 0.00955264 -0.033415973 0.03223834 -0.0021752967 0.019409025
0.0026202218 0.0054562152 0.039614372 -0.0027953645 -0.016187916 0.02993308 -0.022099705 -0.027268354
-0.0060737007 0.001621853 0.008561648 -0.021501092 0.026978327 0.018262351 0.0034424649 0.013072641
0.01060746 0.010190338 -0.0009885299 0.02216099 -0.0073026465 -0.01011491 0.028346516 0.018153599
0.002516051 0.008019827 0.024348473 0.006633104 -0.012831912 0.036059495 0.006099559 0.016025484
-0.006460801 0.044348158 0.06954177 -0.02161211 0.0007027503 -0.016315522 -0.007939056 0.020307647
0.022845108 0.03689935 -0.023812085 -0.009567757 0.03234195 0.009253219 0.031126544 0.0069862464
0.027682343 0.02205476 0.010974643 0.01941542 0.015504306 -0.0059669907 -0.01414815 0.023567012
0.00645538 0.0035302872 0.022935707 0.02502694 0.03338231 0.004080964 0.02071924 -0.005235095
0.01125881 0.0060474225 -0.012154024 -0.0033505294 -0.016622704 0.0076766675 -0.0007738156 -0.005391533
0.0008689211 -0.01760392 0.023007995 0.020864576 0.0074374774 0.030694572 -0.018510185 0.044556838

transformer.layers.0.linear2.bias f4 [64]
00000000: 75de 0ebc 3ace 083c 045b 0ebc 87cf 023c
00000010: cbd4 5dbc 3883 263c dfa8 3ebc cc45 a63c
00000020: 45fe 173c 9a4e 303c c708 97ba fad1 98bb
00000030: 677e 5c3c f8e9 d13b ecc8 d3bb 450c 093c
00000040: 6dee 253c b75f 253c 551d 223c dd68 02bc
00000050: acd6 df3b 24ba b6bb f2b2 6e3b 76e8 1c3c
00000060: b526 9ebc 869b c23b 8d56 51bc 989d 09bb
00000070: de79 36bc 3a61 8abb 8a80 19bc e694 613b
00000080: ba2f 3cbc bcc2 6a3c 2dd7 383b f9fb 01bc
00000090: 83ae 1f3c f3d0 343c 266b 0e3c cf4b 6b3c
000000a0: 4929 38bc ce15 3cbc faac e9bb 190a db3b
000000b0: 0bb2 5bbc fbdb a6bc 8f47 5e3c f283 52bc
000000c0: 7334 ecbb 2317 623b fa9e 3dbc 036d e6bb
000000d0: fc99 373c b5a1 753c dd00 243c 355d 1dbc
000000e0: b48c 41bc a169 f33b 368a 51bc a732 babc
000000f0: 83b8 de3a b2b9 3fbc 27f7 503c eead 89bc
-0.00872003 0.0083499495 -0.008688692 0.007984049 -0.013539503 0.010163121 -0.011636942 0.020296954
0.009276931 0.010760928 -0.0011523002 -0.004663703 0.013457871 0.006406065 -0.0064631607 0.008364742
0.010127646 0.010093621 0.009894689 -0.007959572 0.006831011 -0.005576389 0.0036422578 0.009576907
-0.019305566 0.00593895 -0.012776983 -0.0020998474 -0.011137454 -0.004223016 -0.009369025 0.0034421026
-0.011485988 0.014328655 0.0028204427 -0.00793361 0.009746197 0.0110361455 0.008692538 0.014361336
-0.011240312 -0.011479808 -0.007131216 0.0066845533 -0.013409148 -0.020368567 0.013566866 -0.012848841
-0.007208401 0.0034498654 -0.0115735475 -0.007032038 0.011206146 0.014992167 0.010009971 -0.009604742
-0.011813331 0.0074283634 -0.0127893 -0.022729231 0.0016992245 -0.011701988 0.012754238 -0.016806569
