marble_model/best_model_v3.0_20250531_010442.pt (torch, 295593 bytes, 30 tensors)

token_embedding.weight f4 [13, 64]
0	0x3b8b4eb0	0.0042513236
1	0xbc91a554	-0.01777903
2	0x3cb932f7	0.02260731
3	0xbcfe232e	-0.031022634
4	0xbc876fed	-0.016532863
5	0xbd4ecfec	-0.05049126
6	0xbcc7fb34	-0.024411775
7	0xb7cf5ef5	-2.472054e-05
8	0xbb79cf30	-0.0038117878
9	0xbbae37d6	-0.0053167148
10	0xbb65e6ab	-0.0035080116
11	0x3cf1514b	0.029457709
12	0x3d2b0929	0.041756783
13	0x3c615982	0.0137542505
14	0x3b558a2e	0.0032583582
15	0xbca66b19	-0.02031474
16	0xbbd62357	-0.0065349746
17	0x3be76e61	0.0070627187
18	0x3b281d9e	0.002565242
19	0x3c9460ca	0.018112559
20	0xbc6eb893	-0.014570373
21	0xbb721e06	-0.0036944165
22	0x3ceb21c5	0.028702626
23	0x3ce1aedd	0.027549202
24	0x3ca98717	0.020694299
25	0xbca7ca92	-0.020482335
26	0x3c8d07f5	0.017215708
27	0x3c126e8f	0.008937492
28	0x3b9be799	0.004757833
29	0x3befb5e6	0.007315385
30	0xbaec1613	-0.001801195
31	0x3aec4dc7	0.001802855
32	0xbd70d5e1	-0.05879772
33	0xbc8a92ee	-0.016915765
34	0x3cbd851e	0.023134764
35	0x3a788b12	0.00094811723
36	0x3b904ab4	0.0044034366
37	0xb9ebf3ee	-0.00045004435
38	0xbb3183fc	-0.0027086725
39	0x3b4eaac0	0.003153488
40	0x3b8d58ed	0.0043135793
41	0x3d00eec3	0.0314777
42	0x3cc84b0a	0.024449844
43	0x3b313d84	0.0027044723
44	0x3b7a1263	0.0038157932
45	0x3bd66869	0.0065432084
46	0x3bc33f50	0.005958475
47	0x3ccec050	0.025238186
48	0x3cb13133	0.021629905
49	0x3c91ced7	0.017798824
50	0xbc5a8f27	-0.013339794
51	0xbc8e7b00	-0.017392635
52	0xbc3ffb4e	-0.011717631
53	0x3d22f35e	0.039782874
54	0xbca013c9	-0.019540684
55	0xbcff99ab	-0.031201204
56	0xbbc62d5b	-0.0060478873
57	0x3b08a044	0.002084748
58	0xbb1298a7	-0.002236882
59	0xbc923bc0	-0.017850757
60	0x3c89229a	0.016740132
61	0xbbd5764e	-0.006514347
62	0xbc153f87	-0.009109384
63	0x3cfaa7fc	0.03059768
64	0x3c9a5a11	0.018841775
65	0xbce85dfd	-0.02836513
66	0xbd137277	-0.035997834
67	0x3ca80409	0.020509737
68	0xbc3d69e6	-0.011560893
69	0xbcd68e7e	-0.026190992
70	0xbce64728	-0.028110102
71	0x3c071ba3	0.008246335
72	0x3c8468f7	0.016163332
73	0x3d65c18b	0.05609278
74	0xbd008e73	-0.03138585
75	0xbc8bc7ab	-0.017062983
76	0x3d4b0f8c	0.049575374
77	0x3beaea95	0.0071690776
78	0xbb0d83cc	-0.002159345
79	0x3c562349	0.013069936
80	0xbc970264	-0.018433757
81	0xbbfadd22	-0.0076557556
82	0xbccdc2ad	-0.025117243
83	0x3c807d75	0.015684823
84	0xbc77d728	-0.015126981
85	0xbc870505	-0.016481886
86	0x3ca99dfe	0.02070522
87	0xbca01af0	-0.019544095
88	0x3cb7ee32	0.022452448
89	0xbd416e1b	-0.047224145
90	0x3c98ee6b	0.018668374
91	0xbc9cbbfb	-0.019132605
92	0x3c7ce06d	0.015434367
93	0x3d3370f9	0.04380891
94	0xbc6e02a6	-0.014526999
95	0xbd1d85dc	-0.038457736
96	0xbc7d2176	-0.015449872
97	0x3bea1fc2	0.007144899
98	0x3d15652f	0.03647345
99	0xbc881627	-0.016612126
100	0x394cce19	0.00019531733
101	0x3cc9f80a	0.024654407
102	0xbbde9782	-0.0067929635
103	0x3c2c0296	0.010498663
104	0xbd3165bf	-0.043309923
105	0x3bd69855	0.006548921
106	0x3d1eb9a8	0.038751274
107	0x3ccf0452	0.025270615
108	0x3cddf871	0.027096005
109	0x3d0ae3ae	0.03390854
110	0x3c3f4599	0.011674308
111	0x3c0a092a	0.008425036
112	0x3c991bd3	0.018690025
113	0xbd1215d1	-0.035665337
114	0xbbcac951	-0.0061885496
115	0xbd1516ae	-0.036398582
116	0x3c8c6ac4	0.017140754
117	0x3d12197c	0.035668835
118	0xbcd53178	-0.026024565
119	0x3d7d0be7	0.06177893
120	0x3d0b3ec6	0.033995412
121	0xbd0122b6	-0.031527244
122	0x3d008200	0.031373978
123	0xbcd5b34b	-0.02608647
124	0xbd009f2b	-0.031401794
125	0xbca6d090	-0.020363122
126	0xbc66b881	-0.014082075
127	0xbca7c308	-0.02047874
128	0xbc95a9fb	-0.01826953
129	0xbc2c0c7b	-0.010501022
130	0xbc709cac	-0.014685791
131	0xbc0092f6	-0.007847538
132	0xbc08b5d0	-0.008344129
133	0xbc132efa	-0.008983368
134	0xbbe8cfcc	-0.0071048494
135	0xbc00f3a6	-0.00787059
136	0xbcbc1394	-0.022958554
137	0x3cad1525	0.021128247
138	0x39a6e1b9	0.00031830164
139	0xbc115c8b	-0.008872162
140	0x3c127a2f	0.008940264
141	0x3c24bdce	0.010055019
142	0xb9f8af9b	-0.00047433082
143	0xbc47c325	-0.012192522
144	0xbc89316d	-0.0167472
145	0x3ce54634	0.027987577
146	0x3ccb6cc1	0.024832131
147	0x3b349bcd	0.0027558685
148	0xbbcd2e2e	-0.0062616086
149	0x3c8eac0c	0.017416023
150	0x3c28b43d	0.010296878
151	0x3bad6b36	0.0052923216
152	0x3bac284d	0.0052538277
153	0xbba5f6d2	-0.0050648237
154	0xbb503fd8	-0.0031776335
155	0x3cf0ddc6	0.029402625
156	0x3bbf6613	0.0058410256
157	0x3c3900eb	0.011291723
158	0x3c2bb1af	0.010479375
159	0xbcd67906	-0.026180755
160	0xbcbc338e	-0.022973802
161	0x3c69d2f9	0.014271491
162	0xbc70f5a5	-0.014707004
163	0x3d03ebb7	0.032207217
164	0xbbe2be97	-0.0069196927
165	0x3d0b361c	0.03398715
166	0xbd53c1ef	-0.05169862
167	0xbca7e797	-0.020496173
168	0xbc842a0f	-0.016133336
169	0xbb99eafb	-0.0046972013
170	0xbc6c4ac7	-0.014422125
171	0x3c4a8f77	0.012363306
172	0xbcce3ea6	-0.025176357
173	0xbc409a9d	-0.011755613
174	0x3c126639	0.008935505
175	0xbc1c46b0	-0.009538338
176	0x3caedbaf	0.021344988
177	0x3b862293	0.004093477
178	0x3b85006a	0.0040588873
179	0x3b8c33ef	0.004278652
180	0xbc146a8d	-0.009058607
181	0x3c1285f6	0.008943072
182	0x3cbd35fd	0.023097033
183	0x3b8824a4	0.0041547585
184	0xbc9c611f	-0.01908928
185	0xbcd614ef	-0.026133029
186	0x3c7320b5	0.014839341
187	0xbc60c193	-0.013718027
188	0x3c0783f5	0.008271207
189	0xbc899bc8	-0.016797915
190	0xbcb77149	-0.022392886
191	0x3cb34ea7	0.02188809
192	0x3c6eae4f	0.014567926
193	0x3c4361b3	0.011925149
194	0x3c2a47d6	0.010393104
195	0x3c84e9d9	0.016224789
196	0x3c7a4e96	0.015277525
197	0x3d03dee9	0.032195006
198	0x3bc957d5	0.0061445036
199	0xbb958071	-0.0045624305
200	0xbc49e77e	-0.012323258
201	0xb977acfd	-0.00023620199
202	0x3b5bb8e3	0.003352695
203	0x3cc4692b	0.02397593
204	0xbc88c0a7	-0.016693426
205	0xbb87a01e	-0.0041389605
206	0x3842dfb8	4.646156e-05
207	0x3bdd26a5	0.0067489916
208	0xbc9237f9	-0.017848955
209	0x3b841d82	0.004031838
210	0x3c8657de	0.01639932
211	0xbc3c9f96	-0.011512658
212	0xb9efbd72	-0.0004572678
213	0x3b05fd49	0.002044516
214	0xbb80bdcd	-0.003928876
215	0x3b561db6	0.0032671518
216	0xbcda6a3b	-0.026661983
217	0xbb85bfa9	-0.0040816856
218	0xb99d45f8	-0.00029997504
219	0x3be780e7	0.007064927
220	0xbc58f2e9	-0.013241508
221	0xbc9241bb	-0.017853608
222	0xbb912acc	-0.0044301506
223	0xbbd73148	-0.006567154
224	0xbb168e3a	-0.0022972957
225	0xbc12835c	-0.008942451
226	0x3c1bfbd6	0.009520492
227	0x3b8b326d	0.0042479546
228	0xbbe21958	-0.006899994
229	0xbcd30edd	-0.025763923
230	0xbc883075	-0.016624669
231	0xbbc17661	-0.0059040044
232	0x3bfc0722	0.00769128
233	0xbcaeade6	-0.021323156
234	0xbb7a9468	-0.003823543
235	0xbb5b9134	-0.0033503296
236	0x3c27f5c4	0.010251466
237	0x3c0a95e9	0.008458593
238	0xbc559a07	-0.013037211
239	0x3c46dc43	0.012137475
240	0x3ad53075	0.0016265052
241	0x3c167703	0.009183648
242	0x3b265170	0.002537813
243	0x3c73fa18	0.01489117
244	0xbc12b258	-0.008953653
245	0xbc1eb5b6	-0.009686878
246	0x3cab46b5	0.02090774
247	0x3bbc3467	0.0057435515
248	0xbc24450b	-0.010026227
249	0x3c41a5bf	0.011819302
250	0x3c753dd8	0.014968358
251	0xbb9f6cc1	-0.0048652594
252	0x3d37793a	0.044793345
253	0x3c0cd2ea	0.008595208
254	0xbc8ee007	-0.017440809
255	0xb92eb9bb	-0.00016663123

position_embedding.weight f4 [30, 64]
0	0xbd0c8d2a	-0.034314312
1	0xbd4376a6	-0.047720574
2	0xbc43e31d	-0.0119560035
3	0x3d15c250	0.036562264
4	0xbd012577	-0.03152987
5	0xbbe89e09	-0.0070989174
6	0xbc7e2f76	-0.015514245
7	0x3c37e9b5	0.011225154
8	0x3c15c8dd	0.009142128
9	0x3c5263f4	0.0128412135
10	0xbd4037c3	-0.04692818
11	0xbd4ee130	-0.050507724
12	0x3b050a14	0.0020300196
13	0xbd402141	-0.046906713
14	0xbc5d333c	-0.013500985
15	0x3d0dbc7b	0.034603577
16	0xbd4b3c09	-0.0496178
17	0xbcdf92af	-0.027291624
18	0xbd38f108	-0.04515174
19	0x3ca3f184	0.020012625
20	0xbcddca67	-0.027074052
21	0xbd4230a7	-0.04740968
22	0x3d200b3e	0.03907322
23	0x3cdefa10	0.027218848
24	0x3cfc73a3	0.030816859
25	0xbd23ab39	-0.039958213
26	0xbd8ebf36	-0.06970064
27	0xbd4610b9	-0.04835579
28	0x3c023bf5	0.007948865
29	0xbc99af08	-0.01876022
30	0x3d40411c	0.046937093
31	0xbc79b0cf	-0.015239908
32	0xbd27523a	-0.0408499
33	0xbd4dd814	-0.050254896
34	0xbc424347	-0.0118568605
35	0xbc56a16c	-0.013100009
36	0x3d008624	0.031377926
37	0xbbddb600	-0.006766081
38	0x3cbf5b5d	0.023358995
39	0x3d0fff1a	0.035155393
40	0xbd117e01	-0.035520557
41	0x3d31b89a	0.04338894
42	0x3cb11765	0.0216176
43	0x3c8c46ba	0.017123569
44	0xbc106204	-0.008812431
45	0x3b967f91	0.004592844
46	0x3c363bff	0.011122703
47	0x3c4ddd6c	0.012564998
48	0xb93f3cb1	-0.00018237789
49	0xbd143223	-0.036180627
50	0xbce5d443	-0.028055316
51	0xbc9d79d5	-0.019223133
52	0x3c4b6029	0.012413063
53	0x3c0f321f	0.008739977
54	0xbc2d4d30	-0.010577485
55	0xbcfc4c62	-0.03079814
56	0x38f0f4ec	0.00011489712
57	0xbd091c8d	-0.033474494
58	0x3b9896d1	0.0046566506
59	0xbd7dae58	-0.061933845
60	0xbc371fb6	-0.011176994
61	0xbd552a80	-0.052042484
62	0xbd6b06a2	-0.057379372
63	0x3d2f0734	0.04273148
64	0x3c9ec7dd	0.019382412
65	0xbd2901f3	-0.041261625
66	0x3c5e43c4	0.013565961
67	0x3d01b5bd	0.03166746
68	0x3c870e0d	0.016486192
69	0xbbaf0483	-0.005341114
70	0x3cab46d2	0.020907793
71	0xbd2a0d50	-0.041516602
72	0xbc1fdf20	-0.009757787
73	0xbd345486	-0.04402592
74	0xbb0920a6	-0.0020924
75	0x3c6a5090	0.014301434
76	0xbc0b30e0	-0.008495539
77	0x3c1c17ef	0.009527191
78	0x3ca0b6c2	0.019618396
79	0x3cbca464	0.023027606
80	0xbbe33210	-0.006933458
81	0x3cc609d6	0.024174612
82	0x3cd5bd7f	0.026091335
83	0xbcf7a2be	-0.030228969
84	0xbc37b631	-0.011212871
85	0xbd2459c0	-0.040124655
86	0x3be8cfc7	0.007104847
87	0xbd0ee6bf	-0.034888025
88	0xbd09b581	-0.03362036
89	0x3aad424f	0.0013218614
90	0x3c1922f1	0.00934671
91	0xbc24b185	-0.01005209
92	0xbce2aadc	-0.027669363
93	0xbd0869db	-0.033304077
94	0xbc1fdb64	-0.009756897
95	0x3c72d0d8	0.0148203
96	0xbcbca9d5	-0.023030201
97	0x3c9b528c	0.01896026
98	0xbcad24e0	-0.021135747
99	0x3d082811	0.033241335
100	0x3cacf458	0.021112606
101	0xbc1054fd	-0.008809325
102	0x3c403f73	0.0117338775
103	0xbc56e664	-0.013116453
104	0x3c7fa9b9	0.01560443
105	0xbc99d7b9	-0.018779622
106	0x3d48113c	0.04884456
107	0xbc3a41eb	-0.011368255
108	0xbc6a86ca	-0.014314363
109	0xbd00efe9	-0.031478796
110	0xbce362bb	-0.02775704
111	0xbcd4b042	-0.025962953
112	0xbd152ec8	-0.036421567
113	0xbd09c775	-0.033637483
114	0x3d0cf8a9	0.03441683
115	0x3b76de3d	0.0037669085
116	0xbc16304d	-0.009166789
117	0xbc892683	-0.016741997
118	0x3cba040e	0.022707012
119	0xbc78bdc9	-0.015181967
120	0xbc3d601e	-0.011558561
121	0xbb33242e	-0.0027334797
122	0xbb71fa8d	-0.0036923022
123	0x3ab8cc54	0.001409898
124	0xbc21deab	-0.009879748
125	0x3ba4fa42	0.005034716
126	0xbbc437e9	-0.0059881103
127	0x3c1985e4	0.009370301
128	0x3c2296c9	0.009923645
129	0xbd31476f	-0.043281015
130	0x3cbf88a6	0.023380589
131	0x3b8e2f0c	0.0043391045
132	0x3c3a4c81	0.011370779
133	0xbd4d095a	-0.050057746
134	0x3c2df2e8	0.010616995
135	0xbcb6f071	-0.022331448
136	0xbc30db66	-0.010794496
137	0xbce71d54	-0.028212227
138	0x3ac9c78c	0.0015394553
139	0xbb9d9e04	-0.0048100967
140	0xbc6e8c9b	-0.01455989
141	0x3d3ff255	0.046861965
142	0x3c6f51aa	0.014606873
143	0xbc22a20d	-0.009926331
144	0x3caccca4	0.021093674
145	0x3c75d0f2	0.01500343
146	0xbc04901f	-0.008091002
147	0xbc8f8db0	-0.017523617
148	0x3caf4628	0.021395758
149	0xbcc0d146	-0.02353729
150	0x3d165e4b	0.03671102
151	0xbd617355	-0.05504163
152	0xbb87ce0b	-0.0041444353
153	0xbcb0ec57	-0.02159707
154	0x3cd1de15	0.025618592
155	0xbc8901ba	-0.016724456
156	0xbbd36977	-0.0064517814
157	0xbc3e4160	-0.011612266
158	0x3c9fe9d9	0.019520687
159	0x3c90fbd2	0.017698202
160	0xbcb9bedf	-0.022674022
161	0x3ccaaca2	0.02474052
162	0xbd0ec1cb	-0.034852784
163	0x3c844089	0.016144054
164	0x3d19b0ee	0.03752225
165	0x3c560a49	0.013063976
166	0xbc73fdd7	-0.014892063
167	0xbcb587a9	-0.022159414
168	0x3c8e0948	0.01733841
169	0x3c3c3995	0.011488338
170	0x3c28a598	0.010293387
171	0x3c1661a3	0.009178552
172	0xbd62e13a	-0.055390574
173	0xbce914a9	-0.028452234
174	0xbceb9386	-0.028756868
175	0xbd6422e2	-0.05569733
176	0xbd0f80fd	-0.035035122
177	0xbd1c3650	-0.038137734
178	0x3cbf37fa	0.023342121
179	0xb9dff49e	-0.00042716129
180	0xbcc17b4c	-0.023618363
181	0xbc87d503	-0.016581064
182	0x3b2ce60d	0.0026382238
183	0xbd27f587	-0.041005637
184	0xbc4dec11	-0.01256849
185	0x3bfee825	0.0077791386
186	0xbb216811	-0.0024628679
187	0xba3282dd	-0.0006809661
188	0xbd6bdb4c	-0.057582185
189	0xbc033c97	-0.008010051
190	0x3d024a39	0.031809065
191	0x3c69fa25	0.0142808305
192	0x3d19a47b	0.037510376
193	0x3cb8bc77	0.022550805
194	0x3d038363	0.032107722
195	0x3cb63a77	0.022244675
196	0x3cd4a6cc	0.025958441
197	0x3cfb8cca	0.030706782
198	0xbce57bbc	-0.028013103
199	0x3d3da180	0.046296597
200	0x3d44098f	0.04786068
201	0xbcbd5eb0	-0.02311644
202	0x3d3d91dc	0.04628168
203	0xbcbe3c41	-0.02322209
204	0xbc34b685	-0.011029844
205	0xbcd1b44f	-0.025598673
206	0xbd29b534	-0.041432574
207	0x3d4c8fc4	0.049941793
208	0xbc9c4b88	-0.019078985
209	0xbcca8e2c	-0.024725996
210	0x3cd41e93	0.025893485
211	0xbbf40a5e	-0.007447525
212	0xbd406279	-0.04696891
213	0x3d52fa20	0.05150807
214	0xbcac3ac4	-0.021024115
215	0x3cfdd4af	0.030985205
216	0xbc17be5d	-0.009261695
217	0x3cef9015	0.029243508
218	0xbd1dee21	-0.038557176
219	0x3d508919	0.050911997
220	0x3c04d0df	0.008106439
221	0xbc95023b	-0.01818954
222	0xbd2a5106	-0.041581176
223	0x3d6424f1	0.055699293
224	0xbd37740c	-0.044788405
225	0x3bf367bd	0.007428138
226	0x3d3e30b6	0.046433173
227	0xbc24d26d	-0.010059935
228	0xbd1f41d9	-0.038881157
229	0x3d6551a3	0.055986058
230	0x3d1aac11	0.03776175
231	0xbc18220e	-0.009285463
232	0x3d042c6c	0.032268927
233	0xbcd5a1b3	-0.02607808
234	0xbce1af0a	-0.027549285
235	0xbd0433a8	-0.032275826
236	0x3cc04e60	0.023474872
237	0x3d20532f	0.03914183
238	0xbca9ddfb	-0.020735731
239	0x3ce1762d	0.02752217
240	0x3cd1d22c	0.025612913
241	0x3d0871c7	0.03331163
242	0xbcb1e081	-0.021713497
243	0x3d0d4b49	0.034495626
244	0x3d331675	0.04372259
245	0xbcb9c4a0	-0.022676766
246	0x3ccbc27a	0.024873007
247	0x3d3a5cc4	0.045498624
248	0xbcd13b85	-0.025541076
249	0x3cf0d86a	0.02940007
250	0x3d16168d	0.0366426
251	0x3d3cbad3	0.046076607
252	0x3cc4b5a6	0.024012398
253	0xbd0fef8e	-0.035140567
254	0xbcac9bf4	-0.021070458
255	0x3c83b024	0.016075201

transformer.layers.0.self_attn.in_proj_weight f4 [192, 64]
0	0x3dca024c	0.09863719
1	0x3be1ad1a	0.0068870904
2	0x3da5f1ec	0.081027836
3	0xbc814120	-0.015778124
4	0x3dca764f	0.09885847
5	0xbe1581fb	-0.14600365
6	0xbdda2a41	-0.106525905
7	0x3e0ef65f	0.1396117
8	0xbe24df2e	-0.16100761
9	0x3deba43f	0.11505937
10	0x3da2ac19	0.07942981
11	0xbdf73707	-0.120710425
12	0x3d67beb8	0.056578368
13	0x3d4992fa	0.049212433
14	0x3ddeb937	0.10875171
15	0x3caae981	0.020863296
16	0x3d927714	0.071516186
17	0xbd808568	-0.06275445
18	0xbd2f1276	-0.042742215
19	0x3d417570	0.047231138
20	0xbdc0ae02	-0.09408189
21	0xbcdaceac	-0.026709877
22	0xbdacc0bb	-0.08435198
23	0x3d8e1ce1	0.06939102
24	0xbd8f974e	-0.07011281
25	0xbd33cd07	-0.0438967
26	0xbe05f8da	-0.1308321
27	0xbbbec90f	-0.005822308
28	0x3e026975	0.12735541
29	0xbbd828c0	-0.0065966547
30	0xbc0a087e	-0.008424876
31	0x3d3fdc79	0.04684112
32	0xbdfcbe79	-0.12341017
33	0xbdfb9db0	-0.12285936
34	0xbd293c53	-0.041317295
35	0xbdfdfa94	-0.124013096
36	0x3e16531d	0.14680143
37	0xbe1d4485	-0.1535817
38	0xbda6ae1d	-0.08138678
39	0x3c839f49	0.016067164
40	0xbd6164a3	-0.055027615
41	0xbdffb433	-0.12485542
42	0x3d826215	0.06366364
43	0xbd8d068e	-0.06886016
44	0xbe1523ca	-0.14564434
45	0xbdf01ab5	-0.11723844
46	0xbe0fdca7	-0.14049016
47	0xbd28181d	-0.04103862
48	0xbe05c82f	-0.13064645
49	0x3da8e1c7	0.082461886
50	0xbd866f69	-0.065642186
51	0x3e03049b	0.12794726
52	0xbd0fd6de	-0.035117023
53	0xbdb21a0d	-0.08696375
54	0xbe06194f	-0.13095592
55	0xbdfc30db	-0.12314006
56	0xbe14605b	-0.14489882
57	0x3d411660	0.04714048
58	0xbd6028fc	-0.054726586
59	0xbe10f25a	-0.1415495
60	0xbd0c538f	-0.034259375
61	0xbce63afc	-0.028104298
62	0x3e04227a	0.12903777
63	0x3d3f61da	0.046724178
64	0x3db64dec	0.08901581
65	0x3dba189e	0.090867266
66	0xbe045504	-0.12923056
67	0xbb0b8134	-0.0021286728
68	0xbe0ab27b	-0.13544647
69	0xbd7eb32d	-0.062182594
70	0x3e130b4a	0.14359775
71	0x3d5f9d10	0.054593146
72	0x3dd20b21	0.10256029
73	0x3c659138	0.014011674
74	0xbde9ee93	-0.114224575
75	0x3c1aa301	0.009438277
76	0x3d04dfdc	0.03244005
77	0xbd03f233	-0.0322134
78	0x3d9a7aa6	0.075429246
79	0x3cea907e	0.028633352
80	0x3e140c17	0.14457737
81	0x3cb5bfcb	0.02218618
82	0x3d6b0cfe	0.057385437
83	0x3c8f7e1c	0.017516188
84	0x3de27398	0.11057204
85	0xbe3bf645	-0.18355663
86	0xbdb61794	-0.08891216
87	0xbdd99add	-0.10625241
88	0xbd21d2cb	-0.03950767
89	0xbdfcbdbe	-0.12340878
90	0xbce1bed1	-0.027556809
91	0x3cb97bc0	0.022642016
92	0xbd79b7cb	-0.060966294
93	0xbe0062e6	-0.12537727
94	0x3dba1083	0.090851806
95	0xbc8a106b	-0.016853532
96	0x3dc5af30	0.09652555
97	0x3ba38347	0.0049900147
98	0xbe0bde6d	-0.13659067
99	0x3d2c0ba2	0.04200328
100	0x3de61276	0.1123399
101	0xbe140e3c	-0.14458555
102	0x3d9ed563	0.07755544
103	0xbdc080fa	-0.093996
104	0xbdbfd069	-0.09365923
105	0x3dba7983	0.09105208
106	0x3e26ea20	0.16300249
107	0xbbe427f3	-0.00696277
108	0x3d8b3bc8	0.06798512
109	0x38046665	3.1566615e-05
110	0xbd8d4e04	-0.06899646
111	0x3d71c2c4	0.059023634
112	0xbdaeebf5	-0.08541099
113	0xbd2c116f	-0.042008813
114	0x3e046c48	0.12931931
115	0x3ddacc0b	0.10683449
116	0xbd6c0bae	-0.057628326
117	0x3e116607	0.14199077
118	0x3bdb6254	0.0066950712
119	0x3c1c9320	0.009556562
120	0x3dac83f8	0.084236085
121	0xbd7ba0d6	-0.061432682
122	0x3dba0e27	0.090847306
123	0x3e0dcea8	0.13848364
124	0xbd8cdfa2	-0.06878592
125	0x3de6484f	0.112442605
126	0x3e163637	0.14669119
127	0xbe04ed5b	-0.12981169
128	0xbd6a320c	-0.057176635
129	0xbc69c34a	-0.014267752
130	0x3e2755fa	0.16341391
131	0xbdb1fcc4	-0.08690789
132	0xbd997a77	-0.074940614
133	0xbd11928e	-0.035540156
134	0x3d9ef466	0.07761459
135	0xbba0808e	-0.0048981374
136	0xbd444995	-0.047921736
137	0x3c43aeda	0.011943543
138	0x3b853e06	0.0040662317
139	0xbe0bd487	-0.13655291
140	0x3850d5ac	4.9790062e-05
141	0xbd936907	-0.07197767
142	0xbe078365	-0.13233717
143	0x3d47ec01	0.048809055
144	0xbe34c800	-0.17654419
145	0x3dcb8617	0.09937685
146	0xbe0a604e	-0.135133
147	0xbe0a2253	-0.13489656
148	0x3d9eb91a	0.07750149
149	0xbbb53454	-0.0055299196
150	0xbd253946	-0.040337823
151	0x3e0e0285	0.13868149
152	0xbe1c9d2a	-0.15294328
153	0xbd50eedf	-0.051009055
154	0xbceeea93	-0.029164588
155	0x3c594dab	0.013263146
156	0x3e024183	0.12720303
157	0xbdb86cb1	-0.09005106
158	0xbd36cb93	-0.044627737
159	0x3dece858	0.115677536
160	0x3dd75bd9	0.105155654
161	0xbcabf751	-0.020991953
162	0x3d8920f8	0.066957414
163	0xbc6d4263	-0.01448116
164	0x3d8c8df2	0.068630114
165	0xbc9d26b6	-0.019183498
166	0x3d1c92f5	0.038226087
167	0x3ce8779f	0.028377352
168	0x3e154a86	0.1457921
169	0x3d4984fc	0.04919909
170	0x3e0efa8d	0.13962765
171	0x3dd58a3b	0.10426756
172	0x3dc48916	0.095964596
173	0xbd0d948f	-0.034565505
174	0xbd68a227	-0.056795266
175	0x3db99023	0.09060695
176	0x3de2c2f7	0.11072343
177	0xbd3ac110	-0.045594275
178	0x3cb9159a	0.022593308
179	0x3e128f96	0.14312586
180	0x3de55608	0.1119805
181	0xbd23dddc	-0.040006503
182	0xbdcf9342	-0.10135509
183	0x3dbc2408	0.0918656
184	0x3c2ff191	0.010738746
185	0x3d97c082	0.07409765
186	0x3d13e0e4	0.036103144
187	0xbe144e7d	-0.14483066
188	0x3e271738	0.16317451
189	0x3c8d653c	0.017260186
190	0xbc37a0bf	-0.011207758
191	0x3e01ea5f	0.12687062
192	0x3d211bca	0.039333142
193	0x3d899b86	0.06719117
194	0x3dc99980	0.09843731
195	0x3e0c12d9	0.13679065
196	0xbc5eb924	-0.013593946
197	0x3d413142	0.047166117
198	0x3dd326a4	0.103101045
199	0xbdb2f648	-0.08738381
200	0xbcfc154b	-0.030771872
201	0xbdd6dcf1	-0.1049136
202	0x3e109e58	0.14122903
203	0x3dfcf201	0.12350846
204	0xbc90b5bb	-0.01766478
205	0xbdd6f955	-0.10496775
206	0x3d11e93c	0.03562282
207	0xbd47ecea	-0.048809923
208	0x3dbef75a	0.09324522
209	0xbd9125db	-0.070872985
210	0xbde0aec9	-0.109708376
211	0x3da4c9f9	0.08046336
212	0xbd52422f	-0.05133265
213	0xbd80f07d	-0.062958695
214	0x3e074a94	0.13212043
215	0xbdaf971d	-0.085737444
216	0xbe0591b2	-0.1304386
217	0x3cbc5437	0.022989376
218	0xbe212ea0	-0.15740442
219	0xbd89101e	-0.06692527
220	0xbdad2d2c	-0.084558815
221	0x3d5bb5a1	0.05364001
222	0x3df7c89a	0.120988086
223	0xbd1deb1b	-0.038554292
224	0xbd87b12f	-0.06625592
225	0x3dd209a8	0.10255748
226	0xbe25b449	-0.16182055
227	0xbdde9ef7	-0.10870164
228	0xbce03ff7	-0.02737425
229	0xbe1147a0	-0.14187479
230	0x3df705b6	0.12061636
231	0x3d566d6d	0.05235045
232	0xbdf5cdcc	-0.12002143
233	0xbdcadffc	-0.09906003
234	0x3dfb6d38	0.12276691
235	0x3d41c315	0.047305185
236	0x3d2752b0	0.04085034
237	0xbda2a163	-0.07940938
238	0x3db57f82	0.08862211
239	0xbdd322fb	-0.10309406
240	0xbe1056ee	-0.14095661
241	0x3d1b1ab8	0.037867278
242	0xbdbebc50	-0.093132615
243	0xbceeb62f	-0.029139606
244	0x3de5da73	0.112233065
245	0x3db83cf8	0.08996004
246	0x3dcd4130	0.10022199
247	0xbc962426	-0.018327784
248	0xbd55b291	-0.052172247
249	0xbdeef436	-0.11667673
250	0x3da4d646	0.08048682
251	0xbe06df5d	-0.13171144
252	0x3d9cdebb	0.0765967
253	0x3d2c793e	0.042107813
254	0x3e07d7f0	0.13265967
255	0xbd4088df	-0.04700553

transformer.layers.0.self_attn.in_proj_bias f4 [192]
0	0x3bfbc022	0.007682816
1	0x3b123a25	0.002231249
2	0xbadc4c8e	-0.0016807483
3	0xbac0b97d	-0.0014703717
4	0x3b2d6dc8	0.002646314
5	0xbc29485d	-0.010332194
6	0xbbd8eca0	-0.006620005
7	0xbaa674e0	-0.0012699626
8	0xbb8cb627	-0.004294175
9	0x396b8e14	0.00022464275
10	0x3b8d5d88	0.0043141283
11	0x3bdea8fd	0.0067950473
12	0x3b20f78e	0.0024561617
13	0xbc0c08c8	-0.0085470155
14	0xbb1e1619	-0.0024122058
15	0xba9be4fc	-0.0011893804
16	0xbc7afc7f	-0.015318989
17	0xbb9ae7e4	-0.0047273505
18	0x394ccaf0	0.00019530556
19	0x3bec29be	0.0072071245
20	0x3b32a248	0.0027257372
21	0x3b98b924	0.0046607424
22	0x3b928020	0.00447084
23	0xbafc3c92	-0.0019244126
24	0x3cab6bc9	0.02092542
25	0xbb69f704	-0.0035700211
26	0x3c077986	0.00826872
27	0xbc3e2d0d	-0.011607421
28	0xbc7714f1	-0.015080676
29	0xbbf013e2	-0.007326589
30	0xbbdddd04	-0.006770732
31	0x3c3e6052	0.011619644
32	0xbccba28d	-0.024857784
33	0x3cba3a78	0.022732958
34	0x3b2f2c0b	0.0026729133
35	0xbca46fd9	-0.020072864
36	0xbcd8a850	-0.026447445
37	0x3cbab68f	0.022792129
38	0xbc76fe77	-0.015075318
39	0x3bfb8c7a	0.007676658
40	0xbcd3f4e7	-0.025873614
41	0xbcbfd6e8	-0.023417905
42	0xbcd30bb9	-0.025762426
43	0xbbfdcf9f	-0.0077456976
44	0x3ccb8b37	0.024846656
45	0xbcb1f2bc	-0.02172219
46	0x3cd28723	0.025699204
47	0xbcdecfca	-0.02719869
48	0xb950932d	-0.00019891253
49	0xbbab837f	-0.0052341814
50	0x3c83f9df	0.016110359
51	0xbbd4f046	-0.0064983694
52	0x3c98ff33	0.018676376
53	0xba0fb1a8	-0.000548149
54	0xbcfe5875	-0.031048039
55	0xbd0bedce	-0.034162335
56	0xb9342ef6	-0.00017183632
57	0x3c86d1c6	0.01645745
58	0x3c300bbf	0.010744988
59	0xbd0b87cb	-0.03406505
60	0xbc98a4c9	-0.018633263
61	0xba778450	-0.00094420183
62	0x3bfe042d	0.0077519626
63	0x3cf513f7	0.029916747
64	0x341d1d34	1.4632388e-07
65	0x318db570	4.124267e-09
66	0x3396fa8f	7.030496e-08
67	0x34192cc8	1.4265527e-07
68	0xb3ccb5f5	-9.532588e-08
69	0x3440b5a4	1.7947474e-07
70	0xb5152f48	-5.557563e-07
71	0xb491e305	-2.7173533e-07
72	0xb4e9a0e9	-4.351671e-07
73	0x34af9c83	3.2710167e-07
74	0x34b79d16	3.42007e-07
75	0x3311fb31	3.39889e-08
76	0x34c5b96e	3.6829027e-07
77	0x33ff9799	1.1901938e-07
78	0x331cfb8c	3.655036e-08
79	0xb41ea2e9	-1.4774163e-07
80	0xb39076f2	-6.7271586e-08
81	0x33c8410f	9.32506e-08
82	0xb4a80f8d	-3.1303753e-07
83	0x342a5f21	1.5867091e-07
84	0x350a039a	5.1414247e-07
85	0xb3f259d0	-1.128534e-07
86	0xb503958c	-4.901892e-07
87	0xb4e7796d	-4.3115452e-07
88	0xb28fa88f	-1.6724043e-08
89	0xb36fc3bb	-5.582454e-08
90	0x337c31c2	5.8718577e-08
91	0x34a6db2f	3.1079387e-07
92	0x33e4f9a8	1.06624896e-07
93	0xb46bde16	-2.1966875e-07
94	0xb4a9a6e0	-3.160012e-07
95	0x32c100e5	2.2468564e-08
96	0x34da3bfd	4.0649311e-07
97	0xb3f7ae48	-1.15335354e-07
98	0xb4602b7e	-2.0877448e-07
99	0xb49b8290	-2.8965997e-07
100	0x33094bea	3.196684e-08
101	0x34278dd5	1.5604685e-07
102	0xb1fbe5db	-7.331193e-09
103	0x3435b3f1	1.6922401e-07
104	0xb50fa08c	-5.350528e-07
105	0xb47510c6	-2.2823505e-07
106	0xb1026bb1	-1.8978705e-09
107	0xb40e5e5e	-1.3259111e-07
108	0xb42baed6	-1.5989221e-07
109	0xb2449778	-1.14431415e-08
110	0xb53d4880	-7.051349e-07
111	0x343c49c4	1.75357e-07
112	0x32a972db	1.972642e-08
113	0x34ed6e4a	4.4224936e-07
114	0xb4b63a29	-3.394246e-07
115	0x34a8c06a	3.1432438e-07
116	0xb462f3b8	-2.1136555e-07
117	0x342264a8	1.5124044e-07
118	0x3483ee32	2.457396e-07
119	0x3494afc1	2.7695026e-07
120	0xb4c14881	-3.6001805e-07
121	0x34e0ed96	4.1896118e-07
122	0xb436bb64	-1.7018243e-07
123	0x33ce8ef3	9.618625e-08
124	0x34db35f7	4.0831193e-07
125	0xb44ef2e8	-1.9273614e-07
126	0x350af5c3	5.1766636e-07
127	0xb531ccba	-6.6235555e-07
128	0xbac9214a	-0.0015345004
129	0x3aef0e58	0.0018238528
130	0xbae309de	-0.0017321666
131	0xbb9ebf96	-0.004844616
132	0x38919695	6.942187e-05
133	0xbb7fd546	-0.0039037033
134	0xbbd15ddf	-0.006389364
135	0x3c7c799b	0.015409852
136	0xbc90ee86	-0.017691862
137	0xbbde16be	-0.0067776134
138	0x3c32bf70	0.0109099
139	0xbc192de6	-0.009349322
140	0xbb865c72	-0.004100376
141	0xbcbe920e	-0.023263004
142	0xbc7d52a2	-0.015461596
143	0x3b9c4dac	0.0047700014
144	0x3c920ce1	0.017828407
145	0x3c07c672	0.008287059
146	0xbc8a824e	-0.016907837
147	0x3b0cc89b	0.0021481875
148	0x3a0f2e34	0.0005461902
149	0xbb1c47f4	-0.0023846598
150	0xbac9cffd	-0.0015397068
151	0xbbc95a00	-0.006144762
152	0xbb18b8b7	-0.0023303458
153	0x3b93bec2	0.004508824
154	0xbc2da0e6	-0.010597443
155	0x3a504363	0.0007944612
156	0x3ae2878d	0.0017282829
157	0xbb993874	-0.004675919
158	0xba4e4894	-0.00078690914
159	0xbc814a3f	-0.015782474
160	0x3b696de4	0.0035618478
161	0x39bbf32a	0.0003584859
162	0xbb0f2dcc	-0.0021847365
163	0x3c44b0d2	0.012005048
164	0x3c1ab1f1	0.009441839
165	0xbb1b110e	-0.0023661288
166	0xbb4242d8	-0.0029641893
167	0x3c462a51	0.01209505
168	0x3b20c75d	0.0024532892
169	0x3c047250	0.008083895
170	0x3b8b8699	0.0042579887
171	0xbc15991d	-0.009130743
172	0x3c8be3d4	0.01707641
173	0x3a6760e6	0.00088263897
174	0xbc4dd590	-0.012563124
175	0xbb2334eb	-0.0024903368
176	0x3c32b3ea	0.010907153
177	0x3bf3e8e3	0.0074435337
178	0xbb21f96e	-0.0024715322
179	0xbc82af65	-0.015952775
180	0x38b0b85f	8.426676e-05
181	0xbbb74cca	-0.0055938708
182	0x3c18480e	0.009294523
183	0x3987554a	0.00025812752
184	0x39bbc260	0.0003581224
185	0xbb158cbf	-0.0022819487
186	0x3855e89b	5.0999788e-05
187	0x3cc3145e	0.023813423
188	0x3a44347e	0.00074846286
189	0xbc9c64b2	-0.019090984
190	0xbc39a328	-0.011330403
191	0x3bd494ac	0.0064874496

transformer.layers.0.self_attn.out_proj.weight f4 [64, 64]
0	0xbcadc17e	-0.021210428
1	0xbb10f32a	-0.0022117593
2	0xbc85d76d	-0.016338075
3	0x3a91d197	0.0011125085
4	0xbc8019a4	-0.015637226
5	0x3d1db504	0.038502708
6	0x3d22f851	0.039787594
7	0x3c2f0ce6	0.010684228
8	0xbd2a71bc	-0.04161237
9	0x3c6b98d5	0.0143797
10	0xbb362d14	-0.0027797865
11	0xbc7c2568	-0.015389778
12	0x3c173de6	0.009231066
13	0x3b4a2877	0.0030846873
14	0x3d17e618	0.03708467
15	0x3c815bca	0.015790839
16	0xbd2a68ca	-0.04160384
17	0xbd586fef	-0.052841123
18	0x3c8ed1d4	0.017434038
19	0x3c48be0c	0.012252342
20	0xbcd4f1d2	-0.025994215
21	0x3d69587d	0.056969155
22	0xbc71a178	-0.01474797
23	0x375de214	1.3225264e-05
24	0xbcfbe93d	-0.030750865
25	0xbb75a177	-0.0037480274
26	0x3aade8d8	0.0013268245
27	0xbcaaf4cf	-0.020868687
28	0x3c70dbda	0.014700854
29	0x3c109174	0.008823741
30	0x3c9d86fb	0.019229403
31	0x3c7533aa	0.014965931
32	0x3bc9cafc	0.006158231
33	0x3c61ddbe	0.013785778
34	0xbc4bd503	-0.012440923
35	0xbb29caa7	-0.0025908144
36	0x3bd88c5d	0.0066085295
37	0xbce2179c	-0.027599148
38	0xbcbd4c2d	-0.023107613
39	0xbcbb775c	-0.022884063
40	0x3c41092e	0.011781974
41	0x3d1096ce	0.03530007
42	0x3c4308a1	0.011903913
43	0xbbc71fea	-0.0060768025
44	0xbc227e6b	-0.009917836
45	0xbccba850	-0.024860531
46	0xbcecfcdf	-0.028929172
47	0xbc8f332b	-0.017480453
48	0x3c8c3f3c	0.017119996
49	0xb8b6c9cb	-8.716023e-05
50	0xbb93e081	-0.004512847
51	0x3cd15975	0.025555352
52	0xba9cad97	-0.0011953589
53	0xbbd37610	-0.006453283
54	0xbd0c1f29	-0.034209404
55	0x3b8725fc	0.004124401
56	0x3c15c591	0.009141342
57	0x3c10afe0	0.008830994
58	0x3d0f731a	0.03502188
59	0xbbf68e55	-0.0075242915
60	0xbc4c6494	-0.012475152
61	0x3bf89da7	0.007587153
62	0xba28a142	-0.00064327207
63	0xbb85c156	-0.0040818853
64	0xbba06fd9	-0.004896146
65	0x3ca0feb8	0.01965271
66	0xbb52684d	-0.0032105625
67	0x3d24bd9c	0.040219888
68	0xbcb5d4c8	-0.022196189
69	0xbca02699	-0.019549655
70	0x3c8e9ee3	0.017409747
71	0xbafa13cf	-0.001907939
72	0x3c052900	0.008127451
73	0xbce99626	-0.02851398
74	0xbd2d1c1f	-0.042263146
75	0xbcf65814	-0.030071296
76	0xbb228dfb	-0.0024803865
77	0xbc196412	-0.0093622375
78	0x3c9eec1c	0.019399695
79	0xbd271c61	-0.04079855
80	0xbd5009a0	-0.05079043
81	0x3c5de26a	0.013542751
82	0x3bc03104	0.005865218
83	0xbcb32e47	-0.021872653
84	0xbd998358	-0.07495755
85	0x3bc82a41	0.0061085527
86	0x3bf1e3ea	0.007381906
87	0xbd021349	-0.031756673
88	0x3bfd0b9b	0.0077223307
89	0xbd22b02b	-0.039718788
90	0x3c4b09b0	0.012392446
91	0xbc826684	-0.015918024
92	0x3b966a6c	0.004590323
93	0x3cb86ffd	0.022514338
94	0xbc9de950	-0.019276291
95	0xbc27c968	-0.01024089
96	0x3b622d97	0.0034512037
97	0x3c856a9e	0.01628619
98	0xbc212298	-0.009834908
99	0xbcfa400d	-0.03054812
100	0x3adf4edc	0.0017037052
101	0xbd1716e4	-0.036887065
102	0xbccf052f	-0.025271026
103	0x3b9c15ad	0.004763326
104	0xbc14dae2	-0.009085389
105	0x3c571856	0.013128361
106	0x3cd351a0	0.025795758
107	0xbbaeadb3	-0.005330765
108	0x3d07944d	0.033100415
109	0xbcc6e6a8	-0.024279907
110	0x3d253090	0.040329516
111	0x3bdc338b	0.0067200116
112	0x3c304b2c	0.01076011
113	0xbba4cddd	-0.0050294236
114	0xbc6d71af	-0.014492436
115	0x3d071be6	0.03298559
116	0xbc91a5c8	-0.017779246
117	0x3c5c0e28	0.0134311095
118	0x3cb8192b	0.022472939
119	0x3c0093fa	0.00784778
120	0x3d1793f2	0.037006326
121	0xbc7c26ce	-0.015390111
122	0x3b6ac658	0.0035823788
123	0x3b368592	0.002785061
124	0x3b561b87	0.0032670216
125	0xbcfec577	-0.031100018
126	0xbce228c9	-0.027607339
127	0x3c637332	0.013882445
128	0xbc655708	-0.013997801
129	0xbc38104e	-0.011234356
130	0x3ccb43a6	0.02481253
131	0xbc885a27	-0.01664455
132	0xb98fd280	-0.0002743192
133	0x3c05abb3	0.008158612
134	0x3c0c7bfb	0.008574481
135	0xbd481b82	-0.04885436
136	0x3d13573c	0.035971865
137	0x3cc983f6	0.024599057
138	0xbcc29bc1	-0.02375591
139	0x3b2557d1	0.0025229345
140	0xbaecc5f1	-0.0018064362
141	0x3c81b410	0.01583293
142	0x3c441c8b	0.011969696
143	0xbbf4d8b2	-0.007472121
144	0xbb5a4d8f	-0.0033310389
145	0xbcaeb808	-0.021327987
146	0x3a8b5637	0.0010630552
147	0x3c4fd424	0.012684856
148	0x3c2fafc1	0.010723055
149	0x3c63c685	0.013902311
150	0x3cd9172c	0.026500307
151	0x3c47a978	0.012186401
152	0xbcb2752e	-0.021784391
153	0xbd5ab791	-0.05339772
154	0x39178e19	0.00014453418
155	0xb918615c	-0.00014532119
156	0xbc8e88d3	-0.017399227
157	0x3c3d97d5	0.011571844
158	0x3c378507	0.01120115
159	0x3bdfcaa3	0.006829576
160	0xbc5023f3	-0.012703883
161	0xbb8a3a7e	-0.0042183986
162	0x3bf2588f	0.007395811
163	0xbce867ab	-0.028369745
164	0xbb82a618	-0.003987085
165	0xbbc1b0ae	-0.0059109544
166	0x3d5d25b4	0.053991035
167	0xb82e63e0	-4.157785e-05
168	0x3c35e327	0.011101521
169	0x3d1e22c7	0.038607385
170	0xbc1f2e1a	-0.009715581
171	0x3c6e8b25	0.014559542
172	0x3c20cb8f	0.009814157
173	0xbc9ff440	-0.019525647
174	0x398abeac	0.00026463473
175	0xbd43cb22	-0.047801144
176	0x3c0cd7e2	0.008596392
177	0x3b988a27	0.004655141
178	0xbb7dae04	-0.0038708458
179	0xbcb7bb39	-0.022428142
180	0xbd1ce825	-0.038307328
181	0x39e0c814	0.0004287368
182	0xbca75953	-0.020428335
183	0x3b21ba78	0.0024677794
184	0x3c877147	0.016533507
185	0xbc4a35f6	-0.012341967
186	0xbcfc2d16	-0.030783217
187	0xbcabdaff	-0.020978449
188	0xbca973cc	-0.020685099
189	0x3d31be4d	0.043394376
190	0x3cd2ebea	0.025747258
191	0xbc05b546	-0.008160895
192	0xbc6cefe4	-0.014461491
193	0x3b9d16fc	0.0047939997
194	0x3bdc4af5	0.0067228028
195	0xbb4a7d2d	-0.0030897364
196	0xbc445c97	-0.011984966
197	0xb9f9a95a	-0.00047619158
198	0xbcc2f68f	-0.023799209
199	0x3b9d8e90	0.0048082545
200	0x3ce8ecbf	0.028433202
201	0xbcf8c1e2	-0.030365888
202	0xbc5ff5b4	-0.01366942
203	0x3a8745ba	0.0010320463
204	0xbd0862a7	-0.033297207
205	0x3cb2d467	0.021829797
206	0x3c99062a	0.018679697
207	0xbc6824ed	-0.01416896
208	0xbce59e1e	-0.028029498
209	0xbc94e19b	-0.018173983
210	0x3cb33c17	0.021879239
211	0xbc4c5f38	-0.012473874
212	0xbba7c161	-0.005119488
213	0x3d46d366	0.04854145
214	0xbb80ac7b	-0.0039268113
215	0xbcbfa77f	-0.023395298
216	0x3c48df7d	0.012260315
217	0xbc40d2a0	-0.011768967
218	0x3d0cf0fe	0.034409516
219	0x3b929b26	0.0044740615
220	0xbb3f3947	-0.0029178427
221	0x3ae24ca3	0.0017265271
222	0x3c63101f	0.013858824
223	0x3c5771ae	0.013149662
224	0x3cd42692	0.025897298
225	0x3cbe8f5f	0.023261724
226	0xbc9bde18	-0.019026801
227	0xbc14f9c4	-0.009092752
228	0x3c94c042	0.018158082
229	0x3c404522	0.011735233
230	0xbc7b4239	-0.015335613
231	0x3cbd1d5c	0.023085289
232	0x3c0c8148	0.008575745
233	0x3adc6e81	0.0016817601
234	0xbca3cd55	-0.01999537
235	0x3b62e0d6	0.0034618876
236	0xbcecf4c4	-0.028925307
237	0x3b67b392	0.0035354835
238	0x3b80d98c	0.0039321836
239	0x3c43a172	0.011940347
240	0x3c05ecf6	0.008174172
241	0x3bc471f6	0.0059950305
242	0x3c4787af	0.012178346
243	0xbc900c10	-0.017583877
244	0x3ca62012	0.020278964
245	0x3bb7221d	0.0055887834
246	0xbc050ed9	-0.008121216
247	0xbcc4d17b	-0.02402567
248	0xb9f880da	-0.00047398248
249	0x3cd33e3a	0.025786508
250	0x3c538bdb	0.012911762
251	0x3c51911b	0.0127909435
252	0xbcdd7c28	-0.027036741
253	0x3d19f7ce	0.03758984
254	0x3a882ea9	0.0010389882
255	0x3babfde8	0.005248774

transformer.layers.0.self_attn.out_proj.bias f4 [64]
0	0x3b24f3c8	0.002516972
1	0xb9bddc9e	-0.00036213262
2	0x3bbf2c69	0.0058341515
3	0x3b741993	0.0037246689
4	0x3bf7209d	0.0075417296
5	0xbbed442e	-0.0072407937
6	0x3ae9bb61	0.0017832333
7	0xbba9c049	-0.005180393
8	0xbbb3b207	-0.005483869
9	0xbbb08da7	-0.00538798
10	0xbb63e954	-0.0034776526
11	0x3b8190bf	0.0039540227
12	0xbc02f569	-0.007993081
13	0x3bd93714	0.0066288803
14	0x3c0187c2	0.007905902
15	0xbc0a79e4	-0.008451913
16	0x3b87ede2	0.004148231
17	0x3c030728	0.007997312
18	0x3b949fae	0.004535637
19	0xbb8d2ff8	-0.004308697
20	0x3b5fe84f	0.0034165566
21	0xbb2b8a9e	-0.0026175152
22	0x3bf2d5bc	0.007410733
23	0xbc077384	-0.008267287
24	0xbbb3ce7f	-0.0054872627
25	0xba65cef0	-0.0008766493
26	0x3b905ed3	0.004405835
27	0xbbc4d393	-0.006006667
28	0x3b9388f9	0.0045024124
29	0xbba94781	-0.0051659946
30	0x3c0b3e64	0.008498762
31	0x3bebcf8e	0.0071963733
32	0xbb5f88db	-0.0034108672
33	0x3c031143	0.007999721
34	0xbc225371	-0.009907589
35	0x3b8656e0	0.004099712
36	0x3bb0089e	0.005372121
37	0x3ac4278d	0.00149654
38	0xbb430718	-0.0029758867
39	0xbbfd6889	-0.007733409
40	0x3bc92b4d	0.006139195
41	0xbc01698d	-0.0078987
42	0x3b623966	0.0034519075
43	0xbbafbb4e	-0.0053629046
44	0xbb9ad2e4	-0.004724847
45	0xbc03c18b	-0.00804175
46	0xbb08a9d8	-0.0020853188
47	0xbb7b4942	-0.0038343226
48	0xb981a4ca	-0.00024727575
49	0x3b8025d8	0.0039107613
50	0xba7b76f1	-0.0009592614
51	0x3c1442ed	0.0090491595
52	0xbb35919c	-0.0027705198
53	0xbb9e4bac	-0.004830798
54	0x37c5de70	2.358781e-05
55	0xbbad2201	-0.0052835946
56	0xbbc62d98	-0.0060479157
57	0x3bcb10c1	0.0061970656
58	0x3a56def4	0.0008196675
59	0xbbb8b1b6	-0.005636419
60	0xbb663e6a	-0.0035132417
61	0xbc0d8a71	-0.008638964
62	0xbaf97177	-0.0019031008
63	0x3c16eef7	0.009212247

transformer.layers.0.linear1.weight f4 [128, 64]
0	0x3d569b94	0.052394465
1	0xbcdc5972	-0.02689812
2	0x3d51ca9f	0.051218625
3	0xbae71a62	-0.0017631764
4	0xbc8f5a82	-0.017499212
5	0xbc07c543	-0.008286777
6	0xbbce0067	-0.006286669
7	0x3c56f076	0.013118854
8	0xbbdeca8a	-0.006799047
9	0xbc8c678a	-0.017139215
10	0x3c93cdb6	0.018042427
11	0x3cd020f7	0.025406344
12	0xbd6950b4	-0.05696173
13	0x3d17c37b	0.03705166
14	0x3d43d5b4	0.047811225
15	0x3d3538c8	0.044243604
16	0x3cfe5941	0.031048419
17	0xbc696e43	-0.01424748
18	0xbcfc4554	-0.030794777
19	0xbcbfe765	-0.023425767
20	0x3d47d735	0.04878922
21	0xbb47fefc	-0.0030516973
22	0x3d18575e	0.037192695
23	0xbc88cd08	-0.016699329
24	0xbd4a5b93	-0.04940374
25	0x3c4d7ddc	0.012542214
26	0xbc32efa5	-0.0109213935
27	0xbd1eaadc	-0.038737163
28	0xbd820b2e	-0.063497886
29	0xbba0f633	-0.0049121617
30	0x3c355070	0.011066541
31	0xbcd6f474	-0.026239611
32	0xbc831d79	-0.016005265
33	0x3d28794e	0.04113131
34	0xbcd36c2d	-0.025808418
35	0x3d16d069	0.03681985
36	0x3ca1c87f	0.019748924
37	0xbccdf335	-0.025140384
38	0xbb332b1c	-0.0027338928
39	0x3baba094	0.0052376483
40	0x3c4cd35a	0.012501562
41	0x3b4286f7	0.0029682496
42	0x3d0c3702	0.034232147
43	0x3b6cd4e0	0.0036137626
44	0xbcfdbc24	-0.030973502
45	0x3bc19aa9	0.0059083295
46	0xbd132b10	-0.03592974
47	0xbb012a8a	-0.0019709193
48	0x3d3a00c6	0.045410894
49	0x3c08513c	0.008320149
50	0x3cf9c4b0	0.030489296
51	0x3cc6e28c	0.024277948
52	0xbd2b1fd2	-0.041778393
53	0x3c3b3d81	0.011428238
54	0x3c234892	0.009966033
55	0xbcc9d7e4	-0.024639077
56	0xbb72e1fb	-0.0037060964
57	0xbc4f1c9e	-0.0126411
58	0xbbd6f88d	-0.0065603913
59	0xbc888127	-0.016663147
60	0xbcef8c86	-0.029241811
61	0xbd2d45f8	-0.042303056
62	0x3cf74cb1	0.030187936
63	0xbc17d96f	-0.009268149
64	0x3c28363f	0.0102668395
65	0xbadde3dc	-0.0016928869
66	0x3c0ac37f	0.008469461
67	0x3d20feba	0.039305426
68	0x3c156b7d	0.0091198655
69	0xbd1c9f87	-0.038238075
70	0x3d19c9cd	0.037545968
71	0xbd2c048c	-0.041996524
72	0xbcdae09b	-0.026718428
73	0xbc922087	-0.017837776
74	0x3ce07a73	0.027402138
75	0x3c2335de	0.009961573
76	0xbd6e9004	-0.058242813
77	0x3d27c147	0.040955808
78	0xbc369c52	-0.011145668
79	0x3b8b801c	0.004257215
80	0x3d04e5dc	0.032445773
81	0x3c3b2bbd	0.011424002
82	0xbd0d195f	-0.034448024
83	0xbcdbafc9	-0.02681722
84	0x3c2d50f8	0.0105783865
85	0xbca9ee3a	-0.020743478
86	0x3d4fe54b	0.05075578
87	0xbd443a4e	-0.047907166
88	0xbc9ed83f	-0.019390224
89	0xbc609ac0	-0.01370877
90	0x3cb8e941	0.022572162
91	0x3c5a4e2f	0.0133243045
92	0xbd1c613d	-0.03817867
93	0xbc5fa669	-0.013650515
94	0xbc8fb00b	-0.017539999
95	0xbb3570d9	-0.002768567
96	0xbc84a32f	-0.016191093
97	0x3cc854de	0.02445453
98	0xbd8b1607	-0.06791311
99	0x3ce632f2	0.028100464
100	0x3cae6031	0.021286102
101	0xbd02fc00	-0.031978607
102	0xbc0d99a9	-0.0086425925
103	0x3b9a8f8a	0.004716818
104	0x3ac99aa9	0.0015381175
105	0x3b48d1bb	0.0030642587
106	0xbc0bf252	-0.00854166
107	0x3d1bab94	0.038005427
108	0xbcc34f47	-0.023841513
109	0xbcdaf8f3	-0.026730036
110	0xbd15e0bf	-0.036591288
111	0x3b20de26	0.0024546473
112	0xbd10cc1f	-0.035350915
113	0xbd04709d	-0.03233396
114	0x3d4d6899	0.05014858
115	0xbc4e687e	-0.012598155
116	0x399302d8	0.00028040144
117	0x3c9e9f53	0.019363081
118	0xbce3ebc6	-0.027822386
119	0xbd8ec35d	-0.06970856
120	0xbd52046c	-0.05127375
121	0xbc4ce074	-0.012504686
122	0x3c728da3	0.014804277
123	0x3d6caca8	0.057781845
124	0x3c48b7fa	0.012250895
125	0x3cad953f	0.02118933
126	0x3cf64267	0.03006096
127	0xbd1b2631	-0.03787822
128	0x3c1537d1	0.009107546
129	0x3c62028f	0.013794555
130	0x3c85234b	0.01625218
131	0xbd022ec8	-0.031782895
132	0xbcb32a2a	-0.021870691
133	0xbce5227f	-0.02797055
134	0x3c866799	0.016406821
135	0x3c6d7d74	0.014495242
136	0xbb36e2a4	-0.0027906084
137	0x39b3e74a	0.00034313864
138	0x3d541540	0.051778078
139	0xbb3826c1	-0.002809927
140	0x3af972b0	0.0019031372
141	0x3c2d2d1b	0.010569836
142	0xbcf0fd08	-0.02941753
143	0xbc1e4b5a	-0.00966152
144	0x3ca794aa	0.02045663
145	0xbc596260	-0.013268083
146	0xbd5a61a3	-0.05331577
147	0x3cb0e05f	0.021591363
148	0xbd0b9a0a	-0.03408245
149	0x3d5f1f8d	0.05447345
150	0xb978e204	-0.0002373532
151	0xbca07667	-0.019587709
152	0xbcaad13e	-0.020851728
153	0x3c6c5873	0.014425385
154	0xbcdfc54b	-0.027315756
155	0x3cdfbeca	0.027312655
156	0xbb5ec396	-0.003399109
157	0x3ab1fca4	0.0013579321
158	0xbd2364f1	-0.039891187
159	0x3da58d8c	0.080836385
160	0xbbcd7ca7	-0.0062709632
161	0xbd6cfca5	-0.057858128
162	0xbcc6bef5	-0.024260977
163	0x3ba37597	0.004988383
164	0xbd0ebe80	-0.034849644
165	0x3bc5677e	0.0060243
166	0xbb98c979	-0.0046626893
167	0xbc804237	-0.015656574
168	0xbc32e81a	-0.010919595
169	0x3c16df16	0.009208461
170	0xbd15312e	-0.036423855
171	0xbc8fc671	-0.017550679
172	0x3c03b4de	0.008038728
173	0x3bd75477	0.0065713483
174	0xbc0ccfc9	-0.008594462
175	0x3cd815e4	0.026377626
176	0x3c48473c	0.012224015
177	0xbbbe9d93	-0.005817124
178	0xbc455da3	-0.0120462505
179	0x3c58896f	0.0132163605
180	0x3cf5c2f9	0.030000197
181	0xb9cdb1ea	-0.00039233203
182	0x3cf70eef	0.030158488
183	0x3c8af6e9	0.016963439
184	0xbc25ea44	-0.010126654
185	0xba4682cf	-0.00075725926
186	0xbced2567	-0.028948499
187	0xbb982ad3	-0.004643777
188	0xbce4b2e7	-0.027917339
189	0x3d10db02	0.035365112
190	0xbd1a567f	-0.037680145
191	0x3c006a8b	0.007837902
192	0x3d0feb24	0.035136357
193	0x3c714bf2	0.014727579
194	0x3d56a2c0	0.052401304
195	0xbc04927a	-0.008091563
196	0x3c2a2b42	0.01038629
197	0xbc960e96	-0.018317502
198	0x3d60876e	0.054816656
199	0xbcf2f37d	-0.02965712
200	0xbd506365	-0.05087604
201	0xbd3930cf	-0.045212563
202	0xbca48236	-0.02008162
203	0x3d3499fd	0.044092167
204	0xbcd5ffe4	-0.026122995
205	0x3bcabe25	0.006187218
206	0x3babfe9a	0.0052488567
207	0xbcddef2b	-0.027091583
208	0xbcc363e2	-0.023851339
209	0xba6c68f7	-0.00090183265
210	0x3d56d7a6	0.052451752
211	0x3afd36d1	0.0019318705
212	0xbc418482	-0.0118113775
213	0xb9e7d924	-0.00044221536
214	0x3ccbf2f7	0.024896128
215	0xbd64cffa	-0.055862404
216	0xbd523bf3	-0.051326703
217	0xbc82de8f	-0.015975265
218	0x3cf4340a	0.02980997
219	0x3ce302e9	0.027711349
220	0xbc94a3f4	-0.018144585
221	0xbc21d37f	-0.009877085
222	0x3c7b8202	0.0153508205
223	0xbd2c39dd	-0.04204737
224	0xbbb49374	-0.005510742
225	0xbcc2f870	-0.023800105
226	0xbcbd19d4	-0.023083605
227	0x3d0ec389	0.034854446
228	0x3d31d346	0.043414377
229	0xbcb81e9f	-0.022475539
230	0xbb9affc7	-0.004730198
231	0x3bda3d37	0.0066601294
232	0xbc917154	-0.017754234
233	0xbcd556cb	-0.026042363
234	0x3c4983fc	0.012299534
235	0x3d43553e	0.047688715
236	0xbc033831	-0.008009003
237	0x3a825611	0.0009943863
238	0xbd21822d	-0.039430786
239	0xbd6254d1	-0.05525667
240	0xbd4ba2ae	-0.04971569
241	0xbcb2b2bc	-0.021813743
242	0x3d221a8c	0.0395761
243	0x3cb182a2	0.021668736
244	0xbd09cb35	-0.03364106
245	0x3d1d0647	0.038336065
246	0xbc559ab9	-0.013037377
247	0x3cafb191	0.021446975
248	0xbc571fba	-0.013130123
249	0xbc92d150	-0.017922074
250	0x3cf3c355	0.029756228
251	0xbcdeec91	-0.027212413
252	0x3d124096	0.035706125
253	0xbbc55550	-0.006022133
254	0x3d269269	0.04066697
255	0x3ba808b2	0.0051279897

transformer.layers.0.linear1.bias f4 [128]
0	0xbb22510d	-0.0024767548
1	0x3bb28dbb	0.0054490245
2	0xbc35e277	-0.011101357
3	0x3cfd2612	0.030901942
4	0x3b46554a	0.0030263239
5	0x3ba317aa	0.004977186
6	0x3bd596ad	0.006518206
7	0x3ba78262	0.0051119784
8	0x3c4333af	0.011914178
9	0x3b301f38	0.0026874077
10	0x3c902c31	0.017599197
11	0xbc459cfb	-0.012061353
12	0x3b88a53c	0.004170088
13	0xba81fe19	-0.0009917646
14	0x3c2b7c5b	0.01046666
15	0x3c30528f	0.010761871
16	0x3bcd6ba2	0.0062689343
17	0x3be865ee	0.007092229
18	0x3bb05f07	0.005382422
19	0x3c9e00a4	0.019287415
20	0x3b62f40b	0.0034630324
21	0x3c80f74e	0.015742924
22	0x3bd373f3	0.006453031
23	0x3ba6208a	0.005069797
24	0x3c3a1815	0.011358281
25	0xba5a8f70	-0.0008337414
26	0xbb7d630c	-0.0038663773
27	0xbc4d0f86	-0.012515908
28	0x3b851b38	0.0040620826
29	0x3b31aa1f	0.0027109457
30	0xbc29589c	-0.0103360675
31	0x3bc63056	0.0060482426
32	0xbb03a319	-0.0020086227
33	0xbcf33587	-0.02968861
34	0xbbea1342	-0.007143409
35	0x3ba5b661	0.0050571417
36	0xbc3b585b	-0.01143464
37	0x3bd3c5a2	0.0064627687
38	0xbc2f656a	-0.010705331
39	0xbba7787c	-0.0051107984
40	0x3a9b9f6a	0.0011873071
41	0xbb1fbe45	-0.0024374884
42	0x3c41a8cd	0.01182003
43	0x3c32994e	0.0109008085
44	0x3c41dbd4	0.011832196
45	0x3b33e7b4	0.0027451338
46	0xbca19429	-0.019723969
47	0x3b84331f	0.0040344144
48	0x3c3f372a	0.011670867
49	0x3c107cbb	0.008818801
50	0x3b5feac1	0.0034167024
51	0xb939abc6	-0.00017706965
52	0x3c8c8f2a	0.01715811
53	0x3c935ab5	0.017987588
54	0x3ba8476f	0.0051354687
55	0x3c053cb9	0.008132153
56	0x3bf2bf17	0.0074080336
57	0x3b715da2	0.003682949
58	0xbb387884	-0.0028148005
59	0x3bbcbf61	0.005760119
60	0x3b148700	0.0022663474
61	0x3c1a918a	0.009434113
62	0x3b0b42ca	0.0021249526
63	0xbc03e085	-0.008049135
64	0x3c01226f	0.007881745
65	0xbc01b4d2	-0.007916646
66	0x3b66e659	0.0035232513
67	0xbbec8f96	-0.007219265
68	0x3c91fd44	0.017820962
69	0x3bbee09c	0.0058251154
70	0x3ba38ea2	0.0049913684
71	0xbc171849	-0.009222099
72	0x3bb65957	0.0055648494
73	0xbb122662	-0.002230071
74	0xbb3b000a	-0.0028533959
75	0x3c3ce03f	0.011528074
76	0x3ba11b21	0.004916564
77	0x3c47b490	0.012189046
78	0x3b41faaa	0.002959887
79	0x3b66c2c2	0.00352113
80	0xbcbf8857	-0.023380442
81	0xba14dade	-0.00056783657
82	0x3b69e9df	0.0035692377
83	0x3c68add3	0.014201599
84	0x3c1e67d3	0.009668308
85	0x3bd29cba	0.0064273747
86	0xbc69e520	-0.014275819
87	0x3bb96c9b	0.0056586987
88	0x3c03f566	0.008054113
89	0x3b15e827	0.002287397
90	0x3b94d3f7	0.0045418697
91	0x3b680f7d	0.0035409622
92	0xbc8c31f6	-0.017113667
93	0x3c5cbe32	0.0134730805
94	0x3c1e4553	0.009660083
95	0x3c064b8e	0.008196725
96	0xb9938f63	-0.00028144856
97	0x3c0cbc35	0.008589794
98	0x3b3e3548	0.0029023457
99	0xbc1c2463	-0.00953016
100	0xbc80677d	-0.015674347
101	0x3c150089	0.009094366
102	0xbcac6a34	-0.021046735
103	0x39d16ab3	0.00039943084
104	0x3b40b3ee	0.0029404121
105	0x3c8a74f6	0.016901474
106	0xbca0adfd	-0.019614214
107	0x3baf4718	0.005349051
108	0x39f43c71	0.0004658434
109	0xbc6c055e	-0.0144055765
110	0xbbf9015e	-0.00759904
111	0xbb98506b	-0.0046482584
112	0xba125c8f	-0.00055832503
113	0x3c99339d	0.018701369
114	0xbb2992d2	-0.0025874865
115	0x3c2c83df	0.010529487
116	0xb8e6dad5	-0.00011008015
117	0x3bd6887c	0.006547032
118	0x3ba4ce85	0.005029502
119	0xb6ffedc6	-7.6272727e-06
120	0x3c46186f	0.012090786
121	0x3b820ae9	0.0039685857
122	0xba212881	-0.0006147698
123	0x3c459e92	0.012061732
124	0x3c1ef01f	0.009700804
125	0x3c5ce791	0.013482944
126	0xbb18f8df	-0.0023341698
127	0x3c57865a	0.0131545905
