marble_model/best_model_v3.0_20250531_005443.pt (torch, 295593 bytes, 30 tensors)

token_embedding.weight f4 [13, 64]
00000000: 1c4d cebb 5c4d 483c fc91 113d 6c93 a1bb
00000010: 4c5d da3c eb9b 86bc 2812 0fbd 9da7 fc3b
00000020: 79c1 423d 5620 99bc 5d77 2f3d b2f1 3c3d
00000030: 2263 a0bc f9a8 583c efcb d13c 20f7 1fbc
00000040: e4dd 503c 518c 1fbd c539 b4bc 9b75 3f3c
00000050: 57d0 363c a8f7 923c cd3e c0bc f131 143d
00000060: 55cc 65bc 3b86 503c b9a4 aebc ce0f aa3c
00000070: d998 feba 380f 9d3b 5b5a 4a3b de6d 5b3c
00000080: 1108 1c3d a0c0 1b3d c5c2 3e3d d15d 9d3c
00000090: 7d0b ec3a aaab b33b 6b19 96ba 644f b83c
000000a0: 3c16 313d 24c6 243d 7442 e73c ca9f 03bc
000000b0: 00b5 76bc 4a3e 9abb 010d bc3b 55e1 f73b
000000c0: 73d1 163c e703 8d3c bec1 f7bb 666f fe39
000000d0: c453 543d 0250 313c 3ecb 40bc 2595 a9bb
000000e0: 470a bebc e70c c8bc 432d 163d a1fa 26bd
000000f0: 6b6f 04bc cbcb 29bc dfc2 11bd a1d9 fcbc
00000100: 45aa 033d 6c08 90bc 0144 913c 0311 1f3d
00000110: f57a b7bc 1d56 fd3c c69a 763c 1a2a d43c
00000120: 5851 0fbd 80b4 09bd 9c18 9c3b 88f0 9f3c
00000130: 9899 81bd a6c1 673c ef50 d0bc b7fc 36bb
00000140: 638e d83c faa9 bebc f7b6 143d 7b46 d13c
00000150: 23bc 6ebc a9ef 30bd 6f10 1d3d 883f bbbc
00000160: a034 903c e0c7 06bd 2047 3abd 8d9b a8b9
00000170: 9b5f 2ebd b678 2d3d 5ba0 9cbc b10e 373d
00000180: 6f21 d9bc 351b b83c 229f f53c c306 8abc
00000190: 8973 a8bc 40a0 b1bc 6bcc 233d bfbe 2abd
000001a0: 6fd0 17bd 83df 9dbb d720 243d 4e65 9cbb
000001b0: 69f7 e03c e2c3 0bbd f193 4cbc 8c20 55bd
000001c0: b301 1bbb 193b 033d 6cc1 be3b 4015 4abc
000001d0: 2d41 943c 7491 b2bb 4c04 90bc de51 d0bc
000001e0: 172c 27bc 0659 fd3c eb8d 333d 1ae1 073c
000001f0: 0160 febc 427a bb3b d9ab 26bd 81e6 963c
00000200: fdb3 603c 9859 90bc a92b 06bb b2a1 f13c
00000210: 9921 f6bb 5198 a33b a602 dabc 6dc0 15bd
00000220: 17c8 873c e66a efbc 9374 9f3c a5ae 813c
00000230: 2d09 163c b782 f23c c073 ec3b 47d6 03bd
00000240: 26e2 1bbc 10bd 343c 2e38 cb3c 4599 27bd
00000250: ac01 e6bc c95c 983b 2e85 9bbc 5394 4c3c
00000260: f50f ffbb ec00 543b 2138 333d 06ca 05bc
00000270: bafe 1f3c 417f 1cbc 38d4 43bc cf45 8a3a
00000280: 0fae 573c 81f5 28bc 0b8c 0a3d 3cb6 e23b
00000290: aa41 ae3a f9a9 293d 5e55 473c 2b37 dc3b
000002a0: ebe2 23bd 0bbd 143c d293 84bc 764f 893c
000002b0: 9738 0f3a 662f 453c 3420 963c 9ff9 09ba
000002c0: 8b39 983b 120d c13c dc9c 08bd 7e5b b3bc
000002d0: 3572 493a 57fe b33b c25b 643c a671 21bb
000002e0: 996b 85bc c385 fabb a9e0 1dbd 5291 a23c
000002f0: 1b61 093a efbd 7a3a 9d64 8f3b c299 09bc
00000300: d4cc 4ebb 9aa7 283d c279 c3bb f186 763c
00000310: 2517 d63c 2da1 98bc 150a 393c 50fc 013c
00000320: 17ed 833c ea1b 72bb 8bc4 1bbc 1196 3f3c
00000330: c513 e1bb 6b9c 993b 43d4 30bc 5f62 453c
00000340: 516e b8bc a361 0a3d d0e5 ac3c d76b 1ebc
00000350: e638 e1ba 9ef4 063d f06f cf3a 91fe c93b
00000360: ec1a 2cbb 8e43 c83c 6fd8 cc3b 100d ba3c
00000370: 9d80 8c3c 4ed5 7b3c 794b fa39 0cad b8ba
00000380: 0499 b33c 8808 3a38 96b8 5bbc b65d 3bbc
00000390: f334 8c3c 3ce5 3d3b be0d e7bb 43ac d1bb
000003a0: dd56 943c 55b4 9dbc d175 28bc d603 d1bb
000003b0: 2dc3 a3bc d06b 08ba 6dd7 29bb 23b2 4ebc
000003c0: 704a 033d 8261 9fbb bd69 bbbc 9d00 ce3a
000003d0: 9cc8 f8bb 4c72 ae3b e507 0b3c 6297 cf3c
000003e0: 5948 0b3d 2795 f8bb daf3 883b 432f a2bc
000003f0: 04b6 0a3c 426b 35bc e39b 8fbc f463 5abc
-0.0062958132 0.012225475 0.035539612 -0.004930904 0.026655816 -0.01643177 -0.034929425 0.0077104107
0.04754779 -0.018692177 0.042838443 0.046128936 -0.01957852 0.01322388 0.025609938 -0.009763509
0.012748215 -0.038952176 -0.022000203 0.011685754 0.0111580705 0.017940357 -0.023467446 0.03618044
-0.014025767 0.012727316 -0.02131878 0.02075949 -0.0019424214 0.004793074 0.003087661 0.013392894
0.03809363 0.0380255 0.046572465 0.019209774 0.0018008795 0.0054831104 -0.0011451667 0.022498794
0.043234095 0.040228024 0.02822993 -0.008033702 -0.015057802 -0.0047071325 0.005738855 0.0075647035
0.00920521 0.017213775 -0.0075609377 0.00048529654 0.051837698 0.010822298 -0.011767207 -0.00517525
-0.02319826 -0.024420215 0.03666426 -0.040766362 -0.008083205 -0.010363529 -0.035586234 -0.030865492
0.032144804 -0.01758214 0.017732622 0.038834583 -0.022397498 0.030924851 0.015051549 0.025898982
-0.034989685 -0.033619404 0.004763676 0.019523874 -0.06328124 0.0141452905 -0.025429217 -0.0027921626
0.026435083 -0.02327441 0.0363073 0.025546303 -0.0145712225 -0.043197308 0.03834575 -0.022857442
0.017603219 -0.03290546 -0.045477986 -0.0003215935 -0.042571645 0.042351447 -0.019119432 0.044691745
-0.0265052 0.02247391 0.029983107 -0.016848927 -0.020562904 -0.021682858 0.03998987 -0.041685816
-0.037064012 -0.0048179044 0.04007038 -0.0047728186 0.027461724 -0.034122355 -0.012486444 -0.052032992
-0.0023652136 0.03203878 0.0058213975 -0.012334168 0.018097484 -0.0054494683 -0.017580174 -0.025429662
-0.010203383 0.030926239 0.043836515 0.0082934145 -0.031051638 0.0057213614 -0.04069123 0.01842046
0.013714788 -0.017620847 -0.00204728 0.029496048 -0.0075113294 0.0049925228 -0.026612591 -0.036560465
0.016574902 -0.029225778 0.019464767 0.015830347 0.009157461 0.029603345 0.007215947 -0.032186773
-0.009514367 0.011031404 0.024807062 -0.040917654 -0.02807697 0.0046497327 -0.018984403 0.012486535
-0.0077838846 0.0032349182 0.0437547 -0.008165842 0.009765321 -0.009551824 -0.011952452 0.0010549369
0.013164057 -0.010312439 0.03382496 0.0069186967 0.0013294716 0.041421864 0.012166349 0.0067204437
-0.040011328 0.0090782745 -0.016183767 0.016761523 0.00054634496 0.012035226 0.018325903 -0.00052633317
0.0046455315 0.023565803 -0.033352718 -0.021894213 0.00076845597 0.005492966 0.013937892 -0.002463439
-0.016286658 -0.00764534 -0.03854433 0.019844685 0.0005240605 0.00095650455 0.0043760077 -0.008398475
-0.0031555193 0.041175462 -0.0059654424 0.015046821 0.026134083 -0.018631542 0.011293908 0.007933691
0.016104264 -0.0036942908 -0.009507309 0.011693493 -0.006868812 0.004687836 -0.010792795 0.012047379
-0.02251354 0.03378452 0.021105677 -0.009669266 -0.0017183095 0.03294813 0.0015826207 0.00616438
-0.0026261164 0.024446275 0.006251387 0.022711307 0.017151171 0.01537068 0.00047739947 -0.0014089658
0.02192355 4.43538e-05 -0.013410708 -0.011435917 0.017115092 0.0028975746 -0.0070511987 -0.006398709
0.018107826 -0.019251028 -0.010281996 -0.006378631 -0.019990528 -0.00052040536 -0.0025915757 -0.012615713
0.03205341 -0.0048639188 -0.022877568 0.0015716736 -0.007592274 0.005323684 0.008485769 0.02534074
0.034004543 -0.0075861397 0.00417946 -0.019797927 0.0084662475 -0.011072936 -0.017530387 -0.013329495

position_embedding.weight f4 [30, 64]
00000000: 93fa 113d af18 2dbd eaf4 46bb 81d8 b0b9
00000010: 83a9 bdbc 2243 363c 81e2 303d 1823 b8ba
00000020: 1afb a0bc 91ba cfbc d5b7 1c3d 30b6 ba3c
00000030: d30d 1bbd 9970 7dbd 5401 df3b 069f b93c
00000040: 56f9 0c3d 3cc6 a9bc 17be 0a3d 9500 943c
00000050: 19ff 8d3c 4c11 853b af6c 6ebc 7206 4f3c
00000060: 0905 c83b e787 f5bc 2aa2 28bd 8538 533d
00000070: a67e bdbb 08b8 043c a36c cfbc 3bbd 0f3d
00000080: dd3e b4bc d879 783d b4f8 f13b 365f 913b
00000090: 2ade f3bc 854b 0cbd d915 213c 9a95 b4bc
000000a0: d36d f2bc 4853 363d 9d61 813c 5807 3f3c
000000b0: c80f 973a 90fa 74bd 477d 343d aeef 6ebb
000000c0: e564 31bd 6c47 183c 2ad2 90bd 2415 b8bc
000000d0: c9fa 92bd 3b2a 24bd cb5f 27bd 2388 25bc
000000e0: 2ac7 093d 9468 583c 1181 6bba ff00 3f3d
000000f0: 697e 6abc b042 043c bc3d 11bd 5ea2 6c3c
00000100: 94a0 9a3c 1189 963c 3725 0bbd 28f5 103c
00000110: b962 803c 2373 df3c 80b0 b7bc 3c6e de3c
00000120: 03d4 a03c 872f f13c ef06 a1bb f268 c3bb
00000130: b2fe 5dbc e6b2 3cbd 869b 9b3c 79fe 2fbd
00000140: ab29 9cbc 2724 f33b 971e 65bc 281b 563c
00000150: 79f5 413c ceff 63bc 86f3 b73a 78a0 673c
00000160: f5eb a2bc e6d1 6abc 797f 9dbc ed4f 8bbc
00000170: f175 b73c d1ce 2abc f738 c53a 1cc4 ad3c
00000180: 8540 b1bc aa00 f53b 3e03 eabc f0a2 e9bc
00000190: a5db 303d c640 c23b 64e0 8e3b e638 f93c
000001a0: a128 a63c e94f 783b da65 10bc bb48 03bd
000001b0: 9faa f9bc 0a30 2abc 4f80 04bd a483 1d3c
000001c0: 520b 15bc d80f d1bc e71a 2abb 5dba 903c
000001d0: a2c7 e2ba b92b a43c e150 3a3b b685 bc3b
000001e0: 216e e0bc 49e4 08bd 5ae4 f7bc 37bb d1bc
000001f0: 347d bd3c 63ac f1bc b51e 5c3c 664a 0ebc
00000200: 920b bc3c c343 7e3c 67db 32bd 00ae e4bb
00000210: 77d2 0e3c a13f 86bb c985 14bd 5b90 2f3c
00000220: 7470 cd3b f766 f73c 9077 ba3b ce24 85bc
00000230: 5ac3 db3b 15a3 fbbc 4e9d 293d d298 c2bc
00000240: 7118 5b3b b06f 0ebb c33f 02bd be3d 8abb
00000250: bf45 96bb d983 80bc e4e3 ccbc 8fd4 613c
00000260: e669 d1bc 1147 fabb 174e a3bc f61a 63bd
00000270: 88bc 223d 4767 c1bc 5ba0 95bb 32b7 b83c
00000280: 59d4 e9bc dafd dc3c 45d1 f039 b1cc dcbc
00000290: 6e91 903c 304c babc 1495 f1bb c348 193d
000002a0: ef80 83bc 70b0 0b3d b926 48bb 856d 96bc
000002b0: 433c 223c e941 5cbb 51a2 3abc 10c9 383d
000002c0: 164b 10bd 8e60 53bb c9db 0b3d b1c4 2c3d
000002d0: 8ec1 16bc dba3 993c 7e0f be3c ce3e 47bc
000002e0: 1a84 45bd 1252 98bc 1197 f6bc 4061 a53b
000002f0: 2ae2 283d c7f7 02bd 2f32 063d 027b 16bc
00000300: 5ce2 53bd 88a5 e5bc a2be 513d b6c5 30bd
00000310: ad74 b3bc 6315 cbbc a4cf df3c d4a1 fab9
00000320: 227f 323c 2ee1 80bb 0e67 edbc 7991 7f3c
00000330: d850 cbbc a262 3c3d 115c 4ebd 53ef 923c
00000340: 0c37 4c3c eb0c d3bc a0c5 ce3c 2f10 45bd
00000350: 5d12 3e3d f26c ac3c 5b96 283d d376 fe3c
00000360: 14e2 10bd 3076 d93c 249c a3bc 8436 233c
00000370: c6fb 10bd 053e 263d ff6a 393d 9d08 e23c
00000380: 63bc 2f3d 63b0 1ebd 0258 08bd 5e87 513d
00000390: c507 33bd f132 143d f72c 84bc 85b2 493b
000003a0: 207e 4d3d bddf e4bc 2952 51bd 0f37 70bc
000003b0: b9b2 69bd c076 ec3c a87b b73c c93b 46bd
000003c0: 70f6 0c3d 6434 49bd 4cc6 843c f31d d3bc
000003d0: aa19 003c 7a18 42bc daf1 68bd 6ad0 e73c
000003e0: b9ea f43b c2fd 30bd f6ac b8bc de88 2cbd
000003f0: 0dde bb3c 484f 6dbc dd11 19bd fb0c 47bc
0.035639357 -0.04225987 -0.0030358383 -0.00033730644 -0.023152119 0.011124404 0.04318476 -0.0014048545
-0.019650985 -0.025357516 0.038261253 0.022791952 -0.03785498 -0.06187496 0.0068055782 0.022658836
0.034417473 -0.020724408 0.03387269 0.018066684 0.017333554 0.0040609 -0.014552279 0.012635814
0.006104116 -0.02997203 -0.041170277 0.051567573 -0.00578292 0.008100517 -0.025320357 0.035092574
-0.022002632 0.060663074 0.007384384 0.004436399 -0.029769022 -0.03425171 0.009831869 -0.022043992
-0.029593384 0.044513017 0.015793616 0.011659466 0.0011525089 -0.059809268 0.044064786 -0.0036458778
-0.04330911 0.009294372 -0.070713356 -0.022471018 -0.0717674 -0.040079337 -0.04086284 -0.010103258
0.033637203 0.013208527 -0.0008983771 0.04663181 -0.014312365 0.00807254 -0.035459265 0.014443008
0.018875398 0.018375905 -0.033971038 0.008847512 0.015672075 0.027276581 -0.022423029 0.027152173
0.019632345 0.029441608 -0.0049141566 -0.005963438 -0.013549494 -0.04606905 0.018995058 -0.042967293
-0.019062838 0.007420081 -0.013984344 0.013067998 0.01183831 -0.013915969 0.0014034368 0.01413738
-0.019887904 -0.01433227 -0.019225823 -0.017005885 0.022395106 -0.010425285 0.0015046884 0.021211676
-0.02163721 0.007476886 -0.028566 -0.028520077 0.04317822 0.0059281318 0.0043602455 0.03042264
0.020283045 0.0037889427 -0.008813346 -0.032051783 -0.030476866 -0.01038743 -0.032348927 0.009613905
-0.009096937 -0.02552025 -0.0025955976 0.01766699 -0.0017301927 0.02004038 0.0028429555 0.0057532443
-0.027396264 -0.033420835 -0.030260254 -0.025601966 0.02313099 -0.029501146 0.0134350555 -0.00868473
0.022954736 0.015519085 -0.04366627 -0.00697875 0.008717171 -0.0040969406 -0.0362604 0.010715569
0.006269509 0.030200465 0.0056905225 -0.016252901 0.0067066373 -0.030717412 0.041409783 -0.023754511
0.0033431316 -0.0021734051 -0.03179909 -0.004218786 -0.004585951 -0.01568787 -0.02501101 0.013783588
-0.025563192 -0.0076378663 -0.019934697 -0.055445634 0.03973058 -0.023608817 -0.004566235 0.022548292
-0.028543638 0.026976515 0.00045932285 -0.026953073 0.017647471 -0.022741407 -0.007372508 0.037422907
-0.016052691 0.03410381 -0.0030540659 -0.01836277 0.009902063 -0.0033608621 -0.011391238 0.045113623
-0.035227858 -0.0032253596 0.03414515 0.042179767 -0.0092014205 0.01875489 0.023200747 -0.01216097
-0.048221685 -0.018593822 -0.030101331 0.0050469935 0.04123131 -0.03197458 0.032762703 -0.009184601
-0.051729545 -0.028033033 0.051207192 -0.0431573 -0.021906221 -0.024790471 0.02732069 -0.00047804287
0.010894569 -0.0039330935 -0.028979804 0.015598648 -0.024818823 0.0459925 -0.05038077 0.017936384
0.012464296 -0.025762996 0.02524072 -0.048111137 0.04640423 0.021048043 0.041159015 0.03106252
-0.035371855 0.026545614 -0.019971915 0.009961728 -0.03539636 0.04058649 0.045268055 0.027591998
0.04290427 -0.038742434 -0.033287056 0.051154487 -0.04370858 0.036181394 -0.016134722 0.0030776572
0.05016911 -0.027938718 -0.051103745 -0.0146615645 -0.05705521 0.028865218 0.022397831 -0.04839686
0.03441471 -0.04912223 0.016207837 -0.025771117 0.007818619 -0.011846656 -0.056871273 0.028297622
0.00747427 -0.043210752 -0.022543412 -0.042122714 0.02293303 -0.014484234 -0.03737055 -0.012149091

transformer.layers.0.self_attn.in_proj_weight f4 [192, 64]
00000000: ecff cfbd e674 6fbd dfa9 2b3e 503b cf3d
00000010: 64c7 8cbd 73ea 193e 8e81 cebd 14bd 1ebe
00000020: 5596 173e 7d2e a8bd 95db 94bd 7350 8bbd
00000030: 7b20 3f3d f4fd 473d 6e7f 9cbc d87d a33c
00000040: 96e3 2a3e 83e6 573d b136 1fbd 0e99 0dbe
00000050: b709 e73d fd3c f7bd f77d 19bd fcad 9abd
00000060: c8ea 11bd 763c bcbd 713a 9abd 961d 433e
00000070: 4516 d23d e8d3 19bd 49b4 7ebd b119 da3d
00000080: 213c 173e 0d63 1bbe d4fe 4c3d c9be f33d
00000090: 8faa c4bd 7705 90bd a277 e4bb a85b f8bd
000000a0: 5258 68bd d11c e63c 1831 093d 6bba f03d
000000b0: a914 79bd 3627 9c3d 3099 0c3e bcbe 84bd
000000c0: 887d 1ebd 2856 a23d 4f53 8a3d 38b1 1dbd
000000d0: a809 a33c 7e88 92bd 9eb0 8d3d 76f0 1c3e
000000e0: 85c1 073e 1cb0 cb3d ae4b 9b3d 54bb 74bd
000000f0: 999b af3d 0fbb 95bd dbf7 c13d a451 c8bd
00000100: ba50 a73d c4a6 ccbd 9deb babd 69cd 1dbe
00000110: 9cf9 063e 3cfe 833c aaed 643d c791 16be
00000120: cbbd 6a3d a396 fcbc fbc7 ca3d b880 91bd
00000130: 6d3b 863b dc43 0cbc 7014 2dbd 537b ba3d
00000140: 4912 123d fefb f63d f706 033e 8fd3 0abe
00000150: ec24 dfbd 5d39 b73d e752 973d 3fea 063d
00000160: 94cb c5bd e840 613d a9bc d4bd a27e d73d
00000170: f33e b13c 234e a0bd bd1b 753d 108f d4bd
00000180: 6627 a3bd 5647 efbd e0e0 d93d c7ee cd3b
00000190: caea a03d ab30 0e3e dde8 93bd 6c89 b0bc
000001a0: 9edb 213e 305a 253d 873a 12bd 1f93 babd
000001b0: 8caf b73d 677d bcbd 5bfd 463e 574a 8d3d
000001c0: 2131 43bd 67c7 853d dbc3 6abd 1c75 38be
000001d0: 08e1 f73b 8850 66bd 1cda 1cbe 83ec 433d
000001e0: 8898 033e 7c04 f03b ca84 86bd e9fc 9f3d
000001f0: 23e0 e0bd b7bf 7d3d 38e7 9c3b cd17 39bc
00000200: 0e08 5c3d ef43 ae3d 1362 953d c1cf 33be
00000210: 4890 cebd 5fc6 65bc 973f 743d 8fa5 85bd
00000220: 5970 c73d d78b 8ebd 4f16 da3d 483e 133d
00000230: bcdf e4bd af8b 4a3d 0f30 0ebe c6eb 0d3e
00000240: 048c 923d 596e 98bd 874b 373d a0c8 95bd
00000250: fa60 f7bd 971f 9a3d d40d 283e c106 f13d
00000260: 8389 ddbd d2de d13d 3011 a8bd c88c 2b3e
00000270: 89e2 0dbb f159 343e 1a86 c3bc d032 2bbb
00000280: 5b2a 3d3e 47f9 c1bd 5e7e f9bd 5ecc 593e
00000290: f701 5a3c 2fc8 45bd a810 a43d b9f1 0cbe
000002a0: c840 f4bd 28c6 b3bd 12b6 233d 8196 9b3d
000002b0: de95 00be 2b3c 363e c332 883c f771 08bd
000002c0: 405c 70bd 9e03 1fbd 609b e43d 9ba4 3b3a
000002d0: dd46 613d ee3c b7bd d000 c73c f5c4 9cbb
000002e0: 9923 373e 5b00 3ebd 0819 213e a75e 973d
000002f0: 702c b2bc f748 3b3d d403 cebd 9a1e ee3d
00000300: fc08 04be 3c09 d73d 633c c53d bbbe eeba
00000310: 6615 19bd 1b29 853d 81dc 153d 2008 e93d
00000320: 57da cfbd 9d26 ba3d 9553 51bd 89a6 203c
00000330: 1e75 0f3c 653a eb3d 79b9 d33d 3bb8 5c3d
00000340: 4f7a 6dbd d5f1 973d b233 1f3e 0b82 573d
00000350: 397f d4bd e377 143e 57c2 3d3e 1f5b adbd
00000360: 96ea a33d ae60 acbd 37a2 033e d554 173e
00000370: 022a f6bd 369a d23d ed8a 183e 32f0 973d
00000380: dc00 333c 7ebf a1bd 0e1d c7bd a89a 423e
00000390: 52eb bf3d 9c1a 9a3d b86c 3cbd 3c90 27bd
000003a0: 798d 0f3e 50fa 23be 6bee cabd 1f2a 3fbd
000003b0: 49ee 003e 64cc 013e b9ff 5bbd c635 89bd
000003c0: db8b 81bd c9ba 35be 68c4 76bb c5ea 4bbe
000003d0: f8aa e43d 5874 e73d d359 5c3d 046d 42bd
000003e0: 8f23 11bd 6e71 56bd ae06 95bc 71d2 5dbd
000003f0: af4d db3d 6efa 813d e6eb ef3b e808 a23d
-0.10156235 -0.058461092 0.1676402 0.10118735 -0.06873968 0.15030842 -0.10083304 -0.15501815
0.14803441 -0.08211992 -0.072684444 -0.06802454 0.046661835 0.048826173 -0.019103732 0.019957468
0.1668838 0.052710067 -0.038870517 -0.13827917 0.1128115 -0.120721795 -0.037473645 -0.07552716
-0.035624295 -0.091912195 -0.07530678 0.19054255 0.10258154 -0.037555605 -0.062183652 0.106494315
0.14769031 -0.15174504 0.05004771 0.11901624 -0.09602844 -0.07032292 -0.006972269 -0.12126857
-0.056724854 0.028089913 0.033494085 0.117543064 -0.06081072 0.076246664 0.13730311 -0.06481692
-0.038693935 0.07926589 0.06754171 -0.038499087 0.019902065 -0.0715494 0.06918453 0.15326104
0.13257416 0.099456996 0.07582794 -0.059748963 0.085746 -0.07311069 0.09471103 -0.09781197
0.08169694 -0.099927455 -0.09126971 -0.15410389 0.13181156 0.01611244 0.055890717 -0.14704047
0.057309907 -0.030833548 0.099014245 -0.07104629 0.0040964396 -0.008561101 -0.04225582 0.091055535
0.03566197 0.120597824 0.12795626 -0.13557266 -0.10895714 0.08946488 0.07388859 0.03293824
-0.0965797 0.05499354 -0.103875466 0.105222 0.021636462 -0.078274034 0.059840906 -0.103788495
-0.07966499 -0.11683528 0.106385946 0.006284568 0.078572825 0.13885753 -0.072221495 -0.021549903
0.15806434 0.040369213 -0.035700347 -0.09110092 0.0896903 -0.09203606 0.19432585 0.06898945
-0.047654275 0.065321736 -0.05731569 -0.18013424 0.0075646676 -0.056229144 -0.15317577 0.047832977
0.12851155 0.0073247533 -0.06568296 0.07811911 -0.10980251 0.06195041 0.0047883056 -0.011297178
0.05371862 0.08509051 0.07294097 -0.1755972 -0.10086113 -0.014024346 0.059630957 -0.065257184
0.097382255 -0.06960266 0.10648786 0.035948068 -0.111754864 0.04944962 -0.1388552 0.13859472
0.07155612 -0.07442922 0.044749763 -0.07313657 -0.12079044 0.075255565 0.16411525 0.11768866
-0.10817244 0.10247578 -0.08206403 0.16752923 -0.0021649918 0.17612435 -0.023867656 -0.0026122816
0.18473189 -0.09471374 -0.12182306 0.21269366 0.0133061325 -0.048286613 0.080109894 -0.13764085
-0.119264185 -0.0877803 0.039968558 0.07597066 -0.1255717 0.1779639 0.016625768 -0.03331181
-0.058681726 -0.03882181 0.11162448 0.0007158012 0.05499922 -0.08947168 0.02429238 -0.0047842213
0.17884673 -0.046387058 0.15732205 0.073911004 -0.021749705 0.04572388 -0.10059324 0.116269305
-0.12894052 0.10499808 0.096306585 -0.0018214801 -0.037373923 0.06501981 0.036587242 0.11378503
-0.10149067 0.09089396 -0.0511051 0.00980533 0.00875595 0.11485747 0.103381105 0.053886633
-0.05797797 0.07419173 0.15547064 0.052614253 -0.10375828 0.14498858 0.18531166 -0.084646456
0.08003728 -0.08416878 0.12854849 0.14778455 -0.12019731 0.1028332 0.14896746 0.074188605
0.010925498 -0.07897852 -0.097223386 0.19004309 0.09371056 0.075246066 -0.04600212 -0.040909037
0.14018811 -0.16013455 -0.09908756 -0.04667103 0.12590899 0.12675625 -0.053710673 -0.066997096
-0.063255034 -0.17747034 -0.0037653688 -0.19913776 0.11165422 0.11301488 0.0537966 -0.047467247
-0.035434302 -0.05235427 -0.018191662 -0.05415577 0.10708176 0.06346594 0.0073218225 0.07911855

transformer.layers.0.self_attn.in_proj_bias f4 [192]
00000000: eb31 973c 002d 303c 71ea e23b e56a 033b
00000010: 4cea 533b e091 e63b 657f a63c 9732 3c3b
00000020: d82d 16bc 1cbe d6bc 2312 ffbb ad55 243c
00000030: 4d5b 3e3b 4134 c63a 00f3 e8ba dc0c c138
00000040: 4d77 17bb 949a 463c e6b1 c0bb bcc5 fe3c
00000050: 1645 83bc 4509 6f3c 8f9b 6c39 c808 3cbb
00000060: d622 2abb e4f7 243b fb6c dfba 8be1 833b
00000070: 8e8c 38ba aa22 fa3b 5395 da3b dcf5 903c
00000080: 9864 2abb 79ab f83b 9c0d 983c 34b4 b4bc
00000090: ff87 0d3c bc89 b33c 1ecb 04bc bff3 d1bc
000000a0: 012b f2bb 2809 67bc 5a08 1abc 8573 343a
000000b0: a3fb bbbc e01d d7bc 2311 31bc 248f e63c
000000c0: 8ad7 0c3c ee15 c53c 5ef1 a03c 2637 59bc
000000d0: c6d8 ae3b 5760 93bc b0d0 0f3c c7a2 c3bc
000000e0: 202f f7bb 3c90 89bc a739 313c 9f50 a3bb
000000f0: 3307 e53b a4c0 a9bc 5cf6 11bc b540 d33a
00000100: 689f 3ab4 e39c d5b4 600c 8e34 4550 a334
00000110: 9be2 49b4 7ddf 24b3 0dd4 2332 881e 0b33
00000120: 68b8 d434 8121 b834 e978 5a34 cd1f 14b4
00000130: 13c2 89b4 4103 6334 7488 1c34 1d95 c8b2
00000140: d171 34b3 a027 81b3 b421 6834 25eb 3cb4
00000150: a64c 2ab4 1669 0733 81f3 93b4 333a 8033
00000160: 0124 62b4 a520 41b4 6077 8eb4 b3dd b834
00000170: 6955 fb33 906e ed30 73f3 adb3 3739 55b2
00000180: aa62 14b3 d17f 84b4 c34f 5f33 fbef 71b4
00000190: 89f2 33b4 d526 2434 740a f332 2a3f 45b3
000001a0: 2ba6 09b4 a67f 3cb4 2761 92b3 078d b233
000001b0: 97c2 b933 1c66 70b4 f3f8 3cb4 f50c 10b4
000001c0: 502b 2234 84f0 1c34 c135 0c34 9565 0eb4
000001d0: 4f0e 00b4 0b33 4533 db78 dfb2 6f17 5eb3
000001e0: c390 0933 9187 beb3 4e7b e3b3 8c86 4eb4
000001f0: b1df c4b3 e922 c9b3 f63a 83b3 b4aa 1fb4
00000200: b630 473a 8c12 ff3b 3769 243c f5a3 8abc
00000210: 1252 8cbc ba6d 053c 0f7c e83b 8d08 83bb
00000220: 781f 893a 8ac0 49bb b91d 9bbc 177d bf3b
00000230: 7b64 113a a680 4d3b 2b43 5e3b b3ed 92bc
00000240: 253b 8b3a 24e0 a7bc 0ca6 30bc 6277 853b
00000250: 7a8e 81bc 4a66 5dbc 14fd 9d3b 5df8 93ba
00000260: 4b2c 38bc da29 fe3b 1802 093c 26d5 23bb
00000270: d83d 77bc f125 a2bc a009 52bc 8c52 69bb
00000280: 96df 913c 3e2a 2e3c a3ca a63b d0f3 7d3a
00000290: db79 ad3c e2b7 46bc c843 fcb9 57d0 67bc
000002a0: 7fd6 a0bc a98a fdba cc11 b1ba a09a a2bc
000002b0: 2d87 153c 2d1f 38bb dc30 9a3b a73d 2bbc
000002c0: c058 1ebc c44c 8c3c ff61 a1ba 2b56 b6bb
000002d0: e28a 8fba f20c 51ba 54c6 46ba ade3 c43b
000002e0: f3dc 12bb 7bf5 153b a425 23bb 58f2 04bc
000002f0: 6666 033b eb25 703c e055 5cbb 1f06 243b
0.01845642 0.010752916 0.0069249202 0.0020052728 0.0032335697 0.0070364326 0.020324418 0.0028716677
-0.009166203 -0.026213698 -0.0077841445 0.010030192 0.0029046119 0.0015121774 -0.0017772615 9.2053524e-05
-0.002311188 0.012121815 -0.005880582 0.031100146 -0.016024154 0.014589612 0.00022564664 -0.0028691757
-0.0025960705 0.0025172168 -0.0017046029 0.0040246896 -0.0007039987 0.007633527 0.006670633 0.01769536
-0.00259999 0.0075888005 0.018561177 -0.022058584 0.008638381 0.021916263 -0.008105068 -0.025628923
-0.0073903804 -0.014101304 -0.009401405 0.0006883669 -0.022947138 -0.026259363 -0.010807308 0.028144427
0.00859631 0.024058308 0.019646343 -0.013257777 0.0053359 -0.017990274 0.008777782 -0.02388133
-0.0075434595 -0.01679241 0.010816968 -0.004983976 0.0069893836 -0.020721741 -0.008908834 0.0016117307
-1.7380592e-07 -3.9788492e-07 2.6458565e-07 3.041952e-07 -1.8802022e-07 -3.8387487e-08 9.5360635e-09 3.2391227e-08
3.962225e-07 3.4297048e-07 2.0346819e-07 -1.3795143e-07 -2.5659446e-07 2.1142206e-07 1.4578274e-07 -2.3350873e-08
-4.201303e-08 -6.014238e-08 2.1618945e-07 -1.759441e-07 -1.5860368e-07 3.1527712e-08 -2.7558056e-07 5.971051e-08
-2.1060988e-07 -1.7986402e-07 -2.6536418e-07 3.4433978e-07 1.1703634e-07 1.7275443e-09 -8.1002234e-08 -1.2411241e-08
-3.454867e-08 -2.4679915e-07 5.1993776e-08 -2.2532178e-07 -1.6758908e-07 1.5287817e-07 2.8293677e-08 -4.5925084e-08
-1.2819571e-07 -1.7555303e-07 -6.816327e-08 8.3144236e-08 8.6501295e-08 -2.2388889e-07 -1.7599432e-07 -1.3415759e-07
1.5103183e-07 1.4616131e-07 1.3058072e-07 -1.3261736e-07 -1.1926134e-07 4.591406e-08 -2.6015575e-08 -5.1709716e-08
3.2029458e-08 -8.872224e-08 -1.059294e-07 -1.9234193e-07 -9.1676505e-08 -9.366142e-08 -6.110888e-08 -1.487013e-07
0.0007598506 0.0077841934 0.010034851 -0.016923884 -0.017128978 0.008143837 0.007094867 -0.003998822
0.0010461649 -0.0030784928 -0.018935071 0.0058437693 0.0005546284 0.0031357198 0.0033914547 -0.01793561
0.0010622485 -0.02049262 -0.010781776 0.0040730694 -0.015815008 -0.013513157 0.004821429 -0.0011289228
-0.011241029 0.007756454 0.008362316 -0.0024998873 -0.015090428 -0.019793482 -0.012819678 -0.003560218
0.01780681 0.0106301885 0.005090074 0.0009687515 0.02117627 -0.012128802 -0.00048115687 -0.014148793
-0.01963353 -0.0019343692 -0.0013509332 -0.019849122 0.009126467 -0.0028094754 0.0047055315 -0.010451711
-0.009664714 0.017126448 -0.001231253 -0.0055644712 -0.0010951424 -0.0007974646 -0.0007582654 0.0060085864
-0.0022409528 0.0022881913 -0.0024894262 -0.00811442 0.0020050048 0.014657478 -0.0033620521 0.0025028063

transformer.layers.0.self_attn.out_proj.weight f4 [64, 64]
00000000: 3ef7 ed3b 7019 00bc 8432 0b3c b1aa 78bc
00000010: 799b 2f3b ed89 72ba 12ce 21b8 3e1a 3e3d
00000020: 1662 e4bc efac 1a3c 7928 04bb 424e 82bd
00000030: 9e08 bd3c f5d5 123a 6a7e ef3c c522 e23b
00000040: 8c47 75bc e93c 2c3d 21e5 e13c 6008 02bc
00000050: 157d 753c 3a8e 8b3c fb4e a7bc 7366 9b3c
00000060: 8f1f 633b 5293 f2bc 1a46 053d 3fdc e4bc
00000070: 672f 103c 4904 e7bc 7811 83bc 5d02 293c
00000080: 0f75 103d 8dc8 1abd 6159 6abc 7035 d5bb
00000090: e29b 0a3d 0b39 c83c 4951 2dbc dd6e 8cbc
000000a0: 1d0d 743c 0f85 233c bfff da39 d8dc efbb
000000b0: 22fe 4abd 98d2 c13c c781 263d 52e7 cbbb
000000c0: 41f0 d6bb 1c9f 26bd c19a 04bc f32e ac3c
000000d0: d1f8 2f3c f168 eb3b 3029 b8bb d60e 47bd
000000e0: 0b75 a33c 5416 eebb f114 52bd 02a4 0c3d
000000f0: 1dca ac3c b1eb e03c b408 ebbb 7eba 283c
00000100: c2b3 533b 241f b5bc 7988 b5bc e19f b43c
00000110: b239 093d 1576 b6bb 6c19 9a3a 64bf 95bc
00000120: a739 dfbc e881 49bc 720b a5bc 7c02 17bd
00000130: 6590 da3c 9993 d9ba 2f9a a53b 83e6 063d
00000140: 8c8c d23b ec3d 663c 698f 2f3a 89cb 38bc
00000150: 077b 933c b75f 113d e1c2 1a3d 9f71 173d
00000160: 7203 b9bc c5ad c5bb a45e d1bc f51c 83bc
00000170: 6aca 12bd ffac 06bd 5820 483c 8597 a23c
00000180: b48a d03b 698f c93c 4d3d dc3c bbce 8f3c
00000190: 33b0 44ba 9e32 c03c 92ef a53b bd0d 6dbc
000001a0: 2b8f 3a38 892b 843c 642e 58bd a95f 3f3d
000001b0: 312e 82bc 280f 2abd fb11 c8bb 9518 da3b
000001c0: 6859 1fbd ad68 dabb 15bd a6bc 6d0e d93b
000001d0: 2925 bbbb e765 123d c88b a8bc e8ac 5cbc
000001e0: 922f 47bd 856c abbb d06b d33c a447 273c
000001f0: 7393 febc f337 f03b 0653 203c 1346 fa3a
00000200: 4ede f9bb ada0 b93c 275b 5fbc 03ea 223c
00000210: 73ad 4dbc 35e9 d13b a15d 183c 3765 b53c
00000220: f02d a43c 92e1 bf3c bea5 b4bb 4d3e 4abc
00000230: ced2 083c 4c91 a3bb 6810 133d fe32 10bc
00000240: 1a8b 2abc dd01 41bc 22e0 f0bc 46cb 30bd
00000250: 55d5 8cbc c6a9 263c 2894 84bb d578 173c
00000260: 4266 a9bb 6214 3fbb 8175 8dbc ad8b 983c
00000270: eec5 2dbd 0754 31bc 7054 8dbc f48f 8dbc
00000280: 6362 1fbc 35e0 2a3c 0e96 0ebc 8f8a da3c
00000290: 798f 743b 618c 2fbc 2424 cb3c 42f7 643c
000002a0: 7f53 8c3c 61f4 bebb 068f 3cbc edd2 e23c
000002b0: a163 f33b 77bc 09bc 9370 2e3d e882 1ebd
000002c0: 10e6 1f3b a2dc 813b 8313 debb 16cd a8bc
000002d0: 0794 4dbc 8e84 c83c 2865 263d eae0 293c
000002e0: 816d 17bd ccf3 693c 731a 6cbc f692 03bc
000002f0: 2b87 8a3c f195 fdbb f3f8 b1bb a837 3abc
00000300: 5222 03bd 3af5 a8b9 d6e6 273c 9abc a5bc
00000310: 4ebb 8b3b d7ea c0bc 40d7 f13c 9de6 793c
00000320: 71dd 4ebb ec22 ba3c e924 683c 424e 213b
00000330: 0ea7 0d3c f21f 103b e010 313c 4f55 36ba
00000340: 810f d03b 1d46 a7bb eb5b d03c 60a8 59bc
00000350: 1259 f23c 2370 153d 6485 673c eb3e bbbc
00000360: 31af c63b a4e4 00bc 6c94 193d f5c8 a7bc
00000370: 803f 48bb 5b48 3a3d e68d 413b 0e22 8fb8
00000380: ddb0 e53b 3459 37bd 51fc 193c ee17 8b3a
00000390: 5802 08bd 2440 583c fd7f 7fbc 4e6e 4fbc
000003a0: fafb e63b 720c b2bc a7ac c5bc eb09 493a
000003b0: 0bd4 96bb d473 353d 347b 1a3c 8cec 283d
000003c0: daf4 03bd b3b4 f53a cf75 1cbc 0d23 b53c
000003d0: 8ee1 073d ee6c df3b ef83 4d3c 5e40 243d
000003e0: 02e6 19bc f375 1dbd bb22 95bc 87ad a43b
000003f0: 7b32 0cbb 0fbb 3dbd 8535 243d 9cbf 7e3c
0.0072621396 -0.007818565 0.008495931 -0.015177415 0.002679555 -0.000925212 -3.857731e-05 0.046411745
-0.027878802 0.009440645 -0.0020165725 -0.06362583 0.023075398 0.000560134 0.029235084 0.0069011175
-0.014970671 0.042050276 0.027575077 -0.007936567 0.014983435 0.017035592 -0.020423403 0.01896975
0.0034656262 -0.029611263 0.032537557 -0.027937053 0.008800364 -0.028200286 -0.01599954 0.010315505
0.035267886 -0.037788916 -0.014303536 -0.0065066144 0.033840068 0.024441263 -0.010578462 -0.017142707
0.014895705 0.009980454 0.00041770746 -0.007320028 -0.049558766 0.02365999 0.04065111 -0.006222644
-0.006559402 -0.040679082 -0.008093537 0.02101848 0.010740475 0.007184141 -0.0056201443 -0.048598133
0.019953271 -0.0072658453 -0.051289503 0.034336098 0.021092469 0.027456136 -0.0071726684 0.010298369
0.003230319 -0.022109576 -0.022159802 0.022048892 0.03350229 -0.0055682757 0.0011756844 -0.018279739
-0.02724917 -0.0122990385 -0.02014706 -0.036867604 0.02668018 -0.0016599774 0.0050537805 0.032934677
0.006425446 0.014052849 0.000669709 -0.011278995 0.018003 0.03549167 0.037783507 0.036973592
-0.02258465 -0.006032678 -0.025557823 -0.016005019 -0.03583757 -0.032879826 0.012214743 0.01984764
0.006364191 0.024604516 0.0268847 0.017554631 -0.00075030624 0.023461636 0.0050639594 -0.0144686075
4.447919e-05 0.01613404 -0.052778617 0.046722088 -0.015891166 -0.04151836 -0.006105659 0.0066557624
-0.038903624 -0.0066653104 -0.020353833 0.006624034 -0.005711217 0.035741713 -0.020574465 -0.013468958
-0.04862935 -0.0052314424 0.025808245 0.010209952 -0.031076169 0.0073308884 0.009785419 0.001909437
-0.0076253777 0.022659624 -0.013632572 0.009943488 -0.012553561 0.0064059743 0.009299667 0.02214299
0.020041436 0.02342299 -0.005512922 -0.012343955 0.008351041 -0.004991686 0.035904318 -0.00880122
-0.010409141 -0.011780229 -0.02940375 -0.043162607 -0.017191568 0.010172313 -0.004045982 0.009245117
-0.005169661 -0.0029156436 -0.017267944 0.01862129 -0.04242509 -0.010823256 -0.017252177 -0.017280556
-0.009728047 0.010429432 -0.008702768 0.026677398 0.0037316962 -0.010714621 0.024797507 0.0139749665
0.017129658 -0.005827472 -0.011508709 0.027688468 0.007427648 -0.00840675 0.042587828 -0.03869906
0.0024398603 0.003963069 -0.0067772283 -0.020605605 -0.0125474995 0.02447727 0.040623814 0.010368565
-0.036969665 0.014279317 -0.014410603 -0.008030644 0.016910156 -0.0077388217 -0.0054312884 -0.011365809
-0.032015152 -0.00032226165 0.010247907 -0.020231534 0.004264272 -0.02354948 0.029521585 0.015252736
-0.0031565095 0.02272173 0.014168956 0.0024613296 0.008645786 0.0021991697 0.010807246 -0.0006955461
0.0063495045 -0.0051047937 0.025434455 -0.013284773 0.029583488 0.036483895 0.014130924 -0.02285715
0.006063365 -0.007867012 0.03749506 -0.020481566 -0.0030555427 0.04547916 0.002953404 -6.8251145e-05
0.007009609 -0.044762805 0.009398536 0.001061199 -0.03320536 0.013198886 -0.01559448 -0.012660576
0.007049081 -0.02173445 -0.024130179 0.00076690194 -0.004602914 0.044299915 0.009428788 0.041241214
-0.03221593 0.0018745869 -0.009549572 0.02211144 0.03317409 0.0068184054 0.012543662 0.040100448
-0.009393217 -0.038442563 -0.018205037 0.005025569 -0.0021392393 -0.04632097 0.040090103 0.015548613

transformer.layers.0.self_attn.out_proj.bias f4 [64]
00000000: 425b 103c f37a 8b3b 6b05 c0bb 7f80 d93b
00000010: 17ce 893b de17 b33a c79b febb 5bf2 0d3c
00000020: 2868 c53b 1334 2c3c 3fbc fcbb 42f9 723b
00000030: e5f2 97b9 2375 aabb 966b 273c e723 19bc
00000040: 8ba3 f3bb 9e5d e73a 56b0 293b 595d e43b
00000050: 4a0a 1cbb 80b4 b23b 97dd c8bb 11a1 c53b
00000060: 3252 03bc 6a69 4b3a 56b5 fcbb 5820 b43b
00000070: 1781 ae3b 2611 63bb f38a 013c d9d1 e83b
00000080: 309b c83b 3087 ca3b 56ec 5fba d4cf b2ba
00000090: 381b 5e3b b06d 0fbc b8e1 dfb9 ca04 1a3c
000000a0: 031a 38bc 5486 033b 28bd d3bb d4e7 1cbc
000000b0: 1f66 bcbb 61f9 1dbb cd1a babb 93c4 ef3b
000000c0: 37ae 9ebb 6498 81ba c460 3e3c 21d8 7ebb
000000d0: 54af 08bc 2d1b e03b 5553 103c 5faf 8abb
000000e0: 7688 23bc a7e8 cabb 0229 13bc 7bd1 d4ba
000000f0: f6e1 d93b 8c95 a0bb af80 893b d6c3 1abc
0.00881082 0.0042566 -0.005860021 0.0066376324 0.004205476 0.0013663729 -0.007770035 0.008663739
0.0060243793 0.010510462 -0.0077128704 0.0037074839 -0.00028981935 -0.005201952 0.010218522 -0.009346939
-0.0074352673 0.0017651801 0.0025892458 0.0069691357 -0.0023809844 0.005453646 -0.006129931 0.0060311635
-0.008015202 0.00077595434 -0.0077120466 0.0054970197 0.0053254473 -0.0034647672 0.007906663 0.007105094
0.0061220154 0.0061806664 -0.00085419917 -0.001364226 0.0033890735 -0.008754179 -0.00042702048 0.009400556
-0.01123667 0.002006908 -0.006461758 -0.0095767565 -0.0057494785 -0.002410494 -0.0056794644 0.0073171346
-0.0048425454 -0.0009887335 0.01161975 -0.0038886147 -0.008342583 0.006839177 0.00880893 -0.0042323316
-0.009981265 -0.006192285 -0.008981945 -0.0016236746 0.006649251 -0.00490064 0.0041962485 -0.009446105

transformer.layers.0.linear1.weight f4 [128, 64]
00000000: d1fc 6ebd cc52 c7bc c34f 153d 4344 0ebd
00000010: 086c d53c fd85 5fbc b527 45bc c770 613d
00000020: 291a fa3c fce8 32bc 7275 3abd 28f3 183d
00000030: e3f7 aa3c ce3e e93c 8448 b0bc 0570 7e3c
00000040: 9fe0 a3bc ac0f 823c 5bdf 513d 5132 6cbd
00000050: 53fd 5d3d cfb6 f43b 4e9e a23d 17e0 82bb
00000060: 1c3d 5d3c 9cd2 cebb 6973 1d3c 1036 2c3c
00000070: 26fd 98bd 048e 95ba 61d4 493d cca6 763c
00000080: 5107 203d 6363 7abd ba90 89bc e95b c93c
00000090: d9d2 8abc d3c7 de3b c076 e53c d0b6 8cbc
000000a0: f2ca 3a3c c570 a7bc 83df 64bd 7ec9 a3bb
000000b0: 9b07 00bd 2ce1 08bd a309 fb3b 6024 0fbd
000000c0: b606 793c ba32 86bc 3d4a 80bc be79 0bbd
000000d0: 2d34 a83d fd23 d03c e533 83bd 98cb c9bb
000000e0: 99e7 b8bc 9b8b edbc 74eb 8dbb 7391 9ebd
000000f0: 199d 8a3b 80fe a4bc ce08 f0bb 7e3d c0bc
00000100: f437 bcbc 98d6 0e3c b161 a33c 1301 95bc
00000110: 8699 563c 14c3 293c afd4 e7bc d089 cc3c
00000120: 9438 603b d745 ed3c e785 d5bc 2e2e 49bd
00000130: d7cc 2ebd 26c5 73bc 2dba c03c 11c4 923c
00000140: 8094 a7bc 1df1 99bc 6175 11bd 62d2 873c
00000150: e3ec a23b d1cb 5ebc 2d0f cbbc 9493 d7bb
00000160: b16f 573c eea8 cc3a 8998 2cbc 00d0 3ebd
00000170: aaee 4f3c 0b46 16bc 9cf5 4bbd f6c7 81bc
00000180: 46da 183d df80 bbba 222a 21bb 6c55 31bc
00000190: 8fca 053c 1364 ce3b 2494 02bd 2143 3f3c
000001a0: d537 9a3b aed4 a43b 0225 d8bc e84b 093b
000001b0: c1c2 77bc d960 833c 8f27 84bc 3ef4 29bd
000001c0: d83f a33c 9bf4 c53c c8fd 43bc 3c01 4f3c
000001d0: bf5b 0b3d 7cbd 853c a0f1 d03c 0916 fc3c
000001e0: fbc4 51bd 7ee5 83bb 65f8 033d 7e83 ffbc
000001f0: ec5e 1d3c f37e 123c f7ef 293d 15c1 143c
00000200: 33cb 783d 973a d73c 7424 3cbc 21cc ed3c
00000210: 682a b03b 741a 97bc 4dcc 5bbc 05d7 6ebc
00000220: ebd9 d03c e344 863c e2bf ed3b 62ed 9bbc
00000230: a687 07bd dbff 32bd 3ecd 003c bc15 21bc
00000240: 334a 933b 7c0b 8fbc 705c 20bd 8b07 41bc
00000250: 4d98 9d3d 726c a93c 5b88 7a3b 5f31 243d
00000260: 1866 1cb9 5806 963a 0df2 793b 65ec 27bd
00000270: 46d3 623d a873 f23b e691 3d3c f74d 5e3c
00000280: ed54 883c 1590 ed3b 43c0 a3bc 49d0 95bc
00000290: 53ac 263d 1285 5abc 8f1f 86bc e215 f73c
000002a0: 6685 8cbd d2e5 c33c 811f 6dbb b948 3339
000002b0: b740 273b b267 74bc b878 3c3b 585b 74bc
000002c0: 3e47 2b3b fe94 853d cee6 1a3d 0ffd 1a3d
000002d0: 917a 093c 9b2d f63c c25d 23bd 9f79 fbbb
000002e0: 2d41 91bc b48e 073b dc84 83bc 8634 82bc
000002f0: 2642 1b3d ed60 bebc 460a fa3a 00d3 82bc
00000300: dd1d 353d 3f75 9dbc 4714 0c3d 197c 683c
00000310: 4798 e33b 4762 a83c dcf6 ecbc 8614 cd3c
00000320: cf99 25bb 610e 893d 0f1a 413d 0d9e bfbb
00000330: be29 c13c cc46 9139 8d66 083d 91d9 80bb
00000340: 3f95 c73c a40e c83c 231f 86bc 69e0 ad3d
00000350: f02e 09bc 058f c33c df9e 38bd 40ed 2e3d
00000360: 887c 1bbc 9066 4d3a 3eed 8fbb 17a8 1e3c
00000370: bab2 433c 515d 87bd c809 ee3c 4ed4 aabc
00000380: d220 81bc 79b5 393d 9161 133b 5bff 9dbc
00000390: f43a 223a 18d0 23bc 3850 c5bc 5d24 723c
000003a0: aaaa 553c 73f8 013d 306d 0fbd f322 64bd
000003b0: 8980 9ebb 42fd 47bd b8eb 173c 1c5b 563d
000003c0: c723 533d 901d e63b ea77 b23d f7af 5f3a
000003d0: cc6f 4f39 fee1 063a 79f3 be3b 946f db3c
000003e0: 824a 49bd 1aeb 443c 14eb f2bc 8baa be39
000003f0: f0c8 7f3d 2c7f 94bc 7356 9e3c 1fa6 20bc
-0.058346573 -0.024331473 0.03645302 -0.03473307 0.02605249 -0.013642785 -0.012033393 0.055039193
0.030530052 -0.010919806 -0.04552216 0.037341267 0.020870155 0.02847233 -0.021518953 0.015529637
-0.020004569 0.015876614 0.0512384 -0.057665173 0.054196667 0.0074680815 0.079403505 -0.0039939987
0.013503339 -0.0063117277 0.009610035 0.010510936 -0.07470159 -0.0011410122 0.049274806 0.015054416
0.039069477 -0.06112994 -0.016792644 0.024579959 -0.016946243 0.0067987232 0.028010726 -0.017177016
0.011400925 -0.020439515 -0.05587722 -0.004998385 -0.031257253 -0.033417866 0.007661061 -0.0349468
0.015199354 -0.01638161 -0.0156604 -0.03405165 0.08213077 0.025407786 -0.064063825 -0.0061583035
-0.022571372 -0.028997233 -0.0043310467 -0.07742586 0.0042301533 -0.020140886 -0.0073252684 -0.023466822
-0.0229759 0.008718155 0.019944044 -0.018188989 0.013098126 0.010361452 -0.028299658 0.024968058
0.003421341 0.028963966 -0.026064826 -0.049116306 -0.04267582 -0.014878547 0.023526276 0.017915757
-0.020456553 -0.01879173 -0.035512332 0.01657981 0.0049720868 -0.013598398 -0.02478751 -0.006578872
0.013149188 0.001561431 -0.010534414 -0.046585083 0.012691179 -0.009171973 -0.04979478 -0.01584242
0.037317537 -0.0014305374 -0.0024591764 -0.010823589 0.0081659695 0.006298551 -0.03187956 0.01167372
0.0047063627 0.005030236 -0.026384834 0.0020949785 -0.015122117 0.016037391 -0.016132144 -0.041492693
0.019927904 0.024164489 -0.011962362 0.012634572 0.034023043 0.016325705 0.02550584 0.030772226
-0.051213246 -0.0040251603 0.03221931 -0.03119063 0.009605151 0.0089414 0.041488614 0.0090792375
0.06074066 0.026273055 -0.0114833005 0.029028 0.005376149 -0.018445231 -0.013415408 -0.014577632
0.025494536 0.01639027 0.00725554 -0.019034091 -0.03308835 -0.043701034 0.007861434 -0.009831842
0.004494929 -0.01746153 -0.039150655 -0.011781584 0.07695065 0.020681594 0.0038228247 0.040086146
-0.00014915352 0.0011445982 0.0038138658 -0.040996928 0.055377267 0.007399041 0.011570429 0.013568393
0.016642058 0.007249842 -0.019989138 -0.018287795 0.040691685 -0.0133373905 -0.01637247 0.030161802
-0.06861381 0.023913298 -0.0036182108 0.00017097862 0.002552075 -0.014917301 0.0028758477 -0.014914356
0.0026134993 0.06522559 0.03781777 0.03783899 0.0083910385 0.030051043 -0.039884336 -0.0076744105
-0.017731274 0.0020684423 -0.016054563 -0.015894186 0.03790488 -0.023239577 0.0019076548 -0.015969753
0.044217933 -0.019220946 0.034199025 0.014189743 0.006945643 0.020554675 -0.028926305 0.0250342
-0.002526868 0.06692196 0.047143992 -0.0058476985 0.023579475 0.00027709303 0.033300925 -0.003932186
0.024363158 0.024421044 -0.016372269 0.084900685 -0.008373007 0.023871908 -0.045073386 0.042706728
-0.00949014 0.00078354124 -0.004392295 0.00968363 0.011944467 -0.066095956 0.029057398 -0.020853188
-0.01576272 0.04533908 0.0022488574 -0.019286802 0.0006188594 -0.009998344 -0.024086103 0.0147791775
0.013041178 0.03173108 -0.03501624 -0.055697393 -0.0048371 -0.04882551 0.009272508 0.052332982
0.05154779 0.007022567 0.08714278 0.00085329957 0.00019782706 0.000514537 0.005827364 0.026786603
-0.04914332 0.012018943 -0.02965311 0.00036366688 0.06244749 -0.018127047 0.019328332 -0.009805231

transformer.layers.0.linear1.bias f4 [128]
00000000: feda a0bb affe 1fbb a0d1 1e3c 21e1 b83c
00000010: b2d2 3d3b 53e5 00bc feb1 c23c d0cc 853c
00000020: b38c af3b 10e9 9c3b 83dc a33b 4ffb 1e3c
00000030: 13fd 9cbb 5ee0 633b 4962 ab3b 2863 46bc
00000040: 3fe5 8a3c 1eca 933c 5044 efbb 8150 843b
00000050: d058 433c fde1 d6bc 201e c43c 5866 263c
00000060: 37ba 323c c32e c33b dc0e 0c3c 76b7 9d3c
00000070: 0e84 413c cae8 813c 52a4 2a3c 533e 00bc
00000080: 4507 56bb f3ce 973b dcb1 483b a143 c33b
00000090: b47d ba3b 6845 a33c 1b91 e63b e8d8 60bc
000000a0: 3c39 f03b 25ef ac3b e686 263c 2309 1b3b
000000b0: eb5d ad3c d2f1 e63b 6202 f73b 7b6e 833b
000000c0: 5d3c fdba 8c08 8b3b 5a9c 5cbc e8fe ab39
000000d0: 9f89 433c 4287 823c 5724 c33b 693c d2bb
000000e0: 5953 483c 0bbf 8bbc 9ea0 993b aa01 9abc
000000f0: 0d49 143c 9b27 223c ad0e 3d3c 0977 5e3c
00000100: bb63 1f3a 24e4 183c 3fe6 09bc 886c 943c
00000110: 9d85 00ba 3359 d03c c218 0d3c 7838 49bb
00000120: 4129 a3bb 4234 ef3a 1123 3a3c 0bb4 9f3b
00000130: ad7b 2c3c 6406 3f3b 257d a83c 8715 6c3b
00000140: 7e23 a73c 4e25 1cbb c6e6 0a3c a9da d4bb
00000150: 32d6 633b a247 0c3c a891 a03c 980b be3b
00000160: b57f 2bbc a92c f93b 4fc8 ef3b d28a 413c
00000170: 23ca 9abc dc93 653a a1e9 903c 9637 d83a
00000180: 9164 833c 9401 97bb 5819 483b 581d 2c3c
00000190: e2bd 463c 9a2d be3b c493 93ba d0c4 b63c
000001a0: d0ac 8f3a 7f89 ea3b f08d 4d3b bb92 bd3c
000001b0: 4b33 7c3c 7092 b7bb cc8a 0f3c 6ec4 133c
000001c0: 9e04 37bc 8e76 733c 2c7f c83b 4ebe 953b
000001d0: b253 813c 1d62 ef39 ef1c aa39 d237 a4bc
000001e0: 5395 ddbb f571 56b9 992a 91bb e3cc 3f3c
000001f0: 5b88 9c3b 7d0f 92ba a614 183c 8a66 6f3c
-0.0049089184 -0.0024413278 0.009693533 0.022568287 0.0028964696 -0.007867175 0.023766514 0.016333014
0.005357349 0.0047885254 0.0050006523 0.009703471 -0.004790911 0.0034771184 0.0052302224 -0.012108602
0.016955016 0.018040713 -0.0073018447 0.004037917 0.01192303 -0.026230806 0.023940146 0.010156237
0.010908655 0.005956502 0.008548465 0.01925252 0.011811269 0.015858073 0.010415154 -0.007827359
-0.0032658142 0.0046328246 0.003062359 0.0059589897 0.0056912545 0.019930556 0.007036341 -0.0137235895
0.0073310416 0.0052775317 0.010163998 0.002365657 0.021162948 0.00704787 0.007538126 0.004010973
-0.0019320358 0.004242962 -0.0134650115 0.00032805582 0.011934667 0.015933637 0.00595526 -0.006415893
0.012226903 -0.01705887 0.0046883365 -0.018799622 0.00905062 0.009897138 0.0115391435 0.013578185
0.00060802297 0.009331737 -0.008416711 0.018118158 -0.00049027224 0.025433159 0.00861186 -0.0030703824
-0.004979283 0.0018249827 0.0113609 0.0048737577 0.0105275335 0.0029148096 0.020567486 0.0036023573
0.020402666 -0.0023825946 0.008477872 -0.006495793 0.0034765122 0.0085620005 0.019600704 0.005799722
-0.010467459 0.007604201 0.00731758 0.0118128825 -0.018895214 0.00087576895 0.017689528 0.0016496058
0.016039165 -0.0046083424 0.0030532684 0.010505043 0.0121302325 0.005803776 -0.0011259248 0.022310644
0.0010961536 0.007157504 0.003136512 0.023141256 0.015393089 -0.0056021735 0.008761119 0.009019
-0.011170534 0.014859809 0.0061186757 0.004569805 0.01578698 0.00045658732 0.00032446484 -0.020046148
-0.0067621856 -0.00020451083 -0.004430127 0.011706564 0.004776997 -0.0011143532 0.009282267 0.01461185

transformer.layers.0.linear2.weight f4 [64, 128]
00000000: d990 14bd 46c3 8abc bf3b 93bc bafd 233d
00000010: 2eb9 473c a443 493d 8295 5d3c 26cc 0a3d
00000020: 8a33 edbc 12b9 c1ba 2966 16bd 1256 123d
00000030: 2a57 39bc 5c46 8fbc 5ecc 8d3c ce36 84bc
00000040: 9a6e a73b 8a26 af3c 1b4c 8bbc 5aae 383d
00000050: abbe ca3c 6000 b7bc d53e 123d cc7b 08bd
00000060: 3fb1 03bb 3769 60bc 0935 433c 307c 263d
00000070: eb2f 843d aa52 d83c 3b23 0ebd 4eb6 043c
00000080: 9f18 e3bc 563a 243d f0d0 94bb 36f4 66bc
00000090: aea5 843c 9cad 37bc ca2f 7e3d 0967 ef3b
000000a0: 10dc 2abc 2e10 05bd 32d2 273d 8d37 c23a
000000b0: fb61 6d3d 2bc5 dc3c 60c2 15bc d99a c23c
000000c0: b6fb 24bd aeb9 c439 0260 debc a7e3 013d
000000d0: b17c 69bc f1a7 f9bb f41f 423d 7f4e 133d
000000e0: fec1 c23c 1ead c6bd ba75 1e3d 400c 9fbd
000000f0: a862 4a3d 462e 8e3b 76dd f639 0344 20bd
00000100: 7175 1d3d 78af 103c 214f 0ebd 01ec bdba
00000110: 96b6 093d e086 bf3c 568e bc3a e691 bcbc
00000120: 218f b23c 4574 2c3d 96a0 2a3d 1485 8fbc
00000130: 9128 403c a600 08bb 85ad aa3c 4033 0cbd
00000140: f0e0 9f3d 7a99 da3c 962b 133c 5ec3 c83c
00000150: dcf3 babc 3aaf c13b 481b 293c 187a 313d
00000160: 1578 e5bc 2fac d23c e98c cd3b 025f 223b
00000170: 9f87 163d 0f6f 8e3c 6df8 663d 692e 723d
00000180: 3acb c63c 7b41 d73b bc83 1f3d aa26 d43c
00000190: 9c09 023d b727 4c3c b1b8 e03c e4f0 fa3c
000001a0: 228c 38bc 43fa 60bb a172 963c 465b f93c
000001b0: 914b 633d cc06 44bc c660 433b 6910 6b3d
000001c0: 5e53 74bc bd9c 91bd d790 723c 51f8 373d
000001d0: 5952 743d 24a4 1a3d c6ba 133d 3166 10bb
000001e0: 122e 88bc 8df5 963c fcaf 3abd ccbc fe3b
000001f0: 3ace b53b 4b8f 27bd 17e5 11bc 6d0d 3e3d
00000200: b0f0 1a3c bc71 2d3c df6e 853c 9cee 323d
00000210: 294a a1bc fca4 373c c51a 97bc 2d8a 49bd
00000220: fdb9 abbb f0db 7b3c cf0d 873c f4da ad3c
00000230: 775b 43bd d4a8 b2bc c6de 93bc 78bf 05bd
00000240: 9180 603c 342a a03b 9ca0 b43c 2467 c9bc
00000250: d385 163d 78f2 b9bc 1e4d 063d 31e0 403b
00000260: a02a 0ebc f145 c53c 7da3 953c f505 8ab9
00000270: bf7b 523c f6d1 263d 767a 533d 9ac8 0dbc
00000280: 9219 8dbc e278 343d de4d ae3b 2681 003d
00000290: 5c81 d13c 9a2e 783c 7a72 aabc 1aa3 37bd
000002a0: 9e7f 5f3c 7b31 e9bb c363 3abc c45f 7739
000002b0: 1f61 09bd b8f5 40bc 8fef 9fbc 5036 bc3c
000002c0: ac44 7abc 2784 e23b 5e64 443c 4346 29bd
000002d0: 8602 1ebd 7a07 86ba abe8 3c3c 1a03 c03c
000002e0: 3934 0c3d e10c c6bc a825 18bd c42f 0b3d
000002f0: 9112 f33c 1700 283d 91e9 b43b 103c c93c
00000300: 2410 4cbc 3298 e73c 3628 35ba 2435 6d3d
00000310: 6a3f f03c dce4 de3c 8175 133d 69d9 b7bc
00000320: d810 413c d76b 203c c219 fcbc e691 95bc
00000330: f8ef 8cbc a33d 51bd b0fc d63c 4ee4 dfbc
00000340: 5bd7 8a3c 3f4b 6cbd 1c7b 613b c735 fd3c
00000350: 939c fa3c d8aa 903c 5bbf 7d3b 4f00 de3c
00000360: 9629 7a3c 9280 ccbb 387a 37bd 7b32 f23a
00000370: 8b22 5abd ebbc 193d 2f38 1fbb 3491 383d
00000380: cf42 da3c 463d a7bc b78a 4d3d 9e61 893b
00000390: 15aa 853b 066f 0e3d 6ea9 543c 3a3e a03c
000003a0: 7d82 c9bb 8389 18bc d9b3 273c e292 9a3b
000003b0: e15f 2cbc 81d9 943b 471b b73c 403f ba3a
000003c0: 3a23 c0bb c3a7 c2bc 1987 78bc f656 9f3c
000003d0: 66c2 b93c d40b 51bc d5e1 d6bc 2fd5 c4ba
000003e0: 9701 693c 0a0f 3ebd 0ef5 fd3c b96c 5cbc
000003f0: af6b 4ab9 c25d 53bc aeab 033d f0d8 003d
-0.03627095 -0.016938817 -0.017972825 0.040036894 0.012190146 0.049136773 0.013524415 0.033886097
-0.02895524 -0.0014779887 -0.03671852 0.035726614 -0.011312285 -0.017489605 0.017309364 -0.016139414
0.0051096203 0.021380682 -0.017004063 0.04508815 0.02474912 -0.022339046 0.035704453 -0.033321187
-0.002009466 -0.01369696 0.0119145 0.04064578 0.06454452 0.026406605 -0.034701567 0.008100105
-0.027721701 0.040094696 -0.004541509 -0.01409631 0.016192283 -0.011210825 0.062057294 0.007305984
-0.010428444 -0.032486133 0.040971942 0.0014817581 0.05795477 0.026949486 -0.009140581 0.023755478
-0.040279113 0.00037522375 -0.02714539 0.031711247 -0.01425092 -0.007618897 0.047393754 0.03596353
0.023774143 -0.09700988 0.03868649 -0.077660084 0.049410492 0.0043390123 0.00047085778 -0.03912736
0.03844208 0.0088308975 -0.034743432 -0.001448989 0.033621393 0.023379743 0.0014385681 -0.023018789
0.021796765 0.04210307 0.041657053 -0.017519511 0.011728422 -0.002075234 0.020834694 -0.034228563
0.07806575 0.026684511 0.00898256 0.02450722 -0.02282136 0.005910781 0.010321446 0.04332933
-0.028011361 0.02571687 0.0062729013 0.0024775867 0.036750432 0.017386941 0.05638926 0.05912629
0.024266828 0.006569085 0.03894399 0.025897343 0.031747445 0.012460641 0.027431818 0.030632444
-0.011263879 -0.0034328855 0.018365206 0.03043903 0.055491988 -0.011964511 0.002981232 0.057388697
-0.014912454 -0.071099736 0.01480504 0.044914547 0.059648845 0.037754193 0.036066793 -0.0022033567
-0.01662353 0.018427635 -0.045577988 0.007773971 0.0055482658 -0.04090814 -0.008904717 0.046399523
0.009456798 0.010586198 0.016288219 0.043684587 -0.019688683 0.011208769 -0.018445382 -0.04920404
-0.0052406774 0.015372261 0.016486077 0.021222569 -0.04769465 -0.02180902 -0.018050563 -0.032653302
0.013702528 0.0048878435 0.02204924 -0.024585314 0.03674872 -0.022698626 0.03278839 0.0029430503
-0.008677155 0.024081202 0.018266434 -0.0002632585 0.012846886 0.040727578 0.05163046 -0.008653784
-0.017224107 0.044060595 0.005319341 0.031373166 0.025574379 0.015147829 -0.02080654 -0.04483328
0.013641266 -0.0071164942 -0.011376324 0.00023591431 -0.033539888 -0.011777334 -0.01952341 0.022975117
-0.015275162 0.0069127264 0.01198682 -0.041326772 -0.038576625 -0.0010225617 0.011530082 0.023438979
0.03422949 -0.024176063 -0.037145287 0.0339811 0.02967194 0.04101571 0.0055210073 0.024564773
-0.01245502 0.028270815 -0.0006910594 0.057912007 0.029327113 0.027208738 0.036000732 -0.022442536
0.011783801 0.009791336 -0.030774001 -0.018258046 -0.01720427 -0.051084172 0.026243538 -0.027330544
0.016948393 -0.057688948 0.0034405654 0.030909432 0.030592239 0.01765959 0.0038718793 0.027099757
0.015268704 -0.0062409127 -0.04479429 0.0018478179 -0.0532556 0.03753368 -0.0024294963 0.04506035
0.026643185 -0.02041496 0.050181117 0.004192545 0.0040791132 0.03477385 0.012979848 0.019560922
-0.0061495886 -0.009310129 0.01023575 0.004717217 -0.010520906 0.00454253 0.022351874 0.0014209524
-0.0058635743 -0.023761636 -0.015168929 0.019450646 0.022675704 -0.012759168 -0.026230732 -0.0015017147
0.01422157 -0.04640106 0.03100064 -0.013453656 -0.00019304336 -0.012900772 0.03214615 0.031456888

transformer.layers.0.linear2.bias f4 [64]
00000000: ca39 553c 6495 863b ec3b ecbb 2e2b 1a3c
00000010: 8b0d 913b 5144 563c 40ee 2abc def9 a83c
00000020: f2a4 9b3b 64de 583c b32d 00bc 4376 413c
00000030: 8e55 30bb fe62 dbbb d6dd 143c a5a8 0abc
00000040: a0f5 e0bb dd99 9bba 45a2 aa3b 88de 983b
00000050: 0ac8 0cbb 6b08 5f3c 9603 ebba 270e 2d3c
00000060: f60b 17bc 7c00 f93a d618 20bc f044 273c
00000070: 110d bf3b 3454 4a3b 6235 f53b 88a9 233c
00000080: 007e acbb 2e0a b03b dce8 51ba d736 3bbb
00000090: a304 293c ae7d 6abc c94f ce3b b649 883c
000000a0: 7230 40bc 1486 c439 c224 92bb 027e 32bc
000000b0: 3990 05bb 1eca 72bc 7950 12bc 3064 143c
000000c0: c3c8 a7bb 463c be3a 67b7 693c 5538 11bb
000000d0: b213 22bc a567 783c 6710 333c 0975 9dbb
000000e0: 7c1e 86bc 0ef1 46bc 9ea1 4abc 7fbf 733b
000000f0: 90e3 533c f6d5 50bb 0b71 c73b 82f7 37bc
0.013014266 0.004107164 -0.0072092917 0.009409709 0.0044266633 0.013077811 -0.01043278 0.020626958
0.0047498876 0.013236616 -0.007823396 0.011807981 -0.0026906463 -0.0066951504 0.009086093 -0.00846306
-0.0068652183 -0.0011871416 0.0052073323 0.0046651997 -0.0021481537 0.013612847 -0.0017930146 0.010562456
-0.00921916 0.0018997337 -0.009771546 0.010209307 0.005830415 0.0030872943 0.0074831704 0.00998915
-0.005264044 0.0053723073 -0.0008007416 -0.0028566623 0.010316047 -0.014312191 0.006296132 0.01663671
-0.0117303 0.0003748393 -0.0044599483 -0.0108943 -0.0020380153 -0.014818696 -0.008930319 0.00905709
-0.005120368 0.0014513812 0.014264918 -0.002215882 -0.009892391 0.0151614295 0.010929204 -0.0048052114
-0.016371958 -0.012142433 -0.012367634 0.0037192998 0.012932673 -0.0031865812 0.006086474 -0.011228444
