marble_model/best_model_v3.0_20250530_230505.pt (torch, 295593 bytes, 30 tensors)

token_embedding.weight f4 [13, 64]
000000 fe 92 ab bc 55 55 37 bc 89 6c bb 3b 8b 6c 26 bc
       -0.020944115 -0.011189778 0.0057197255 -0.010157715
000010 d2 b1 82 39 cc a4 84 bb b4 e4 6a bc 17 8c 5b bc
       0.0002492802 -0.0040479656 -0.014336754 -0.013400099
000020 f7 43 ba 3b e2 5f fd 3a 54 1b ea bb 1b 7b 45 3c
       0.0056843716 0.0019330943 -0.007144371 0.012053276
000030 62 68 ee 3c 99 9f a0 ba a3 ae f6 bc f9 e1 1e 3c
       0.029102508 -0.0012254595 -0.03011257 0.009697431
000040 a7 e8 03 bd e7 1e 89 bc 4b 19 9f 3c 3e e6 ac bc
       -0.032204296 -0.016738368 0.01942124 -0.021105882
000050 80 a4 15 3d 7c 5c cb 3a 4d 19 3b 3d b3 2a d5 bc
       0.036533833 0.0015515233 0.045678426 -0.026021337
000060 02 2e 1e 3d 92 59 59 bc 97 87 a1 bc 6b 15 18 3c
       0.038618095 -0.013265984 -0.019717975 0.00928245
000070 7b 5f 06 bc 2b e6 83 bc 5d fc 75 3c cf 70 0b 39
       -0.008201475 -0.016100964 0.015013781 0.00013298097
000080 7d 31 f4 bc 5d ab ea 3c 18 8c 9c 3c cb 0d 4d 3c
       -0.029808754 0.028646166 0.01910977 0.0125154955
000090 a8 74 10 bc 06 07 ce 3b 2e ce ab bc c6 47 f9 bb
       -0.0088168755 0.0062874584 -0.020972338 -0.007607433
0000a0 24 13 82 3c 94 a1 b2 3c b7 91 b5 bb 22 aa 3c bc
       0.015878268 0.021805562 -0.005541052 -0.011515172
0000b0 1e e4 83 b8 00 24 47 3a a7 bc 2b 3d 70 ad b8 bc
       -6.289057e-05 0.0007596612 0.04192796 -0.022543639
0000c0 1e 29 bd 3b 9e 4f 7b 3c 32 97 a8 3c 65 78 c1 bc
       0.005772724 0.015338806 0.020579908 -0.023616979
0000d0 4b b3 a8 3c 82 67 3b 3c 69 24 db 3c 39 09 40 bc
       0.020593306 0.011438252 0.02675076 -0.011720949
0000e0 33 28 e9 3c f2 27 52 bc e1 c2 b2 b9 84 07 50 3c
       0.028461551 -0.0128269065 -0.00034096002 0.012697104
0000f0 45 3a 03 3d 45 1d 81 bc 43 4f 13 3a 6a cd 57 bc
       0.032037992 -0.015761027 0.0005619416 -0.013171533
000100 76 3d 3c bb d6 1b cd bc 85 6e 37 bd 34 f0 57 bb
       -0.0028723157 -0.025037687 -0.044783134 -0.0032949569
000110 8f b5 69 bd cd 96 4e 3d 82 9e 7e 3c 6e 66 3a bd
       -0.057057913 0.050436784 0.015540721 -0.04550784
000120 65 76 ff bc f4 be 16 bd 80 71 b3 3c 90 f7 0c 3d
       -0.031184385 -0.0368032 0.021904707 0.03441578
000130 1d f9 cc 3c 21 88 14 3d 8f cc 84 3b 7a 8a 27 bb
       0.02502113 0.036262635 0.0040527056 -0.0025564716
000140 1c 81 7d 3b c8 cb 6b 3c 99 a1 d5 bb 08 44 46 3c
       0.0038681692 0.014391847 -0.006519508 0.012101181
000150 30 f3 34 bc 53 f4 07 3d 2e 06 13 3d 46 d5 33 3c
       -0.011044309 0.03319199 0.035894565 0.010976141
000160 32 bc be 3a 28 4b df 3c 30 9b e1 bc 36 12 0f bd
       0.0014551936 0.027257517 -0.02753982 -0.034929477
000170 b4 79 82 3c 97 c4 c0 3c 78 1a 18 3c 8e e5 df bc
       0.015927173 0.023531241 0.009283654 -0.02733114
000180 f4 8d e9 bb 41 c9 e8 3b a0 66 0c bb 99 d4 b5 3a
       -0.007127518 0.0071040695 -0.0021423474 0.0013872563
000190 f5 bf cf 3c 7e 40 07 bd 39 e6 08 3d f0 7b 16 3d
       0.025360087 -0.03302049 0.033422682 0.03673929
0001a0 91 6b 4b 3c 11 95 68 bd 38 0c 0d 3c b9 ae 54 bc
       0.012415783 -0.056782786 0.00860887 -0.01298111
0001b0 5d 19 f5 3c f7 00 b0 3c 3a 65 2e 3c dc ac c5 bc
       0.02991932 0.021484835 0.0106442515 -0.024130277
0001c0 32 46 58 3d e8 5c eb 3c 12 f5 b3 bc 7d cb 01 bc
       0.05280132 0.028730825 -0.021967445 -0.007922051
0001d0 89 9d be 3c ff cd 89 bd dd ff 9c 3c af 1c 2c bc
       0.023268478 -0.06728744 0.019164974 -0.010504886
0001e0 80 82 c0 bc f0 c7 20 bd 25 73 d9 bc 49 6e 9d bc
       -0.023499727 -0.039253175 -0.026544163 -0.019217627
0001f0 22 0f 24 bc 52 51 3b ba 45 a7 27 3d 8f 85 14 3d
       -0.010013374 -0.00071456016 0.040931005 0.036260184
000200 36 24 b0 bc c4 21 20 3b e0 86 24 bd a9 19 8f bc
       -0.021501642 0.0024434188 -0.04016769 -0.01746829
000210 d0 a7 58 3c 8e 71 cc 3b 79 f0 81 bc 09 cd d3 3b
       0.013223603 0.0062391227 -0.015861737 0.006463651
000220 70 e9 3c 3b 94 00 72 3c ac 21 78 bb 81 ce 4d bc
       0.0028825663 0.014770646 -0.0037861867 -0.012561441
000230 22 f2 d4 3c 42 8d 3c bc fe 6e 66 3c 9c ba 89 3c
       0.025994364 -0.011508288 0.014064549 0.016812615
000240 bc 39 d1 bc 90 5b 97 ba e9 93 0a bc 78 7b 54 3d
       -0.025540225 -0.0011547673 -0.008458116 0.05187556
000250 70 d6 b3 3c 0f 3d 06 3d cb 22 f8 bc de 80 f8 ba
       0.021952838 0.032773074 -0.030290028 -0.0018959304
000260 45 b5 8b b9 f2 a3 2b bc 82 33 36 3c 6e 46 49 3c
       -0.00026647202 -0.010476099 0.011120679 0.012284858
000270 fb e6 b5 bb ab 49 f3 3c 49 98 62 3c 31 65 09 3d
       -0.0055512167 0.029698214 0.013830253 0.03354377
000280 d7 24 9f bc 19 26 2a bc 36 86 a6 bc 19 69 32 bd
       -0.019426746 -0.01038506 -0.020327669 -0.04355726
000290 62 4c bd 3c 52 b1 73 3c 2b f3 c3 bc 82 7a 6a bc
       0.023107711 0.014873819 -0.023919662 -0.014311435
0002a0 fe db 93 bc 58 3c 3c 3c b3 48 17 3d cc 38 84 bb
       -0.018049236 0.011488996 0.036934566 -0.004035091
0002b0 a6 44 17 bd 35 b5 55 bb 58 86 0d 3c f7 41 6a bc
       -0.036930703 -0.0032609229 0.008637987 -0.014297954
0002c0 18 32 ab 3c 29 b6 b5 3c 74 4a 9c 3c 90 7d d7 3c
       0.02089791 0.022181587 0.01907847 0.02630499
0002d0 0e 52 68 bc 89 5e 3b 3b 2d 1b 0c bd 4f 45 49 3c
       -0.01417972 0.0028590283 -0.034205604 0.012284591
0002e0 86 64 5e 3c a9 b9 86 3c 38 eb 46 bc 10 16 5a bc
       0.013573771 0.016445952 -0.012141041 -0.013310924
0002f0 66 87 06 bd 9c d3 26 bc cf 09 62 3c c9 01 ac bc
       -0.03284397 -0.010182288 0.013796284 -0.020996945
000300 9f 07 0a 3c c8 55 1f 3b 2c 24 1b 3c df d2 e8 3b
       0.008424669 0.0024312604 0.009469073 0.007105216
000310 0d 90 db 3a b4 3d a9 bb f0 51 8b bc e6 1b d1 bb
       0.0016751305 -0.0051648263 -0.017006844 -0.0063814996
000320 b4 9c 53 3c 0b 8c 96 3c ec 01 09 3d 9b d6 0b 3d
       0.012915779 0.018377325 0.0334491 0.03414021
000330 4a c2 9e bc eb 40 50 bc cc 83 b8 bc c5 84 d8 bc
       -0.019379754 -0.01271079 -0.022523783 -0.026430497
000340 64 9e b2 bb 42 8c 18 3a 5c 5f be 3c 37 ad 4c 3c
       -0.0054510105 0.000581924 0.02323883 0.0124924695
000350 47 28 69 bc f6 3b 37 bc f7 6a 86 bc dc 47 db bb
       -0.014230794 -0.011183729 -0.016408427 -0.006691916
000360 cf b8 b6 3c 6f 9b f2 3b 00 79 82 bc 64 22 0c bb
       0.02230492 0.007403783 -0.015926838 -0.0021382803
000370 1c dc be 3b 41 97 10 3d aa 2a 77 bc 94 9a e5 bb
       0.005824579 0.035300497 -0.0150858555 -0.0070069525
000380 40 77 d7 3b 08 3f 84 bd e2 b4 51 3b b2 14 19 3b
       0.006575495 -0.06457335 0.0031998684 0.0023358283
000390 7b 86 ec ba 07 8e 9c bb 90 23 09 3c e3 d2 1a 3d
       -0.0018045449 -0.004777673 0.008370295 0.037798773
0003a0 4c 8f 48 bb 8f 31 85 ba 60 cc 09 3c 31 e5 e6 bb
       -0.003060299 -0.0010161864 0.008410543 -0.0070463647
0003b0 cb b2 ee bc 40 c8 10 bc 13 ce a4 3c df ec c6 bc
       -0.02913799 -0.008836806 0.020117795 -0.02428287
0003c0 5c e3 18 bc 2a 0b c7 3c 1a c3 b6 3b 93 81 0b 3c
       -0.00933155 0.024297316 0.005577457 0.00851478
0003d0 54 17 3f bd b2 91 ae 3b ee 80 96 3b a9 98 9b bc
       -0.046653107 0.005327427 0.0045930063 -0.018993692
0003e0 89 dc 15 ba 76 ef fd bc 8a b0 01 3c 4d fc 89 3c
       -0.0005716761 -0.030997973 0.007915625 0.01684394
0003f0 35 6e 5a bc f0 b6 da 3c 6c ae 69 3b f7 2f e5 ba
       -0.0133319395 0.02669856 0.0035656942 -0.0017485608

position_embedding.weight f4 [30, 64]
000000 05 d7 e4 3c 14 35 36 bc 25 9c 3f bd bb 8f 4f bd
       0.02793456 -0.011121053 -0.04677977 -0.05067418
000010 6d 51 a9 bc 19 28 b1 3b 61 59 16 bd 30 5a 17 bc
       -0.02066871 0.0054063913 -0.036706332 -0.009237811
000020 bf 27 c6 bc 7d 99 fd bc c5 93 08 bc 4a f3 2e 3d
       -0.024188874 -0.030956978 -0.008336012 0.042712487
000030 98 1b 0a 3d a3 b5 a7 3b 52 9e 03 bd e3 fb de bc
       0.03371772 0.0051180883 -0.032133408 -0.027219718
000040 08 cc ec 3c b1 0b 06 3d 34 bd 3e bd 40 89 a2 3b
       0.028905883 0.032725994 -0.046567157 0.004960209
000050 63 bc 40 bd c3 d5 25 3d 71 7a 68 3a f0 19 4a bc
       -0.04705466 0.040487062 0.0008868343 -0.012335286
000060 22 af e3 bb 9a c7 97 3c 09 45 18 bd 6a c1 b4 bb
       -0.0069483677 0.018527795 -0.037175212 -0.005516221
000070 94 62 1b 3d 64 0a 16 3d 40 94 90 3c f2 c4 4e 3d
       0.03793581 0.036631003 0.017648816 0.05048079
000080 2e 70 32 bc 25 99 77 3c b8 20 63 3c 1a dd ee 3c
       -0.0108910035 0.015112196 0.013862781 0.029158164
000090 93 f0 eb 3c 3d 19 0f bd 9c 82 c5 3c 05 f0 9f 3c
       0.028801238 -0.03493618 0.024110131 0.01952363
0000a0 f9 cb 90 3c f8 d8 f0 bb 0d ee d8 3b 48 d7 a9 bc
       0.017675387 -0.0073500834 0.0066201747 -0.020732537
0000b0 88 3c 1b 3c a2 f3 57 3b bc 63 27 3d 5d a9 50 3c
       0.009474881 0.0032951613 0.0408666 0.012735692
0000c0 03 e4 50 bc a8 12 39 3c 25 1e 95 bc 58 84 2f bd
       -0.012749675 0.011295952 -0.01820285 -0.042850822
0000d0 51 8a b2 3c a7 98 28 bc da 74 1e 3d 90 30 a0 bc
       0.02179447 -0.010290301 0.038685657 -0.019554406
0000e0 81 14 26 3c df 94 7e 3b b5 63 35 bd c0 3a 1b bd
       0.010136724 0.0038846058 -0.04428454 -0.037897825
0000f0 db 09 0c bd ef 95 cc 3c 1a f7 09 3c 0b 7c 23 3c
       -0.034189086 0.024973838 0.00842073 0.009978305
000100 3d 17 6f 3c ca ce c3 3c 01 93 65 3d cd 96 a0 3c
       0.014592943 0.023902316 0.056048397 0.019603157
000110 64 0a b2 3c bd 07 48 bc 6c 7f f0 bb a6 45 bf 3b
       0.02173347 -0.012208876 -0.0073394086 0.00583716
000120 6c a2 67 3c 36 ce 34 bb f2 a4 ce 3c 30 13 17 bd
       0.0141378455 -0.0027588732 0.025225136 -0.036883533
000130 7c f5 2c bd ea 45 21 bd e7 5d 92 3c 5b 79 df 3c
       -0.0422263 -0.039373316 0.017867042 0.027279546
000140 c8 69 28 3d ae 7c 87 bc 70 e8 cc 3b 88 74 b3 3b
       0.041116506 -0.016538944 0.0062532946 0.005476538
000150 f5 05 91 3c 8e f3 d9 bc af 25 66 3c fb 67 65 bd
       0.017703036 -0.026605394 0.01404707 -0.056007367
000160 ff 4e 01 bc f4 28 f7 3c 50 65 0a 3d 1c 1f c3 3c
       -0.007892369 0.030170895 0.033788025 0.023818545
000170 bc d5 c1 3b 70 3b 1b bd 7e 16 0b 3b 1f a4 66 3b
       0.0059153717 -0.03789848 0.0021223123 0.0035193039
000180 4f 7d e7 3c 4f 2d 95 bc ea 8e 01 3a fc 19 1a 3d
       0.028257994 -0.018210081 0.00049422553 0.037622437
000190 7f fd c5 bc de bc 3f bb 87 20 c4 bc 1b e5 ea 3b
       -0.024168728 -0.002925686 -0.023941291 0.007168425
0001a0 c9 aa 84 3c 7a fe f6 3c dd a3 f3 3c 53 0e e0 ba
       0.016194718 0.03015064 0.029741222 -0.0017094113
0001b0 59 8d ba bc c9 35 da bc 63 e4 d3 3a f0 88 4c bc
       -0.022772478 -0.026636975 0.0016166087 -0.01248382
0001c0 2c ab 06 bc 59 c9 17 bc 67 4d 57 3d de 5f 64 bb
       -0.0082195215 -0.009264314 0.05256405 -0.003484718
0001d0 da d7 a6 bc 33 f7 cc 3c a1 ae 76 bc ed 3e ec 3c
       -0.020366598 0.025020218 -0.015056283 0.0288386
0001e0 a4 95 5a 3c 08 2d ac 3c 81 7c 88 3c 2c cd 98 3c
       0.013341341 0.021017566 0.01666093 0.018652521
0001f0 b5 19 17 bd 38 7e d1 bc d6 b8 c1 3c 67 1e 19 bd
       -0.03688975 -0.025572881 0.023647707 -0.03738251
000200 ea 8a 3b 3d ef 00 03 3d 50 3b ee bc 52 1e 3e 3c
       0.045786776 0.031983312 -0.029081017 0.011603909
000210 27 e5 60 3c 40 f6 0a 3c e0 97 97 bb 7b e6 d6 3b
       0.013726509 0.008481562 -0.004626259 0.006558237
000220 74 ac 86 bd 0c 1d 8d 3c 67 c2 f4 bc 80 3c b6 bc
       -0.065758616 0.017225765 -0.029877855 -0.022245646
000230 50 e5 c7 3c 1a b1 98 3c 7e 80 da 3c c4 82 c2 3b
       0.024401337 0.018639136 0.026672598 0.0059359986
000240 21 c0 a1 3d 2b fe 0d 3d a8 73 06 bc d3 89 80 3c
       0.07897974 0.03466622 -0.008206286 0.01569072
000250 35 98 9d 3c 29 db 5f 3d 79 22 96 3d 01 00 ac bc
       0.019237617 0.054652367 0.07330794 -0.020996096
000260 67 02 89 bd 56 95 a7 3c 6e e5 e4 3c 1a 0b 1d bd
       -0.06689911 0.020456951 0.027941432 -0.038340665
000270 81 b9 b6 bb 16 7d 96 bb e2 90 da 3b 24 82 58 3d
       -0.005576313 -0.004592548 0.0066701034 0.052858487
000280 ab 36 ba bc 34 f3 75 3d d0 75 4d 3c 41 53 1e 3d
       -0.022731146 0.06004639 0.012540296 0.038653616
000290 b3 12 25 bc 7f 73 cf 3c 16 ea 5a bc a2 0d 05 bd
       -0.010075259 0.025323628 -0.0133614745 -0.032483704
0002a0 52 3e 93 3b 70 90 3f bd 1c b0 09 bd 05 b6 8d bd
       0.004493513 -0.046768606 -0.033615217 -0.06919483
0002b0 eb ea 9d 3d f2 68 7f 3d db 25 11 bd 94 76 0d 3d
       0.07710823 0.062355943 -0.035436492 0.034536913
0002c0 3c 71 c3 bc 93 bc 28 3b 6f 9c af bc b0 c4 a0 bd
       -0.023857705 0.0025747165 -0.021436898 -0.07850015
0002d0 27 96 43 3d d4 16 b4 3b ab 1d 23 bc d2 fc 67 3d
       0.04775062 0.0054958854 -0.009955804 0.056637593
0002e0 e2 c8 a3 bc c4 e9 70 3c 86 d0 e9 3c 18 5a cb bc
       -0.01999325 0.014704172 0.028541815 -0.024823233
0002f0 0e 8a 02 bd 8b cc b4 bc 9f 50 e1 3a 56 1e ad bb
       -0.03186994 -0.02207019 0.0017190165 -0.0052831573
000300 50 83 25 3c c4 4e 1c bd 32 7f ec 3c 7d 03 14 bd
       0.010102108 -0.038161054 0.028869245 -0.03613614
000310 25 d6 91 3c 30 da ab 3b b3 2d 3e bd 17 58 01 3c
       0.017802307 0.005244516 -0.0464303 0.007894537
000320 9f 3a 3c 3c 8e fa 41 3c 52 ea eb 3b e2 47 46 bb
       0.011488586 0.011839522 0.007199564 -0.0030255248
000330 45 b7 12 bd fa 50 af bc 72 4d 87 bc 9e f4 81 bc
       -0.03581931 -0.021400917 -0.016516421 -0.015863713
000340 5e e0 00 3c e7 ef 03 3d b3 22 ef bc 39 6b 12 bd
       0.007865993 0.03221121 -0.02919135 -0.035746787
000350 ea 00 0c bd 6c d2 db bc f1 b1 d3 bc 46 59 fc 3c
       -0.03418056 -0.026833735 -0.025841685 0.030804288
000360 31 74 02 3c 3a f2 bf bc bd 5a 15 bc 27 b3 19 3c
       0.0079622725 -0.023430932 -0.009115872 0.009381092
000370 ab f7 c9 3c 70 75 3e bd 3c 0c 9c 3b c4 a2 17 3d
       0.02465423 -0.046498716 0.0047622006 0.03702046
000380 74 4a e3 bc 34 4e a2 39 e5 ba d5 3c 28 bb a6 3b
       -0.027745463 0.00030957314 0.026090095 0.0050882287
000390 9e 11 4c bd 02 d3 8c bb b4 60 30 bd c2 4a bc 3c
       -0.04982149 -0.004297615 -0.043060973 0.022984866
0003a0 31 eb 55 bd dd 2b ac 3c fe e4 78 3d 2c 07 36 3d
       -0.05222625 0.02101701 0.06076526 0.044440433
0003b0 b4 a4 af bb 9d b1 f7 bb 68 8b 07 b9 3e 5a 63 bb
       -0.0053602103 -0.007559015 -0.00012926536 -0.003469124
0003c0 c5 ff c9 3c a4 e0 0f 3c 7c d5 80 3d 36 be 10 bd
       0.024658093 0.008781586 0.06290719 -0.03533765
0003d0 82 67 81 bb b8 c0 ce 39 6f c1 5d bc 39 4c 9e 3c
       -0.0039491067 0.00039434968 -0.013534888 0.019323455
0003e0 00 98 53 35 43 0e 24 3d b5 92 09 bd 16 b5 1e 3d
       7.8824814e-07 0.040052664 -0.033587176 0.038746916
0003f0 7c 55 e3 3b 34 af 25 3c 34 82 65 3d fa a1 14 3c
       0.0069376808 0.010112572 0.056032375 0.009071821

transformer.layers.0.self_attn.in_proj_weight f4 [192, 64]
000000 f4 2f 0c be 7c 8f 3a bd 2e c4 7e 3d b0 bc 54 be
       -0.13690168 -0.045546994 0.06219881 -0.20775104
000010 e6 f0 db 3d ee 91 b7 bc d0 d4 d9 bd 28 6d d5 bd
       0.10739307 -0.022408452 -0.10636294 -0.104212105
000020 36 43 1a 3e 7d 3b 32 be a6 fa 49 3d bc e4 3f be
       0.15064701 -0.17405505 0.049311303 -0.18739599
000030 13 d4 86 3d 8b 60 94 3d 88 35 31 3c 91 af 1b 3d
       0.06583419 0.072449766 0.0108159855 0.03800923
000040 3b 57 09 bd 9d 61 de 3a 6a 97 a0 3d f9 76 e9 bc
       -0.033530455 0.0016966347 0.0784138 -0.028499113
000050 3a 2b 5e bd c7 03 0e be 58 de 1e bd 6a 00 04 be
       -0.054240443 -0.13868628 -0.038786262 -0.12890783
000060 42 71 ed 3c fc ed 06 be 53 6e 2c 3d a8 b5 35 3c
       0.02898467 -0.13176721 0.0420974 0.0110906735
000070 d2 26 d5 bd b3 ce b7 3d 98 22 fd 3d 6c 51 ef 3d
       -0.10407795 0.089749716 0.12360114 0.11685452
000080 7d 68 98 3c b3 71 18 3e 2c b5 d9 bc fa e8 a6 bd
       0.018604511 0.14887123 -0.026575647 -0.081499055
000090 9a 6c 2b 3e 5f c7 3c bd 8d cf c6 3b 39 1d c6 3d
       0.16740647 -0.046088573 0.0060672224 0.096735425
0000a0 2b 57 f1 3c 60 0c b1 3d df d0 ae 3d be 7b 9c bb
       0.02946051 0.086449385 0.08535933 -0.0047754934
0000b0 41 28 98 bd f0 6a cd bd b1 71 57 bd 5c d5 3e 3e
       -0.07429553 -0.10030162 -0.05259866 0.18636078
0000c0 dc d6 31 3e 83 e3 36 3d 3c cd 7d 3c b7 e3 88 bd
       0.17367119 0.044650566 0.015490826 -0.06684058
0000d0 2f f6 40 bc f0 54 be bb 1c f1 2b 3d 8c e2 08 3e
       -0.011777445 -0.005808465 0.041977987 0.13367671
0000e0 5e c5 c7 bd 44 00 af bc 80 2d c1 bd 11 d1 05 3d
       -0.09754442 -0.021362431 -0.094325066 0.032670084
0000f0 bf 8a a8 3d 1f 24 b7 bd 3e c5 0d be 4a c3 c0 bd
       0.08229589 -0.089424364 -0.13844773 -0.094122484
000100 64 18 75 3d ef 05 2c be c4 ab 46 be b9 22 2f 3d
       0.059837714 -0.16799138 -0.19401461 0.042757723
000110 a2 8f 08 bd 5f 2d 8f 3d 4d c5 39 bd ae 6b 21 3d
       -0.033340104 0.06991076 -0.045354176 0.039409332
000120 36 b3 e6 3d 1d 9c 47 bd fa 56 67 3d 58 de 38 3c
       0.112646505 -0.048732866 0.05647943 0.01128348
000130 a7 a9 6c 3d ff 8a d0 bc b4 83 11 3e 77 11 e7 3c
       0.05777898 -0.025456904 0.14210397 0.02820657
000140 8c a2 35 3d 5d 50 5a 3e a7 9d 5c be 33 b1 8d 3d
       0.04434447 0.21319719 -0.21544515 0.06918564
000150 91 3d 8d bd d3 15 f5 3d ba b2 81 3d ba 50 60 bd
       -0.068965085 0.11967053 0.063329175 -0.054764487
000160 d8 cf 37 bd d3 fc b0 3c 96 47 ba bb f9 94 1f be
       -0.04487595 0.021604931 -0.0056848032 -0.15584172
000170 99 76 ba 3d 03 a9 39 bd 7b 67 8a bc 05 7d 43 3e
       0.09104652 -0.045327198 -0.016895046 0.1909066
000180 5f 1d 4f be ed 87 af 3c b6 01 c2 ba 74 b0 cd 3c
       -0.20226048 0.02142712 -0.0014801535 0.025108553
000190 55 5e 97 3d 6c 8b 1e bd 4a 24 7f 3d be a7 33 be
       0.07391039 -0.03870718 0.062290467 -0.17544457
0001a0 0a 09 bb 39 0c 30 eb 3d d9 5b df 3c 50 d6 da 3d
       0.00035674154 0.114837736 0.027265476 0.10685408
0001b0 0b b0 5d 3d fa cd 92 b8 e0 2b d3 bd 86 fc 01 3e
       0.054122966 -7.0001886e-05 -0.10311103 0.12693986
0001c0 11 2b 0a bc 63 f4 0f be 74 0c 9e bd 2c 9c f4 3d
       -0.008433119 -0.1405807 -0.07717219 0.1194385
0001d0 5a 32 c0 bc c1 76 eb bd 8a 0b 02 3e 9c b6 4d 3e
       -0.02346151 -0.1149726 0.12699714 0.20089191
0001e0 a1 2a d5 bd 0a c9 f1 bc 84 2e 61 be e7 d5 be bd
       -0.104085214 -0.029514808 -0.219904 -0.093181424
0001f0 ec e7 b1 3d 3e fd 48 be f2 06 80 bc b8 19 42 3e
       0.08686814 -0.19627854 -0.015628312 0.18955123
000200 67 bd ca bd 77 52 0a be ef c3 f1 bd fe 8e 80 bd
       -0.09899407 -0.1350802 -0.118049495 -0.062772736
000210 ec fd 81 bd 8c f2 fd 3d 20 a6 f1 bd a8 42 b8 3d
       -0.0634726 0.12399778 -0.11799264 0.08997089
000220 6a 7d 2d be 62 94 5f 3d 2e f5 a0 bd 5b 0e c9 3c
       -0.16942373 0.05458487 -0.07859264 0.024542978
000230 b7 65 f9 bd 1a a0 17 be 4f 23 d4 3c 88 26 bd bd
       -0.12177604 -0.14807168 0.025895743 -0.09235865
000240 1e bb 0e be 0a 88 06 be 2f 44 17 be ff bc 2a 3e
       -0.13938567 -0.13137832 -0.14772104 0.16673659
000250 8c b7 0f 3e 4c c9 58 bd 6f 50 2d 3d 5f cf bc 3d
       0.14034861 -0.052926347 0.042313036 0.092192404
000260 ee e4 16 bd 89 b2 9a bd 81 d1 62 bd a1 88 b1 3d
       -0.036839418 -0.07553584 -0.05537558 0.08668638
000270 58 a5 e0 3d a5 1d c9 3d 4b 22 aa 3d 98 d5 50 bd
       0.10969037 0.09820107 0.08307322 -0.05098495
000280 1c ff 54 bb b2 c1 04 3e 55 f0 eb bc 98 15 e1 bd
       -0.003250069 0.12964514 -0.028801123 -0.10990447
000290 08 e0 d6 3c 55 7c 79 3d 7d 51 69 3d f4 70 ec bd
       0.026229873 0.060909588 0.05696248 -0.115449816
0002a0 0d 0f a0 3d 1a 0f b6 3d fc 0d 18 be c3 06 c8 3c
       0.07815371 0.08889599 -0.14849085 0.024417287
0002b0 56 74 9c 3d 39 d7 78 bc 37 c6 20 3c 88 7d 0e 3e
       0.07639377 -0.015188032 0.009812883 0.13915074
0002c0 83 26 9d 3d 53 e8 88 3d d7 bf 96 3d 30 d7 43 bd
       0.07673361 0.06684937 0.07360809 -0.04781264
0002d0 d4 47 a1 bd 0c 98 e2 3d 18 e9 4b bb 04 56 86 3c
       -0.07875028 0.11064157 -0.0031114276 0.016398437
0002e0 4e 2e 80 bd 87 5d b7 bd 36 c8 9c bd 9c 64 aa 3d
       -0.06258832 -0.08953386 -0.07655375 0.08319971
0002f0 e1 cb 14 3e 7a 8d 1b 3d 6f 4e 2e 3d 1d bd ac 3d
       0.14530899 0.03797672 0.04255527 0.08434508
000300 5e d9 09 bb fc 5f de 3a e6 ed c2 bd 4c aa ca 3d
       -0.0021034102 0.0016965861 -0.09518032 0.09895763
000310 4a b3 22 bc cc b3 8a 3d 11 d6 33 3d 3f 0b e1 3d
       -0.009930441 0.06772575 0.04390532 0.10988473
000320 93 8a 9d bc 8e 94 9f 3d 66 27 0c 3e aa 39 55 bc
       -0.019231116 0.077920064 0.13686904 -0.013014236
000330 54 ae f3 bd b0 cf aa bc e1 a0 d7 bc 63 f2 0f be
       -0.11898485 -0.020850986 -0.02632183 -0.14057307
000340 14 8b 83 3c e9 17 6c bd 0a 4a ac 3d 09 16 b9 3d
       0.016057529 -0.05763999 0.08412559 0.09037406
000350 b4 38 c1 3d f1 c3 f2 3c 97 32 da 3d 6e 5f 79 3d
       0.094346434 0.029634448 0.106541805 0.060882024
000360 35 b7 48 3e 6f 26 be 3d ee ac 92 bd f3 04 ae 3c
       0.19601138 0.092846744 -0.0716189 0.021242594
000370 a5 99 1e bc c4 db c9 bd ef 9c 28 be 03 51 0e bd
       -0.009680186 -0.0985637 -0.16466115 -0.034745228
000380 5d c3 0e 3e f7 dd cf bd 90 d5 cc 3c b3 76 a3 bd
       0.13941713 -0.10149758 0.025004178 -0.079816245
000390 85 df 02 3e 68 3b 3f bd f8 b9 31 bd b4 f4 7b 3d
       0.12780578 -0.046687514 -0.043390244 0.061512664
0003a0 a5 15 a6 3d b9 8a 0c be 54 3b d0 3c 6f dd 3c bd
       0.08109597 -0.13724793 0.025418915 -0.046109613
0003b0 4e fe 23 be 61 23 62 3d cb 8a 16 bd 01 4c bc bd
       -0.16014978 0.05520952 -0.036753457 -0.09194184
0003c0 ac e2 b8 bd bc 22 2f 3e 19 a7 60 bc 87 87 00 3e
       -0.09027609 0.17103094 -0.013711714 0.125517
0003d0 6b c7 2d be 4a 23 43 3e 06 d2 68 bc 5b 3c 82 bd
       -0.16970603 0.1905643 -0.01421023 -0.06359168
0003e0 21 02 f2 bd 9c ac e6 3b ed 4a ec bd ff 47 18 bd
       -0.11816812 0.0070396196 -0.115377285 -0.037178036
0003f0 5b 29 5e bd 1d 3b 0d be 3c 6d 00 be 69 a0 3a be
       -0.05423866 -0.13792081 -0.1254167 -0.18225254

transformer.layers.0.self_attn.in_proj_bias f4 [192]
000000 17 d3 3a bd 12 a7 bf bd 66 6f 0f 3c 5d d8 f9 3c
       -0.045611467 -0.09358038 0.008754587 0.030498678
000010 f3 04 9e 3c f2 23 79 bc 43 39 e6 3c 93 1a 00 3d
       0.01928947 -0.015206324 0.028103476 0.031275343
000020 15 06 44 bd 47 ea 6c bc ed d4 c7 bd 1a cd 15 3d
       -0.047857363 -0.014460153 -0.09757409 0.036572553
000030 5e 0f 63 bd 5e a5 7d bd 88 cf c4 3c 27 45 c8 bc
       -0.055434577 -0.061925285 0.02402474 -0.024447037
000040 b5 d2 88 bd 42 e1 28 bd 1f e5 de bb b5 71 68 3d
       -0.06680814 -0.041230448 -0.0068022157 0.056749064
000050 88 32 c7 bc 20 71 0e bc 2e 44 93 bc 29 44 64 bb
       -0.024316087 -0.008693963 -0.017976847 -0.0034830666
000060 10 52 65 bd 97 70 d1 3c 73 0b 99 3d 03 8d 8c bc
       -0.055986464 0.025566382 0.07472887 -0.017157083
000070 4a 6e 73 bd 2b cb 14 3d 37 1b 6f bc 83 f1 88 3d
       -0.05943135 0.03632657 -0.014593891 0.0668669
000080 82 8a 2f bd 8f 4d e8 bc e0 7a 21 3d 3b 71 95 3d
       -0.0428567 -0.028357295 0.039423823 0.072969876
000090 4e 68 d8 bc d5 35 a2 bc 01 fc 6c ba a4 43 85 3d
       -0.026416924 -0.01980106 -0.0009040237 0.06507042
0000a0 63 49 fb 3c 3a 20 4e bd 7d 7f 5b 3d e1 db 48 bd
       0.030674642 -0.050323702 0.05358838 -0.049037818
0000b0 bd b7 9e 3c 18 ee a3 bd 03 5b 10 bc e5 0c 64 3d
       0.019374723 -0.08004397 -0.008810761 0.05567636
0000c0 6e b6 5b 3d 80 b6 37 3d ab e8 9d 3d a2 95 3d 3c
       0.053640775 0.04485178 0.077103935 0.01157132
0000d0 c3 0b 82 bd e3 a8 27 3d 32 61 9a 3c cb a0 a3 bd
       -0.063498996 0.040932547 0.018845174 -0.07989653
0000e0 d7 f1 34 3d 8a 91 47 bd 30 af 31 bd 71 d2 d1 bc
       0.04417595 -0.04872278 -0.043379962 -0.025613042
0000f0 87 14 44 3d d4 db 9e 3d 42 3d 04 bd a8 f8 8d 3d
       0.04787114 0.07756773 -0.032284983 0.06932193
000100 20 ab c8 36 1e 2a d1 36 4b f1 6e b4 a8 bb 0d b6
       5.980386e-06 6.2335885e-06 -2.2253259e-07 -2.1119868e-06
000110 70 c9 b3 36 1f a6 27 35 e9 80 83 36 b0 f7 e4 b4
       5.358066e-06 6.2454086e-07 3.9191114e-06 -4.2648526e-07
000120 60 fa 08 36 67 5a 21 36 40 b6 b9 35 df bd 5e b6
       2.0411317e-06 2.404349e-06 1.3836616e-06 -3.3191097e-06
000130 e9 97 da b4 11 85 01 37 d2 e0 4a b5 53 75 58 36
       -4.0716193e-07 7.719981e-06 -7.557802e-07 3.22548e-06
000140 a5 da 80 36 96 f2 59 36 73 53 1b 36 61 52 36 36
       3.840151e-06 3.2476723e-06 2.3145374e-06 2.7168064e-06
000150 7a 06 76 34 1c 30 a6 b6 ab f7 1e 35 b5 0e 26 36
       2.2912891e-07 -4.952786e-06 5.921999e-07 2.4744488e-06
000160 83 5c 7e b6 87 a9 94 b6 19 4d 69 36 7b 33 91 35
       -3.7902798e-06 -4.4304793e-06 3.4764582e-06 1.0818325e-06
000170 dd b8 5c b6 e8 79 a8 b6 c0 63 1a b4 06 3a 16 37
       -3.289016e-06 -5.020982e-06 -1.4378656e-07 8.954206e-06
000180 55 e1 85 b6 a8 a1 e3 b6 6e 2d 03 b7 60 a9 ef 36
       -3.989941e-06 -6.7839464e-06 -7.818786e-06 7.142473e-06
000190 c3 69 f6 b4 3a 65 ce 34 65 12 6b b5 36 a6 17 37
       -4.5898022e-07 3.8444142e-07 -8.757109e-07 9.039e-06
0001a0 4e 86 d9 36 f6 e8 f4 b6 e8 9e 35 37 70 e8 15 b6
       6.482739e-06 -7.298887e-06 1.0825439e-05 -2.2338027e-06
0001b0 b5 db 0e 34 a6 5c e6 36 bf 07 7b b6 80 80 21 36
       1.330471e-07 6.86532e-06 -3.7406423e-06 2.4065666e-06
0001c0 98 6b 0a 36 e3 4f b2 36 fa 43 01 37 7f 7c 3a 36
       2.062623e-06 5.3141134e-06 7.704826e-06 2.7788626e-06
0001d0 fb e9 76 b7 08 6f 92 36 ef 57 83 b6 fb 68 f0 b6
       -1.471722e-05 4.364065e-06 -3.914341e-06 -7.1647787e-06
0001e0 5e bb d0 36 25 09 bd b6 2f 3c 8a b6 d5 5a 82 b7
       6.2206955e-06 -5.6337035e-06 -4.119727e-06 -1.5539505e-05
0001f0 13 81 4e 36 f3 2b a7 36 4a b2 ac b6 57 4f 56 37
       3.0771523e-06 4.982104e-06 -5.146755e-06 1.2773867e-05
000200 63 2b 6f ba cf a3 9a bb 7d 1f 78 bc 73 a5 0f bb
       -0.00091235916 -0.0047192345 -0.015144226 -0.0021918684
000210 b2 14 47 bc b6 de 91 3b a2 71 ac 3b 10 ef a6 3b
       -0.01215093 0.004451598 0.0052625695 0.0050944164
000220 84 27 6a 3b 55 a9 38 3c 18 35 85 bc 16 a0 e0 3a
       0.003572912 0.011270841 -0.016260669 0.0017137553
000230 68 ae ac 3b 45 89 0f bc fd c3 97 ba 1e 7a 90 39
       0.0052698143 -0.008760755 -0.0011578795 0.00027556805
000240 66 1a a9 ba 99 72 95 bb 9b ad 2f 3a 7e b5 12 3b
       -0.0012901544 -0.0045607802 0.00067015894 0.002238601
000250 20 70 2f 3b 9b 40 99 bb c5 08 14 3c a5 48 05 bb
       0.0026769713 -0.004676891 0.009035294 -0.002033749
000260 02 4a c2 39 a8 b0 0e 3c 1d 84 94 bc 2e 8d d6 3b
       0.00037057704 0.00870911 -0.018129403 0.0065475916
000270 7c 13 19 bc ab 65 27 bc 97 52 30 bb 2e ca 84 bc
       -0.009343024 -0.010217111 -0.0026904696 -0.016209688
000280 df 19 3d bc ad cc 32 bb 80 21 64 3b 7b 86 de 3b
       -0.011541813 -0.002728264 0.0034810007 0.0067909337
000290 f9 7e 05 39 f2 10 b6 b9 de 1f 24 3b f4 9f 89 3b
       0.0001273117 -0.0003472637 0.0025043408 0.004199976
0002a0 68 18 83 3c 93 77 6e 3c 32 5e 76 bb fe e3 4f 3c
       0.016002849 0.014554876 -0.0037592766 0.012688635
0002b0 78 39 02 3c c1 5d 9f ba ae f7 61 3c 05 61 8f 3b
       0.007948272 -0.0012158678 0.013791962 0.0043755793
0002c0 af 6e a2 bb bc 42 01 3c 48 28 3f bb c9 93 91 3c
       -0.004957042 0.007889446 -0.0029168297 0.017770665
0002d0 81 a7 a4 3b ff 89 81 bc 38 d2 5f ba 27 10 b8 bb
       0.005024851 -0.015812872 -0.00085381 -0.00561716
0002e0 12 b2 9e 3a 83 bf 05 3c 6e c2 70 bb 08 aa e5 3b
       0.0012107512 0.008163336 -0.0036736983 0.0070087947
0002f0 78 69 f9 bb 89 c1 54 bb 23 3c 3a bb 3c 5c 1d bc
       -0.00761145 -0.0032463989 -0.0028417192 -0.00960451

transformer.layers.0.self_attn.out_proj.weight f4 [64, 64]
000000 cb 55 b0 bb d8 72 a7 3c e7 b6 19 3d 38 16 88 3b
       -0.005381321 0.020440504 0.037527945 0.0041530393
000010 ab 85 83 bc 0b f6 5c bd be 5b 10 bd 8a e3 55 3c
       -0.016054949 -0.053945582 -0.035243742 0.013054738
000020 57 09 e2 3c 7c d1 8c 3c 29 23 27 3d ac cc f4 3b
       0.027592344 0.017189734 0.040805016 0.007470688
000030 c6 5c 98 bb f5 db 1b 3d 73 8e 45 bd 3a b6 2a bc
       -0.0046497313 0.038051564 -0.048231553 -0.010419423
000040 47 07 28 bd af cb 49 bc 8c 0f 96 bc 73 36 c2 3b
       -0.041022565 -0.012316628 -0.01831796 0.005926901
000050 e3 ab 1b bd 67 b8 2c 3d cc e5 1d bd fe cf 43 bc
       -0.03800572 0.042168047 -0.03854923 -0.011951445
000060 12 d2 06 bd 6c 3b 92 3c 24 45 70 3d e6 a2 43 bc
       -0.032915182 0.0178506 0.058659688 -0.0119406935
000070 a6 b6 1f bd 00 3d 01 3c 85 f3 1f 3c 32 f9 84 3d
       -0.038992546 0.007888079 0.009762649 0.06492843
000080 d2 34 f1 3b 94 8d dd 3c 76 08 83 bc e3 ee 0f bd
       0.007361033 0.027045049 -0.015995245 -0.03513993
000090 6c 99 15 bc 01 45 18 bd 15 3f a6 3c 9e 68 0a ba
       -0.009130817 -0.037175182 0.020293752 -0.00052798714
0000a0 ec ab 34 bd 65 19 f5 bb 02 18 31 bd 4f cb 99 bc
       -0.04410927 -0.007479834 -0.043235786 -0.018773703
0000b0 7f ae a3 bc 8f b4 16 bd 3a a3 54 bd 2c a2 e1 3c
       -0.019980667 -0.036793288 -0.051913477 0.02754315
0000c0 74 93 2d bb b1 cb 34 bc bc ed 47 3c ed b8 fb bb
       -0.0026485594 -0.011034892 0.012202676 -0.007681957
0000d0 78 ca f6 3c 36 02 26 3b 5d 2e 33 3c 9c ae 34 3d
       0.030125841 0.0025330908 0.010936347 0.044111833
0000e0 fe d1 ad 3c 57 28 30 bd 44 ed 58 3c 0c b6 3c 3d
       0.021218296 -0.04300722 0.013240162 0.04607205
0000f0 f1 1d fa 3c 33 ca 7f bc fc 63 03 3d 58 00 a6 bc
       0.030531855 -0.015612173 0.032077774 -0.020263836
000100 46 b1 ee 3a 58 c2 6e 3b a2 c4 ab 3c ad 9e b6 3c
       0.0018210791 0.0036431756 0.020967785 0.02229246
000110 37 82 a2 bc 72 48 06 bd d0 5f 9f bb 45 17 95 bb
       -0.019837482 -0.032783933 -0.0048637167 -0.004549893
000120 f5 9b 27 3c 1b 51 69 3c a4 8f b9 3b a4 b6 8e bc
       0.010230054 0.014240528 0.0056628752 -0.017421074
000130 ae a6 f7 bc 40 df 8f 3a 85 86 c9 3c 05 fa 4f bc
       -0.030230846 0.0010976568 0.024600277 -0.012693887
000140 41 1c 63 3c 58 b2 5a bb 03 7e 0b ba ee 91 8b 3b
       0.013861717 -0.0033370461 -0.00053212064 0.0042593395
000150 59 db 3a bb ab 5e 04 3b 9c b5 6c 39 4f 89 8f 3c
       -0.002851209 0.0020198028 0.00022574369 0.017521529
000160 7e 83 b6 bc ca 1f a0 bc 2b 15 29 3d 74 44 f3 bc
       -0.022279497 -0.019546408 0.041279953 -0.029695727
000170 97 fe af bc 2e 63 67 3c fb 5a e9 3c b6 07 c0 3c
       -0.021483703 0.014122767 0.028485766 0.023441177
000180 22 f4 00 bd 6f fb 44 bd 83 04 90 3c 44 10 f3 3b
       -0.031482823 -0.04809135 0.017580276 0.0074177105
000190 10 82 ed bc 22 d6 47 bb c9 2c ed 3b 7a e6 1e bc
       -0.028992683 -0.0030492623 0.007238005 -0.009698505
0001a0 14 7c fb bc b2 02 d3 bc fd 5a b0 3c ba d1 d4 3c
       -0.030698813 -0.025758121 0.021527762 0.025978912
0001b0 2e 44 c1 bb ff bd ef bc ac 3e a4 bc ce a1 d1 3b
       -0.00589802 -0.029265402 -0.020049416 0.0063974624
0001c0 10 7b 16 bd 2c 1a 00 bb 02 3d 70 3d 1a 70 06 3c
       -0.036738455 -0.001954685 0.05865193 0.008205438
0001d0 ee 43 15 bc 94 73 15 3b ec 75 1e bc 1a 4f 9e 3c
       -0.009110434 0.0022804486 -0.009671669 0.019324828
0001e0 f1 76 d0 bb cd f6 ee bc 9c 5a d3 bc d4 e5 8a 3c
       -0.006361835 -0.029170418 -0.025800042 0.016955294
0001f0 fb 53 d8 bb 9c 06 00 bd 15 ae 36 bc 38 75 8a bc
       -0.006601808 -0.031256303 -0.011149903 -0.016901597
000200 2f f0 44 bd 38 74 89 3d a3 ac 5a 3d cb 97 d7 3b
       -0.04808062 0.0671162 0.053387295 0.0065793744
000210 ea 08 60 3c 32 15 05 3d 50 63 f8 bb d8 92 e9 3b
       0.013674 0.032490917 -0.0075801983 0.007128101
000220 a1 95 d7 3c b6 fb c7 3c 53 7d d7 3c 6b 99 58 3c
       0.026316466 0.024412017 0.026304876 0.013220171
000230 e0 33 b3 3c b3 bf e9 3b fc 7c fc bb 5b 98 bd 3c
       0.021875322 0.007133448 -0.007705329 0.023143938
000240 1b a6 06 bc 87 88 91 3c b4 39 d2 bb a0 2c 2c 3c
       -0.008218314 0.017765297 -0.00641557 0.010508686
000250 a5 75 de 3b 2b 65 ed 3c b3 69 ca bc 7f 5f b8 3c
       0.0067889267 0.028978905 -0.024708604 0.022506474
000260 73 43 b3 3c fc 54 33 bc 4b 81 db bc 0b b1 a5 3c
       0.021882748 -0.010945555 -0.02679505 0.020226022
000270 18 3f 07 bd 3d 3a a8 3c 84 22 cd bc ae ec bf 3b
       -0.033019155 0.020535583 -0.025040872 0.005857072
000280 1a e3 1a bd c2 64 b0 38 4a d1 96 3c 5e 95 10 3d
       -0.037814237 8.4111016e-05 0.018410344 0.035298698
000290 ed ae 4c 3d b2 a8 9c 3c ae 13 3c bc 63 82 82 3c
       0.04997151 0.019123409 -0.011479301 0.015931314
0002a0 b5 9a 0a 3c 65 c9 65 bc a1 6b b9 3b c1 81 9d bc
       0.008459737 -0.014025067 0.0056585823 -0.01922691
0002b0 ab 89 bb ba 8a 66 47 3b c2 67 c8 3c ae c7 00 bd
       -0.0014307996 0.0030426108 0.024463538 -0.03144043
0002c0 9e 76 e7 3c cb 4e c8 bb e1 49 5c 3b e1 1d 8b bb
       0.028254803 -0.0061129085 0.0033613371 -0.004245505
0002d0 ed d7 cd 3c d3 e5 07 bd ec ae 18 3c 7a 76 e5 3c
       0.025127375 -0.03317816 0.009319048 0.028010596
0002e0 bd 60 9d bb b5 4f 8e 3c ee 63 fa 3b 69 e5 b2 3c
       -0.004802792 0.017371992 0.007641307 0.021837907
0002f0 5e 8e 0b bc ec 34 d6 bc 90 39 82 bc 13 ea a7 3c
       -0.00851783 -0.026148282 -0.015896589 0.020497357
000300 e5 2c e9 3c 27 7a 02 3c 46 83 24 bc bc 83 0b bc
       0.02846379 0.007963694 -0.010041064 -0.008515295
000310 48 b3 b8 3c 75 d6 ad 3c b6 a6 99 3c ad c0 ee bc
       0.022546425 0.021220425 0.018756252 -0.02914461
000320 5f 29 ef 3b 52 5e fa bc cd 0a eb bc a5 83 4a bc
       0.007298633 -0.030562554 -0.028691674 -0.012360488
000330 aa 94 4e bc 1c e6 27 3d ad dc 8e bc 38 42 bd ba
       -0.012608686 0.040990934 -0.01743921 -0.001443929
000340 43 47 aa bc 7d a9 c7 3c 5a a4 de 3b 45 83 d2 bc
       -0.020785933 0.02437281 0.0067944946 -0.02569736
000350 0f ac a2 bb 77 0c 3e 3d b5 d6 a9 3c 8e 44 01 bb
       -0.0049643586 0.046398606 0.020732263 -0.00197247
000360 8a e8 b0 bc af 12 2a bd b6 30 16 3d aa d2 5c bc
       -0.021595258 -0.041521724 0.036667548 -0.013477961
000370 d4 c0 bd 3b 43 a6 e2 3c 7a 6b 24 3c 83 81 3e 3c
       0.005790809 0.02766717 0.01003539 0.011627558
000380 8f aa 65 3c 0b 72 a2 bc 1e c9 6f bc a4 69 21 bc
       0.014017715 -0.01982977 -0.014635352 -0.009851847
000390 8e 48 9d bc ee 10 8f bc 45 70 a0 3c 7a ef 35 3c
       -0.019199636 -0.017464127 0.019584784 0.011104459
0003a0 07 f1 e3 3a 51 30 38 bc 31 c0 b4 3b 1d b4 1c 3c
       0.0017390557 -0.011241988 0.005516075 0.009564427
0003b0 b2 8a 06 bb 3c 74 9b 3c 14 4f b0 3c a4 38 fd b9
       -0.0020529446 0.018976323 0.021522082 -0.0004829812
0003c0 12 39 16 3c 8a c1 61 3b c1 0b c4 3c 96 4a f3 3b
       0.00916888 0.0034447634 0.023931386 0.007424663
0003d0 71 57 a3 3c 16 01 91 3c de 3a bf 39 c9 47 83 3c
       0.019939156 0.017700713 0.00036474218 0.01602544
0003e0 e5 d8 bd bb 54 08 8e 3c dd 3b 36 bd 19 e7 a1 bc
       -0.005793678 0.017337956 -0.044490684 -0.019763516
0003f0 d1 ab 63 3c 62 ba c0 ba 46 03 91 bc 81 1e 11 bc
       0.013895945 -0.0014703984 -0.017701756 -0.00885737

transformer.layers.0.self_attn.out_proj.bias f4 [64]
000000 59 52 88 3b a5 ae 2d 3c f9 ec 97 3b c1 3f 16 3c
       0.004160207 0.0106007205 0.0046364036 0.009170474
000010 42 20 12 3a 14 50 f4 bb 76 3f c0 bb 64 1b 18 3c
       0.0005574265 -0.007455835 -0.00586694 0.009283874
000020 55 40 fb ba 56 2a 02 3c da a8 73 3b 8d 5f 36 bc
       -0.0019168953 0.007944664 0.00371795 -0.0111311795
000030 23 9b 46 bc fc c7 06 bc 8e c1 15 3c ed c5 ac b9
       -0.012121948 -0.008226391 0.009140385 -0.00032953863
000040 a1 5d d8 3b 25 5e 96 3b 77 6a 5d bc 55 23 11 3c
       0.0066029583 0.0045888596 -0.013514153 0.0088585215
000050 6f 6c 03 3c 1f 10 46 bb b6 aa c6 3b fc 1e 48 bc
       0.008021458 -0.0030222011 0.006062831 -0.0122144185
000060 11 e0 ea bb df 9e 21 3c 9f 8c 30 3c f5 53 0d bc
       -0.007167824 0.009864538 0.010775714 -0.008625974
000070 c9 7a fd bb 45 6c c0 bb 38 4f 7c bb 80 06 ea 3b
       -0.0077355844 -0.0058722817 -0.0038499366 0.007141888
000080 5e b8 05 bc 90 6d 7b 3b 6b 73 bd 3b b2 f1 2f bb
       -0.008161632 0.0038364865 0.005781581 -0.0026846942
000090 30 c7 97 bb c5 85 39 3b 6a f9 27 3b f2 75 28 3a
       -0.0046318993 0.0028308493 0.002563084 0.00064262666
0000a0 3b 72 0f 3c 65 79 09 bc 08 25 07 bc b9 ec b4 bb
       0.008755262 -0.008390759 -0.008248575 -0.0055213836
0000b0 b2 da 01 3c 63 47 cb 3b de d1 1e bc 99 24 70 3b
       0.007925676 0.0062035783 -0.009693591 0.0036642908
0000c0 98 af d2 bb 4c ac 2d 3b 52 19 e5 bb 6f 3e 1a bb
       -0.006429624 0.0026500402 -0.006991544 -0.0023535748
0000d0 70 62 86 bb 2b 5b 87 3b 31 1a df bb 14 0a 29 3c
       -0.00410109 0.004130741 -0.006808542 0.010317344
0000e0 c4 c0 f8 bb 75 16 81 3b ca 8b 93 3b 4a a0 e2 3b
       -0.007591339 0.0039394447 0.004502748 0.0069160806
0000f0 47 a1 ba bb 56 03 2b bc 91 1b 16 bc 7c 40 d6 bb
       -0.0056954953 -0.010437807 -0.009161846 -0.006538449

transformer.layers.0.linear1.weight f4 [128, 64]
000000 7e d1 43 3c 03 1b d3 ba 5c d1 39 bd 3b d9 f8 3c
       0.011951802 -0.0016106073 -0.045365676 0.030377021
000010 52 5f c9 3c 95 56 51 3b 1c 6f 40 bc 8f 97 27 bc
       0.024581585 0.0031942476 -0.011745241 -0.0102290055
000020 9e d2 09 bd c3 13 2a 3b 8a 71 32 3c 20 70 fb bb
       -0.033648126 0.002595172 0.010891328 -0.0076732785
000030 9e 36 59 3d 91 75 e2 bc f0 28 2a bd d0 8a 90 bc
       0.053030603 -0.02764395 -0.041542947 -0.017644316
000040 3f f3 3a 3d 2e a6 16 3d b4 ed 57 3c 45 5d 11 3d
       0.045642134 0.036779575 0.013179231 0.03548934
000050 eb 18 78 bc d0 55 34 3d c6 dc 19 3d 35 4e 2c bb
       -0.01514266 0.04402715 0.03756406 -0.0026291732
000060 3c 53 dc bc 76 5b 07 3d b3 fc db bb e6 13 b1 3b
       -0.026895158 0.03304621 -0.0067134737 0.0054039834
000070 8a e7 2a 3c 48 81 be bb 39 b2 09 bc f1 07 1a 3d
       0.01043118 -0.0058137514 -0.008404308 0.03760523
000080 3f 7b 37 bc 34 37 a0 3b d4 8b e1 bb b6 10 97 bc
       -0.011198818 0.004889393 -0.006883124 -0.018440586
000090 2c 89 3e bc 21 96 ce 3c 37 a9 43 3d ca 4f d9 3c
       -0.011629384 0.025218071 0.047768798 0.026527304
0000a0 56 fe 6c bb 17 71 e7 bc 46 53 18 bc 7c 02 ef bc
       -0.0036162338 -0.028252168 -0.009297198 -0.02917599
0000b0 2f e8 82 3a 19 a9 df 3c 7e c1 71 bc 48 33 e8 3c
       0.0009987409 0.027302312 -0.014755605 0.028344765
0000c0 bb 4b 25 3d cd 44 1f 3a 01 e8 1e 3b 47 a8 24 bd
       0.040355425 0.0006075621 0.0024247172 -0.040199544
0000d0 7b bb 37 bc f4 ed 78 3c dc 1d 98 bc a6 53 0f bd
       -0.011214132 0.015193451 -0.018568926 -0.034991883
0000e0 fe 83 13 bd 6c 6b 06 bd a2 7d 51 3b 84 da e0 3c
       -0.03601455 -0.03281729 0.0031965752 0.027447946
0000f0 2a ea 30 bc 7e 35 8c bb 90 b5 ac 3b e3 a3 0f 3c
       -0.010798017 -0.0042788377 0.0052706674 0.008767101
000100 55 72 e1 3c 48 a2 6c 3c eb 2a 25 bd 4c a9 db 3c
       0.027520338 0.014442988 -0.040324133 0.026814125
000110 9a d7 bd bc a1 9c b3 3a a2 2f 0f bd ab 47 54 bd
       -0.023174096 0.0013703295 -0.034957536 -0.05182616
000120 a5 82 36 bd 48 d4 2e bc cb fe 32 bc e3 f5 56 3c
       -0.044558186 -0.010670729 -0.010925005 0.013120147
000130 c0 e3 cb bb 67 ae 9c bb d5 33 bd 3c ee ba 36 3d
       -0.0062222183 -0.0047815326 0.023096005 0.044611864
000140 09 c1 83 3d e9 98 a5 3c 59 40 25 bd cd 5b 60 3d
       0.06433303 0.020214515 -0.04034457 0.054775048
000150 c1 03 8b bd c6 65 a8 3d 44 83 7d bb e6 37 f1 3b
       -0.067878254 0.08222537 -0.0038682977 0.0073614
000160 b5 88 3c bd 01 7d 67 bb f1 b8 94 bc d1 d1 12 bd
       -0.04602881 -0.003532231 -0.018154593 -0.035844628
000170 51 9c 34 3c b1 c8 54 3d ce e4 4f 3c cd 1a 6c bc
       0.011023597 0.051949207 0.012688829 -0.014410687
000180 4b e2 b9 3b b4 8a 03 bd 82 78 8a 3c 0a a6 20 bd
       0.005672728 -0.0321147 0.016903166 -0.039220847
000190 8b ad 1a bd df 49 68 3b 40 6a 9c 3c bd 07 60 3d
       -0.03776316 0.0035444421 0.019093633 0.05469488
0001a0 7d bd 4b bb 74 23 cb bb 2b 3b 21 bd 35 2c 08 bd
       -0.0031088286 -0.0061992947 -0.039363068 -0.033245284
0001b0 35 04 53 3d db cb b3 bb 27 a3 5f bd 29 a0 89 3c
       0.051517684 -0.005486948 -0.054598954 0.016800003
0001c0 c0 75 4c 3c 90 f9 9b bc e4 db 46 bc 6c 04 fc bc
       0.012479246 -0.0190399 -0.012137387 -0.030763827
0001d0 35 e1 be 3b 6e 06 1a bb 85 a3 84 3b b0 ae 79 3d
       0.0058251866 -0.0023502368 0.0040478134 0.06095761
0001e0 d9 4a 94 3c a8 3c 21 bc 92 62 28 3d 7a 12 ea 3b
       0.018102096 -0.009841122 0.04110963 0.007143316
0001f0 32 b9 a8 3c b6 ed 0b bd 20 25 a6 bc 43 ce ad 3c
       0.02059612 -0.034162246 -0.020281374 0.021216517
000200 9c cc fa 3a e8 ba 7e 3c de f0 ab bc c2 38 f1 bc
       0.0019134465 0.015547492 -0.020988878 -0.02944601
000210 60 9b 91 3c 68 fd 23 bd f0 74 26 3d 28 f0 6c bd
       0.017774284 -0.04003659 0.040638864 -0.05784622
000220 50 92 b1 bc f8 c4 1d 3d 14 3f 7b bb 59 be 49 bd
       -0.021676213 0.038517922 -0.0038337158 -0.049253795
000230 cc 30 95 3c 58 73 03 3d 0b 83 f7 3c 45 c8 a4 3b
       0.018211745 0.032092422 0.030213853 0.005028757
000240 e5 a0 68 3d b4 80 01 3d 9a 58 4c bd 84 67 d7 bc
       0.056794066 0.03161688 -0.049889185 -0.026294477
000250 bf a3 ce 3c e1 71 1f bb e1 08 00 3d 1d 68 6a 3a
       0.025224565 -0.0024329352 0.031258468 0.00089419057
000260 d0 cc a9 bc bc 5d e3 bb b0 7e 16 3d cb ec 6e bd
       -0.020727545 -0.0069386642 0.036741912 -0.058331292
000270 79 6a 97 3c df 1f 43 bb c6 01 7e bc a2 b6 1b 3d
       0.018483387 -0.0029773635 -0.0155033525 0.03801597
000280 18 a5 88 bc 3b ba 81 3c 00 20 31 bc 23 fd 24 bc
       -0.016680285 0.015835872 -0.010810852 -0.010070118
000290 73 af 9a 3c 88 31 53 3d 0d 3c 9c bc 80 75 72 bd
       0.018882489 0.05156091 -0.019071603 -0.059194088
0002a0 57 99 8d 3b 4a 4a d5 bc fb 83 ae bc 1d e8 f9 3a
       0.004321258 -0.0260364 -0.021303168 0.0019066368
0002b0 93 bd cc bc 9f 02 cb 3c b8 aa a9 bc fe 24 2e 3c
       -0.02499274 0.024781523 -0.020711288 0.010628937
0002c0 32 fe 82 bc 08 4c c3 bc 5b a5 aa 3c 49 86 22 bd
       -0.01599035 -0.023839965 0.0208308 -0.039678846
0002d0 50 80 2a bc 7b 84 a7 bb 59 fa 3a bc 4a 51 80 3c
       -0.010406569 -0.0051122284 -0.011412227 0.015663762
0002e0 09 63 a9 3c be 7a 1e 3d ae 9e 3e bb 7c 4b 0e bd
       0.020677106 0.038691275 -0.002908628 -0.034739956
0002f0 75 be c1 3c a2 6c 4f bd 4a 0a ad 3c 94 62 88 bc
       0.023650387 -0.05064071 0.02112307 -0.016648568
000300 6b b5 c9 bb 38 3e 30 3d d3 c8 0f bd 3f 28 1f bd
       -0.00615566 0.043028086 -0.03510363 -0.03885674
000310 6d b3 2f 3d a2 12 49 39 96 72 b0 3c e4 23 b3 3c
       0.042895723 0.00019175795 0.021539014 0.0218677
000320 38 f9 9e bc 48 a9 8a 3b 9f 5f 1c bc 14 7b 1e 3b
       -0.019405946 0.0042316057 -0.009544282 0.0024182247
000330 dc 2c 1f 3b a8 2e 91 bb fc 41 2b 3d d6 1e 87 3c
       0.0024288213 -0.0044306107 0.041810974 0.016494196
000340 f6 c4 17 3d 18 e9 39 bd 04 e7 68 3c 7e e0 b5 3c
       0.03705307 -0.04538831 0.014215235 0.022201773
000350 2c bd 80 3d 4e 01 95 3c da 6b 1a 3d 4b e4 69 3c
       0.06286082 0.018189099 0.03770051 0.014275621
000360 ad c1 3c bd a3 89 3a 3c 08 21 b7 3c ca 9e 83 3c
       -0.04608314 0.011385354 0.022354618 0.016066927
000370 60 cc 40 3c 1a 03 ad bb f8 c3 60 bb 1d a6 c0 3c
       0.011767477 -0.0052799108 -0.0034296494 0.023516709
000380 bf d1 db 3c 05 72 52 3c de da 02 3d 99 5f e1 3c
       0.026833413 0.012844567 0.03194701 0.027511405
000390 b3 69 40 3b fe 91 52 3c bc 73 99 bb e2 b7 c0 bc
       0.0029359877 0.01285219 -0.004682986 -0.023525182
0003a0 69 fb 5e bb 18 c4 e5 3c eb b8 7d bd a4 01 00 bd
       -0.0034024364 0.028047606 -0.06194393 -0.031251565
0003b0 a5 bb 21 3d d5 d2 29 3d 7e 31 fc bb f2 b8 09 3c
       0.039485592 0.04146083 -0.0076963296 0.008405911
0003c0 f1 0e ae 3b 8b 51 fb 3c b9 9a 3a bd 73 76 1b bd
       0.0053118397 0.030678531 -0.04555771 -0.03795476
0003d0 f6 d8 be bc a0 cd 8b bc dc 21 e2 bb 0b 7f 93 3c
       -0.023296814 -0.017065823 -0.006901009 0.018004915
0003e0 cf 52 88 3c c2 f4 a8 3c c5 6c 00 3c 05 32 c8 bc
       0.016641049 0.020624522 0.007838433 -0.024437914
0003f0 c4 09 4d 3a 27 34 9b bd f2 8a 0b bd 79 65 28 bd
       0.00078215846 -0.07578307 -0.034068055 -0.041112397

transformer.layers.0.linear1.bias f4 [128]
000000 c1 0f 81 3b ae a7 c3 3b 46 d6 0c 3a 6c 9d f3 3b
       0.0039386456 0.0059709167 0.00053725054 0.0074345376
000010 0a 76 b9 3b 33 83 1e 3c 2a 28 d8 3b e7 d6 7d 3c
       0.0056598233 0.009674835 0.006596585 0.015493131
000020 15 47 8a bb 77 7a c3 3b c4 53 b7 3b 12 1f b7 3a
       -0.0042198994 0.0059655267 0.0055947024 0.0013971052
000030 e2 68 50 bb 3d 61 91 bc c2 29 22 3c 5d a9 ec 3b
       -0.0031800796 -0.017746562 0.009897651 0.007222338
000040 2a 87 1d 3a f3 21 b8 3b 64 88 2c bc c4 11 8b 3c
       0.0006009216 0.0056192814 -0.010530565 0.016976245
000050 bd 7a c8 39 7f 18 af bc 06 6d c9 3b d5 31 da bc
       0.0003823842 -0.021373985 0.00614703 -0.02663509
000060 37 b1 33 bc c8 bc 4d 3c a0 d0 f9 bb 5a 3b e2 3b
       -0.010967544 0.012557216 -0.007623747 0.006904048
000070 82 df 2e 3c 90 d5 b2 bb 2f 87 6d 3c fa 08 8b bc
       0.010673406 -0.0054575875 0.014497562 -0.016972054
000080 12 55 69 3c 78 e7 a7 3b 68 1c 78 3b 02 8c 61 3c
       0.014241474 0.005124029 0.0037858728 0.013766291
000090 d3 21 9b bb 54 6f 8d 3c 30 18 d0 3b 5c f9 67 3a
       -0.004734257 0.017265 0.0063505396 0.0008849108
0000a0 9c 47 24 3b 72 2e 81 ba 5b 8c 8a 3c a0 c0 d3 37
       0.0025067097 -0.0009855761 0.01691263 2.5242858e-05
0000b0 12 57 83 3b 1f 9f 67 ba ee 9f 24 bc 56 58 c6 3c
       0.0040081823 -0.00088356616 -0.010047896 0.024212044
0000c0 9f 2d c3 bb 1c ff e5 ba 93 a1 2f 3c 35 5f 12 3c
       -0.005956366 -0.0017547342 0.010719675 0.008933832
0000d0 fa 4c b3 ba ab 65 01 3c c5 99 b0 3c 08 a2 d4 3b
       -0.0013679557 0.007897775 0.021557698 0.006489042
0000e0 58 51 31 3c 55 81 87 3c 93 b7 33 bc 88 45 fc 3a
       0.0108226165 0.016541163 -0.0109690605 0.0019246796
0000f0 5d 34 14 3b 68 01 b7 3c 80 3b 9a bc aa 5a 42 bb
       0.0022614219 0.022339538 -0.0188272 -0.002965609
000100 5c 3b 86 3b a5 c8 68 3b b5 67 4f 3c f1 0b cd 3b
       0.0040964317 0.0035519984 0.012659003 0.006257527
000110 7a b9 32 bc b1 8a 9f 3b 55 20 9a bc 52 22 28 ba
       -0.010908479 0.004868828 -0.018814245 -0.00064138055
000120 ef 78 8f 3c c7 86 f7 3a 3b 08 45 3b 20 a9 a2 3b
       0.01751372 0.0018884771 0.003006472 0.004964009
000130 ae e5 b8 bc 1f db cf 3b 99 d1 06 3c f4 05 19 bc
       -0.022570457 0.00634326 0.008228683 -0.009339798
000140 c7 2e 85 3c 0b 6c a8 3a 9f 14 65 3a 8b 73 3d 3b
       0.016257657 0.0012849582 0.00087387295 0.002890798
000150 44 c9 b7 3b 58 ca 9c 3a a2 d5 f7 3b 39 46 72 3c
       0.0056087095 0.0011962159 0.007563309 0.01478725
000160 3d 10 c5 3b ba 4d db 3b 59 c9 dd bc 8a 28 87 3c
       0.0060138986 0.0066926153 -0.02707355 0.016498823
000170 26 be c5 3b 67 8b 0f bc 57 a2 dd b9 d0 b1 fa bb
       0.0060346304 -0.008761263 -0.00042273357 -0.0076505914
000180 8e f7 a6 3a 98 aa f4 bb 33 05 09 bc a8 54 3e 3c
       0.0012738572 -0.0074666254 -0.008363056 0.011616863
000190 53 a0 35 bb 68 df 69 3c a9 d1 5c 3c 92 90 a0 3a
       -0.002771397 0.014274456 0.013477721 0.0012250117
0001a0 05 89 0c bc 9c 54 81 bb cf 7a ad bc 99 9a 57 bc
       -0.00857759 -0.003946854 -0.021176724 -0.013159418
0001b0 54 bb 94 39 e0 0c e6 bb 5c 72 c9 3a 92 db a9 3c
       0.0002836833 -0.007020578 0.0015369165 0.020734582
0001c0 fe bc 35 bc a9 69 f5 3b d6 70 0d 3c ad 32 18 bc
       -0.0110924225 0.0074894023 0.008632859 -0.009289426
0001d0 e3 08 dc 3b ab 04 4e 3c 31 a9 87 3b 23 f7 18 3c
       0.0067149266 0.012574355 0.0041400422 0.009336266
0001e0 7a ca 91 3c 4f 6a e1 3c 9b 97 e3 3b 56 35 1e 3c
       0.017796744 0.027516512 0.006945563 0.009656271
0001f0 30 5a 91 3a ec 57 b4 3c bc 76 a6 bc 99 e6 c8 3b
       0.00110895 0.02201458 -0.020320289 0.006131005
