marble_model/best_model_v3.0_20250531_005433.pt (torch, 295593 bytes, 30 tensors)

token_embedding.weight f4 [13, 64]
000000 1c 4d ce bb 5c 4d 48 3c fc 91 11 3d 6c 93 a1 bb
       -0.0062958132 0.012225475 0.035539612 -0.004930904
000010 4c 5d da 3c eb 9b 86 bc 28 12 0f bd 9d a7 fc 3b
       0.026655816 -0.01643177 -0.034929425 0.0077104107
000020 79 c1 42 3d 56 20 99 bc 5d 77 2f 3d b2 f1 3c 3d
       0.04754779 -0.018692177 0.042838443 0.046128936
000030 22 63 a0 bc f9 a8 58 3c ef cb d1 3c 20 f7 1f bc
       -0.01957852 0.01322388 0.025609938 -0.009763509
000040 e4 dd 50 3c 51 8c 1f bd c5 39 b4 bc 9b 75 3f 3c
       0.012748215 -0.038952176 -0.022000203 0.011685754
000050 57 d0 36 3c a8 f7 92 3c cd 3e c0 bc f1 31 14 3d
       0.0111580705 0.017940357 -0.023467446 0.03618044
000060 55 cc 65 bc 3b 86 50 3c b9 a4 ae bc ce 0f aa 3c
       -0.014025767 0.012727316 -0.02131878 0.02075949
000070 d9 98 fe ba 38 0f 9d 3b 5b 5a 4a 3b de 6d 5b 3c
       -0.0019424214 0.004793074 0.003087661 0.013392894
000080 11 08 1c 3d a0 c0 1b 3d c5 c2 3e 3d d1 5d 9d 3c
       0.03809363 0.0380255 0.046572465 0.019209774
000090 7d 0b ec 3a aa ab b3 3b 6b 19 96 ba 64 4f b8 3c
       0.0018008795 0.0054831104 -0.0011451667 0.022498794
0000a0 3c 16 31 3d 24 c6 24 3d 74 42 e7 3c ca 9f 03 bc
       0.043234095 0.040228024 0.02822993 -0.008033702
0000b0 00 b5 76 bc 4a 3e 9a bb 01 0d bc 3b 55 e1 f7 3b
       -0.015057802 -0.0047071325 0.005738855 0.0075647035
0000c0 73 d1 16 3c e7 03 8d 3c be c1 f7 bb 66 6f fe 39
       0.00920521 0.017213775 -0.0075609377 0.00048529654
0000d0 c4 53 54 3d 02 50 31 3c 3e cb 40 bc 25 95 a9 bb
       0.051837698 0.010822298 -0.011767207 -0.00517525
0000e0 47 0a be bc e7 0c c8 bc 43 2d 16 3d a1 fa 26 bd
       -0.02319826 -0.024420215 0.03666426 -0.040766362
0000f0 6b 6f 04 bc cb cb 29 bc df c2 11 bd a1 d9 fc bc
       -0.008083205 -0.010363529 -0.035586234 -0.030865492
000100 9b fa 00 3d 3c 4b 90 bc 7b 84 92 3c 54 1c 1e 3d
       0.031488996 -0.017614 0.017885437 0.038601235
000110 a1 38 b8 bc 15 54 fa 3c 31 22 7e 3c 53 0e d1 3c
       -0.02248794 0.030557672 0.015511082 0.025519526
000120 57 df 0e bd 84 b8 09 bd 99 05 9e 3b 78 44 9f 3c
       -0.034880962 -0.033623233 0.0048224446 0.019441828
000130 59 bf 81 bd b5 ef 6c 3c 8c 51 d1 bc 10 4e 44 bb
       -0.06335325 0.0144614475 -0.02555158 -0.0029953755
000140 e6 04 db 3c d9 79 bf bc aa 55 15 3d 60 80 d4 3c
       0.026735734 -0.023373531 0.03645865 0.02594012
000150 e2 36 76 bc b3 63 31 bd fc 39 1c 3d ed 23 be bc
       -0.0150277335 -0.04330797 0.038141236 -0.02321049
000160 34 26 91 3c 33 cb 05 bd ae 42 3b bd c3 cd 07 ba
       0.017718412 -0.03266449 -0.045717888 -0.0005180502
000170 60 7b 2e bd 1f bd 2b 3d 36 88 9a bc fc ee 37 3d
       -0.04259813 0.041928407 -0.018863779 0.044905648
000180 73 8d d7 bc b1 0b bb 3c 2b c0 f4 3c c4 d1 88 bc
       -0.026312565 0.022832723 0.02987679 -0.016701587
000190 5a c6 a9 bc 62 45 a9 bc 46 8c 22 3d 52 9c 2b bd
       -0.020724464 -0.020662967 0.039684556 -0.041897126
0001a0 4e b5 17 bd 44 24 92 bb 7a 9d 23 3d 3d 18 a8 bb
       -0.03703814 -0.0044598896 0.039945103 -0.0051298426
0001b0 58 db df 3c e9 7c 0b bd 1e a4 53 bc a4 01 54 bd
       0.027326271 -0.03405467 -0.012917547 -0.051759377
0001c0 7e 22 0d bb 1d 0d 03 3d 60 eb c0 3b 47 bc 41 bc
       -0.0021535452 0.031994928 0.005887434 -0.011824674
0001d0 be d7 99 3c 91 57 b3 bb dc 39 91 bc 12 e7 ce bc
       0.018779632 -0.005473085 -0.017727785 -0.025256667
0001e0 0d 6f 2e bc a3 92 fe 3c 27 63 33 3d 61 ae 0c 3c
       -0.010646594 0.031075781 0.04379573 0.008586497
0001f0 b6 a7 fe bc f6 55 9f 3b 46 5d 24 bd 8b cf 96 3c
       -0.03108583 0.0048625423 -0.040128015 0.018409511
000200 fd b3 60 3c 98 59 90 bc a9 2b 06 bb b2 a1 f1 3c
       0.013714788 -0.017620847 -0.00204728 0.029496048
000210 99 21 f6 bb 51 98 a3 3b a6 02 da bc 6d c0 15 bd
       -0.0075113294 0.0049925228 -0.026612591 -0.036560465
000220 17 c8 87 3c e6 6a ef bc 93 74 9f 3c a5 ae 81 3c
       0.016574902 -0.029225778 0.019464767 0.015830347
000230 2d 09 16 3c b7 82 f2 3c c0 73 ec 3b 47 d6 03 bd
       0.009157461 0.029603345 0.007215947 -0.032186773
000240 26 e2 1b bc 10 bd 34 3c 2e 38 cb 3c 45 99 27 bd
       -0.009514367 0.011031404 0.024807062 -0.040917654
000250 ac 01 e6 bc c9 5c 98 3b 2e 85 9b bc 53 94 4c 3c
       -0.02807697 0.0046497327 -0.018984403 0.012486535
000260 f5 0f ff bb ec 00 54 3b 21 38 33 3d 06 ca 05 bc
       -0.0077838846 0.0032349182 0.0437547 -0.008165842
000270 ba fe 1f 3c 41 7f 1c bc 38 d4 43 bc cf 45 8a 3a
       0.009765321 -0.009551824 -0.011952452 0.0010549369
000280 0f ae 57 3c 81 f5 28 bc 0b 8c 0a 3d 3c b6 e2 3b
       0.013164057 -0.010312439 0.03382496 0.0069186967
000290 aa 41 ae 3a f9 a9 29 3d 5e 55 47 3c 2b 37 dc 3b
       0.0013294716 0.041421864 0.012166349 0.0067204437
0002a0 eb e2 23 bd 0b bd 14 3c d2 93 84 bc 76 4f 89 3c
       -0.040011328 0.0090782745 -0.016183767 0.016761523
0002b0 97 38 0f 3a 66 2f 45 3c 34 20 96 3c 9f f9 09 ba
       0.00054634496 0.012035226 0.018325903 -0.00052633317
0002c0 8b 39 98 3b 12 0d c1 3c dc 9c 08 bd 7e 5b b3 bc
       0.0046455315 0.023565803 -0.033352718 -0.021894213
0002d0 35 72 49 3a 57 fe b3 3b c2 5b 64 3c a6 71 21 bb
       0.00076845597 0.005492966 0.013937892 -0.002463439
0002e0 99 6b 85 bc c3 85 fa bb a9 e0 1d bd 52 91 a2 3c
       -0.016286658 -0.00764534 -0.03854433 0.019844685
0002f0 1b 61 09 3a ef bd 7a 3a 9d 64 8f 3b c2 99 09 bc
       0.0005240605 0.00095650455 0.0043760077 -0.008398475
000300 3b ab 56 bb 40 1c 29 3d 1e d7 c3 bb 6e 3e 77 3c
       -0.003275587 0.041286707 -0.0059765717 0.015090568
000310 79 2f d7 3c 4d cb 99 bc 1c 23 3a 3c 7f 43 02 3c
       0.026267754 -0.0187737 0.01136091 0.007950663
000320 e1 42 85 3c 6b 68 7b bb 1b db 1c bc 54 74 3e 3c
       0.016267242 -0.0038361799 -0.009573723 0.0116244145
000330 a6 c9 db bb 6c 21 97 3b 78 51 34 bc c4 67 48 3c
       -0.006707388 0.0046121385 -0.011005752 0.012231771
000340 d9 3d b9 bc 90 1c 0b 3d 9a 5a ac 3c 0a a9 22 bc
       -0.0226125 0.033962786 0.021039296 -0.009927997
000350 a2 ff db ba 69 f5 07 3d 5b a3 d3 3a 6f a4 ce 3b
       -0.0016784559 0.033193026 0.0016146706 0.006306223
000360 5a fd 35 bb d5 b0 c8 3c b4 37 ce 3b ae 95 ba 3c
       -0.0027769418 0.024498383 0.0062932614 0.022776451
000370 1c 8d 8c 3c d7 0c 7b 3c ad 4d e8 39 30 37 b3 ba
       0.01715713 0.0153228855 0.0004430836 -0.0013673063
000380 69 a6 b4 3c 52 7d 01 b8 53 68 5c bc ca 32 3c bc
       0.022052007 -3.087271e-05 -0.013452607 -0.011486718
000390 54 9d 8d 3c cd a0 3a 3b 87 aa dd bb 8e 2e d9 bb
       0.017286934 0.0028477192 -0.006764713 -0.006627864
0003a0 49 0a 97 3c 8b 94 9d bc 6d 3b 27 bc 49 07 d1 bb
       0.018437522 -0.01923587 -0.010207039 -0.0063790423
0003b0 c9 43 a4 bc 84 d9 14 ba d7 ee 1d bb a8 56 51 bc
       -0.020051854 -0.00056781643 -0.0024098658 -0.012777008
0003c0 7b 8b 03 3d a2 5d 9e bb 12 dd bd bc bf 80 c8 3a
       0.03211544 -0.0048329392 -0.023176704 0.0015297158
0003d0 96 bd fa bb f6 28 b4 3b 06 8f 0a 3c ef 28 d1 3c
       -0.007651995 0.005498047 0.008456951 0.025532214
0003e0 d7 c9 0c 3d d9 6f f9 bb 6a ed 8d 3b 55 30 a4 bc
       0.034372177 -0.00761221 0.0043312805 -0.020042578
0003f0 91 bf 0b 3c 08 ff 33 bc dc ad 8f bc 37 bb 5b bc
       0.00852956 -0.010986097 -0.017538957 -0.013411335

position_embedding.weight f4 [30, 64]
000000 e9 4a 0f 3d 1a 3a 2d bd 39 f1 3c bb b5 9b 15 ba
       0.03498355 -0.042291738 -0.0028830303 -0.0005707101
000010 2f 67 be bc f6 3e 30 3c 51 c4 32 3d ae de e9 ba
       -0.023242561 0.010757199 0.043644253 -0.0017842853
000020 fe 16 a0 bc 8f c2 cf bc 83 f5 1c 3d 20 0a ba 3c
       -0.019542214 -0.025361327 0.038320076 0.022709906
000030 6b 59 1b bd 2a 25 7c bd e1 fe da 3b d8 f4 b7 3c
       -0.037927072 -0.06155888 0.006683216 0.022455618
000040 93 34 0e 3d 1b 96 aa bc ca 5c 0b 3d 7a 3a 97 3c
       0.034718107 -0.020823529 0.034024037 0.018460501
000050 bc 41 8a 3c 02 71 81 3b b6 c6 71 bc 99 3d 49 3c
       0.016877048 0.003950239 -0.014756849 0.012282752
000060 85 cb cb 3b 7e 8e f3 bc b8 9d 29 bd 80 6a 52 3d
       0.00621933 -0.029731032 -0.041410178 0.051371098
000070 e4 5c be bb 12 93 fb 3b 7e 54 cd bc 86 9d 10 3d
       -0.0058094133 0.0076774443 -0.025064703 0.035306476
000080 e1 aa b2 bc 11 f2 79 3d d6 7c ee 3b 42 33 96 3b
       -0.021809997 0.06102187 0.007278065 0.004583747
000090 fb 30 f5 bc 22 1e 08 bd 54 15 1c 3c bd 50 b6 bc
       -0.029930582 -0.033231862 0.009526569 -0.022255296
0000a0 73 37 f2 bc bb ca 37 3d fe 5a 80 3c d8 2d 39 3c
       -0.029567456 0.044871073 0.015668388 0.011302434
0000b0 3a 4e 85 3a 97 b3 74 bd 3b b9 32 3d f8 00 5d bb
       0.0010170408 -0.059741583 0.04363368 -0.0033722501
0000c0 f1 86 30 bd a8 8f 17 3c 7f af 90 bd b2 e8 b3 bc
       -0.04309744 0.009250559 -0.07064723 -0.021961544
0000d0 14 95 91 bd f0 42 24 bd 93 fa 27 bd 72 b2 22 bc
       -0.071085125 -0.0401029 -0.04101045 -0.00993024
0000e0 70 f6 07 3d a2 db 5a 3c c7 32 76 ba 4a 34 40 3d
       0.033194005 0.013358029 -0.00093917217 0.046924867
0000f0 e7 0d 6b bc 1e 61 ec 3b 29 ef 0e bd 7d 74 6c 3c
       -0.014346576 0.0072137257 -0.03489605 0.01443207
000100 ce c1 99 3c 99 13 97 3c b4 bb 0b bd 44 a7 11 3c
       0.018769171 0.018441962 -0.034114555 0.008889977
000110 b8 f4 80 3c c4 88 e0 3c cb 08 b8 bc 6d 5f de 3c
       0.015741691 0.027408965 -0.02246513 0.027145112
000120 7a e2 9f 3c 7c 98 f1 3c 4f 99 a6 bb ee 40 d5 bb
       0.019517172 0.029491656 -0.005084194 -0.0065079844
000130 04 c0 5b bc b9 8b 3c bd a8 d5 9a 3c 15 a3 30 bd
       -0.013412479 -0.046031687 0.018900707 -0.043124277
000140 08 87 9d bc e2 ed f4 3b 27 79 63 bc 9d d1 56 3c
       -0.019229427 0.007474647 -0.013883865 0.013111499
000150 0a e4 45 3c 8b 34 65 bc fa a6 b9 3a 8e 3d 63 3c
       0.0120782945 -0.013989578 0.0014164143 0.013869656
000160 78 a6 a3 bc cc 3d 6d bc 3f 08 9d bc 18 65 8c bc
       -0.01997684 -0.014480066 -0.019168971 -0.017138049
000170 14 04 b8 3c 33 89 28 bc 59 e9 7e 3a f9 94 ac 3c
       0.022462882 -0.010286617 0.00097241026 0.02106713
000180 2a d2 b0 bc 13 6d f2 3b ec 3f e9 bc 36 da e8 bc
       -0.021584589 0.0073982566 -0.028472863 -0.028424364
000190 be da 31 3d a5 4c c8 3b c3 36 98 3b cb be fa 3c
       0.0434215 0.0061126524 0.0046452 0.030608555
0001a0 2b 38 a7 3c 21 71 62 3b aa 81 0d bc e5 38 04 bd
       0.020412525 0.0034552293 -0.008636871 -0.03228082
0001b0 21 f6 f9 bc 3a 89 27 bc 46 86 03 bd 05 d5 1a 3c
       -0.030512871 -0.010225588 -0.032110475 0.009450202
0001c0 7a 1d 0e bc 8d 0a cf bc 2d a8 2e bb 44 93 8f 3c
       -0.00867402 -0.025273586 -0.0026650534 0.017526276
0001d0 e9 39 c8 ba 02 11 a4 3c 52 0c 2f 3b 4b aa be 3b
       -0.0015276048 0.020027641 0.0026710224 0.0058186403
0001e0 8a 89 df bc 43 b8 08 bd 2a 53 f7 bc 4c 4b d4 bc
       -0.027287263 -0.03337885 -0.030191023 -0.02591481
0001f0 ca 76 bd 3c 04 7f f1 bc 7c e4 56 3c 20 94 11 bc
       0.023127932 -0.029479511 0.013115998 -0.008885413
000200 5e 5b bc 3c 53 b8 82 3c 31 91 33 bd 88 f5 ef bb
       0.022992786 0.015957033 -0.043839637 -0.007322971
000210 59 c3 0c 3c 77 e4 7e bb 92 7f 15 bd 01 49 2d 3c
       0.008591496 -0.00388935 -0.036498614 0.0105764875
000220 58 95 cd 3b 0d c0 f8 3c f8 a7 bc 3b cb b5 88 bc
       0.0062739067 0.030365014 0.005757328 -0.016688248
000230 3f 7c d5 3b 09 47 fa bc 3a 76 2a 3d 7b bc c0 bc
       0.0065150554 -0.03055145 0.041616656 -0.023527374
000240 6c 51 61 3b 2b 50 15 bb d1 34 00 bd 50 5d 97 bb
       0.0034380807 -0.002278338 -0.03130037 -0.004619278
000250 c5 28 8c bb b4 fa 82 bc 2e 29 cc bc 30 34 5d 3c
       -0.004277321 -0.015988685 -0.02492198 0.013501212
000260 8a 22 d1 bc 4f 0d 02 bc ed 0f a2 bc 14 9d 63 bd
       -0.025529165 -0.007937743 -0.019782985 -0.055569723
000270 fb 43 23 3d 5d f7 c1 bc 1f fc a1 bb 7f 1e b8 3c
       0.039859753 -0.023677522 -0.0049433853 0.02247548
000280 66 4e ed bc 72 75 db 3c 93 2e 26 3a 40 85 da bc
       -0.028968047 0.0267894 0.00063393376 -0.026674867
000290 84 ea 91 3c a6 6a b9 bc 8d f5 eb bb 25 cc 19 3d
       0.017812021 -0.022633862 -0.007200903 0.037548203
0002a0 c9 ae 81 bc 87 d6 0a 3d 2f e8 44 bb 35 e7 96 bc
       -0.015830414 0.033895995 -0.0030045619 -0.018420795
0002b0 a3 eb 26 3c 22 db 49 bb 2d cc 37 bc 42 d1 38 3d
       0.010188016 -0.003080078 -0.011218113 0.04512144
0002c0 b7 90 0e bd 60 5f 2e bb e2 a1 0b 3d 94 d8 2c 3d
       -0.03480598 -0.002660714 0.03408993 0.042198732
0002d0 dd 4c 13 bc 30 97 99 3c e2 8f bd 3c e5 96 4a bc
       -0.008990494 0.01874885 0.023139898 -0.012365078
0002e0 5e a3 45 bd 56 9e 97 bc cd ad f6 bc 98 d2 a6 3b
       -0.048251502 -0.018508118 -0.030112172 0.0050910227
0002f0 04 30 2a 3d ed 4c 03 bd 6e 25 05 3d 63 74 19 bc
       0.041549698 -0.032055784 0.0325064 -0.009366128
000300 53 6c 54 bd 52 03 e5 bc 31 1a 51 3d 50 28 30 bd
       -0.05186112 -0.027955685 0.05105037 -0.043007195
000310 e5 d4 b1 bc 1e e5 c9 bc 30 98 e0 3c 19 dd 1a ba
       -0.021707961 -0.024645384 0.027416319 -0.000590758
000320 e9 4c 37 3c 1d 82 8d bb 05 f2 ef bc 4e a1 7c 3c
       0.01118777 -0.004318489 -0.029290209 0.015419317
000330 b7 9e c6 bc 3f 9b 3c 3d 96 04 4f bd 20 42 90 3c
       -0.024245603 0.04604649 -0.050541483 0.017609656
000340 b7 f2 4a 3c f9 c2 ce bc 66 b8 c9 3c f3 cf 45 bd
       0.012386969 -0.025239455 0.02462406 -0.04829402
000350 09 b6 3d 3d 2f b4 ae 3c 16 10 28 3d 0a 7b fd 3c
       0.04631618 0.021326153 0.041030966 0.030942459
000360 17 4c 0f bd 4b 7d dc 3c 58 00 a2 bc 42 6a 1d 3c
       -0.034984674 0.026915213 -0.019775555 0.009607853
000370 ed 87 0f bd dc dc 25 3d e6 a0 3a 3d 47 c0 dd 3c
       -0.03504174 0.04049383 0.0455636 0.027069224
000380 7f 6f 31 3d 7f 51 1d bd d2 63 09 bd 18 a9 51 3d
       0.04331922 -0.0384078 -0.03354246 0.05118665
000390 1a be 2e bd 0c 7d 13 3d f0 27 7f bc 00 42 0a 3b
       -0.042661764 0.036007926 -0.015573487 0.0021096468
0003a0 72 e0 4e 3d 5e 84 e2 bc a7 93 54 bd ee 76 69 bc
       0.050507016 -0.027651008 -0.051898625 -0.014249546
0003b0 58 7d 6b bd d8 3d ea 3c a8 89 b4 3c ea 22 47 bd
       -0.057492584 0.028593943 0.022038296 -0.04861728
0003c0 8b 17 0a 3d 9d eb 48 bd 9f 31 82 3c d4 c2 ce bc
       0.03371386 -0.049052823 0.015892802 -0.025239386
0003d0 b1 4f fd 3b 53 44 32 bc cc 5b 68 bd 37 a7 e7 3c
       0.007730447 -0.010880548 -0.05672817 0.028277976
0003e0 2c 31 f2 3b 40 c6 32 bd 0c 36 b8 bc 97 61 2e bd
       0.0073911157 -0.043646097 -0.022486709 -0.042573538
0003f0 4a 38 bb 3c 9f 91 6a bc a6 e4 15 bd 56 29 4a bc
       0.02285399 -0.014316945 -0.03659501 -0.012338957

transformer.layers.0.self_attn.in_proj_weight f4 [192, 64]
000000 5d f1 cf bd ab 3b 6d bd 36 41 2b 3e 19 fd d0 3d
       -0.10153458 -0.057918232 0.16724095 0.102045245
000010 f9 c2 8b bd 63 8b 19 3e 72 e4 ce bd 47 c1 1e be
       -0.068242975 0.14994578 -0.10102166 -0.15503417
000020 c5 bb 17 3e 6d ba a8 bd db 89 94 bd b9 85 8b bd
       0.14817722 -0.08238683 -0.07252856 -0.06812615
000030 f4 5d 40 3d 7a 38 44 3d 37 1c 96 bc 48 df a2 3c
       0.0469646 0.047905423 -0.018324 0.01988186
000040 c5 4c 2a 3e 2c 19 59 3d 1e 1c 20 bd 32 de 0c be
       0.16630848 0.05300252 -0.039089315 -0.13756636
000050 63 d8 e5 3d c9 cd f7 bd e8 2d 1c bd 65 db 9a bd
       0.11222913 -0.12099797 -0.038129717 -0.075613774
000060 ce 6d 11 bd a1 f8 bb bd 5d 96 9a bd 38 d0 42 3e
       -0.03550511 -0.091782816 -0.07548211 0.19024742
000070 65 99 d3 3d 05 b7 1a bd 5d f4 80 bd e1 9c d9 3d
       0.10331992 -0.037772197 -0.062966086 0.106256254
000080 ae b4 16 3e 3a e9 1a be 7e 2c 4c 3d 9e b3 f1 3d
       0.14717361 -0.15128031 0.04984712 0.118018374
000090 1d 6c c4 bd ff 31 91 bd 1a d1 f3 bb aa 1f f8 bd
       -0.095909335 -0.07089614 -0.0074406983 -0.121154144
0000a0 cf 93 69 bd 99 37 e8 3c e2 1c 09 3d 1b 15 f1 3d
       -0.057025727 0.028346824 0.03347481 0.11771604
0000b0 f4 e4 78 bd af 5d 9b 3d b6 c5 0b 3e a4 3b 84 bd
       -0.06076522 0.07586228 0.1364964 -0.06456688
0000c0 a4 e1 1e bd 95 e6 a3 3d 31 38 8a 3d e4 1d 1a bd
       -0.038789406 0.080029644 0.06748999 -0.037626162
0000d0 10 7d 9e 3c 9b cf 92 bd 34 86 8f 3d cf 4a 1c 3e
       0.019346744 -0.07168504 0.07008019 0.15262912
0000e0 38 94 07 3e d5 d9 cb 3d eb 4e 9b 3d 18 e4 72 bd
       0.13240135 0.099536575 0.07583412 -0.05929956
0000f0 3e da af 3d 47 01 96 bd 78 e8 c2 3d 04 10 c8 bd
       0.08586548 -0.073244624 0.09516996 -0.0976868
000100 17 2f a7 3d ba 99 cb bd e1 7a bb bd b4 e4 1c be
       0.081632785 -0.099414304 -0.09154297 -0.15321618
000110 07 6e 07 3e d9 ac 80 3c 9b 67 64 3d 8f 8a 16 be
       0.13225566 0.01570742 0.05576287 -0.14701293
000120 a9 42 6b 3d 9a 20 ff bc 89 20 cb 3d 76 8c 91 bd
       0.05743662 -0.031143475 0.09918315 -0.07106869
000130 c4 3a 8f 3b e2 cb 1a bc 68 51 2a bd 7f 84 ba 3d
       0.004371019 -0.0094480235 -0.04158154 0.09107303
000140 b1 b6 0f 3d 26 5e f7 3d 5c e9 02 3e c0 28 0a be
       0.035086337 0.12078504 0.12784332 -0.13492107
000150 69 3a e0 bd db ca b6 3d d4 1e 96 3d b1 ea 06 3d
       -0.10948641 0.0892541 0.07330099 0.032938663
000160 e8 ad c5 bd 83 f9 61 3d 6e 35 d5 bd e9 06 d7 3d
       -0.096523106 0.055169594 -0.104105815 0.10499365
000170 31 ba b6 3c bc 84 a0 bd e9 dc 71 3d 0e de d4 bd
       0.02230558 -0.07837817 0.059048567 -0.10393916
000180 0a 08 a4 bd b4 6f ee bd 99 53 d9 3d 34 45 ad 3b
       -0.08009346 -0.116423994 0.10611648 0.0052877907
000190 38 eb a0 3d 71 9c 0d 3e f3 18 95 bd ed 52 af bc
       0.078573644 0.13829209 -0.07280149 -0.021401847
0001a0 96 a5 21 3e ba 4a 26 3d ff b3 12 bd 41 35 ba bd
       0.15785822 0.04059861 -0.03581619 -0.090921886
0001b0 3f 96 b7 3d 95 39 bd bd 36 25 46 3e 76 88 8d 3d
       0.08964204 -0.092394985 0.19350132 0.069107935
0001c0 58 1d 43 bd 07 69 87 3d bc c1 6a bd b0 8e 37 be
       -0.047635406 0.06611829 -0.057313666 -0.17925525
0001d0 20 ee e4 3b 44 50 67 bd 75 e9 1b be de 87 41 3d
       0.0069863945 -0.05647303 -0.15225776 0.047248714
0001e0 43 71 03 3e 93 79 f0 3b 28 88 86 bd 56 ca a0 3d
       0.12836175 0.0073387115 -0.065689385 0.078510925
0001f0 70 82 e0 bd cc 22 7d 3d 8c 1b ab 3b 93 9a 36 bc
       -0.10962379 0.061800763 0.0052217897 -0.011145252
000200 6f a6 5b 3d 32 7d af 3d 4e f0 94 3d 8e dc 32 be
       0.05362552 0.08568801 0.07272397 -0.17466947
000210 29 7a cd bd f3 2b 6d bc 42 cd 73 3d c3 95 85 bd
       -0.10033066 -0.01447581 0.05952192 -0.065227054
000220 42 c1 c7 3d 9d 3e 8f bd 46 73 da 3d 71 40 13 3d
       0.09753658 -0.069943644 0.10666518 0.035950128
000230 19 58 e4 bd 91 09 47 3d d4 75 0d be d3 f7 0d 3e
       -0.11149616 0.048593108 -0.13814479 0.13864069
000240 bc 38 91 3d a6 05 98 bd 24 f7 36 3d 67 83 94 bd
       0.07090899 -0.07422952 0.044669285 -0.072516255
000250 c1 4c f8 bd a5 b5 99 3d a2 87 27 3e e2 0e f1 3d
       -0.12124015 0.07505349 0.16360334 0.11770417
000260 68 70 dd bd 12 46 d2 3d d3 93 a8 bd 38 54 2b 3e
       -0.108124554 0.10267271 -0.0823132 0.16731346
000270 90 d8 bb ba ae 46 34 3e a3 e6 c9 bc 46 a2 34 bb
       -0.0014331508 0.17605087 -0.024646109 -0.0027562543
000280 ea bb 3c 3e 65 21 c1 bd 32 21 fa bd 23 d1 58 3e
       0.18431059 -0.094301976 -0.12213363 0.2117353
000290 42 63 59 3c c4 fe 47 bd 5f bc a2 3d b0 c9 0c be
       0.013268294 -0.048826948 0.07946085 -0.13748813
0002a0 db a0 f4 bd 62 52 b3 bd d7 21 23 3d 1e fb 9b 3d
       -0.11944743 -0.08755948 0.039827194 0.07616256
0002b0 e2 a8 00 be 91 d8 35 3e 8a 2c 81 3c 84 1e 08 bd
       -0.12564424 0.17758395 0.015768308 -0.033232227
0002c0 05 22 70 bd 06 9f 1b bd de 99 e4 3d 29 32 d4 3a
       -0.058626194 -0.037993453 0.1116216 0.0016189265
0002d0 d3 ad 5e 3d c9 d7 b7 bd 2b da cd 3c 08 1d b1 bb
       0.05436499 -0.089767046 0.025128445 -0.005405072
0002e0 c9 fd 36 3e 18 fd 3d bd 94 18 21 3e d2 36 98 3d
       0.17870249 -0.046383947 0.15732032 0.07432331
0002f0 57 78 b0 bc 33 9f 3a 3d ce 23 cd bd bc 7d ee 3d
       -0.021541758 0.04556198 -0.10016595 0.11645076
000300 60 2d 04 be 94 58 d8 3d 25 ac c4 3d 57 7d 57 ba
       -0.12907934 0.1056377 0.096031465 -0.0008220276
000310 f4 dd 16 bd ee 0e 84 3d b7 4f 15 3d b5 17 e9 3d
       -0.036832765 0.0644816 0.036452975 0.11381475
000320 d9 72 cf bd 13 46 b9 3d 35 85 50 bd 24 d3 20 3c
       -0.10129327 0.09046569 -0.050908286 0.009815965
000330 2f c4 13 3c 02 10 e9 3d e8 c9 d5 3d b9 03 5d 3d
       0.009018942 0.113800064 0.10438901 0.05395863
000340 f8 49 70 bd d4 66 98 3d 6a 1a 1f 3e 73 bf 5a 3d
       -0.058664292 0.07441488 0.1553742 0.053405236
000350 a8 88 d5 bd 8a 39 14 3e 18 2d 3d 3e 99 4f ad bd
       -0.10426456 0.14475074 0.18474233 -0.08462448
000360 42 ff a3 3d f0 bf ab bd ba 4a 03 3e 2e 06 17 3e
       0.08007671 -0.083862185 0.12821475 0.14748451
000370 33 85 f4 bd 18 74 d2 3d 8a 8d 17 3e e8 99 97 3d
       -0.11939468 0.102760494 0.14800087 0.07402402
000380 16 e2 28 3c 23 bb a0 bd 48 e4 c7 bd 94 73 41 3e
       0.010307809 -0.078481935 -0.09760338 0.18891746
000390 cb d4 bf 3d 6c dc 98 3d ee 3a 3f bd 36 be 26 bd
       0.09366759 0.07463917 -0.04668706 -0.040708743
0003a0 63 49 0f 3e 32 b5 23 be fd 5a cb bd c7 22 3e bd
       0.13992839 -0.1598709 -0.09929464 -0.046419885
0003b0 ee cd 00 3e 9e 56 01 3e c3 2d 60 bd 56 00 89 bd
       0.12578556 0.12630698 -0.05473114 -0.06689517
0003c0 50 5c 81 bd 5b cb 34 be 93 76 77 bb ee e4 4a be
       -0.06316435 -0.17655699 -0.0037759885 -0.19813892
0003d0 31 39 e3 3d e3 d8 e6 3d ae 42 60 3d 42 5f 45 bd
       0.11094893 0.112718366 0.05475109 -0.048186548
0003e0 03 e5 11 bd eb 76 56 bd ad 08 95 bc 0c 98 5b bd
       -0.035618793 -0.052359503 -0.018192613 -0.0536118
0003f0 94 d5 db 3d 9e 87 81 3d c6 ea ff 3b b4 64 a2 3d
       0.10734096 0.06324695 0.0078099696 0.07929364

transformer.layers.0.self_attn.in_proj_bias f4 [192]
000000 2c 5e 98 3c 5f 38 31 3c 88 7d e5 3b b2 2a 0c 3b
       0.018599592 0.010816663 0.00700349 0.0021387753
000010 36 e7 51 3b 82 b4 e4 3b ee 23 a7 3c 6f 2d 3c 3b
       0.0032028682 0.006979526 0.020402875 0.0028713604
000020 5e 4c 17 bc df 77 d7 bc de 61 03 bc a6 24 24 3c
       -0.009234516 -0.026302276 -0.008018939 0.010018503
000030 ab d4 3b 3b da b2 c2 3a 28 d6 e6 ba 82 ad f9 38
       0.0028660696 0.0014854327 -0.0017611431 0.000119055636
000040 77 fe 15 bb 4b 62 47 3c 2c 8c c0 bb fa 31 ff 3c
       -0.0022887269 0.012169431 -0.005876085 0.03115176
000050 1f f5 84 bc e7 16 71 3c 58 98 1b 39 45 5f 3c bb
       -0.016230164 0.014714933 0.00014838704 -0.0028743309
000060 2a e2 2c bb 61 91 2a 3b d9 b6 d9 ba c9 24 89 3b
       -0.0026379921 0.0026026594 -0.0016610279 0.0041852933
000070 d2 6d 1c ba fd 4e fa 3b b8 f4 d9 3b 88 b5 91 3c
       -0.0005967292 0.0076388107 0.006651487 0.017786756
000080 1e 0e 2c bb d8 d6 f8 3b 23 d0 98 3c c3 41 b4 bc
       -0.0026253532 0.0075939707 0.018653935 -0.022004014
000090 fd 09 0d 3c 7f 9b b3 3c ac 5d 07 bc 76 04 d2 bc
       0.008608338 0.021924732 -0.008262079 -0.025636893
0000a0 0d d9 f2 bb a2 68 66 bc 0b 35 19 bc 22 b3 36 3a
       -0.0074111284 -0.014063032 -0.009351025 0.0006969442
0000b0 28 84 bc bc 85 3f d7 bc e0 14 32 bc 77 94 e8 3c
       -0.023012236 -0.026275406 -0.010869235 0.028391106
0000c0 ac 1a 0d 3c 14 1b c5 3c 18 a6 a1 3c 1c a5 59 bc
       0.008612316 0.024060763 0.01973252 -0.013283994
0000d0 b5 3d af 3b 57 ab 93 bc c7 e0 11 3c 9e 40 c4 bc
       0.005347932 -0.018026037 0.008903689 -0.023956593
0000e0 72 79 f4 bb 17 cf 8a bc 3b 32 32 3c ca fa a6 bb
       -0.0074607665 -0.016944451 0.010876234 -0.0050958144
0000f0 6a 03 eb 3b e3 2a aa bc 24 0b 13 bc e3 30 ce 3a
       0.007172038 -0.020772403 -0.008974824 0.0015731122
000100 f2 8e 3a b4 85 92 d5 b4 cc 03 8e 34 5f 51 a3 34
       -1.7374603e-07 -3.978095e-07 2.6452324e-07 3.042032e-07
000110 4a d4 49 b4 86 ef 24 b3 63 86 27 32 65 2b 0b 33
       -1.8796814e-07 -3.840207e-08 9.751235e-09 3.2402927e-08
000120 59 a6 d4 34 9e 18 b8 34 6f 63 5a 34 e8 18 14 b4
       3.960911e-07 3.4290582e-07 2.0339006e-07 -1.3792635e-07
000130 a0 b7 89 b4 86 f2 62 34 22 93 1c 34 68 66 c8 b2
       -2.5651843e-07 2.113612e-07 1.4582159e-07 -2.3329633e-08
000140 a2 60 34 b3 0e f2 80 b3 7b 06 68 34 52 d4 3c b4
       -4.1997403e-08 -6.004494e-08 2.1609041e-07 -1.7586106e-07
000150 da 52 2a b4 1b b3 07 33 f5 f3 93 b4 1a 34 80 33
       -1.5862625e-07 3.1595032e-08 -2.7558386e-07 5.969942e-08
000160 c8 12 62 b4 0f 1e 41 b4 97 75 8e b4 da dd b8 34
       -2.1054723e-07 -1.7985461e-07 -2.653512e-07 3.443409e-07
000170 41 4a fb 33 f2 ef 04 31 7a d4 ad b3 9d ee 53 b2
       1.1701605e-07 1.9344921e-09 -8.0945895e-08 -1.2336071e-08
000180 8e 46 14 b3 c4 7f 84 b4 10 61 5f 33 86 ec 71 b4
       -3.4523104e-08 -2.4679878e-07 5.200951e-08 -2.2530921e-07
000190 da f1 33 b4 22 14 24 34 ff e6 f2 32 47 1b 45 b3
       -1.6758659e-07 1.5281014e-07 2.8277553e-08 -4.5892445e-08
0001a0 78 ab 09 b4 65 7f 3c b4 33 5c 92 b3 39 76 b2 33
       -1.2821499e-07 -1.755521e-07 -6.815426e-08 8.3102755e-08
0001b0 bb c4 b9 33 2c 80 70 b4 25 ed 3c b4 0d 21 10 b4
       8.650519e-08 -2.239837e-07 -1.7595137e-07 -1.3423069e-07
0001c0 9c 2a 22 34 d8 e6 1c 34 c0 2a 0c 34 b3 6b 0e b4
       1.5102927e-07 1.4612613e-07 1.3054068e-07 -1.3263961e-07
0001d0 89 1f 00 b4 90 9b 45 33 59 8e df b2 10 fe 5d b3
       -1.1932401e-07 4.600912e-08 -2.6025349e-08 -5.168664e-08
0001e0 28 89 09 33 81 5c be b3 b4 85 e3 b3 a5 a4 4e b4
       3.202254e-08 -8.864391e-08 -1.0594832e-07 -1.9245142e-07
0001f0 ba be c4 b3 7e 1b c9 b3 a4 2c 83 b3 62 b8 1f b4
       -9.161654e-08 -9.364793e-08 -6.108283e-08 -1.4875107e-07
000200 af ea 39 3a 46 96 fd 3b e8 13 23 3c 36 fd 89 bc
       0.00070921605 0.0077388613 0.0099534765 -0.016844373
000210 da 10 8c bc 4c 15 04 3c d4 5b e8 3b 80 1a 81 bb
       -0.01709788 0.008061718 0.007091025 -0.0039399266
000220 b0 aa 7e 3a 9c 63 47 bb 2d 6d 9a bc df b9 bd 3b
       0.00097147655 -0.0030424362 -0.018850887 0.00578998
000230 83 4c 0d 3a 71 bb 4e 3b 7a 4f 5c 3b 1c b7 92 bc
       0.0005390124 0.003154483 0.0033616708 -0.017909579
000240 29 c6 8f 3a c0 f4 a7 bc ed e0 30 bc a7 27 84 3b
       0.001096909 -0.020502448 -0.010795814 0.0040330472
000250 0a 93 80 bc 50 50 5c bc b2 d5 9a 3b 5e e9 9a ba
       -0.015695114 -0.013446882 0.0047251815 -0.0011818816
000260 ba 30 38 bc 3b 2f fe 3b 72 5e 09 3c e8 70 25 bb
       -0.011242086 0.007757095 0.008384334 -0.00252443
000270 57 71 75 bc 3c b9 a1 bc a7 2b 51 bc 33 7e 6b bb
       -0.014980636 -0.019741647 -0.012766755 -0.0035933375
000280 74 d4 90 3c a5 d7 2d 3c 44 59 a6 3b d6 b4 77 3a
       0.01767943 0.010610496 0.0050765593 0.0009449249
000290 29 02 ad 3c eb 94 47 bc e6 df 07 ba db 9a 66 bc
       0.021119194 -0.012181501 -0.0005183205 -0.014075006
0002a0 ae 7c a0 bc bf a0 00 bb 1a a3 ab ba bd e6 a1 bc
       -0.019590702 -0.0019627062 -0.0013094873 -0.019763345
0002b0 78 f9 14 3c 7e 77 3a bb b4 55 99 3b c7 83 2a bc
       0.009092681 -0.002845257 0.004679406 -0.010407395
0002c0 e6 14 1f bc 23 83 8b 3c 57 b8 a7 ba f0 19 b4 bb
       -0.009709572 0.017030304 -0.0012796026 -0.005496256
0002d0 12 84 92 ba cb 76 43 ba 6f 94 3b ba 18 5b c2 3b
       -0.0011178276 -0.0007456361 -0.0007155602 0.0059312694
0002e0 80 b6 0f bb c2 0e 14 3b 58 e2 26 bb 1a 3e 03 bc
       -0.0021928847 0.0022591804 -0.0025464501 -0.008010412
0002f0 45 63 fe 3a 87 b0 6f 3c 17 62 5a bb b6 e5 25 3b
       0.0019408247 0.01462949 -0.0033322626 0.002531392

transformer.layers.0.self_attn.out_proj.weight f4 [64, 64]
000000 8a e0 ef 3b 64 25 04 bc 39 ce 09 3c 54 1e 80 bc
       0.0073204683 -0.008065555 0.008410984 -0.015639462
000010 1c 90 29 3b 63 34 62 ba bc 5c e5 36 60 65 3e 3d
       0.002587325 -0.0008629022 6.8355275e-06 0.046483397
000020 b4 62 e4 bc 87 a8 1a 3c 78 b7 04 bb 6f d5 81 bd
       -0.027879097 0.009439594 -0.0020250957 -0.06339537
000030 d3 19 bc 3c 5c 22 09 3a 00 f0 ef 3c d2 a8 d4 3b
       0.022961533 0.0005231255 0.029289246 0.0064898515
000040 da 72 76 bc 7e c1 2b 3d 6e ef e0 3c 7d e8 03 bc
       -0.015042031 0.041932575 0.027457919 -0.008051035
000050 7b e6 74 3c 2e 0e 8c 3c 3a de a5 bc f1 a6 9b 3c
       0.014947529 0.017096605 -0.020247567 0.019000502
000060 fe ce 63 3b 57 57 f0 bc da 7e 05 3d a6 94 e5 bc
       0.0034760828 -0.029338522 0.03259168 -0.028024983
000070 bb 99 14 3c 95 b1 e7 bc ed 7b 82 bc 70 1f 25 3c
       0.009069855 -0.02828292 -0.015928233 0.010078296
000080 2e 07 11 3d 9f 68 1a bd de af 69 bc b4 8c d5 bb
       0.035407238 -0.03769743 -0.014263121 -0.0065170173
000090 9c e6 0a 3d 23 18 c8 3c e2 3c 2c bc 13 b9 8a bc
       0.033911332 0.024425572 -0.0105125625 -0.016933953
0000a0 27 92 74 3c cc 8a 21 3c 41 b7 da 39 3b bb f1 bb
       0.014927424 0.009859752 0.00041716735 -0.007377056
0000b0 e7 58 48 bd 4c a4 c1 3c 43 e5 25 3d 62 ee d2 bb
       -0.04891291 0.023637913 0.040501844 -0.006437109
0000c0 91 c0 d9 bb 19 c1 26 bd 39 5d 04 bc 3a aa ac 3c
       -0.00664527 -0.040711496 -0.008078867 0.021077264
0000d0 55 c8 2e 3c 3a ff ea 3b 7f 96 b8 bb 11 cf 46 bd
       0.01066788 0.0071715387 -0.005633175 -0.048537318
0000e0 21 8d a6 3c 27 6b ed bb 9f 55 52 bd 26 f0 0d 3d
       0.020330967 -0.0072454396 -0.051351186 0.03465285
0000f0 85 de ac 3c 04 6b e2 3c f2 b5 eb bb 9b 1f 2c 3c
       0.0211022 0.02763892 -0.0071933204 0.010505582
000100 53 d5 4c 3b 62 95 b3 bc eb 6c b1 bc 3d ff b5 3c
       0.003125508 -0.021921817 -0.021658381 0.022216434
000110 73 82 09 3d 4b 65 b6 bb 0e 2f 8e 3a 6e 96 97 bc
       0.03357167 -0.0055662743 0.0010847764 -0.018504348
000120 55 57 df bc 2e 90 49 bc 76 4e a6 bc 2a 73 16 bd
       -0.027263323 -0.0123024415 -0.020301085 -0.036730923
000130 a4 d2 da 3c 9f 2d ce ba b5 83 a0 3b ad 7c 07 3d
       0.02671177 -0.0015730149 0.004898513 0.033077884
000140 17 29 d7 3b 28 a0 66 3c ac 14 47 3a a4 cc 36 bc
       0.0065661776 0.01407627 0.0007594328 -0.011157189
000150 7f 3d 92 3c 98 99 10 3d a4 d3 1a 3d ad 1f 17 3d
       0.01785159 0.03530273 0.037799492 0.036895443
000160 e4 39 b9 bc 99 ab d0 bb 5e 64 d2 bc 62 aa 82 bc
       -0.022610612 -0.0063681123 -0.025682624 -0.015950385
000170 89 08 14 bd e7 a4 06 bd 92 9c 41 3c ed 6d a3 3c
       -0.036140952 -0.032872107 0.011817114 0.019949878
000180 a3 0b dd 3b 75 82 cc 3c 4e 83 dc 3c 1a 2d 8f 3c
       0.006745772 0.02496455 0.02691808 0.01747756
000190 b8 a5 37 ba 55 6d c0 3c b5 d5 a5 3b 32 e8 71 bc
       -0.000700559 0.023489634 0.0050608763 -0.014764832
0001a0 9c 2c fe 36 a1 0a 85 3c 2f 9e 57 bd a8 6a 3f 3d
       7.574983e-06 0.01624042 -0.05264109 0.046732575
0001b0 6a 9f 83 bc 4f fc 29 bd fa 6b c8 bb 2e f2 d3 3b
       -0.016067225 -0.041500386 -0.0061163874 0.006468079
0001c0 54 f6 1e bd e1 bc d4 bb 4d 55 a7 bc a3 b3 d3 3b
       -0.038809136 -0.0064922427 -0.020426417 0.0064606233
0001d0 51 9c b4 bb 31 11 13 3d 76 a5 a8 bc 4d 89 59 bc
       -0.0055117984 0.035905067 -0.02058671 -0.013277364
0001e0 f1 46 46 bd ff ca ac bb e9 43 d3 3c 21 9d 24 3c
       -0.0484075 -0.0052732225 0.025789218 0.010047228
0001f0 f2 e5 fe bc 52 39 f3 3b aa ad 21 3c 58 34 f7 3a
       -0.031115506 0.0074226046 0.009868065 0.0018860204
000200 69 41 fa bb 2e 31 b9 3c 3f 30 60 bc da a1 20 3c
       -0.007637192 0.022606459 -0.013683378 0.009804213
000210 a3 c1 4e bc 10 27 d5 3b 86 c0 18 3c 36 d1 b5 3c
       -0.012619409 0.0065049008 0.009323245 0.022194486
000220 10 fe a3 3c 4b c2 bf 3c 08 9d b3 bb 51 3e 48 bc
       0.020018607 0.023408076 -0.005481366 -0.012221889
000230 60 ef 08 3c 55 fc a4 bb a7 43 13 3d f0 53 12 bc
       0.008357853 -0.005034963 0.03595319 -0.008931145
000240 7b 19 2b bc a4 4d 42 bc 69 59 f1 bc 1c 07 31 bd
       -0.010443087 -0.011859331 -0.02946158 -0.04321967
000250 d2 e6 8c bc a7 af 26 3c c5 51 81 bb 1c 4c 18 3c
       -0.017199907 0.010173715 -0.0039465153 0.00929549
000260 c6 aa a8 bb 80 e6 32 bb 3c 39 8d bc e8 91 98 3c
       -0.005147311 -0.0027298033 -0.017239206 0.018624261
000270 12 ea 2c bd 4e b6 32 bc cf 23 8c bc 08 2c 8e bc
       -0.042215414 -0.010907723 -0.017106919 -0.01735498
000280 fc 4b 1f bc 20 b3 2a 3c 7c 79 0e bc 58 e2 da 3c
       -0.009722706 0.010418683 -0.008695956 0.026719257
000290 dc 36 76 3b b8 03 30 bc d0 2c cb 3c a7 31 68 3c
       0.003756932 -0.010743074 0.024801642 0.014171994
0002a0 21 56 8c 3c 6c 5b c0 bb 11 12 3d bc 61 25 e2 3c
       0.017130913 -0.0058702733 -0.011539952 0.027605714
0002b0 4c 45 f8 3b 1f 22 0a bc 4b 8d 2e 3d 8b 7d 1e bd
       0.00757662 -0.008430987 0.042615216 -0.038693946
0002c0 88 50 20 3b 7e d8 81 3b f6 b5 dd bb c8 c5 a8 bc
       0.0024462063 0.0039625755 -0.006766076 -0.020602122
0002d0 3e 0a 51 bc 85 10 c8 3c 12 56 26 3d 76 77 27 3c
       -0.01275879 0.02442194 0.040609427 0.010221353
0002e0 3b 99 17 bd e9 10 6a 3c 29 29 6c bc 45 43 03 bc
       -0.037011366 0.014286258 -0.01441411 -0.008011644
0002f0 d0 6b 8a 3c 64 5f fb bb d0 ad b6 bb b9 65 3a bc
       0.016897112 -0.0076712836 -0.0055749193 -0.011376792
000300 69 5f 03 bd 67 af 6d b9 31 bd 2d 3c 60 7b a7 bc
       -0.032073412 -0.00022667424 0.010604189 -0.020444572
000310 ef 28 89 3b 36 89 bf bc 95 d1 f1 3c f2 31 78 3c
       0.004185788 -0.023380857 0.029518882 0.015148627
000320 49 7a 50 bb 5b e8 b9 3c 93 ec 66 3c 0e c9 27 3b
       -0.003181117 0.022693804 0.01409449 0.0025602016
000330 26 b6 0e 3c cc 29 11 3b 62 b8 2f 3c 9c 63 4d ba
       0.00871042 0.0022150157 0.010725113 -0.00078349723
000340 1e 39 d0 3b 1b a8 ad bb 64 42 d0 3c ef db 58 bc
       0.006354465 -0.0052995807 0.025422283 -0.01323603
000350 f3 0c f1 3c f4 f4 14 3d b1 de 69 3c 02 74 bb bc
       0.02942512 0.036366418 0.014274285 -0.022882465
000360 a8 8d c5 3b 07 12 00 bc 18 84 19 3d 39 eb a7 bc
       0.0060288496 -0.007816798 0.03747949 -0.020497905
000370 46 8e 4a bb a6 a6 39 3d ea ff 2c 3b 0d aa 02 b9
       -0.0030907555 0.045324944 0.0026397654 -0.00012461115
000380 5e a4 f1 3b 1e 54 36 bd ef b0 1a 3c 2a 15 86 3a
       0.0073743304 -0.044513814 0.009441598 0.0010229696
000390 10 bf 07 bd 01 6d 58 3c 3a 6d 7f bc 7f e8 4f bc
       -0.033141196 0.013209582 -0.0155900065 -0.012689709
0003a0 d1 f2 e5 3b dc bf b1 bc ba 75 c5 bc 40 a1 2e 3a
       0.0070174714 -0.021697931 -0.024103988 0.00066616014
0003b0 d5 2c 94 bb e5 44 35 3d dd ea 1b 3c fa 4c 28 3d
       -0.004521946 0.044255156 0.009516445 0.041089036
0003c0 6e ca 03 bd 1d db 0a 3b 61 29 1d bc d1 13 b4 3c
       -0.032175474 0.002118773 -0.009592385 0.021982105
0003d0 73 b6 07 3d 8f bd e0 3b 50 7b 4d 3c 23 84 24 3d
       0.03313298 0.0068585346 0.012541607 0.040165078
0003e0 a7 1a 16 bc 13 a6 1d bd 02 53 95 bc 84 a9 a5 3b
       -0.009161628 -0.03848846 -0.018228058 0.005055608
0003f0 42 7c 0f bb 39 30 3d bd 51 b8 23 3d bb 97 7e 3c
       -0.0021894132 -0.046188567 0.0399707 0.015539105

transformer.layers.0.self_attn.out_proj.bias f4 [64]
000000 4a c5 11 3c fa 7f 8e 3b a6 94 c0 bb 16 ca dc 3b
       0.008897135 0.004348752 -0.0058770953 0.0067379577
000010 bb b7 8b 3b ec 28 b6 3a b5 80 00 bc 6d 1a 10 3c
       0.0042638457 0.0013897694 -0.007843186 0.008795363
000020 35 58 c6 3b cc 6b 2d 3c 5c d5 ff bb 6f e9 79 3b
       0.0060529956 0.010584783 -0.007807417 0.0038133522
000030 60 fa a6 b9 82 ef ac bb cd 1b 29 3c 50 ba 1a bc
       -0.0003184853 -0.005277575 0.01032157 -0.009443834
000040 fc b0 f5 bb ae ee ed 3a cb 30 30 3b ba 10 e5 3b
       -0.007497905 0.0018152797 0.0026884552 0.0069905194
000050 ed 45 21 bb f9 11 b5 3b d4 18 cb bb eb ee c9 3b
       -0.002460833 0.005525824 -0.006198028 0.0061625144
000060 fc 9f 04 bc 21 1b 5a 3a 25 9c ff bb c2 b6 b3 3b
       -0.008094784 0.00083200826 -0.0078005963 0.005484433
000070 d6 d3 b0 3b 3f a1 5c bb 0e 26 01 3c 85 77 ec 3b
       0.0053963466 -0.0033665446 0.007882608 0.0072163963
000080 e2 0f c9 3b a2 6e cc 3b 99 fa 75 ba 18 73 bf ba
       0.0061359266 0.0062387744 -0.000938335 -0.0014606444
000090 cc a8 68 3b 19 72 10 bc f0 f9 e6 b9 11 c7 1a 3c
       0.0035501001 -0.0088162655 -0.00044055237 0.009446875
0000a0 1f bd 38 bc 7d 81 ff 3a b2 e8 d5 bb e9 8b 1f bc
       -0.011275559 0.0019493547 -0.0065279836 -0.009737947
0000b0 50 ad bc bb ac 2f 27 bb b4 df bc bb d2 5a f2 3b
       -0.005757965 -0.0025510592 -0.005763972 0.0073960805
0000c0 4a 08 9c bb 72 8c 78 ba 16 b4 3e 3c 38 2c 75 bb
       -0.0047617303 -0.0009481377 0.0116396155 -0.003741039
0000d0 9e 98 09 bc c0 1a e5 3b f9 36 11 3c 55 98 88 bb
       -0.008398203 0.0069917142 0.008863204 -0.00416855
0000e0 48 ce 22 bc 8f 7b cd bb d2 ef 14 bc 68 0d d5 ba
       -0.009936877 -0.006270833 -0.009090381 -0.0016254606
0000f0 76 6e dc 3b c5 67 a5 bb fb 74 88 3b 55 ea 1b bc
       0.006727035 -0.0050477707 0.004164336 -0.009516318

transformer.layers.0.linear1.weight f4 [128, 64]
000000 f8 43 70 bd 29 8f c6 bc 79 3f 16 3d a9 61 0f bd
       -0.05865857 -0.024238186 0.036681626 -0.035005245
000010 53 90 d5 3c fb 19 69 bc 99 ee 3b bc 2e 47 62 3d
       0.026069796 -0.014227386 -0.01147046 0.055243663
000020 a8 86 fb 3c c7 74 2e bc 89 bb 3b bd 8b 14 1b 3d
       0.030703858 -0.010647959 -0.045833144 0.03786139
000030 fb ce a6 3c 1b 74 eb 3c 90 ac b2 bc 77 b3 80 3c
       0.020362368 0.028741887 -0.0218108 0.015710576
000040 2a c0 a4 bc 11 8a 82 3c 04 89 53 3d 58 9f 6d bd
       -0.020111162 0.015934976 0.05164434 -0.05801329
000050 33 6c 5f 3d c4 4b 03 3c 74 4b a3 3d 87 a1 69 bb
       0.054546546 0.008013669 0.07973376 -0.0035649256
000060 50 6a 51 3c f0 39 c5 bb c1 b1 1b 3c 31 0a 31 3c
       0.0127816945 -0.0060188696 0.009502829 0.0108056525
000070 a4 42 99 bd 88 3e f4 b9 27 64 4b 3d ce b1 80 3c
       -0.07483414 -0.00046585896 0.04965606 0.015709784
000080 3d f3 20 3d 92 56 7b bd cf 1b 8d bc 92 55 cb 3c
       0.03929447 -0.061361857 -0.017225174 0.024821077
000090 67 7e 8d bc d6 07 ea 3b 09 d5 df 3c 24 04 8c bc
       -0.017272187 0.0071420474 0.027323263 -0.017091818
0000a0 34 78 3f 3c 33 ff aa bc 4a 7d 66 bd ef e5 be bb
       0.0116863735 -0.020873642 -0.05627183 -0.00582575
0000b0 4e ac 01 bd 5b 23 06 bd 03 d5 01 3c 53 57 10 bd
       -0.031658463 -0.03274856 0.007924321 -0.03523953
0000c0 cf 93 82 3c 22 1c 8c bc 4d d8 7f bc d6 6e 0c bd
       0.015939621 -0.017103259 -0.015615535 -0.03428539
0000d0 30 38 a8 3d 3b 09 d1 3c d4 be 83 bd ba 0f b8 bb
       0.08213842 0.025517097 -0.06432882 -0.005617109
0000e0 f0 dc b6 bc 95 48 f2 bc 08 cf 97 bb 66 0c 9f bd
       -0.022322148 -0.029575625 -0.0046328343 -0.07766037
0000f0 9a 67 96 3b d0 e4 a6 bc 57 8b 01 bc a9 ba c2 bc
       0.004589987 -0.020372778 -0.007906756 -0.023770647
000100 d1 1c c1 bc 9b f7 0d 3c fa 0d a4 3c 29 a1 95 bc
       -0.023573311 0.008664991 0.020026196 -0.018265324
000110 a2 de 55 3c 05 9e 29 3c 13 f4 e3 bc ac d8 c9 3c
       0.013053568 0.010352616 -0.027826345 0.02463945
000120 41 6a 62 3b 92 e9 ea 3c 35 c3 d5 bc ee 5a 48 bd
       0.0034548196 0.028675828 -0.026094059 -0.048914842
000130 22 cb 2d bd d3 8b 72 bc f9 94 bf 3c 48 49 96 3c
       -0.04243005 -0.0148038445 0.023386465 0.01834549
000140 cf 3b a7 bc 84 49 9a bc 43 56 0e bd 7a b9 86 3c
       -0.020414261 -0.018833883 -0.034750234 0.016445864
000150 06 67 a1 3b 52 95 60 bc 99 d2 ca bc 84 5a e2 bb
       0.0049256114 -0.013707476 -0.024758624 -0.006907763
000160 6f 7a 59 3c bd 9b d2 3a 7f cf 28 bc 10 b3 3c bd
       0.013273819 0.0016068142 -0.010303377 -0.046069205
000170 b4 2c 4e 3c f4 e3 14 bc 94 8c 4c bd 2b d7 83 bc
       0.0125839 -0.009087551 -0.049938753 -0.016093811
000180 6d fa 18 3d 3f da d4 ba fd 22 26 bb da 9b 2f bc
       0.0373482 -0.0016239359 -0.0025350444 -0.01071831
000190 54 2d 01 3c 3b 16 d6 3b 67 9c 02 bd 17 dd 37 3c
       0.007884342 0.006533412 -0.03188744 0.0112221455
0001a0 c7 a5 a7 3b be e0 94 3b c7 e3 d7 bc 65 b3 16 3b
       0.0051161977 0.004543393 -0.02635373 0.002299511
0001b0 99 f5 76 bc 37 4f 86 3c 74 70 84 bc 62 a0 2a bd
       -0.0150732035 0.016395194 -0.016166903 -0.04165686
0001c0 c6 30 a5 3c 24 56 c7 3c 6c d8 4a bc 40 73 4e 3c
       0.020164859 0.024333067 -0.012380701 0.01260072
0001d0 a1 73 0b 3d 86 59 84 3c 20 7f d0 3c 33 97 fa 3c
       0.03404582 0.01615597 0.025451243 0.030589676
0001e0 fc 46 50 bd 4f 68 7a bb d9 cf 04 3d 80 17 ff bc
       -0.050848946 -0.0038209145 0.03242478 -0.031139135
0001f0 80 6a 19 3c 52 67 16 3c ad 35 28 3d 45 43 15 3c
       0.0093637705 0.009179907 0.041066814 0.009110277
000200 e2 80 79 3d 7a 9b d7 3c 3b 83 3c bc 79 9d ee 3c
       0.060913928 0.026319254 -0.011505897 0.029127823
000210 f4 00 b1 3b 39 43 97 bc 49 3b 5e bc d1 de 6a bc
       0.005401725 -0.018464671 -0.013563939 -0.01433535
000220 d0 d5 d0 3c 59 d5 86 3c b9 f0 ed 3b 93 6f 9b bc
       0.025492579 0.016459154 0.0072613624 -0.018974101
000230 ba f5 07 bd 5f 42 33 bd f9 97 02 3c 24 59 22 bc
       -0.033193327 -0.04376447 0.007970803 -0.009908948
000240 8c fc 92 3b f2 bc 8e bc 86 8b 20 bd 26 c5 3d bc
       0.0044856723 -0.01742408 -0.03919556 -0.011582648
000250 51 83 9d 3d 19 ac a9 3c 88 51 75 3b bd a2 24 3d
       0.07691062 0.020711945 0.003743263 0.04019426
000260 ac a1 3d b9 58 83 96 3a 2e 0d 70 3b 37 34 28 bd
       -0.00018084672 0.0011483235 0.003662895 -0.04106542
000270 3e 15 63 3d 78 6a f3 3b 81 6e 3c 3c e2 26 62 3c
       0.05544018 0.0074284635 0.011500956 0.013803216
000280 4d 32 88 3c a1 4e f3 3b 8e ee a3 bc 1c 1b 97 bc
       0.016625548 0.007425145 -0.020011213 -0.018445544
000290 7d e7 26 3d 5e 26 5e bc ee a8 86 bc 3b b2 f7 3c
       0.04074811 -0.013558952 -0.016437974 0.030236354
0002a0 58 97 8c bd de 7b c4 3c 6a 1e 6e bb 34 35 22 38
       -0.06864804 0.023984846 -0.0036334046 3.867336e-05
0002b0 51 90 25 3b 6d 93 79 bc 99 24 37 3b cb f5 72 bc
       0.0025263021 -0.015232903 0.0027945398 -0.014829109
0002c0 ab f1 27 3b a9 91 85 3d 14 0a 1b 3d b4 51 1b 3d
       0.0025626223 0.06521923 0.037851408 0.037919715
0002d0 20 6f 07 3c 2d c4 f6 3c 84 c3 22 bd 01 9f fa bb
       0.00826624 0.03012284 -0.03973724 -0.0076483493
0002e0 53 84 91 bc d3 63 04 3b a7 e7 84 bc 26 38 82 bc
       -0.017763292 0.0020201101 -0.016223742 -0.015895914
0002f0 e9 81 1b 3d 8b 0a bf bc f7 27 fc 3a 26 00 83 bc
       0.03796569 -0.023320457 0.0019237985 -0.015991282
000300 24 10 36 3d 79 57 9a bc 8a 51 0a 3d ac d8 6c 3c
       0.044448987 -0.018840538 0.033769168 0.0144559555
000310 6d 9b ec 3b 88 6c a4 3c 35 dc ec bc d8 27 ce 3c
       0.0072206766 0.020071283 -0.028913597 0.025165483
000320 d9 02 20 bb f3 fb 89 3d e5 a9 40 3d e5 df c1 bb
       -0.002441576 0.067375086 0.047037024 -0.005916583
000330 e1 71 c0 3c 81 e3 c0 b7 6d 22 09 3d ee 1f 89 bb
       0.023491802 -2.2994123e-05 0.033480097 -0.0041847145
000340 58 87 c5 3c f2 c2 c9 3c 0a 00 88 bc 72 f7 ad 3d
       0.024112388 0.02462909 -0.016601581 0.08494462
000350 d0 9e 09 bc d4 bc c4 3c db 1e 39 bd 26 3d 30 3d
       -0.00839968 0.024015822 -0.04519544 0.043027066
000360 4e af 1f bc 93 80 73 3a 3c dd 99 bb 0f 65 1a 3c
       -0.009746386 0.00092888734 -0.0046955626 0.009423508
000370 d4 b7 47 3c 72 53 87 bd aa b1 ec 3c d6 57 a7 bc
       0.012189824 -0.06607713 0.02889331 -0.020427626
000380 ed 77 81 bc 2a 66 3a 3d 74 10 0a 3b bf 34 a1 bc
       -0.015804255 0.045507587 0.0021066936 -0.019678472
000390 4b 83 96 3a a0 ca 25 bc 9d 19 c8 bc 7a 13 7a 3c
       0.001148322 -0.01011911 -0.024426276 0.015263433
0003a0 a6 5b 4e 3c 68 81 02 3d 74 ad 0f bd 96 5a 65 bd
       0.012595093 0.031861693 -0.035077527 -0.055994593
0003b0 55 6e a2 bb db ff 47 bd dc f5 0f 3c 57 a0 57 3d
       -0.0049570003 -0.048827987 0.008786645 0.052643146
0003c0 b1 61 52 3d 69 44 da 3b 12 cd b2 3d 60 50 9f 3a
       0.051362697 0.006660987 0.0873052 0.0012154691
0003d0 2a 84 c1 38 17 9c 56 3a 87 3e c6 3b dc dc dc 3c
       9.2275746e-05 0.00081867113 0.0060499343 0.026960783
0003e0 0b e3 49 bd 90 01 40 3c b5 fd f3 bc 38 6c 84 39
       -0.04928879 0.0117191225 -0.029784063 0.0002525763
0003f0 7a ae 80 3d e1 9e 97 bc 40 51 9f 3c a2 2f 23 bc
       0.06283279 -0.018508377 0.019447923 -0.009960087

transformer.layers.0.linear1.bias f4 [128]
000000 29 e5 89 bb fe d4 22 bb dc 06 20 3c 67 ed ba 3c
       -0.004208226 -0.0024846192 0.00976726 0.02281828
000010 7e 52 44 3b 81 85 00 bc 0f a9 c3 3c 15 1a 88 3c
       0.0029956396 -0.00784433 0.023884324 0.016614
000020 11 90 b4 3b ce 54 87 3b 2e 50 ad 3b 55 df 20 3c
       0.005510338 0.0041299826 0.005289099 0.0098188715
000030 af 4c 93 bb 46 b9 6c 3b e5 72 b8 3b 96 a3 47 bc
       -0.0044952254 0.0036121174 0.005628931 -0.012184998
000040 0a 35 8c 3c 1b e3 95 3c 15 e1 de bb 1c 27 86 3b
       0.017115135 0.018296769 -0.006801734 0.0040940177
000050 be 91 44 3c 92 0e d1 bc 8e 88 c5 3c d3 8f 2d 3c
       0.011997638 -0.025519643 0.024112966 0.010593372
000060 72 0d 39 3c 74 7f c5 3b 74 0d 14 3c 7b 03 a1 3c
       0.0112947095 0.0060271565 0.009036411 0.01965498
000070 8b 17 44 3c 0e 5a 83 3c 44 34 1c 3c 73 0f fc bb
       0.011968504 0.016034152 0.0095339455 -0.0076922714
000080 ec 9c 41 bb 51 b8 9c 3b 19 5f 53 3b 1a 19 c6 3b
       -0.0029542996 0.0047827144 0.0032252728 0.006045473
000090 a0 39 c6 3b b5 f3 a4 3c c1 66 eb 3b 5b 09 60 bc
       0.00604935 0.02013574 0.00718388 -0.0136741055
0000a0 64 17 f5 3b 32 24 b0 3b 25 e5 27 3c 94 93 1c 3b
       0.007479595 0.0053754086 0.010247503 0.0023891674
0000b0 1b 26 b0 3c 91 9f ea 3b e1 a8 02 3c 72 17 87 3b
       0.021502545 0.007160135 0.007974834 0.004122668
0000c0 fb c7 f6 ba bb f7 8a 3b 6d 8e 5c bc 86 23 00 3a
       -0.0018827909 0.0042409576 -0.013461691 0.0004888106
0000d0 82 b0 46 3c 1f c1 83 3c 39 39 cb 3b a6 85 d3 bb
       0.012127044 0.016083298 0.00620189 -0.006455141
0000e0 e0 a4 49 3c 76 f0 84 bc f3 b9 a5 3b 22 66 90 bc
       0.012307376 -0.016227942 0.0050575673 -0.017626826
0000f0 60 8a 18 3c 13 92 27 3c cb c9 3f 3c 61 33 61 3c
       0.009310335 0.010227698 0.011705826 0.01374516
000100 a0 e0 67 3a e0 d3 1a 3c 89 0b 00 bc 3e 45 95 3c
       0.00088454224 0.009449929 -0.00781525 0.018221494
000110 71 dc 20 ba c4 3f d2 3c b9 10 10 3c e1 a0 22 bb
       -0.0006136364 0.025665171 0.0087930495 -0.002481513
000120 8e 34 9b bb 7b 84 02 3b 86 32 40 3c e2 fe a8 3b
       -0.0047364896 0.001991539 0.011730796 0.0051573375
000130 91 0d 2e 3c c1 80 4c 3b 04 1f aa 3c 67 34 77 3b
       0.010623352 0.0031204673 0.020766743 0.0037720443
000140 7f b4 a8 3c 7c f2 f7 ba 5c e5 14 3c f9 b5 da bb
       0.02059388 -0.001891687 0.009087887 -0.006674525
000150 d1 6f 8d 3b 05 0c 0d 3c a9 83 a0 3c 31 d4 c4 3b
       0.004316308 0.008608823 0.01959403 0.0060067405
000160 0d c4 26 bc 5a 69 fe 3b 84 1a f9 3b da 38 46 3c
       -0.010178578 0.0077640237 0.007602038 0.012098515
000170 2e c3 a2 bc 1c ce 6f 3a cc b2 92 3c d7 ed ff 3a
       -0.01986846 0.0009147839 0.017907523 0.0019525838
000180 4d eb 84 3c 25 cc 98 bb 64 e7 51 3b 20 de 2d 3c
       0.016225481 -0.004663008 0.0032028789 0.010612041
000190 1b 07 49 3c 8a fd cc 3b 05 a0 85 ba 20 27 b9 3c
       0.0122697605 0.00625581 -0.0010194784 0.022601664
0001a0 2f 0d 89 3a bf 6c ee 3b 07 a3 50 3b 1d 5c bf 3c
       0.00104562 0.007276147 0.0031835453 0.023359353
0001b0 8d 44 80 3c 20 50 a0 bb 07 7b 12 3c 3d 47 18 3c
       0.015657688 -0.004892364 0.008940465 0.009294328
0001c0 ae b9 36 bc 84 00 75 3c 2f 4c ce 3b 4a a3 9c 3b
       -0.011152668 0.014953736 0.006295703 0.0047802078
0001d0 09 a1 82 3c 55 18 21 3a c3 89 f3 39 1b 9e 9e bc
       0.015945928 0.00061452884 0.00046451212 -0.0193625
0001e0 a2 3b de bb ac 70 05 b9 9d 7c 80 bb 2e f7 42 3c
       -0.006782011 -0.00012725842 -0.003921105 0.011899753
0001f0 fb a8 9d 3b e7 b2 8a ba f1 fb 1a 3c c4 45 73 3c
       0.004811404 -0.0010581882 0.009459482 0.014848176
