marble_model/best_model.pt (torch, 290613 bytes, 30 tensors)

token_embedding.weight f4 [13, 64]
000000 a0 1f 60 bc 09 77 28 3c 1d 95 0b 3d 73 b6 e4 bc
       -0.013679415 0.010282286 0.034077752 -0.02791903
000010 c9 d1 f2 3a 4f 2b bd bb 23 dd 9c bc fa eb 11 3c
       0.0018525656 -0.005772985 -0.019148415 0.008906359
000020 7c a1 b5 bb 70 ec 09 bc e0 93 fd bc 62 87 66 bb
       -0.005542932 -0.0084181875 -0.030954301 -0.003517591
000030 dc 2f 44 bc 0d b6 8a 3c ff 1a 9b bc 05 9d c6 ba
       -0.011974301 0.016932512 -0.018933771 -0.0015152997
000040 57 4c a0 3b 61 26 9a bb 5c 09 f1 3a 5c bb 16 3b
       0.004891913 -0.004704282 0.001838963 0.0022999858
000050 09 ac 2f 3d b2 6a 89 3c cd 20 1b 3b e1 eb 27 3c
       0.042888675 0.01677451 0.0023670674 0.010249109
000060 4a a4 c8 bb 45 03 22 3c a5 93 e8 3c 37 91 0b 3c
       -0.0061231004 0.009888475 0.028390715 0.008518509
000070 eb c9 44 bc 85 70 1c 3c 44 11 5d bc cf a7 55 3c
       -0.012011032 0.009548311 -0.013492886 0.013040497
000080 98 b4 4b 3b 30 5b ce bc 59 37 2f bc 96 da 81 3c
       0.0031082984 -0.025189966 -0.010694348 0.0158513
000090 6a 48 db 3c 64 ef 36 bb db 7d b5 3b 89 d9 47 bc
       0.026767928 -0.0027913684 0.005538685 -0.0121978605
0000a0 73 b9 2c 3c d2 a8 65 bb 92 11 0f bc 5d 05 39 3c
       0.010542261 -0.0035043252 -0.008732216 0.011292783
0000b0 4f 06 02 3d 8a fa f5 ba 4a 01 7d 3c f4 4a a3 bc
       0.031744298 -0.0018766683 0.015442202 -0.019933201
0000c0 01 c6 1f 3d 45 c0 1d 3d 8c 8d 06 bc 87 3f 60 3c
       0.03900719 0.03851344 -0.008212458 0.013687021
0000d0 fd 42 a6 bc d3 53 58 bb af 36 db bc c3 ef 0b bc
       -0.020295614 -0.0033008948 -0.026759474 -0.00854105
0000e0 21 e9 b2 bc 17 89 5c 3c 1c 80 3e 3b be 71 2f 3c
       -0.02183968 0.013460419 0.0029068058 0.010708271
0000f0 c9 3a 50 bc 8f 07 3b bd 97 5a 7a bc 96 85 a1 bc
       -0.012709328 -0.045661505 -0.015280387 -0.019717019
000100 3c 87 8b 3b ba 62 8e 3b 16 0a 07 3a e2 36 16 3d
       0.0042580646 0.004345265 0.0005151344 0.036673434
000110 12 eb da bc be 04 6c 3d f4 c2 b1 bc cb c5 24 3d
       -0.026723418 0.05762171 -0.021699406 0.040227693
000120 bc 78 1c 3b b6 85 f3 3c dd f3 47 3c 55 39 15 bd
       0.0023875674 0.029726844 0.012204138 -0.03643163
000130 ad 81 ef 3c 58 52 a6 3c 77 1a 31 3d f3 e0 85 3d
       0.029236639 0.020302936 0.04323813 0.06537046
000140 37 df 12 3d 93 0b 4b 3c a2 fa f1 bc 81 d3 f4 3c
       0.035857406 0.012392896 -0.029538456 0.02988601
000150 67 d6 5c bb b4 c9 13 bd 60 28 e9 3c 0b e9 ca bc
       -0.003369713 -0.03608103 0.028461635 -0.024769327
000160 e6 eb ac bc 61 d1 4e bd 28 0b 0a bd d0 f1 13 3d
       -0.021108579 -0.050492648 -0.033702046 0.036119282
000170 90 64 60 bc 98 48 91 3b 31 c0 50 bc 0a 65 a5 bb
       -0.013695851 0.0044337027 -0.0127411345 -0.005047445
000180 e0 6d f9 bc 43 93 cb 3c 82 83 2b 3d 3e 77 b2 bc
       -0.0304479 0.024850493 0.041873462 -0.021785375
000190 e6 1b 28 bd e8 dd 2b 3d 3d ba 10 3b 3d e6 23 bd
       -0.04104223 0.041959673 0.0022083663 -0.040014494
0001a0 52 0f 25 3d df 08 59 bc 06 65 42 3d 8c eb c9 bc
       0.040297814 -0.013246744 0.047459625 -0.02464845
0001b0 e6 c8 a1 3c e6 89 98 3c c4 9d 69 bd 42 a5 a5 3c
       0.019749116 0.018620443 -0.057035223 0.020220403
0001c0 1a 06 f6 3c 62 d6 21 3d 02 fc 43 3d c9 4d 06 3c
       0.030032206 0.039511092 0.047847755 0.008197256
0001d0 4b 98 84 bc fe 73 65 bc 9c 77 d4 3b 31 cb f5 bc
       -0.0161859 -0.0140047055 0.006483985 -0.030004116
0001e0 e7 8d 02 3d 0b 2d 22 bd 4f 7e 25 bd 77 82 55 bb
       0.03187361 -0.039593738 -0.04040366 -0.0032578984
0001f0 22 9a 7f 3b 36 ce 81 3b c2 74 a2 bc dd ee 87 bc
       0.0039001782 0.00396135 -0.019831065 -0.016593391
000200 12 13 c7 3b 6c 8b 17 3c 3f 03 05 3d 02 03 a6 bc
       0.0060752714 0.009249549 0.0324738 -0.020265106
000210 d6 10 08 bc ac 02 0c b8 a8 fb 9c 3c cb cf d1 bc
       -0.008304795 -3.338109e-05 0.019162968 -0.025611779
000220 af 07 ec 3b cd 3f 04 3d 67 25 08 3b 80 77 98 bc
       0.0072030644 0.032287408 0.0020774247 -0.01861167
000230 d9 31 f6 bb cc 9b 0c bb 86 01 90 3c 22 d2 55 3c
       -0.0075132665 -0.0021455167 0.017578851 0.013050588
000240 99 97 d0 bc 3e f9 16 bd d6 f5 93 3b 0a 2b f2 bc
       -0.025462912 -0.03685879 0.00451539 -0.029561538
000250 59 15 42 3c 62 67 5b bc e6 6d a5 3b d9 ad 1f 3d
       0.01184591 -0.013391348 0.0050485013 0.038984153
000260 82 5a 46 bb aa a9 c3 3c d9 20 82 3c d0 63 46 bc
       -0.003026635 0.023884613 0.015884804 -0.012108758
000270 41 27 9f 3c f9 20 62 bb 5b a7 a4 3a 14 71 57 bc
       0.019427897 -0.0034504517 0.0012562083 -0.0131495185
000280 1e 02 ad bb 89 8e e8 3b 5b 20 26 3d 90 f3 1a 3c
       -0.0052797934 0.0070970696 0.0405582 0.009457484
000290 d3 ca 35 bc 66 01 ca 3c 30 5b ca 3c 3b ca 4d 3c
       -0.01109572 0.02465887 0.024701685 0.0125604225
0002a0 04 e0 0e 3c 86 d4 34 3c fe dc a2 bc 41 42 74 b9
       0.008720402 0.011036998 -0.019880768 -0.00023294335
0002b0 5e ef 3c 3a e0 78 3b 3c a0 77 94 3b fb 5c 3e bc
       0.00072072993 0.011442393 0.004530862 -0.011618848
0002c0 ae f2 82 3a e5 78 2b 3d 59 3c 8e bc ab d5 4a 3a
       0.0009990537 0.04186334 -0.01736276 0.00077375275
0002d0 c5 02 3e 3c b7 76 25 3c f2 06 2a bc 49 57 47 3c
       0.01159734 0.010099105 -0.010377632 0.0121668065
0002e0 45 53 f6 bc d4 e8 25 bb 49 f1 93 bc 18 14 c8 3b
       -0.030069003 -0.0025315778 -0.01805939 0.006105911
0002f0 c0 14 83 3c c9 93 97 bb 74 a7 14 3c cf ea 37 3c
       0.016001105 -0.0046257717 0.009073127 0.011225416
000300 af 5d 35 bc 53 0c 52 3c 1a a7 8e bc 9f 81 bd bc
       -0.011069699 0.012820321 -0.017413665 -0.023133097
000310 54 86 36 3c 0c fd 92 3c 84 8c 6a 3c bb ad 35 bc
       0.011140425 0.017942928 0.014315728 -0.011088784
000320 83 25 84 bc 25 f1 11 3b 63 39 1d 3c 15 7c db 3c
       -0.016131168 0.0022268977 0.009596202 0.026792565
000330 13 d2 40 3c be d9 7e 3c 8a 00 b3 3c 85 7c 41 bc
       0.011768836 0.0155548435 0.021850843 -0.011809473
000340 f5 2e e1 3b 05 d0 f9 bb 8a 62 3e bc e7 8d 68 3c
       0.006872053 -0.007623675 -0.011620173 0.014193988
000350 41 92 63 3c 20 2c 56 bc 6a 21 58 3c 5f 4e 7e 3c
       0.01388985 -0.013072044 0.01319156 0.015521615
000360 9c a8 84 bc 6e b3 47 3c f2 a4 5e 3d 19 dd f0 bc
       -0.01619368 0.012188775 0.054356523 -0.029402303
000370 fc 71 60 3c 8e b1 8b 3c cf 80 45 bc 22 7c c4 3b
       0.013699051 0.017052438 -0.012054636 0.005996243
000380 77 e9 8e 3b 6b c5 cb 3c 64 25 c4 bc 42 86 22 3c
       0.0043613273 0.02487441 -0.02394361 0.009919705
000390 a8 6f 37 bc 24 06 14 bc 0b 29 1f 3c 92 db 03 3c
       -0.0111960545 -0.009034667 0.009714375 0.008047955
0003a0 93 c4 2d bc 5e 09 56 3a b0 51 36 bc 5f dd 83 bc
       -0.010605949 0.0008164848 -0.011127874 -0.016096769
0003b0 b2 d8 33 3c 19 bb 06 bb b2 d9 3c 3c fe 3b ec 3b
       0.010976957 -0.0020558296 0.011526512 0.0072093
0003c0 b3 75 67 bc 0c 7a 8f bb 89 ff 7c 3b 66 6e 8a 3c
       -0.014127183 -0.004378563 0.003860446 0.016898345
0003d0 d5 b3 96 bc 65 bb 14 3b c1 10 57 bc c8 b6 1d 3d
       -0.018396297 0.0022694704 -0.013126553 0.038504392
0003e0 d7 40 04 bc 85 e0 5c 3c 84 e3 ea 3c 67 b3 a4 bc
       -0.0080721 0.013481264 0.028672941 -0.020105077
0003f0 d8 52 fa 3a 14 bc 76 bc 47 fd bb bb 71 29 1c bb
       0.0019098176 -0.01505949 -0.00573698 -0.0023828412

position_embedding.weight f4 [16, 64]
000000 ac 91 52 3c 13 8a 61 3c 70 22 42 3c d8 f1 10 3b
       0.012852114 0.01376583 0.011849031 0.0022116806
000010 fb f6 07 bd fa d2 80 3b 59 fa fb bc ed a2 a7 3c
       -0.033194523 0.0039314004 -0.030759024 0.020463431
000020 8b a6 0f bd 22 43 e0 3a 30 d0 7f 3c 35 4e dd bb
       -0.035070937 0.0017109851 0.015613601 -0.006753708
000030 fb 29 1a 3d fe 3d 0f bd 42 4f 0b 3d af 30 65 3c
       0.037637692 -0.03497123 0.034011133 0.013988658
000040 f9 b1 31 3d 22 17 25 3d 04 1f 23 bc af 42 bc 3c
       0.04338262 0.040305264 -0.009956125 0.022981016
000050 15 60 0b bb 0a b5 27 bd a7 57 6b 3c ec b7 42 bd
       -0.0021266986 -0.040944137 0.01436416 -0.047538683
000060 2c 25 cf bc 8b 2d 34 bd 00 2f f6 bb ff ec ad bb
       -0.02528628 -0.043988746 -0.007512927 -0.005307793
000070 03 56 b1 bc fb f5 80 3c 03 59 99 bc 90 d3 55 bd
       -0.021647459 0.015742293 -0.018719202 -0.052203715
000080 cd 4f bd bc 30 63 10 3c 42 5a c2 3c 16 4b b4 bc
       -0.023109341 0.008812711 0.023724679 -0.02200846
000090 e4 f7 57 bd 70 63 78 3c ed 41 ec bc 53 d8 7e 3b
       -0.05272664 0.0151604265 -0.02884003 0.0038886264
0000a0 0c 7f ba 3b 0c c3 e3 bc e4 89 79 3b 04 9f c9 ba
       0.0056914147 -0.027802967 0.0038076574 -0.0015382473
0000b0 ff a0 30 3d aa 99 d5 3b 52 f9 61 bd ac b3 d2 3c
       0.043122288 0.0065185623 -0.05516941 0.02572044
0000c0 2c ad 08 3d 2b 87 ce 3c 8f 67 c2 3c e2 bc f0 3c
       0.033368275 0.025210937 0.023731021 0.029386941
0000d0 eb c8 77 bc ef 32 99 3b dd b6 29 3c 42 d3 68 bc
       -0.015123586 0.004675261 0.010358539 -0.014210524
0000e0 bc 24 17 3d 2d 9e 85 bc e2 64 07 3a b3 11 f6 3b
       0.036900267 -0.016310776 0.0005164874 0.007509434
0000f0 98 e3 29 bc 9a 52 05 bc 6c 5e 50 bd 7d 77 ac 3c
       -0.010369204 -0.0081373695 -0.050871298 0.02105307
000100 8d db ac bc 34 ba a1 bc 93 40 af 3b 50 2d 95 bc
       -0.021100784 -0.019742109 0.005348274 -0.018210083
000110 1a 76 32 3b c1 be 16 bd 31 d1 1d 3c 6e 37 28 3d
       0.0027231039 -0.03680301 0.009632395 0.041068487
000120 7e 71 e5 3b 80 46 c4 bc d4 e0 a1 bb a8 a5 35 bc
       0.0070020547 -0.023959398 -0.0049401317 -0.011086859
000130 7e a1 29 bc 74 d9 1f bc 4f ca 5f bb 9f 61 32 3c
       -0.010353444 -0.009756435 -0.0034147685 0.0108875325
000140 b4 6c da bc 49 0a 84 bc 55 ed 79 3c 96 fc 09 bd
       -0.026663162 -0.016118186 0.015254338 -0.03368815
000150 01 0b 9c 3a d3 f2 18 3d 51 cd 0a bc f8 d4 13 3d
       0.0011905135 0.03734095 -0.008471803 0.036091775
000160 35 ce cf bc bc 74 9d 3a 9c 7c a1 3b f1 61 ab 3c
       -0.025366882 0.0012012939 0.0049281847 0.020920726
000170 27 36 36 3c 45 ab 0b bd 17 e7 92 3c 5f d8 87 3c
       0.011121309 -0.034098882 0.017932458 0.016582666
000180 c7 44 22 bd a6 be 9d bc 1e ee a2 bc 9f 65 b1 3c
       -0.039616372 -0.019255947 -0.019888934 0.021654902
000190 e1 ee dd 3c e9 dd 20 3b 66 82 70 bc 9e 4a 3e bc
       0.027091445 0.0024546331 -0.014679527 -0.01161447
0001a0 9f 87 ae 3b 32 2f d8 3c 8a 4f e9 3c 48 8a 34 3d
       0.005326226 0.026389692 0.02848031 0.044077188
0001b0 6c ac 99 bc 39 b9 9d bb 61 79 eb 3c e2 c6 3d bc
       -0.018758975 -0.00481334 0.028744401 -0.011583062
0001c0 a6 0b 17 bc 1d cc 02 3c f0 38 40 bc de 1b 72 bc
       -0.009219086 0.007983235 -0.011732325 -0.014777152
0001d0 10 4c 81 bc 53 f8 1d bd b3 bf 70 bc 39 a8 a2 bc
       -0.01578334 -0.0385669 -0.014694142 -0.019855605
0001e0 65 43 b0 3c 64 65 27 3b 50 63 c8 3a 45 22 55 bc
       0.021516511 0.0025542611 0.0015288386 -0.013008659
0001f0 ee 05 a4 3c f1 dd 17 3d 88 86 90 3c 0b 77 b3 bc
       0.020022359 0.037076894 0.017642274 -0.02190735
000200 0a a2 d2 3b 4d f0 f2 bc 65 e4 72 3d 32 dd 2f bc
       0.006428008 -0.0296556 0.059299845 -0.010733889
000210 83 b8 87 3b 72 0f 58 bc 40 ca 1a 3c cd 29 fb 3c
       0.0041418686 -0.013187276 0.009447634 0.03065958
000220 48 4c 11 3d e0 a8 c3 bb d8 16 ac bc 66 0d ee bc
       0.035473138 -0.005971059 -0.021006986 -0.029059123
000230 57 b4 f0 bc d4 fb 2a 3c 98 4d 5b bc a8 98 9f 3c
       -0.029382868 0.010436017 -0.013385199 0.019481972
000240 ab 37 dd bc 73 c0 38 3c bb 8f da 3c 40 aa fd bb
       -0.027004084 0.011276352 0.026679864 -0.0077412426
000250 51 0f cc bb 71 6d 21 3d b2 05 42 bd 6b 22 79 3c
       -0.006227412 0.039411012 -0.047368713 0.01520596
000260 a4 45 3d ba 68 af be bb 23 0c 75 bd fe b2 28 3d
       -0.0007220155 -0.00581925 -0.059826028 0.041186325
000270 d6 79 9a bc f2 07 03 bd 5b 6c 58 3d 6e 02 a0 3c
       -0.018856924 -0.03199 0.05283771 0.019532409
000280 14 ce 43 3b 61 68 47 bd 3f 6c 0c 3d 01 d7 ac 3b
       0.002987747 -0.048683528 0.03428292 0.005274654
000290 28 8e 84 3c 15 1c 1e 3b 2f 72 21 3c e6 35 91 3c
       0.016181067 0.0024125625 0.009853884 0.017725896
0002a0 97 97 8b 3c b2 34 3e 3d 80 f7 dc 3c 86 91 fe 3c
       0.017040057 0.046436973 0.026973486 0.03107525
0002b0 58 aa a2 bc 2f 60 60 3b 14 60 15 3d 5d bf 2a bd
       -0.019856617 0.0034237017 0.03646858 -0.041686404
0002c0 6a de 56 bb 1c 89 31 3c 14 df e9 bb ef 4e 2a bd
       -0.0032786378 0.010835912 -0.0071371887 -0.041579183
0002d0 37 71 1c 3d 71 ec 70 bc 7e 8a c7 3c 81 5e bd bc
       0.038193908 -0.0147048095 0.02435803 -0.023116352
0002e0 78 fe 44 3c 9b 2d 0a bc 57 e7 c2 bc 6b 9c af 3c
       0.012023561 -0.008433725 -0.023791952 0.02143689
0002f0 44 7e bb 3c 51 a9 cf 3c 55 d2 8f 3b 1a 0b 16 bc
       0.022887357 0.025349291 0.004389087 -0.00915792
000300 ed 57 ac 3b 7b b0 06 3d 19 4d bd bc c8 de ce bc
       0.005259505 0.03288315 -0.023108052 -0.025252715
000310 08 31 e8 3c ed 28 56 3c 4c 95 d4 3c 04 c8 3d 3d
       0.028343692 0.013071281 0.025950097 0.046333328
000320 5e ec d2 bc 86 bc ea bc 54 52 57 3d 33 88 d4 3c
       -0.025747474 -0.028654348 0.05256875 0.025943851
000330 ca 9b 98 3b a8 03 e6 bc cb c2 d7 bc 6d ca af 3b
       0.0046572434 -0.028077915 -0.026338002 0.005364707
000340 32 2f ed 3b fa 0d 76 3d e4 88 06 bd 65 ac d5 3c
       0.007238292 0.060071923 -0.032845393 0.02608318
000350 fb c3 f2 bb bc 91 06 bd d5 fd af bc 19 86 0f 3d
       -0.0074086166 -0.032853827 -0.021483341 0.035039995
000360 a9 ca 70 3d e3 c0 ff 3c e2 73 9e 3c a6 24 30 bc
       0.05878702 0.031219905 0.019342367 -0.010750925
000370 90 4a 1c 3d f7 32 d8 3c f6 c1 5f bb 98 b0 36 3c
       0.038157046 0.02639149 -0.003414271 0.011150502
000380 09 1f 26 bc 14 f1 69 bd c8 bc cd bc ed ac 3c 3d
       -0.010139235 -0.057114676 -0.025114432 0.046063352
000390 b1 3b e5 bc 34 83 8d 3c f3 a4 a7 bc 5e c2 bd 3c
       -0.027982565 0.017274477 -0.020464396 0.02316397
0003a0 c0 c2 a9 bc dd 65 9d bc ce 85 ad bc b3 78 44 bc
       -0.020722747 -0.019213611 -0.021181967 -0.011991668
0003b0 cd 9e f9 3c a9 2d 89 3b de 96 f7 3c 07 86 50 bc
       0.03047123 0.0041863513 0.030223306 -0.012727267
0003c0 a1 1e 87 3c c1 c9 e3 3c 26 ef f5 bb fd ac 9d 3c
       0.016494097 0.027806165 -0.0075053154 0.019247526
0003d0 65 69 11 bc 79 08 d4 3c 89 42 16 3c 0e bc 92 3b
       -0.008875226 0.025882946 0.009171137 0.0044779843
0003e0 e2 56 b6 bc 3a c8 a1 bc 54 4d 96 bb c6 da 15 bd
       -0.022258226 -0.019748796 -0.004586855 -0.03658559
0003f0 f1 79 22 bd ea 61 11 bd 7d 98 55 3d e6 39 00 3d
       -0.039667074 -0.03549377 0.052147377 0.031305216

transformer.layers.0.self_attn.in_proj_weight f4 [192, 64]
000000 f3 67 d0 3c 25 18 38 3c 7e ad f2 3d ca 3d bb bd
       0.025440192 0.011236225 0.11849497 -0.09142645
000010 24 e8 10 3e 28 d5 88 be 3f 57 30 3e d4 c0 53 3e
       0.14151055 -0.26725125 0.17220782 0.20679027
000020 c2 de 6a 3c 68 04 3e be 1b ab 8d 3e 42 1c 09 be
       0.014335336 -0.18556368 0.27669606 -0.13389686
000030 72 86 b9 be d5 95 83 bd 20 59 f1 bd 02 6c 70 3e
       -0.36235386 -0.064250626 -0.11784577 0.23478702
000040 11 77 bb 3d c1 04 99 3e ae b7 96 bd ef 5a 2f be
       0.091535695 0.2988644 -0.07359253 -0.17124532
000050 1b 56 87 be e6 ba 0a be e7 e2 af be 56 b9 b3 3d
       -0.2643288 -0.13547859 -0.343528 0.087755844
000060 97 71 91 bc 63 7f 2d be b8 4e f7 bc d2 05 88 3e
       -0.01775436 -0.16943125 -0.030188903 0.2656694
000070 0d 16 7f 3e d1 53 a6 3e 3a b4 f8 3c 86 ac ba bd
       0.24910755 0.32485822 0.030359376 -0.091149375
000080 65 35 66 3e c6 3e 54 be 9b 81 18 3e b7 3a 6e 3d
       0.22481306 -0.20727071 0.1489319 0.058161464
000090 98 70 39 be 92 6e 6f 3e 06 bf d2 bd e4 37 cb bd
       -0.18109357 0.23382023 -0.10290341 -0.0992277
0000a0 f9 43 96 bd 56 24 37 be 46 77 f4 3d d5 50 91 bd
       -0.073371835 -0.17884955 0.11936812 -0.070954956
0000b0 c3 43 6e 3e e0 b1 43 3d 50 5b af 3c d1 c3 db bd
       0.23268037 0.047777057 0.021405846 -0.107307084
0000c0 e1 a8 88 bc bd c5 b1 3d 74 05 92 3d 93 66 e8 bd
       -0.01668209 0.08680294 0.07129946 -0.113476895
0000d0 fd 7b b8 3d de 50 a2 3d 71 77 0f 3d 20 10 95 be
       0.09008024 0.079255804 0.035026018 -0.29113865
0000e0 c1 99 a6 38 41 bc 67 be 69 b2 36 be 8a 79 3e 3e
       7.944136e-05 -0.22630407 -0.17841496 0.18601051
0000f0 c6 c1 6d be b5 89 18 3d a7 e7 a4 3e 9c 26 3f 3e
       -0.2321845 0.037240703 0.32207987 0.18667072
000100 d7 fe bd 3c b1 a7 d4 3d d7 ed 46 3e 59 88 c1 bd
       0.023192806 0.10383547 0.19426666 -0.094498344
000110 e8 a2 35 3d c4 9f 96 be ea 7c 22 3e 7d c2 47 3e
       0.044344813 -0.29418766 0.15867963 0.19507785
000120 5e ac aa 3d 88 aa 82 be 48 5c d8 3d 90 29 3e be
       0.08333658 -0.2552073 0.10564476 -0.18570542
000130 24 e4 9c be 39 ad 88 bd 77 42 9b be 44 c6 82 3e
       -0.30642807 -0.066736646 -0.30324146 0.2554189
000140 ee 11 02 3e 14 cf b7 3e f6 8a 9c be b0 e6 6b be
       0.12702152 0.35900176 -0.3057477 -0.23037219
000150 b7 d9 92 be f9 92 a3 be 45 c8 f5 bd 08 54 a7 3d
       -0.28681728 -0.3194807 -0.12001089 0.081703246
000160 d7 31 7f 3e bf 5b 2f 3d e2 a2 99 3d 83 01 01 3e
       0.24921356 0.042812105 0.075017706 0.12598233
000170 f5 93 90 3e 33 32 3e 3e 16 e2 35 be 2c 4f 8d 3d
       0.28237882 0.18573837 -0.17762026 0.068998665
000180 28 ff 91 bd 18 c7 bb bd 0d 09 2e 3e b3 ae 1a 3e
       -0.07128745 -0.091688335 0.1699564 0.15105705
000190 14 55 82 be b4 7a 64 3d 72 f0 5c be 7a 80 b0 3c
       -0.25455534 0.05578108 -0.21576098 0.021545637
0001a0 27 21 ab be e8 df 88 bd 27 37 03 bc a8 f0 d9 bd
       -0.3342373 -0.06683332 -0.008008755 -0.10641605
0001b0 63 0c 6b 3d b7 07 57 3e c7 bd a0 bd 08 4a 89 be
       0.05738486 0.20999037 -0.07848697 -0.26814294
0001c0 42 7e e3 3d 47 58 b6 3d c9 db c8 bd 4c 0a bf bd
       0.11108066 0.08903556 -0.09807546 -0.09328136
0001d0 0d 34 33 3d d2 75 28 ba e6 73 0e 3e 24 6d 87 bd
       0.04375081 -0.0006426248 0.13911399 -0.06612614
0001e0 db a4 2f bd 20 e9 63 be af eb 2c be 50 66 f0 3d
       -0.042881828 -0.22256899 -0.16886781 0.117382646
0001f0 f1 b9 83 be 1a 04 c8 b9 97 d0 21 3e d5 49 59 3e
       -0.257278 -0.0003815003 0.15802227 0.21219571
000200 de 51 6a be 6a b8 f9 bd 02 17 51 3d a9 cc 34 3e
       -0.22882792 -0.12193377 0.051047333 0.17656197
000210 1f 98 8a bc 4a cb 11 3d f7 02 32 3d 28 79 15 be
       -0.01691824 0.035594262 0.04345986 -0.14596999
000220 86 27 26 be 6e 8d 90 3e 5f b7 a0 bd 28 41 02 3e
       -0.16226014 0.28232902 -0.07847475 0.12720168
000230 64 dd 8a 3e 0b 29 03 3e ae 16 4e 3e 02 65 dc bd
       0.27122033 0.12808625 0.20125839 -0.10761453
000240 50 70 d4 bc ed 4a 5f be fb 9c 35 3e d4 25 fc 3a
       -0.025932461 -0.21805926 0.17735665 0.0019237348
000250 58 48 4d 3e 90 61 12 3e 7c cd ac 3e a4 18 7a bd
       0.20047128 0.1429503 0.33750522 -0.061058655
000260 bd 17 f8 bc be 1e bf bd 28 d4 ce 3d a4 77 ab bd
       -0.030284757 -0.093320355 0.10099059 -0.08372429
000270 bb 64 82 be 15 05 e8 bd a5 db 30 3e 00 1b 2c bb
       -0.25467476 -0.11329094 0.17271288 -0.002626121
000280 e3 0e 8e 3b db 72 cc 3d 7c 0b 15 3b c9 5d eb bd
       0.0043352707 0.099828444 0.002274244 -0.114924975
000290 19 5a 80 3e 02 51 18 bb 4f 03 4a 3e b2 d3 4b be
       0.2506874 -0.0023241644 0.19727825 -0.19904974
0002a0 b8 2c d6 3d ec d9 32 3e 4c 65 09 be 2c 7a 6a 3e
       0.10457748 0.17465943 -0.13417548 0.22898167
0002b0 4d cb b1 bc a0 07 49 be 62 43 17 be 9b 16 f6 3d
       -0.021703387 -0.19631815 -0.14771798 0.120160304
0002c0 9d 6b 28 3d 5b 5a a0 3b d3 96 ab bc de 38 7c 3e
       0.041118253 0.0048935837 -0.020945942 0.24631068
0002d0 bd ff 80 be 36 bf 81 bd 85 bc 2f bd cf 98 51 3e
       -0.25195113 -0.06335299 -0.042904396 0.20468448
0002e0 5e f5 09 3c 92 9a 4f 3e 2b b3 4f 3e a1 da 49 be
       0.0084203165 0.20273808 0.20283191 -0.19712307
0002f0 8e 42 6a 3e c0 5b 31 3d 39 2e 3e be aa b6 87 be
       0.22876951 0.04330039 -0.1857232 -0.2650655
000300 e2 28 7e bc 4d d7 ad bd fa 72 83 3d 05 22 5a bd
       -0.015512677 -0.08488331 0.064184144 -0.0532551
000310 9b cf 78 be cc c9 aa 3e 08 39 10 3e a4 d9 28 be
       -0.24297945 0.33357084 0.14084256 -0.16489273
000320 00 dd 53 3d cc 17 22 3e 83 81 89 bd 49 16 66 3d
       0.051724434 0.1582939 -0.067141555 0.056173597
000330 eb 1c b4 bc 36 c0 00 3e b0 a8 41 3d c2 85 41 be
       -0.021986445 0.12573323 0.047280014 -0.18898681
000340 67 ba 23 be 61 16 83 be f9 fa 34 3e f7 1f 45 3e
       -0.15989076 -0.2560301 0.17673863 0.19250475
000350 b9 78 7a 3e 2c c2 c4 3e 98 e1 85 3d 7e ea 17 3e
       0.24460115 0.3842939 0.06537169 0.14835545
000360 d3 ce 8a be 2e 10 0c be 0b 44 ab 3d ae 44 0f be
       -0.2711092 -0.13678047 0.083625875 -0.13991043
000370 f3 64 65 be 78 3d 9e be f8 4e 51 3e 1d 5d 4d bd
       -0.2240179 -0.30906272 0.2044028 -0.050137628
000380 94 60 5c 3d 77 e9 ad 3d 33 97 8a 3d e2 30 12 be
       0.05380304 0.084917955 0.0676712 -0.1427646
000390 e5 9f 3f 3e c7 ee 8a 3d 60 e2 88 3e d2 3f e9 bb
       0.18713339 0.067838244 0.2673521 -0.0071182037
0003a0 80 9d b3 3e 70 55 fb 3d f6 68 cf bc 79 1b b1 3d
       0.350811 0.12272155 -0.025318604 0.08647818
0003b0 91 23 0c be 47 61 60 be c2 53 85 bd 9b 9d 8e 3e
       -0.13685443 -0.21912108 -0.06510116 0.27854618
0003c0 93 a4 21 be e1 9e 60 be 3a eb 3a be b1 20 fd 3d
       -0.15785436 -0.21935607 -0.18253794 0.12359751
0003d0 0f 33 87 3d 94 e8 7c be c8 35 58 be a9 8e 0c 3e
       0.066015355 -0.24698097 -0.21114266 0.13726296
0003e0 6b 54 2b be 6b 98 2d 3e 6d 2a 7a 3e e8 b9 85 3c
       -0.16731422 0.16952674 0.24430247 0.016323999
0003f0 ed 35 92 3d de 2e 84 3e 4f 12 7f be 2d 0b 2d be
       0.07139192 0.25817007 -0.24909328 -0.16898794

transformer.layers.0.self_attn.in_proj_bias f4 [192]
000000 4c d6 c2 bd 3c 0a eb bd ce e6 8a 3d e4 75 a4 3d
       -0.0951353 -0.114765614 0.06782304 0.08030298
000010 93 f0 df 3d 99 62 da bd 02 70 ab 3d 77 7f cf 3d
       0.10934558 -0.10663337 0.08370973 0.10131734
000020 4b 53 ae 3d 45 04 de 3d fa ce b0 3d 71 22 ed bd
       0.085119806 0.10840658 0.08633228 -0.11578835
000030 96 ae d7 3d 46 54 6c bd 99 95 b6 bd 51 8c 93 3d
       0.105313465 -0.057697557 -0.08915252 0.072044976
000040 20 19 26 3d 30 9f 59 bd fe d4 b7 bd c2 0c 4e bd
       0.040551305 -0.05313033 -0.08976172 -0.050305136
000050 4c 9d dc 3d 3f d7 0a bc d7 b4 be 3d 34 b9 9a 3d
       0.107721895 -0.00847417 0.09311836 0.07554856
000060 3a 1c d1 bd d5 d9 89 3d 9c 29 fe 3d 47 18 0e 3c
       -0.10210462 0.06731001 0.1241028 0.00867278
000070 24 4c e6 3d 13 aa ec bd ec 88 e5 bd 35 e6 a4 3d
       0.112449914 -0.115558766 -0.112077564 0.08051721
000080 73 34 b2 3d 9f b7 a4 bd 33 fb 35 bd 8c 29 95 bc
       0.0870141 -0.080428354 -0.044429015 -0.018208288
000090 dc 18 65 3d 05 36 0a bb e0 24 90 3d e8 93 8a 3d
       0.05593191 -0.0021089327 0.07038283 0.06766492
0000a0 2a 16 5b bd 7c d6 1e 3d 3f f5 b1 3d 5b ca c8 bd
       -0.053487934 0.038778767 0.08689355 -0.09804221
0000b0 92 d0 8e 3d d3 20 c8 bd 98 6c 16 bd 37 3f f8 3d
       0.069733754 -0.09771886 -0.036724657 0.12121432
0000c0 d3 b2 c3 bd fa b3 5c 3d ef e1 45 3d e5 82 81 ba
       -0.095555924 0.053882577 0.04831117 -0.0009880929
0000d0 88 36 c5 3d fc b6 fa bd 3e c6 a8 3d d3 e3 15 3d
       0.09629542 -0.12241933 0.08240937 0.036594223
0000e0 fc a8 ce bd c4 c8 98 bd 1d 7c bc 3d eb 8b a9 bd
       -0.10090825 -0.07460168 0.0920336 -0.0827864
0000f0 87 55 98 3d 0b 5b d3 3d 8f 16 72 3d cc 36 d5 bc
       0.07438188 0.103200994 0.059103545 -0.026027106
000100 be d1 96 37 f1 7b 3b b7 4f 23 eb b6 98 d7 9a b5
       1.7979062e-05 -1.1174926e-05 -7.007656e-06 -1.153664e-06
000110 e7 81 86 b7 10 00 32 b6 bb 4e b2 37 63 99 8b 36
       -1.6034535e-05 -2.6524103e-06 2.1255915e-05 4.1603794e-06
000120 29 f0 b9 37 38 3c c7 37 5f 3c 37 36 e8 21 03 35
       2.2165552e-05 2.375069e-05 2.7304266e-06 4.8850643e-07
000130 0e ee a0 35 f5 96 12 b7 1b 2c a6 b7 34 5a e2 36
       1.1990212e-06 -8.737426e-06 -1.980928e-05 6.745826e-06
000140 c0 3e c4 36 dd c5 cd 36 55 70 3f 37 fc b5 b7 36
       5.8485602e-06 6.1325104e-06 1.14106415e-05 5.4750108e-06
000150 2a 2c 75 b7 82 27 8d b7 3f b1 d0 b6 bb 4d f2 35
       -1.4613421e-05 -1.6826907e-05 -6.219517e-06 1.8053028e-06
000160 e6 87 e0 36 ed ac 28 38 d5 d4 32 b8 bc 0a 6b b7
       6.691541e-06 4.021537e-05 -4.2636722e-05 -1.4009591e-05
000170 2a 8f 2a b8 cd 04 94 b7 2a 4f a0 b6 fb b7 ac b6
       -4.066449e-05 -1.764521e-05 -4.7775875e-06 -5.1474176e-06
000180 3e 57 e1 37 3a 67 9f 37 3f cd 02 37 92 8a cc b6
       2.6862715e-05 1.9002346e-05 7.796391e-06 -6.0958055e-06
000190 dd 8f 61 b7 f4 28 ab 33 17 fd d6 36 d6 27 7e b7
       -1.3444541e-05 7.970257e-08 6.4071605e-06 -1.5148855e-05
0001a0 bf e9 bf b7 a7 2e e1 b6 3f e8 ac 37 ed 46 ea 35
       -2.287782e-05 -6.7109536e-06 2.0612146e-05 1.7455001e-06
0001b0 bf 64 bd b6 b2 98 ec b7 6e b4 fd b5 26 8a 67 37
       -5.6443673e-06 -2.8204497e-05 -1.8902481e-06 1.3800838e-05
0001c0 12 68 4c b6 6d 3f 19 37 34 86 1a 36 64 61 0b b7
       -3.0458946e-06 9.134278e-06 2.3025905e-06 -8.307721e-06
0001d0 26 02 c1 36 e7 3f 22 b7 79 7a de 36 23 b5 f4 b6
       5.7520983e-06 -9.670831e-06 6.6303733e-06 -7.2928538e-06
0001e0 b7 2b 5e 38 d4 6e 80 37 44 a1 2d 37 ad ad 23 36
       5.2969637e-05 1.5310397e-05 1.0349151e-05 2.4389985e-06
0001f0 f3 a9 76 b7 ff 82 74 37 4b 8c e7 37 bd 53 8b b6
       -1.4702312e-05 1.4574033e-05 2.7602675e-05 -4.1522712e-06
000200 39 d2 84 3b 36 8d c8 bb 89 92 c9 3b f0 51 98 3b
       0.004053381 -0.0061203493 0.0061515016 0.0046484396
000210 94 30 f2 bb c0 e1 4c 3c 50 18 1a bc 94 9c ae bb
       -0.007391045 0.012504995 -0.009405211 -0.005328724
000220 e5 c3 86 3c c4 b2 cc ba 54 a8 d2 3b 28 bf 53 bc
       0.016450832 -0.0015617241 0.0064287577 -0.012923993
000230 a5 6d 01 bb ad de 3d 3b d6 5c 27 bc 16 c2 0c bb
       -0.001974919 0.0028971836 -0.010215005 -0.002147799
000240 ed a4 00 3c 8a 0b 9c 3b ee 4a c3 bb 06 fc 9a ba
       0.007851821 0.0047621178 -0.00595986 -0.0011824376
000250 6d 41 08 3c f6 2d 3b 39 83 9c 8b bb ca 38 9d 3a
       0.00831638 0.00017850832 -0.004260601 0.0011995074
000260 bd f2 cb bb 89 43 6f bc c5 03 bc 3b ff 9d fe ba
       -0.006224005 -0.014603504 0.005737754 -0.0019425749
000270 be f5 90 bb 64 b8 86 3b 1c 61 99 3b 11 83 1b 3c
       -0.004423826 0.0041113365 0.004680766 0.009491698
000280 b6 2c a2 3a fd 65 d7 bb 08 9d c4 b9 b3 c3 d7 bb
       0.0012372944 -0.0065734372 -0.0003750103 -0.0065846085
000290 c5 9e 2a 3c b8 ca 4a bb 48 66 ca 3b c7 ef 46 3c
       0.01041383 -0.0030943584 0.0061767437 0.012142128
0002a0 f6 1a 33 bc 77 5d 3f bc af 72 2a 3c dd f2 74 bb
       -0.010931721 -0.011679999 0.010403319 -0.0037376203
0002b0 85 d4 0c bc 4f 33 7a 3b c1 34 43 bb 12 4b 50 3c
       -0.0085955905 0.0038177555 -0.0029786082 0.012713211
0002c0 1e 74 34 3b be c5 84 b9 7f 6e 7d 3b 51 d4 0e 3c
       0.0027535032 -0.0002532433 0.0038670597 0.008717612
0002d0 57 0d ff bb 8c 2f 3d 3a 5c 70 d6 ba ec ae ac bb
       -0.0077835727 0.0007216863 -0.001636039 -0.0052698757
0002e0 b2 6c 36 3b 5b 06 5b 3b c0 43 5b 3b a8 07 f5 bb
       0.0027835784 0.0033420536 0.003345713 -0.0074777193
0002f0 76 2f 0e 3c ed ff c9 bb f7 28 8e 3b fc b3 7d bb
       0.008678308 -0.006164542 0.0043383795 -0.0038712015

transformer.layers.0.self_attn.out_proj.weight f4 [64, 64]
000000 2a ef 7c bd c8 f7 0b 3d 88 04 e0 3b 7d 25 89 bc
       -0.061751522 0.03417185 0.0068364777 -0.016741509
000010 f9 83 88 3c 80 cd 69 bc 90 ac f8 bc 2e 3a 86 bc
       0.016664492 -0.014270186 -0.030355722 -0.016385164
000020 dd bf c0 bb 9f c7 ec 3c 56 f0 39 bc d9 d1 af ba
       -0.005882247 0.02890378 -0.011348804 -0.001341398
000030 a0 07 8c bc 97 28 00 3b 8e 5d 84 3b 40 74 31 3c
       -0.01709348 0.0019555443 0.004039473 0.010830939
000040 56 7c d7 bc ba 92 85 3c 4b 31 c8 3c 04 6d 35 bc
       -0.026304405 0.016305316 0.024437567 -0.011073355
000050 bc ff 98 3c 59 f1 1d 3c fc 5e 8f 3c 9d 50 ce 3c
       0.018676631 0.009640061 0.017501347 0.025184924
000060 a8 4e b1 bc 8c ed 3c bc 3e f4 77 39 c8 2e bc bc
       -0.021643952 -0.011531245 0.00023646743 -0.022971526
000070 7e ae 0d bb bb 11 89 bc ff fc 91 3c 1f 9e 35 3d
       -0.0021618898 -0.016732087 0.017820833 0.04434025
000080 3f 7e b3 3c 3d 80 e4 bc d1 08 4c 3d 26 a1 36 bc
       0.021910785 -0.02789318 0.049813095 -0.011146819
000090 7a 7d 05 3c f5 ce 13 3c 82 e2 bc 3b 1d a4 44 3d
       0.008147592 0.00902151 0.0057643065 0.048008073
0000a0 1e 1b 27 bd bc 24 00 bd 33 f0 ac bc 4d 60 bb bc
       -0.040797345 -0.031285033 -0.02111063 -0.022873068
0000b0 bd 75 01 bd db 56 5d bc e1 e9 81 bc ab 86 2c bc
       -0.031606425 -0.0135094775 -0.015858592 -0.010530154
0000c0 8d 5e 08 bc 93 39 ac bc f5 98 d9 3c cf ec a0 bc
       -0.008323324 -0.021023547 0.026562193 -0.01964417
0000d0 3d d4 ad bc 9a c3 c1 bc 38 d5 72 bd b1 12 33 bc
       -0.021219367 -0.02365284 -0.059285372 -0.010929749
0000e0 6d 21 4c 3b 5e 18 3f 3d 29 b1 d4 bb 22 25 4e 3c
       0.0031147853 0.046654098 -0.0064908457 0.012582095
0000f0 72 a6 d3 bc 17 cf 41 bd e8 75 d4 bc ca 3e 1e bc
       -0.025836203 -0.047316637 -0.025935128 -0.009658525
000100 27 69 77 bd 73 84 3c 3d 9e e5 b6 bc 2f f0 8b bc
       -0.060403015 0.04602475 -0.022326287 -0.017082302
000110 50 65 94 3d 25 46 5b bd 6d a1 11 3b 3e 05 e0 bc
       0.07245886 -0.053533692 0.0022221461 -0.02734625
000120 25 b6 39 3d 5b 17 0c 3d 6f 6c 8b 3b ff c2 bd bc
       0.045339722 0.03420196 0.0042548697 -0.02316427
000130 24 33 fd bc 2e 05 90 bb da d6 08 bc e3 70 3a bb
       -0.030908175 -0.0043951487 -0.008352006 -0.0028448633
000140 6c 21 4f bd cd b9 09 bc 4f fc dd 3c 5a e6 2d 3d
       -0.050568983 -0.008406115 0.02709785 0.04245601
000150 83 dd 32 3c 55 e4 cc 3c d0 10 ed 3c fb 02 7b bd
       0.01091707 0.025011221 0.02893868 -0.06128214
000160 43 b6 d7 ba da b8 8c 3b f7 f3 88 bd 22 35 6c bd
       -0.0016457516 0.004294497 -0.066871576 -0.05766786
000170 f9 d4 44 3d 72 39 ab 3c 3e f1 97 3c ad 32 e9 3c
       0.04805467 0.020901415 0.01854765 0.028466547
000180 5c 9b 1e bb 95 6a ef bc 66 de a5 3c 0f 3c 19 3b
       -0.0024201488 -0.029225627 0.02024765 0.0023381745
000190 7e d6 34 bd 2e 18 97 3d 35 ac ce 3c af a2 62 3b
       -0.04414987 0.07377659 0.0252286 0.003458183
0001a0 1a c5 83 bc 9f 82 c3 3c 0b 0c 40 bd 18 5f 8b 3d
       -0.016085196 0.023865996 -0.046886485 0.06805247
0001b0 8b 9b 89 3b 72 4c 89 bc c5 9d 2e ba 8d b6 b0 bc
       0.0041994504 -0.016760085 -0.0006661083 -0.021571422
0001c0 27 e8 67 bd 01 cf 05 bd 6d 85 d0 bb 8a 5e 0a 3b
       -0.056617882 -0.032668117 -0.006363562 0.0021113479
0001d0 09 7d 71 bd 57 7d 36 3d 00 a9 86 bb 2a b3 43 3a
       -0.058957133 0.044553127 -0.004109502 0.0007465357
0001e0 1c 42 25 3c 42 35 0a 3c 26 0c ce 3b e7 d2 b7 ba
       0.0100865625 0.008435549 0.0062880693 -0.0014024646
0001f0 79 51 5e 3d 0c 16 4f bc 07 2f 02 bc 44 96 c7 bc
       0.054276917 -0.012639534 -0.0079457825 -0.024363644
000200 dd f9 9d 3c 42 95 a8 bb 3e 44 3f bb f2 b2 6e 3c
       0.019284183 -0.005144746 -0.0029184963 0.014569031
000210 62 5c d6 bc ea 2b 84 3b 97 ea fe bc 1b ce c2 3c
       -0.026167098 0.0040335553 -0.03111772 0.02377992
000220 a8 d0 98 bc 44 10 25 bd 21 c3 b9 3c be 34 22 3c
       -0.018654183 -0.040298715 0.022676053 0.00990027
000230 0c 8d 95 3c 9c 80 b0 bc 4b a6 5b bd cd 8d 94 3c
       0.018255733 -0.0215457 -0.053625386 0.018134022
000240 d7 95 e8 b9 b7 5b fc 3c 9b e6 af bc de 32 56 bc
       -0.00044362128 0.030805452 -0.021472266 -0.013073651
000250 ff b9 b7 bb fc c0 7b bb 6a be 6f 3c e2 ae 57 3d
       -0.0056068893 -0.0038414588 0.014632801 0.052657016
000260 80 f4 39 bc 58 e8 99 bc 4f ab 0c 3d 50 e3 24 3c
       -0.011349797 -0.018787548 0.03434306 0.010063961
000270 15 64 37 3c 64 c5 52 3b 1b df 72 3b 35 f2 b2 bc
       0.011193295 0.003216111 0.003705925 -0.021844009
000280 23 fb 9d 3b 00 19 3b 3b 80 9c 58 3c 4e 90 4e 3b
       0.0048211976 0.0028548837 0.013220906 0.0031519118
000290 94 d5 93 3c 91 fa b1 bc 25 e8 82 bc 6a 6f e4 3b
       0.018046178 -0.021725925 -0.015979836 0.0069712894
0002a0 cc a0 79 3c 5a 9a 58 bc 71 a0 8a 3c 6b a9 8e bc
       0.015236091 -0.013220394 0.016922208 -0.01741477
0002b0 9a cd 80 3d 12 0d d4 bc 34 de 7d bc 99 00 83 bb
       0.062892154 -0.025885139 -0.015494872 -0.003997874
0002c0 c9 68 f1 3c 1b f0 61 bc e4 2d bc 3a d1 59 49 3c
       0.02946891 -0.013790156 0.0014356938 0.01228948
0002d0 5c fb d0 3c 62 df 83 bd b9 85 e4 3b 8b be 31 bc
       0.025510482 -0.06439091 0.006973949 -0.010848652
0002e0 e4 d6 e6 3c df 2b b3 bc c6 3b 9e 3b d0 6c 78 3c
       0.02817864 -0.021871505 0.004828903 0.015162662
0002f0 e9 07 9e bc 24 a0 2f 3c e3 0f ad bc 8e 32 65 bb
       -0.019290881 0.010719333 -0.02112574 -0.003497276
000300 ae 2c e8 3c 20 15 10 bd f5 7a f2 bc 8a 2b dc b9
       0.028341617 -0.035176396 -0.029599646 -0.0004199411
000310 67 85 9e ba d6 26 5b 3d 1d 46 9d bc 01 62 ca bb
       -0.00120942 0.053503834 -0.019198472 -0.0061762338
000320 76 b2 82 3d 64 7c 14 bc 0c de 38 bc 81 cb 20 bd
       0.06381695 -0.00906286 -0.011283409 -0.039256576
000330 57 66 3f 3d 14 54 71 3b 78 e1 14 3b 4f 0a 8b bc
       0.04672846 0.0036823796 0.0022717398 -0.016972689
000340 31 fd d7 bb 28 7c 35 bd b7 21 aa 3c d0 92 2f 3c
       -0.006591462 -0.044307858 0.02076803 0.010716155
000350 71 d2 37 bc b1 60 29 bd 92 6f 06 bd e0 71 7b bc
       -0.011219607 -0.041351978 -0.032821245 -0.015346974
000360 78 7a 2e 3c e4 34 82 bc 23 58 84 3c 8c 97 e1 bc
       0.010649316 -0.01589436 0.016155308 -0.027538083
000370 06 57 1c 3c 8a 78 90 bc f7 70 08 bd 07 33 5d bc
       0.009542232 -0.017635603 -0.033310857 -0.013500935
000380 2f 01 67 3c 1d d6 9f 3c 83 c1 a9 bc 76 94 a8 bc
       0.014099403 0.019511277 -0.020722156 -0.020578604
000390 cd bd 1d bb bc 42 16 3c b2 6a 93 3c 37 80 06 3d
       -0.002406943 0.009171184 0.017995212 0.03283712
0003a0 84 de c2 3c 7d 86 19 bd ae a9 b9 3b c6 a0 dc bb
       0.023787744 -0.037481774 0.0056659793 -0.006733033
0003b0 d1 37 d9 3c 02 8f 40 3c 16 da 72 3c ea 29 0e bc
       0.026515873 0.011752846 0.014822504 -0.008676985
0003c0 48 af dc 3c ea a9 1c 3c 7b 8f 59 bb cf 9e a8 3b
       0.02693905 0.009561995 -0.0033197093 0.0051458846
0003d0 6a 93 04 bd a9 a2 e1 ba 4f bd 45 bb 93 d4 dd bb
       -0.032367148 -0.0017214614 -0.0030172651 -0.0067697256
0003e0 25 a1 cf 3c 06 b7 82 3c 74 c5 86 3c 63 b4 0b bb
       0.025345394 0.015956413 0.016451575 -0.0021317236
0003f0 fb 96 0c bb ad 70 20 bd 39 74 43 3c 05 f0 9e 3c
       -0.0021452296 -0.039169956 0.011929565 0.01940156

transformer.layers.0.self_attn.out_proj.bias f4 [64]
000000 4c 09 50 ba ca d6 11 bc 9e 7e 3f 3c 03 aa 02 3a
       -0.00079359557 -0.008901307 0.011687903 0.000498444
000010 1b 87 ae ba 9d de 8c bb 43 b4 49 bc 0c af b9 ba
       -0.0013315411 -0.0042989985 -0.012311044 -0.0014166548
000020 af 6e 2b 3c b2 58 2a bc 2a 9f 0c 3b 76 7a f3 ba
       0.010463401 -0.010397123 0.0021457174 -0.0018575925
000030 00 72 7b bb ef 45 77 3b de 65 92 3b a8 76 d8 3b
       -0.003836751 0.0037730893 0.00446771 0.006605942
000040 cf 13 a6 bb f9 b9 cd bb 68 83 33 3c db 79 05 bb
       -0.0050682793 -0.006278273 0.010956623 -0.002036682
000050 d9 37 05 3c 20 1a ad 39 98 c5 1a bc b3 3a 62 bb
       0.008130991 0.00033016596 -0.009446524 -0.003451985
000060 ed 82 a4 3b 84 63 40 bb 4c 8b a3 3a b8 db 20 3c
       0.0050204904 -0.002935619 0.0012477427 0.00981801
000070 5e ff a7 3a c4 34 a8 bb 81 f9 82 3b d0 5c 29 3c
       0.0012817194 -0.0051332433 0.0039970283 0.01033707
000080 10 e2 60 bb fe 49 06 bc a4 e8 2e bb 54 f7 d5 bb
       -0.0034314431 -0.008196352 -0.0026688958 -0.006529728
000090 d8 89 18 3a bf ec c2 bb d8 f1 f5 3b 4f f7 db bb
       0.000581888 -0.0059486325 0.0075056367 -0.006712831
0000a0 44 42 d8 3b f4 e1 e8 ba db f8 c4 3b a3 40 4d 3b
       0.0065996964 -0.0017767535 0.006011111 0.0031319044
0000b0 46 fb 37 bb 1a 41 f2 bb 74 c3 79 3b 05 ad 74 b9
       -0.0028073355 -0.0073930146 0.0038110884 -0.00023334108
0000c0 48 3c 72 b8 c0 fc b3 3a c7 c3 31 3b 1f 56 16 bc
       -5.7753437e-05 0.0013731942 0.002712475 -0.009175806
0000d0 90 3c 53 bb ec b4 dc bb 87 3e b9 3b 6e 84 31 bc
       -0.0032232143 -0.0067354348 0.005653206 -0.010834796
0000e0 dd 72 45 3b 8c a7 ed 3b 87 3f 9d bb e8 22 f5 3a
       0.0030128278 0.007252639 -0.004798833 0.001870242
0000f0 b9 8a 8d 3b 2c 1d 10 3c c7 52 99 bb 96 17 5c bc
       0.0043195155 0.008796018 -0.0046790573 -0.013433358

transformer.layers.0.linear1.weight f4 [128, 64]
000000 dc 53 80 3a f9 35 8e bd 31 ef 42 3d d8 8d 5f bc
       0.0009790617 -0.06943888 0.047591392 -0.013644658
000010 1c 24 07 bd e4 5a bf 3c 7e dd 30 3d 04 dc a6 bc
       -0.03299342 0.02335877 0.04317998 -0.020368584
000020 3b e3 95 bc 5a a9 8f bc 60 ff 5a bc 21 cd a5 bd
       -0.018296828 -0.017536808 -0.01336655 -0.08095766
000030 9a d5 9c bd a7 4e 8b 3d f6 e7 d0 ba a3 a5 5e 3d
       -0.07657929 0.06802111 -0.001593827 0.054357182
000040 56 ee be bc b7 b4 19 3c 17 4e 0a bd 93 13 b4 bc
       -0.023307007 0.009381465 -0.03376588 -0.02198199
000050 54 f8 57 bc 93 ee 80 3a 1f bf f6 bd 60 30 6c 3c
       -0.013181765 0.0009836726 -0.12048172 0.01441583
000060 ba 80 8d bd ec 7e 1d 3c 74 1a 2d bd be 4a 96 3c
       -0.06909318 0.00961278 -0.042261556 0.018346187
000070 87 9e 58 bc 06 b1 94 3c ec 33 0d 3d 4a 4a fc 3c
       -0.01322139 0.018150818 0.034473345 0.030797143
000080 e3 b4 05 3d eb 97 b3 bc 6c fd 17 3d 4e 8e 33 3d
       0.03264321 -0.021923026 0.037106916 0.043836884
000090 a4 45 c7 3b 58 3f 18 bd 2d 68 08 3d c3 72 a3 ba
       0.0060813 -0.037169784 0.033302475 -0.0012470115
0000a0 bf 57 ce bc b9 b4 67 3c 9b b6 78 3c 57 ff d5 bc
       -0.025188325 0.014142209 0.015180255 -0.026122732
0000b0 75 c5 7f bd ad b2 d6 bc bd 02 50 3d 0c 93 98 bd
       -0.06244417 -0.026208246 0.05078386 -0.07449922
0000c0 c4 54 d7 3b 08 72 8e 3c 7a 3d c5 3c 16 e0 df bc
       0.006571384 0.017388359 0.024077166 -0.027328532
0000d0 23 7b 42 3d fa 09 85 bd 3d 36 0c bc 0b 1e 91 bc
       0.047480714 -0.064960435 -0.008557853 -0.01771452
0000e0 7e 23 be bc f0 60 a3 3a a9 c1 db bc 38 4d 05 3d
       -0.023210283 0.0012464803 -0.026825743 0.032544345
0000f0 bc 8c 3e 3d 62 83 d7 bc 51 35 fc 3c ad 37 2f 3c
       0.046520934 -0.026307765 0.030787142 0.0106944265
000100 f8 49 94 3c 92 e6 36 bb 6a 32 e6 3b 64 ef 83 3c
       0.018101677 -0.0027908427 0.007025053 0.016105361
000110 45 d5 b4 bc 96 7d f1 bb 05 f1 21 3d 8f e0 92 3c
       -0.022074351 -0.0073697073 0.039536495 0.017929344
000120 bf e5 c1 3c d7 99 a4 ba b2 0e 88 3c 3f ca 6d bc
       0.023669122 -0.0012558055 0.01660857 -0.014513551
000130 2f 0e fc 3a 15 49 10 bc 74 26 c6 3c f2 3a 40 3d
       0.0019230301 -0.008806487 0.024188258 0.046931215
000140 de b3 9d 3c 9a ea 05 bd b9 f2 87 bc 86 aa 09 bc
       0.019250806 -0.032694437 -0.016595231 -0.008402472
000150 3c de 23 3c 66 43 ba 3c 52 8c 66 3d 43 72 f9 3c
       0.010001715 0.022737216 0.056286164 0.030449992
000160 e2 31 d4 bb 26 6e a7 bc 59 0a 82 3d ac cd e2 bc
       -0.006475673 -0.020438265 0.0634963 -0.027685963
000170 7a db 64 bd 47 03 c8 3b 77 2d dc 3c 95 f8 26 3c
       -0.05587337 0.0061039063 0.026877148 0.0101911025
000180 b9 3c 39 bc 0d 94 29 3d 13 0a ac bc 04 f2 84 3b
       -0.011305981 0.041400958 -0.021000898 0.004057171
000190 70 a0 cd 3c 5d 45 05 3c 0d d2 b8 bc 71 57 89 3d
       0.025100917 0.008134213 -0.022561098 0.06706131
0001a0 96 7b e3 3a ff cc 3c bc 66 89 3d bd e3 dd 0d 3d
       0.0017355557 -0.011523484 -0.04627361 0.034635436
0001b0 24 35 54 bb 32 53 eb 3c 5b 15 97 bd 47 45 80 3d
       -0.0032380307 0.028726194 -0.0737712 0.062632136
0001c0 2e 3f a9 3c bf 42 3a bc b0 71 07 3b 8c e2 8a bc
       0.02066001 -0.011368453 0.0020667128 -0.01695373
0001d0 77 49 1e 3c 88 be 28 bd d4 ef 5e bd c1 6e 25 bc
       0.00966107 -0.04119733 -0.054427937 -0.010097207
0001e0 a1 08 32 bd 3d 1c a8 3b cd 74 48 3d ef c2 a6 bc
       -0.04346526 0.0051303194 0.048939515 -0.020356623
0001f0 20 d8 17 bd 54 3d db ba ca 7e 2f 3c 51 35 7d bc
       -0.037071347 -0.0016726651 0.010711381 -0.015454606
000200 4d e4 a1 bc df dc 46 3b 79 09 9c 3d 37 03 6e 3d
       -0.019762183 0.0030344052 0.07618994 0.058108535
000210 32 fe 29 3d 20 04 dd bc 0b 58 29 3d 74 91 a7 3c
       0.041502185 -0.026979506 0.04134373 0.0204551
000220 69 17 21 3d 80 c8 93 3b 57 39 0b bd 65 8e 01 bd
       0.039328966 0.0045099854 -0.03399023 -0.03162994
000230 fc d1 a7 bd d3 83 24 bc 74 30 9b bc ca 3b 41 bd
       -0.08194348 -0.010041195 -0.018944003 -0.04717616
000240 66 c7 46 bc 95 c7 0c bd ed 02 0f bc 62 a0 44 bd
       -0.012132501 -0.034370024 -0.008728725 -0.048004515
000250 35 2a 19 bc 3f fc 2c 3d da e9 95 3a 3c 40 ec 3c
       -0.009348442 0.042232748 0.0011437491 0.028839223
000260 a7 d0 cc bc bb 90 94 bc ef ed 0d bd 89 e3 a0 3d
       -0.025001837 -0.01813542 -0.03465074 0.07855899
000270 f8 b0 8f bb 4f b6 6d bc b1 ad 9d 3c 27 0c e2 3a
       -0.00438511 -0.014508798 0.019247862 0.0017246053
000280 35 72 82 3c 28 d3 ae 3b 2d f9 dd 3b f4 c4 d2 3b
       0.015923599 0.0053352304 0.006774089 0.00643217
000290 a4 21 d5 3c c5 72 bc bb 41 c3 02 3d 5b e3 24 bd
       0.026017018 -0.0057509863 0.03192449 -0.040255886
0002a0 18 e7 e3 3c 35 97 2f bb 72 a4 d5 3c 30 93 d1 3c
       0.027820155 -0.0026793007 0.02607939 0.02558288
0002b0 04 7f 2a bd fa 58 9e 3c 7a 9f a0 3b ec 05 16 bd
       -0.041625038 0.019329537 0.0049018236 -0.03662674
0002c0 30 c3 c1 3c ee bd ef bb 18 aa 35 bc 24 66 40 bd
       0.023652643 -0.0073163426 -0.011087917 -0.04697241
0002d0 0a 5c b8 3c 05 3e bf bc fa 7c 7d 3d 6f 2c 84 bd
       0.022504825 -0.023345003 0.061886765 -0.064537875
0002e0 82 23 17 3d 84 72 bd bc 8c 42 bf bb 1f 27 f9 3c
       0.036899097 -0.023125894 -0.0058367904 0.030414162
0002f0 aa 6e 33 3d 28 0d d1 bb dd 93 48 3c 60 2f 09 bc
       0.04380671 -0.006379742 0.012242285 -0.0083731115
000300 72 c6 31 bd 59 f5 81 3b a9 bf 08 3d 1d 9b 5e bd
       -0.043402143 0.0039660153 0.033385906 -0.054347146
000310 d1 cc 45 3c 5c bf 0d 3d 01 50 50 3c a2 f5 93 3b
       0.012072758 0.034606323 0.012714387 0.0045153657
000320 f3 59 36 bb ed bb 91 bc d4 a2 8d 3a 34 15 04 bc
       -0.002782461 -0.017789805 0.0010805973 -0.008061696
000330 d7 65 7a bb 60 61 5f 3d 2e 15 08 3d 0b 9c 92 3b
       -0.0038207674 0.054536223 0.033223324 0.004474168
000340 8a be 77 3c 65 1e 03 3d 36 15 52 3c d3 60 1d 3d
       0.015121112 0.03201141 0.01282244 0.038422417
000350 e0 a0 c2 bb 00 ee a1 3c 7f 7b c2 bc 73 e5 fb 3c
       -0.005939588 0.019766808 -0.023740528 0.030749058
000360 da 58 7e bd bb af e3 bc 3b 1b f1 bc 4d 69 06 3d
       -0.062096454 -0.027793756 -0.02943193 0.032815266
000370 bd fe 26 bd 5c 1d 73 bc ff 1d 8c 3d 26 0e b6 bb
       -0.04077028 -0.014838543 0.06841659 -0.005555886
000380 94 49 22 3c c7 87 b5 3b 89 7d 06 3b b2 11 81 3c
       0.009905238 0.0055398676 0.0020521602 0.015755508
000390 7f 54 b4 ba c9 e1 ba bc de 81 18 3d 97 d1 11 bc
       -0.0013758092 -0.02281274 0.037233226 -0.008900068
0003a0 59 97 31 ba fe fc 79 3c bd 21 08 3d 0b e9 42 bd
       -0.0006774567 0.015258072 0.0332353 -0.04758553
0003b0 d7 7a af 3c b4 10 d1 bc 61 1c 05 3d 35 6f 37 bd
       0.02142088 -0.02552066 0.032497767 -0.04478379
0003c0 2d 61 dc 3c 38 03 84 bb ce 96 48 bd c2 fd b9 bc
       0.026901806 -0.004028704 -0.048971944 -0.022704009
0003d0 3b 6c 45 3d d1 86 c7 bc 4e eb ab bc 1c d9 fa 3c
       0.04819892 -0.024356278 -0.020986225 0.030621104
0003e0 aa f3 9a 3c db 6f 2a 3d cc b7 6a bd 9f b9 b4 3c
       0.018915016 0.04161058 -0.05730419 0.022061167
0003f0 82 e8 19 3d d1 9f 19 3c 69 f6 7e bc b2 8c 15 bd
       0.037575252 0.009376482 -0.015561678 -0.03651113

transformer.layers.0.linear1.bias f4 [128]
000000 66 f3 c4 3c f6 81 47 bc 76 6a 1d 3b 46 6c b8 3c
       0.024041843 -0.012176981 0.0024019754 0.022512566
000010 98 27 53 3c b8 5c 74 3a 84 2b 8d 3c c6 3e 83 3c
       0.012887858 0.00093216775 0.017232664 0.016021144
000020 cf 36 9e bc 23 b6 95 3c 12 9e 93 3b c5 42 86 3b
       -0.019313244 0.018275326 0.0045049274 0.004097315
000030 22 59 0d bc f6 61 17 bb 43 02 6b 3c 6d c1 b0 bc
       -0.008627208 -0.002309916 0.014343801 -0.021576608
000040 48 1f b0 3b c0 12 27 bc 6b 23 a9 3b 71 08 ee 3b
       0.0053748228 -0.010197341 0.005161693 0.00726419
000050 24 84 9a bc cc 21 5b bb 0b 74 7d bb fb 9a 85 3a
       -0.018861838 -0.0033436893 -0.0038673903 0.0010193283
000060 a9 de 48 bb 38 f3 05 bb a0 f8 76 38 29 fc d8 3b
       -0.0030650294 -0.002043916 5.888252e-05 0.0066218567
000070 ae e5 8c 3c 5b b6 c9 bb f9 c5 b8 3b 23 62 4e 3c
       0.017199364 -0.0061557717 0.0056388346 0.01259664
000080 b8 71 23 3c c5 26 9d 3c 22 1d 2d 3c 3f 40 c9 bb
       0.009975843 0.019183526 0.010566028 -0.006141692
000090 74 91 af 3c 52 c0 34 bb 21 0e 4b bb 27 4d f3 3b
       0.021431662 -0.0027580452 -0.0030983763 0.0074249688
0000a0 96 cc e6 bc 61 fd 4a bb 7d f8 91 3c 14 29 58 bb
       -0.028173726 -0.003097378 0.017818684 -0.003298347
0000b0 75 b4 9c bc 59 70 c6 3c 9c 76 f3 3b a9 50 a3 bb
       -0.019129017 0.024223493 0.007429911 -0.0049839807
0000c0 ed a2 b4 3c c4 22 4d bc 84 1f e2 ba 68 ed 0f 3c
       0.022050345 -0.012520496 -0.0017251824 0.008784629
0000d0 ad 66 27 bc ee 0d 67 3c 2f f8 72 3c e4 4e a0 ba
       -0.010217351 0.014102442 0.014829679 -0.0012230542
0000e0 97 11 0d 3c 33 b2 18 bb 1d 0c 9d bc ed c1 47 bc
       0.008610151 -0.0023299574 -0.019170815 -0.012192232
0000f0 2d f4 ea ba 08 00 42 3c 22 5d 82 3b ab 36 65 3a
       -0.0017925553 0.011840828 0.0039783875 0.0008743803
000100 72 f5 e6 3c bf 44 f8 3b fc 04 46 bc db 07 7a bb
       0.02819321 0.0075765545 -0.012086149 -0.0038151655
000110 93 1d 8a 3b 8e 58 4d 38 e7 1f ac 3a df b7 a6 bc
       0.0042149513 4.895828e-05 0.0013132066 -0.020351348
000120 60 b0 fa bb 00 c0 da ba 26 a5 91 3c cc 30 af bc
       -0.00765042 -0.00166893 0.017778944 -0.021385573
000130 ee f2 83 3c 4f ec 34 bb 26 87 95 bc 98 cf fe 3b
       0.016107049 -0.0027606671 -0.01825292 0.007776212
000140 ad cf a5 bb 20 3d 09 bc 1a db 0f 3c a8 9c 97 3c
       -0.0050601573 -0.00837639 0.008780265 0.018507317
000150 bd a3 e4 bb 3a b2 0f bb ec 73 91 3b 50 9c b8 3b
       -0.006977527 -0.00219263 0.004438868 0.0056338683
000160 47 0b 91 3c 3a fc cf 3c 47 77 96 3c 90 a1 d1 bc
       0.017705573 0.025388826 0.018367423 -0.025589734
000170 7f 73 b1 38 fb c1 9a b9 64 6c b1 3c 2c 1b 64 3c
       8.4615305e-05 -0.00029517696 0.02165813 0.013922494
000180 5d 73 1b 3c d2 75 1d bc 03 eb 05 3c 28 7b db ba
       0.009487954 -0.00961061 0.008173707 -0.0016745077
000190 ae 00 8d 3b 9e e8 df 3c 34 d1 4f bb 4e 35 ec bb
       0.0043030595 0.0273326 -0.0031710388 -0.007208503
0001a0 ff 2e 9c bc 0f eb 0c bc ac 1b 40 bc 8d 8b 9c 3c
       -0.019065378 -0.008600964 -0.0117253475 0.019109512
0001b0 39 b8 d3 bc a8 60 38 bc 84 2a 14 3c 38 0f a0 3b
       -0.02584468 -0.011253513 0.00904334 0.0048846267
0001c0 78 dc bc bc 1a c4 e6 bb 71 e2 39 3b d2 54 a5 3c
       -0.023054346 -0.00704242 0.002836373 0.020182047
0001d0 60 df 7f bb b5 3f 66 3c 42 dd 6c 3a dd 99 0e 3c
       -0.0039043054 0.014053275 0.00090356555 0.008703676
0001e0 c1 09 2d 3a 39 58 31 bc 94 df 55 bc 0b 8f ca 3c
       0.000660088 -0.010824257 -0.013053793 0.024726411
0001f0 08 8c d5 3c 8f 06 fb 3b 15 71 41 bb 76 28 b7 ba
       0.026067749 0.007660694 -0.0029516865 -0.001397385
