marble_model/best_model_v3.0_20250531_004650.pt (torch, 295593 bytes, 30 tensors)

token_embedding.weight f4 [13, 64]
0	0xbd1112cb	-0.035418313
1	0x3cf98882	0.0304606
2	0xbc8dff4b	-0.017333647
3	0x3d393566	0.04521694
4	0xbc8a8eb8	-0.016913757
5	0xbc8d33e6	-0.017236661
6	0x3bfdccc9	0.0077453596
7	0xbd1a1409	-0.037616763
8	0x3a246ebe	0.00062726054
9	0x3b007e78	0.0019606631
10	0xbb901c07	-0.0043978724
11	0xbc21c9d2	-0.009874778
12	0x3ca2b8f0	0.019863576
13	0x3d52b5b3	0.051442813
14	0xbbd85efb	-0.0066031194
15	0xbd80dcc0	-0.06292105
16	0xbcc7cf07	-0.02439071
17	0xbbe65ef4	-0.0070303623
18	0xbb7d70a6	-0.003867188
19	0xbcaf9e1e	-0.0214377
20	0x3c8b54bd	0.01700818
21	0xbc52640e	-0.012841238
22	0xbd06b897	-0.032890882
23	0xbc043522	-0.0080693085
24	0x3b249746	0.002511458
25	0x3c3ad467	0.01140318
26	0xbcca735b	-0.024713209
27	0xbbab2cfd	-0.005223869
28	0x3bde8835	0.0067911395
29	0xbc89b07d	-0.016807789
30	0x3a277849	0.00063884683
31	0xbbf947f9	-0.0076074568
32	0xbc0b879b	-0.008516218
33	0x3c1a94ab	0.009434859
34	0xbca4f0ee	-0.020134415
35	0x3c17606d	0.009239298
36	0x3bcca8f5	0.006245727
37	0xbc871d69	-0.016493516
38	0x3ab1bea4	0.0013560844
39	0x3b828398	0.0039829724
40	0xbc0dffff	-0.008666991
41	0x3c625774	0.013814796
42	0x3acd4a6e	0.001566244
43	0x3bbc2142	0.0057412693
44	0xbc41704d	-0.01180656
45	0xbd141422	-0.036152013
46	0xbc35f645	-0.0111060785
47	0x3bbad582	0.0057017216
48	0xbd0994a6	-0.033589028
49	0x3c9eeeee	0.01940104
50	0xbc381d2f	-0.011237427
51	0x3ca12990	0.019673139
52	0xbbc41290	-0.005983658
53	0xbc2c918a	-0.010532746
54	0x3c5ee990	0.01360549
55	0xbcd911dd	-0.026497776
56	0x3a8033be	0.0009781045
57	0xbc84951f	-0.016184388
58	0x3b1323a4	0.0022451663
59	0xbc432dab	-0.011912744
60	0xbc315350	-0.010823086
61	0xbc958ff7	-0.018257124
62	0x3c42acd3	0.011882025
63	0x3b393b74	0.0028264197
64	0x3c6cba91	0.014448778
65	0x3cd1ce3f	0.025611041
66	0x3c9c72eb	0.019097766
67	0xbba3b77f	-0.0049962397
68	0xbbecb843	-0.007224114
69	0x3d2fab40	0.042887926
70	0x3cebd994	0.028790273
71	0xbd19971f	-0.037497636
72	0xbc9dce9e	-0.019263562
73	0x3c205327	0.00978545
74	0xbc471fa6	-0.012153542
75	0x3d17446d	0.03693049
76	0x3b382ab8	0.0028101634
77	0x3c6a7610	0.014310375
78	0x3d2ff72c	0.04296033
79	0x3c1f844b	0.009736131
80	0x3cd13641	0.025538566
81	0xbc4abad2	-0.012373643
82	0xbcbf0878	-0.023319468
83	0x3cc77695	0.024348537
84	0x3cb14880	0.021641016
85	0xbcc63666	-0.024195861
86	0x3c3ba212	0.011452215
87	0xbd01bd0b	-0.031674426
88	0x3d22c147	0.039735105
89	0xbce57f81	-0.0280149
90	0xbc75ee24	-0.01501039
91	0xbcf8a987	-0.030354274
92	0x3ce4147f	0.027841805
93	0xbce20570	-0.027590483
94	0xbce0731c	-0.027398638
95	0x3d35f262	0.044420607
96	0xb8af5bc4	-8.361743e-05
97	0x3c981c77	0.01856826
98	0x3cca4b8d	0.024694229
99	0xbca5d6d4	-0.02024404
100	0x3ce8cd06	0.028418075
101	0x3cea8794	0.028629102
102	0xbd257ec3	-0.040404093
103	0x3c8c6a47	0.01714052
104	0x3cd09084	0.025459535
105	0x3be3c699	0.006951165
106	0x38128370	3.4931523e-05
107	0x3c24ce39	0.010058933
108	0xbcf666db	-0.030078342
109	0x3c62b5d7	0.013837299
110	0xbca8bd2b	-0.020598015
111	0xbc816218	-0.015793845
112	0xbcb1acd8	-0.021688864
113	0xbcb8d410	-0.022562057
114	0x3c6853df	0.014180153
115	0xbcbbf073	-0.022941804
116	0x3cd7a5ee	0.026324239
117	0xbc371e0e	-0.011176599
118	0xbbd8b4c0	-0.006613344
119	0x3cbe7a8e	0.023251798
120	0xb90bd527	-0.00013335478
121	0xbb9f71ad	-0.004865846
122	0x3d03a788	0.032142192
123	0x3d11d95d	0.035607684
124	0xbd0aaa6f	-0.033853944
125	0xbd06852a	-0.03284184
126	0x3d0825ca	0.033239163
127	0xbd1db151	-0.03849918
128	0x3be3c1f7	0.0069506126
129	0x3c28e42e	0.0103083085
130	0xbd1790a7	-0.037003186
131	0x3ba077e8	0.0048971064
132	0xbc953c87	-0.018217338
133	0x3ce70944	0.02820266
134	0x3b99f35b	0.0046981997
135	0xbbb4d058	-0.0055180006
136	0xbcadc084	-0.021209963
137	0xbbc346f7	-0.0059593874
138	0xbc2f97d7	-0.010717354
139	0xbb94e2e5	-0.0045436495
140	0xbcf7ed89	-0.030264633
141	0xbc02bcdf	-0.007979601
142	0x3c88db77	0.016706211
143	0x3b442ec0	0.0029935092
144	0x3b3ae289	0.0028516373
145	0x3ba32e0d	0.004979855
146	0x3c9e3537	0.019312484
147	0xbc8b2c09	-0.016988771
148	0x3b89eb4b	0.0042089573
149	0x3a92eda5	0.001120974
150	0xbc9aee49	-0.018912451
151	0x3b5be865	0.0033555266
152	0x3cb7d942	0.022442464
153	0xbcde1ef7	-0.027114375
154	0xbba552fc	-0.005045293
155	0xbd0a5fbb	-0.033782702
156	0xbd17c602	-0.03705407
157	0xbc77a821	-0.015115769
158	0xbd512438	-0.05105993
159	0x3d068ca2	0.03284896
160	0x3c8a21f1	0.016861888
161	0x3bf4d233	0.0074713468
162	0xbc703eee	-0.014663441
163	0xbc9eb7c7	-0.019374741
164	0xbc8bb25b	-0.01705282
165	0xbc9c465d	-0.01907652
166	0xbd17a6db	-0.03702436
167	0x3b144957	0.0022626722
168	0xbc5209c4	-0.012819711
169	0xbd682759	-0.05667815
170	0x3ce44afe	0.02786779
171	0x3cd2a6bc	0.02571427
172	0xbcee53b5	-0.029092649
173	0x3c965ee7	0.0183558
174	0x3c0c5a04	0.008566383
175	0x3a229236	0.00062015967
176	0x3d019167	0.031632807
177	0x3c6954c2	0.014241399
178	0x3c7ada06	0.01531077
179	0xbcf38221	-0.029725136
180	0xbc3550ee	-0.011066658
181	0xbc6fe45c	-0.014641847
182	0x3c3bf8f5	0.01147293
183	0xbb7f6338	-0.003896905
184	0xbcd2e59e	-0.025744256
185	0xbd176de2	-0.036970027
186	0xbbfdefb7	-0.0077495235
187	0xbb3c7405	-0.0028755676
188	0x3bc23177	0.005926307
189	0xbc901d34	-0.01759205
190	0xbc86143a	-0.016367067
191	0x3d22aea6	0.03971734
192	0x3a67660b	0.0008827156
193	0xbbe57863	-0.0070028766
194	0xbaa788e7	-0.0012781889
195	0xbb3c3dad	-0.0028723285
196	0x3bf7833a	0.007553485
197	0xbc33e70e	-0.010980381
198	0xbc3d8192	-0.0115665365
199	0x3c4dd681	0.012563349
200	0xbc593b6b	-0.013258795
201	0xbcc31e99	-0.023818301
202	0xbb10afbd	-0.0022077404
203	0x3bdcb3e1	0.0067353104
204	0xbc427446	-0.011868542
205	0x3c9abfc9	0.018890278
206	0x3d1c219f	0.038118
207	0xbcb958af	-0.022625295
208	0xbd09aa06	-0.033609413
209	0x3cd9995f	0.02656239
210	0x3d161585	0.036641616
211	0x3c89b4c4	0.016809829
212	0x3b036b02	0.0020052795
213	0x3be4eef9	0.0069864956
214	0x3ceb5a44	0.028729565
215	0xbc4d372d	-0.012525362
216	0xbc58188b	-0.013189445
217	0x3ce4b3f6	0.027917843
218	0x3bf6bb5c	0.007529659
219	0xb933b7fe	-0.00017139313
220	0xbc039552	-0.008031206
221	0x3c09ef46	0.008418864
222	0xb6cf48a2	-6.1775363e-06
223	0x3b887f33	0.004165554
224	0xbc856482	-0.016283277
225	0xbc78e212	-0.015190618
226	0x3c0d76f7	0.00863432
227	0x3cb97cdb	0.022642544
228	0xbc1ba94a	-0.009500811
229	0x3cb48322	0.022035185
230	0x3c1bdfaa	0.009513775
231	0xbc9ae684	-0.018908747
232	0x3ab0b2b9	0.0013480998
233	0xbbe89d56	-0.007098834
234	0xbce9b266	-0.02852745
235	0xbc405dba	-0.011741096
236	0xbbc987a2	-0.006150202
237	0xbc89dda5	-0.016829321
238	0x3c25939a	0.010105992
239	0xbc8fbf16	-0.017547172
240	0xbccbe0bb	-0.024887433
241	0xbb924222	-0.00446345
242	0xbc06c891	-0.00822653
243	0xba3a1365	-0.0007098227
244	0xbc3f6046	-0.011680668
245	0x3cf10599	0.029421614
246	0x3c85bd22	0.016325537
247	0x3bc3838d	0.00596661
248	0x3b93fe25	0.0045163804
249	0xbc29ec8c	-0.010371339
250	0x3bdb3cfc	0.0066906195
251	0x3b0b707d	0.0021276765
252	0x3cb4f434	0.022089101
253	0x3c82dabd	0.015973443
254	0xb98db147	-0.00027025698
255	0xbc6f19e9	-0.01459358

position_embedding.weight f4 [30, 64]
0	0x3ced6036	0.028976541
1	0x3cafb771	0.021449776
2	0x3ca1e8e9	0.01976438
3	0x3d0aa890	0.03385216
4	0xbd54dbe7	-0.051967528
5	0xbb37e862	-0.0028062095
6	0x3c5dfe7f	0.013549446
7	0xbd5f7fce	-0.054565243
8	0xbd16e067	-0.0368351
9	0x3d2dd4a1	0.042439107
10	0x3ae46f45	0.001742818
11	0x3c8c4622	0.017123286
12	0x3cd7def4	0.02635143
13	0xbce36fdf	-0.027763305
14	0x3c92caf2	0.017919037
15	0x3c5fe1c4	0.013664667
16	0x3be41dcc	0.00696156
17	0xbb967996	-0.004592131
18	0xbcfe2c5d	-0.031027013
19	0x3cdb368d	0.02675941
20	0x3b8e148b	0.004335945
21	0xbcee19a0	-0.029064953
22	0xbd028850	-0.03186828
23	0x3b784782	0.003788442
24	0xbc36fb7a	-0.011168355
25	0xbcdd68d7	-0.02702753
26	0xbd02c1d1	-0.03192312
27	0xbcb3b351	-0.02193609
28	0x3cbe1a09	0.023205774
29	0xbba7eac8	-0.0051244237
30	0xbc33c5b1	-0.010972426
31	0xbbb41600	-0.0054957867
32	0x3d1a9a08	0.037744552
33	0x3ceecf42	0.029151563
34	0xbd003784	-0.031302944
35	0xbc3756c3	-0.011190119
36	0x3c551286	0.013004905
37	0x3d2ad1ab	0.04170386
38	0xbc0df6d0	-0.008664802
39	0x3cf4cba6	0.029882263
40	0x3d0867a6	0.03330197
41	0x3cbd1690	0.023082048
42	0xbc0c751f	-0.008572846
43	0x3c01e21b	0.007927443
44	0xbcbcb7a1	-0.02303678
45	0x3cb7de9e	0.02244502
46	0xbcf564e3	-0.029955333
47	0xbcb54166	-0.022125911
48	0xbcef5e64	-0.029219814
49	0xbc1f9bbe	-0.009741722
50	0x3ccf9372	0.025338862
51	0xbd252f32	-0.040328212
52	0x3ce61410	0.028085738
53	0xbd2be96f	-0.041970666
54	0xbc9f287c	-0.019428484
55	0x3d0cfbb1	0.03441972
56	0xbc92d9d7	-0.01792614
57	0x3cf2625c	0.029587917
58	0x3d0ac7b3	0.033881854
59	0x3cc4e072	0.024032805
60	0xbcb9a68f	-0.02266243
61	0xbcc4493c	-0.023960702
62	0x3be14ffc	0.00687599
63	0xbcecc384	-0.028901823
64	0xb8d02bce	-9.926372e-05
65	0xbc76da98	-0.015066765
66	0xbd18f892	-0.03734643
67	0xbd358dfa	-0.044324853
68	0x3d175f4d	0.03695612
69	0xbcf27d12	-0.029600654
70	0xbc7b6cd0	-0.015345767
71	0x3d1e9e8c	0.03872542
72	0x3ba9cc1d	0.005181803
73	0x3b2080c8	0.0024490822
74	0x3c47c288	0.012192376
75	0xbd0869d4	-0.03330405
76	0xbcdf06e7	-0.027224971
77	0x3d4e974b	0.050437253
78	0x3c4183c6	0.011811202
79	0xbccd2bc0	-0.025045276
80	0x3ca87c50	0.02056709
81	0x3cbcaf4a	0.023032803
82	0x3c81bb38	0.015836343
83	0xbcc76971	-0.02434227
84	0xbcce26af	-0.02516493
85	0xbcd0648f	-0.025438575
86	0x3d52f181	0.051499847
87	0xbd085bcc	-0.03329067
88	0xbc88b47e	-0.016687628
89	0xbce37549	-0.027765887
90	0x3d2c42c2	0.042055853
91	0xbc18a69d	-0.009317067
92	0x3b5fcde4	0.003414982
93	0xbb7c7efa	-0.0038527832
94	0x3c6e1a3e	0.014532624
95	0xbc122700	-0.008920431
96	0xbd0e37d9	-0.03472123
97	0xbc6df029	-0.014522591
98	0x3c33e62a	0.010980168
99	0x3cc35172	0.023842547
100	0xbcf6eac2	-0.030141238
101	0xbb6c8a3f	-0.0036093143
102	0xbb822307	-0.0039714607
103	0x3c6ea61d	0.014565972
104	0x3ca0b611	0.019618066
105	0xbc42df78	-0.011894099
106	0x3c2eb1ea	0.010662535
107	0xba4938c2	-0.0007675999
108	0x3caa4604	0.02078534
109	0xbb31ca93	-0.00271288
110	0x3ba166d2	0.004925587
111	0x3c4fe24c	0.012688231
112	0xbc2a6d97	-0.010402105
113	0x3cbdf5ee	0.023188557
114	0xbcb6d629	-0.022318916
115	0x3b7fde6b	0.0039042484
116	0x3a694805	0.00088989764
117	0xbbc9813b	-0.0061494387
118	0x3cd2ac29	0.025716858
119	0x3d438a18	0.04773912
120	0x3bb4769c	0.0055073034
121	0xbc7d77a7	-0.015470422
122	0x3ca92c25	0.020650933
123	0x3b2d7b29	0.0026471114
124	0xbb779503	-0.0037778027
125	0x3bb16b78	0.0054144226
126	0x3c08468c	0.008317601
127	0xbd140c7a	-0.03614471
128	0xbcf13ea8	-0.029448822
129	0xbc79c4a5	-0.015244638
130	0xbd09eb09	-0.033671413
131	0xbca466c9	-0.020068543
132	0x3d277bce	0.040889554
133	0xbc20a0c2	-0.009803953
134	0xbc0952b4	-0.008381534
135	0x3d03836e	0.032107763
136	0x3cc45ff5	0.023971537
137	0x3d007688	0.03136304
138	0x3d352cee	0.0442323
139	0xbcaf14b9	-0.021372186
140	0xbcce0eb2	-0.025153492
141	0x3d06b1c2	0.032884367
142	0xbc93fddc	-0.018065386
143	0xbc96acb4	-0.018392898
144	0x3ccd359e	0.02504998
145	0x3b961597	0.0045802104
146	0xbcb57ee8	-0.02215524
147	0xbc5073ab	-0.01272289
148	0xbd0c30f7	-0.034226384
149	0xbd1a407d	-0.037659157
150	0xbad6842a	-0.0016366292
151	0xbc4c0755	-0.01245292
152	0xbc7d7781	-0.0154703865
153	0xbc82497c	-0.01590418
154	0x3ce46aaa	0.027882893
155	0xbb2077a5	-0.0024485376
156	0x3d2d8601	0.042364124
157	0x3d3055d0	0.043050587
158	0x3c91f929	0.017819004
159	0xbcd2767b	-0.025691262
160	0xbcf64350	-0.030061394
161	0xbc659185	-0.014011745
162	0xba98fa12	-0.0011671206
163	0xbceaa40b	-0.028642675
164	0xbd0f4b58	-0.034983963
165	0xbc8d0b61	-0.01721734
166	0x3c9b4e2d	0.018958176
167	0x3cfd4468	0.030916408
168	0x3cab288f	0.020893363
169	0xbcd93e18	-0.026518866
170	0x3c33880f	0.010957732
171	0xbc9a7273	-0.018853402
172	0x3d434392	0.047671862
173	0xbb6c959e	-0.003609992
174	0x3bf44a98	0.0074551813
175	0x3d4948fd	0.049141873
176	0x3c3d71be	0.011562763
177	0x3d1fc2a0	0.03900397
178	0xbd1cfb53	-0.03832562
179	0xbd00cf2b	-0.03144757
180	0x3c70223b	0.014656599
181	0xbbd564bd	-0.006512253
182	0x3c935fd1	0.017990025
183	0x3d38c6fa	0.045111634
184	0xbb8953e5	-0.004190909
185	0xbd0cffa6	-0.034423493
186	0xbb88020d	-0.004150635
187	0xbc18a0e5	-0.009315704
188	0xbcb75d65	-0.022383401
189	0xbd1cadd8	-0.038251728
190	0x3c32fd09	0.010924586
191	0x3a548a3f	0.00081077585
192	0xbd258081	-0.040405754
193	0xbd287975	-0.041131455
194	0x3cfd0876	0.030887824
195	0x3ce6ef38	0.02819024
196	0xbcebc65c	-0.028781109
197	0xbd3690f5	-0.044571836
198	0xbcdaf585	-0.026728401
199	0xbc9d6d5c	-0.019217186
200	0xbd002056	-0.031280838
201	0xbcd4ee49	-0.02599253
202	0xbc95a742	-0.018268231
203	0x3cfbba78	0.030728564
204	0x3d4d061c	0.050054654
205	0xbc8dc447	-0.017305506
206	0xbd0e44a7	-0.03473344
207	0x3c791d8a	0.015204797
208	0xbbdf6308	-0.0068172254
209	0x39acc415	0.0003295249
210	0xbb5146f7	-0.0031933167
211	0x3d0760e0	0.03305137
212	0xbd2e5935	-0.042565543
213	0x3cbcf210	0.023064643
214	0xbc168150	-0.009186104
215	0xbc9762e8	-0.01847978
216	0x3ce250e3	0.02762646
217	0x3cc63680	0.02419591
218	0x3cef0c9e	0.029180821
219	0x3d0ff92f	0.03514975
220	0xbcf44203	-0.029816633
221	0xbcb2a0b4	-0.021805145
222	0xbd3ed83e	-0.046592943
223	0xbd17abac	-0.037028953
224	0xbc73b9d5	-0.014875849
225	0x3d1fd532	0.03902168
226	0xbd68fd75	-0.05688234
227	0x3d06b12c	0.032883808
228	0x3d427a00	0.04747963
229	0x3bb15d3e	0.0054127267
230	0xbc582fe4	-0.013195012
231	0xbc2763df	-0.010216682
232	0x3c89de97	0.016829772
233	0x3c506043	0.012718263
234	0xbcf00074	-0.029297091
235	0xbbbee771	-0.00582593
236	0xbcb15ef8	-0.02165173
237	0xbc3beb5b	-0.011469687
238	0xba14e111	-0.00056792895
239	0xbc5864d1	-0.01320763
240	0x3d2dfbcf	0.04247647
241	0xbd2a641c	-0.041599378
242	0xbc26bb8c	-0.010176551
243	0x3d063f1f	0.03277504
244	0xbca85e4b	-0.020552775
245	0x3c84399b	0.01614075
246	0xbd5a636c	-0.053317472
247	0x3ce4d5eb	0.027934035
248	0x3d237914	0.03991039
249	0x3d2978ad	0.04137485
250	0x3cc1c5eb	0.023653945
251	0x3cc1a75c	0.023639373
252	0x3cb33989	0.02187802
253	0x3ceca4e3	0.028887218
254	0x3cebb3aa	0.028772194
255	0xbcc83365	-0.02443857

transformer.layers.0.self_attn.in_proj_weight f4 [192, 64]
0	0xbde49387	-0.11160951
1	0x3d8addfc	0.067806214
2	0x3d4822dc	0.04886137
3	0x3dfcd3bd	0.12345073
4	0x3ce5b682	0.028041128
5	0x3dcf28aa	0.10115178
6	0x3dcc7b02	0.099843994
7	0x3cdca456	0.02693383
8	0xbd9a37ba	-0.0753016
9	0x3df5745d	0.11985085
10	0xbda26130	-0.07928693
11	0xbde10db4	-0.10988942
12	0xbd98a210	-0.07452786
13	0x3e0ffc8a	0.1406118
14	0x3dabc215	0.083866276
15	0xbdc1704d	-0.09445248
16	0x3db9be96	0.090695545
17	0x3d619427	0.05507293
18	0xbd89de74	-0.06731883
19	0xbc90e353	-0.017686522
20	0xbd23b1ac	-0.039964363
21	0x3dda35a1	0.1065476
22	0x3d18b6f8	0.037283868
23	0xbd972d33	-0.07381668
24	0x3d2eb98f	0.04265743
25	0xbdd42d30	-0.10360181
26	0xbca9e21a	-0.020737696
27	0xbd6a1fc5	-0.057159204
28	0x3cef2413	0.029192006
29	0xbdaab0ea	-0.08334525
30	0x3dac609b	0.084168635
31	0xbe135ab4	-0.14390069
32	0xbdc1a65d	-0.094555594
33	0x3d734c99	0.05939922
34	0xbc2f9e0c	-0.010718834
35	0x3c0a3129	0.008434572
36	0xbdd34898	-0.103165805
37	0xbe09ddb8	-0.13463485
38	0xbb2db90d	-0.0026508004
39	0xbe093ac0	-0.13401318
40	0xbd0814a4	-0.03322281
41	0x3d4d354f	0.050099667
42	0xbe2df340	-0.16987324
43	0x3c42e39e	0.0118950885
44	0xbd4c3bd2	-0.049861737
45	0x3d9d5b57	0.07683437
46	0xbdc3a7fb	-0.09553524
47	0xbdaad161	-0.08340717
48	0x3dbcc763	0.092177175
49	0x3c6608b7	0.014040164
50	0x3c005c55	0.007834514
51	0xbc931141	-0.017952563
52	0x3dd3f44c	0.1034933
53	0xbdd7f6d3	-0.10545125
54	0x3c449295	0.0119978385
55	0xbda75300	-0.08170128
56	0x3d4bf34f	0.049792584
57	0xbde92148	-0.11383301
58	0x3def18db	0.11674663
59	0xbd88451c	-0.066538066
60	0xbdbed8b9	-0.0931868
61	0x3d809f41	0.06280375
62	0x3c02ce08	0.007983692
63	0xbd04f6cd	-0.03246193
64	0xbdb69bd8	-0.089164436
65	0x3e1eb87d	0.15500064
66	0xbdcc7473	-0.099831484
67	0x3db0618b	0.08612355
68	0xbce05ace	-0.027387049
69	0x3df557f9	0.1197967
70	0xbde888a6	-0.113541886
71	0x3d32e40e	0.04367452
72	0x3e12eeb6	0.14348873
73	0xbd540a5a	-0.051767685
74	0xbdf27ed8	-0.118406
75	0xbe0456f6	-0.12923798
76	0x3d1f7653	0.038931202
77	0x3e266415	0.16249116
78	0xbce438b3	-0.027859068
79	0xbd974c08	-0.07387549
80	0xbc8a5e2e	-0.016890611
81	0xbdd39f5c	-0.1033313
82	0xbbb4a0b8	-0.005512323
83	0xbc0f6bc3	-0.00875372
84	0x3da07414	0.0783464
85	0xbbd1b758	-0.00640003
86	0xbe0e59ca	-0.1390144
87	0x3df523a9	0.11969692
88	0x3d808f08	0.06277281
89	0xbd88c673	-0.06678476
90	0x3e2b779d	0.16744848
91	0x3c51da7c	0.012808438
92	0xbd2935cb	-0.041311067
93	0xbcf53709	-0.02993347
94	0xbc90d2f8	-0.017678723
95	0x3ddbfe1c	0.10741827
96	0x3df3ae7b	0.11898514
97	0xbbf44d66	-0.0074555157
98	0x3e1b29f0	0.15152717
99	0xbd1a4e0d	-0.03767209
100	0x3de3ce0e	0.11123286
101	0x3cfdc491	0.03097752
102	0xbdb7c58a	-0.089732245
103	0x3e19f62d	0.15035315
104	0xbdea28b2	-0.11433543
105	0x3dbeb1a7	0.09311228
106	0xbd85485b	-0.06507941
107	0x3d1a9020	0.037735105
108	0x3e19e977	0.15030466
109	0x3deb2ade	0.11482786
110	0x3db71be4	0.089408666
111	0xbd544c94	-0.051830843
112	0xbe2637b8	-0.16232193
113	0x3da1d1ab	0.07901319
114	0xbcf83068	-0.03029652
115	0xbdc9f088	-0.09860331
116	0x3b630718	0.003464168
117	0xbd0ea7f9	-0.03482816
118	0x3923ae43	0.00015609809
119	0x3de9ac89	0.114098616
120	0x3db115ff	0.086467735
121	0x3d9774f9	0.07395358
122	0xbdac2342	-0.084051624
123	0xbd81b8bf	-0.06334066
124	0xbe18e743	-0.1493197
125	0x3d3b96bd	0.045798052
126	0x3c15b939	0.009138399
127	0x3d94ea39	0.07271237
128	0xbaaae0f6	-0.0013037014
129	0xbdc24b8f	-0.09487068
130	0xbdebcc9e	-0.11513637
131	0xbc71940d	-0.014744771
132	0xbe09eb8a	-0.13468757
133	0x3cf5f1f7	0.030022604
134	0x3dd9fc17	0.106437854
135	0x3de0066d	0.109387256
136	0x3cd4b846	0.025966775
137	0xbd146a70	-0.03623432
138	0x3e2ff149	0.17181887
139	0xbe0c2825	-0.13687189
140	0xbca0615e	-0.019577678
141	0xbdd801d0	-0.10547221
142	0x3e09fe16	0.13475832
143	0x3c83b373	0.016076779
144	0x3d43f6d7	0.047842827
145	0x3df26a1b	0.11836644
146	0xbdd7f945	-0.10545591
147	0xbd5d6746	-0.054053567
148	0xbdc22705	-0.09480099
149	0x3dc2788c	0.09495649
150	0xbe19b9b8	-0.15012252
151	0xbc09c45e	-0.008408634
152	0x3cbb28f7	0.022846682
153	0x3d9fb04c	0.07797298
154	0x3e16ab8d	0.14713879
155	0x3c8b7510	0.017023593
156	0xbd1d5204	-0.038408294
157	0x3dbad829	0.091232605
158	0xbc804a01	-0.015660288
159	0x3da75013	0.0816957
160	0xbe387fb5	-0.18017466
161	0xbd349480	-0.044086933
162	0x3d19adb5	0.037519176
163	0xbdf5a7fe	-0.119949326
164	0x3be13810	0.0068731382
165	0x3d6cb025	0.057785172
166	0xbcc3b6a8	-0.023890808
167	0x3dc5312e	0.09628521
168	0xbac90eb2	-0.0015339463
169	0xbe0143d1	-0.12623526
170	0xbba7f6dd	-0.005125864
171	0x3cb05752	0.021526013
172	0x3d93a88f	0.072098844
173	0x3d849084	0.06472877
174	0x3d84d1a8	0.06485301
175	0x3e11cbcb	0.14237897
176	0xbbfa07ac	-0.007630309
177	0x3da9f3ca	0.08298452
178	0xbe20a9d6	-0.15689787
179	0x3dd0a2ff	0.10187339
180	0xbd30043d	-0.042972792
181	0xbd435140	-0.047684908
182	0x3e02ce6f	0.1277406
183	0x3d300344	0.042971864
184	0x3c1cd94e	0.009573294
185	0xbc1732bc	-0.009228405
186	0x3dfdbf1d	0.123899676
187	0x3d2e34e8	0.042530924
188	0x3d975ff1	0.07391346
189	0xbca27b65	-0.01983423
190	0x3dfb93a4	0.122840196
191	0xbd121ca6	-0.035671853
192	0xbd06fd9b	-0.0329567
193	0xbddb17fb	-0.10697933
194	0x3cce1fcf	0.025161652
195	0x3e25d874	0.16195852
196	0x3d699b29	0.057032738
197	0xbd5e6da7	-0.05430379
198	0x3deabffc	0.11462399
199	0xbcae2022	-0.021255556
200	0xbdcbb1ab	-0.09945997
201	0x3cdd35ee	0.027003255
202	0xbda03eaa	-0.07824452
203	0x3d34a723	0.044104706
204	0x3d5e4b7f	0.054271217
205	0xbd934953	-0.0719172
206	0xbe1616eb	-0.1465718
207	0xbde8bc51	-0.113640435
208	0xbd7aae2d	-0.061201263
209	0x3dfb0cb2	0.12258281
210	0x3d842d91	0.064540036
211	0x3dc67472	0.09690179
212	0x3dd92b5b	0.106039725
213	0x3ddb5d28	0.107111275
214	0xbe095ed1	-0.13415076
215	0x3d1bf372	0.038073964
216	0xbe02e45b	-0.12782423
217	0x3e18048d	0.14845486
218	0xbc8ec172	-0.017426226
219	0x3e0d5b8d	0.13804455
220	0x3d8c179c	0.06840441
221	0x3d9de1b3	0.07709064
222	0x3dc3081c	0.09523031
223	0xbd2e27e8	-0.042518526
224	0xbd2ff999	-0.042962644
225	0x3df36566	0.118845746
226	0xbe2d3f75	-0.16918738
227	0xbdf5ff5f	-0.12011599
228	0x3d192abb	0.037394267
229	0xbc67288b	-0.014108787
230	0xbc3dbbe7	-0.011580444
231	0xbdd929aa	-0.1060365
232	0xbd4f2298	-0.0505701
233	0x3db2ba28	0.08726913
234	0xbe0c9235	-0.13727649
235	0xbc7d97b0	-0.01547806
236	0x3dfb7ef8	0.12280077
237	0x3c97b362	0.018518154
238	0xbde28ef3	-0.11062422
239	0x39c16878	0.00036889664
240	0xbd84c616	-0.064830944
241	0xbe01f814	-0.1269229
242	0xbcf495b9	-0.02985655
243	0x3c68246c	0.01416884
244	0xbd2c5f0a	-0.042082824
245	0x3d3eeaa2	0.046610482
246	0xbd087286	-0.033312343
247	0x3db2bc64	0.08727339
248	0x3da742ac	0.081670135
249	0xbc95a688	-0.018267885
250	0xbdf41812	-0.119186535
251	0x3dd5f693	0.10447421
252	0xbc9a5052	-0.018837128
253	0xbdf0dc1c	-0.117607325
254	0x3d96e9ca	0.073688105
255	0x3c1cfa11	0.009581105

transformer.layers.0.self_attn.in_proj_bias f4 [192]
0	0x3ce8c219	0.028412865
1	0xbbea621c	-0.007152809
2	0x3c27afd2	0.01023479
3	0x3ca289d2	0.019841108
4	0xbc0add93	-0.008475679
5	0x3b7e619f	0.003881551
6	0xbbef2b3f	-0.0072988565
7	0x386e2ef7	5.678736e-05
8	0x3c63d1b0	0.013904974
9	0xbc50c3db	-0.012742008
10	0xbca11b68	-0.019666389
11	0xbca5bdee	-0.020232167
12	0x3b0ae5ec	0.0021194173
13	0x3af82ebd	0.0018934828
14	0x3b902567	0.00439899
15	0xbc8d6efa	-0.017264832
16	0xbc80a68e	-0.01570442
17	0xbbb4470d	-0.005501634
18	0x3c00a651	0.007852153
19	0x3c3785df	0.011201351
20	0xbbff2274	-0.0077860896
21	0x3caa2f3a	0.020774473
22	0xbacab3d5	-0.0015464971
23	0x3b888646	0.0041663973
24	0x3c5e22e6	0.013558125
25	0xbc65c7ec	-0.014024716
26	0xbcffab71	-0.03120968
27	0x397f5daf	0.00024353595
28	0x3c12cc6c	0.008959871
29	0x3b9e5139	0.00483146
30	0x3b91996a	0.004443337
31	0xbbd899b2	-0.006610119
32	0x3b788a35	0.0037924175
33	0xbbae3176	-0.005315955
34	0x3c464049	0.012100288
35	0x3b8385bd	0.0040137456
36	0xbbcf7e12	-0.0063321674
37	0x3c1e133f	0.009648143
38	0x3c10393e	0.00880271
39	0x393c2ad1	0.00017945028
40	0x3bcd00a6	0.006256181
41	0x3c0c4d14	0.008563299
42	0x3b80d598	0.0039317124
43	0x3aa5f409	0.0012661229
44	0xbc372f81	-0.011180759
45	0x3c58d8c7	0.0132352775
46	0x3c8a8954	0.016911186
47	0xbb07eb07	-0.0020739452
48	0xbc313fab	-0.010818402
49	0x3c48ede8	0.0122637525
50	0xbbce7441	-0.0063004796
51	0xbbe4b6de	-0.0069798073
52	0x3c986504	0.018602856
53	0x3abb7d4e	0.0014304311
54	0xbb9ea9e6	-0.004842031
55	0x3b5eb481	0.00339821
56	0x3bde7135	0.0067883977
57	0xbbb911c7	-0.005647871
58	0x3c2a640b	0.010399829
59	0xbb617dbf	-0.0034407226
60	0xbc04e52f	-0.008111282
61	0x3c62775f	0.013822406
62	0xbb26db6b	-0.0025460373
63	0xbb797786	-0.0038065626
64	0xb2a5c284	-1.9296984e-08
65	0xb4926872	-2.7270613e-07
66	0x33249696	3.8321183e-08
67	0xb3bde546	-8.842703e-08
68	0xb3887ae1	-6.355345e-08
69	0x3394590e	6.907986e-08
70	0x342130aa	1.5011997e-07
71	0xb424dd79	-1.5354262e-07
72	0x343b1b03	1.7425559e-07
73	0x344aae68	1.8876165e-07
74	0xb397eb2b	-7.074262e-08
75	0xb31dec3b	-3.676926e-08
76	0x3450271e	1.938574e-07
77	0xb24fc18c	-1.2092993e-08
78	0x34aced0d	3.2209974e-07
79	0xb35d5606	-5.153381e-08
80	0xb3da1ed3	-1.0157023e-07
81	0xb4b2b5ef	-3.3287458e-07
82	0x34032a6e	1.2215762e-07
83	0xb2e4868d	-2.660388e-08
84	0xb49e67fc	-2.9505452e-07
85	0xb42bc152	-1.5995946e-07
86	0xb33872db	-4.29453e-08
87	0xb33a66d8	-4.3400036e-08
88	0xb3725170	-5.6419083e-08
89	0x32655fc3	1.3351328e-08
90	0xb440d968	-1.7960485e-07
91	0x348353c3	2.4461596e-07
92	0xafa514a4	-3.002799e-10
93	0xb3ad15bb	-8.059893e-08
94	0xb22805c0	-9.780194e-09
95	0x335abd38	5.0929174e-08
96	0x329b47b5	1.8076983e-08
97	0x342096ac	1.4955975e-07
98	0x3373ff19	5.6809856e-08
99	0x33b80d01	8.570533e-08
100	0xb33ce496	-4.398006e-08
101	0xb437801d	-1.708981e-07
102	0xb425159a	-1.5374681e-07
103	0x336645ad	5.3614418e-08
104	0xb3cc7d30	-9.522262e-08
105	0xb2afb954	-2.0456959e-08
106	0x33b12bfe	8.250207e-08
107	0xb406bc75	-1.2548283e-07
108	0x335f00c1	5.192192e-08
109	0xb23e4b1b	-1.1076533e-08
110	0xb4033df8	-1.222287e-07
111	0xb484dd73	-2.4748041e-07
112	0x33d164a0	9.7506245e-08
113	0x34265114	1.5489451e-07
114	0xb43b7c31	-1.7460913e-07
115	0xb47acbc2	-2.3357191e-07
116	0x334e104b	4.797793e-08
117	0x33d9a757	1.0135289e-07
118	0x32c32ad2	2.272046e-08
119	0x3355221d	4.9623953e-08
120	0x33b85203	8.5830855e-08
121	0xb411d074	-1.3580012e-07
122	0xb43011f0	-1.6397803e-07
123	0x3459471d	2.0235571e-07
124	0xb435660f	-1.6894067e-07
125	0x33db6f59	1.0218236e-07
126	0xb2d17371	-2.4383299e-08
127	0xb37cb9fb	-5.884247e-08
128	0xbc976ca9	-0.01848443
129	0x3948e378	0.00019158225
130	0xbc25ec1d	-0.010127095
131	0xbb418d47	-0.002953367
132	0xb7a22984	-1.9331237e-05
133	0x3baf9a7f	0.0053589935
134	0x39ce5ea7	0.00039361903
135	0x3b2fabfb	0.002680539
136	0x3c0bcdbc	0.008532938
137	0x3b4e3773	0.0031466156
138	0x3c5a97cd	0.013341856
139	0xbc8b6c47	-0.017019404
140	0xbba6edc6	-0.005094263
141	0xba5f0e6d	-0.00085089245
142	0xbb46294b	-0.0030237015
143	0x3b9ccd0f	0.004785187
144	0xbc565da4	-0.013083849
145	0xbbb7d811	-0.005610474
146	0xba7a6637	-0.00095519744
147	0x3a669312	0.0008795719
148	0xbb3c2557	-0.002870878
149	0x3cc3a537	0.023882492
150	0x3b2f35fc	0.0026735058
151	0x3b0c094f	0.0021367853
152	0x3bf51e27	0.007480401
153	0x3bb6466b	0.0055625937
154	0x3b5652fa	0.0032703266
155	0xbc2f9d4f	-0.010718658
156	0x3b1b62b2	0.002370995
157	0xbb23891d	-0.0024953552
158	0xbb4497d0	-0.0029997714
159	0xbaf88233	-0.0018959701
160	0x3c43c4d0	0.011948779
161	0xba0d5743	-0.0005391726
162	0xbc8c4675	-0.01712344
163	0xbc4c5562	-0.012471529
164	0x3adf3d74	0.0017031864
165	0x3b805cbb	0.0039173043
166	0xbbfb02ea	-0.0076602595
167	0xb9ab2751	-0.00032644955
168	0xb8ccc6d5	-9.7645134e-05
169	0xba4b2c7a	-0.0007750463
170	0xbbcf5fc6	-0.0063285558
171	0x3cb88e67	0.02252884
172	0x39937aa5	0.00028129402
173	0x3bf72090	0.0075417235
174	0x392f9e3d	0.00016748249
175	0x3c033463	0.008008095
176	0x3bc6e2c5	0.0060695135
177	0x3a659ac0	0.0008758716
178	0xbb5e879c	-0.0033955341
179	0x3c0f540d	0.008748067
180	0xbc1bbee8	-0.009505965
181	0xbb332919	-0.0027337729
182	0x3c628579	0.013825768
183	0x3a0744b6	0.000516008
184	0xbc02e24b	-0.007988523
185	0x3ac5c1bc	0.0015087645
186	0x3b278159	0.0025559275
187	0x3c661286	0.014042502
188	0xbc1b6aca	-0.00948591
189	0x3ad5ec31	0.0016321001
190	0xbba37f1c	-0.004989518
191	0xbc5be3d3	-0.013421017

transformer.layers.0.self_attn.out_proj.weight f4 [64, 64]
0	0xbce35a6a	-0.027753074
1	0xbc8816bf	-0.016612409
2	0xbafcd3fa	-0.0019289248
3	0xbc0c0b19	-0.008547568
4	0xbca3df0a	-0.020003814
5	0x3cd7e504	0.02635432
6	0xbcabe534	-0.020983316
7	0x3b1858fd	0.00232464
8	0x3af9dded	0.0019063331
9	0x3bff9946	0.007800254
10	0xbbeec949	-0.0072871787
11	0xbd2f047d	-0.04272889
12	0x3ceada6b	0.028668603
13	0x3cc30710	0.023807079
14	0x3c51b5ca	0.01279969
15	0x3c8fd076	0.017555457
16	0x3cd3b8d8	0.025844976
17	0xbcc7055d	-0.02429455
18	0xbbb25cf4	-0.00544321
19	0x3bf97daa	0.0076138573
20	0xbc37e995	-0.011225124
21	0x3c681f74	0.014167655
22	0x3c7831e4	0.015148614
23	0xbc7b9374	-0.01535498
24	0x3a96263b	0.0011455485
25	0x3b204c38	0.0024459492
26	0xbd66e522	-0.05637086
27	0x3b615fe0	0.0034389421
28	0x3c1b1798	0.009466074
29	0x3c981e2c	0.018569075
30	0x3a904a1d	0.0011008416
31	0xbcbee609	-0.023303049
32	0x3b033929	0.0020023084
33	0x3d15f667	0.03661194
34	0x3c0d7c07	0.008635527
35	0xbcc115db	-0.023569992
36	0x3cf6b5c1	0.030115964
37	0x3c585c59	0.013205611
38	0xbccfa323	-0.025346344
39	0x3c074525	0.008256231
40	0xbbab4aa3	-0.0052274032
41	0xbc23e4e5	-0.010003303
42	0xbc95152c	-0.018198572
43	0x3d012d86	0.031537555
44	0xbc458fd9	-0.012058222
45	0xbcf48120	-0.029846728
46	0xbc8fde70	-0.017562121
47	0xbc946470	-0.018114299
48	0xbcaaa3ea	-0.020830113
49	0x3b71e16d	0.0036908046
50	0x3d2ec62e	0.042669468
51	0xbb8f4fbf	-0.00437352
52	0xbcb40598	-0.021975324
53	0x3cc16a87	0.023610367
54	0xbca64ab0	-0.020299286
55	0x3c9f0deb	0.019415816
56	0x3af17dc9	0.0018424328
57	0xbd03eddc	-0.032209262
58	0x3c8a7817	0.016902966
59	0x3cdd3d8b	0.027006885
60	0xbb5753e8	-0.0032856409
61	0xbc12f970	-0.008970603
62	0x3bed4eb2	0.007242047
63	0xbc53e19f	-0.01293221
64	0xbc12f9fa	-0.008970732
65	0xbc6d466a	-0.01448212
66	0xbc4692cc	-0.01211996
67	0xbd1c0f56	-0.038100563
68	0xbcbefe73	-0.02331469
69	0x3cbcd982	0.023052935
70	0xbc3b7d3a	-0.011443431
71	0xbc55feef	-0.013061269
72	0xbbe6e99e	-0.0070468923
73	0x3c45d291	0.012074129
74	0xbc769517	-0.015050194
75	0xbc63e431	-0.013909386
76	0x3abc3f15	0.0014362062
77	0x3c2a8de2	0.010409804
78	0x3b5c83ca	0.0033647888
79	0xbc728061	-0.014801116
80	0x3ac53284	0.0015044962
81	0x3b9ed22a	0.004846831
82	0x3cf44f4b	0.029822966
83	0x3ced5a74	0.028973795
84	0xbcb34844	-0.021885045
85	0x3c1c42e4	0.009537432
86	0xbc26bba1	-0.01017657
87	0x3c28e49e	0.010308413
88	0x3ce1142d	0.02747544
89	0x3c8f363e	0.01748192
90	0xbba349df	-0.0049831714
91	0xbbb66755	-0.0055665174
92	0x39ddb37b	0.00042286128
93	0xbc9cb137	-0.019127471
94	0xbc1d8abe	-0.009615598
95	0x3c33114a	0.010929415
96	0xbbf4a218	-0.007465612
97	0x3cb82ff9	0.022483813
98	0xbd0b27ba	-0.033973433
99	0xbc244677	-0.010026566
100	0xbc5c2e4f	-0.013438775
101	0xbccbb339	-0.024865733
102	0x3c99e84c	0.018787526
103	0xbcb46d4e	-0.022024777
104	0x3d01db45	0.031703252
105	0x3cac5beb	0.021039924
106	0x3a5f7549	0.0008524252
107	0x3cfd678a	0.03093316
108	0xbce2d756	-0.02769057
109	0x3c55ed3b	0.013057048
110	0x3a50befd	0.000796303
111	0x3ca2a617	0.019854588
112	0xbc94e0c8	-0.01817359
113	0x3c34e097	0.0110398745
114	0x39f707ee	0.0004711742
115	0x3c9750d8	0.018471166
116	0xbd1d6249	-0.03842381
117	0x3d02be76	0.03191992
118	0xbc38fddb	-0.011290993
119	0xbc3f370d	-0.01167084
120	0xbd3372f9	-0.04381082
121	0xbc1a82f8	-0.009430639
122	0x3bd5dd4d	0.0065266252
123	0xbbe72194	-0.0070535634
124	0xbc95fcab	-0.018308958
125	0xbd2e5018	-0.042556852
126	0xbccd7e7a	-0.025084723
127	0xbcf35bd7	-0.029706879
128	0xbd01137d	-0.031512726
129	0x3c60a698	0.013711594
130	0xbd9cca6f	-0.07655799
131	0x3c7f747d	0.015591738
132	0xbc6b3361	-0.014355511
133	0xbb9bf643	-0.0047595813
134	0xbcb00a47	-0.021489276
135	0x3c9505d9	0.018191265
136	0xbc7559d0	-0.014975026
137	0x3bcd7a23	0.0062706633
138	0x3cf5d9f9	0.030011164
139	0x3c81fa50	0.015866429
140	0x3ce124d1	0.027483376
141	0x3c27617b	0.010216112
142	0x3c42516c	0.011860233
143	0xbc8c4a6e	-0.017125335
144	0xbb107daf	-0.002204757
145	0xbc544ba8	-0.012957491
146	0xbcd50a21	-0.026005806
147	0x3c0c7df3	0.0085749505
148	0x3c9bb674	0.019007899
149	0x3c9dd74c	0.0192677
150	0x3c81857a	0.015810717
151	0x3c080805	0.008302693
152	0x3cc53916	0.024075072
153	0x3c79f305	0.015255694
154	0xbd0136e8	-0.031546503
155	0xbbaaa9e7	-0.005208242
156	0xbb26cc27	-0.0025451274
157	0xbbe9568a	-0.007120912
158	0xbb546365	-0.0032407877
159	0x3cdfd4ac	0.02732309
160	0x3c93b217	0.018029256
161	0x3cf54da4	0.029944248
162	0xbcb472a9	-0.02202733
163	0xbd057c49	-0.03258923
164	0xbbb3e8e5	-0.0054904097
165	0xbb5f4947	-0.0034070776
166	0x3bb470fe	0.005506634
167	0xbd295aec	-0.041346475
168	0x3bc43711	0.0059880097
169	0xbc06d490	-0.00822939
170	0x3ca3f8bf	0.020016072
171	0xbb60d524	-0.003430673
172	0x3d174094	0.03692682
173	0xbd721a95	-0.05910738
174	0xbcc9dafa	-0.024640549
175	0xbcb2a2ab	-0.021806082
176	0x3b233364	0.0024902457
177	0x3c56354f	0.013074233
178	0x3c0f51cc	0.008747529
179	0xbc62c801	-0.01384163
180	0xbca57a80	-0.020200014
181	0xbd77f335	-0.060534675
182	0xbc83d592	-0.01609305
183	0xbc97027e	-0.018433806
184	0xbc4b4a47	-0.012407846
185	0x3aa95c72	0.0012921228
186	0xbc54934d	-0.012974572
187	0xbcaa96ec	-0.020823918
188	0x3ab0396b	0.0013444846
189	0x3b8044fc	0.0039144736
190	0x3d3d4708	0.04621032
191	0xbc4fb2c6	-0.0126769
192	0x3cb9097f	0.022587536
193	0x3b31c445	0.0027125042
194	0xbb8434f7	-0.004034634
195	0x3a111ac1	0.00055352977
196	0xbcd23715	-0.02566103
197	0x3c9b2516	0.018938582
198	0xbbede850	-0.00726036
199	0x3d13c28f	0.036074217
200	0xbc005efe	-0.007835148
201	0xbca24924	-0.019810267
202	0x3cb7b477	0.02242492
203	0xbd3db1bb	-0.046312075
204	0x3cfd392e	0.030911054
205	0x3c25642e	0.0100946855
206	0x3cbddb3b	0.023175826
207	0xbc540f3d	-0.012943086
208	0xbd4b40f9	-0.04962251
209	0xbcbae45f	-0.022813974
210	0xbcad7060	-0.021171749
211	0x3b7494b5	0.0037320082
212	0xbc1d9cc9	-0.0096199
213	0xbc115a76	-0.008871665
214	0x3cbea593	0.023272311
215	0x3c8f41c6	0.017487418
216	0xbb4ad7b9	-0.0030951335
217	0xbc49e305	-0.012322192
218	0xbd00f93f	-0.0314877
219	0xbb4608ce	-0.003021765
220	0x3a8a2cce	0.0010541917
221	0xbc56778d	-0.013090027
222	0xbb423d0c	-0.0029638438
223	0x3d134941	0.035958532
224	0x3c88a513	0.016680276
225	0xbd47ddd8	-0.04879555
226	0xbd664389	-0.05621675
227	0x3c2389ba	0.009981567
228	0x3cbac73f	0.022800086
229	0xbbd76cdf	-0.0065742577
230	0x3d1e680b	0.03867344
231	0xbc240717	-0.010011456
232	0xbbd588ed	-0.006516567
233	0x3d41a25e	0.047273986
234	0xbca34205	-0.019928942
235	0x3d28f734	0.041251376
236	0xbae3ba88	-0.0017374316
237	0xbd0ee074	-0.034882024
238	0xbcb5a437	-0.02217303
239	0xbd0bf965	-0.034173388
240	0xbbbd175c	-0.005770607
241	0xbb07df6a	-0.002073253
242	0x3c995e3b	0.01872169
243	0xbd0771ff	-0.0330677
244	0xbba9dffd	-0.005184172
245	0xbcddb7f1	-0.02706525
246	0xbc3e6b1f	-0.011622219
247	0x3d88525b	0.06656333
248	0xbcb7f462	-0.022455398
249	0x3cbc22d4	0.022965826
250	0x3d17de19	0.037077043
251	0x39d31823	0.0004026304
252	0x3cd28e01	0.025702478
253	0xbd35fa43	-0.04442812
254	0x3abfff28	0.0014648186
255	0x3b2bec03	0.0026233203

transformer.layers.0.self_attn.out_proj.bias f4 [64]
0	0xbbb586fb	-0.0055397726
1	0xbbf04d38	-0.007333424
2	0xbb6402e8	-0.0034791771
3	0xbba9a3aa	-0.005176981
4	0x3b9efe8c	0.0048521217
5	0xb85a701a	-5.2079653e-05
6	0xbc02ce61	-0.007983775
7	0x3c22a289	0.009926447
8	0x3b021d84	0.0019854018
9	0x3c0d530a	0.008625755
10	0x3b0066bf	0.0019592491
11	0xbbc60370	-0.0060428903
12	0xbb874ffe	-0.004129409
13	0x3b6439ed	0.0034824566
14	0xbbf9bfd7	-0.007621746
15	0xbbaae7db	-0.0052156276
16	0xbac7b7bf	-0.0015237256
17	0x3bacd2e1	0.005274162
18	0x39324909	0.0001700261
19	0xbbdffea5	-0.006835776
20	0xbbf1e527	-0.0073820534
21	0x3beee108	0.0072900094
22	0xbb545eb2	-0.0032405076
23	0xbbd1adc1	-0.006398887
24	0xbbe4117b	-0.0069600916
25	0x3b8fcb76	0.004388268
26	0x3b1d6f9f	0.002402283
27	0xbbf3ad80	-0.0074364543
28	0x3bbcf313	0.0057662814
29	0x3c152538	0.009103112
30	0x3c04c9a7	0.008104718
31	0xbb87f5c5	-0.004149171
32	0x3add6198	0.0016890047
33	0xbb311d3a	-0.0027025477
34	0x3c000869	0.007814505
35	0xbbd30262	-0.006439493
36	0xbbb9feca	-0.005676125
37	0x3a940f03	0.0011295978
38	0x3b8350ac	0.0040074196
39	0xbbc2fe0e	-0.005950696
40	0x3b7619c0	0.003755197
41	0x3b87db67	0.004146028
42	0xbb6e271e	-0.0036339234
43	0xbc0a003e	-0.008422909
44	0x3c1daba4	0.009623442
45	0xbb87da4f	-0.0041458975
46	0x3c086c99	0.008326673
47	0x3b96085f	0.0045786346
48	0xbbd4d7fa	-0.006495473
49	0x3c17acb9	0.009257489
50	0xbc02f8a8	-0.007993855
51	0xbbe35c6d	-0.0069385082
52	0x3bde9037	0.006792094
53	0xbb6dce69	-0.003628636
54	0x3877574c	5.897069e-05
55	0x3bc4eb8c	0.0060095247
56	0xbbb9768d	-0.0056598843
57	0xbb930163	-0.0044862493
58	0x3b734c6e	0.0037124413
59	0xbc027f43	-0.007964912
60	0xbc0b3c41	-0.008498252
61	0xbbef6bd3	-0.007306555
62	0x39c4425e	0.0003743348
63	0xbbed5256	-0.007242481

transformer.layers.0.linear1.weight f4 [128, 64]
0	0xbd2c4dfd	-0.042066563
1	0xbcd38cb2	-0.025823925
2	0xbccff3a3	-0.02538473
3	0x3d0234a9	0.031788502
4	0x3c32378d	0.010877502
5	0xbbea780f	-0.0071554254
6	0xbd03e61e	-0.03220188
7	0x3c9c873b	0.019107452
8	0x3d80af2e	0.06283413
9	0x3d2fcd7b	0.04292057
10	0x3d51e5c7	0.051244523
11	0xbc2f526e	-0.010700805
12	0xbcd5a280	-0.026078463
13	0x3d57aa99	0.05265293
14	0xbc3fcf42	-0.011707129
15	0xbd794bc0	-0.060863256
16	0x3cafbac9	0.02145137
17	0x3cfaa1c8	0.030594721
18	0xbb553506	-0.0032532825
19	0xbbe57452	-0.007002392
20	0xbb96497f	-0.004586398
21	0xbd1093df	-0.03529727
22	0x3c6fc397	0.014634035
23	0xbce0e4dd	-0.02745288
24	0x3cad569f	0.021159468
25	0xbd35a3e5	-0.044345755
26	0x3d2aa1e2	0.04165829
27	0xbd09904a	-0.03358487
28	0x3cef5aba	0.029218066
29	0x3c78bed6	0.015182218
30	0x3cfa434e	0.030549672
31	0xbd0f861f	-0.035040017
32	0xbd0f9b14	-0.035060003
33	0xbbe23e44	-0.0069043953
34	0x3c419e64	0.011817548
35	0xbd1fb2d9	-0.03898892
36	0xbbfa5874	-0.007639939
37	0xbcecf46c	-0.028925143
38	0x3c808c31	0.015691848
39	0x3d1027c2	0.035194166
40	0xbd084ff6	-0.03327938
41	0x3c46fce4	0.012145255
42	0x3b82aa88	0.003987614
43	0xbc34d406	-0.011036878
44	0x3d58d94d	0.05294161
45	0xbd809900	-0.062791824
46	0x3d5a275d	0.053260196
47	0x3b23a4d8	0.002497008
48	0x3c4b8342	0.012421431
49	0x3d24aaf6	0.040202104
50	0xbd0c6d3f	-0.034283873
51	0xbc966c64	-0.018362232
52	0xbcbc563a	-0.022990335
53	0x3b633ee8	0.0034674946
54	0x3d1820c3	0.03714062
55	0x3d60b4b6	0.05485984
56	0xbc8b8e66	-0.017035674
57	0xbc0cad06	-0.008586174
58	0xbb4f557c	-0.0031636646
59	0xbccf1586	-0.025278818
60	0xbcaa2b1a	-0.020772506
61	0x3bf65010	0.0075168684
62	0xbccbde62	-0.024886314
63	0x3c34cfcd	0.011035872
64	0xbb5295a2	-0.0032132645
65	0xbd7752cf	-0.060381707
66	0x3c306c1c	0.010767963
67	0xbc1fc830	-0.009752318
68	0x3cfd136a	0.030893046
69	0xbd852e66	-0.065029904
70	0xbcc3389f	-0.02383071
71	0x3d83b1fc	0.06430432
72	0x3c486a56	0.012232384
73	0x3bebb8d0	0.007193662
74	0x3d164c82	0.036694057
75	0xbd69fbed	-0.05712502
76	0x3c934a82	0.017979864
77	0x3c464e36	0.012103608
78	0xbca540a7	-0.02017243
79	0x3cee5f4b	0.029098174
80	0x3cd7853d	0.02630865
81	0x3d4d9f9d	0.050201047
82	0xbd069716	-0.03285893
83	0xbd06239b	-0.0327488
84	0xbc898961	-0.01678914
85	0x3d0e6d2b	0.03477208
86	0xb7b51d9e	-2.1590673e-05
87	0xbd1c57ba	-0.0381696
88	0xbc1ad9b0	-0.009451315
89	0xba07ba4c	-0.00051776017
90	0x3bf6e0a8	0.0075341053
91	0x3bad7479	0.0052934256
92	0x3c15aff8	0.0091361925
93	0xbb45b363	-0.0030166737
94	0x3ca79f5f	0.020461736
95	0xbbc8fe1b	-0.0061338074
96	0xbc22dbb6	-0.0099400785
97	0xbb5e6790	-0.003393624
98	0xbc90f019	-0.017692612
99	0xbc409151	-0.011753396
100	0x3d33e7b9	0.04392216
101	0xbbc979dd	-0.0061485604
102	0xbcf83eb9	-0.030303346
103	0x3d2312a8	0.039812714
104	0x3cacfd95	0.021117011
105	0xbce107df	-0.027469574
106	0xbd03fa9c	-0.03222142
107	0x399809dc	0.00028999045
108	0x3b2cdac5	0.0026375514
109	0xbcbaf79c	-0.022823147
110	0x3c9883da	0.01861756
111	0x3d573ea7	0.052549984
112	0x3d34cf10	0.044142783
113	0x3c79e865	0.015253161
114	0xbd34c03e	-0.04412865
115	0xbc76843d	-0.0150461765
116	0x3cc4bc35	0.024015525
117	0xbcc0f68c	-0.023555063
118	0xbd3da8ec	-0.046303675
119	0x3ca34e02	0.019934658
120	0x3d4730da	0.048630573
121	0xbcfed759	-0.031108545
122	0x3c86aa53	0.016438639
123	0x3b7cb731	0.003856134
124	0x3d2d0636	0.04224225
125	0x3c9f8a98	0.019475266
126	0xbcdc744d	-0.026910925
127	0xbbf41a01	-0.007449389
128	0xbd550e63	-0.052015673
129	0xbd496f7d	-0.04917859
130	0x3ca248fc	0.019810192
131	0x3d2a10b7	0.041519847
132	0x3c31223b	0.010811384
133	0xbc1e24de	-0.0096523445
134	0x3d1b2c9b	0.037884336
135	0x3d11839d	0.035525907
136	0xbcf6d4ca	-0.030130763
137	0xbc3cd3cd	-0.011525107
138	0x39cd4db3	0.00039158537
139	0x3b258c57	0.002526065
140	0x3c30e9bf	0.010797917
141	0x3bb27e21	0.0054471646
142	0x3beef989	0.0072929305
143	0x3c366012	0.011131303
144	0xbb23e4a7	-0.0025008114
145	0x3b4737bf	0.0030398217
146	0x3c3921b5	0.01129954
147	0xbc5b108f	-0.013370647
148	0xbca78a58	-0.02045171
149	0xbbf8a2c2	-0.0075877616
150	0xbb5411b4	-0.0032359185
151	0xbd71aedd	-0.059004653
152	0xbcb78993	-0.022404468
153	0x3d38bab9	0.045099948
154	0x3cff4810	0.031162292
155	0xbc88e21d	-0.016709382
156	0xbdb19dd8	-0.086726844
157	0xbbe9904c	-0.007127797
158	0xbc685833	-0.014181185
159	0xbd339862	-0.043846495
160	0xbc45fde9	-0.012084463
161	0xbbe9fb17	-0.007140528
162	0xbce08764	-0.02740831
163	0x3d0578e8	0.03258601
164	0x3c87176a	0.016490657
165	0xbb9b2c88	-0.004735533
166	0x3c863a5f	0.016385255
167	0x3d675b11	0.056483332
168	0xbd197ca6	-0.03747239
169	0xbcb795a6	-0.022410225
170	0xbad1fc20	-0.0016020574
171	0x3bff00b9	0.0077820686
172	0xbc4e0aee	-0.012575848
173	0xb8d75815	-0.000102684055
174	0xbb805136	-0.003915931
175	0xbd083fa1	-0.033263806
176	0xbcb0f85a	-0.021602798
177	0x3cccbdc7	0.024992837
178	0xbc7a30d8	-0.015270434
179	0xbc944c2c	-0.018102728
180	0xbb355c1a	-0.0027673305
181	0x3d2110e1	0.039322738
182	0xbd8b2b5f	-0.06795382
183	0x3d028da1	0.03187335
184	0x3c3f3acb	0.011671732
185	0x3ca82032	0.020523164
186	0x3bf22800	0.0073900223
187	0x3c2ad1a4	0.010425959
188	0xbb53af0a	-0.0032300376
189	0x3d06a99e	0.032876603
190	0xb88d0ea2	-6.7261295e-05
191	0x3b23ab69	0.0024973995
192	0xbaa6650a	-0.0012694907
193	0x3d078e7b	0.033094864
194	0x3c7df20b	0.015499602
195	0xbc8ee113	-0.017441308
196	0xbc059b7c	-0.008154746
197	0xbcd4db44	-0.02598346
198	0xbca4c345	-0.020112643
199	0xbd787068	-0.060654074
200	0xbc92615c	-0.01786869
201	0xbd52ec94	-0.05149515
202	0xbbc1f11c	-0.005918635
203	0x3c9761ce	0.018479254
204	0x3bfbb13f	0.0076810415
205	0x3cccd33b	0.025003066
206	0x3c63708a	0.013881812
207	0xbcb18fea	-0.021675069
208	0x3beece05	0.007287743
209	0xbca0e277	-0.019639237
210	0x3d2ead5c	0.042645797
211	0x3c84782a	0.01617058
212	0xbba99c9e	-0.005176141
213	0x3d4c8da8	0.04993978
214	0x3cb98948	0.022648469
215	0x3bdee104	0.0068017263
216	0xbca07f35	-0.019591907
217	0x3cae56f6	0.0212817
218	0xbcb07e22	-0.02154452
219	0xbca8b5a6	-0.02059443
220	0xbd08639d	-0.033298124
221	0x3d8a8af5	0.06764785
222	0xbabfef49	-0.0014643456
223	0x3d80d87e	0.062912926
224	0xbd5aaa8b	-0.0533853
225	0xbc79ce94	-0.015247006
226	0xbcca9e02	-0.024733547
227	0x3d21ee12	0.039533682
228	0x3d6890e0	0.05677879
229	0x3cc0ed9a	0.023550797
230	0xbc588489	-0.013215193
231	0xbc8d7fcf	-0.017272858
232	0x3b8c82c4	0.0042880494
233	0x3c7d54ad	0.015462083
234	0xbcbed6f8	-0.023295864
235	0xbc9e0ab8	-0.01929222
236	0xbd05cf2b	-0.032668274
237	0x3d4c9094	0.049942568
238	0x3caee215	0.021348039
239	0xbba77a75	-0.0051110336
240	0xbccf3560	-0.025294006
241	0xbcc42721	-0.02394444
242	0x3d46f28e	0.048571162
243	0x3ccf22f7	0.025285227
244	0x3bc49e44	0.006000312
245	0x3c14427a	0.009049052
246	0xbc970a2d	-0.01843747
247	0x3b096e22	0.0020970185
248	0xbcfd9fc1	-0.030959966
249	0xbbdf62d8	-0.006817203
250	0x3d30df00	0.04318142
251	0xbd014551	-0.031560246
252	0xbc071fd8	-0.008247338
253	0x3d22f32b	0.039782684
254	0x3c4bcaeb	0.012438516
255	0xbcc08fd8	-0.02350609

transformer.layers.0.linear1.bias f4 [128]
0	0x3c9c62c6	0.019090068
1	0x3c224e0f	0.009906306
2	0x3baaca1a	0.0052120807
3	0xbc16679d	-0.009179977
4	0xbbb82985	-0.005620184
5	0x3c974ea2	0.018470112
6	0xbc0841af	-0.008316441
7	0x3b123231	0.0022307748
8	0x3be66383	0.0070309057
9	0x3ba2c014	0.004966745
10	0x3a60b560	0.0008571949
11	0x3b1e8cc7	0.0024192797
12	0x3c371f92	0.011176961
13	0x3c6d1a1c	0.014471557
14	0xbbf72ecc	-0.0075434204
15	0x3c033866	0.008009052
16	0x3bdd9871	0.006762557
17	0x3cece724	0.02891881
18	0x3b11a715	0.0022224833
19	0xbb2dcb2e	-0.002651881
20	0x3cd30ca9	0.025762873
21	0x3b172019	0.0023059903
22	0xbc1589dc	-0.0091271065
23	0x3c989c3e	0.01862919
24	0x3bc82718	0.006108176
25	0x3c4598b6	0.012060335
26	0x3cafdea0	0.02146846
27	0x3c0e8514	0.0086987205
28	0xbb840ce9	-0.0040298593
29	0xbb197c7b	-0.0023420143
30	0x3a043e60	0.0005044695
31	0x3cc1de47	0.02366556
32	0xb9119107	-0.00013882304
33	0xbcc42b83	-0.02394653
34	0x3bcb9ac5	0.0062135183
35	0x3c667107	0.014065034
36	0x3c3d985f	0.011571973
37	0xbb3de6e5	-0.0028976735
38	0xbd056176	-0.03256365
39	0x3cb32c38	0.021871671
40	0x3b03fb50	0.0020138808
41	0x3c5223a2	0.012825878
42	0x3b130c43	0.0022437728
43	0xbb0e362f	-0.0021699776
44	0xbab37e80	-0.0013694316
45	0xbcdc4701	-0.026889326
46	0x3b599197	0.003319835
47	0x3c1e6a1d	0.009668854
48	0x3c993b1f	0.018704949
49	0x3c87a5a3	0.016558474
50	0x3c241c44	0.010016505
51	0x3c01bb58	0.007918201
52	0x3b2a563d	0.0025991343
53	0x3bed8b93	0.0072493046
54	0x3cad65c6	0.021166693
55	0xbad63a94	-0.0016344362
56	0x3b91021c	0.0044253003
57	0x3b31bc86	0.0027120425
58	0x3c25d58f	0.010121717
59	0x3c1951eb	0.00935791
60	0xbc1763c4	-0.009240095
61	0x3c28c722	0.010301383
62	0xb7b89868	-2.2005479e-05
63	0x3c28b8ca	0.010297963
64	0xbbb0dbf6	-0.005397315
65	0x3ccda876	0.025104742
66	0xba32c406	-0.0006819371
67	0xbc647db7	-0.013945988
68	0x3c142f8f	0.009044542
69	0x3c135776	0.00899302
70	0x3cc00b48	0.02344288
71	0x3bde4ed2	0.0067842985
72	0x3c9332cf	0.017968563
73	0x3a7cdfec	0.0009646404
74	0xbc5bd227	-0.013416803
75	0x3b079737	0.0020689496
76	0x3bf10385	0.007355156
77	0x3c87132b	0.016488632
78	0x3ce79cdb	0.028273037
79	0x3c0411c8	0.00806088
80	0xbb7a3735	-0.0038179879
81	0xbc6c13ac	-0.014408987
82	0x3ce1c387	0.027559055
83	0x3bab125e	0.0052206954
84	0x3c64c05f	0.0139618805
85	0x3c0271ea	0.00796173
86	0xbaef26e1	-0.001824584
87	0x3cea06e8	0.028567746
88	0x3b9fdd84	0.0048787016
89	0x3c099902	0.008398296
90	0xbc1804be	-0.009278474
91	0xba349920	-0.00068892725
92	0xbc8e4e16	-0.017371219
93	0x3bd4582f	0.006480239
94	0x3c204c49	0.009783813
95	0x3c8af226	0.016961168
96	0x3cc96cf8	0.024588093
97	0x3b8bec96	0.0042701466
98	0xbc3c1677	-0.011479965
99	0xbbd26ee1	-0.006421909
100	0xbba56e22	-0.0050485292
101	0x3c7a9d65	0.015296315
102	0x3c980954	0.018559135
103	0x3c9510dd	0.018196518
104	0xbb96f1fc	-0.0046064835
105	0x3bc372a5	0.0059645944
106	0x3ba350e4	0.004984008
107	0x3ad1f4a1	0.001601834
108	0x3a13af87	0.00056337606
109	0x3c5c80ed	0.013458473
110	0x3bb3f3a9	0.005491693
111	0x3bc1c852	0.0059137726
112	0x3b3aa831	0.0028481598
113	0x3a3579a0	0.00069227256
114	0xbba90213	-0.005157718
115	0xbbb10316	-0.005401979
116	0x3b1f50dd	0.0024309673
117	0x3c2c39cd	0.010511828
118	0x3c2ea031	0.01065831
119	0x3b0a4b76	0.0021102107
120	0x3c19de42	0.009391369
121	0x3ca86629	0.020556526
122	0x3bbf8f0a	0.005845909
123	0x3c76d749	0.015065976
124	0x3d03bdc9	0.032163415
125	0x3c41b2f7	0.011822454
126	0xbbd4157a	-0.006472287
127	0x3c5c9477	0.013463131
