marble_model/best_model_v3.0_20250530_230043.pt (torch, 295593 bytes, 30 tensors)

token_embedding.weight f4 [13, 64]
000000 e4 c2 14 bb 3f f3 15 3a b8 c9 cf bc fc ae 4d bb
       -0.0022699172 0.00057201454 -0.025364742 -0.0031384816
000010 ab 29 06 3d eb 74 6e 3c 57 f5 77 bc 80 bd 3b 3c
       0.03275458 0.014554243 -0.015134177 0.011458755
000020 aa eb 86 3c 1d 17 22 3d 55 4c 74 3c 6d fe b3 3c
       0.016469795 0.039572824 0.014910777 0.021971906
000030 db d4 92 3c ab e8 2c bc 33 be ba bc d1 32 21 bd
       0.017923763 -0.010553519 -0.022795772 -0.039355103
000040 0e 3f e4 3c 2e 68 52 bb 09 77 ee bc db 7f ca 3b
       0.027862098 -0.0032105553 -0.029109495 0.0061797923
000050 49 88 b0 bc d0 f6 99 bb 13 66 8a 3b db 17 81 bc
       -0.02154936 -0.004698612 0.004223594 -0.015758445
000060 aa 33 49 bc 87 2f 29 bd 5b 58 75 3c 5e 56 fb bc
       -0.012280384 -0.04130509 0.014974679 -0.030680832
000070 b4 62 34 3c f6 27 b0 bc e2 82 fd bb f2 03 a1 3b
       0.011009861 -0.02150343 -0.0077365497 0.0049138004
000080 e1 03 29 bb 00 bd 16 3c 94 00 b6 bc 50 26 85 bc
       -0.0025789666 0.009200335 -0.022217073 -0.01625362
000090 70 f5 02 bd 0b 50 f6 3b 47 0d 31 3c 54 ac 1c bb
       -0.03197235 0.007516866 0.010806388 -0.0023906427
0000a0 c5 0c 90 3c af 99 2a 3d 27 44 35 bd 61 c5 b6 bc
       0.017584214 0.04165047 -0.04425445 -0.022310914
0000b0 40 00 8c 3c f2 b7 72 3c 97 81 53 3c 7b c4 8b bc
       0.017089963 0.014814364 0.012909315 -0.017061463
0000c0 a6 1b 6f bb 2a 5b f9 bb 3b 88 08 bc 9c 44 b0 3c
       -0.0036484986 -0.0076097446 -0.008333261 0.02151709
0000d0 c6 fd c1 3a 98 66 bd 3b 96 48 01 bd b7 ed 64 bc
       0.0014800362 0.0057800524 -0.031563364 -0.013972691
0000e0 86 04 32 bc 33 3b 20 3d e6 a4 a2 bc e2 9a 53 bc
       -0.010865336 0.039118957 -0.01985402 -0.012915345
0000f0 f2 19 d2 3c 17 ee ff 3b 1b 19 fe bb be 3c 40 3d
       0.025647137 0.007810365 -0.0077544576 0.04693293
000100 fb 67 0b 3d 3a 39 46 3c 7d 3b bc bc 7a a4 22 bc
       0.03403471 0.012098605 -0.022977585 -0.00992691
000110 d0 96 a1 3c 64 31 ed 3b ed 6c 11 bd d7 53 19 3d
       0.019725233 0.007238554 -0.03550427 0.03743347
000120 85 aa 04 3b 8c 5b 22 bd 6f 8a 9d 3b df b7 01 bb
       0.002024324 -0.039638087 0.0048077623 -0.0019793434
000130 38 86 8b bb 81 ce 1e 3d 7d 2c 59 bd 05 d2 e0 bc
       -0.0042579435 0.038771156 -0.053020943 -0.027443895
000140 5d 61 e1 bc 09 b0 3a bd 90 4f 20 3d 46 b2 bf 3c
       -0.027512247 -0.045578036 0.039138377 0.023400437
000150 9e 77 1c 3d a9 3f f7 bb 1a d2 01 3d 6c 64 2b bd
       0.038200013 -0.0075454307 0.03169451 -0.041843817
000160 d5 1e 3e 3d 85 f0 13 3c 33 dd 30 3d 08 e6 e8 3b
       0.046416122 0.009029512 0.043179702 0.0071075
000170 1b 84 5c bb f9 5c 51 3c c9 da 95 bc 46 6c 47 3d
       -0.0033648077 0.012778514 -0.018292801 0.048687242
000180 29 c8 17 bd e5 24 59 3d 7b 6b 17 bd e0 1d 9d 3c
       -0.037056122 0.0530137 -0.036967736 0.019179285
000190 1a c5 2d 3c 7b 93 3a 3b f9 48 d3 3c 59 10 af bc
       0.010606075 0.0028469253 0.025791632 -0.0213701
0001a0 00 e1 48 3c 18 36 0e 3c 10 ef 44 bd 01 92 b3 3c
       0.012260675 0.008679889 -0.04807955 0.021920206
0001b0 c4 90 dd 3b 2c b0 9c bc c5 94 15 bd 3c 10 3d bb
       0.006761642 -0.019126974 -0.03651883 -0.0028848788
0001c0 18 3a 0e 3d 1e 46 73 3d 88 0c a4 3c da 33 2f bd
       0.03472337 0.05939304 0.020025507 -0.04277406
0001d0 56 ef 45 3c 5d 2c 35 3d 8e 39 11 3c ee 39 19 3c
       0.012080988 0.04423176 0.00886382 0.00935219
0001e0 9c 7b 01 3d 01 9a 7f bc cc 49 d3 bb a4 51 22 3d
       0.031612024 -0.015600682 -0.0064480063 0.03962864
0001f0 f8 32 2a 3c ff 0b fd bc ad 28 3d 3c 48 95 44 bd
       0.010388128 -0.03088951 0.011545342 -0.04799393
000200 14 1b 60 3b f4 2a 8f bc bb b5 04 bd 14 92 ce 3c
       0.0034195827 -0.017476536 -0.032399874 0.02521614
000210 6f 12 9e 3b a9 0d 10 3d ad 31 09 bc 07 ed 36 bc
       0.004823975 0.035169277 -0.00837366 -0.01116491
000220 95 02 f4 bc 85 a3 d1 bb f4 f4 e1 3c 92 f1 b1 3c
       -0.029786387 -0.006397667 0.027582623 0.021721635
000230 6e 66 9c 3b 94 70 20 bb b7 4b 49 3d 5b 0b b9 bc
       0.0047729528 -0.0024481164 0.049144473 -0.022588423
000240 10 19 5d bc 1b bd c8 bc 07 80 b8 bc 10 87 54 3c
       -0.013494745 -0.024504235 -0.022521986 0.012971655
000250 00 ee 04 3d 15 0a c9 3c 07 88 cc 3c d7 3e 34 bc
       0.032453537 0.02454094 0.024967207 -0.01100131
000260 46 19 c0 bc 49 f4 6f bc e7 d6 a1 bc db cb 4b bc
       -0.023449551 -0.014645644 -0.019755794 -0.01243874
000270 db 74 64 3d 7b 6d 2c 3d 62 3f 7a bc 28 e3 83 bc
       0.055775505 0.042096596 -0.015273901 -0.016099527
000280 e2 9c f8 bc dd c3 e2 3c 97 31 85 bb 70 22 32 bb
       -0.030348245 0.027681286 -0.0040647495 -0.002718117
000290 69 11 86 3c e2 49 c8 bc b9 76 cf bb a2 1d 97 bc
       0.016365724 -0.024449293 -0.0063312915 -0.018446747
0002a0 10 fe 02 3c 60 91 1a 3b 52 3c 10 bd 32 18 c4 ba
       0.0079951435 0.0023585185 -0.035213776 -0.0014960824
0002b0 f2 db b7 bc 87 41 c1 3c 50 c5 00 bd 78 92 1b 3d
       -0.022443745 0.023590816 -0.031438172 0.03798148
0002c0 00 0c 4e bb 4c 57 86 bb 39 d4 7c bc 54 aa f0 bb
       -0.0031440258 -0.004099762 -0.015431457 -0.0073445234
0002d0 24 4e d1 b9 48 fc 88 3c 8e 65 d9 bc fc e3 ef 3b
       -0.00039921806 0.01672186 -0.026537683 0.007320879
0002e0 29 5a 1b bd f1 20 1c bc 85 e9 b2 3c 47 94 40 bc
       -0.03792778 -0.009529338 0.021839866 -0.011754102
0002f0 a6 2e 90 bb f2 c0 19 3d 37 41 4a bc 54 dc dc bc
       -0.004400092 0.037537523 -0.01234465 -0.02696053
000300 a4 0a a2 3c 7f 39 cd 3c 96 c7 d9 3b 0b eb 85 3c
       0.019780464 0.02505183 0.006646107 0.016347429
000310 eb 73 3a 3c e3 1d 27 bd b2 d3 7a 3b db 28 6d bc
       0.011380176 -0.040799987 0.0038273153 -0.014475073
000320 dc a2 bc 3c 40 61 f7 bc ad 30 9e ba ad 8a ce 3c
       0.023026876 -0.03019774 -0.001206895 0.02521261
000330 dd 38 51 bc 1f 08 59 bc 56 fe 28 bb ef 7c ab 39
       -0.012769905 -0.013246565 -0.0025786362 0.00032708744
000340 2f c9 bc bc ba 72 d2 bc 22 b9 31 3d 8a bb e8 3c
       -0.02304515 -0.025689472 0.043389447 0.028409738
000350 77 aa b2 3a d6 f1 46 bc bd f1 0b bd 42 1a 82 bc
       0.0013631125 -0.012142619 -0.034166086 -0.015881661
000360 0e d6 82 bc 09 83 dc 3c d7 cf 82 bc 8c be 9c bb
       -0.01597121 0.026917951 -0.015968246 -0.004783457
000370 ff 07 37 3b 23 fd c5 3c 4c dc 2d 3c 37 f7 9f ba
       0.002792835 0.024168557 0.010611605 -0.0012204413
000380 27 d0 82 bb 53 2d b5 3b 2e 81 8a bc 24 64 cf bb
       -0.003992099 0.0055290847 -0.0169073 -0.0063290764
000390 0e 93 b8 3c b9 68 ec 3c 92 65 0c 3b c4 ba 04 3c
       0.022531059 0.02885853 0.0021422845 0.008101169
0003a0 c3 99 e5 3c b6 c4 89 bc 93 91 e9 3c 61 66 16 bc
       0.02802742 -0.016817432 0.028511798 -0.0091796825
0003b0 16 e2 8f bc 2a 71 22 bc 5d f9 09 3d 00 30 19 3c
       -0.01756386 -0.009914676 0.033685077 0.009349823
0003c0 1b 9d 54 3c 47 1b ba bb 24 85 dd bc 5b ed 81 3c
       0.01297691 -0.0056795212 -0.027041025 0.01586025
0003d0 84 e3 71 3b 06 0c b2 bb 2e 7e 23 3d 92 e3 35 3c
       0.0036909292 -0.005433562 0.039915256 0.01110162
0003e0 2c 97 f5 ba 7a bc e9 3c 4e 86 d0 bc de 27 91 bc
       -0.0018737069 0.028532255 -0.025454666 -0.017719205
0003f0 49 b5 f9 3b fe bd 1c bc e3 ef 3a bb d0 c6 49 bb
       0.007620488 -0.009566782 -0.0028524331 -0.0030788668

position_embedding.weight f4 [30, 64]
000000 98 dd 7f 3c 7a 07 c0 bb cb 4d ba bc 1f 75 c3 bc
       0.015616797 -0.0058602663 -0.022742173 -0.023859559
000010 3c fa 35 bc 63 ce c9 bc 05 3d 35 bd 69 22 36 3d
       -0.011107024 -0.024634546 -0.044247646 0.04446641
000020 87 27 f4 bc 1a d7 38 bd e1 00 41 3c bd 75 70 bd
       -0.029804004 -0.04512701 0.011779995 -0.058706034
000030 81 85 78 3c 98 3c be 3c cf 0e 06 bd cb 7e d4 bc
       0.015168549 0.023222253 -0.032728966 -0.025939366
000040 2d 9e e8 3c 6b 44 26 bc c2 54 a2 3c d7 74 75 3c
       0.028395737 -0.010148148 0.019815806 0.01498147
000050 ce 80 31 3d 4a be 1a bd 3e 85 46 3d c0 48 0f bd
       0.04333573 -0.03777913 0.048466913 -0.03498149
000060 eb c3 d9 3c f9 80 f8 bb 86 94 00 ba dc b4 6b ba
       0.026582679 -0.007583734 -0.0004904944 -0.0008991489
000070 4c cd 48 bd 8d b3 67 3d 1e 65 7f bd e4 8a af 3c
       -0.04902391 0.056567717 -0.062352292 0.021428533
000080 5f 6b 0c bd 08 50 fe bc 4f 11 01 bd 2f 5a aa 3b
       -0.034282085 -0.031044021 -0.031510647 0.005198739
000090 e5 8f 2c bc 0f 9a 73 bd ef 2d 59 3d b1 20 30 bd
       -0.010532354 -0.059473094 0.05302232 -0.042999927
0000a0 9d e1 88 3c 68 20 0f bd 31 b4 12 bd c3 92 a9 bc
       0.016709143 -0.034943014 -0.035816375 -0.020699864
0000b0 59 ed bf bb a2 23 6b bc c4 09 0c bd 80 94 af bc
       -0.0058571515 -0.014351757 -0.034189 -0.021433115
0000c0 ef 51 a9 3c f3 55 06 3d b1 44 44 bc 55 ec 85 bc
       0.020668952 0.03279681 -0.011979268 -0.016348043
0000d0 f1 26 90 3c 32 ad 53 3c 59 fd c6 3c 98 d1 12 bc
       0.017596694 0.012919711 0.024290727 -0.008961104
0000e0 02 4f 1c 3d 24 a2 bc 3c a7 e8 2f bb 4e 14 0b 3d
       0.038161285 0.023026533 -0.0026841552 0.03395491
0000f0 80 7a 1c bb 1f 35 10 bd a0 84 f7 b9 20 0a 28 bd
       -0.0023876727 -0.03520691 -0.00047210325 -0.04102528
000100 cc bd f6 bc e1 db 24 3c 80 ea 99 b9 0c 18 db 3c
       -0.0301198 0.010062189 -0.0002935715 0.026744865
000110 78 f8 bc 3b d2 02 04 3d a3 80 b0 3d f1 4a d9 bc
       0.0057669245 0.032229252 0.086182855 -0.026524993
000120 78 07 03 bd ee 7c 87 3a b1 6a 21 bb fe 8a 63 bc
       -0.031989545 0.0010336915 -0.0024630243 -0.013888119
000130 c2 32 db 3c 36 52 73 bd 23 95 e8 3c 94 d4 cf 3c
       0.026757602 -0.059404574 0.028391426 0.02536992
000140 aa 39 1d 3d a2 af 6f 3b d1 eb 02 bd ed 0f fa bb
       0.03838507 0.0036573191 -0.031963173 -0.007631293
000150 f5 99 85 bc 96 42 07 3c 63 46 1a bd 89 90 4a bb
       -0.016308764 0.008255621 -0.037664782 -0.0030908904
000160 21 1d 0d bd 12 52 3a bc 1e 49 8a 3c f6 63 0d 3c
       -0.034451608 -0.011372106 0.016880568 0.00862979
000170 58 8b c1 3c b3 cc bd bc 72 67 5c 3d 40 a2 8d 3b
       0.023626015 -0.023168897 0.05380959 0.00432232
000180 32 88 66 3d 10 1a f6 ba e8 39 1c 3d 40 55 d0 3b
       0.05628223 -0.0018776078 0.03814116 0.006357819
000190 31 8c d3 3b 8a 64 d2 3c 1c 6a d4 bc 82 b4 51 3c
       0.006455921 0.025682706 -0.025929503 0.012799384
0001a0 f3 ec ac bc 1c 84 36 3d 97 c8 ec 3c c0 de d9 3c
       -0.02110908 0.044559583 0.028904242 0.026595473
0001b0 90 70 e3 bc a5 bc eb bc 42 56 f3 3c f1 33 7a 3c
       -0.027763635 -0.028776476 0.029704217 0.015271173
0001c0 72 49 1d bc 66 4c dd bc 0f f8 c2 bc 79 0c e7 3c
       -0.00960003 -0.027013969 -0.023799924 0.02820419
0001d0 6b 2a f1 bc 4d dc a1 bc 0a 0b 34 3a 6f 87 db 3b
       -0.029439172 -0.019758368 0.00068681 0.0066994946
0001e0 df d3 00 3c db 78 10 bc 10 79 17 bc 51 ac 6a bc
       0.007863014 -0.008817877 -0.009245172 -0.01432331
0001f0 36 f8 60 3d c8 bf 95 3c 23 88 47 bd 73 27 0d 3d
       0.054924212 0.018279925 -0.048713814 0.03446145
000200 84 6b 1f 3a d7 bd 9d bd ac 49 27 bd fe 3f 06 3c
       0.000608139 -0.07702225 -0.040841743 0.008193968
000210 e4 60 71 3d 50 1b 77 3d 1e fb a0 bb 32 5e c8 3c
       0.058930293 0.06032878 -0.004912748 0.024458978
000220 f9 3d 6b 3d af 2f 62 3c 12 61 8a 3c 2d 21 7d bd
       0.05743215 0.013805314 0.01689199 -0.061799217
000230 59 fc 5c 3d eb f7 9e 3b 3e 3e 3b bb 92 51 3f 3c
       0.053951595 0.0048513315 -0.0028571035 0.011677163
000240 0e d7 18 bd be ea 95 bb 87 21 66 bc 0f 7b c2 bc
       -0.037314467 -0.0045751026 -0.0140460795 -0.02374032
000250 bf 38 a5 bc 14 5f 2e bc 1f ca 0a 3d 8a ba 57 bc
       -0.02016866 -0.010642786 0.033884164 -0.013167033
000260 8e f0 81 3c c1 bc 79 bc c7 f1 58 3d f3 48 5e 3d
       0.015861776 -0.015242756 0.05296495 0.05426879
000270 11 77 73 bb 75 01 65 bd 4f c5 9a bb 37 63 80 3b
       -0.0037149827 -0.055909593 -0.004723228 0.0039180773
000280 d5 3f fa 3a 78 cc 38 3d c4 54 ee 3b ba e2 c1 3d
       0.001909251 0.04511687 0.0072732884 0.09467073
000290 46 08 75 bd 22 d6 42 bd 93 66 ab b9 20 b3 d4 bc
       -0.059822343 -0.047567494 -0.00032692085 -0.02596432
0002a0 2d c2 7b bc 0d 66 7b 3c 78 d6 b9 bc 24 88 07 bd
       -0.015366119 0.015344155 -0.022685274 -0.03308882
0002b0 c9 17 5f 3d a4 6b d0 b9 a0 9b 98 bc bc 0d 97 bd
       0.054466043 -0.0003975305 -0.018628895 -0.073756665
0002c0 55 ac b9 bc cb 81 12 bc 2e 6f f5 3c 0c 81 4e bd
       -0.022665182 -0.008942078 0.029960241 -0.050416037
0002d0 c8 d3 9c 3c 5a 29 4b 3d 77 e0 db bb a1 a6 40 3d
       0.019143954 0.049599983 -0.006710108 0.04703391
0002e0 3a 56 d8 3c 53 d5 19 bc 1e 90 9a bc 64 6c 7e 3a
       0.026408304 -0.009389239 -0.018867549 0.00097054825
0002f0 1e 45 08 3d 9b 19 4f 3d 63 f3 b3 3d cf 3c ce 3c
       0.03326904 0.05056153 0.08786657 0.02517548
000300 b6 d1 49 3d 45 e9 84 3d 82 29 31 bd a8 fb 34 3d
       0.04927226 0.06489805 -0.043252476 0.04418531
000310 ce c2 36 bd f9 65 a1 bc 81 72 62 3c 45 3c 42 3d
       -0.044619374 -0.019701945 0.013821245 0.04742076
000320 ea 21 85 bd c3 c2 e0 bc b8 86 9a 3b 8d 82 e8 3c
       -0.06500609 -0.02743662 0.0047157668 0.028382564
000330 fa 9c 75 bc 8b e5 de bb c8 68 00 bd 92 13 10 3c
       -0.014991039 -0.006802266 -0.031349927 0.008793728
000340 bd cb 8d 3c 65 ef 3e bb 0e 17 1b bb 81 9d f8 bc
       0.017309064 -0.002913439 -0.0023664865 -0.030348541
000350 3d 4d 33 ba 44 68 fd 3c de 5a 98 bc 5c f5 fc 3b
       -0.00068398175 0.030933507 -0.018598016 0.007719679
000360 cd 3d 2e 3d be ff 58 bd 12 16 46 bd 97 b4 55 3d
       0.042539407 -0.05297827 -0.04836089 0.052174177
000370 d6 4e 4c 3d 64 4c e5 3c ac 5f a4 3c e1 0e da 3c
       0.04987987 0.027990527 0.020065151 0.026618423
000380 08 e0 be 3b 54 f6 49 bd be 2b 0e 3d 42 1a a2 bc
       0.0058250464 -0.049307182 0.034709685 -0.019787911
000390 3f 8f bd 3c 3d d7 4a 3c ee f4 d8 3c 6e c7 cd bc
       0.023139594 0.012380418 0.02648398 -0.02511951
0003a0 ef 2d 55 bd 7e 22 4a bd c5 81 a3 3c 4a 18 31 bc
       -0.05204576 -0.0493493 0.01995934 -0.010809014
0003b0 d0 71 39 3d b9 7b b0 3c 78 b5 48 3c d2 02 43 3c
       0.045274556 0.02154337 0.012250297 0.011902528
0003c0 b4 f4 64 bc c7 a3 5a 3c cf b8 36 bc 4b a4 10 3d
       -0.013974357 0.013344712 -0.01115246 0.035312932
0003d0 0e ab 30 bd 4a dc 0c bd 80 67 34 3c fb a0 84 bc
       -0.04313188 -0.03438977 0.011011004 -0.016190043
0003e0 e9 00 40 3d c5 c7 0a bd 19 3e f1 3c 2e 9a 06 3d
       0.046875868 -0.03388192 0.029448556 0.03286188
0003f0 4f 40 b1 3c 92 f0 0a bd 75 72 bd bc 94 59 3a 3d
       0.02163711 -0.033920832 -0.023125866 0.045495585

transformer.layers.0.self_attn.in_proj_weight f4 [192, 64]
000000 fe f6 11 3e 2d 9b 4a 3d f8 bc 27 3e 8f 54 10 3c
       0.14254376 0.049464393 0.1638068 0.008809223
000010 ae 98 18 3e 30 59 c5 bd c7 2d 15 3e 57 3e 0d bc
       0.14901993 -0.09636152 0.14568244 -0.00862082
000020 a5 0c 3d 3e 49 4f 33 3d 12 34 fb 3d 7e d5 5f 3e
       0.18461855 0.043776784 0.12265791 0.21858785
000030 05 6a 51 3e 65 47 b6 3d ce d0 a5 3d 4a 73 73 3d
       0.204506 0.08900336 0.08096467 0.05943612
000040 e8 07 1c be fe 50 44 bd ea 3a 83 3d 9c df 45 3e
       -0.15237391 -0.047928803 0.06407721 0.19323581
000050 c7 0b 6c 3d b0 6d 07 bb 0a f5 80 bd da 6c 9a 3d
       0.05762842 -0.0020664744 -0.062967375 0.07540293
000060 eb 08 25 be 29 ab 05 3e 81 76 90 3d 35 e1 78 3d
       -0.16116683 0.13053574 0.07053853 0.06076165
000070 f4 be 9d 3c ec 96 18 3c c1 87 4a bc 07 ed c9 3d
       0.019256093 0.009313326 -0.012361468 0.098596625
000080 19 a1 1e be 89 2b 3a 3e 2f d8 70 bd 05 76 e1 bd
       -0.15491141 0.1818067 -0.05879992 -0.110088386
000090 97 82 b6 bc dd 7a 6a 3d ca bb eb 3d 65 1e 47 3e
       -0.022279067 0.057246078 0.11510427 0.19445188
0000a0 25 df 11 3e 9b 58 a3 bd a5 2a 95 3d a7 b7 4b 3d
       0.14245279 -0.079758845 0.072835244 0.04973569
0000b0 68 44 79 3d 19 26 36 3d 46 f5 e7 bc 84 14 92 3d
       0.060856253 0.044469927 -0.028315198 0.07132819
0000c0 6b e2 ee 3d 83 05 12 3d a9 24 0f be d2 70 85 bd
       0.116642796 0.035649788 -0.13978828 -0.065156594
0000d0 3c e6 d6 3d 82 8c 34 3e 9c 66 90 bd 01 4e 24 3e
       0.104931325 0.17631724 -0.07050821 0.16045381
0000e0 18 d2 b6 bd 4a 7e 5c 3e 15 7a fd bd 73 0c 7c 3d
       -0.08926791 0.2153255 -0.12376801 0.06153531
0000f0 c7 ba 46 bd 3c bb b7 bd 96 94 01 be 69 c1 55 3d
       -0.04851797 -0.08971259 -0.12654337 0.052186403
000100 b7 88 bd 3d 80 d0 eb bd 65 9c 6e 3d dd 1a a8 3c
       0.09254592 -0.115143776 0.05825462 0.020520622
000110 19 96 9a 3d 21 31 7b bd 5b fb 43 3c 0d 73 18 be
       0.0754816 -0.06132615 0.011961783 -0.14887638
000120 ee e3 0f 3e 70 70 9a 3d 19 38 03 3c 29 7e a4 bd
       0.14051792 0.07540977 0.00800898 -0.08031876
000130 d2 50 df 3d c0 5d 87 3c 45 34 2c 3d 35 d9 c4 bd
       0.10904087 0.016524196 0.042042036 -0.096117415
000140 0f 08 bc bd ee 85 16 3e 17 49 c2 3d f5 d8 14 bd
       -0.091812246 0.14699528 0.09486597 -0.03633972
000150 3f 75 01 3d 09 47 42 3d 88 ed 1e 3b 80 83 0d 3e
       0.031605955 0.047431026 0.0024250466 0.13819695
000160 62 8e 22 3d aa 67 04 3b cf c3 6c 3b 07 de 27 bd
       0.039686568 0.002020339 0.0036127453 -0.040983226
000170 cf cc a5 3d b2 c4 0e 3e b3 f0 88 bd 85 80 20 be
       0.08095705 0.13942221 -0.06686535 -0.15674026
000180 61 a7 f7 3c 76 77 c4 bd c6 b1 90 bc e0 ae b1 ba
       0.03023118 -0.09593098 -0.017662894 -0.0013556145
000190 bb 30 f7 3c 98 6e 06 be a7 90 1e be 81 39 24 3e
       0.030174604 -0.13128126 -0.15484868 0.16037561
0001a0 5c 47 cd 3d 89 34 ab 3c 5d c4 12 3e af 97 a4 bd
       0.10023376 0.020899074 0.14332719 -0.08036744
0001b0 d3 5e 12 be 06 b2 23 be 64 12 f0 bd 1c 8f cc 3d
       -0.14293985 -0.1598588 -0.11722258 0.099882334
0001c0 49 bd 0f 3e b6 25 05 3d 57 59 6b 3d a0 1a f8 3d
       0.1403705 0.032506667 0.057458248 0.12114453
0001d0 da 98 95 bd 37 f5 5b bd a5 4d f5 bc 07 e7 86 3d
       -0.07304545 -0.053700652 -0.02994425 0.06587034
0001e0 68 93 52 bd a1 cc c1 3d 69 3b 21 be ba f1 13 3e
       -0.05141011 0.09462858 -0.1574532 0.1444768
0001f0 0d b8 1c 3c 2f 4f e4 bd 38 0b 61 3c dc 63 e7 3d
       0.0095653655 -0.111479156 0.013735585 0.112983435
000200 d1 1c 87 3d 24 93 e9 bd ba c5 28 be d7 61 be 3b
       0.06597293 -0.11405018 -0.16481677 0.0058100033
000210 f0 0d 69 bd a2 0f 3f 3d b0 97 ff bd b1 6b e1 bc
       -0.056898057 0.046645768 -0.12480104 -0.027517172
000220 62 52 9c 3d c0 ec bd bd b7 bb e0 bd 19 36 e5 3c
       0.07632901 -0.09273672 -0.10973304 0.027979897
000230 93 8b 0b 3c 89 57 6d bd da 75 47 be d8 d2 27 be
       0.008517164 -0.05794481 -0.1947855 -0.16389024
000240 9a 12 c5 bc 4e 22 81 3d 47 71 a2 3d e6 14 4e bd
       -0.024056721 0.06305371 0.07931762 -0.0503129
000250 68 93 71 3d b9 2d 0b 3e f2 2d 0a 3e 6b 2a 0a be
       0.05897847 0.1359166 0.13494089 -0.13492744
000260 3d 85 8d bd cb 7c 4d 3d 24 be 08 3e 97 8f e9 3d
       -0.06910179 0.05016784 0.13353783 0.11404341
000270 be 66 1b be 03 0a a4 bd 79 e0 10 be 8e 25 79 3d
       -0.15175912 -0.08009722 -0.1414813 0.06082683
000280 c6 cf 9d bd fe ce 83 3d df 8d 7b bd e1 34 27 3e
       -0.07705645 0.06435965 -0.061414596 0.16328765
000290 7f f2 b3 3d 46 17 54 3c 66 5f 33 3d d1 8f 07 be
       0.08786487 0.012945002 0.04379215 -0.13238455
0002a0 93 68 d4 bd d6 a8 c1 3c 51 d5 14 3d ed b2 27 be
       -0.103715084 0.023640078 0.036336247 -0.16376849
0002b0 f7 7c 2a 3e f3 69 87 3d bd 14 63 bc d8 9e a0 bd
       0.16649233 0.06612005 -0.013859925 -0.07842797
0002c0 2d d2 23 be 48 c0 f3 bd 53 89 13 3e 4d c6 c5 3c
       -0.15998144 -0.11901909 0.14407854 0.024142409
0002d0 c6 dc bb 3d f7 25 e7 bd e7 47 04 bd 88 e4 04 3e
       0.091729686 -0.11286538 -0.032295134 0.12977803
0002e0 94 e1 cd bd 09 7d 99 3c 97 d9 d9 bd af 81 f2 3a
       -0.10052791 0.01873638 -0.10637205 0.0018501783
0002f0 1b ce 00 bd d7 93 92 bc 63 18 f6 bd 6d 1e 6a 3d
       -0.031446557 -0.017892761 -0.1201637 0.057157923
000300 ed 57 01 bd 17 0d 96 3d 51 ca 98 3d b8 c2 ec 3d
       -0.031577993 0.073267154 0.07460464 0.11560577
000310 e9 7f f5 3d 61 d2 6d bd 7d 35 e5 3d d6 90 31 bd
       0.119872876 -0.05806196 0.11191843 -0.043351017
000320 1f 60 19 be e4 6f be 3d 89 c7 1a 3e 9b c9 f6 bd
       -0.14978074 0.09298685 0.15115179 -0.12050172
000330 6a fe 7c 3d f4 bf 23 3e 38 15 23 be 3e 7d 09 3e
       0.061766066 0.15991193 -0.15926063 0.13426682
000340 e9 ea 80 bd 1b a1 e2 3d 9d 9b a1 bc 10 c7 85 3d
       -0.062948056 0.11065885 -0.019727523 0.06532109
000350 ac 41 fa 3b 75 c4 93 3c 99 17 aa 3d f6 28 10 3e
       0.007637223 0.018038014 0.08305282 0.14078125
000360 3d b1 3e 3d 8d 86 2a be f7 38 8c 3c 10 40 1b 3e
       0.046555746 -0.1665289 0.017117007 0.15161157
000370 a0 de 33 3d 71 35 10 bd c8 fa a6 3d f4 9d bf 3d
       0.043913484 -0.035207216 0.081533015 0.09356299
000380 c8 ff a4 bd 64 11 53 bd 08 5f ba 3a aa 1a 08 3d
       -0.08056599 -0.051530257 0.0014218995 0.033228554
000390 4b 63 8a 3c ab 0e fa 3c 19 cc ae 3d d0 30 ed bd
       0.01689305 0.030524572 0.08535022 -0.11581576
0003a0 3a 21 6a bd c3 c3 dd 39 b6 05 f2 bd 6d 05 04 be
       -0.057160594 0.0004229826 -0.118174955 -0.12892695
0003b0 64 aa 96 3d 7b ab 7a 3d c9 cf fa 3c fa 5a 34 be
       0.07356718 0.061198693 0.030616658 -0.1761283
0003c0 7f 2d ee 3c 70 1c 34 3d 45 ab b1 3d c2 26 f4 3d
       0.029074429 0.043972433 0.08675245 0.11921455
0003d0 16 bd 58 bd f8 8c ed bd 82 a8 8b 3d 52 e6 a2 bd
       -0.0529147 -0.11599153 0.0681925 -0.07954086
0003e0 d2 66 7a 3d da 64 cf bd 98 3c d0 bd dc 3f b6 3c
       0.061133213 -0.10126658 -0.10167807 0.022247247
0003f0 be 0c c5 3d fb 12 d9 bd 36 f2 9e 3d b1 69 ba bc
       0.09621571 -0.10599323 0.07761042 -0.022755476

transformer.layers.0.self_attn.in_proj_bias f4 [192]
000000 51 b9 0e 3d fb 7a c4 3c 3e 77 7c bc 9e 28 d5 bc
       0.0348447 0.023984423 -0.015409289 -0.026020344
000010 07 26 41 bc da 25 1d 3c 8e 10 3e bc 15 07 06 3c
       -0.011788852 0.009591544 -0.011600627 0.008180399
000020 2e 12 64 bd af c3 f9 bc 2d 62 5a bd 11 66 36 3c
       -0.0556814 -0.030488817 -0.053316284 0.011132733
000030 0c b8 a0 3b 19 83 6c 3c 26 57 57 3c f3 a4 26 bd
       0.0049047526 0.014435553 0.013143336 -0.04068465
000040 b7 99 d1 bd 3b 34 10 3d 83 30 99 3b 64 0b 80 3d
       -0.10234397 0.03520606 0.0046749725 0.062521726
000050 b5 ed f3 3c 14 16 18 bc 25 9b 65 3d 6c 82 b6 3c
       0.029776433 -0.009282608 0.05605616 0.022278987
000060 af f9 f6 3c 69 dd a7 bc ea 70 25 3a 24 9e 7f bc
       0.030148355 -0.020491319 0.0006311076 -0.0156016685
000070 c5 f2 8c bd fd 92 c1 bc 0f ae b5 3a 0a 03 a1 3c
       -0.06882242 -0.02362966 0.0013861078 0.01965477
000080 6b 63 2f bc d2 a0 a5 bc 9b d1 33 bc 41 bd 28 3c
       -0.010704855 -0.020218287 -0.010975267 0.010299028
000090 b0 86 23 bc 9d 6d 8a ba 69 6a cc 3c de 77 5a bd
       -0.0099808425 -0.0010561232 0.024953084 -0.05333697
0000a0 fb 5e 43 3b 1b 0e 8a bb e7 3c 24 3d 44 28 b8 bc
       0.0029811251 -0.0042131073 0.040097144 -0.022480138
0000b0 74 4a 13 bc d7 43 97 bc b4 1f 4e bc 2b 5a 0b 3b
       -0.008989919 -0.018464966 -0.012580801 0.002126346
0000c0 82 93 90 bc 28 05 08 ba 9a d7 0f 3c 11 cf 8d 3c
       -0.017648462 -0.00051887566 0.008779431 0.017310651
0000d0 d5 cc 51 bc 5b b9 19 bc 16 67 db 3b 20 ba 9e 3b
       -0.012805183 -0.009382571 0.0066956384 0.004843965
0000e0 0f 9a 01 3c 5f ef 08 bb 48 66 a1 bc 7e ce 61 bc
       0.007910266 -0.002089463 -0.019702092 -0.013782142
0000f0 ce d3 cb bc 4e 99 88 bb f6 9e 9b 3c a3 91 90 3c
       -0.02488127 -0.004168666 0.018996697 0.01764757
000100 11 92 8a b5 14 3c 1f 36 8c 52 1d b6 00 4f aa 34
       -1.0324312e-06 2.3727816e-06 -2.3442872e-06 3.1722448e-07
000110 a4 5a 2b 35 a0 29 5a b4 bb e6 3f b5 68 48 cc b4
       6.3834364e-07 -2.0317975e-07 -7.14888e-07 -3.8050644e-07
000120 b8 bb 2d 36 07 78 b3 b5 f6 70 ef 35 c4 90 5e b5
       2.5888276e-06 -1.3371472e-06 1.7839764e-06 -8.2912106e-07
000130 6f ad 27 b5 e4 65 52 b5 ac 46 3d b6 81 20 7b 35
       -6.2464727e-07 -7.8379367e-07 -2.820433e-06 9.3552086e-07
000140 44 57 f7 35 f4 2d ac 35 5d 16 64 36 58 af 10 36
       1.8428332e-06 1.2828373e-06 3.3987665e-06 2.1559736e-06
000150 ff bc f9 36 66 76 db b6 37 0f 27 36 70 13 87 35
       7.4427803e-06 -6.540492e-06 2.4893795e-06 1.0063941e-06
000160 44 13 08 36 05 0e f8 b2 a9 9d 54 b5 d0 3a 6c b5
       2.0276793e-06 -2.8877375e-08 -7.920558e-07 -8.8002434e-07
000170 da 22 db b5 9d dc 91 35 80 74 06 b6 5b 27 bc 35
       -1.6326915e-06 1.0867549e-06 -2.0035368e-06 1.4018545e-06
000180 5d ba b0 b6 33 ee 75 35 8a a7 7c b6 a5 b0 bf 36
       -5.2669043e-06 9.161624e-07 -3.7648447e-06 5.7128077e-06
000190 5c 62 79 33 46 39 9c b5 29 90 3f 36 72 73 3b b6
       5.8064288e-08 -1.1639574e-06 2.854513e-06 -2.793237e-06
0001a0 d2 ac 2f 34 d6 b0 82 b6 34 a6 cd 36 bb b2 b2 b4
       1.6361017e-07 -3.8948883e-06 6.1288247e-06 -3.3285127e-07
0001b0 a6 a1 89 b6 82 6e 1b 36 d8 3b ea 35 54 80 bf 35
       -4.1017365e-06 2.3161124e-06 1.7451775e-06 1.4267957e-06
0001c0 93 62 07 35 f5 e2 db 33 4d 3e be 36 50 08 17 35
       5.0434863e-07 1.02392654e-07 5.669694e-06 5.626398e-07
0001d0 1d 21 a2 35 bc 4e 3e 35 93 9d 12 35 1b 9b 5b b5
       1.2079578e-06 7.089509e-07 5.461854e-07 -8.1809566e-07
0001e0 60 f0 aa b5 8a 29 0c 36 f1 5d f3 b5 53 a0 a9 34
       -1.2735945e-06 2.0885805e-06 -1.8132251e-06 3.1595354e-07
0001f0 97 c8 76 b6 ee c4 43 35 94 ee e2 34 b6 00 55 33
       -3.6773615e-06 7.292973e-07 4.226937e-07 4.9593574e-08
000200 2e d9 19 bc 2e 29 cf 3b ff ca 67 bb 2f b1 32 3c
       -0.009390159 0.0063220477 -0.0035368798 0.010906502
000210 3c 84 2e bb e8 2c 1d ba 4d 93 fc 3a 29 ed 90 3b
       -0.002662911 -0.0005995766 0.0019269973 0.004422803
000220 71 13 bc bb fa ec c2 3a e7 20 92 3b 90 1e 7d 39
       -0.0057396223 0.001487165 0.0044594887 0.00024139346
000230 79 50 2d 3a b9 db 09 bc bf c8 ee 3b cf c4 e6 3a
       0.00066114176 -0.008414202 0.0072871144 0.0017606261
000240 c3 05 35 bc b1 34 74 3c b2 55 ca 3a 38 00 e2 3a
       -0.011048737 0.014905141 0.0015436916 0.0017242497
000250 57 25 0e 3b ed 77 26 3a f9 ae e2 bb 9b fa 17 3b
       0.0021689737 0.0006350268 -0.006917831 0.0023190144
000260 2f d8 73 bb 1e 4d 5b bb 92 e0 3f bb c9 03 b2 bb
       -0.0037207713 -0.0033462713 -0.0029278141 -0.00543258
000270 6f f5 c8 3a 99 5e a6 3b 95 90 98 bb 69 26 8c 3a
       0.0015331934 0.005077195 -0.0046559074 0.00106926
000280 90 80 91 bb e8 b8 9c 3b 80 71 3d 3a 20 81 b6 b8
       -0.0044403747 0.0047827847 0.00072266906 -8.702488e-05
000290 ad 82 7e bb 40 42 48 bb 97 6b 21 3a e0 53 aa ba
       -0.0038835213 -0.0030557066 0.0006157695 -0.0012994967
0002a0 af 2e d1 bb 1c 89 3b 3b 5e a8 87 bb 10 f8 b9 3a
       -0.006383739 0.002861566 -0.004139944 0.0014188308
0002b0 c3 5c 3d 3b 09 77 cf b8 81 e2 d3 3b 51 97 0d 3c
       0.0028894402 -9.892701e-05 0.0064662104 0.008642034
0002c0 e7 d7 3b 3c d1 f1 40 bb 02 e4 1e bb 38 90 e1 b9
       0.011465049 -0.0029441009 -0.002424479 -0.00043022796
0002d0 52 99 76 b8 6a 29 8d 3b 02 90 84 bb 3a be e2 ba
       -5.879376e-05 0.0043079155 -0.0040454874 -0.0017299124
0002e0 5f b8 90 bb f7 40 50 bb a5 2a 88 3b 1c 45 0e 3c
       -0.00441651 -0.0031777003 0.0041554742 0.008683469
0002f0 86 98 97 ba 72 9d 3e b8 f6 0f ef 3a 38 06 ac bb
       -0.0011565841 -4.5446162e-05 0.001823901 -0.005249765

transformer.layers.0.self_attn.out_proj.weight f4 [64, 64]
000000 40 ec d1 bc 73 f9 89 b9 cd ff 3d bd 03 5d aa 3b
       -0.025625348 -0.0002631653 -0.04638653 0.005199076
000010 a3 98 a5 3c fc 1f c1 bc a0 05 62 3c 52 a8 14 3d
       0.020214384 -0.023574822 0.013795286 0.036293335
000020 ea 8b 89 bb c6 b4 d7 bb 1b a6 a8 3c b5 9e 9e 3b
       -0.0041975873 -0.006582829 0.020587018 0.0048406967
000030 c0 33 50 3c ba d5 f3 3a d6 f7 ec bc e8 04 05 bd
       0.012707651 0.0018603124 -0.028926771 -0.032475382
000040 ec d1 3b 3c 74 1e 11 3d 36 01 26 bd 18 98 68 3b
       0.0114636235 0.035429433 -0.0405285 0.0035491046
000050 49 ed 44 bc 06 99 7c 3a 7e 63 cc 3c 31 04 9e bc
       -0.012019464 0.00096358394 0.024949785 -0.019289108
000060 43 7c 02 bc 2a c6 80 3c 84 a2 57 3b c2 2f f6 3a
       -0.007964197 0.015719492 0.0032903263 0.0018782543
000070 87 c8 86 3c 31 f7 00 bd a5 2d a9 3b 9b 24 c9 3c
       0.01645304 -0.03148574 0.005162912 0.024553588
000080 d9 b8 4d 3d 4a fa 42 3d 21 e1 33 3c 3e 49 11 3c
       0.050225113 0.047601976 0.010978968 0.00886756
000090 aa b5 97 bb 52 25 f0 bb 2d 4d 12 bb 60 c3 1d 3c
       -0.0046298103 -0.0073286677 -0.0022323832 0.009629101
0000a0 aa eb a1 bc bd a3 65 3c f4 d0 0c 3c 47 bf d0 3b
       -0.019765694 0.014016089 0.00859474 0.0063704583
0000b0 08 2c d2 ba 30 d2 c4 bc 56 79 a1 3c ae 22 9d bc
       -0.0016034851 -0.024026006 0.019711178 -0.019181576
0000c0 3d 85 05 bc fa 32 30 3b 90 00 2a 3c f4 22 e9 3b
       -0.008149442 0.0026885853 0.010376111 0.0071147624
0000d0 3d 17 4c 3c aa 1c 32 3c 80 bf 9d bb a8 1f fc 3c
       0.012456712 0.010871092 -0.0048140883 0.030776814
0000e0 5d 8d a2 bb 98 a8 03 3c 15 75 de 3c e9 78 9e 3b
       -0.0049606995 0.008035801 0.027155438 0.004836191
0000f0 32 06 08 bc 7a 65 01 bd d3 1a 39 bc e9 0b e0 bb
       -0.008302258 -0.031590916 -0.011297899 -0.0068373573
000100 30 f5 71 bc 7e 92 af 3c 6a 4c 37 bd 2a ac f9 bc
       -0.01476793 0.021432158 -0.04475061 -0.030477602
000110 2d 5d 1e 3c 08 64 92 bc 64 5c b4 bc df 14 a4 bc
       0.0096657695 -0.017869964 -0.022016712 -0.020029483
000120 8e 8d 2c 3d 71 04 34 3c f9 cb 89 bc 5a ed 19 bd
       0.042127185 0.010987387 -0.016820895 -0.03757987
000130 0f 48 ad 3b ca b6 94 bc 70 26 c8 bc 63 2d 3d bb
       0.005288131 -0.018153567 -0.02443239 -0.0028866164
000140 fd b5 33 3b 5b 70 d2 bc 16 b6 f7 bc 12 80 0b bc
       0.0027421706 -0.02568834 -0.030238193 -0.008514421
000150 8b c1 8b 3c d8 aa 3f bc 3a 24 0f bd f0 8d fe 3c
       0.017060062 -0.011698447 -0.034946658 0.03107354
000160 c9 60 ab 3a 03 d7 d7 bc f8 10 42 bc 45 8b c4 bb
       0.0013075109 -0.026347643 -0.011844866 -0.0059980475
000170 0d d5 63 3a ee 66 22 3c 3a 61 6e 3a f2 fe 01 3d
       0.000869111 0.009912236 0.00090934674 0.031737275
000180 32 d4 1f 3b 00 99 86 bc e0 43 00 3d 9c ea dd 3b
       0.0024387953 -0.016430378 0.03131473 0.0067723524
000190 d3 90 dc bc 52 33 bc 3c 64 a5 24 ba a9 66 00 3c
       -0.026924526 0.02297369 -0.00062807486 0.007836976
0001a0 98 37 43 3c 6c fe bf bc 51 0d 61 3b 25 de b1 3c
       0.01191511 -0.023436747 0.0034340213 0.021712372
0001b0 41 46 92 bc e2 87 f5 bc 54 aa 82 3c 9d 43 db 3c
       -0.017855765 -0.02997202 0.01595036 0.026765639
0001c0 aa 8e b0 3c 6a db 76 b9 0b 75 ae bc 79 48 f2 3b
       0.021552403 -0.00023542126 -0.021296045 0.0073938933
0001d0 0f 7a 6f 3c d3 99 b3 3b 7d 45 fb bb 81 5d 9d bb
       0.014616503 0.0054809838 -0.0076681958 -0.0048024063
0001e0 6d 6a 92 39 6c 69 33 bd 2f f0 7b 3c 54 b2 41 bc
       0.00027926583 -0.04380171 0.015377088 -0.011822302
0001f0 38 90 2e 3b 1f 7b 15 bd 34 49 ba 3c 37 a4 51 bc
       0.0026636254 -0.03649437 0.022739984 -0.0127954995
000200 c4 c5 93 bc 4f b6 ad 3c 37 f0 b9 bc 16 ba 46 bd
       -0.018038638 0.021205096 -0.022697551 -0.04851731
000210 00 1d 27 3c df 21 ab 3c ea ee 00 ba 9f 12 4c 3c
       0.010199785 0.020890174 -0.00049184135 0.0124556115
000220 e9 5a 99 bb ce 52 12 ba 80 f1 87 3c 1b 02 7a bc
       -0.004680027 -0.0005581797 0.016594648 -0.015259291
000230 2d 4e 9b 3c 17 05 a7 3c 7f 8e f0 3b a3 c0 a5 3a
       0.018958176 0.02038817 0.0073412056 0.0012645911
000240 d5 cc 5e 3c 03 bc 9d 3c 26 c4 03 3d 3f d5 6e 3c
       0.01359864 0.01925469 0.032169484 0.014577209
000250 f6 05 e0 3c 89 12 6d 3c 7c b8 53 3c 5e 1f 6a 3c
       0.027346592 0.014469751 0.0129224025 0.014289705
000260 72 a5 b5 bc 2f 4b 6b bd 2a c6 23 bd 2b 29 39 3c
       -0.022173617 -0.057444748 -0.039983906 0.011301319
000270 85 ae f6 3b 0e 2f e0 bb f2 28 b8 bc 92 0a 7a bc
       0.0075281286 -0.006841547 -0.022480462 -0.015261309
000280 a8 51 92 3b a8 c4 de 3c 27 f5 ab bc 20 e1 f3 bc
       0.0044653006 0.027193382 -0.020990921 -0.029770434
000290 ca dc 42 3c f1 cb e4 bb 6a fc f8 bb 98 84 25 3d
       0.0118934605 -0.0069823195 -0.0075984495 0.040409654
0002a0 6a 57 0f bc 76 58 e0 ba af a2 40 ba dc 52 99 bc
       -0.0087488685 -0.0017116207 -0.00073484605 -0.018716268
0002b0 90 1a fa bc 67 ea 8c 3c 8a 20 0b 3d 03 0a 78 3d
       -0.030530244 0.017201615 0.03396658 0.060556423
0002c0 52 1d 43 3c d2 2e 02 bd 92 23 5f bc 78 52 21 3d
       0.011908846 -0.031782933 -0.0136193205 0.03938529
0002d0 4c a7 47 3c 59 80 be bc 36 0f 33 3c c0 3a 48 39
       0.012185883 -0.02325456 0.01092892 0.00019095372
0002e0 0a 0f 50 bb 10 5c fa bc ec 7b af bc 33 0b 9a bd
       -0.0031747245 -0.030561477 -0.021421395 -0.07521667
0002f0 c3 62 e0 bc 51 78 12 3d 61 60 8e 3b a1 4b 58 3d
       -0.027390843 0.035759274 0.0043449854 0.0528065
000300 0a a7 14 bd 64 3f 6f 3c 79 43 0d bd a5 87 80 bd
       -0.036292113 0.014602516 -0.034488175 -0.06275872
000310 13 f6 b7 bc d5 d3 8e 3b 91 cd 1e 3c dc d4 be 3c
       -0.022456205 0.0043587484 0.009692566 0.023294859
000320 df f7 b5 bc 9e fd bd bb da dc 50 bc 0c 8b 3f 3a
       -0.02221292 -0.005798056 -0.012747968 0.00073067914
000330 fa e5 1c 3c e5 d6 29 bc 25 cb 71 bb 30 6c a0 3b
       0.009576315 -0.010366176 -0.0036894765 0.0048957095
000340 c4 0f 16 bc bb 50 eb bb 37 19 8b bb 60 d1 06 bd
       -0.009159032 -0.0071812547 -0.004244949 -0.03291452
000350 17 35 d3 bc 83 52 42 bc b6 18 5d 3c 0e 42 12 3c
       -0.025782151 -0.011860493 0.013494661 0.0089268815
000360 18 ab 81 3b a4 83 d3 3b 0e c0 bb bc 76 fe 1a 3c
       0.0039571635 0.006454902 -0.022918727 0.009460082
000370 39 08 03 bd 7c 21 23 3d 70 0a 98 bd 04 3d f9 3b
       -0.031990264 0.039826855 -0.07423866 0.0076061506
000380 67 6b 98 3c 29 bf a4 3c c8 c1 95 3c 26 0d 35 bc
       0.0186059 0.020110684 0.018280879 -0.011050498
000390 d5 4e 68 3c 5f 44 65 bd e6 17 a8 3c e5 0c da bc
       0.014178951 -0.055973407 0.020519208 -0.026617477
0003a0 90 62 98 bc f3 32 c6 bc fb 3b 36 3b 30 71 0b 3c
       -0.018601686 -0.024194216 0.0027806747 0.008510873
0003b0 28 d4 db ba 75 81 05 bd c0 70 9d bc f4 08 40 3d
       -0.0016771602 -0.032594163 -0.019218802 0.04688354
0003c0 e4 89 ac ba f5 20 a8 3b 6f 2b 14 3d ce 7e d0 3c
       -0.0013163653 0.005130882 0.036174234 0.02545109
0003d0 87 96 00 3d 0e 80 3e ba f3 92 c2 bc 69 1c 53 bb
       0.031393554 -0.00072670064 -0.023751711 -0.0032212979
0003e0 79 1a 01 3c 4f c0 bc 3c 25 5c 4f 3c e2 b6 33 3b
       0.007879847 0.023040919 0.012656246 0.002742224
0003f0 b0 4a d6 bc 39 14 9f bb f9 15 39 3c fa e0 34 bb
       -0.02615866 -0.0048547057 0.011296743 -0.0027599917

transformer.layers.0.self_attn.out_proj.bias f4 [64]
000000 7c a3 6a bb 0c 38 15 bc 8b 39 ac bb 30 71 5c 3b
       -0.003580301 -0.009107601 -0.005255883 0.00336368
000010 16 7c db 3a dd a1 36 3c 4f 13 27 3b 07 0f 09 bc
       0.0016745355 0.01114699 0.0025493687 -0.008365399
000020 90 66 39 3c a8 db 46 3b f5 1a 36 3b 5f ef 08 bc
       0.011315957 0.0030343328 0.0027787064 -0.008357852
000030 44 e0 a6 3b 78 9b 85 35 9a cd 13 3c c9 60 d2 3b
       0.0050926525 9.95452e-07 0.009021187 0.006420229
000040 69 d2 a4 bb 89 c0 42 3b 26 cf 1b ba 8f ee 22 bb
       -0.0050299657 0.002971681 -0.0005943648 -0.002486143
000050 4f 27 0e bc 7e 70 bd bb 2f 95 e9 bb 66 f7 c1 ba
       -0.008676364 -0.0057812324 -0.00712838 -0.0014798462
000060 7d 78 88 bc 9d 8b 96 bb 46 51 98 b9 f6 a0 ef 3a
       -0.016659016 -0.00459428 -0.00029052253 0.0018282223
000070 6e 6f 84 3a bc 3f 3c bc f6 f3 cb 3b 43 48 12 bc
       0.0010104009 -0.011489805 0.006224151 -0.008928361
000080 15 14 02 3c f0 00 ea 3b de e4 8a bb c1 b9 af ba
       0.007939358 0.007141225 -0.004238709 -0.0013406799
000090 a0 49 18 bc 03 3c 20 bc 2f cb c6 bb 08 20 15 bb
       -0.009294897 -0.009779933 -0.006066702 -0.0022754688
0000a0 9c d6 a0 bb 77 51 70 3b 56 e6 2c 3b 0b 60 4b bb
       -0.004908396 0.003666965 0.0026382408 -0.0031032588
0000b0 dd eb c7 3b 85 19 cb bb 8f 8c b4 3a b2 24 3b bb
       0.006101115 -0.0061981105 0.00137748 -0.0028555808
0000c0 76 ac c4 bb 83 3a 32 bc 6d 13 c4 b8 36 31 d8 ba
       -0.0060020043 -0.010878208 -9.3496266e-05 -0.0016494158
0000d0 c0 10 0a bb 81 33 b3 bb c7 85 8e b9 f1 c3 36 3b
       -0.0021067113 -0.005468786 -0.00027184022 0.0027887786
0000e0 d3 a3 19 bb 71 09 21 3b ee 8c ca bb 90 28 98 b9
       -0.0023443594 0.0024572278 -0.006181351 -0.0002902192
0000f0 2a 15 b3 39 16 8b 38 3c 6d ab 0f 3b 8a ff 70 3b
       0.0003415731 0.011263629 0.0021922246 0.0036773407

transformer.layers.0.linear1.weight f4 [128, 64]
000000 99 ea b3 bc 7a fe b9 bb 72 8f 19 3c be 13 99 bc
       -0.02196245 -0.005676088 0.009372579 -0.018686172
000010 7b e8 fb bc 89 bd 84 bc dd e1 31 3d 36 d1 34 3d
       -0.030750504 -0.016203659 0.04342829 0.04414483
000020 a3 8d 53 bb 05 9e a7 3c 74 f4 82 bc 2f 47 c4 bc
       -0.0032280467 0.020461092 -0.015985705 -0.023959724
000030 d0 e1 02 3d 60 5d c4 3b 9a c4 c9 3c 18 89 d2 bc
       0.031953633 0.0059925765 0.02462988 -0.025700137
000040 00 97 69 ba 9d 39 5c 3c 57 1c cb 3c 26 04 01 bd
       -0.00089107454 0.01344147 0.024793787 -0.031498097
000050 0b 30 5d 3c 6f c3 5f bd b6 91 16 bc a4 48 ad bc
       0.013500224 -0.05462974 -0.009190014 -0.021152802
000060 9a 7b 91 3c a1 e1 e0 3b de af 37 bc 78 af 0b bc
       0.017759133 0.0068628346 -0.011211364 -0.008525722
000070 16 5f e6 bc e2 03 8c 3b 77 b8 79 bc dd c8 a4 bb
       -0.028121512 0.004272924 -0.015241734 -0.0050288276
000080 23 58 df bb 44 11 32 bb e7 ea 2f bc fb 63 06 bd
       -0.0068159266 -0.0027170936 -0.010737157 -0.032810193
000090 32 16 35 bc a7 5d f8 bc 28 d5 98 bc ef 3f c0 3b
       -0.011052655 -0.030318094 -0.018656328 0.0058669965
0000a0 15 cf c7 3c 8c 14 69 3c 0f 87 86 ba 36 82 b6 39
       0.024390737 0.01422609 -0.0010263639 0.0003481076
0000b0 8d 64 ad 3c a2 41 aa b9 9b ed 15 3d 25 8d 64 bc
       0.02116611 -0.00032473827 0.03660355 -0.013949667
0000c0 e5 41 91 bc b7 a1 78 bc 6b 3a 80 3b bc 48 39 bb
       -0.017731616 -0.015175275 0.003913214 -0.0028272113
0000d0 6a c0 24 3d 45 bf 0f bc 72 b5 e3 bc 08 dd 6c 3c
       0.040222563 -0.00877363 -0.02779648 0.014456995
0000e0 25 3d f2 bc 65 4d 23 bc 92 d7 82 3c 73 d3 96 bb
       -0.029570172 -0.009967183 0.015971933 -0.0046028434
0000f0 23 07 e2 3a ef 65 a2 bb db 7b 2e bc c2 1f 13 3c
       0.0017244559 -0.004955999 -0.010649647 0.00897974
000100 f7 ad d4 bc 70 65 df 3b 9a 7c bd bc e8 ec 80 bc
       -0.02596186 0.006817512 -0.023130704 -0.015737966
000110 79 70 52 3c 05 e7 6e ba d5 3a c4 3b e9 53 70 bc
       0.012844198 -0.0009113404 0.0059884586 -0.014668443
000120 e4 b8 62 3c cd 93 65 3d 07 0e 4b 3c b8 ae 9e bb
       0.013838027 0.056049157 0.012393481 -0.0048426054
000130 da 24 16 3c 12 4d 2d 3c b7 9e 9f ba 28 9a 84 bc
       0.00916406 0.010577457 -0.0012178038 -0.016186789
000140 c4 a8 80 3d 45 00 d3 3c 74 4f 69 bd a5 42 74 3c
       0.062821895 0.025756964 -0.056960538 0.014908467
000150 aa dd 2b 3d 1f ef 2a 3d 79 d4 20 bd ab db 13 3d
       0.041959442 0.04173195 -0.03926513 0.036098164
000160 b8 e4 24 bd e0 30 d6 bc 14 b4 ca 3b 00 98 1a bd
       -0.040257186 -0.026146352 0.0061860178 -0.037742615
000170 7c 57 01 bd 83 57 b5 bc c8 b8 fa bc 93 06 b4 3c
       -0.031577572 -0.022136455 -0.030605689 0.021975791
000180 28 c6 c2 3c 52 4c 63 3c 82 c0 94 3c 08 fe 05 bc
       0.023776129 0.013873177 0.018158201 -0.008178242
000190 3f b8 f0 bb 49 51 91 bb d0 1c 84 3d 7d 79 a1 bc
       -0.0073461826 -0.004434739 0.06450808 -0.01971125
0001a0 ad dc 2a bd 7e 50 c3 3c c1 ee bb bc a2 f1 e2 bb
       -0.04171436 0.023842093 -0.022940995 -0.0069257775
0001b0 97 3d f6 bb 2f 17 01 bd 82 ce 4a 3d b7 75 3c 3d
       -0.0075146663 -0.03151625 0.049513347 0.0460107
0001c0 91 3d 18 3d a7 42 e7 3c 44 a5 85 3c 7c 1e b1 3c
       0.03716809 0.028230025 0.016314156 0.021620981
0001d0 b6 94 11 bd 98 52 c4 bc b4 17 03 bc 06 88 00 3d
       -0.035542212 -0.023965165 -0.008001257 0.031379722
0001e0 e8 ea e9 3b 30 78 0b bd db 10 93 3c ae bc 98 3b
       0.0071385987 -0.034050167 0.017952373 0.0046611642
0001f0 f1 fa c8 3c e9 1f f7 3c 2c bd 92 bc a5 a8 dd ba
       0.02453372 0.030166583 -0.01791247 -0.0016911222
000200 e3 15 1f 3c c5 be a2 3c 29 93 1f 3c 6a eb c1 3b
       0.009709808 0.019866357 0.009739676 0.005917956
000210 9c 64 21 bd ef a7 bf bc 7b 30 05 3d a0 11 52 3c
       -0.03940259 -0.023395507 0.032516938 0.012821585
000220 dd 50 87 bd 3c 7b f2 bb f0 9a 81 3b 06 64 1b 3c
       -0.0660722 -0.0073999446 0.0039552376 0.009484297
000230 47 cb 86 bc d8 c7 ac bc a8 9c 3f bd e9 81 ab 3c
       -0.016454352 -0.021091387 -0.04678026 0.02093597
000240 b7 af ca bc 3e 9e 73 3a 2e 13 a0 bc 34 9a 3d bc
       -0.02474199 0.0009293294 -0.019540396 -0.011572409
000250 34 ce 4f 3d 82 5d 96 bc 7a ea 0b bc 5f f1 f0 bb
       0.05073376 -0.018355135 -0.00853979 -0.0073529924
000260 30 f2 be bc fc 19 50 bb 8e b4 e1 3c 14 1d 1c 3d
       -0.023308843 -0.003175377 0.027551915 0.03811367
000270 b2 ad 90 3a 0a 92 e6 3b d2 e6 c0 3c 35 84 96 3c
       0.0011038093 0.007036452 0.023547564 0.018373588
000280 e2 4b d2 3b ea ff 04 bd 18 a4 d4 bc b1 91 64 bd
       0.0064177373 -0.03247062 -0.025957152 -0.055803005
000290 39 d9 83 3c da a9 2c 3d f2 4d 51 bd ab aa 3b 3d
       0.01609479 0.04215417 -0.051099725 0.04581706
0002a0 78 31 27 bd 63 14 33 3c 6b 0f 81 3b 76 4c 56 bb
       -0.04081866 0.010930154 0.0039386055 -0.0032699383
0002b0 e9 bf d9 3c 28 a6 23 bd 94 9e 1b 3d 6b 73 d2 bc
       0.026580768 -0.03995338 0.03799303 -0.025689801
0002c0 01 87 c8 bc e1 aa 44 3b 7b ce 40 3d a7 47 7b 3c
       -0.024478437 0.0030009078 0.047071915 0.0153369075
0002d0 51 7b 85 bb 32 cc f9 bb ff 63 87 3c c5 ad 10 3d
       -0.0040735384 -0.007623219 0.016527174 0.03532197
0002e0 47 30 84 3d 7c ab 24 3b 10 75 a9 3b e3 e6 29 bd
       0.06454521 0.0025126627 0.0051714256 -0.041479956
0002f0 1c 5a fd 3c 48 27 54 bd ad 8a d4 38 d4 24 23 3c
       0.030926757 -0.051795274 0.00010134778 0.009957511
000300 cc f4 29 bd a1 aa 78 bc 35 58 e1 3c d5 c2 f6 3c
       -0.041493222 -0.0151774 0.02750788 0.0301222
000310 49 e2 68 bd 94 b9 c4 3c f3 f3 d7 bc fb 62 7d bc
       -0.056856427 0.024014272 -0.026361441 -0.015465493
000320 fa c3 4f 3d 03 90 da 3c 28 06 21 bd 25 88 cf b9
       0.050724007 0.026679998 -0.03931251 -0.00039583552
000330 26 e1 36 bb b8 07 03 3d b5 50 a9 bb 1d 49 40 bd
       -0.0027905195 0.031989783 -0.0051670917 -0.046944726
000340 ac fb 5b 3c 35 8f f0 bc 5f ae 38 bd 4d f9 a9 ba
       0.0134267025 -0.029365161 -0.04508817 -0.0012967974
000350 98 a0 43 3b f2 08 d7 bc 2f 7c c5 bc e2 ec f5 3c
       0.002985036 -0.026249383 -0.024107067 0.030020181
000360 3b f7 3e bc cf ac 3a 3b 83 17 23 3d 4b d8 ea 3b
       -0.011655624 0.002848435 0.039817344 0.0071668974
000370 28 cf a1 ba 39 f6 b6 bc fe 25 03 bc 5f 1b e6 3a
       -0.0012345063 -0.022334205 -0.0080046635 0.0017555765
000380 07 83 ad bc bb c3 30 3b 71 41 f3 bc 6a 3a b4 bc
       -0.021180643 0.0026972133 -0.02969429 -0.02200051
000390 e1 c7 18 bd ce 71 1d bc 1a 01 8c 3c 26 b5 17 bc
       -0.037299994 -0.009609653 0.017090369 -0.009259498
0003a0 e8 5e 30 bc 3d 30 6e 3c ef 05 1d 3c 36 d7 76 bc
       -0.010764815 0.014537868 0.009583934 -0.015065959
0003b0 1f 95 be bc 96 62 31 3b 31 b4 ae 3b 31 1c 27 3d
       -0.023264466 0.0027066818 0.005331539 0.04079837
0003c0 b8 06 88 3c f3 cc 75 bc 0c bd ad bc a6 ea ce bb
       0.016604766 -0.015002477 -0.021208309 -0.0063145934
0003d0 4f 61 a2 3b eb 1b 0d bc a0 38 39 3c 43 41 dd bc
       0.0049554477 -0.008612613 0.011305004 -0.027008658
0003e0 4f 31 ab 3a ac 15 b6 ba 41 d4 ec 3c 61 49 4d 3c
       0.001306096 -0.0013891957 0.028909804 0.012529702
0003f0 0a 43 d6 bc 7c 9a 9b bb 33 17 e1 bb 4c f6 37 3c
       -0.026155014 -0.0047486406 -0.0068692206 0.011228155

transformer.layers.0.linear1.bias f4 [128]
000000 0a fa 87 bc 5b a3 3c 3c 51 95 36 bc 84 fd 96 bc
       -0.01659872 0.011513556 -0.011143998 -0.018431433
000010 0e 3b 66 3b e2 26 7a 3b 32 49 f2 bb 5a e1 3f bc
       0.0035130414 0.0038170149 -0.0073939795 -0.011711443
000020 ff 42 46 bb 6f 6d 74 3c 89 1f 51 bc f3 f5 33 3b
       -0.0030252335 0.014918669 -0.012763866 0.002745983
000030 7e 98 2f bc b1 47 32 bc 53 11 51 bc ab ac be bb
       -0.010717509 -0.01088135 -0.012760478 -0.0058189235
000040 b0 d0 38 bb c3 db 8e bc be e5 93 bc 5c e6 de ba
       -0.002820056 -0.017438775 -0.018053886 -0.0017005908
000050 99 d3 89 3c e1 c5 71 3a 4d d1 f1 bc e7 ef 5a bc
       0.01682453 0.00092229067 -0.029518748 -0.013362861
000060 7f f6 74 bc c7 6b ab bc fb 09 36 bc 51 0a 71 bc
       -0.014951347 -0.020925416 -0.011110778 -0.014711932
000070 11 51 b9 bc c9 60 bf bb 1c 3d ac b9 db e0 3d bb
       -0.022621663 -0.005840395 -0.00032851927 -0.0028973136
000080 f7 a7 25 bc 64 bd 84 3c 42 c7 1b 3c 3c e8 96 3b
       -0.010110847 0.01620359 0.009507956 0.004605321
000090 02 20 5f 3c 94 bd 12 3c a8 81 13 bb e9 88 7f bc
       0.013618471 0.008956332 -0.00225077 -0.015596607
0000a0 7c 3d cf 3b 5f 88 5c 3b 4b ff db 38 cc fa 2a 3c
       0.006324468 0.003365062 0.00010490286 0.010435771
0000b0 27 0d 3d 3a cb e1 5c 3b 83 0d 83 bc d7 5a 98 3c
       0.00072117377 0.003370392 -0.015997654 0.018598003
0000c0 98 2a d3 bb 11 1a 2f ba 0a be 3e 3c 83 d3 b4 bc
       -0.0064442866 -0.00066796044 0.0116419885 -0.022073513
0000d0 62 57 58 bc d1 56 d5 bc 8b a1 f8 bb aa 7c 39 b9
       -0.013204427 -0.026042374 -0.007587617 -0.00017689416
0000e0 3b f8 88 3b 4a 1c 85 bc b6 46 88 bc 5a d7 06 bd
       0.004179982 -0.01624884 -0.01663528 -0.03292022
0000f0 0a d6 be 3b b8 5c c9 3b b4 08 49 3a c0 db 09 bc
       0.0058238553 0.006145086 0.00076688384 -0.008414209
000100 d3 3f ac bb fe d8 47 3a 3b b2 01 bc 33 f6 91 bb
       -0.005256632 0.0007623582 -0.007916029 -0.004454398
000110 b5 74 19 bb cf 23 52 bc 37 6f 32 bc 1f c9 22 3c
       -0.002341551 -0.01282592 -0.0108907735 0.009935646
000120 27 d3 a3 bc 0e 46 3b ba e3 07 70 3c 16 79 37 bc
       -0.019998146 -0.0007143923 0.014650318 -0.011198303
000130 2d a4 98 bb ad 22 89 bc 99 9e 5d bc e3 24 77 bb
       -0.004658243 -0.016740168 -0.013526582 -0.0037711195
000140 e2 ee e3 bb 12 86 0b bc 31 55 8d bc 4d 2d f0 3a
       -0.0069559673 -0.008515852 -0.017252536 0.0018324048
000150 52 4b 88 3b 4f 5e a5 bc 51 d5 58 3c 5c bb 17 ba
       0.0041593695 -0.020186571 0.013234452 -0.00057881116
000160 5e 90 9a 3c 59 ed dc ba 4d 5f 37 bc 97 fe 14 bc
       0.018867668 -0.0016855403 -0.011192155 -0.009093902
000170 01 61 49 bc 69 c6 26 3b e4 5f 92 bb cf 08 b7 3b
       -0.012291194 0.0025447852 -0.0044669975 0.005585767
000180 5f 2b 93 39 de 3a 6c bb d1 59 34 bc 12 2f c1 ba
       0.0002807034 -0.003604583 -0.011007742 -0.001473876
000190 16 ca ca bb e5 3a 67 bc 64 f2 48 3a 5c e6 6c 3b
       -0.0061886413 -0.014113163 0.00076655135 0.0036148047
0001a0 78 81 59 bc fd 41 99 bc 45 76 df bb 27 bc bd bc
       -0.013275497 -0.018708223 -0.0068195187 -0.023161007
0001b0 6f c4 8e bc b5 f5 cb bb 51 63 a8 bb 96 dc bd bc
       -0.017427651 -0.006224359 -0.0051387926 -0.023176473
0001c0 a7 cf 16 bb 4b ec 02 bc 04 b2 85 bc cb f3 46 ba
       -0.0023011954 -0.007990907 -0.016320236 -0.00075894286
0001d0 e8 59 7a bc 99 db f4 bb a1 2d 58 bb ff 28 d8 bc
       -0.015280224 -0.007472467 -0.0032986181 -0.026386736
0001e0 70 3c 53 bc 53 63 5e bc de 8d ac 3a 72 4c e8 bc
       -0.012892827 -0.013573485 0.0013164838 -0.028356764
0001f0 99 ca 96 bc d0 f0 2a bc 38 f2 64 3c a3 f5 40 bc
       -0.018407153 -0.010433391 0.013973765 -0.011777314
