marble_model/best_model_v3.0_20250531_004309.pt (torch, 295593 bytes, 30 tensors)

token_embedding.weight f4 [13, 64]
0.041739814 0.012400121 0.018518992 0.016729873 -0.009946816 -0.025083799 -0.022774443 -0.017014325
0.04827585 -0.015521857 -0.0361638 -0.0049193567 0.01681519 0.009925576 -0.010869889 -0.0119512845
0.020973755 -0.028563764 0.020302586 0.03642615 -0.012052949 0.009819067 0.006473735 0.01755783
0.0015198258 -0.018549766 0.021382492 0.011904901 0.01502956 -0.013098603 -0.016597373 -0.0028967792
0.0044367993 0.045723923 -0.0031537332 0.056665797 -0.0005705355 0.021284925 0.011072316 -0.00522902
-0.008512799 0.021583868 -0.036878414 0.03663379 0.03519964 0.022017224 -0.0021444026 -0.004099331
-0.008795872 -0.025941147 0.0024723005 0.024136176 -0.019918637 -0.02663207 -0.009469506 0.00046106055
0.031476274 0.011901414 0.02015496 0.03722183 0.018444741 -0.012249972 0.0023568356 -0.0023895223
-0.005589072 0.015613521 -0.0024881552 -0.0020009463 -0.014223541 -0.07407519 0.023457233 -0.05231731
-0.0042180493 0.02234389 0.023475867 0.047551263 0.037299044 0.0151879955 -0.0049354155 0.004720877
0.017020814 -0.026188683 0.05358321 -0.00041966533 0.033546872 0.009131844 -0.0054917955 0.03555362
0.015860967 -0.01348231 0.022431256 -0.051490735 -0.033944294 0.042798065 -0.026272237 -0.029430816
-0.03212884 0.002881415 0.039534472 -0.019516613 -0.012683482 -0.002497621 0.025546024 0.008733687
-0.047245666 -0.02631624 0.010678353 0.01871197 -0.025389519 0.022141531 0.027198026 -0.003941637
0.000626469 0.023027368 -0.013691972 -0.03622996 0.0020617435 -0.0321784 0.031092905 -0.023156943
-0.0003411907 0.011889834 -0.026819482 0.029483957 0.030736623 -0.013251638 0.02571387 0.0066791996
0.0017325926 0.0024246601 0.0042992183 0.00048354777 0.02240481 -0.0055986634 -0.027150862 0.030210566
-0.027964508 0.024407888 -0.0037700506 0.00798033 -0.007226001 -4.255914e-06 -0.041270833 0.011798607
-0.0057521793 -0.059088588 -0.01984205 0.0030916482 0.0029388478 0.016164081 0.0074578 0.018680668
-0.03378358 0.0061333594 0.00286735 0.016763771 -0.0054316423 -0.026997112 0.042828653 -0.0018292657
-0.029108992 0.013313262 -0.015486451 0.024048371 -0.0059788125 -0.042119935 0.020709965 -0.030518932
0.051583562 0.007368534 -0.009524829 -0.023570234 -0.013465803 0.033013757 -0.02018673 -0.0015180224
-0.006076961 0.004025698 -0.010689297 -0.00054847373 -0.015820479 0.010898458 0.027097698 -0.004693041
-0.0061616865 -0.018708019 -0.0146769155 -0.0007091599 0.010274921 0.007935839 -0.01475778 0.010943306
0.022102099 -0.015282926 -0.016631477 -0.0020613973 0.039537646 0.0025875436 -0.0070651746 6.824781e-05
-0.014265562 0.025298374 -0.00041851212 -0.0011787905 0.0042780386 -0.0189359 0.007029674 -0.00070963416
-0.016484588 0.02897985 0.0148696955 0.0155145 -0.02169452 0.009478313 0.007794384 0.006278654
0.010221267 0.0005586934 0.03019935 0.024668837 0.00861196 0.003340262 0.0015193329 0.032323714
-0.0027795397 -0.013792969 -0.014658704 0.011120296 -0.012581845 0.015667425 0.0013228196 -0.014959698
-0.0035674681 0.019187933 0.01876823 -1.9233812e-05 0.011892718 -0.01175521 -0.030732507 -0.032837857
-0.0024749166 0.021609556 0.0007384705 0.024335574 -1.6652677e-05 -0.0037962447 -0.001438432 0.00997433
0.016073752 -0.021576764 -0.0058599343 9.181363e-05 -0.040030215 -0.0014671576 -0.0007694041 0.026200866
00000000: 5ef7 2a3d e129 4b3c 24b5 973c 160d 893c
00000010: f8f7 22bc 8a7c cdbc 7891 babc a061 8bbc
00000020: e6bc 453d 634f 7ebc 7e20 14bd 8e32 a1bb
00000030: 02c0 893c e29e 223c 9e17 32bc 52cf 43bc
00000040: 27d1 ab3c 8efe e9bc 9c51 a63c 9633 153d
00000050: bb79 45bc 27e0 203c a021 d43b 70d5 8f3c
00000060: e434 c73a aef5 97bc 562a af3c c60c 433c
00000070: 8b3e 763c 869b 56bc 37f7 87bc e4d7 3dbb
00000080: 9262 913b 0249 3b3d ddae 4ebb 651a 683d
00000090: fd8f 15ba b95d ae3c a968 353c 3358 abbb
000000a0: 4479 0bbc a7d0 b03c d20d 17bd 500d 163d
000000b0: 7f2d 103d 775d b43c 1b89 0cbb ae53 86bb
000000c0: 901c 10bc 8782 d4bc 5206 223b 3bb9 c53c
000000d0: 692c a3bc 802b dabc fd25 1bbc 80ba f139
000000e0: 44ed 003d 26fe 423c 041c a53c eb75 183d
000000f0: 6d19 973c 1bb4 48bc 2475 1a3b 8899 1cbb
00000100: 8924 b7bb dbcf 7f3c 5110 23bb 4f22 03bb
00000110: db09 69bc bcb4 97bd 6229 c03c ad4a 56bd
00000120: 9037 8abb 890a b73c 7650 c03c 1dc5 423d
00000130: e2c6 183d 12d7 783c 44b9 a1bb 96b1 9a3b
00000140: 3c6f 8b3c a689 d6bc 117a 5b3d 8706 dcb9
00000150: 7268 093d bb9d 153c 85f4 b3bb aca0 113d
00000160: dcee 813c e8e4 5cbc c1c1 b73c f3e7 52bd
00000170: 2c09 0bbd 064d 2f3d e038 d7bc e518 f1bc
00000180: 8899 03bd 1fd6 3c3b e6ee 213d 4ee1 9fbc
00000190: 61ce 4fbc 21af 23bb e545 d13c bd17 0f3c
000001a0: ac84 41bd 2895 d7bc 42f4 2e3c d849 993c
000001b0: aefd cfbc 2862 b53c 65ce de3c d928 81bb
000001c0: 9f39 243a e4a3 bc3c 4b54 60bc de65 14bd
000001d0: 511e 073b 7fcd 03bd 8cb6 fe3c a1b3 bdbc
000001e0: d7e1 b2b9 94cd 423c 88b4 dbbc 5788 f13c
000001f0: 5fcb fb3c 661d 59bc e5a5 d23c 30dd da3b
00000200: 2918 e33a 0ce7 1e3b 75e0 8c3b af84 fd39
00000210: 4b8a b73c fe74 b7bb 7c6b debc 267c f73c
00000220: d315 e5bc 0df3 c73c f412 77bb eebf 023c
00000230: 17c8 ecbb 06ce 8eb6 9b0b 29bd f24e 413c
00000240: c77c bcbb e006 72bd cb8b a2bc 409d 4a3b
00000250: af99 403b 896a 843c 9060 f43b 3308 993c
00000260: a760 0abd 59fa c83b 26ea 3b3b 2d54 893c
00000270: ebfb b1bb 0c29 ddbc 196d 2f3d f9c3 efba
00000280: fb75 eebc de1f 5a3c e2ba 7dbc 1701 c53c
00000290: eae9 c3bb f485 2cbd f2a7 a93c d702 fabc
000002a0: 4949 533d be73 f13b 070e 1cbc 5d16 c1bc
000002b0: ac9f 5cbc 6f39 073d a45e a5bc 61f8 c6ba
000002c0: 3e21 c7bb 01ea 833b 2922 2fbc 73c7 0fba
000002d0: f399 81bc 728f 323c fefb dd3c 15c8 99bb
000002e0: f9e7 c9bb 8f41 99bc 7277 70bc eae6 39ba
000002f0: 2458 283c 5205 023c 9eca 71bc 8d4b 333c
00000300: 760f b53c 3d65 7abc bc3e 88bc 8218 07bb
00000310: 3af2 213d c793 293b fb82 e7bb 4420 8f38
00000320: 1bba 69bc 893e cf3c bf6b dbb9 a581 9aba
00000330: ca2e 8c3b 761f 9bbc 2e59 e63b be06 3aba
00000340: b00a 87bc 2667 ed3c 06a0 733c 8830 7e3c
00000350: b5b8 b1bc ed4a 1b3c 0868 ff3b 2bbd cd3b
00000360: 1a77 273c 4875 123a a164 f73c 4d16 ca3c
00000370: 2e19 0d3c 4ce8 5a3b 5a24 c73a df65 043d
00000380: f028 36bb e8fb 61bc 102b 70bc e731 363c
00000390: 1524 4ebc f958 803c 7662 ad3a 8519 75bc
000003a0: 2fcc 69bb 0330 9d3c d5bf 993c 4c58 a1b7
000003b0: add9 423c ed98 40bc bdc2 fbbc fd80 06bd
000003c0: 3632 22bb 8606 b13c eb95 413a 665b c73c
000003d0: 5ab1 8bb7 6bca 78bb c589 bcba 5f6b 233c
000003e0: 1aad 833c c1c1 b0bc b104 c0bb 118c c038
000003f0: b9f6 23bd a44d c0ba d6b1 49ba 33a3 d63c

position_embedding.weight f4 [30, 64]
-0.026902724 0.009855005 0.04474112 0.00513355 -0.031124776 -0.013440688 0.030636806 -0.011999383
-0.056568295 0.05378971 0.028031025 0.003795533 -0.0012764225 0.04126797 -0.038776774 0.029844336
0.029013967 -0.012452955 0.010048711 -0.035268016 0.013207451 0.023983572 -0.034091715 0.02077848
-0.021199973 -0.03855861 -0.03774247 0.015450337 -0.019919816 0.010366391 -0.03420992 -0.026493777
-0.0021275065 0.01885289 0.019999469 -0.01654695 -0.012335658 0.035372134 0.0031646844 0.0320891
-0.020121718 -0.008610347 0.061742686 0.014008722 -0.020320212 0.03944544 0.0033822253 0.036564395
-0.02374263 0.005377676 0.024799818 -0.0044713668 -0.044991195 -0.032989345 0.022545174 -0.023065725
-0.008501274 0.05697745 -0.0039912164 0.03352616 0.03644148 -0.0061146035 0.0028584446 -0.036902543
0.020012336 -0.014132227 -0.043911435 0.015264515 -0.010705115 0.029930858 -0.010859468 -0.025258722
-0.00611586 -0.026486835 0.031448696 -0.0015136086 -0.024838358 0.026635505 0.016123198 -0.019236062
-0.035463046 -0.012285072 -0.0039292383 0.018582443 -0.019026704 -0.016581701 0.013486048 -0.013650609
0.026272107 -0.0009308875 0.0073012738 0.026767295 -0.029681413 -0.019976912 -0.010461435 0.010933742
0.0005754386 -0.04553854 -0.02717523 0.0016104619 0.02740647 0.007203457 -0.02655811 -0.017134085
-0.011592535 0.022745326 -0.0111675095 -0.013141006 -0.027504472 -0.013282305 -0.023569766 -0.028156223
0.030594474 0.017304981 0.04595553 -9.993569e-05 0.036683023 0.0002862866 -0.011393604 0.043020163
-0.010960849 0.028866261 0.009558836 0.015286311 -0.02172098 0.0037656727 0.017549803 0.0072039096
-0.008124634 -0.023930207 0.0043372246 0.043490577 -0.022040505 0.014026457 -0.0039762743 -0.013516036
0.04693051 -0.041981667 0.01164059 -0.023353335 -0.023686016 0.007819022 0.037074424 -0.045740232
0.011049355 -0.026562966 0.035057638 0.014815811 -0.01614841 -0.019221632 0.053397696 -0.007623967
0.004239395 -0.023196237 -0.02616641 -0.0057521006 -0.035597265 -0.027182376 -0.020563496 -0.026775576
0.00232242 -0.037939668 0.0149489315 0.024410276 0.05848492 -0.008569624 -0.015849587 0.000986748
0.003103095 0.016764395 -0.018165018 -0.022453722 -0.048315767 4.187763e-05 0.03259585 -0.004880796
0.023902474 0.0061229547 0.048220385 0.008726357 0.016097084 0.016679069 -0.011320905 0.030096073
-0.014180432 0.049003784 0.035445765 0.0032372754 0.027334245 0.01918032 0.052310795 0.012483841
0.03667812 0.03781511 0.03955545 -0.017757177 -0.0130897015 -0.05293409 -0.03375375 0.03846155
-0.031446412 0.02423391 0.023555266 0.02294921 0.0019209218 -0.018266568 -0.034513358 0.039541457
-0.03796592 -0.0005069755 0.010056342 0.035318222 0.030678837 0.032934383 -0.050787214 0.025365762
-0.030297294 -0.021935413 0.01079936 0.019087324 0.028924394 -0.034094986 0.011989149 0.02552702
-0.03236558 -0.01764663 -0.026906831 0.033101164 -0.022512242 0.0408961 0.038815357 -0.02946131
0.040788665 -0.042329893 0.01929642 0.03676106 0.027716547 -0.00046860546 -0.025347624 0.019605132
-0.013236282 -0.036381613 -0.025582679 -0.0068675396 0.010076553 -0.032911222 0.03574962 0.028318223
0.04287842 -0.028096834 -0.027541382 0.027231917 -0.0021799316 -0.03777335 -0.0411686 0.01341521
00000000: 1a63 dcbc e376 213c 7742 373d 5737 a83b
00000010: 63f9 febc 5536 5cbc 0afa fa3c 0f99 44bc
00000020: 28b4 67bd 9952 5c3d 52a1 e53c 7abe 783b
00000030: a24d a7ba 9a08 293d 65d4 1ebd 1c7c f43c
00000040: b3ae ed3c 7b07 4cbc 59a3 243c 3275 10bd
00000050: 1164 583c 3279 c43c c1a3 0bbd a237 aa3c
00000060: 91ab adbc a2ef 1dbd d997 1abd 6923 7d3c
00000070: e22e a3bc ccd7 293c b31f 0cbd 7a09 d9bc
00000080: a36d 0bbb 6071 9a3c edd5 a33c 788d 87bc
00000090: 801b 4abc 5fe2 103d 9866 4f3b dc6f 033d
000000a0: 4dd6 a4bc 6a12 0dbc e6e5 7c3d d784 653c
000000b0: 9376 a6bc 8b91 213d 53a8 5d3b 8cc4 153d
000000c0: e77f c2bc 3737 b03b fd28 cb3c 8b84 92bb
000000d0: b048 38bd d61f 07bd a8b0 b83c 55f4 bcbc
000000e0: ed48 0bbc 3061 693d c0c8 82bb ba52 093d
000000f0: a943 153d 035d c8bb be54 3b3b 1f27 17bd
00000100: e9f0 a33c db8a 67bc 7adc 33bd 0418 7a3c
00000110: 8264 2fbc 8f31 f53c e9eb 31bc 61eb cebc
00000120: 8d67 c8bb ebfa d8bc 59d0 003d 4764 c6ba
00000130: d079 cbbc b432 da3c cc14 843c f294 9dbc
00000140: b341 11bd 5447 49bc d7c0 80bb 353a 983c
00000150: e4dd 9bbc 59d6 87bc 96f4 5c3c cea6 5fbc
00000160: 9a38 d73c cd06 74ba 863f ef3b 1647 db3c
00000170: 6f26 f3bc 9fa6 a3bc 7066 2bbc 7023 333c
00000180: 08d9 163a 9f86 3abd 979e debc 2216 d33a
00000190: 8983 e03c fa0a ec3b 6590 d9bc c85c 8cbc
000001a0: 9eee 3dbc 6854 ba3c eef7 36bc 604d 57bc
000001b0: 0f51 e1bc 069e 59bc 6215 c1bc e1a7 e6bc
000001c0: 43a1 fa3c 2dc3 8d3c de3b 3c3d 9194 d1b8
000001d0: f040 163d bd18 9639 3dac 3abc e935 303d
000001e0: 2295 33bc f078 ec3c aa9c 1c3c 6f73 7a3c
000001f0: 32f0 b1bc 81c9 763b 9bc4 8f3c c60e ec3b
00000200: 2f1d 05bc 4809 c4bc 471f 8e3b 2d23 323d
00000210: 4a8e b4bc 3acf 653c 684b 82bb 5d72 5dbc
00000220: 353a 403d f8f4 2bbd 2cb8 3e3c 7e4f bfbc
00000230: 2d09 c2bc 5b1b 003c 5adb 173d 1c5a 3bbd
00000240: 5b08 353c 949a d9bc 9998 0f3d 04be 723c
00000250: ac49 84bc af76 9dbc 8bb7 5a3d 78d2 f9bb
00000260: 9fea 8a3b 0906 bebc f05a d6bc 1e7c bcbb
00000270: 70ce 11bd 93ad debc c774 a8bc 7458 dbbc
00000280: be33 183b a066 1bbd 5dec 743c 0ff8 c73c
00000290: e28d 6f3d 9c67 0cbc fed6 81bc c555 813a
000002a0: 4c5d 4b3b 7c55 893c cece 94bc def0 b7bc
000002b0: c1e6 45bd c3a5 2f38 3a83 053d 16ef 9fbb
000002c0: 1fcf c33c 11a3 c83b bd82 453d fef8 0e3c
000002d0: 08de 833c 8ba2 883c 517b 39bc 0a8c f63c
000002e0: 0b55 68bc 31b8 483d 942f 113d 7828 543b
000002f0: 11ec df3c 0c20 9d3c d843 563d 0689 4c3c
00000300: cc3b 163d 04e4 1a3d e504 223d 8077 91bc
00000310: 3076 56bc 6bd1 58bd 5f41 0abd dc89 1d3d
00000320: f4cd 00bd 3186 c63c f9f6 c03c fbff bb3c
00000330: 71c7 fb3a c5a3 95bc e15d 0dbd 39f6 213d
00000340: 2782 1bbd 8de6 04ba 5bc3 243c d7a9 103d
00000350: 2f52 fb3c 34e6 063d 4106 50bd dccb cf3c
00000360: 0832 f8bc e5b1 b3bc cdef 303c 055d 9c3c
00000370: daf2 ec3c 2fa7 0bbd 236e 443c 0b1e d13c
00000380: c591 04bd aa8f 90bc b76b dcbc 1695 073d
00000390: 986b b8bc ab82 273d dafc 1e3d d858 f1bc
000003a0: 0412 273d 1c62 2dbd 8713 9e3c c492 163d
000003b0: d00d e33c 29af f5b9 d2a5 cfbc f19a a03c
000003c0: fedc 58bc e304 15bd c492 d1bc 1909 e1bb
000003d0: 2018 253c ebcd 06bd 326e 123d 9efb e73c
000003e0: 48a1 2f3d 552b e6bc 779e e1bc 7815 df3c
000003f0: 2fdd 0ebb 3ab8 1abd 68a0 28bd 78cb 5b3c

transformer.layers.0.self_attn.in_proj_weight f4 [192, 64]
-0.049776394 -0.09408549 -0.10904689 -0.042192984 0.021689191 0.09613715 -0.028406797 0.019982873
0.07421294 -0.029050801 0.052789517 0.025744552 0.06586277 -0.08130337 -0.106820665 0.14469235
-0.12354028 0.12584846 0.11760083 0.13354763 -0.13398716 0.12609014 -0.08483742 -0.045602232
0.064495824 -0.009094811 -0.09837908 0.070403606 -0.12477942 0.10780084 0.10561925 -0.0088286195
-0.11697158 0.12811068 -0.016133312 -0.13331778 0.11596525 0.031953547 -0.15457125 0.06208918
-0.11908698 -0.08163675 -0.09810107 -0.0065482324 0.058660325 0.12652631 -0.040603258 -0.04054516
-0.036744453 0.10198472 -0.084230326 0.17016001 -0.17831913 -0.019359864 -0.108662724 0.04412262
0.15379351 -0.040934198 -0.12516008 0.14826839 0.11515262 0.01714107 0.036796752 -0.053639002
0.040214833 0.1109711 0.05560011 -0.035473794 -0.01801774 -0.12269855 -0.09987469 -0.15233824
-0.05713306 -0.06698078 -0.11978755 -0.09247873 0.048838444 -0.116716824 -0.16656646 -0.08798584
0.106538616 0.11334603 0.14758098 0.050087757 0.14470765 -0.035378806 -0.17157008 0.18034329
0.027355703 -0.10126385 0.03259736 -0.08194925 -0.061538063 -0.08416515 0.095059745 -0.061491597
0.17252259 0.07997831 -0.1544631 0.111016795 -0.1231342 0.045267895 0.067673795 -0.07121413
0.104497366 0.056101743 0.09604804 0.034055237 0.11617374 -0.014990353 -0.088698566 0.11026669
-0.07871368 0.13050641 -0.06207795 0.12009736 -0.08793616 -0.0560846 0.03368067 0.07968584
0.039027087 -0.028610364 -0.13789967 -0.06907439 -0.070868164 0.093935095 -0.1590416 0.08902984
-0.03919179 -0.04390438 0.12034264 0.061780624 0.11185806 -0.11746563 -0.09884044 -0.06836378
-0.0025769584 -0.14366427 -0.051748738 -0.076471075 -0.00011384236 0.109934114 0.022811282 -0.024271812
-0.11643187 -0.11405651 -0.11165804 0.12525369 -0.1267744 -0.015689997 0.15765837 -0.11495963
0.1185573 0.08715496 0.12493049 0.011144914 -0.025472878 0.015021765 0.014613465 -0.13943587
0.15323523 -0.12140858 0.05559544 0.058903556 0.17241111 -0.08499579 0.03100149 -0.13927853
-0.08834249 -0.04121608 -0.13872415 -0.039050408 0.016817909 0.08023519 -0.036238864 -0.092440635
-0.08292444 -0.14621 0.025860086 -0.08103705 0.14317232 0.11550676 -0.007875334 0.09118045
0.0761238 0.00998872 -0.031575177 -0.07488903 0.14683121 -0.0072289817 0.061236747 -0.005463749
0.08442014 -0.1343963 -0.09810814 0.024364784 0.019962981 0.10387272 0.0047533466 0.07665424
-0.036950022 0.027281463 0.008308788 0.14524919 -0.012225506 0.05934592 -0.01625637 -0.02095151
0.14328435 0.09165578 -0.14624049 -0.116639 -0.11420021 -0.09833415 -0.14267386 0.0280611
0.121636674 -0.12056657 0.023809422 0.10710783 -0.14853969 0.16648951 -0.095136166 -0.107532345
0.079489894 -0.0202128 -0.03240269 0.12496668 -0.08652672 -0.114063606 -0.12122167 -0.032660913
0.103716254 -0.12071634 0.08306414 0.1484266 0.07377099 -0.11813635 -0.1095337 0.10536612
-0.12868594 0.1345151 -0.02546803 0.1377791 -0.05872369 -0.052202176 0.112320095 0.06851132
-0.0513048 0.16262944 0.091988266 0.0757957 -0.02809155 0.11586172 0.027050568 0.07424002
00000000: 55e2 4bbd e5af c0bd fa53 dfbd 8dd2 2cbd
00000010: 88ad b13c 8ee3 c43d 5fb5 e8bc 1fb3 a33c
00000020: f4fc 973d f2fb edbc d239 583d 3de6 d23c
00000030: 0fe3 863d 6282 a6bd cbc4 dabd 3b2a 143e
00000040: b002 fdbd 6bde 003e b4d8 f03d b6c0 083e
00000050: ee33 09be c61d 013e 3ebf adbd 68c9 3abd
00000060: 6316 843d 6702 15bc f97a c9bd c42f 903d
00000070: 5a8c ffbd b0c6 dc3d e84e d83d eaa5 10bc
00000080: cc8e efbd 722f 033e 022a 84bc 7584 08be
00000090: 307f ed3d b9e1 023d ed47 1ebe 3951 7e3d
000000a0: e0e3 f3bd 2b31 a7bd 37e9 c8bd 8e92 d6bb
000000b0: cf45 703d 1d90 013e 9a4f 26bd af12 26bd
000000c0: 5a81 16bd 5ddd d03d f380 acbd 6d3e 2e3e
000000d0: 4a99 36be 9498 9ebc 908a debd ecb9 343d
000000e0: 0c7c 1d3e 9eaa 27bd f729 00be abd3 173e
000000f0: 23d5 eb3d 6e6b 8c3c 31b8 163d 92b4 5bbd
00000100: 4fb8 243d d144 e33d f1bc 633d f84c 11bd
00000110: f199 93bc 6149 fbbd 1a8b ccbd 8efe 1bbe
00000120: 5b04 6abd 382d 89bd 2d53 f5bd 7d65 bdbd
00000130: d20a 483d 3b09 efbd 6690 2abe ec31 b4bd
00000140: eb30 da3d f721 e83d 781f 173e d228 4d3d
00000150: 3e2e 143e 5ee9 10bd 11b0 2fbe e9ab 383e
00000160: 1119 e03c 6c63 cfbd cf84 053d 02d5 a7bd
00000170: 560f 7cbd c75e acbd afae c23d 9dde 7bbd
00000180: c3a9 303e abcb a33d 932b 1ebe c65c e33d
00000190: c92d fcbd d46a 393d 8f98 8a3d b7d8 91bd
000001a0: b702 d63d f1ca 653d d6b4 c43d 817d 0b3d
000001b0: 7fec ed3d 199a 75bc 98a7 b5bd 81d3 e13d
000001c0: a334 a1bd 79a3 053e 7345 7ebd 9bf5 f53d
000001d0: e017 b4bd f7b8 65bd bef4 093d 5432 a33d
000001e0: deda 1f3d 4860 eabc 9235 0dbe e076 8dbd
000001f0: 5423 91bd 0b61 c03d cddb 22be 4755 b63d
00000200: 9287 20bd 14d5 33bd 3476 f63d ae0d 7d3d
00000210: d715 e53d d291 f0bd db6c cabd 4f02 8cbd
00000220: 30e2 28bb ba1c 13be 7cf6 53bd de9c 9cbd
00000230: a7be eeb8 2325 e13d bade ba3c aed5 c6bc
00000240: d573 eebd 7696 e9bd f8ac e4bd 8142 003e
00000250: 26d1 01be 4f88 80bc 3271 213e f46f ebbd
00000260: 2bce f23d 4d7e b23d 8fdb ff3d 2899 363c
00000270: 7fac d0bc d91d 763c 516d 6f3c 47c8 0ebe
00000280: b2e9 1c3e 10a5 f8bd 0bb8 633d db44 713d
00000290: 8a8c 303e 4612 aebd d6f6 fd3c 089f 0ebe
000002a0: e8ec b4bd 31d2 28bd b40d 0ebe 52f3 1fbd
000002b0: b6c5 893c 5952 a43d 346f 14bd 8451 bdbd
000002c0: 4ad4 a9bd 13b8 15be 88d8 d33c c1f6 a5bd
000002d0: c49b 123e cf8e ec3d 8b07 01bc d1bc ba3d
000002e0: cbe6 9b3d baa7 233c f954 01bd 6b5f 99bd
000002f0: ec5a 163e 18e1 ecbb 62d3 7a3d 4009 b3bb
00000300: 77e4 ac3d 2f9f 09be ecec c8bd a898 c73c
00000310: 6889 a33c 38bb d43d f6c1 9b3b e6fc 9c3d
00000320: e858 17bd 607d df3c 9521 083c 34bc 143e
00000330: 7d4d 48bc b514 733d 142c 85bc 80a2 abbc
00000340: 22b9 123e 07b6 bb3d 11c0 15be 6ee0 eebd
00000350: cde1 e9bd 6a63 c9bd 1919 12be 64e0 e53c
00000360: a61c f93d 9beb f6bd fa0b c33c 5a5b db3d
00000370: ca1a 18be 3a7c 2a3e c0d6 c2bd eb39 dcbd
00000380: 99cb a23d 5095 a5bc afb8 04bd 88ee ff3d
00000390: ec34 b1bd 2e9a e9bd 1143 f8bd 73c7 05bd
000003a0: 3069 d43d 213a f7bd 881d aa3d 25fd 173e
000003b0: 3f15 973d 78f1 f1bd 3453 e0bd 31ca d73d
000003c0: 3fc6 03be 54be 093e 54a2 d0bc f715 0d3e
000003d0: 4188 70bd f3d1 55bd 1408 e63d aa4f 8c3d
000003e0: fb24 52bd 5588 263e 5864 bc3d c73a 9b3d
000003f0: 4020 e6bc e948 ed3d 2799 dd3c 270b 983d

transformer.layers.0.self_attn.in_proj_bias f4 [192]
0.009249449 0.0015932416 -0.012274796 -0.005588618 0.014195678 -0.004680997 -0.007433899 0.007775816
0.004732347 -0.005929125 0.016013607 0.013520272 0.012290828 0.010572823 -0.0050748023 0.0025684985
0.004061219 0.00675333 0.00077987404 0.019545855 0.007144086 0.007185123 0.0021293901 0.016953586
0.0055408934 -0.019899111 -0.0014941923 0.004429331 0.0041698683 -0.0016506477 0.0034237348 0.0073759095
-0.0018935987 -0.0039016362 0.0013269203 -0.011260948 0.004059067 0.0025619227 0.0018847033 0.0026933826
0.004608506 0.000565255 0.0049253935 -0.006078167 -0.0003963617 1.7804362e-06 -0.008262815 -0.005069279
-0.011332329 0.0077777463 -0.009126318 0.005564108 -0.007554716 -0.0031280445 0.0010069297 0.0023391587
-0.003917208 -0.002849722 0.0035235046 0.0036189232 0.002299126 0.0061682174 0.0045223655 0.001493936
1.0278122e-07 1.2179169e-07 -1.4157574e-07 1.277954e-07 -3.7073954e-07 1.9330868e-07 1.1984598e-07 -4.228095e-07
8.4246274e-08 -2.4813257e-08 1.0557313e-07 -1.1073331e-07 3.5334352e-08 2.499244e-07 1.065836e-07 1.4579666e-07
2.0020823e-07 -8.2335205e-08 2.1688093e-07 5.397369e-07 1.5287408e-07 2.3596407e-07 1.3728197e-07 6.058292e-07
-2.2933841e-07 -3.6591203e-07 1.8724545e-08 2.631522e-07 4.7058705e-08 5.464751e-08 6.0026406e-09 1.7915515e-07
-6.518783e-09 7.369278e-09 1.758728e-07 -5.2864355e-08 6.269528e-08 7.011639e-08 1.7152426e-07 1.2287859e-08
-7.862878e-08 1.0924438e-07 -3.367783e-08 1.1198625e-07 -8.407267e-09 5.434445e-07 -2.438039e-07 -5.8016482e-08
-4.5058034e-08 5.01019e-08 -5.1311817e-09 -1.66364e-07 -1.7234906e-07 -4.9390987e-08 -1.9380346e-08 -8.6729905e-08
-2.1508696e-07 5.623181e-08 -1.7502386e-07 -7.9961794e-08 7.5014505e-08 5.5518544e-08 2.1759703e-09 2.0466933e-07
0.0018934008 -0.0017645325 0.0029955886 -0.0036365404 0.00020898337 -0.0016443786 -0.0058204713 0.0057309903
0.0021819584 -0.0030510826 -0.0053174896 0.018612256 0.005503171 0.012169596 -0.011775226 0.004769774
-0.0065858783 -0.00806623 0.0024302201 -0.0020443304 -0.0164188 -0.007211051 0.0011597346 -0.0036686908
-0.0020821488 -0.021760207 0.008594904 0.0014912395 -0.00041037527 0.009089602 -0.0068031163 -0.00093553966
0.0035185039 0.010317984 -0.018568676 -0.0056259716 0.0037094923 0.0046764975 0.0011740141 -0.0066077183
0.0015587246 -0.005270599 -0.015495738 0.006873543 -0.00046794242 0.014728831 -0.006572029 -0.0026129812
-0.0068646003 -0.00015230234 -0.021675171 -0.015401017 0.003721063 -0.010131492 -0.0020631796 0.015098539
-0.011702409 0.0008206766 -0.005814651 0.013726782 0.017215637 0.016939512 0.013763105 0.006198212
00000000: 008b 173c 51d4 d03a 3a1c 49bc ba20 b7bb
00000010: fd94 683c 0d63 99bb 1198 f3bb 46cc fe3b
00000020: ce11 9b3b 1b49 c2bb f82e 833c 2284 5d3c
00000030: 785f 493c a239 2d3c 874a a6bb 4154 283b
00000040: f913 853b 0a4b dd3b 7670 4c3a a11e a03c
00000050: f018 ea3b 2e71 eb3b 3d8d 0b3b 3fe2 8a3c
00000060: 6290 b53b 7603 a3bc c6d8 c3ba ec23 913b
00000070: 64a3 883b 8c5a d8ba bd60 603b 9db1 f13b
00000080: a132 f8ba 98b2 7fbb 0fec ad3a d77f 38bc
00000090: ec01 853b eee5 273b 2608 f73a 7683 303b
000000a0: f302 973b 9f2d 143a 3265 a13b 5c2b c7bb
000000b0: c4ce cfb9 52f7 ee35 c260 07bc 321c a6bb
000000c0: 3cab 39bc 77dc fe3b 8d86 15bc 1f53 b63b
000000d0: 8d8d f7bb e1ff 4cbb f4fa 833a 924c 193b
000000e0: ec5b 80bb 67c2 3abb 99ea 663b 752b 6d3b
000000f0: efac 163b c21e ca3b 5a30 943b 2dd0 c33a
00000100: 93b8 dc33 d8c5 0234 0b04 18b4 2238 0934
00000110: 0e0a c7b4 4990 4f34 03af 0034 7ffe e2b4
00000120: e1ea b433 ee24 d5b2 71b7 e233 48cc edb3
00000130: 88c2 1733 592d 8634 f4e2 e433 488c 1c34
00000140: d2f8 5634 42d0 b0b3 c7df 6834 70e2 1035
00000150: b525 2434 4f5d 7d34 c867 1334 44a0 2235
00000160: 1040 76b4 9172 c4b4 b6d7 a032 5d47 8d34
00000170: 981d 4a33 93b5 6a33 c93f ce31 cb5d 4034
00000180: d2fb dfb1 db34 fd31 8cd7 3c34 f90c 63b3
00000190: 18a3 8633 e592 9633 3b2c 3834 931a 5332
000001a0: a1da a8b3 bc99 ea33 2aa5 10b3 187d f033
000001b0: 8d6f 10b2 39e1 1135 27e4 82b4 cc2d 79b3
000001c0: d585 41b3 9f2f 5733 5a4e b0b1 caa1 32b4
000001d0: f30e 39b4 f721 54b3 d579 a6b2 4540 bab3
000001e0: a7f2 66b4 8783 7133 31ee 3bb4 76b7 abb3
000001f0: a917 a133 4973 6e33 1388 1531 14c3 5b34
00000200: fd2b f83a e347 e7ba a351 443b 0653 6ebb
00000210: 8c22 5b39 3188 d7ba a7b9 bebb 08cb bb3b
00000220: 30ff 0e3b acf4 47bb 563e aebb bb78 983c
00000230: f253 b43b fc62 473c e1ec 40bc c44b 9c3b
00000240: 5ace d7bb 3928 04bc 5444 1f3b 2cfa 05bb
00000250: b880 86bc ae4a ecbb 3c02 983a 6b6e 70bb
00000260: a974 08bb 7642 b2bc a4d1 0c3c b275 c33a
00000270: a327 d7b9 8eec 143c adec debb 013f 75ba
00000280: b396 663b c30c 293c 561d 98bc 125a b8bb
00000290: f41a 733b 4e3d 993b 60e1 993a 8f85 d8bb
000002a0: 1e4e cc3a fdb4 acbb d6e1 7dbc 753b e13b
000002b0: 2b56 f5b9 3251 713c 2d5a d7bb 8d3e 2bbb
000002c0: 71f0 e0bb 59b3 1fb9 2190 b1bc 8c54 7cbc
000002d0: 14dd 733b 8ffe 25bc 6936 07bb dd5f 773c
000002e0: 76bb 3fbc ad22 573a d488 bebb 4ce6 603c
000002f0: cf07 8d3c bbc4 8a3c a57e 613c 5f1a cb3b

transformer.layers.0.self_attn.out_proj.weight f4 [64, 64]
0.005179431 -0.03500154 -0.06287338 -0.019576643 -0.026298907 0.03182914 0.01127302 0.045387823
0.019555882 0.008649531 0.019456608 -0.028895598 -0.027670138 -0.044177778 0.012750622 0.03821568
-0.005690874 0.0042399517 -0.009191249 -0.0067149824 0.035570584 0.003706571 -0.031204104 0.010168659
0.0039971326 0.018854612 0.01622022 -0.026731279 -0.001093698 0.00059444277 0.0026799587 -0.0026064303
-0.018591873 -0.015900353 0.035207983 -0.004083122 0.011628055 0.02599741 -0.029434558 -0.011673048
0.016565764 -0.013993919 -0.011024432 -0.028651938 0.00919944 0.014223907 0.041589603 -0.0059986482
0.030309234 -0.026344016 0.0026032755 0.024118176 -0.04127585 0.008629895 -0.0037456134 -0.030949136
-0.013265581 0.0034330832 0.005703029 0.014065838 0.012832623 -0.033865806 -0.01537967 -0.021893429
-0.05646584 -0.010911733 -0.02698549 0.020908354 -0.008476187 -0.04329741 0.0046199625 0.0043525393
0.027827827 0.013213404 0.037373263 -0.027576718 -0.0034753429 -0.0018009054 0.003384041 -0.024910424
0.014644058 -0.026536703 -0.034948744 -0.035938136 -0.0027859672 0.010517514 -0.03130121 -0.0025517698
0.008850711 0.0049486035 -0.02521804 -0.021979338 0.022243356 0.007265397 0.009476281 -0.016853623
0.0064110043 0.0022101996 -0.01376728 0.027554484 0.013121099 -0.018703105 0.018683808 -0.0064614112
-0.0062063453 0.015752248 -0.0150176035 -0.00055938377 0.0051611457 -0.01828507 0.031611234 -0.037368573
-0.026256813 -0.019572502 -0.029541736 0.0027358944 0.019168606 0.04935638 -0.009194044 -0.03802489
-0.028046574 0.034031298 -0.043964203 0.010442072 0.0021996996 -0.02058466 -0.010299024 -0.013586405
0.009554932 0.02372856 -0.021783259 -0.0040097437 0.029106803 0.009133095 0.0026775568 -0.0064511793
-0.029985903 0.033235926 -0.012443804 0.020475576 -0.017129822 0.014211017 0.017132899 -0.00660629
-0.017089156 -0.00039569542 -0.0019930531 0.013884916 0.016608218 0.04315032 -0.009150172 0.011949586
-0.0043535987 0.021934438 0.08417987 0.015416996 0.029810827 -0.006559547 -0.024179468 0.028589763
0.043929562 0.011397866 0.0034180125 -0.008686099 -0.0010504741 0.027612224 -0.0017868169 -0.029653968
-0.011910044 0.007856407 -0.008057592 -0.016568342 0.0031481835 0.01564496 -0.015429915 -0.021875601
-0.01561385 -0.0061208946 0.03465502 -0.017121037 0.00032299157 -0.017187541 -0.009786112 -0.0051275077
0.0032613361 -0.0128757525 0.0041837874 -0.004230282 0.012883035 -0.022111515 0.030119583 0.019812297
0.007871323 -0.00067640917 -0.015799135 -0.002559359 0.0048227776 -0.014323818 0.0058099083 0.029268362
-0.010580882 0.0021092712 0.013159221 0.024027476 0.0075277616 0.007995429 0.0023520084 -0.01034985
0.01868303 0.033349864 -0.026364705 0.043335766 0.022857247 0.060680192 0.0064504575 0.010353139
0.015330389 0.023230629 -0.004737703 0.017004019 -0.020378558 0.0026217045 -0.00022942918 0.015620004
-0.0043309424 -0.0010375155 0.012675087 -0.0098814685 -0.00934748 0.014392543 0.03972265 -0.02637088
-0.007594141 0.021317773 -0.019308958 0.015024819 0.0068147103 -0.00834312 0.035394184 -0.038759742
-0.0032513186 0.0063005183 0.05393733 0.03919696 -0.033583157 0.021491308 -0.039606236 -0.014890379
-0.017347535 -0.014084008 0.030291349 0.0150843365 -0.037163284 0.019074049 -0.03373614 0.028442403
00000000: 37b8 a93b c65d 0fbd c2c3 80bd 325f a0bc
00000010: ce70 d7bc 465f 023d 79b2 383c 95e8 393d
00000020: a833 a03c c3b6 0d3c 7763 9f3c 76b6 ecbc
00000030: 7cac e2bc c2f3 34bd fce7 503c 0b88 1c3d
00000040: 837a babb 4bef 8a3b e496 16bc 5b09 dcbb
00000050: 76b2 113d f1e9 723b c09f ffbc 729a 263c
00000060: 61fa 823b fd74 9a3c 44e0 843c 8efb dabc
00000070: 6a5a 8fba 61d4 1b3a 3fa2 2f3b a5d0 2abb
00000080: fc4d 98bc 7541 82bc 3f36 103d b6cb 85bb
00000090: 9983 3e3c 85f8 d43c be20 f1bc 5040 3fbc
000000a0: edb4 873c c046 65bc d29f 34bc 78b7 eabc
000000b0: 3fb9 163c 640b 693c dc59 2a3d 4f90 c4bb
000000c0: 124b f83c 68cf d7bc b79b 2a3b 7b93 c53c
000000d0: de10 29bd 6764 0d3c f778 75bb 0b89 fdbc
000000e0: e157 59bc 94fd 603b 7ae0 ba3b 6774 663c
000000f0: ec3f 523c dfb6 0abd 03fb 7bbc d959 b3bc
00000100: ba48 67bd 20c7 32bc ad10 ddbc ff47 ab3c
00000110: b4df 0abc a058 31bd 0e63 973b bf9f 8e3b
00000120: 2ff7 e33c 097d 583c b514 193d 92e8 e1bc
00000130: 94c2 63bb 5c0c ecba c9c6 5d3b f210 ccbc
00000140: a2ed 6f3c 8063 d9bc 6a26 0fbd de33 13bd
00000150: c694 36bb a751 2c3c b335 00bd 983b 27bb
00000160: 9302 113c e527 a23b 1096 cebc 030e b4bc
00000170: b337 b63c 9112 ee3b 6742 1b3c 9c10 8abc
00000180: 6713 d23b ffd8 103b 2890 61bc f1b9 e13c
00000190: e1f9 563c 4137 99bc c90e 993c 3fba d3bb
000001a0: 995e cbbb dc0a 813c 650c 76bc 9ca3 12ba
000001b0: d41e a93b 92ca 95bc c87a 013d ca0f 19bd
000001c0: 8718 d7bc 8356 a0bc 8301 f2bc b14c 333b
000001d0: 7b07 9d3c ea29 4a3d 9ea2 16bc fdbf 1bbd
000001e0: eec1 e5bc 6764 0b3d cf13 34bd 3915 2b3c
000001f0: d628 103b 29a1 a8bc 3dbd 28bc 8399 5ebc
00000200: 4a8c 1c3c 6662 c23c ce72 b2bc 2b64 83bb
00000210: 6471 ee3c faa2 153c f379 2f3b 6a64 d3bb
00000220: ffa4 f5bc 6522 083d 19e1 4bbc 65bc a73c
00000230: d753 8cbc 53d5 683c 4b5a 8c3c 9479 d8bb
00000240: 8ffe 8bbc 5775 cfb9 e29d 02bb 8f7d 633c
00000250: f50d 883c 64be 303d 9aea 15bc 32c8 433c
00000260: a2a8 8ebb daaf b33c 7f66 ac3d 9197 7c3c
00000270: d635 f43c 78f1 d6bb 0514 c6bc 1435 ea3c
00000280: 7cef 333d 1dbe 3a3c bc00 603b 2450 0ebc
00000290: 10b0 89ba 0833 e23c a033 eaba e1ec f2bc
000002a0: 5822 43bc 29b8 003c fe03 04bc 55ba 87bc
000002b0: c151 4e3b dc29 803c c1cd 7cbc 7634 b3bc
000002c0: 3cd1 7fbc c991 c8bb 6cf2 0d3d 6b41 8cbc
000002d0: 3257 a939 e3cc 8cbc ee55 20bc a704 a8bb
000002e0: 24bc 553b d2f4 52bc 2718 893b 2d9e 8abb
000002f0: 5d13 533c 3523 b5bc 58bd f63c 664d a23c
00000300: b9f6 003c 0d51 31ba 306d 81bc ebba 27bb
00000310: 6408 9e3b 72ae 6abc 0b61 be3b 34c4 ef3c
00000320: 705b 2dbc b33b 0a3b c699 573c 45d5 c43c
00000330: 71ab f63b 43ff 023c 2724 1a3b 6b92 29bc
00000340: 270d 993c de99 083d cbfa d7bc d880 313d
00000350: 1f3f bb3c cb8b 783d 5c5e d33b 36a0 293c
00000360: 502c 7b3c 294e be3c bc3e 9bbb 034c 8b3c
00000370: eff0 a6bc e7d0 2b3b ed92 70b9 0ceb 7f3c
00000380: 94ea 8dbb 3efd 87ba 2bab 4f3c e2e5 21bc
00000390: 2c26 19bc b3ce 6b3c 38b4 223d be07 d8bc
000003a0: 46d8 f8bb 9ca2 ae3c d22d 9ebc a92a 763c
000003b0: ef4d df3b 95b1 08bc 7ef9 103d 89c2 1ebd
000003c0: 1314 55bb 9474 ce3b 64ed 5c3d fe8c 203d
000003d0: 7e8e 09bd 8a0e b03c 263a 22bd c7f6 73bc
000003e0: 6b1c 8ebc 9cc0 66bc 9025 f83c 4b24 773c
000003f0: 8738 18bd 2e41 9c3c e82e 0abd 0b00 e93c

transformer.layers.0.self_attn.out_proj.bias f4 [64]
0.006932981 0.0042713983 -0.0020646497 0.008396871 0.0005925102 0.0042354297 -0.0034919833 -0.0014989395
0.0056051933 -0.012194215 0.008420188 -0.008211109 -0.010347134 -0.00883868 0.0063085402 -0.008314789
-0.0030864605 0.007447275 0.0071882242 0.0038688672 -0.005215723 -0.008036514 0.00572978 -0.0064874873
0.0037706322 -0.0054120906 -0.009487946 0.0041249264 -0.0034548799 -0.006123616 -0.0028863745 0.0048721274
0.0015132152 -0.0059159757 0.0038612077 0.002526616 0.009336591 0.004776762 -0.0075367508 -0.0023555518
-0.00694931 0.0065358873 0.0023750286 -0.010543545 -0.0076721213 -0.0054351212 0.004028735 -0.0051424666
0.009740514 0.0061214957 0.0036744114 0.007490397 0.0106308535 -0.00056678074 -0.010832618 0.008181112
-0.00466352 0.011614518 0.005240301 0.005729204 -0.0049283355 0.009018756 0.0007291153 0.003922974
00000000: 0f2e e33b 16f7 8b3b 134f 07bb 0893 093c
00000010: b052 1b3a 5cc9 8a3b c2d9 64bb 1078 c4ba
00000020: c5ab b73b 3fca 47bc d4f4 093c e387 06bc
00000030: 0787 29bc 1cd0 10bc dfb7 ce3b c13a 08bc
00000040: 3746 4abb 4508 f43b 328b eb3b d28c 7d3b
00000050: a8e8 aabb 95ab 03bc e1c0 bb3b fd94 d4bb
00000060: b61c 773b e857 b1bb 5473 1bbc 642a 873b
00000070: 446b 62bb 9da8 c8bb 5429 3dbb 5ea6 9f3b
00000080: 1457 c63a cdda c1bb 510c 7d3b 9595 253b
00000090: 80f8 183c 6286 9c3b d9f6 f6bb 9a5f 1abb
000000a0: 0ab7 e3bb ff2a d63b 5ea6 1b3b d5be 2cbc
000000b0: 6b66 fbbb 1a19 b2bb 7b03 843b 2382 a8bb
000000c0: ad96 1f3c d496 c83b 65ce 703b 0172 f53b
000000d0: 082d 2e3c 0394 14ba 4b7b 31bc 120a 063c
000000e0: 71d0 98bb d24a 3e3c d5b6 ab3b 0cbc bb3b
000000f0: e07d a1bb 68c3 133c 1922 3f3a 4b8c 803b

transformer.layers.0.linear1.weight f4 [128, 64]
0.0070614754 0.008522212 -0.0050818822 -0.017873624 -0.02691367 -0.033784278 -0.00058861193 0.029392721
0.029539965 -0.027003575 -0.023772148 -0.012968378 -0.02091107 0.0036621427 0.014118975 0.05081622
-0.01877492 -0.005365709 -0.03294236 -0.017711509 -0.012550536 -0.053240027 0.019209309 -0.0591242
0.016269129 0.0016037491 -0.030219508 -0.0041469983 -0.04110591 0.0011585596 -0.030525962 0.026043087
-0.009578415 -0.026140828 0.023181586 0.041882563 0.012941226 0.021811934 -0.017605191 -0.00069861
-0.037902184 0.027773155 0.012303768 -0.04542143 -0.039963808 0.013240254 0.007724637 -0.00855037
0.002187166 0.017093342 0.031830516 0.028861964 0.010922258 -0.0063985097 -0.013964842 0.05120502
-0.0057232175 0.0011030706 0.0021635531 -0.001973443 -0.0333895 0.00155339 -0.019527825 0.05171225
0.0132068405 0.012367392 0.0032430151 -0.06886999 0.014919841 0.02204501 -0.015737763 0.0028815395
-0.019541973 0.020260707 -0.034778927 -0.016228937 0.036086045 0.06326503 -0.0065072286 0.006628839
-0.0017282744 0.024201477 -0.028566413 0.00910409 0.011359409 0.018527165 -0.03259583 0.017433537
-0.012153841 0.0038965545 0.030494668 -0.020075012 0.03205873 -0.0044055157 0.028922474 -0.001844337
0.0072791767 0.0022308277 -0.025880905 0.0337255 -0.009459883 0.08762239 0.016649263 -0.008347127
-0.02333646 0.003251888 0.017896598 -0.032974947 0.045451384 -0.038664274 -0.028132815 0.022549778
-0.030772878 -0.011058452 0.014668779 0.018393572 -0.0059790704 -0.018748762 -0.0073048472 0.016663194
0.015339144 -0.05083414 0.0077529955 -0.010887605 0.027009161 -0.006183531 -0.0371351 0.021889819
0.021775434 0.0023768074 -0.029585745 0.04990573 -0.014874093 0.029771691 -0.015531394 0.003611036
-0.009692223 0.0006175354 -0.0006606384 0.015994126 -0.06146781 -0.008346446 0.048754595 -0.029997868
0.01932308 -0.003385895 0.01578726 0.016255686 -0.007207297 0.004135949 0.031195818 0.008193211
0.021320514 -0.016453417 0.029965712 0.011979435 0.00023705448 -0.032934155 -0.018216012 -0.029749911
-0.056731038 -0.019154074 -0.019121412 0.013963302 0.021233262 0.0047436403 0.009236403 0.010897837
0.012297625 -0.007550129 -0.008124388 0.027753882 -0.0458901 -0.029654238 0.0065724 -0.0045983423
0.017892634 0.017571157 0.050810993 0.017400732 0.010895358 0.02870512 0.02832408 0.041184507
0.024257535 0.014740758 -0.012992444 -0.042753845 0.017687349 -0.06729946 0.03585083 0.06172834
-0.020358833 -0.008685769 -0.06031809 0.049718358 0.009092415 0.021198485 -0.04250465 -0.034621075
0.02244858 0.008554963 0.04728578 -0.03670281 -0.05589845 -0.0008917414 0.027018797 -0.0066764117
-0.007896345 0.0046409075 0.0027536375 0.009420968 -0.052991655 0.0056304396 0.012046012 0.017943727
0.017554907 -0.043547295 0.037615016 0.0009311659 0.009879092 -0.011637647 -0.01867207 0.006293425
0.005133622 -0.009654414 -0.020153979 0.026352545 0.046854813 0.0025186809 -0.01928465 0.021095822
0.03231114 0.008266152 0.0015888349 0.013430392 -0.020475391 0.021069136 -0.012271437 -0.0339383
0.025141545 -0.031322822 0.046555147 0.011012337 0.028318306 0.026524818 0.015319403 0.018939551
-0.019177988 0.018457897 -0.0017186647 0.004684025 0.00013112849 -0.022534909 0.045511555 -0.00032073105
00000000: f363 e73b bfa0 0b3c eb85 a6bb b56b 92bc
00000010: 0f7a dcbc 6261 0abd 144d 1aba 01c9 f03c
00000020: ccfd f13c 9a36 ddbc cfbd c2bc 5279 54bc
00000030: b14d abbc 8f00 703b 4653 673c ab24 503d
00000040: dccd 99bc d4d2 afbb 91ee 06bd ba17 91bc
00000050: c3a0 4dbc 3712 5abd d75c 9d3c 382c 72bd
00000060: d646 853c e434 d23a e78e f7bc 8be3 87bb
00000070: ac5e 28bd cfda 973a 9511 fabc 5058 d53c
00000080: c9ee 1cbc 4a25 d6bc 4fe7 bd3c 0d8d 2b3d
00000090: 7007 543c f1ae b23c c338 90bc ec22 37ba
000000a0: 523f 1bbd 8784 e33c be95 493c d20b 3abd
000000b0: 17b1 23bd a6ed 583c f41e fd3b da16 0cbc
000000c0: 8e56 0f3b 5607 8c3c b760 023d ed6f ec3c
000000d0: 45f3 323c 97aa d1bb cbcc 64bc 5bbc 513d
000000e0: d489 bbbb e894 903a 66ca 0d3b e154 01bb
000000f0: 6ec3 08bd 1e9b cb3a d1f8 9fbc 39d0 533d
00000100: 8161 583c 9aa0 4a3c c488 543b b60b 8dbd
00000110: 5972 743c bd97 b43c 7bec 80bc 36d8 3c3b
00000120: 7d16 a0bc c8f9 a53c 5974 0ebd 8cf2 84bc
00000130: f6ce 133d 1991 813d 973a d5bb bb36 d93b
00000140: 4487 e2ba 2d42 c63c 1c04 eabc 5229 153c
00000150: d11c 3a3c 48c6 973c 3483 05bd c7d0 8e3c
00000160: e720 47bc 565d 7f3b f4cf f93c 5a74 a4bc
00000170: 0450 033d 255c 90bb d3ee ec3c aebd f1ba
00000180: 2986 ee3b 1433 123b 3104 d4bc c023 0a3d
00000190: a0fd 1abc 5e73 b33d 0964 883c 63c2 08bc
000001a0: 1b2c bfbc a11d 553b e39b 923c bd10 07bd
000001b0: 3b2b 3a3d 6e5e 1ebd ca76 e6bc 50ba b83c
000001c0: 6717 fcbc 822e 35bc 5255 703c 1eae 963c
000001d0: 14ec c3bb 0197 99bc 805d efbb 4081 883c
000001e0: 0851 7b3c 7637 50bd d70c fe3b ed61 32bc
000001f0: 5142 dd3c 389f cabb fa1a 18bd 4752 b33c
00000200: 6562 b23c 36c4 1b3b ce5d f2bc f369 4c3d
00000210: 78b2 73bc c3e3 f33c 6377 7ebc 22a7 6c3b
00000220: 21cc 1ebc 19e2 213a b12e 2dba 1d06 833c
00000230: acc5 7bbd 88bf 08bc e6b2 473d 17be f5bc
00000240: 704b 9e3c e4e5 5dbb 4954 813c a52a 853c
00000250: 302b ecbb db86 873b 5f8e ff3c d13c 063c
00000260: 5ca8 ae3c 51c9 86bc a77a f53c 6445 443c
00000270: d491 7839 f7e5 06bd bf39 95bc 16b6 f3bc
00000280: ce5e 68bd 01e9 9cbc 82a4 9cbc 55c6 643c
00000290: 61f1 ad3c 8a70 9b3b 4854 173c d78c 323c
000002a0: fa7b 493c 1367 f7bb 271c 05bc 1c5c e33c
000002b0: 42f7 3bbd 72ed f2bc 4a5d d73b b1ad 96bb
000002c0: 9393 923c 63f1 8f3c 301f 503d fb8b 8e3c
000002d0: 7282 323c 0027 eb3c e707 e83c 16b1 283d
000002e0: bdb7 c63c 3883 713c 43de 54bc a81e 2fbd
000002f0: 0fe5 903c 4dd4 89bd 52d8 123d dbd6 7c3d
00000300: 91c7 a6bc c14e 0ebc 1a10 77bd 7aa5 4b3d
00000310: 5af8 143c 72a8 ad3c 5b19 2ebd d4ce 0dbd
00000320: 16e6 b73c 1e2a 0c3c bcae 413d b055 16bd
00000330: c6f5 64bd c1c3 69ba 8656 dd3c cdc5 dabb
00000340: ac5f 01bc c112 983b 5f76 343b 675a 1a3c
00000350: c70d 59bd 8d7f b83b a35c 453c b9fe 923c
00000360: 4fcf 8f3c a65e 32bd 3412 1a3d 7c19 743a
00000370: eadb 213c d4ab 3ebc 2bf6 98bc 1339 ce3b
00000380: f137 a83b 8c2d 1ebc f519 a5bc 4be1 d73c
00000390: d5ea 3f3d 7410 253b d8fa 9dbc 25d1 ac3c
000003a0: b058 043d c16e 073c 7440 d03a 260b 5c3c
000003b0: 02bc a7bc 2e99 ac3c 230e 49bc e302 0bbd
000003c0: a4f5 cd3c 5c4c 00bd 9cb0 3e3d 176d 343c
000003d0: cbfb e73c 934a d93c 3cfe 7a3c 1e27 9b3c
000003e0: 281b 9dbc 0435 973c d144 e1ba 737c 993b
000003f0: 897f 0939 219b b8bc 536a 3a3d cb27 a8b9

transformer.layers.0.linear1.bias f4 [128]
0.015747288 -0.028837452 -0.00047165414 0.017070916 0.009464995 0.007524337 -0.005288409 -0.010474429
-0.007628667 0.016042178 -0.0094882585 0.0131124165 0.00572431 0.018276047 0.018802768 0.00066238316
0.018924672 0.01120014 0.013562558 0.0088024195 0.0039005885 0.016399274 -0.002883954 0.025745103
0.005702667 0.014254641 0.0038919267 0.02303721 -0.013396674 -0.0048452574 -0.009885666 0.015165447
0.010459561 0.006557754 -0.012245191 -0.01225248 0.0028669292 -0.010219649 0.026182713 0.014507036
0.016599597 0.009320292 0.007805697 0.0056686704 -0.0083463 0.028481022 -0.020998137 0.013144088
0.0058887126 -0.007301613 -0.016262583 0.024711845 0.0135819195 -0.015722467 0.01356597 0.006687958
-0.0038223932 0.014154967 0.0075180093 0.022590123 -0.002417287 -0.008590056 -0.002207562 -0.0012554466
0.007922672 0.006143749 0.0067200144 0.0062041664 0.024326352 0.015013291 0.0063714767 0.018386472
0.0030998578 -0.006327234 0.021214494 0.008496681 -0.004467314 -0.00416335 0.01719335 -0.0018801492
-0.0014626352 -0.0005992877 -0.0043922924 0.017690687 0.01656471 0.010690986 0.011253544 -0.031615354
0.026035773 -0.008421553 -0.01426221 0.020452637 0.017934091 -0.00963856 0.0028375816 -0.002839611
-0.0023060436 0.007854393 0.02739602 0.013912727 0.005877775 0.00094184326 0.0021831202 0.016292822
-0.005385826 -0.012666923 0.00051303406 0.017277945 0.013867519 0.015259104 -0.0222632 0.005450746
-0.0006639939 0.015135248 -0.012116049 0.0082299365 0.016693484 0.016048005 0.017481036 0.022307293
0.014070426 0.016681708 0.024359567 -0.0005265948 0.029088836 0.0034664634 0.009488466 0.018146321
00000000: 7500 813c 853c ecbc 5948 f7b9 4ed8 8b3c
00000010: 1113 1b3c b78e f63b 644a adbb f09c 2bbc
00000020: e6f9 f9bb e36a 833c a474 1bbc 76d5 563c
00000030: fe92 bb3b a6b7 953c 4308 9a3c c8a3 2d3a
00000040: ea07 9b3c cb80 373c 7e35 5e3c 0638 103c
00000050: 04a1 7f3b c557 863c b800 3dbb 65e7 d23c
00000060: 70dd ba3b 4c8c 693c b20f 7f3b 88b8 bc3c
00000070: b97d 5bbc f7c4 9ebb 7df7 21bc 7f78 783c
00000080: 945e 2b3c 6de2 d63b 0ea0 48bc a0be 48bc
00000090: 17e3 3b3b 5170 27bc 217d d63c ebae 6d3c
000000a0: e1fb 873c 23b4 183c efc6 ff3b 41c0 b93b
000000b0: ebbe 08bc 0851 e93c 4904 acbc 4d5a 573c
000000c0: 1af6 c03b 5f42 efbb 1c39 85bc 7f70 ca3c
000000d0: b386 5e3c 67cc 80bc cd43 5e3c a826 db3b
000000e0: 1e81 7abb 3cea 673c a259 f63b ec0e b93c
000000f0: 596b 1ebb 4ebd 0cbc bfac 10bb cc8d a4ba
00000100: 18ce 013c 8151 c93b 9133 dc3b 524c cb3b
00000110: 0f48 c73c 4efa 753c d2c7 d03b 3a9f 963c
00000120: fc26 4b3b b054 cfbb 05ca ad3c aa35 0b3c
00000130: 8c62 92bb b66c 88bb 11d9 8c3c 576f f6ba
00000140: e5b5 bfba 8419 1dba 38ed 8fbb 0fec 903c
00000150: b7b2 873c 3f29 2f3c c960 383c 1a7f 01bd
00000160: f948 d53c 8efa 09bc 0bac 69bc 4a8c a73c
00000170: 84ea 923c 0deb 1dbc b8f6 393b c418 3abb
00000180: fe20 17bb b6af 003c 9e6d e03c 35f2 633c
00000190: 5a9a c03b 08e6 763a ae12 0f3b 8678 853c
000001a0: 957b b0bb ed88 4fbc 227d 063a 7a8a 8d3c
000001b0: 9734 633c 5201 7a3c 5061 b6bc 2c9c b23b
000001c0: e00f 2eba d5f9 773c 6582 46bc dbd6 063c
000001d0: c6c0 883c 1b77 833c 6434 8f3c c9bd b63c
000001e0: a587 663c 14a8 883c b78d c73c 2e0b 0aba
000001f0: b64b ee3c 9b2d 633b 8375 1b3c 98a7 943c

transformer.layers.0.linear2.weight f4 [64, 128]
0.04210231 -0.009385778 0.018868681 0.022020783 0.0256633 -0.0026902226 -0.012337731 0.04661612
0.029211132 -0.010229804 0.010311786 0.018915175 -0.0038699475 -0.02912353 0.011824761 0.014308096
-0.0016472267 0.06520687 -0.011233987 0.008335789 0.0069380486 0.0169228 0.03756526 0.011909459
0.017659826 -0.020506097 0.0034910585 -0.033569835 0.022954514 0.023353009 0.014446634 -0.04815149
-0.011291292 -0.03716555 0.01960157 0.03767611 0.02357867 0.017880863 -0.02762494 0.00025022167
-0.04139882 0.029701477 -0.03403242 0.01432608 0.036928505 0.0017503424 -0.031061484 -0.04162939
0.0053431527 -0.026607482 0.023892727 -0.0106702335 0.05027446 0.027274543 -0.015320594 -0.034871683
0.042342518 0.017243993 0.013089551 -0.02614079 -0.0019237434 -0.0053234138 -0.035792474 -0.012729147
-0.023134375 0.0317682 -0.040073477 0.028151777 -0.021151198 -0.039706822 0.0154832145 -0.017358068
0.007908219 0.033970635 -0.031091997 -0.03414923 0.047409985 0.000893318 -0.031362027 0.0100492
0.023353603 0.018447857 0.0252375 0.009945507 -0.020141441 -0.04340645 0.009465773 0.021521742
-0.03163907 0.007135113 0.002367094 -0.0037705412 -0.007536905 0.032768756 0.02060725 -0.004924963
0.03585444 0.04105186 0.023555089 0.008800244 -0.01582389 0.050603107 0.016404996 -0.022734912
0.010390557 -0.054198314 0.019940725 -0.034931846 -0.008628347 0.003253894 0.0015731164 0.032148175
0.01459836 0.019855527 0.051004715 -0.02224131 -0.009227071 -0.0020183134 -0.0048705637 0.00875264
0.029910335 -0.0070538586 0.0016702432 0.014884737 -0.019064065 -0.002767716 0.008698424 -0.0017304407
-0.04446589 -0.037667178 0.0031445383 -0.044475324 0.025828753 0.048792172 0.034292176 0.028293591
0.0281847 -0.029387953 0.037303206 -0.021534348 -0.03060508 0.031383608 -0.058046162 -0.05744607
-0.0056952587 0.011272092 -0.021452855 -0.045104496 -0.032105032 -0.011461255 0.057101775 -0.017024154
0.033907067 -0.016997041 0.049257457 -0.06464608 0.03659883 0.010278899 0.025656242 -0.019912262
-0.032200273 0.01299306 -0.0010205478 0.04422976 0.037914187 -0.0052282605 -0.01969953 -0.033196375
-0.026517116 0.0028714938 -0.004545824 0.019820584 0.034445833 -0.02714953 -0.017323518 -0.03320327
-0.013187307 -0.023903305 0.029197041 -0.034976505 0.0073520965 0.017146574 -0.021966174 -0.03868084
0.039281197 0.00543352 0.024892746 -0.011883744 -0.021789666 0.042490147 0.050713006 0.0008602693
0.005897028 0.032929208 -0.03606432 -0.02729205 -0.012743119 -0.008653962 0.03451572 -0.084805965
0.025351245 0.036223564 -0.03539485 -0.017634507 0.015073729 0.04114765 -0.013088157 0.023387661
0.008660588 0.023405116 0.008071535 -0.06793319 -0.0047759223 -0.0009766927 0.01630571 -0.00087534706
-0.047880862 0.03647791 -0.015925424 -0.025322653 -0.06392064 0.014744475 -0.028320206 -0.041762836
-0.0042716884 -0.012258897 -0.020504614 -0.042156853 0.026488429 0.031664632 0.0001295027 -0.04638809
0.018001001 -0.00062325137 0.023738181 -0.064691514 -0.041066788 -0.004738345 0.015153131 0.045859534
-0.008038334 -0.031770043 0.031764213 -0.02173629 -0.019451827 -0.019524194 -0.036325235 -0.009274423
-0.014716081 -0.06386727 -0.01651843 0.011102715 0.004120792 0.0022355136 -0.048063423 -0.020379636
00000000: 7973 2c3d cec6 19bc 7e92 9a3c ee64 b43c
00000010: d73b d23c 724e 30bb 3224 4abc 8bf0 3e3d
00000020: 2f4c ef3c e89a 27bc c4f2 283c fff3 9a3c
00000030: f29e 7dbb 7894 eebc a4bc 413c 816c 6a3c
00000040: c2e7 d7ba 2e8b 853d c20e 38bc d592 083c
00000050: 9258 e33b afa1 8a3c 08de 193d e41f 433c
00000060: 57ab 903c 67fc a7bc 3eca 643b 8680 09bd
00000070: 1b0b bc3c cf4e bf3c 93b1 6c3c 7f3a 45bd
00000080: 1cff 38bc e73a 18bd 7993 a03c 4452 1a3d
00000090: 0e28 c13c e37a 923c b34d e2bc 2f30 8339
000000a0: cf91 29bd 8350 f33c 9465 0bbd efb7 6a3c
000000b0: 5842 173d bf6b e53a a774 febc 9483 2abd
000000c0: 9d15 af3b eff7 d9bc aeba c33c 34d2 2ebc
000000d0: 98ec 4d3d dd6e df3c 3b03 7bbc 9cd5 0ebd
000000e0: 596f 2d3d 4643 8d3c 8e75 563c 3625 d6bc
000000f0: 1e26 fcba 0870 aebb 219b 12bd ea8d 50bc
00000100: 4d84 bdbc 5f1f 023d 1624 24bd 8e9e e63c
00000110: 4745 adbc 9fa3 22bd 4fad 7d3c 8232 8ebc
00000120: 7991 013c cb24 0b3d a5b4 febc 10e0 0bbd
00000130: f930 423d 8e2d 6a3a 7875 00bd 66a5 243c
00000140: 0e50 bf3c f61f 973c e0be ce3c 7bf2 223c
00000150: aaff a4bc f6ca 31bd 5416 1b3c 5d4e b03c
00000160: f897 01bd aacd e93b 3f21 1b3b 2f1b 77bb
00000170: 24f8 f6bb 8838 063d 89d0 a83c 9661 a1bb
00000180: 1bdc 123d ff25 283d 9af6 c03c e62e 103c
00000190: 1aa1 81bc 3445 4f3d c563 863c 913e babc
000001a0: 283d 2a3c 0dff 5dbd bb5a a33c b214 0fbd
000001b0: e95d 0dbc 483f 553b 0731 ce3a cead 033d
000001c0: f62d 6f3c 0fa8 a23c 52ea 503d 6833 b6bc
000001d0: 242d 17bc ae45 04bb 4099 9fbb 3c67 0f3c
000001e0: 8506 f53c 0e24 e7bb 10ec da3a 1ddf 733c
000001f0: 3e2c 9cbc 9262 35bb d683 0e3c f4cf e2ba
00000200: dd21 36bd e648 1abd 9914 4e3b c22b 36bd
00000210: d296 d33c 4dda 473d f475 0c3d f6c7 e73c
00000220: 9ae3 e63c 01bf f0bc 3fcb 183d cd68 b0bc
00000230: 81b7 fabc 198c 003d d0c1 6dbd 924c 6bbd
00000240: 4b9f babb 95ae 383c e6bd afbc 7ebf 38bd
00000250: 9180 03bd fdc7 3bbc 8de3 693d 3d76 8bbc
00000260: 23e2 0a3d 613d 8bbc 30c2 493d 2a65 84bd
00000270: a8e8 153d d468 283c 0a2d d23c 0a1f a3bc
00000280: 6fe4 03bd d8e0 543c e7c3 85ba 442a 353d
00000290: e84b 1b3d d451 abbb e960 a1bc ecf8 07bd
000002a0: 6c3a d9bc ac2f 3c3b 23f5 94bb c75e a23c
000002b0: 1317 0d3d b168 debc 0dea 8dbc 2700 08bd
000002c0: 930f 58bc ddd0 c3bc a22e ef3c 8643 0fbd
000002d0: dbe9 f03b f976 8c3c 68f2 b3bc cd6f 1ebd
000002e0: 52e5 203d ab0b b23b dfeb cb3c 09b4 42bc
000002f0: 3e80 b2bc 260a 2e3d 71b8 4f3d b283 613a
00000300: db3b c13b c7e0 063d 2eb8 13bd 9493 dfbc
00000310: 84c8 50bc 59c9 0dbc 5b60 0d3d c0ae adbd
00000320: 6aad cf3c 295f 143d 31fa 10bd 3e76 90bc
00000330: cdf7 763c 708a 283d b66f 56bc 7b97 bf3c
00000340: 24e5 0d3c 16bc bf3c 793e 043c 8e20 8bbd
00000350: 577f 9cbb 5e04 80ba 8d93 853c 8c77 65ba
00000360: b91e 44bd dc69 153d 0976 82bc 7471 cfbc
00000370: d3e8 82bd cf92 713c c7ff e7bc 820f 2bbd
00000380: 85f9 8bbb 8ad9 48bc 4bf9 a7bc aaac 2cbd
00000390: 43fe d83c c6b2 013d 1ecb 0739 7001 3ebd
000003a0: d676 933c b161 23ba 9376 c23c fc7c 84bd
000003b0: a635 28bd 1e44 9bbb d744 783c 35d7 3b3d
000003c0: 37b3 03bc 4e21 02bd 311b 023d 4e10 b2bc
000003d0: 7059 9fbc 34f1 9fbc c5c9 14bd c0f3 17bc
000003e0: b81b 71bc d8cc 82bd a951 87bc 29e8 353c
000003f0: b507 873b b281 123b 27de 44bd 32f3 a6bc

transformer.layers.0.linear2.bias f4 [64]
0.0033812714 -0.002249046 0.0025048668 0.016439844 0.0076399343 -0.0022229126 0.003189958 -0.009108901
0.010285015 -0.01728721 0.009108446 -0.012310432 -0.012274004 -0.0075767743 0.017607188 -0.0124990735
-0.0007168964 0.010824884 0.010706396 0.0034625146 -0.0059951507 -0.009758076 0.010155321 -0.009242423
0.0033558868 -0.0072678723 -0.011317803 0.0017594859 -0.008393506 -0.011696134 -0.005508006 0.0020748358
0.0031148766 -0.0032634258 0.008772604 -0.0034866533 0.017034616 0.00660461 -0.0090284655 -0.00053368614
-0.011981103 0.011080913 0.0057446705 -0.010000824 -0.011141704 -0.0039701136 0.0071770367 -0.0033780565
0.012236514 0.0038415615 0.010545282 0.009824936 0.011338832 0.0029312107 -0.010992251 0.013678522
-0.0127549535 0.017646044 0.0064533986 0.01334702 -0.0020977033 0.008607651 0.0025617701 -0.00085826596
00000000: 5298 5d3b bb64 13bb b128 243b daac 863c
00000010: 6a58 fa3b 49ae 11bb 9d0e 513b 803d 15bc
00000020: 7b82 283c e89d 8dbc 973b 153c b2b1 49bc
00000030: e718 49bc 9746 f8bb f33c 903c eac8 4cbc
00000040: 1aee 3bba db5a 313c e169 2f3c 5beb 623b
00000050: f872 c4bb 56e0 1fbc 8162 263c 886d 17bc
00000060: 70ee 5b3b 5527 eebb 4e6e 39bc 8d9e e63a
00000070: ea84 09bc 24a1 3fbc 817c b4bb f8f9 073b
00000080: f522 4c3b 33df 55bb f8ba 0f3c 5680 64bb
00000090: 2e8c 8b3c 7c6b d83b 21ec 13bc 12e7 0bba
000000a0: 634c 44bc b88c 353c ca3d bc3b 7fda 23bc
000000b0: b28b 36bc ba17 82bb 592d eb3b 6262 5dbb
000000c0: a97b 483c b5c2 7b3b 1ec6 2c3c c5f8 203c
000000d0: 82c6 393c 8e19 403b d818 34bc e11b 603c
000000e0: 27fa 50bc 708e 903c 0877 d33b 76ad 5a3c
000000f0: 9f79 09bb 1b07 0d3c 5fe3 273b 41fd 60ba
